lightning_logs/Layers_64/fold_3/checkpoints/last.ckpt (torch, 740177 bytes, 48 tensors)

classifier.1.weight f4 [64, 784]
0.005162116 0.016172947 0.02876167 0.0011063523 -0.007467401 0.0027554382 -0.026975878 -0.03732547
-0.050324317 -0.05514816 0.00196989 0.009376378 -0.016508996 -0.03325854 0.028262217 -0.03292001
-0.02809576 -0.019405043 0.0070906733 0.041389033 0.026127758 0.003958047 0.013085678 0.031195931
0.014877772 -0.014495421 -0.035619333 0.036372725 -0.008317383 0.010802087 -0.015580597 0.03717517
0.029949918 0.007959629 -0.025825221 0.020953989 -0.013461467 0.021922888 -0.0010904439 0.0048152125
-0.03863431 -0.042804193 -0.018601889 -0.02161603 0.01062308 -0.0015378299 -0.035003174 0.017538078
0.01113142 0.044373788 0.004472397 0.01631135 -0.014831027 0.015589344 -0.005573644 -0.031575043
0.0029641658 -0.02957398 -0.023683744 -0.006952231 -0.04460579 -0.034663793 0.024440952 0.014129345
-0.02682674 0.023498703 0.014936745 0.0245868 -0.02235517 -0.028011555 -0.0148127265 -0.008819295
0.025052642 0.033545252 -0.008895174 0.02455168 0.013891669 -0.008875919 -0.026651558 0.00469864
0.044051174 -0.010320453 -0.025227467 0.03949844 0.015847322 0.027411286 0.020247333 0.026209755
-0.027213208 0.0076038176 0.013132462 -0.029480072 -0.044046592 -0.0066566356 -0.029729456 0.0074034594
0.001800317 -0.007801302 0.0007981404 -0.006249512 -0.019110179 0.0022570577 0.025782643 -0.016513478
0.030719955 0.016901514 -0.013363594 0.04467147 -0.00674794 0.011914613 0.0037303998 0.020232404
-0.00180172 0.008660175 0.025286283 -0.047238976 -0.025192346 -0.02170512 -0.027914278 -0.030104443
-0.01077743 -0.010992168 0.016558765 -0.023119977 -0.014781031 -0.010416402 0.02280035 -0.0015233931
0.02886318 -0.014216704 0.026598075 0.020329816 0.014463837 -0.0042540124 -0.018162299 0.027797341
-0.019246774 0.008576621 -0.0024306409 0.029143495 -0.01893903 -0.029742045 -0.018492812 -0.01049147
-0.020172333 -0.0046322583 -0.0008989801 0.021706615 0.014424222 0.01805362 -0.03805108 -0.028600719
-0.03665093 -0.026069874 0.021920895 -0.026353367 0.026018307 -0.021182772 -0.013528831 0.011977285
-0.021770341 0.04888318 0.041112836 0.021017946 -0.025900202 -0.026872821 0.005219692 0.023693126
-0.038727492 0.0164001 -0.008826649 0.0027907307 -0.035223354 0.0015140799 0.022292856 -0.017163271
-0.026285147 -0.047841106 -0.03997863 -0.028416913 0.017169625 -0.020041525 0.004258121 0.03224568
0.02656184 0.01107252 0.005364136 0.011491889 0.033548106 0.047782525 0.006095766 0.023501288
-0.0073747826 0.03835251 0.016306661 0.04646232 -0.009911636 -0.010670707 -0.023959272 -0.04959278
-0.022345982 -0.041285515 0.019146435 -0.041248087 -0.046039157 0.008182985 0.008319608 0.016239682
0.018489951 0.00042880178 0.040726997 0.0030198824 0.037074804 -0.03244058 -0.03912794 0.0038906485
0.033047702 0.009958993 0.0430959 -0.01678718 0.02077473 0.020901153 0.04979917 0.005279567
-0.020834569 -0.027495064 0.019760665 -0.0008370108 0.0067637204 -0.0133516705 -0.03186193 -0.038608506
-0.039073106 -0.03655691 -0.050984535 -0.035495553 -0.017074147 -0.019960111 0.029447703 0.052553143
0.009797986 0.010749688 -0.006370206 -0.013166611 0.010355463 0.003409444 0.037972726 0.0010053248
0.019250717 0.005653466 -0.013165905 -0.01823917 0.005333376 -0.018685855 -0.03904421 0.001652978
00000000: f826 a93b 217d 843c 989d eb3c 0603 913a
00000010: 1ab1 f4bb 9594 343b 84fc dcbc 98e2 18bd
00000020: df20 4ebd 09e3 61bd 4519 013b 619f 193c
00000030: e03d 87bc 1b3a 08bd 2a86 e73c 22d7 06bd
00000040: 1429 e6bc 53f7 9ebc e158 e83b 8c87 293d
00000050: e109 d63c 81b2 813b 5065 563c 9c8e ff3c
00000060: e6c1 733c 347e 6dbc 94e5 11bd 91fb 143d
00000070: a245 08bc 3dfb 303c c345 7fbc fe44 183d
00000080: 8859 f53c 1b69 023c 6a8f d3bc b3a7 ab3c
00000090: 7c8d 5cbc a197 b33c 3aed 8eba eec8 9d3b
000000a0: 033f 1ebd 7353 2fbd fd62 98bc 1a14 b1bc
000000b0: 6d0c 2e3c 0291 c9ba 7d5f 0fbd 04ac 8f3c
000000c0: 8f60 363c 4ac1 353d 2f8d 923b 619f 853c
000000d0: d6fd 72bc 736a 7f3c 1da3 b6bb d554 01bd
000000e0: 7342 423b 2245 f2bc 6904 c2bc 8acf e3bb
000000f0: 90b4 36bd 9ffb 0dbd 6438 c83c c57e 673c
00000100: c0c3 dbbc 5a80 c03c 40b9 743c 426a c93c
00000110: 3122 b7bc 7d78 e5bc 14b1 72bc ce7e 10bc
00000120: 333b cd3c bf66 093d 10bd 11bc 9b20 c93c
00000130: e299 633c 4d6c 11bc 5e54 dabc 0df7 993b
00000140: 016f 343d 1e17 29bc d5a9 cebc 1ec9 213d
00000150: 3ed2 813c a28d e03c bcdd a53c d7b5 d63c
00000160: 3cee debc 7229 f93b 8a29 573c 3180 f1bc
00000170: 336a 34bd e81f dabb 308b f3bc b898 f23b
00000180: 9df8 eb3a 10a2 ffbb 4c3a 513a b5c8 ccbb
00000190: f38c 9cbc 25eb 133b 1f36 d33c 4647 87bc
000001a0: 6aa8 fb3c 0b75 8a3c faf2 5abc 6ef9 363d
000001b0: d31d ddbb 8235 433c b979 743b 6dbe a53c
000001c0: b127 ecba 68e3 0d3c 2e25 cf3c a87d 41bd
000001d0: 2e60 cebc f0ce b1bc 7cac e4bc 989d f6bc
000001e0: d193 30bc 7f18 34bc 3fa6 873c 1b66 bdbc
000001f0: 232c 72bc 8ea9 2abc cdc7 ba3c 97ac c7ba
00000200: 7a72 ec3c 2eed 68bc 35e4 d93c b78a a63c
00000210: bbf9 6c3c 3e65 8bbb 1ac9 94bc 40b7 e33c
00000220: 69ab 9dbc f584 0c3c 634b 1fbb 57be ee3c
00000230: 0626 9bbc 97a5 f3bc 3d7e 97bc 6ae4 2bbc
00000240: 7340 a5bc 33ca 97bb 89a9 6bba 12d2 b13c
00000250: 9253 6c3c 2fe5 933c 73db 1bbd 0e4c eabc
00000260: 491f 16bd 7d90 d5bc 7393 b33c 04e3 d7bc
00000270: 5824 d53c 7e87 adbc 08a8 5dbc 603c 443c
00000280: b757 b2bc bb39 483d ef65 283d d42d ac3c
00000290: a92c d4bc 6424 dcbc f309 ab3b 1618 c23c
000002a0: b8a0 1ebd 8159 863c a69d 10bc b1e4 363b
000002b0: 5d46 10bd 1774 c63a 829f b63c fd99 8cbc
000002c0: f353 d7bc 09f5 43bd a2c0 23bd 96ca e8bc
000002d0: 50a7 8c3c 202e a4bc b587 8b3b 0c14 043d
000002e0: 3798 d93c 8469 353c a2c5 af3b 7a48 3c3c
000002f0: bd69 093d 9cb7 433d febe c73b c685 c03c
00000300: 29a8 f1bb 8617 1d3d 8c95 853c 464f 3e3d
00000310: 6a64 22bc 30d4 2ebc 3c46 c4bc cd21 4bbd
00000320: ec0e b7bc 001b 29bd fcd8 9c3c c1f3 28bd
00000330: 8e93 3cbd ed11 063c f74e 083c 1509 853c
00000340: 3d78 973c cdd0 e039 5ad1 263d 38e9 453b
00000350: c0db 173d 6ae0 04bd 9e44 20bd 40fa 7e3b
00000360: 075d 073d 0b2b 233c 5485 303d 4585 89bc
00000370: c42f aa3c e538 ab3c 37fa 4b3d 3800 ad3b
00000380: 42ad aabc 543d e1bc 1ee1 a13c d86a 5bba
00000390: 33a2 dd3b f7c0 5abc a881 02bd f423 1ebd
000003a0: 1f0b 20bd b3bc 15bd 29d5 50bd c963 11bd
000003b0: 15df 8bbc 6383 a3bc 4f3c f13c f741 573d
000003c0: bb87 203c 761f 303c 29bd d0bb c5b8 57bc
000003d0: f6a9 293c fa70 5f3b 4a89 1b3d 1ac5 833a
000003e0: aeb3 9d3c b640 b93b cfb5 57bc 506a 95bc
000003f0: 9ac3 ae3b 1413 99bc d2ec 1fbd bda8 d83a

classifier.1.bias f4 [64]
0.0075092455 0.001762384 0.001929023 -0.029467404 0.005248884 -0.0023216747 -0.013242662 -0.012421473
0.027651502 -0.017366514 -0.0030438483 0.006406374 -0.025391603 0.009221321 -0.0019624168 0.019273529
0.030102745 0.022390692 0.0017142256 -0.007663625 -0.0033680818 0.0132724 0.02869025 -0.010642679
-0.010294121 0.0007352602 -0.013097431 0.035121404 -0.020965487 -0.027283084 0.011919864 -0.00618743
0.019196246 0.027765559 -0.014638694 0.021995679 0.009818596 0.031440705 -0.023708016 -0.018626206
0.02738773 0.016347673 0.026123665 0.0059009027 0.024793211 0.0022068433 0.019108815 0.004218187
-0.026946822 -0.010332426 -0.03402387 0.002758725 0.022399448 -0.022639954 -0.031775683 -0.002295407
-0.029696377 -0.023930876 0.0020927053 0.010858591 -0.020641545 0.016261317 -0.016895397 -0.028073158
00000000: 1e10 f63b cbff e63a 45d7 fc3a a065 f1bc
00000010: d5fe ab3b 3d27 18bb c0f7 58bc 6f83 4bbc
00000020: 6785 e23c 3844 8ebc 4d7b 47bb 8fec d13b
00000030: 0d02 d0bc 0615 173c e49b 00bb 85e3 9d3c
00000040: 089a f63c af6c b73c deaf e03a 251f fbbb
00000050: 09bb 5cbb 7b74 593c d107 eb3c a25e 2ebc
00000060: aca8 28bc 7abe 403a 9b96 56bc 76db 0f3d
00000070: d0bf abbc c680 dfbc 894b 433c edbf cabb
00000080: 7241 9d3c 9974 e33c 22d7 6fbc 4830 b43c
00000090: 2dde 203c f8c7 003d 5037 c2bc fc95 98bc
000000a0: 3c5c e03c 8eeb 853c 4c01 d63c 5c5c c13b
000000b0: 221b cb3c b0a0 103b 178a 9c3c b838 8a3b
000000c0: 95bf dcbc 5649 29bc 9d5c 0bbd bacb 343b
000000d0: 0c7f b73c 6d77 b9bc 3827 02bd 8a6e 16bb
000000e0: d145 f3bc af0a c4bc c525 093b 3be8 313c
000000f0: 7518 a9bc 7436 853c 3768 8abc aef9 e5bc

classifier.2.weight f4 [64]
1.0274776 0.99923605 1.0036702 0.98510444 1.0255659 0.9699672 1.0291191 0.9688458
1.0085393 0.9904314 0.98565906 1.0099951 0.98055863 0.9909611 0.98834914 1.0084705
0.98741186 1.0185934 1.0019935 0.9846537 0.9883821 0.99499404 1.0124964 0.96227777
1.027389 1.0283419 0.9951915 1.0130236 1.0143223 1.017038 1.0060343 0.9912219
0.9771312 1.0145342 1.0010407 1.0241932 1.0002751 0.9643916 0.985304 0.98957676
1.011656 0.99512273 1.0000914 1.0133979 0.98687416 0.98833704 0.9715915 0.9976779
0.9900571 1.0312551 1.0219667 1.0346547 1.0172349 1.0169045 1.0023819 1.005999
0.9951892 1.0124749 0.98003596 0.9915535 0.96279776 0.98353297 1.0126954 0.97188544
00000000: 6384 833f efcd 7f3f 4478 803f ce2f 7c3f
00000010: be45 833f c54f 783f 2dba 833f 4706 783f
00000020: d117 813f ea8c 7d3f 2754 7c3f 8547 813f
00000030: e405 7b3f a0af 7d3f 7304 7d3f 9015 813f
00000040: 06c7 7c3f 4561 823f 5341 803f 4412 7c3f
00000050: 9c06 7d3f eeb7 7e3f 7b99 813f d657 763f
00000060: 7c81 833f b5a0 833f dfc4 7e3f c2aa 813f
00000070: 50d5 813f 4d2e 823f bbc5 803f b8c0 7d3f
00000080: 4525 7a3f 42dc 813f 1a22 803f c318 833f
00000090: 0409 803f 5ee2 763f e23c 7c3f e754 7d3f
000000a0: f27d 813f 5dc0 7e3f ff02 803f 06b7 813f
000000b0: c9a3 7c3f a803 7d3f 38ba 783f d267 7f3f
000000c0: 6274 7d3f 2b00 843f cecf 823f 916f 843f
000000d0: c134 823f ed29 823f 0d4e 803f 93c4 803f
000000e0: b8c4 7e3f c798 813f a3e3 7a3f 73d6 7d3f
000000f0: ea79 763f d1c8 7b3f 01a0 813f 7ccd 783f

classifier.2.bias f4 [64]
0.006617692 0.014121158 0.0012728585 -0.023445794 0.016764645 -0.016235063 0.02981843 -0.00798939
0.022734659 -0.029966036 0.0428668 0.023105333 -0.020413978 0.005071221 -0.0066764336 0.009857098
-0.032252196 -0.01795342 -0.034501083 -0.03443329 -0.01944979 0.0055449666 0.03340026 -0.009994764
0.04182456 -0.0083199795 -0.013013977 -0.0089298505 0.020810777 0.027246527 -0.017959705 0.028093752
-0.04138929 0.021444984 0.02494405 0.030749738 0.008528809 -0.018807638 -0.02024969 0.031109488
0.018261947 0.02724694 -0.0031004483 0.016251931 0.008564882 0.01398267 0.004269148 0.002413169
-0.010972414 0.011784336 0.015205859 0.023113063 -0.0137916785 0.038184676 0.0023943882 0.012693319
-0.017668508 0.032828107 -0.015008508 -0.028463071 -0.026051043 -0.03492304 -0.006100231 0.008347075
00000000: 39d9 d83b 6e5c 673c 0bd6 a63a 6511 c0bc
00000010: 0256 893c 65ff 84bc c845 f43c eee5 02bc
00000020: 093e ba3c 557b f5bc 1995 2f3d 6547 bd3c
00000030: 373b a7bc 7c2c a63b fcc5 dabb aa7f 213c
00000040: e11a 04bd 0d13 93bc 0251 0dbd ec09 0dbd
00000050: 2a55 9fbc 8db2 b53b b6ce 083d 14c1 23bc
00000060: 3b50 2b3d 8650 08bc 9338 55bc 824e 12bc
00000070: 5d7b aa3c 1c34 df3c 3b20 93bc de24 e63c
00000080: d187 29bd 64ad af3c 7757 cc3c e0e6 fb3c
00000090: 6bbc 0b3c 7a12 9abc aee2 a5bc 53d9 fe3c
000000a0: 149a 953c fa34 df3c e430 4bbb c522 853c
000000b0: b853 0c3c 9217 653c 36e4 8b3b 4226 1e3b
000000c0: a4c5 33bc 1613 413c ff21 793c 9b57 bd3c
000000d0: 7ef6 61bc 8967 1c3d 2beb 1c3b a3f7 4f3c
000000e0: 8cbd 90bc c476 063d 3fe6 75bc 632b e9bc
000000f0: ff68 d5bc 760b 0fbd 72e4 c7bb 2cc2 083c

classifier.2.running_mean f4 [64]
0.33705658 -1.2095714 -2.0494087 2.7239316 0.43064642 -1.504707 1.6010519 -2.2419126
1.9738998 -0.8534051 1.4674103 0.81607133 -0.01855729 -2.0974476 1.4665333 2.0526462
1.4304291 -1.6662346 -0.791089 -0.44145042 1.4212196 1.5000072 1.3318344 -0.640882
-1.1643308 2.0952363 0.6142932 -1.3788673 0.66917074 2.5928633 -0.036990702 0.26723844
0.018874913 1.4531516 0.47497374 0.6907917 -2.2598588 1.4343942 1.2364486 -1.2338414
-0.30490047 4.1148667 1.3982148 -0.14664775 -1.1563433 2.9813132 1.2501601 -0.090907395
1.5379574 -1.7874931 -0.206082 0.8346544 1.1300732 0.08718107 1.1252288 -1.7870088
0.75960666 -0.61736715 0.51528883 1.8769984 1.5072869 -1.4168317 1.1954917 0.58891684
00000000: ae92 ac3e 3cd3 9abf 8329 03c0 e554 2e40
00000010: b07d dc3e 3d9a c0bf 45ef cc3f 7f7b 0fc0
00000020: c0a8 fc3f c278 5abf 1ad4 bb3f 0dea 503f
00000030: 7505 98bc 953c 06c0 5db7 bb3f 8e5e 0340
00000040: 4d18 b73f 2d47 d5bf cf84 4abf ca05 e2be
00000050: 86ea b53f 3c00 c03f 8d79 aa3f d810 24bf
00000060: cb08 95bf 5a18 0640 5242 1d3f b97e b0bf
00000070: c64e 2b3f 79f1 2540 9083 17bd 7ad3 883e
00000080: 909f 9a3c df00 ba3f c22f f33e bad7 303f
00000090: 87a1 10c0 3b9a b73f f343 9e3f 84ee 9dbf
000000a0: ea1b 9cbe fdac 8340 b4f8 b23f d42a 16be
000000b0: 0f03 94bf d6cd 3e40 3f05 a03f a82d babd
000000c0: cadb c43f 93cc e4bf 2907 53be e9ab 553f
000000d0: 3da6 903f fd8b b23d 7f07 903f b4bc e4bf
000000e0: 9575 423f c60b 1ebf f8e9 033f 7c41 f03f
000000f0: c7ee c03f be5a b5bf df05 993f 41c3 163f

classifier.2.running_var f4 [64]
0.88629717 0.7171701 2.1570525 2.2451744 0.74081993 0.9845073 0.51839185 2.5469763
2.0627592 3.6346512 1.5553105 1.264405 0.51327145 1.6643302 0.850407 2.3879004
0.6996983 1.9706162 0.69337845 0.47822773 1.6392573 0.71609986 0.9359752 0.8350472
0.49692646 0.775043 0.5618845 0.63610107 0.95934546 0.81183815 0.82478195 0.45175618
2.330515 0.9413871 4.036707 0.35658705 0.7489609 0.65602976 1.5405289 1.1630379
1.8196515 1.5559692 2.1354964 0.44142342 1.7700726 0.6401158 0.60996747 0.92781353
0.557655 0.43227687 1.0042123 0.68151236 1.4635543 0.4062345 0.5226002 0.9903433
1.0981048 1.2008518 0.8749714 1.584998 1.7238421 0.7448853 2.2642646 1.7472006
00000000: 5fe4 623f 7698 373f 260d 0a40 f0b0 0f40
00000010: 60a6 3d3f ac08 7c3f 54b5 043f a901 2340
00000020: 3f04 0440 209e 6840 6a14 c73f 06d8 a13f
00000030: c265 033f c608 d53f 46b4 593f 5cd3 1840
00000040: 6e1f 333f 273d fc3f 4081 313f 44da f43e
00000050: 2fd3 d13f 5252 373f 129c 6f3f a7c5 553f
00000060: 256d fe3e 3869 463f aad7 0f3f 85d7 223f
00000070: aa97 753f a0d4 4f3f e924 533f 964c e73e
00000080: 2827 1540 bffe 703f b42c 8140 9492 b63e
00000090: e7bb 3f3f 91f1 273f 0d30 c53f 6dde 943f
000000a0: 57ea e83f 002a c73f f9ab 0840 4002 e23e
000000b0: bd91 e23f a1de 233f d426 1c3f 3085 6d3f
000000c0: 7ac2 0e3f 6553 dd3e 078a 803f 9877 2e3f
000000d0: bf55 bb3f f8fd cf3e 20c9 053f 2387 7d3f
000000e0: b38e 8c3f 83b5 993f 20fe 5f3f 37e1 ca3f
000000f0: dca6 dc3f ceb0 3e3f b6e9 1040 45a4 df3f

classifier.4.weight f4 [64, 64]
0.10856222 -0.03581657 0.09763468 -0.1252836 0.032757368 0.008999411 -0.14331184 -0.10778506
-0.14357692 0.055289995 -0.06082233 -0.052183874 -0.026563346 -0.022286696 0.063111566 0.028004125
-0.07034014 -0.055111613 0.06515143 0.03729897 0.06754639 0.029998984 -0.15059575 0.11363232
0.0009096929 -0.07021822 0.050658613 -0.10237483 -0.09399759 -0.12221242 -0.07154361 0.0690776
0.033969328 -0.1359583 0.090818875 -0.1346575 0.05923901 0.026994381 -0.07784275 -0.054610927
0.06710959 0.018590435 0.027798476 0.108396225 0.06584421 -0.005694158 -0.022062005 -0.07965028
0.04220133 0.042389482 -0.011278666 -0.022722093 -0.11329185 0.11016918 -0.056516163 0.09485554
-0.069107585 -0.07340803 0.0060168616 -0.12535079 0.011645465 0.05962282 -0.014390481 0.030972669
-0.08557252 -0.065631725 -0.028374543 -0.022703895 0.072263665 0.062990226 0.046840392 0.04374422
-0.05796708 -0.01758288 0.09194627 0.0961994 0.071026646 -0.06731728 0.017937783 0.123082586
-0.06375543 -0.08013471 0.04004458 0.06250483 0.08225652 -0.04810636 0.11610491 0.036231745
-0.08168691 -0.1237795 -0.15558042 -0.06586747 -0.067914754 -0.009753729 -0.011497195 -0.114339314
0.06046957 0.04940301 -0.034978 0.052557927 -0.12861542 0.094468094 0.12021774 0.03321046
0.06665928 0.007863562 -0.061946996 -0.060029786 -0.038986053 -0.0072960868 0.05068248 0.091445304
-0.11096967 -0.12135246 -0.035447262 0.027448663 -0.1254879 -0.0528674 0.035106536 0.091391556
0.015470204 -0.05198085 -0.005670843 0.062457386 0.041712582 0.060745973 -0.08291017 -0.0036125695
-0.11035118 0.118105255 -0.12287059 0.028694477 -0.058496505 -0.06918742 0.046773095 0.075907014
-0.010503954 -0.0944183 -0.033843637 0.11162939 -0.070518754 -0.011684045 -0.004144237 0.066567145
0.091909654 -0.06788126 -0.07186582 -0.020639082 -0.08739898 -0.09997586 -0.0017467266 -0.038774125
-0.1349688 -0.04133344 0.08348658 0.12845714 0.120417126 -0.014769968 -0.10711221 -0.06367946
-0.10535799 -0.10011508 0.12323238 -0.04666512 -0.12500289 -0.07058522 0.08755493 -0.12717971
0.05249901 -0.008297015 0.07574211 -0.10262612 0.0994616 -0.12560724 -0.096972175 0.02444051
0.094152704 -0.088472836 -0.035248265 0.049471352 0.084143445 0.0068340623 -0.07188174 -0.11364562
0.021308558 -0.09753022 0.082108915 0.1161091 -0.0017383022 -0.062322695 -0.09296394 0.044094726
0.052583925 -0.08297283 0.124959774 -0.052082352 -0.030105699 0.01284405 0.06415011 0.038275994
0.0037773212 -0.029855056 -0.10309183 0.11949306 -0.09095519 -0.046592783 0.09251581 -0.026965477
0.00793013 -0.052589644 -0.10955463 -0.038380343 0.031409997 0.012349066 0.1012446 0.04952481
-0.035102405 0.0637348 0.08063578 0.050435573 -0.077665105 0.0460001 0.09922761 -0.05481079
0.033344347 -0.11396323 0.02678575 0.023746675 0.093678795 0.058004662 0.097066544 -0.023334742
-0.13089903 -0.09878681 0.12013848 0.036348004 -0.059452094 -0.08978974 -0.045728777 -0.12688854
-0.05087204 0.08326428 0.031961385 -0.029652076 -0.106497854 -0.09668597 -0.034601733 0.00123897
-0.07112916 -0.07190659 0.1156758 -0.016177896 0.052599844 0.07338362 0.024616571 0.10267308
00000000: df55 de3d 65b4 12bd b1f4 c73d 584a 00be
00000010: 972c 063d 4472 133c 57c0 12be 6abe dcbd
00000020: d405 13be c377 623d d620 79bd c2be 55bd
00000030: 609b d9bc 9792 b6bc a340 813d e868 e53c
00000040: 7e0e 90bd b7bc 61bd 1d6e 853d cec6 183d
00000050: c355 8a3d 6ec0 f53c c635 1abe 10b8 e83d
00000060: 7578 6e3a 92ce 8fbd 687f 4f3d e5a9 d1bd
00000070: cf81 c0bd 814a fabd 7585 92bd 8f78 8d3d
00000080: 6c23 0b3d a738 0bbe 3fff b93d a8e3 09be
00000090: 9ba4 723d 5223 dd3c 056c 9fbd b5af 5fbd
000000a0: c170 893d f84a 983c a1b9 e33c d7fe dd3d
000000b0: 54d9 863d 0f96 babb 61bb b4bc b01f a3bd
000000c0: 4ddb 2c3d 98a0 2d3d 27ca 38bc af23 babc
000000d0: 8f05 e8bd 61a0 e13d 7e7d 67bd 9f43 c23d
000000e0: 4788 8dbd f356 96bd 1829 c53b f55b 00be
000000f0: 9fcc 3e3c 0f37 743d 0dc6 6bbc 65ba fd3c
00000100: a540 afbd ed69 86bd bb71 e8bc 85fd b9bc
00000110: f9fe 933d 0501 813d b6db 3f3d 242d 333d
00000120: e46e 6dbd f909 90bc 534e bc3d 3104 c53d
00000130: 6b76 913d a4dd 89bd 42f2 923c b912 fc3d
00000140: 3592 82bd ab1d a4bd c905 243d 8802 803d
00000150: 1b76 a83d 2d0b 45bd 69c8 ed3d bd67 143d
00000160: 774b a7bd 1b80 fdbd 7950 1fbe 86e5 86bd
00000170: e416 8bbd 1bce 1fbc bb5e 3cbc bb2a eabd
00000180: f1ae 773d d05a 4a3d 1745 0fbd fb46 573d
00000190: c3b3 03be 7d78 c13d b834 f63d b107 083d
000001a0: a984 883d 2bd6 003c 22bc 7dbd cbe1 75bd
000001b0: d7af 1fbd 0314 efbb 6f98 4f3d ad47 bb3d
000001c0: 1144 e3bd a387 f8bd 2631 11bd 05dc e03c
000001d0: e67f 00be 7d8b 58bd dfcb 0f3d 7f2b bb3d
000001e0: bd76 7d3c dfe9 54bd 7bd2 b9bb 51d3 7f3d
000001f0: d0da 2a3d c5d0 783d cfcc a9bd dcc0 6cbb
00000200: cdff e1bd 2be1 f13d 93a3 fbbd ae10 eb3c
00000210: 089a 6fbd 22b2 8dbd 2595 3f3d 2375 9b3d
00000220: c718 2cbc 625e c1bd a09f 0abd f39d e43d
00000230: 236c 90bd 706e 3fbc 61cc 87bb 5b54 883d
00000240: 213b bc3d 5405 8bbd 632e 93bd 4b13 a9bc
00000250: 3dfe b2bd 25c0 ccbd 6bf2 e4ba 9ed1 1ebd
00000260: 4335 0abe 414d 29bd 03fb aa3d 458a 033e
00000270: 419d f63d bcfd 71bc a55d dbbd 606a 82bd
00000280: eec5 d7bd 2309 cdbd 4261 fc3d ed23 3fbd
00000290: c200 00be fc8e 90bd 0050 b33d 663b 02be
000002a0: 3409 573d 34f0 07bc ae1e 9b3d a52d d2bd
000002b0: 86b2 cb3d 2f9f 00be 5999 c6bd 7737 c83c
000002c0: 22d3 c03d 3f31 b5bd 7c60 10bd 79a2 4a3d
000002d0: 6653 ac3d 45f0 df3b bc36 93bd 09bf e8bd
000002e0: 498f ae3c edbd c7bd b828 a83d 9cca ed3d
000002f0: bed7 e3ba 1546 7fbd e163 bebd ac9c 343d
00000300: 3e62 573d a9ed a9bd e9ea ff3d 4e54 55bd
00000310: 3aa0 f6bc da6f 523c 2261 833d 4ac7 1c3d
00000320: ef8c 773b 9792 f4bc cf21 d3bd c7b8 f43d
00000330: b746 babd 13d8 3ebd ee78 bd3d b4e6 dcbc
00000340: 60ed 013c 3d68 57bd 2e5e e0bd b534 1dbd
00000350: c5a7 003d bd53 4a3c 5459 cf3d 87da 4a3d
00000360: 8ac7 0fbd 6487 823d 5f24 a53d 8895 4e3d
00000370: e20e 9fbd 9a6a 3c3d d837 cb3d 4781 60bd
00000380: 1594 083d 8e65 e9bd ca6d db3c 6388 c23c
00000390: abda bf3d 4c96 6d3d d3ca c63d 8028 bfbc
000003a0: 650a 06be bd50 cabd 2a0b f63d a5e1 143d
000003b0: 0a84 73bd afe3 b7bd 194e 3bbd 12ef 01be
000003c0: 335f 50bd 7686 aa3d f1e9 023d e9e8 f2bc
000003d0: 8c1b dabd 4b03 c6bd 8cba 0dbd ef64 a23a
000003e0: 2aac 91bd c343 93bd 6fe7 ec3d 8287 84bc
000003f0: ef72 573d 274a 963d b1a8 c93c 4446 d23d

classifier.4.bias f4 [64]
-0.045016322 0.124973364 0.03969556 -0.037478056 0.118837565 -0.03477412 0.053493973 -0.039470203
0.10771686 0.031873748 0.09237449 0.06886448 0.044258785 0.12547804 -0.120284334 -0.09994984
0.018788025 -0.040048182 0.013014146 0.07835101 0.08863669 0.08721441 0.009215182 0.121834815
0.11832328 -0.11452937 -0.045680337 0.11308734 0.030288694 0.060639873 0.09345211 0.12385557
-0.0061663426 0.022244146 0.05533603 0.09907055 0.03221013 -0.11903497 0.022855654 -0.10889272
0.10386223 -0.10286176 0.017320793 0.12471232 0.045479856 -0.0729765 -0.003045328 0.041375056
0.053012088 0.022551138 0.07624528 0.04385389 0.03485855 -0.0816787 -0.0056846696 0.11737468
-0.09182226 0.0687848 0.016519204 0.04511369 0.11387444 0.034937534 0.028981153 0.06266089
00000000: 0963 38bd 09f2 ff3d d097 223d 9782 19bd
00000010: 1c61 f33d 4f6f 0ebd 7f1c 5b3d 82ab 21bd
00000020: a89a dc3d 0c8e 023d d62e bd3d d208 8d3d
00000030: b348 353d 517d 003e a257 f6bd 80b2 ccbd
00000040: 58e9 993c 9009 24bd 4939 553c 7f76 a03d
00000050: 2787 b53d 789d b23d 46fb 163c 8884 f93d
00000060: 7a53 f23d 608e eabd 4e1b 3bbd 569a e73d
00000070: ff1f f83c 8461 783d d263 bf3d fda7 fd3d
00000080: 080f cabb 5b39 b63c 08a8 623d 80e5 ca3d
00000090: c5ee 033d 9bc8 f3bd c83b bb3c 2503 dfbd
000000a0: b9b5 d43d 30a9 d2bd 56e4 8d3c 2c69 ff3d
000000b0: 1649 3a3d b474 95bd 2094 47bb e478 293d
000000c0: 3423 593d 2abd b83c 7c26 9c3d 23a0 333d
000000d0: d7c7 0e3d 2a47 a7bd 7746 babb 2362 f03d
000000e0: 4f0d bcbd 0cdf 8c3d 4853 873c 22c9 383d
000000f0: 0137 e93d a91a 0f3d e269 ed3c 5a54 803d

classifier.5.weight f4 [64]
1.0329869 1.0249565 0.9988989 0.97004414 1.0218676 1.0131419 1.0357469 0.98769116
0.9673354 0.9861834 0.9886972 1.0198929 0.9880365 1.0053868 1.0059006 0.9973117
0.967072 0.98139036 0.98776466 0.9803411 1.0318754 1.0010885 0.9874685 1.0185639
0.9877225 0.96959025 0.99595594 0.98841965 0.96804816 1.013909 1.0152562 1.0345852
0.96959877 0.9604946 0.971979 0.9935358 0.96406364 1.0173268 0.9784039 1.0170891
0.97137076 1.0354182 1.0295452 0.974354 1.0110632 1.0236369 1.0042764 1.0137329
1.0295923 0.9912646 0.97822285 0.96396214 0.9993846 0.96488327 1.0042251 1.041864
0.9777192 0.9841367 0.98121613 1.0200675 1.0316932 1.0274892 1.0179632 1.0471267
00000000: ea38 843f c631 833f d7b7 7f3f d054 783f
00000010: 8fcc 823f a2ae 813f 5b93 843f 54d9 7c3f
00000020: 4ba3 773f 8476 7c3f 421b 7d3f da8b 823f
00000030: f6ef 7c3f 84b0 803f 5ac1 803f d24f 7f3f
00000040: 0892 773f 663c 7b3f 25de 7c3f a2f7 7a3f
00000050: 7e14 843f ab23 803f bcca 7c3f 4d60 823f
00000060: 62db 7c3f 1137 783f f8f6 7e3f 1209 7d3f
00000070: 01d2 773f c5c7 813f eaf3 813f 4a6d 843f
00000080: a037 783f f9e2 753f 9ed3 783f 5d58 7e3f
00000090: e0cc 763f c437 823f ae78 7a3f fa2f 823f
000000a0: c1ab 783f 9588 843f 23c8 833f 446f 793f
000000b0: 856a 813f 8906 833f 218c 803f 00c2 813f
000000c0: aec9 833f 84c3 7d3f d06c 7a3f 39c6 763f
000000d0: abd7 7f3f 9702 773f 738a 803f cd5b 853f
000000e0: ce4b 7a3f 62f0 7b3f fb30 7b3f 9291 823f
000000f0: 860e 843f c484 833f 9e4c 823f 3f08 863f

classifier.5.bias f4 [64]
0.03764492 0.017652692 0.028062271 -0.02233968 0.0312805 0.031561773 0.036677714 0.022195077
-0.011504607 -0.0059391987 0.01934482 0.017571839 -0.021958213 0.014206133 0.004468677 0.051616978
-0.028001707 -0.008753577 0.0027239902 -0.0017366201 0.03653997 -0.0014519952 -0.0065341084 0.03206662
-0.008549122 -0.009737053 0.026284622 0.0074558347 0.0228411 0.026049968 0.02854775 0.040020566
-0.024988329 -0.0074225324 -0.009808387 0.02410171 0.020197801 0.03967467 -0.01592018 0.020916335
-0.019529669 0.040590595 0.035568934 0.01691786 -0.0012897387 0.015002833 0.014308968 0.015035648
0.016376186 0.0049383026 -0.0078769205 -0.032215744 0.0019277936 0.010660146 0.035071865 0.040508606
0.013570602 0.0060191676 -0.004994306 0.03270625 0.032545544 0.027143609 0.03316794 0.042603184
00000000: 8f31 1a3d 619c 903c d9e2 e53c b401 b7bc
00000010: fb1f 003d eb46 013d 5f3b 163d 73d2 b53c
00000020: d27d 3cbc 9c9d c2bb 0779 9e3c d1f2 8f3c
00000030: b6e1 b3bc d7c0 683c fb6d 923b 536c 533d
00000040: d663 e5bc 2a6b 0fbc f984 323b 4d9f e3ba
00000050: f0aa 153d e050 beba 131c d6bb 4a58 033d
00000060: 9e11 0cbc 2988 1fbc d952 d73c 1350 f43b
00000070: 421d bb3c be66 d53c f9dc e93c 9bec 233d
00000080: 53b4 ccbc b738 f3bb 5bb3 20bc f370 c53c
00000090: dc75 a53c e881 223d 0a6b 82bc bc58 ab3c
000000a0: affc 9fbc 5342 263d bbb0 113d 5397 8a3c
000000b0: 730c a9ba 71ce 753c 2970 6a3c 1458 763c
000000c0: 5a27 863c 7cd1 a13b 330e 01bc a8f4 03bd
000000d0: 05ae fc3a e5a7 2e3c 84a7 0f3d 5aec 253d
000000e0: 3b57 5e3c 703c c53b 46a7 a3bb fdf6 053d
000000f0: 7a4e 053d 465c de3c 1bdb 073d ad80 2e3d

classifier.5.running_mean f4 [64]
-0.34585875 0.07757023 -0.3367426 -0.046272345 0.2556502 0.35703272 0.119766705 -0.0024978027
0.61938643 -0.49277568 0.11930275 0.06355775 0.25193417 0.16156927 -0.025911294 -0.21121515
-0.019151166 -0.29891497 0.4656116 -0.030236859 0.50430036 -0.06742457 -0.503177 -0.009710144
0.28596258 -0.21156526 -0.25565597 0.4664978 0.38234112 0.39957628 -0.013557564 0.03475621
0.02270468 0.08672847 0.33643883 -0.20240106 -0.08076876 -0.6770531 0.023036178 0.033226136
0.007956919 -0.02788604 -0.3220131 -0.0531815 -0.13501923 -0.01657728 -0.45455113 0.08233552
-0.32818535 -0.0077231126 -0.14264958 0.027502624 -0.71527106 -0.051133458 -0.1503157 0.46159294
-0.2743037 -0.024918288 0.022855435 0.10703042 0.15344396 -0.39107382 -0.1651909 -0.23960647
00000000: 6614 b1be 24dd 9e3d 8769 acbe 1288 3dbd
00000010: 95e4 823e fecc b63e 3f48 f53d 2db2 23bb
00000020: 1c90 1e3f 184d fcbe 0055 f43d 912a 823d
00000030: 84fd 803e 6a72 253e ec43 d4bc c948 58be
00000040: e8e2 9cbc 620b 99be a564 ee3e 4ab3 f7bc
00000050: d419 013f e515 8abd 35d0 00bf 4c17 1fbc
00000060: b069 923e 90a4 58be 57e5 82be cdd8 ee3e
00000070: 37c2 c33e 4395 cc3e 8b20 5ebc 875c 0e3d
00000080: 2aff b93c b29e b13d b641 ac3e 3942 4fbe
00000090: 176a a5bd 5a53 2dbf 5eb6 bc3c 2118 083d
000000a0: bd5d 023c 4471 e4bc e7de a4be d8d4 59bd
000000b0: 7b42 0abe 13cd 87bc edba e8be 869f a83d
000000c0: e907 a8be 2a12 fdbb bb12 12be 2f4d e13c
000000d0: 011c 37bf 5171 51bd 5cec 19be e955 ec3e
000000e0: 8971 8cbe 7021 ccbc 523b bb3c c432 db3d
000000f0: 6a20 1d3e d43a c8be ce27 29be 665b 75be

classifier.5.running_var f4 [64]
0.17180829 0.20029445 0.18624157 0.24674644 0.31870806 0.13696325 0.111714974 0.1034229
0.18753833 0.20536059 0.23867162 0.24648497 0.16372727 0.12899904 0.13038433 0.25744772
0.24215584 0.16522151 0.08988839 0.21723528 0.087875254 0.30501556 0.24569352 0.34498087
0.20380081 0.1444015 0.15292172 0.1973555 0.1722451 0.2168516 0.13623604 0.19842489
0.22201872 0.24183036 0.17252067 0.16857941 0.10896189 0.14177908 0.1676919 0.27599588
0.23241037 0.06943506 0.34582782 0.15930635 0.05895542 0.11046788 0.21714015 0.20914531
0.31288838 0.16197741 0.16625586 0.19637308 0.401448 0.1843579 0.1656639 0.123866975
0.42227316 0.20472461 0.14633892 0.14153327 0.07086281 0.17815448 0.40344855 0.16311142
00000000: 83ee 2f3e fd19 4d3e 1cb6 3e3e 19ab 7c3e
00000010: b42d a33e 1840 0c3e d2ca e43d 63cf d33d
00000020: 0c0a 403e 0c4a 523e 5566 743e 8e66 7c3e
00000030: 1fa8 273e 5318 043e 7883 053e 30d0 833e
00000040: b3f7 773e d42f 293e 6717 b83d ed72 5e3e
00000050: f1f7 b33d 002b 9c3e 1597 7b3e 55a1 b03e
00000060: 29b1 503e fddd 133e 8397 1c3e 8f17 4a3e
00000070: 0561 303e 590e 5e3e 7681 0b3e e52f 4b3e
00000080: e058 633e 61a2 773e 42a9 303e 15a0 2c3e
00000090: 6927 df3d 892e 113e 6db7 2b3e 554f 8d3e
000000a0: fcfc 6d3e f833 8e3d 5810 b13e 3421 233e
000000b0: 3d7b 713d fc3c e23d fd59 5e3e 302a 563e
000000c0: e832 a03e 68dd 253e fa3e 2a3e 0616 493e
000000d0: 988a cd3e 51c8 3c3e cca3 293e f8ad fd3d
000000e0: 3034 d83e 54a3 513e dfd9 153e 19ee 103e
000000f0: 8520 913d 216e 363e cf90 ce3e ae06 273e

classifier.7.weight f4 [64, 64]
-0.03641341 0.09807715 -0.05967202 0.039855417 0.03176322 -0.09025917 0.075142264 0.13419075
0.07502703 0.01316925 0.06882798 0.066522166 0.007376323 0.116947114 0.044162598 0.07686543
-0.0183192 0.0445428 -0.08963396 -0.0033569927 -0.056395937 -0.047904547 0.10351617 0.0919149
-0.045775358 0.05718516 0.042557772 0.08916326 0.09047311 0.0678111 -0.06641593 -0.014475091
-0.085889064 0.006939015 -0.08367495 0.041739047 -0.038094085 -0.000906515 0.029296381 -0.061951105
0.119335756 -0.027258469 -0.061474074 -0.100850664 -0.06927924 -0.10774673 0.026469968 0.11795631
-0.017908098 -0.07124988 -0.015797347 0.039243974 -0.044551123 -0.05034805 -0.022454709 -0.080582574
-0.009485461 -0.00092839776 0.0761397 0.061090183 -0.06284679 -0.119383834 0.11342239 -0.0033051572
-0.037451345 0.084465936 -0.05709921 -0.02634656 -0.07938952 -0.018279295 0.1187774 -0.04640293
0.1008516 0.083186425 -0.08420072 0.07574378 -0.077666104 0.01759616 -0.049672537 -0.12990303
0.06742192 0.13846515 0.0659245 -0.04046147 -0.07348645 0.07303051 -0.0823531 0.06268374
0.03616635 0.039625425 -0.08974696 -0.02264457 0.017032616 -0.07932123 -0.09595782 0.1339204
0.019622466 0.0034072746 0.100826755 0.00014458678 0.097033195 0.039024077 -0.08550795 0.10015838
-0.12291003 -0.05409026 0.007428777 -0.025732882 -0.047716428 0.0037296682 0.025010705 -0.029617706
-0.014860402 0.10597996 -0.013239025 0.073796876 0.05371895 -0.09008179 -0.085448116 0.14170392
0.13083205 0.06880075 0.0440822 0.067180604 -0.04146544 -0.06480447 0.013558454 -0.010020199
-0.12492127 -0.024580313 0.040119313 0.036929544 -0.034593552 -0.011826705 0.030054497 0.06905328
-0.07000169 0.120988205 -0.09218144 -0.07590866 -0.03925968 -0.063595444 -0.02619241 0.10034426
-0.07064605 -0.044139087 0.01774726 0.098092884 0.062701344 -0.061754443 0.098752536 -0.0012718545
-0.12760098 0.049854837 0.0029440974 0.09976909 0.050880283 -0.015061419 -0.032658298 0.022219388
-0.04518972 -0.07699765 -0.07828202 -0.0839972 0.1326144 0.11324942 0.08521342 -0.09985627
-0.07186444 -0.0053061796 -0.11049725 -0.08351942 0.063689314 0.05301164 -0.1237699 -0.06606324
-0.14037427 -0.017365577 0.035782453 -0.06891247 0.010647445 -0.024442574 0.09317291 -0.11403474
0.14068851 0.033879004 0.10200528 -0.0026106942 0.13320538 0.13655026 -0.12121021 0.003113352
-0.08774726 0.017312542 -0.06703603 -0.014049407 0.1399872 0.02826395 0.10674295 -0.12808736
-0.06890445 0.09161343 0.056304973 0.015267522 0.006567659 -0.010176604 0.024812875 -0.122610815
-0.104416214 -0.03641569 -0.026021143 0.06301795 0.0818197 0.056443214 -0.11297535 0.09266912
0.04017869 -0.10717096 0.01938016 -0.093238376 0.07856334 0.067621164 -0.03275137 -0.043155577
-0.020046674 -0.050266128 -0.0449362 0.023714501 0.10291596 0.10942521 -0.092887186 0.120958626
-0.022044236 -0.038933337 0.102123 0.08153602 0.018249815 0.10035442 -0.04828738 0.03252106
0.08773964 0.04354994 0.08780927 -0.06283198 0.0034028268 0.06629797 -0.06810426 -0.021294283
0.033585556 0.07479695 0.09670127 0.059720043 0.020813173 -0.008933203 -0.02259365 -0.08879608
00000000: 3a26 15bd acdc c83d a66a 74bd 6f3f 233d
00000010: 261a 023d cdd9 b8bd 30e4 993d 4d69 093e
00000020: c6a7 993d d7c3 573c aff5 8c3d c63c 883d
00000030: 15b5 f13b f881 ef3d d7e3 343d 9f6b 9d3d
00000040: 2612 96bc 8372 363d 0292 b7bd fe00 5cbb
00000050: 6dff 66bd 8f37 44bd 4900 d43d e13d bc3d
00000060: f17e 3bbd fd3a 6a3d 0f51 2e3d 3a9b b63d
00000070: f749 b93d 8ce0 8a3d 1305 88bd ef28 6dbc
00000080: 9be6 afbd ad60 e33b c65d abbd 90f6 2a3d
00000090: 8b08 1cbd 31a3 6dba f7fe ef3c 71c0 7dbd
000000a0: 4e66 f43d 274d dfbc 3dcc 7bbd cb8a cebd
000000b0: 46e2 8dbd 51aa dcbd 8cd7 d83c 1493 f13d
000000c0: 01b4 92bc 75eb 91bd 7069 81bc 4abe 203d
000000d0: 3d7b 36bd c239 4ebd f0f2 b7bc 7a08 a5bd
000000e0: e868 1bbc b85f 73ba 22ef 9b3d b339 7a3d
000000f0: d1b5 80bd 837f f4bd ff49 e83d 569b 58bb
00000100: 9566 19bd 7afc ac3d dce0 69bd bed4 d7bc
00000110: f996 a2bd 76be 95bc 9141 f33d 0011 3ebd
00000120: 498b ce3d a55d aa3d 6d71 acbd 8e1f 9b3d
00000130: 680f 9fbd d225 903c 6e75 4bbd 4d05 05be
00000140: 8114 8a3d cfc9 0d3e 6d03 873d edba 25bd
00000150: 1080 96bd 0591 953d bea8 a8bd 5560 803d
00000160: 2b23 143d 454e 223d 41cd b7bd 1b81 b9bc
00000170: fc87 8b3c 2b73 a2bd 8985 c4bd 6e22 093e
00000180: 4bbf a03c 954c 5f3b 427e ce3d 389c 1739
00000190: 57b9 c63d b6d7 1f3d cb1e afbd d61f cd3d
000001a0: 41b8 fbbd c08d 5dbd 196d f33b c4cd d2bc
000001b0: 4d72 43bd 736d 743b 40e3 cc3c d5a0 f2bc
000001c0: 0b79 73bc 050c d93d 7fe8 58bc d122 973d
000001d0: 6708 5c3d cd7c b8bd 6cff aebd d51a 113e
000001e0: d6f8 053e 68e7 8c3d 898f 343d fc95 893d
000001f0: aad7 29bd 35b8 84bd 4724 5e3c c32b 24bc
00000200: b9d6 ffbd a75c c9bc 2654 243d 6f43 173d
00000210: f8b1 0dbd ccc4 41bc d934 f63c ce6b 8d3d
00000220: 0c5d 8fbd aac8 f73d 9fc9 bcbd 0076 9bbd
00000230: c2ce 20bd 543e 82bd 7791 d6bc 4b81 cd3d
00000240: e0ae 90bd 30cb 34bd b462 913c ece4 c83d
00000250: 9069 803d 3af2 7cbd c53e ca3d 5bb4 a6ba
00000260: d5a9 02be 9634 4c3d c2f1 403b bd53 cc3d
00000270: d867 503d 2cc4 76bc b5c4 05bd 6f05 b63c
00000280: db18 39bd f2b0 9dbd 5352 a0bd b906 acbd
00000290: 12cc 073e 50ef e73d 6084 ae3d 7281 ccbd
000002a0: aa2d 93bd 76df adbb 624c e2bd 3b0c abbd
000002b0: 8b6f 823d bc22 593d 137b fdbd 2a4c 87bd
000002c0: 46be 0fbe 4142 8ebc 9f90 123d fb21 8dbd
000002d0: 9f72 2e3c cb3b c8bc 70d1 be3d 0c8b e9bd
000002e0: a610 103e b6c4 0a3d 25e8 d03d 2e18 2bbb
000002f0: fe66 083e d5d3 0b3e 0f3d f8bd 6109 4c3b
00000300: d6b4 b3bd 08d3 8d3c 304a 89bd 7c2f 66bc
00000310: ce58 0f3e cd89 e73c 0c9c da3d 5529 03be
00000320: c71d 8dbd d29f bb3d 0ba0 663d a124 7a3c
00000330: 8435 d73b c5bb 26bc 5f44 cb3c 611b fbbd
00000340: 2bd8 d5bd 9e28 15bd 4b2a d5bc 8e0f 813d
00000350: 1691 a73d 0031 673d 9f5f e7bd 4fc9 bd3d
00000360: 6992 243d 737c dbbd 24c3 9e3c c3f3 bebd
00000370: d1e5 a03d f77c 8a3d 4d26 06bd e7c3 30bd
00000380: ec38 a4bc dbe3 4dbd 050f 38bd ea44 c23c
00000390: 9ac5 d23d 531a e03d a33b bebd 28b9 f73d
000003a0: 1d96 b4bc 9078 1fbd dd25 d13d 5bfc a63d
000003b0: a380 953c 9e86 cd3d fdc8 45bd ce34 053d
000003c0: d7b0 b33d 6c61 323d 59d5 b33d 0eae 80bd
000003d0: f601 5f3b 3bc7 873d 3f7a 8bbd 5971 aebc
000003e0: 0291 093d 252f 993d 510b c63d 019d 743d
000003f0: 6380 aa3c 925c 12bc 5116 b9bc b8da b5bd

classifier.7.bias f4 [64]
0.11208969 -0.06455524 -0.026236035 -0.03860885 0.020965211 -0.044831146 -0.10584866 0.11277398
-0.057328317 0.09853801 -0.08708532 -0.11625175 -0.09037309 0.10088009 0.070880815 0.022371735
-0.032489356 -0.022237746 -0.11021122 -0.086623676 -0.05286885 -0.013552698 -0.01959881 0.037188943
0.0070297034 -0.02442699 0.0635745 0.12255195 0.041534577 0.123058036 0.0683602 0.003199876
0.08790303 0.090886146 0.050452627 -0.047787376 -0.00046078375 0.022436982 -0.007858576 0.122947246
0.09377075 -0.12674531 -0.106907785 0.122389495 0.103802584 0.10922444 -0.12607504 -0.0951269
-0.08593269 -0.08978892 0.039641973 0.036263786 0.03216342 0.036606606 -0.028260566 0.12107866
0.077515446 -0.11924707 -0.066589914 -0.07215181 0.012540005 -0.052483145 -0.11122967 0.097001396
00000000: 488f e53d 8a35 84bd f4ec d6bc 5024 1ebd
00000010: 3cbf ab3c dda0 37bd 2fc7 d8bd 0bf6 e63d
00000020: 19d1 6abd 4cce c93d ca59 b2bd 6615 eebd
00000030: 8715 b9bd 389a ce3d f629 913d ee44 b73c
00000040: 8f13 05bd ef2b b6bc 6cb6 e1bd c167 b1bd
00000050: 028d 58bd 230c 5ebc af8d a0bc 6f53 183d
00000060: 6d59 e63b 1c1b c8bc 5933 823d 84fc fa3d
00000070: 2920 2a3d da05 fc3d 6f00 8c3d 03b5 513b
00000080: 8106 b43d 8422 ba3d 6aa7 4e3d b2bc 43bd
00000090: 5995 f1b9 c3cd b73c 42c1 00bc c4cb fb3d
000000a0: e10a c03d 86c9 01be 78f2 dabd 58a7 fa3d
000000b0: 7396 d43d 10b1 df3d d119 01be e4d1 c2bd
000000c0: 7afd afbd 41e3 b7bd 9f5f 223d 5689 143d
000000d0: cabd 033d cff0 153d b482 e7bc 17f8 f73d
000000e0: 6bc0 9e3d cf37 f4bd 4b60 88bd 54c4 93bd
000000f0: 9874 4d3c 91f8 56bd 62cc e3bd aba8 c63d

classifier.8.weight f4 [64]
1.0578436 1.068208 1.0690424 1.0623233 1.06411 1.039613 1.0630435 1.052419
1.0456934 1.0652748 1.0626595 1.0595067 1.0582554 1.072958 1.0627216 1.0575571
1.0642625 1.062109 1.0651132 1.0609924 1.0636345 1.073325 1.0587485 1.0651084
1.0629833 1.0574522 1.0579568 1.0585575 1.068146 1.0575705 1.0676931 1.0654829
1.0672786 1.0671976 1.0630828 1.0646158 1.0558776 1.0610292 1.0575988 1.0585606
1.059661 1.0545547 1.068164 1.0306443 1.0652895 1.0637568 1.0589398 1.0595615
1.060388 1.0622728 1.0718316 1.0653168 1.0676644 1.0524635 1.059783 1.0587639
1.0650698 1.0526223 1.0589557 1.0339004 1.0634048 1.0502613 1.0616356 1.0624199
00000000: 6b67 873f 0abb 883f 62d6 883f 36fa 873f
00000010: c234 883f 0a12 853f cf11 883f aab5 863f
00000020: 48d9 853f ed5a 883f 3a05 883f ea9d 873f
00000030: ea74 873f b056 893f 4307 883f 085e 873f
00000040: c139 883f 30f3 873f a155 883f 99ce 873f
00000050: 2d25 883f b762 893f 1285 873f 7955 883f
00000060: d60f 883f 985a 873f 216b 873f d07e 873f
00000070: 02b9 883f 785e 873f 2baa 883f be61 883f
00000080: 969c 883f ee99 883f 1913 883f 5545 883f
00000090: ff26 873f cecf 873f 665f 873f ea7e 873f
000000a0: f9a2 873f a6fb 863f 99b9 883f 27ec 833f
000000b0: 685b 883f 2f29 883f 578b 873f b69f 873f
000000c0: cbba 873f 8ef8 873f c731 893f 4d5c 883f
000000d0: 3aa9 883f 20b7 863f f8a6 873f 9385 873f
000000e0: 3554 883f 54bc 863f dc8b 873f d956 843f
000000f0: a61d 883f f66e 863f ade3 873f 60fd 873f

classifier.8.bias f4 [64]
0.06481301 0.06402239 0.0666444 0.05667731 0.0653358 0.027299125 0.064445995 0.056057006
0.047900572 0.06388528 0.058456797 0.030289091 0.05315784 0.06883604 0.06421033 0.057971824
0.062030956 0.055029925 0.06769635 0.06103982 0.06111974 0.069712386 0.054853193 0.05338105
0.061110444 0.06081459 0.053283732 0.058921017 0.055219892 0.056479476 0.04732812 0.06530813
0.05193477 0.063364655 0.06853259 0.068335734 0.056149404 0.06220854 0.054288957 0.048916105
0.058279246 0.047200378 0.06752717 0.017779302 0.06103105 0.06184429 0.051138677 0.049859054
0.05475119 0.066231094 0.06200997 0.04170789 0.06856461 0.051078837 0.05913547 0.05382553
0.06865694 0.05036696 0.055399373 -0.006577509 0.064543135 0.047151845 0.06013675 0.053751674
00000000: afbc 843d 2c1e 833d dc7c 883d 7826 683d
00000010: c7ce 853d 6aa2 df3c 43fc 833d 089c 653d
00000020: 6433 443d 49d6 823d 6570 6f3d d420 f83c
00000030: 09bc 593d e9f9 8c3d b580 833d dd73 6d3d
00000040: 2c14 7e3d 0f67 613d 62a4 8a3d e404 7a3d
00000050: b158 7a3d 5ec5 8e3d bead 603d 16a6 5a3d
00000060: f24e 7a3d b818 793d 0b40 5a3d 2a57 713d
00000070: 412e 623d 0657 673d 21db 413d 45c0 853d
00000080: 8eb9 543d 54c5 813d d15a 8c3d 9bf3 8b3d
00000090: ebfc 653d 62ce 7e3d 195e 5e3d 415c 483d
000000a0: 38b6 6e3d 2f55 413d af4b 8a3d e6a5 913c
000000b0: b2fb 793d 7050 7d3d ca76 513d 0239 4c3d
000000c0: c942 603d 2ba4 873d 2bfe 7d3d e4d5 2a3d
000000d0: 9a6b 8c3d 0b38 513d 0938 723d 2978 5c3d
000000e0: 029c 8c3d 964d 4e3d 74ea 623d 2588 d7bb
000000f0: 312f 843d 4b22 413d f451 763d b72a 5c3d

classifier.8.running_mean f4 [64]
0.27643973 0.10695415 -0.112750754 0.24485758 0.019138183 -0.09131677 0.1225169 -0.14227001
-0.5560625 0.2615082 -0.11853516 -0.16575593 -0.14904164 0.2747478 0.039324425 -0.30925182
-0.13133167 -0.38247803 -0.1667261 -0.093071595 -0.39260477 -0.036365274 0.14639182 0.0439664
-0.14086016 0.08153301 -0.5959132 0.32409275 -0.21264715 0.38156226 -0.029100344 -0.022406027
0.11114177 0.08382848 -0.07709906 -0.1053612 0.067011885 0.06919642 0.3144256 0.06446391
0.053850655 -0.2782552 0.14054616 0.31968918 0.14409122 0.24445838 -0.22891092 0.13949513
-0.13364977 0.26069424 -0.13608964 -0.26449028 -0.3007125 0.0026609807 0.3914159 -0.12059729
0.24964635 0.074708246 -0.543242 -0.40989068 0.07520041 -0.038777612 0.11066609 -0.08688001
00000000: 8289 8d3e c70a db3d dee9 e6bd f2bb 7a3e
00000010: aec7 9c3c 4904 bbbd 24ea fa3d 3baf 11be
00000020: 1d5a 0ebf 67e4 853e 90c2 f2bd ecbb 29be
00000030: 5f9e 18be beab 8c3e a612 213d 4156 9ebe
00000040: cf7b 06be 29d4 c3be 3fba 2abe 529c bebd
00000050: 7e03 c9be c1f3 14bd bde7 153e 1d16 343d
00000060: a53d 10be c7fa a63d c48d 18bf 7cef a53e
00000070: 2dc0 59be 215c c33e d863 eebc d88c b7bc
00000080: 4c9e e33d 44ae ab3d 1de6 9dbd 9dc7 d7bd
00000090: 873d 893d dab6 8d3d 64fc a03e a805 843d
000000a0: 8192 5c3d 7777 8ebe 55eb 0f3e 4dae a33e
000000b0: a68c 133e 4c53 7a3e a067 6abe d0d7 0e3e
000000c0: 7cdb 08be b779 853e 155b 0bbe 456b 87be
000000d0: fdf6 99be d963 2e3b aa67 c83e b6fb f6bd
000000e0: 4ba3 7f3e a300 993d e811 0bbf 31dd d1be
000000f0: ac02 9a3d 46d5 1ebd e7a4 e23d 26ee b1bd

classifier.8.running_var f4 [64]
0.11109786 0.07214299 0.25774166 0.13421065 0.51485366 0.07732467 0.20762488 0.35823405
0.17888036 0.10718591 0.13017106 0.15757525 0.13868998 0.14254886 0.22524104 0.13395315
0.124419175 0.12879531 0.09649187 0.2980455 0.3396714 0.090917066 0.13282579 0.13069426
0.17087704 0.17806222 0.12443025 0.18637137 0.15941851 0.2940259 0.15384 0.15973893
0.13970909 0.18278158 0.09972939 0.14915165 0.35506257 0.17126313 0.37126115 0.19183293
0.08609556 0.14269042 0.14421463 0.18961568 0.197616 0.37209317 0.09358941 0.1296829
0.28279164 0.19378291 0.15958203 0.13421375 0.10549051 0.26982963 0.14508379 0.2706165
0.33154815 0.22408077 0.15169494 0.1652771 0.104921125 0.15091573 0.17237665 0.22421797
00000000: 4687 e33d b4bf 933d b7f6 833e 846e 093e
00000010: 73cd 033f 665c 9e3d 9e9b 543e 746a b73e
00000020: 6a2c 373e 4984 db3d 904b 053e 685b 213e
00000030: bf04 0e3e 54f8 113e 96a5 663e 042b 093e
00000040: 7bcf fe3d ebe2 033e 889d c53d 6b99 983e
00000050: 69e9 ad3e ba32 ba3d 7c03 083e b7d4 053e
00000060: 64fa 2e3e f155 363e 49d5 fe3d 23d8 3e3e
00000070: 9b3e 233e 908a 963e 3c88 1d3e 9a92 233e
00000080: e60f 0f3e 182b 3b3e ec3e cc3d 36bb 183e
00000090: c3ca b53e 9a5f 2f3e f115 be3e da6f 443e
000000a0: de52 b03d 701d 123e 00ad 133e 9d2a 423e
000000b0: d95b 4a3e ff82 be3e ceab bf3d 98cb 043e
000000c0: 11ca 903e 076f 463e 7969 233e 546f 093e
000000d0: 690b d83d 1c27 8a3e d890 143e 3f8e 8a3e
000000e0: aec0 a93e 6e75 653e eb55 1b3e 663e 293e
000000f0: e3e0 d63d a789 1a3e 8183 303e 6599 653e

classifier.10.weight f4 [10, 64]
-0.0878492 0.11884987 0.11442932 0.13261446 -0.055469472 0.003921377 -0.14232542 0.13126947
0.12976557 0.06983765 -0.15768884 -0.1796148 -0.119212575 0.058303606 0.14041103 0.020030111
0.14759247 0.013612402 -0.023518559 0.061640155 -0.025902195 0.11531466 -0.015310421 0.08176978
-0.025455568 -0.081378244 -0.12426511 -0.06683854 0.17115362 -0.13638976 0.12592897 -0.07746312
-0.13904448 0.1255558 -0.089072816 -0.13685644 0.04165258 -0.15172523 -0.114381425 -0.08727492
-0.06865872 -0.18285196 -0.091554545 -0.026670972 -0.0120845195 -0.09444642 -0.13406728 -0.15743618
-0.08869883 -0.12808517 0.1483209 0.008409166 -0.07330892 -0.10061609 0.12577513 -0.10519533
-0.049893226 0.06343049 -0.14782535 0.15635104 -0.011161449 -0.17605576 0.060930464 0.123436786
0.04074289 0.082865596 -0.044063855 -0.07072095 -0.050087903 -0.040715802 0.15351194 -0.10859743
-0.16078861 -0.13069163 -0.034776635 0.039173134 -0.08586078 -0.06831154 -0.12008281 -0.07554935
-0.06523621 -0.11116844 0.09128451 0.13464132 0.032253686 -0.14801975 0.102054894 -0.035350885
-0.1630946 0.14654608 -0.12463456 -0.074053764 -0.14005557 0.16988888 -0.08701824 -0.15074849
0.17144707 0.014604594 0.08742314 0.12489729 0.14982456 0.09637932 0.08406964 -0.10091034
-0.05808619 0.05267089 -0.10944211 -0.006069604 -0.06710362 0.048357353 -0.058473676 0.0998152
0.09034738 0.1638518 0.02932115 -0.08500778 -0.061732665 -0.055888742 0.06259298 -0.094662
-0.026793951 -0.16997659 -0.087835245 -0.07689546 -0.15345652 -0.035038568 0.17262958 -0.0841579
0.084108874 -0.14666042 0.14113489 -0.031567313 -0.0405176 -0.04115893 0.077348545 0.10626313
0.028952165 -0.0342211 -0.16184273 -0.14238933 -0.14356227 0.01815863 0.04406638 0.1024781
-0.10485784 -0.08195794 -0.12661989 -0.08903666 0.09824611 0.16570354 -0.07585298 -0.14547925
-0.04529301 -0.08268475 0.16728821 0.0212727 -0.026555184 -0.14914733 -0.030885769 0.035739552
0.19937061 -0.111158766 -0.00013629177 0.09921523 -0.06347968 0.0010204247 0.0012004653 -0.12218745
-0.11062924 -0.048611235 0.20002814 -0.12012008 -0.072027326 -0.019974872 0.0028960065 -0.06435354
-0.108750604 -0.03978578 0.11190067 -0.029555459 0.1369565 -0.12752514 -0.084873706 -0.046751242
0.15843993 -0.13640124 -0.02124518 -0.05425681 0.14121802 -0.12260382 -0.15559487 -0.09868662
0.1644242 -0.14564736 -0.13452178 -0.05915381 -0.16578886 0.16314267 0.05025796 -0.04861138
0.043178868 0.047288626 -0.16772498 -0.073714636 -0.05790346 -0.07999208 0.00610168 0.017335692
0.0049353675 -0.017588329 0.15745994 0.06756732 -0.1545953 -0.023030382 -0.0005405046 0.13181731
-0.067436 -0.13893642 -0.10331509 -0.1089654 0.14230861 0.09698062 -0.15015106 -0.054886654
-0.16534603 0.12642081 -0.070718 0.082588196 0.15994826 0.12403299 -0.09871665 -0.08978106
0.16410711 -0.036040075 -0.048152167 -0.14474812 0.07036894 0.109719194 -0.027777858 -0.16846406
-0.06267815 -0.07868962 -0.111699894 -0.16721672 0.13484955 -0.13133118 -0.01764807 -0.15248045
0.034096956 -0.05930545 -0.08296303 0.11026772 -0.055708893 0.1067201 0.14991239 0.13265118
00000000: 48ea b3bd 9067 f33d eb59 ea3d 16cc 073e
00000010: f533 63bd e57e 803b c1bd 11be 816b 063e
00000020: 44e1 043e 0b07 8f3d 2f79 21be f1ec 37be
00000030: b925 f4bd c3cf 6e3d e9c7 0f3e 3016 a43c
00000040: 7b22 173e 8d06 5f3c fea9 c0bc 637a 7c3d
00000050: d730 d4bc 182a ec3d 8fd8 7abc ea76 a73d
00000060: 3288 d0bc a3a9 a6bd b57e febd a5e2 88bd
00000070: e542 2f3e c2a9 0bbe 86f3 003e fca4 9ebd
00000080: ad61 0ebe b391 003e cf6b b6bd 1824 0cbe
00000090: e59b 2a3d dc5d 1bbe cf40 eabd 31bd b2bd
000000a0: f19c 8cbd 8b3d 3bbe f380 bbbd 157d dabc
000000b0: 26fe 45bc 206d c1bd ef48 09be f336 21be
000000c0: bba7 b5bd c228 03be 6fe1 173e 99c6 093c
000000d0: fd22 96bd cf0f cebd 32cb 003e a670 d7bd
000000e0: d75c 4cbd d8e7 813d 875f 17be 7d1a 203e
000000f0: 83de 36bc f647 34be 3992 793d 6dcc fc3d
00000100: 04e2 263d 70b5 a93d 4d7c 34bd 25d6 90bd
00000110: f928 4dbd 9dc5 26bd 3c32 1d3e 5468 debd
00000120: c5a5 24be 07d4 05be f271 0ebd 0274 203d
00000130: c7d7 afbd ece6 8bbd faed f5bd 9eb9 9abd
00000140: 909a 85bd 47ac e3bd 60f3 ba3d 6adf 093e
00000150: 711c 043d 7d92 17be 2802 d13d 17cc 10bd
00000160: 4502 27be 2d10 163e 6740 ffbd 80a9 97bd
00000170: ba6a 0fbe 5af7 2d3e 9e36 b2bd d05d 1abe
00000180: d28f 2f3e 1b48 6f3c e70a b33d 26ca ff3d
00000190: 9c6b 193e 8562 c53d b42c ac3d 15aa cebd
000001a0: c9eb 6dbd 6ebd 573d 2f23 e0bd 87e3 c6bb
000001b0: 9f6d 89bd 5c12 463d 1882 6fbd e96b cc3d
000001c0: 0c08 b93d c4c8 273e e932 f03c 8f18 aebd
000001d0: 64db 7cbd 98eb 64bd c030 803d 27de c1bd
000001e0: fd7e dbbc 580e 2ebe f7e2 b3bd 5e7b 9dbd
000001f0: b523 1dbe 9a84 0fbd cfc5 303e fa5a acbd
00000200: 4641 ac3d 262e 16be aa85 103e ba4c 01bd
00000210: c8f5 25bd 4496 28bd ea68 9e3d 7ca0 d93d
00000220: 172d ed3c 6d2b 0cbd 1aba 25be 82ce 11be
00000230: fd01 13be 68c1 943c f37e 343d 0ae0 d13d
00000240: b5bf d6bd 90d9 a7bd a5a8 01be da58 b6bd
00000250: 4235 c93d 30ae 293e cf58 9bbd 83f8 14be
00000260: 2a85 39bd 9f56 a9bd 9a4d 2b3e 1644 ae3c
00000270: 428a d9bc 14ba 18be 2704 fdbc a363 123d
00000280: cf27 4c3e 35a7 e3bd 8be9 0eb9 5b31 cb3d
00000290: a201 82bd c5bf 853a ee58 9d3a 6a3d fabd
000002a0: 9591 e2bd 931c 47bd 2dd4 4c3e 8401 f6bd
000002b0: 1083 93bd 58a2 a3bc edca 3d3b cacb 83bd
000002c0: a3b8 debd 6af6 22bd 2e2c e53d 4a1e f2bc
000002d0: 533e 0c3e f395 02be 44d2 adbd 3b7e 3fbd
000002e0: 143e 223e c4ac 0bbe 5f0a aebc 643c 5ebd
000002f0: 759b 103e b617 fbbd 4354 1fbe 361c cabd
00000300: d15e 283e 9524 15be 14c0 09be 444b 72bd
00000310: 8ec4 29be df0e 273e 4adb 4d3d ba1c 47bd
00000320: 53dc 303d b8b1 413d 19c0 2bbe b3f7 96bd
00000330: 2e2c 6dbd e3d2 a3bd 9af0 c73b 9503 8e3c
00000340: ddb8 a13b 6615 90bc 2e3d 213e bc60 8a3d
00000350: 3b4e 1ebe 36aa bcbc a6b0 0dba 1efb 063e
00000360: e31b 8abd 5945 0ebe dd96 d3bd 4029 dfbd
00000370: 59b9 113e c69d c63d 33c1 19be d4d0 60bd
00000380: 7850 29be 7574 013e 99d4 90bd 0024 a93d
00000390: 7ac9 233e 0205 fe3d f42b cabd 22df b7bd
000003a0: b20b 283e c29e 13bd 353b 45bd da38 14be
000003b0: 971d 903d 75b4 e03d 648e e3bc d881 2cbe
000003c0: 675d 80bd 0628 a1bd eac2 e4bd dc3a 2bbe
000003d0: 0016 0a3e ae7b 06be af92 90bc d623 1cbe
000003e0: 40a9 0b3d 46ea 72bd 85e8 a9bd 0bd4 e13d
000003f0: 022f 64bd 1190 da3d a282 193e b6d5 073e

classifier.10.bias f4 [10]
0.10934982 0.01390793 -0.010096317 -0.035569467 -0.0073413774 -0.08615977 0.14235912 -0.043458633
-0.08862997 -0.040289953
00000000: ccf2 df3d 16de 633c 066b 25bc 4ab1 11bd
00000010: f08f f0bb 8974 b0bd 97c6 113e ae01 32bd
00000020: a183 b5bd 1407 25bd
