lightning_logs/version_4/checkpoints/model-epoch=15-val_loss=0.44-2.ckpt (torch, 185102 bytes, 48 tensors)

classifier.1.weight f4 [16, 784]
-0.013634329 -0.019489845 -0.08144685 -0.019151961 -0.058535177 -0.05821233 -0.10009383 0.054100327
0.013665163 0.06966682 0.014310698 -0.002632033 0.025883215 0.02995765 0.047808144 0.046752296
0.018146029 0.024695948 -0.0074972007 -0.052604735 0.053032726 0.004448294 0.06168564 0.00406885
-0.02852794 -0.0291633 -0.026371619 -0.04357895 -0.0244188 -0.06647883 -0.03419572 -0.030253738
-0.07503386 -0.075651556 0.06442945 0.076578416 0.06640872 -0.035843533 -0.035705194 0.0026400532
0.020671474 -0.037444543 -0.007550944 0.008351065 0.0011333845 0.016910717 -0.02755767 0.0031670958
-0.008886037 -0.00053236156 -0.04508249 0.038025785 0.023172822 -0.018279627 -0.0027209108 -0.03192732
-0.024731418 -0.038755346 -0.036433708 -0.050439607 0.0023195196 0.05010939 0.015773933 0.035312913
0.008717392 -0.005965906 -0.021100502 -0.041042205 0.033074927 0.035394475 -0.004013647 0.0067505985
-0.015493031 -0.0045693372 0.003364127 -0.012501113 0.0051295203 -0.0006599507 -0.020116435 -0.023146212
0.01797142 0.062123835 -0.0067883055 0.09617176 0.0042662215 0.023492835 0.006123208 -0.0039986977
0.026960269 0.042521305 0.04452308 0.006870264 -0.011401503 -0.03770467 0.029210884 -0.016595665
-0.036370825 0.0059558908 0.012623915 0.013604156 0.018932173 -0.0009867174 0.007600832 -0.020016592
-0.025631092 -0.023812413 -0.025178162 -0.045678202 0.03652902 0.04238089 -0.0038382823 -0.02674116
0.0012456871 -0.015541583 -0.0039925845 -0.01257616 0.0030666597 0.019776845 0.023859711 0.039161842
0.021083532 -0.02047197 -0.023922546 -0.03486049 -0.027424237 -0.022134926 0.031120919 0.020683562
0.04239188 0.0058813905 0.0084276255 0.017615492 0.03172708 -0.013381605 0.0123192705 -0.044399757
0.04427712 -0.030767763 -0.024041975 0.020374417 0.0047563184 0.00041236103 -0.018613374 0.017534945
-0.021688448 0.017483927 0.03127101 0.008843344 -0.030703304 0.026653908 -0.012244905 0.009829696
-0.03732608 -0.015839146 0.04150621 0.022825101 0.013141911 0.003633972 0.022703582 -0.021211285
0.023984306 0.01120468 -0.032471556 0.0023740632 -0.022405017 -0.005434503 0.0064859185 0.08483831
-0.005570399 -0.032687854 0.008301474 -0.02978487 -0.023169639 -0.0033290936 -0.0036542711 -0.025174974
-0.0073747286 0.0058538574 0.022861514 -0.002968823 -0.034236073 -0.010142766 0.014047668 -0.008812965
-0.0052109626 0.039728504 0.04331757 0.024394574 -0.019528031 -0.021529417 0.001661589 -0.0107091945
-0.005533453 -0.013226928 0.025587404 0.048831694 0.010317355 -0.0059236935 0.016190171 0.00029476898
-0.0036989304 -0.01008396 -0.0379172 -0.008302698 0.038034428 0.019139212 -0.025439518 -0.012594545
0.01363294 0.0050677247 -0.006618633 0.003628518 -0.011499225 0.034182023 0.057353146 0.004651887
0.053115312 -0.014484793 -0.010272804 0.0077472813 -0.015070229 0.038078297 0.031037731 -0.019825589
-0.029861009 0.04006309 -0.030545658 -0.04391567 -0.004087962 0.017742142 -0.022691518 0.029979663
0.0020287267 -0.021245945 0.027772546 -0.025695544 -0.023105329 0.0049879425 -0.0053056185 0.019570604
-0.019641755 0.006618468 0.009598559 0.04032251 0.0282987 0.00776229 0.04242912 -0.0089984955
0.054478083 0.03275962 0.046473585 -0.02976208 0.0148546295 -0.0025076724 -0.024578817 -0.011147516
00000000: 8562 5fbc 2ba9 9fbc 9bcd a6bd 93e4 9cbc
00000010: 95c2 6fbd 0d70 6ebd fefd ccbd 4e98 5d3d
00000020: d9e3 5f3c 7aad 8e3d 6b77 6a3c 307e 2cbb
00000030: 0909 d43c bf69 f53c 79d2 433d 567f 3f3d
00000040: fba6 943c 284f ca3c 14ab f5bb 1078 57bd
00000050: d838 593d ffc2 913b 15aa 7c3d fd53 853b
00000060: 6db3 e9bc dfe7 eebc 4b09 d8bc d77f 32bd
00000070: ef09 c8bc 0e26 88bd d010 0cbd b0d6 f7bc
00000080: 5aab 99bd 34ef 9abd 96f3 833d 25d5 9c3d
00000090: 4c01 883d abd0 12bd 9c3f 12bd be04 2d3b
000000a0: 3957 a93c 735f 19bd e96d f7bb e8d2 083c
000000b0: 138e 943a 5888 8a3c 9fc0 e1bc 0d8f 4f3b
000000c0: be96 11bc 2e8e 0bba 6ba8 38bd edc0 1b3d
000000d0: eed4 bd3c 28bf 95bc 4f51 32bb 39c6 02bd
000000e0: 8b99 cabc edbd 1ebd 833b 15bd c399 4ebd
000000f0: 1503 183b 813f 4d3d 5638 813c 46a4 103d
00000100: 64d3 0e3c a67d c3bb f6da acbc df1b 28bd
00000110: 9379 073d ccf9 103d e984 83bb 2034 dd3b
00000120: 7bd6 7dbc 61ba 95bb af78 5c3b 78d1 4cbc
00000130: 8915 a83b 8b00 2dba 39cb a4bc 209d bdbc
00000140: cd38 933c 9075 7e3d 6f70 debb b3f5 c43d
00000150: a9cb 8b3b 0c74 c03c 31a5 c83b 8207 83bb
00000160: c8db dc3c d22a 2e3d d55d 363d f41f e13b
00000170: 5fcd 3abc 3670 1abd aa4b ef3c a2f3 87bc
00000180: 93f9 14bd a229 c33b 8ad4 4e3c f7e3 5e3c
00000190: a517 9b3c be54 81ba 6610 f93b d6f9 a3bc
000001a0: 4cf8 d1bc 4012 c3bc 6f42 cebc 1119 3bbd
000001b0: 749f 153d 9697 2d3d b18b 7bbb 4710 dbbc
000001c0: 5346 a33a 20a2 7ebc 3ad4 82bb 3d0c 4ebc
000001d0: 03fa 483b 0d03 a23c 7175 c33c 2b68 203d
000001e0: 5fb7 ac3c d5b4 a7bc 37f9 c3bc e0c9 0ebd
000001f0: cba8 e0bc 4e54 b5bc 4cf1 fe3c 9370 a93c
00000200: 1ca3 2d3d aeb8 c03b 0614 0a3c 5d4e 903c
00000210: 41f4 013d 853e 5bbc c4d6 493c 85dc 35bd
00000220: ed5b 353d ad0c fcbc adf3 c4bc 40e8 a63c
00000230: e4da 9b3b 2932 d839 137b 98bc 72a5 8f3c
00000240: f9ab b1bc 743a 8f3c 0816 003d ace3 103c
00000250: 7f85 fbbc 4c59 da3c db9e 48bc bc0c 213c
00000260: 3be3 18bd 19c1 81bc 6a02 2a3d b5fb ba3c
00000270: 2b51 573c ef27 6e3b ddfc b93c 4ac3 adbc
00000280: bc7a c43c d693 373c e500 05bd 2c96 1b3b
00000290: ba8a b7bc ea13 b2bb d487 d43b b5bf ad3d
000002a0: e587 b6bb b3e3 05bd e802 083c 66ff f3bc
000002b0: 41ce bdbc ec2c 5abb 7f7c 6fbb bf3b cebc
000002c0: b5a7 f1bb b7d1 bf3b 1248 bb3c 9690 42bb
000002d0: 203b 0cbd d82d 26bc 3128 663c 4164 10bc
000002e0: b9c0 aabb 5bba 223d c46d 313d 21d7 c73c
000002f0: 40f9 9fbc 765e b0bc adc9 d93a 9e75 2fbc
00000300: f851 b5bb c2b5 58bc ad9c d13c be03 483d
00000310: 200a 293c 8b1b c2bb 40a1 843c 398b 9a39
00000320: c169 72bb 3237 25bc 114f 1bbd 0a08 08bc
00000330: fdc9 1b3d d6c9 9c3c 8966 d0bc 5a59 4ebc
00000340: b25c 5f3c 280f a63b 1ee1 d8bb 6ecc 6d3b
00000350: 3f67 3cbc 7302 0c3d 22eb 6a3d db6e 983b
00000360: 718f 593d a051 6dbc 434f 28bc e8dc fd3b
00000370: 1fe9 76bc fdf7 1b3d d742 fe3c 4669 a2bc
00000380: 139f f4bc 3219 243d e33a fabc ebe0 33bd
00000390: 50f4 85bb f857 913c 90e3 b9bc e997 f53c
000003a0: 63f4 043b fa0b aebc 4083 e33c 767f d2bc
000003b0: 6347 bdbc e571 a33b c1da adbb 8852 a03c
000003c0: bfe7 a0bc bcdf d83b 4643 1d3c 3729 253d
000003d0: add2 e73c cf5a fe3b 28ca 2d3d 6d6e 13bc
000003e0: 6924 5f3d f42e 063d 165b 3e3d 9bcf f3bc
000003f0: d560 733c c357 24bb 8459 c9bc 12a4 36bc

classifier.1.bias f4 [16]
-0.01792939 -0.006406659 0.006414359 -0.03183706 -0.0017952732 0.032195248 0.017540885 0.0012501214
-0.004183369 -0.008894436 0.0072823144 -0.021977378 0.012248495 -0.008806702 0.024095856 -0.008928391
00000000: a8e0 92bc f3ee d1bb 8b2f d23b 9467 02bd
00000010: 5f4f ebba 2adf 033d e7b1 8f3c 1ddb a33a
00000020: a514 89bb f8b9 11bc 7ba0 ee3b e709 b4bc
00000030: e9ad 483c fc49 10bc ac64 c53c 6348 12bc

classifier.2.weight f4 [16]
0.95121944 0.9516524 1.0723416 0.97736394 0.951992 0.9676486 1.033988 1.017911
0.91456586 1.0553366 1.0306495 1.1172945 0.9749719 1.0098331 0.9956748 0.9271763
00000000: 1e83 733f 7e9f 733f 7d42 893f 8634 7a3f
00000010: bfb5 733f d2b7 773f b859 843f e84a 823f
00000020: fd20 6a3f 4515 873f 53ec 833f 8203 8f3f
00000030: c297 793f 3642 813f 8be4 7e3f 6d5b 6d3f

classifier.2.bias f4 [16]
-0.18232414 0.02042073 -0.052219395 0.01982786 -0.020914389 0.0023411347 -0.05290812 -0.15592737
-0.011927421 -0.14122947 -0.06541425 0.016000167 -0.0018184965 -0.09581231 -0.114789926 0.06756266
00000000: 2eb3 3abe 6049 a73c 01e4 55bd 096e a23c
00000010: a754 abbc b96d 193b 2fb6 58bd 6dab 1fbe
00000020: 3b6b 43bc 759e 10be e8f7 85bd c812 833c
00000030: 9e5a eeba 3f39 c4bd fb16 ebbd 4b5e 8a3d

classifier.2.running_mean f4 [16]
-0.014674695 1.0262126 2.1714847 4.4430356 1.0817497 -0.26364705 0.3498415 0.37238753
3.573543 -0.091708176 1.5840892 0.22731042 2.7681417 2.597906 2.9941616 2.25478
00000000: 226e 70bc ef5a 833f 9bf9 0a40 592d 8e40
00000010: c676 8a3f bffc 86be 6d1e b33e 94a9 be3e
00000020: eeb4 6440 7fd1 bbbd 6fc3 ca3f 10c4 683e
00000030: 3c29 3140 1844 2640 58a0 3f40 514e 1040

classifier.2.running_var f4 [16]
0.8255789 1.2260202 0.9590503 1.06296 1.3381889 0.7716083 0.81066006 1.0607717
1.2676923 0.49127927 1.0780913 1.6531224 1.6578426 1.7533813 1.6003146 1.3277302
00000000: 2459 533f 3bee 9c3f 5284 753f 130f 883f
00000010: c649 ab3f 1f88 453f 6b87 4f3f 5ec7 873f
00000020: be43 a23f f588 fb3e e5fe 893f 8499 d33f
00000030: 3034 d43f cc6e e03f 1cd7 cc3f 10f3 a93f

classifier.4.weight f4 [16, 16]
-0.05742979 -0.062431667 -0.035241947 -0.12526615 -0.08616649 -0.16031536 0.122895606 0.15902965
-0.12946486 0.11356315 -0.031928387 0.07755359 0.2773218 -0.006988564 0.052311007 -0.03227109
-0.19925064 0.24485448 -0.042684905 -0.036929686 -0.09893079 -0.038107738 -0.041521844 -0.19957685
-0.25939712 -0.06928825 0.18330461 -0.021045053 0.18212995 -0.16722074 0.049581632 -0.007979163
-0.021218374 0.1518286 -0.072114624 0.10046553 0.14141156 0.008843568 0.22860892 -0.21213098
0.017263085 -0.20253345 -0.21422191 -0.120281436 0.28192425 -0.11117208 -0.10332115 0.15332016
0.074868456 -0.087187886 -0.13514638 0.058749884 -0.027306773 -0.031046532 -0.14181067 0.10887568
0.037012015 0.09214592 0.0018071765 0.1518379 -0.0763483 -0.26951 0.08696308 -0.025224082
0.11390606 0.1513414 -0.15892857 0.051180087 -0.044313822 0.06875148 0.057363216 -0.13910206
-0.26087433 -0.06792026 0.16352966 0.03322646 -0.07361452 0.025950465 -0.060305055 -0.313453
-0.064437486 -0.08578876 -0.15851937 0.17603445 0.041378345 -0.14790447 -0.137668 -0.12013225
-0.059835963 -0.20973693 0.20232046 -0.1895851 0.19615914 0.14412358 -0.2264196 -0.023300359
-0.07668262 0.049647715 -0.24895185 0.13066843 0.20048897 -0.18658309 -0.019768726 -0.13527644
0.0048880773 0.16540258 0.04229826 -0.3283821 0.119668685 -0.091482125 0.06348555 0.0010605745
-0.28120422 -0.25604567 0.26549163 0.041271392 0.04558899 0.1076645 0.0105115995 -0.13722256
0.115457885 -0.18057922 0.047454737 0.16144235 -0.17392024 -0.11830051 0.19392517 -0.055267725
0.041260358 -0.1363303 0.1404124 0.028288383 -0.08242831 -0.1391994 -0.0805908 0.0140302675
0.16396941 -0.008013268 -0.0386929 -0.23279195 -0.17400774 -0.20158468 0.091263734 -0.06690614
-0.3155291 -0.108385235 0.15611747 -0.05695812 -0.17046796 -0.024297582 0.058908716 -0.17028636
-0.019356148 0.16324648 0.20540132 0.104379326 0.06105394 0.20341243 0.25207418 0.12655626
0.014601365 0.037329983 0.20244962 -0.14681162 -0.13874009 0.10677751 0.117749475 -0.18564321
-0.071093135 -0.19236821 0.16845453 0.14602455 0.17554681 -0.012157889 0.09453415 -0.05661413
0.08730498 0.1464445 -0.23027337 0.089225 -0.19967806 -0.09180167 0.107312925 -0.086487986
0.1412998 -0.118943974 -0.123526275 -0.13395403 0.09749197 -0.16535322 0.038829785 0.04583442
0.010257105 0.11677457 0.05582051 0.2857251 0.21964934 0.14744595 0.007856105 -0.11437352
-0.18716468 -0.08269509 0.11389357 -0.27332035 0.1279601 -0.32257035 -0.072728775 0.090742074
-0.22386806 -0.19438286 -0.2784734 -0.030152777 0.04747925 -0.19420476 -0.118150346 0.033111133
0.1714031 0.16020639 -0.012538983 -0.12908512 0.045505904 0.040458973 0.2459318 0.15237758
0.08625448 -0.29216993 -0.22930491 0.09427834 -0.13814202 -0.04577486 -0.013540618 -0.23440409
0.16903399 -0.30329493 0.12338033 -0.22235239 0.13256747 0.22952001 -0.09597731 0.12556264
-0.006800635 0.001155145 -0.16941449 -0.03799379 0.049811766 0.010784063 -0.19477437 -0.21483934
-0.10073958 -0.03638495 -0.034109883 0.015889555 -0.22961989 -0.27996367 0.047732323 -0.10905181
00000000: 803b 6bbd 59b8 7fbd dc59 10bd c545 00be
00000010: 0f78 b0bd b629 24be b1b0 fb3d abd8 223e
00000020: 7092 04be cc93 e83d 57c7 02bd 6bd4 9e3d
00000030: 1ffd 8d3e 5300 e5bb 1144 563d b12e 04bd
00000040: 5c08 4cbe 22bb 7a3e 5ed6 2ebd 9543 17bd
00000050: 3a9c cabd dc16 1cbd cf12 2abd e05d 4cbe
00000060: b3cf 84be ffe6 8dbd 34b4 3b3e ad66 acbc
00000070: 4680 3a3e ea3b 2bbe 1c16 4b3d 09bb 02bc
00000080: 28d2 adbc f578 1b3e d5b0 93bd dfc0 cd3d
00000090: 31ce 103e 9de4 103c 7518 6a3e dd38 59be
000000a0: 506b 8d3c ee64 4fbe fd5c 5bbe 1d56 f6bd
000000b0: 6058 903e 30ae e3bd 0a9a d3bd f6ff 1c3e
000000c0: a254 993d 908f b2bd d063 0abe b8a3 703d
000000d0: 74b2 dfbc 4c55 febc d136 11be 36fa de3d
000000e0: e999 173d 00b7 bc3d c8de ec3a 657b 1b3e
000000f0: 7f5c 9cbd 37fd 89be b319 b23d bca2 cebc
00000100: 9547 e93d 3df9 1a3e 2cbe 22be 36a2 513d
00000110: 6982 35bd 93cd 8c3d b1f5 6a3d c570 0ebe
00000120: 5291 85be c719 8bbd 5274 273e 7818 083d
00000130: 36c3 96bd 1296 d43c 6f02 77bd e97c a0be
00000140: cdf7 83bd 04b2 afbd e752 22be 6042 343e
00000150: 577c 293d 4574 17be d7f8 0cbe e607 f6bd
00000160: 8e16 75bd 47c5 56be 182d 4f3e 9922 42be
00000170: f1dd 483e 2295 133e 8ada 67be 65e0 bebc
00000180: c70b 9dbd 675b 4b3d 3ced 7ebe f2cd 053e
00000190: fb4c 4d3e a30f 3fbe 06f2 a1bc e885 0abe
000001a0: 2a2c a03b 4b5f 293e f140 2d3d b321 a8be
000001b0: db14 f53d fb5a bbbd b604 823d fa02 8b3a
000001c0: 00fa 8fbe 6b18 83be 85ee 873e 310c 293d
000001d0: 85bb 3a3d 357f dc3d d838 2c3c 1284 0cbe
000001e0: 2f75 ec3d c2e9 38be e65f 423d 2551 253e
000001f0: 2618 32be 8a47 f2bd 5294 463e 6960 62bd
00000200: 9f00 293d 2c9a 0bbe 45c8 0f3e 0abd e73c
00000210: 2cd0 a8bd 4a8a 0ebe ca0c a5bd 35df 653c
00000220: 99e7 273e 154a 03bc 727c 1ebd 0361 6ebe
00000230: 162f 32be 376c 4ebe 7be8 ba3d 1606 89bd
00000240: 088d a1be 14f9 ddbd 42dd 1f3e eb4c 69bd
00000250: 278f 2ebe b90b c7bc 444a 713d 8c5f 2ebe
00000260: c990 9ebc 162a 273e b954 523e d4c4 d53d
00000270: b213 7a3d 594b 503e de0f 813e f797 013e
00000280: 903a 6f3c 53e7 183d f44e 4f3e c955 16be
00000290: e211 0ebe 2bae da3d a326 f13d 4119 3ebe
000002a0: 4799 91bd 2cfc 44be 587f 2c3e 7687 153e
000002b0: 8bc2 333e e231 47bc 1f9b c13d 38e4 67bd
000002c0: f4cc b23d 8cf5 153e c8cc 6bbe 99bb b63d
000002d0: 6878 4cbe 8402 bcbd e1c6 db3d 9d20 b1bd
000002e0: e5b0 103e e698 f3bd 58fb fcbd 3f2b 09be
000002f0: dfa9 c73d 5b52 29be fb0b 1f3d dfbc 3b3d
00000300: 6b0d 283c 8127 ef3d 0ca4 643d 8f4a 923e
00000310: c2eb 603e 12fc 163e e5b6 003c aa3c eabd
00000320: 19a8 3fbe 0b5c a9bd 0841 e93d a5f0 8bbe
00000330: f907 033e f127 a5be d3f2 94bd fbd6 b93d
00000340: ab3d 65be 4d0c 47be 1194 8ebe f502 f7bc
00000350: 9a79 423d 9ddd 46be cff8 f1bd 8a9f 073d
00000360: 4b84 2f3e 250d 243e 4e70 4dbc e42e 04be
00000370: 6664 3a3d 4fb8 253d 8cd5 7b3e de08 1c3e
00000380: 30a6 b03d 4c97 95be e8ce 6abe 0115 c13d
00000390: 1a75 0dbe 6b7e 3bbd 78d9 5dbc a007 70be
000003a0: 3f17 2d3e 7949 9bbe d4ae fc3d 58b0 63be
000003b0: c4bf 073e 4b07 6b3e c08f c4bd 7e93 003e
000003c0: dcd7 debb 3c68 973a fe7a 2dbe 609f 1bbd
000003d0: 6c07 4c3d a3af 303c ef72 47be d8fe 5bbe
000003e0: 8e50 cebd 6308 15bd ceb6 0bbd d02a 823c
000003f0: 7a21 6bbe 6657 8fbe f882 433d 8e56 dfbd

classifier.4.bias f4 [16]
0.003650118 -0.0817227 -0.019561766 0.045195185 0.035625607 0.14227712 -0.11084735 -0.10442227
-0.103751995 -0.047677644 0.18801568 -0.18766747 0.17004135 0.21434091 -0.11011721 -0.16088599
00000000: d136 6f3b 3b5e a7bd ff3f a0bc 961e 393d
00000010: 28ec 113d 18b1 113e ef03 e3bd 58db d5bd
00000020: ed7b d4bd a249 43bd 2f87 403e e72b 40be
00000030: 521f 2e3e 2f7c 5b3e 2285 e1bd 4cbf 24be

classifier.5.weight f4 [16]
1.0977563 1.041758 1.0007554 0.9201828 1.0372543 1.0088141 0.9727911 0.94999146
1.0290142 1.0266794 0.98421633 0.9901189 1.0748723 0.93271554 0.95553404 1.0264201
00000000: 4783 8c3f 5358 853f c118 803f 1a91 6b3f
00000010: c0c4 843f d220 813f d608 793f a432 733f
00000020: bdb6 833f 3b6a 833f 9af5 7b3f 6f78 7d3f
00000030: 6a95 893f 72c6 6e3f e19d 743f bc61 833f

classifier.5.bias f4 [16]
0.10514745 0.0028885375 0.004559383 0.13871753 0.11155706 0.06142872 -0.032309823 -0.039165612
0.016136304 0.03583027 -0.03590284 0.019069804 0.038562886 -0.109975785 0.076661676 0.123022184
00000000: 8c57 d73d 9e4d 3d3b e066 953b f80b 0e3e
00000010: 0778 e43d ae9c 7b3d 4e57 04bd 1f6c 20bd
00000020: 4830 843c c3c2 123d db0e 13bd 4738 9c3c
00000030: 1ef4 1d3d fc3a e1bd cc00 9d3d 0ef3 fb3d

classifier.5.running_mean f4 [16]
0.033865917 -0.24062909 0.013494119 -0.025874918 -0.15310764 -0.090369195 -0.2774806 -0.1205021
-0.3986543 0.16843064 0.3304317 -0.3594781 0.21651898 0.08509158 -0.33990535 -0.64907795
00000000: fdb6 0a3d 7967 76be 7016 5d3c a3f7 d3bc
00000010: 40c8 1cbe 7c13 b9bd f011 8ebe cec9 f6bd
00000020: 6b1c ccbe 1579 2c3e 582e a93e 830d b8be
00000030: 27b7 5d3e 7f44 ae3d 1308 aebe f929 26bf

classifier.5.running_var f4 [16]
0.17828341 0.059853435 0.108357444 0.04218838 0.07519659 0.12437006 0.2148004 0.19791843
0.06719716 0.051263243 0.2646914 0.065577745 0.07560682 0.22567053 0.21088597 0.10000807
00000000: ed8f 363e e028 753d 82ea dd3d b9cd 2c3d
00000010: ab00 9a3d bbb5 fe3d a3f4 5b3e 21ab 4a3e
00000020: aa9e 893d 68f9 513d a285 873e a04d 863d
00000030: c0d7 9a3d 2d16 673e 7ef2 573e 08d1 cc3d

classifier.7.weight f4 [16, 16]
0.14903069 -0.029132163 -0.03250816 -0.19948079 0.079796314 0.1491468 -0.10969666 0.12166773
0.007953015 0.10597815 -0.17294016 -0.04322868 0.29908302 0.24327093 -0.23051488 0.02711064
-0.09039032 -0.046654064 -0.03918991 0.18729156 0.05794892 -0.11854141 -0.1295316 0.13786577
-0.20603389 -0.11905543 -0.14553429 -0.0033030123 -0.054731987 0.25235215 -0.23086755 0.0404579
0.026595779 -0.030802593 -0.22014563 -0.059062436 -0.069704 0.06040546 -0.27196455 0.027378617
-0.008551529 -0.19006267 -0.19801392 -0.18923764 -0.17915732 0.03350047 0.02481788 -0.11528948
-0.14137149 -0.27569214 0.04100618 -0.07724094 -0.048861697 0.10308096 0.034618378 -0.019085243
-0.160718 0.102280736 -0.16765808 -0.15558136 -0.0971892 0.16749775 -0.040920675 -0.17162532
-0.13211875 -0.031629108 -0.1327647 -0.10627402 -0.14069097 0.053029478 -0.0065164417 0.04538622
0.22315383 -0.06327838 0.04268459 0.26349095 -0.08143213 0.23127349 -0.28744808 -0.044206016
-0.1563231 0.21244091 -0.18392494 -0.34081364 0.2551332 0.29156864 0.06277061 -0.11484456
-0.008366975 -0.14502762 -0.0055396194 -0.18967283 -0.09633118 0.14918725 0.17569223 -0.08430226
0.2612027 -0.16242842 0.2963363 -0.23497072 0.09643554 0.20553882 -0.025549943 0.12001704
-0.05637975 -0.028010955 0.22137934 -0.0022413323 -0.082355194 0.0541014 -0.11979036 -0.033060525
-0.019525077 0.1842644 -0.015794847 0.11897067 -0.15046951 -0.16462363 -0.13339694 -0.05160772
0.021411981 0.113745004 0.048555113 -0.16800539 0.009552028 0.14623012 0.016850801 -0.14158686
-0.10767746 -0.17108479 -0.12612113 -0.093852095 -0.1295386 -0.009678687 -0.13242967 0.21309124
-0.08489811 -0.061606295 -0.09648885 0.18260151 0.118780464 -0.075794905 -0.012282001 0.27885354
-0.15090631 -0.102983326 0.06588223 -0.13357462 -0.32994542 0.10930674 -0.19196665 0.051467814
0.20892212 -0.107053086 0.04132537 0.025201185 0.15654257 0.09198979 0.076191545 0.04571028
0.15169069 0.053635824 -0.16089727 0.1783664 -0.24951051 0.040291768 -0.22899564 0.06928707
-0.101573415 0.09104487 0.07283199 0.102801874 0.2668598 -0.12745096 0.040366903 -0.061257783
0.01911678 -0.051232442 0.010425017 0.03175366 -0.055312276 0.002584431 0.30294356 -0.14733534
0.067135744 0.12353664 -0.028050505 0.17191356 0.20520921 0.009282824 -0.091477476 0.11013135
-0.26125363 -0.08432588 -0.047828544 -0.0018424444 0.15064476 -0.20035496 0.09575692 0.13424206
-0.011571371 -0.03689165 -0.11190951 -0.14212298 0.05073564 -0.32709566 -0.15887201 0.26217496
-0.013324282 0.24498047 -0.132107 -0.16313055 0.0131851 -0.008408458 0.033729512 0.005414422
0.0012077541 0.2550024 0.10751349 0.13204435 0.03403677 -0.19715296 0.018224137 0.049772386
0.12925245 -0.059026044 0.08311947 -0.07323999 0.094910994 0.30311128 -0.046300527 -0.030606095
0.072669856 -0.051663075 0.009031922 0.12906559 -0.18660316 0.20577915 0.14650905 0.023891803
0.25147226 -0.11199942 -0.21697903 -0.07022887 0.07302021 -0.18363912 -0.059418466 -0.24690181
-0.043962054 -0.2157411 0.08829924 0.11547069 0.0796618 -0.08973253 -0.065651566 -0.1631725
00000000: 809b 183e 93a6 eebc 4727 05bd b144 4cbe
00000010: 406c a33d f0b9 183e a4a8 e0bd ee2c f93d
00000020: 5d4d 023c 130b d93d 3a17 31be 8e10 31bd
00000030: 6921 993e 041c 793e 180c 6cbe 2217 de3c
00000040: 8f1e b9bd 5518 3fbd 9985 20bd 5cc9 3f3e
00000050: d95b 6d3d d7c5 f2bd efa3 04be af2c 0d3e
00000060: 8cfa 52be 55d3 f3bd f106 15be 5a77 58bb
00000070: a62e 60bd 4d34 813e 8b68 6cbe 2fb7 253d
00000080: 64df d93c b855 fcbc db6d 61be 74eb 71bd
00000090: f9c0 8ebd b76b 773d f03e 8bbe 1f49 e03c
000000a0: b61b 0cbc ca9f 42be 29c4 4abe 83c7 41be
000000b0: 0475 37be ca37 093d de4e cb3c e41c ecbd
000000c0: b0c3 10be 8527 8dbe 19f6 273d 7f30 9ebd
000000d0: 3423 48bd 1c1c d33d 00cc 0d3d a858 9cbc
000000e0: 4293 24be 9078 d13d 8fae 2bbe b850 1fbe
000000f0: 220b c7bd 8884 2b3e 709c 27bd 8cbe 2fbe
00000100: 234a 07be 868d 01bd 78f3 07be 32a6 d9bd
00000110: 4b11 10be 7035 593d e087 d5bb e7e6 393d
00000120: 7082 643e 1898 81bd 09d6 2e3d 49e8 863e
00000130: e3c5 a6bd f5d2 6c3e 652c 93be 5e11 35bd
00000140: 2a13 20be 1c8a 593e d256 3cbe 207f aebe
00000150: d2a0 823e 7c48 953e e18d 803d a033 ebbd
00000160: a315 09bc 1f82 14be b285 b5bb 9839 42be
00000170: 4849 c5bd 8bc4 183e aae8 333e aaa6 acbd
00000180: 5cbc 853e a353 26be 64b9 973e 2a9c 70be
00000190: ff7f c53d c578 523e 1d4e d1bc 7ecb f53d
000001a0: 74ee 66bd 3b77 e5bc 44b1 623e 51e3 12bb
000001b0: d7a9 a8bd 6e99 5d3d a654 f5bd 796a 07bd
000001c0: 0ef3 9fbc cfaf 3c3e 3264 81bc e5a6 f33d
000001d0: ae14 1abe 1993 28be 3599 08be 9e62 53bd
000001e0: 2e68 af3c 24f3 e83d bae1 463d 9b09 2cbe
000001f0: 1c80 1c3c 59bd 153e b10a 8a3c 25fc 10be
00000200: 0086 dcbd da30 2fbe e625 01be 8735 c0bd
00000210: c4a5 04be 5b93 1ebc a59b 07be 9734 5a3e
00000220: 0fdf adbd e256 7cbd f29b c5bd e4fb 3a3e
00000230: 2c43 f33d 5c3a 9bbd 723a 49bc e4c5 8e3e
00000240: 2f87 1abe ece8 d2bd 43ed 863d c9c7 08be
00000250: 9bee a8be 36dc df3d e892 44be eacf 523d
00000260: aeef 553e a63e dbbd cb44 293d b772 ce3c
00000270: b24c 203e 2565 bc3d 500a 9c3d b43a 3b3d
00000280: ce54 1b3e 3db1 5b3d 41c2 24be aea5 363e
00000290: af7f 7fbe fb08 253d d57d 6abe 61e6 8d3d
000002a0: b905 d0bd bc75 ba3d f028 953d ca89 d23d
000002b0: d9a1 883e 8182 02be c457 253d 71e9 7abd
000002c0: cb9a 9c3c 1cd9 51bd b1cd 2a3c 2010 023d
000002d0: 208f 62bd 8f5f 293b 6b1b 9b3e 13df 16be
000002e0: 777e 893d c700 fd3d 2cca e5bc 1c0a 303e
000002f0: 5d22 523e fc16 183c 8b58 bbbd 8c8c e13d
00000300: 09c3 85be 0cb3 acbd dde7 43bd 2d7e f1ba
00000310: 9f42 1a3e da29 4dbe 341c c43d c076 093e
00000320: d995 3dbc b31b 17bd d030 e5bd b088 11be
00000330: 2dd0 4f3d 1579 a7be 58af 22be cc3b 863e
00000340: 174e 5abc 29dc 7a3e 0f47 07be b20b 27be
00000350: 5106 583c a1c3 09bc f527 0a3d 776b b13b
00000360: 814d 9e3a ad8f 823e 0830 dc3d a236 073e
00000370: 246a 0b3d 77e2 49be c94a 953c 21de 4b3d
00000380: c15a 043e 4bc5 71bd 8a3a aa3d d9fe 95bd
00000390: b260 c23d 6731 9b3e 9fa5 3dbd a2b9 fabc
000003a0: efd3 943d a99c 53bd a0fa 133c c529 043e
000003b0: e614 3fbe c5b7 523e 7806 163e beb8 c33c
000003c0: f9c0 803e f45f e5bd c02f 5ebe 27d4 8fbd
000003d0: 9f8b 953d e50b 3cbe c760 73bd d4d3 7cbe
000003e0: 8e11 34bd 3ceb 5cbe 3bd6 b43d e67b ec3d
000003f0: ba25 a33d b0c5 b7bd 5474 86bd b116 27be

classifier.7.bias f4 [16]
-0.13104707 0.20126002 0.028547931 -0.22841844 -0.24585612 -0.07624894 -0.15530834 0.025185056
0.25874254 0.08454935 0.13577649 0.013281658 0.16808808 0.2527923 0.05450668 -0.30767822
00000000: 3431 06be 1b17 4e3e 5add e93c 86e6 69be
00000010: b5c1 7bbe 6728 9cbd 2609 1fbe e450 ce3c
00000020: e779 843e 3628 ad3d fe08 0b3e 509b 593c
00000030: 481f 2c3e fe6d 813e 6642 5f3d 0088 9dbe

classifier.8.weight f4 [16]
1.3351885 1.3022768 1.3393438 1.3195827 1.3071895 1.318402 1.3065807 1.272949
1.2981218 1.3067441 1.2865591 1.3274858 1.2880894 1.2954879 1.3348861 1.3304164
00000000: 75e7 aa3f 02b1 a63f 9e6f ab3f 16e8 a83f
00000010: fc51 a73f 66c1 a83f 093e a73f feef a23f
00000020: db28 a63f 6443 a73f f8ad a43f 0eeb a93f
00000030: 1de0 a43f 8cd2 a53f 8cdd aa3f 164b aa3f

classifier.8.bias f4 [16]
0.31203896 0.27181843 0.31892237 0.297798 0.30624807 0.32349634 0.3060796 0.26637384
0.2865716 0.3041438 0.27286047 0.3745263 0.30036345 0.32253844 0.33662543 0.2760929
00000000: 92c3 9f3e c92b 8b3e cb49 a33e fb78 983e
00000010: 8ccc 9c3e 50a1 a53e 77b6 9c3e 2762 883e
00000020: 83b9 923e bcb8 9b3e 5eb4 8b3e e9c1 bf3e
00000030: 3dc9 993e c223 a53e 2b5a ac3e 0c5c 8d3e

classifier.8.running_mean f4 [16]
0.034306243 -0.048885144 -0.52055347 -0.6526185 -0.38499963 -0.14215502 0.038499337 -0.08378621
0.13640332 -0.017512457 0.225791 0.30866757 -0.07797554 0.43760175 0.35346115 -0.6173706
00000000: b484 0c3d ca3b 48bd fe42 05bf 0212 27bf
00000010: ac1e c5be 1691 11be 7bb1 1d3d 1b98 abbd
00000020: 50ad 0b3e 4976 8fbc c235 673e ad09 9e3e
00000030: a4b1 9fbd 560d e03e dcf8 b43e 000c 1ebf

classifier.8.running_var f4 [16]
0.06375672 0.08219552 0.080444105 0.11688887 0.074573874 0.31065756 0.19502053 0.08275033
0.15769112 0.24445784 0.08109748 0.08548744 0.17337078 0.076771386 0.075546645 0.11659743
00000000: e292 823d 2056 a83d e1bf a43d 6f63 ef3d
00000010: 30ba 983d 820e 9f3e 76b3 473e 0179 a93d
00000020: c879 213e 2853 7a3e 7016 a63d 0a14 af3d
00000030: 1c88 313e 513a 9d3d 33b8 9a3d a2ca ee3d

classifier.10.weight f4 [10, 16]
-0.019543372 -0.2375017 0.50007534 0.39766654 -0.27687186 0.25629306 -0.016268821 -0.382024
-0.16198076 -0.010574141 -0.3179971 -0.20207979 -0.15618968 -0.3254114 0.4873862 -0.3894036
0.23943602 0.31579083 -0.07138503 0.46892062 0.15585859 -0.26112604 -0.3743615 0.33186433
-0.43116155 -0.30587304 -0.15607966 0.48933217 -0.2608304 -0.36498928 -0.25525606 -0.1881476
-0.3440912 -0.23843312 -0.11851247 -0.2316836 0.5037507 -0.46759447 -0.17649396 -0.39047015
0.34902057 0.35590595 -0.11817845 0.23000799 -0.5291746 -0.013310613 0.53057694 -0.30994433
0.54535764 -0.3366121 -0.12346127 -0.22820853 -0.3442527 0.3807232 -0.33915725 -0.26991463
-0.030633554 -0.37520537 -0.21245295 0.36033738 0.23812021 0.3315003 -0.0360841 -0.38677344
0.42916256 -0.33260846 -0.41683817 -0.3922779 0.025269976 -0.43091178 -0.3403402 -0.19391978
0.36008066 0.34248373 0.46659026 0.3245485 0.22242077 -0.48644415 -0.25074476 -0.13526796
0.15282935 -0.4187139 -0.109985866 -0.19929507 -0.12636574 -0.35890856 0.17535001 0.4673498
-0.23974456 -0.08860391 0.41285813 -0.20987895 -0.3113539 0.44294894 -0.25901857 -0.46174425
-0.16132021 -0.31028345 0.5102029 0.024260975 0.41977942 0.07351386 -0.26758218 -0.1928979
0.38836524 0.30326357 -0.34563446 -0.46655303 0.05110473 -0.0471483 -0.029515758 -0.2395274
-0.3862999 0.26500848 0.53966016 -0.114194706 -0.3196694 -0.316368 -0.2532416 0.3552176
-0.42932627 -0.39087275 0.39634046 -0.2639726 -0.5051268 -0.36187375 -0.39787698 0.3954022
-0.14544316 0.47269905 0.31230685 -0.15199015 -0.13300022 -0.13187237 -0.3717454 -0.35251594
0.36188996 -0.513612 -0.4692615 -0.19709222 0.5026653 -0.41277927 -0.4773884 -0.24838187
-0.014517577 -0.26483288 -0.4497756 -0.2902358 -0.2648136 -0.3313532 0.44708502 -0.32691067
-0.33328244 -0.1375685 -0.20565775 -0.16367859 -0.45705166 -0.31992465 0.2861083 0.40486932
00000000: 6c19 a0bc a533 73be f004 003f f39a cb3e
00000010: 26c2 8dbe d838 833e 3146 85bc a698 c3be
00000020: 49de 25be 293f 2dbc 84d0 a2be 01ee 4ebe
00000030: 30f0 1fbe 539c a6be af8a f93e e95f c7be
00000040: b72e 753e 56af a13e 5132 92bd 5d16 f03e
00000050: 6599 1f3e 50b2 85be 4fac bfbe 1fea a93e
00000060: 35c1 dcbe 649b 9cbe 59d3 1fbe bf89 fa3e
00000070: 908b 85be e0df babe ecb0 82be c4a9 40be
00000080: b92c b0be d027 74be aab6 f2bd 773e 6dbe
00000090: cef5 003f 8b68 efbe d5ba 34be b4eb c7be
000000a0: d3b2 b23e 4e39 b63e 8b07 f2bd 3787 6b3e
000000b0: fd77 07bf c214 5abc e4d3 073f 06b1 9ebe
000000c0: 8f9c 0b3f 6c58 acbe 43d9 fcbd 7faf 69be
000000d0: e441 b0be 27ee c23e 05a6 adbe 4032 8abe
000000e0: 38f3 fabc eb1a c0be 448d 59be 247e b83e
000000f0: c9d5 733e 68ba a93e eccc 13bd 2b07 c6be
00000100: 32bb db3e a84b aabe d06b d5be a6d8 c8be
00000110: fb02 cf3c 78a0 dcbe 1241 aebe e892 46be
00000120: 7e5c b83e 075a af3e ebe4 ee3e 392b a63e
00000130: 45c2 633e 350f f9be 9e61 80be af83 0abe
00000140: 4c7f 1c3e ab61 d6be 4540 e1bd 0214 4cbe
00000150: 0566 01be ddc2 b7be f48e 333e 7948 ef3e
00000160: 997f 75be f775 b5bd 2462 d33e 82ea 56be
00000170: c769 9fbe 34ca e23e 159e 84be be69 ecbe
00000180: 2031 25be 79dd 9ebe a89c 023f f4be c63c
00000190: 54ed d63e 6f8e 963d 8800 89be 0787 45be
000001a0: cfd7 c63e 5d45 9b3e 00f7 b0be 0ae0 eebe
000001b0: 3253 513d 931e 41bd 08cb f1bc ac46 75be
000001c0: 1ac9 c5be 31af 873e 2b27 0a3f eade e9bd
000001d0: b5ab a3be fdfa a1be e2a8 81be 15df b53e
000001e0: a7d0 dbbe 7920 c8be 23ed ca3e 6b27 87be
000001f0: fd4f 01bf 8447 b9be 88b6 cbbe 2872 ca3e
00000200: 0def 14be 9c05 f23e afe6 9f3e 4ea3 1bbe
00000210: 3631 08be 8d09 07be 6a55 bebe f87c b4be
00000220: a449 b93e 137c 03bf 0b43 f0be 8bd2 49be
00000230: acae 003f ce57 d3be 416c f4be d157 7ebe
00000240: 22db 6dbc 2d98 87be fd48 e6be c999 94be
00000250: a695 87be 20a7 a9be 54e8 e43e d660 a7be
00000260: ffa3 aabe c2de 0cbe f297 52be 5c9b 27be
00000270: ad02 eabe 2acd a3be c97c 923e 084b cf3e

classifier.10.bias f4 [10]
-0.022953374 -0.25862867 -0.1232831 -0.22229688 -0.11774482 0.04610176 0.27697167 0.025332863
0.09243533 0.2958776
00000000: b708 bcbc fa6a 84be da7b fcbd cba1 63be
00000010: 3224 f1bd 33d5 3c3d 3bcf 8d3e dd86 cf3c
00000020: bc4e bd3d 457d 973e

exp_avg f4 [16, 784]
2.275878e-08 4.670534e-07 9.291697e-06 7.782491e-06 2.2093194e-05 3.400888e-05 5.4986205e-05 0.00019167758
0.0004951737 0.00011146834 -0.00029762933 3.5971476e-05 4.8489885e-05 0.00032201147 0.000516901 2.0468806e-05
-4.9220867e-05 -0.0001812242 -0.0001631283 0.00040098268 0.00039542312 -0.00010668618 -0.00029410544 -0.00013510315
-0.00011130132 4.424466e-05 3.7027236e-05 1.3000645e-06 2.1035972e-07 8.047906e-06 1.12903135e-05 1.6673524e-05
4.178501e-05 -4.6161334e-05 -0.00010587698 3.0236859e-05 6.506958e-05 0.00083466026 8.819829e-05 0.0007027616
0.0010275927 0.0013973102 0.0014556638 0.0007476668 0.00034626012 0.00022971297 0.00030272335 -0.00032487328
-0.0003247615 -0.0007608211 -0.0009212226 -0.0006948444 -0.00032900786 2.469068e-05 -5.793902e-05 -1.0633057e-05
-1.5859389e-06 1.07546675e-05 -1.4185331e-06 7.905749e-06 4.1526942e-05 -9.419163e-05 -0.00038169711 -0.0007672569
0.00093519414 0.0011422015 0.00024044092 0.00076184375 0.00050044846 0.00036139932 5.7048615e-06 -0.000175525
2.0001156e-05 0.00022431118 0.00029818193 -0.0005061736 -0.00071440346 -0.0011162503 -0.0009193144 -0.0009660287
-0.0009192428 -0.00019458182 -0.00020295591 -8.2608734e-05 -1.9031303e-06 7.0224305e-06 -2.703036e-05 1.6308334e-06
9.549949e-06 4.103547e-05 -0.0006683305 -0.00014410532 0.0015464842 0.0014552441 0.0006684203 0.0006855116
0.0004149952 -0.00041543442 -0.0011984133 -0.0005796919 -0.00041733423 -0.00022649315 0.00044790492 -0.00010434503
-0.0010106858 -0.0014170556 -0.0007900196 -0.00039849052 -0.0007707576 -0.00015928468 -8.112325e-05 1.0074053e-05
-1.126564e-06 8.038622e-06 -1.3869889e-05 -2.5060644e-05 -9.65471e-05 -0.0003578023 -0.00048274736 0.00039720515
0.001743047 0.0011476298 0.0009108269 0.000573469 6.0800445e-05 -0.0010913823 -0.0012126983 -0.0010070425
-0.0013339471 -0.0006355854 -0.0001823294 -0.0012203982 -0.0022429123 -0.0023505145 -0.0022259855 -0.0016646424
-0.0017105346 -0.00078250846 -0.000172714 -3.8125647e-05 8.548256e-06 8.5837455e-06 -1.6035016e-05 -0.00012384818
-3.3316453e-05 -0.00025919056 -0.00029787418 0.0007958121 0.0017323921 0.0014305885 0.0009827921 0.0007642193
0.00029290523 -0.0009448142 -0.0014787875 -0.0006367706 -0.0006356651 -0.00071512227 -0.0005584887 -0.00016333877
-0.00038062345 -0.0013293944 -0.0016238723 -0.0017471345 -0.001733443 -0.0004837341 -0.00046501917 -0.00016154943
1.6649616e-06 -2.7326888e-07 -6.480477e-05 -0.0002286576 -3.117182e-05 -0.00046481282 -0.0002580756 0.0008264173
0.0015620568 0.0012489122 0.0006867152 0.0012945557 0.0005129893 -0.0009765585 -0.0014925476 -0.0010457198
-0.00068367843 -0.000763153 0.00043622777 0.00019093575 -0.0001535368 -0.0009587955 -0.0017289597 -0.0014096585
-0.0018584026 -0.0012826795 -4.810555e-05 -0.00024952163 1.2404873e-06 -3.637185e-05 -0.000100433055 -1.963089e-05
-0.00016140807 -0.00051858433 -0.0001530757 0.0009937389 0.0014420295 0.0015594936 0.0004510201 0.0009444212
0.00042773993 -0.00051541824 -0.0009792235 -0.000779635 0.00021689988 -0.00042086394 0.00040107942 0.0003872765
-0.000473687 -0.0010294361 -0.001872882 -0.0012979624 -0.0015947736 -0.0007839783 -0.0002598476 -0.00015891668
-5.424891e-06 -3.3387223e-05 -3.8553797e-05 4.1063733e-05 -0.00015548372 -0.0003853828 0.00013265874 0.0009314051
0.0018857885 0.001719193 0.0005493147 0.0003637439 0.0003777309 -0.00046728778 -0.00056005456 0.00034196055
0.00017952087 -0.0016663001 0.0005038599 0.0007227037 0.0005151119 7.339726e-05 -0.0014025003 -0.001210673
-0.00048121627 -0.0002485408 -0.00068860024 -0.00026225476 -1.1843484e-05 -6.834949e-05 -0.00010983569 5.1118106e-05
00000000: 167f c332 55bf fa34 89e3 1b37 8b91 0237
00000010: c654 b937 c2a4 0e38 fda0 6638 0ffd 4839
00000020: 8bce 013a 1cc4 e938 220b 9cb9 14e0 1638
00000030: 9e61 4b38 a6d3 a839 a480 073a 6db4 ab37
00000040: 8172 4eb8 0007 3eb9 6b0d 2bb9 fc3a d239
00000050: cb50 cf39 b5bc dfb8 2a32 9ab9 7aaa 0db9
00000060: 716a e9b8 5893 3938 b14d 1b38 e07d ae35
00000070: 3ddf 6134 7e05 0737 876b 3d37 1fde 8b37
00000080: 5042 2f38 5b9d 41b8 450a deb8 29a5 fd37
00000090: f775 8838 1acd 5a3a 19f7 b838 8839 383a
000000a0: 4ab0 863a f325 b73a f9cb be3a 12ff 433a
000000b0: 3f8a b539 1bdf 7039 d7b6 9e39 c153 aab9
000000c0: c044 aab9 d771 47ba 347e 71ba 3826 36ba
000000d0: b07e acb9 d51e cf37 8d03 73b8 a264 32b7
000000e0: 72dc d4b5 f26e 3437 6d64 beb5 efa2 0437
000000f0: 372d 2e38 bf88 c5b8 851e c8b9 bd21 49ba
00000100: d127 753a ecb5 953a de1e 7c39 78b6 473a
00000110: 8730 033a 327a bd39 636c bf36 220d 38b9
00000120: 28c8 a737 1335 6b39 4d55 9c39 bcb0 04ba
00000130: ce46 3bba 254f 92ba 25fe 70ba 173d 7dba
00000140: 57f9 70ba a908 4cb9 90d0 54b9 3a3e adb8
00000150: 0f6f ffb5 38a2 eb36 42bf e2b7 02e3 da35
00000160: b838 2037 801d 2c38 e732 2fba fa1a 17b9
00000170: 66b3 ca3a e4bd be3a ed38 2f3a e8b3 333a
00000180: b693 d939 aace d9b9 1414 9dba 77f6 17ba
00000190: a7cd dab9 cb7e 6db9 c8d4 ea39 d0d3 dab8
000001a0: fd78 84ba 7fbc b9ba 5119 4fba 7eec d0b9
000001b0: ab0c 4aba a805 27b9 b720 aab8 ba03 2937
000001c0: 7234 97b5 9edd 0637 b8b2 68b7 5339 d2b7
000001d0: 5479 cab8 6997 bbb9 4119 fdb9 f93f d039
000001e0: f476 e43a 116c 963a 8fc4 6e3a da54 163a
000001f0: fb03 7f38 b70c 8fba 67f3 9eba bdfe 83ba
00000200: d6d7 aeba 6a9d 26ba ad2f 3fb9 c5f5 9fba
00000210: d3fd 12bb 170b 1abb d7e1 11bb 2130 daba
00000220: 0434 e0ba 4121 4dba 901a 35b9 1ae9 1fb8
00000230: 7b6a 0f37 e802 1037 ef82 86b7 3edd 01b9
00000240: 45bd 0bb8 f8e3 87b9 ff2b 9cb9 0c9e 503a
00000250: 6f11 e33a 9682 bb3a 08d1 803a e455 483a
00000260: 1391 9939 68ad 77ba e0d3 c1ba f4ec 26ba
00000270: c3a2 26ba 0b77 3bba 8b67 12ba eb45 2bb9
00000280: 6a8e c7b9 133f aeba 1dd8 d4ba 1b00 e5ba
00000290: b234 e3ba b19d fdb9 d1cd f3b9 9865 29b9
000002a0: a577 df35 cab5 92b4 cce7 87b8 cfc3 6fb9
000002b0: 7dbe 02b8 1fb2 f3b9 524e 87b9 eda3 583a
000002c0: eebd cc3a 8ab2 a33a ad04 343a 15ae a93a
000002d0: 217a 063a bbff 7fba 96a1 c3ba 8910 89ba
000002e0: e238 33ba 550e 48ba 80b5 e439 ed35 4839
000002f0: b9fe 20b9 ad57 7bba 439e e2ba 4ac4 b8ba
00000300: a595 f3ba 951f a8ba f1c4 49b8 3ad2 82b9
00000310: d27e a635 fa8d 18b8 969f d2b8 04ad a4b7
00000320: a63f 29b9 9bf1 07ba f282 20b9 5840 823a
00000330: 7b02 bd3a ec67 cc3a e576 ec39 0993 773a
00000340: 4842 e039 221d 07ba 4a59 80ba 6b60 4cba
00000350: 9e6f 6339 67a7 dcb9 f847 d239 5f0b cb39
00000360: 3159 f8b9 25ee 86ba 7e7b f5ba 6420 aaba
00000370: b907 d1ba e583 4dba 283c 88b9 dfa2 26b9
00000380: 7507 b6b6 4209 0cb8 d3b4 21b8 d93b 2c38
00000390: 5809 23b9 340d cab9 4f1a 0b39 8a29 743a
000003a0: 902c f73a 8b56 e13a e3ff 0f3a e1b4 be39
000003b0: 2f0a c639 4efe f4b9 a0d0 12ba 2b49 b339
000003c0: c43d 3c39 c167 daba 7715 043a d373 3d3a
000003d0: 9308 073a dbec 9938 1ad4 b7ba 72af 9eba
000003e0: c14b fcb9 954e 82b9 2e83 34ba 3d7f 89b9
000003f0: 60b3 46b7 da56 8fb8 9657 e6b8 a667 5638

exp_avg_sq f4 [16, 784]
1.3599602e-14 2.5230868e-11 1.4260619e-10 8.52468e-10 3.847364e-09 7.767203e-09 2.1450049e-08 7.9850984e-08
2.245135e-07 7.730187e-07 3.1541658e-06 4.6720575e-06 3.966826e-06 3.5747441e-06 3.3178696e-06 4.0234922e-06
4.652459e-06 4.666052e-06 2.9448988e-06 8.2887436e-07 3.9722997e-07 2.4636128e-07 1.6821113e-07 1.7438612e-07
8.187721e-08 6.428124e-08 2.1023025e-08 1.3537146e-09 1.6212065e-11 1.9963828e-10 8.228968e-10 3.7735224e-09
1.3774391e-08 5.061947e-08 2.3833329e-07 1.0513577e-06 3.2835135e-06 6.6607427e-06 1.2540349e-05 1.5217511e-05
1.7014401e-05 1.6178643e-05 1.5904854e-05 1.6944281e-05 1.6954353e-05 1.4732029e-05 1.2420105e-05 6.8648806e-06
3.30822e-06 1.700078e-06 1.0724846e-06 7.61004e-07 3.6712328e-07 1.8983957e-07 4.5723734e-08 4.7737686e-10
8.691711e-11 9.764931e-10 3.8596215e-09 1.1087283e-08 4.4486505e-08 3.4902865e-07 1.4882148e-06 2.9586035e-06
5.2937758e-06 8.941589e-06 1.361728e-05 1.3989442e-05 1.4502579e-05 1.5160769e-05 1.5419633e-05 1.5811747e-05
1.5247895e-05 1.4379615e-05 1.4008495e-05 8.976799e-06 5.716448e-06 3.8020455e-06 2.1523833e-06 1.552456e-06
1.023376e-06 3.4196339e-07 8.482864e-08 4.7683244e-09 3.6161998e-10 3.2137055e-09 8.311925e-09 2.2601128e-08
1.6094836e-07 1.1434236e-06 2.025555e-06 3.5369217e-06 6.330753e-06 1.089866e-05 1.4674559e-05 1.4253246e-05
1.4942189e-05 1.6316897e-05 1.6499776e-05 1.6476397e-05 1.6036945e-05 1.4614354e-05 1.5609543e-05 1.1597624e-05
7.0508395e-06 5.1566467e-06 4.086769e-06 2.7224917e-06 1.912528e-06 8.0874656e-07 3.511498e-07 3.7193168e-08
5.059151e-10 5.0979394e-09 1.9075571e-08 4.568452e-08 4.5238465e-07 1.6695896e-06 2.4812791e-06 4.3274326e-06
7.4407485e-06 1.1750269e-05 1.5117216e-05 1.4501635e-05 1.5196522e-05 1.6361326e-05 1.6718648e-05 1.6494312e-05
1.656872e-05 1.5439717e-05 1.6310698e-05 1.226033e-05 8.127505e-06 5.9710837e-06 5.0953263e-06 3.667482e-06
2.7096023e-06 1.4684588e-06 4.455099e-07 2.5675543e-08 1.2703368e-09 1.4167463e-08 3.268654e-08 1.0788311e-07
8.40143e-07 2.0499306e-06 3.0519598e-06 4.8998977e-06 7.768002e-06 1.2262032e-05 1.4925859e-05 1.5293997e-05
1.6200178e-05 1.6802378e-05 1.715141e-05 1.7633174e-05 1.7044862e-05 1.6163125e-05 1.611086e-05 1.26744735e-05
8.504851e-06 6.633626e-06 5.9519734e-06 4.5329507e-06 3.4654825e-06 2.1729818e-06 6.5868943e-07 3.069952e-08
2.4318423e-09 2.1921126e-08 5.431136e-08 2.4007807e-07 1.1882096e-06 2.2599756e-06 3.176862e-06 5.397532e-06
8.224883e-06 1.2472127e-05 1.4596892e-05 1.5526612e-05 1.5991829e-05 1.5937841e-05 1.5962314e-05 1.6089676e-05
1.5051644e-05 1.3973857e-05 1.4187013e-05 1.2373893e-05 8.308292e-06 6.7552464e-06 5.825238e-06 4.80365e-06
3.9584947e-06 3.3195918e-06 1.0092217e-06 6.5170134e-08 5.1138884e-09 3.59884e-08 9.297372e-08 3.895048e-07
1.4986798e-06 2.513022e-06 3.5891499e-06 5.759253e-06 8.459237e-06 1.2522257e-05 1.513881e-05 1.5512738e-05
1.6089387e-05 1.5280857e-05 1.3671479e-05 1.3438128e-05 1.1623681e-05 1.1051033e-05 1.1798411e-05 1.05674e-05
7.0528745e-06 5.4218294e-06 5.1894044e-06 4.497204e-06 3.9304086e-06 4.172486e-06 1.6582077e-06 1.5647154e-07
7.145445e-09 5.681804e-08 1.3724869e-07 5.6592353e-07 1.6848211e-06 2.6335158e-06 3.7903803e-06 5.8115515e-06
8.309464e-06 1.20011155e-05 1.483723e-05 1.5139404e-05 1.5070766e-05 1.29240225e-05 9.526474e-06 1.0337187e-05
9.7556485e-06 9.451601e-06 8.99465e-06 7.32034e-06 5.427571e-06 4.61487e-06 4.593967e-06 4.5074235e-06
4.2315237e-06 5.2602068e-06 2.9535402e-06 2.6194004e-07 1.0928953e-08 9.008915e-08 1.9029858e-07 7.3192643e-07
00000000: 18fd 7428 ddee dd2d 13cc 1c2f 1a53 6a30
00000010: c631 8431 8570 0532 2841 b832 8b7a ab33
00000020: cd11 7134 7181 4f35 28ac 5336 abc4 9c36
00000030: c71a 8536 a3e5 6f36 91a8 5e36 8901 8736
00000040: 521c 9c36 1591 9c36 faa0 4536 d07f 5e35
00000050: df42 d534 a343 8434 869d 3434 e43e 3b34
00000060: 79d4 af33 fc0a 8a33 1f96 b432 990d ba30
00000070: 539a 8e2d 2e81 5b2f 3732 6230 41a8 8131
00000080: 6aa4 6c32 b268 5933 8ee8 7f34 601c 8d35
00000090: 555a 5c36 587f df36 6464 5237 b64e 7f37
000000a0: 26ba 8e37 5fb7 8737 6a6b 8537 9123 8e37
000000b0: 3239 8e37 9529 7737 f25f 5037 e058 e636
000000c0: c902 5e36 3c2e e435 4af2 8f35 cc47 4c35
000000d0: 0a19 c534 b4d6 4b34 c761 4433 6938 0330
000000e0: fc21 bf2e 4c35 8630 979d 8431 637a 3e32
000000f0: 6e11 3f33 2262 bb34 acbe c735 6c8c 4636
00000100: 30a1 b136 d503 1637 c675 6437 32b4 6a37
00000110: 1a50 7337 025b 7e37 6959 8137 78a3 8437
00000120: 36d1 7f37 fa3f 7137 0706 6b37 0f9b 1637
00000130: eacf bf36 a526 7f36 aa71 1036 fb5d d035
00000140: ee5a 8935 1797 b734 0a2b b633 a0d6 a331
00000150: 7dcd c62f 1bd8 5c31 3ccc 0e32 6824 c232
00000160: 26d1 2c34 bc77 9935 c5ee 0736 da5b 6d36
00000170: c16c d436 63d9 3637 c032 7637 3a21 6f37
00000180: 37b0 7a37 45e0 8837 0069 8a37 cb36 8a37
00000190: 1487 8637 2c30 7537 3df1 8237 6a93 4237
000001a0: 4096 ec36 4207 ad36 1421 8936 0db4 3636
000001b0: fb58 0036 a418 5935 a985 bc34 52be 1f33
000001c0: 9c10 0b30 f329 af31 a0db a332 a936 4433
000001d0: 46df f234 a916 e035 0d84 2636 5d34 9136
000001e0: 8bab f936 0523 4537 f39f 7d37 0c4c 7337
000001f0: 91f4 7e37 ae3f 8937 063f 8c37 445d 8a37
00000200: 0efd 8a37 8a84 8137 f5d2 8837 b7b1 4d37
00000210: 5e5b 0837 385b c836 85f8 aa36 dc1e 7636
00000220: 9dd6 3536 dc17 c535 6a2e ef34 1e8d dc32
00000230: 0198 ae30 2965 7332 3b63 0c33 5ead e733
00000240: 3086 6135 8a91 0936 45d0 4c36 cd69 a436
00000250: 5153 0237 07b9 4d37 146a 7a37 9c4b 8037
00000260: 9ee5 8737 d5f2 8c37 5fe0 8f37 f4ea 9337
00000270: 90fb 8e37 0c96 8737 cf25 8737 73a4 5437
00000280: 0fb0 0e37 6a96 de36 10b7 c736 c019 9836
00000290: 8990 6836 8bd3 1136 cbd0 3035 7bda 0333
000002a0: 6c1d 2731 114d bc32 f943 6933 14e4 8034
000002b0: 927a 9f35 16aa 1736 1332 5536 721c b536
000002c0: 9afd 0937 613f 5137 2ce5 7437 253f 8237
000002d0: 3126 8637 41b2 8537 cfe6 8537 51f8 8637
000002e0: 5286 7c37 4271 6a37 c204 6e37 7799 4f37
000002f0: d863 0b37 20ab e236 6a76 c336 0a2f a136
00000300: 36d3 8436 27c6 5e36 9874 8735 a9f3 8b33
00000310: 3db6 af31 aa91 1a33 d8a8 c733 221d d134
00000320: 3f26 c935 64a5 2836 20dd 7036 9b3f c136
00000330: 25ec 0d37 af16 5237 b2fc 7d37 5a21 8237
00000340: b2f7 8637 642f 8037 8e5e 6537 5274 6137
00000350: 5403 4337 d367 3937 caf1 4537 a34a 3137
00000360: bba7 ec36 29ed b536 a520 ae36 b0e6 9636
00000370: f4e1 8336 6201 8c36 958f de35 9202 2834
00000380: 0084 f531 1808 7433 a25e 1334 f8e9 1735
00000390: 0322 e235 75bb 3036 3d5e 7e36 d900 c336
000003a0: e068 0b37 6658 4937 6bed 7837 3fff 7d37
000003b0: 72d8 7c37 41d4 5837 e5d3 1f37 e16d 2d37
000003c0: 31ac 2337 5192 1e37 bae7 1637 3ea1 f536
000003d0: 7b1e b636 6ed9 9a36 e025 9a36 793e 9736
000003e0: 83fc 8d36 d580 b036 6f35 4636 c4a0 8c34
000003f0: 0bc2 3b32 0977 c133 e054 4c34 9a79 4435

exp_avg f4 [16]
-3.357561e-10 2.1982857e-10 -1.5947878e-11 -6.9492084e-10 1.2399844e-10 -4.6803117e-10 1.366115e-11 1.8049072e-10
2.1565274e-09 -5.892292e-11 -6.732698e-11 -4.0082898e-10 -9.937541e-10 5.876367e-10 -3.5253339e-12 4.6570087e-10
00000000: 7895 b8af 3eb4 712f 6e47 8cad b504 3fb0
00000010: 7556 082f c4a6 00b0 5a54 702d 9f73 462f
00000020: 0832 1431 a892 81ae b80d 94ae aa5b dcaf
00000030: 9d94 88b0 4287 2130 c512 78ac c902 0030

exp_avg_sq f4 [16]
2.5625918e-19 6.104472e-19 1.0262082e-18 1.4928269e-18 3.0268338e-19 1.2151664e-18 2.811834e-19 8.3735716e-19
1.8972053e-18 3.402024e-19 1.0152582e-18 2.128889e-19 7.17219e-19 1.2558913e-18 3.7049184e-19 2.071593e-19
00000000: cb44 9720 162c 3421 0d71 9721 684d dc21
00000010: 38ac b220 b053 b321 3cfb a520 eb24 7721
00000020: 32fd 0b22 efd1 c820 5fd3 9521 b955 7b20
00000030: 89af 5321 3b56 b921 25b3 da20 0e92 7420

exp_avg f4 [16]
-0.0010481125 0.0011766608 0.000720604 -0.0018376037 0.0005310838 -0.00080054323 -0.0026778379 0.00029230025
0.001410142 0.00031872225 -0.002813591 -5.289186e-05 -0.0011938658 0.0053707575 -0.0005870307 0.0027999114
00000000: d260 89ba 2f3a 9a3a eae6 3c3a c0db f0ba
00000010: 6e38 0b3a 8cdb 51ba aa7e 2fbb e03f 9939
00000020: 84d4 b83a 2d1a a739 3964 38bb 34d8 5db8
00000030: 7d7b 9cba 2efd af3b f7e2 19ba b87e 373b

exp_avg_sq f4 [16]
1.3230811e-05 1.2109905e-05 9.857131e-06 6.776799e-06 2.047691e-05 2.456012e-05 1.5559895e-05 1.997252e-05
2.7034055e-05 1.0829568e-05 2.438013e-05 1.3119449e-05 2.134771e-05 3.8641483e-05 4.8158213e-06 4.761537e-06
00000000: e7f9 5d37 a52b 4b37 0e60 2537 4364 e336
00000010: d4c5 ab37 7506 ce37 9f86 8237 a98a a737
00000020: 31c7 e237 a4b0 3537 ee83 cc37 9b1b 5c37
00000030: dc13 b337 fa12 2238 9797 a136 4bc5 9f36

exp_avg f4 [16]
0.0010951622 0.0010514788 0.0012001559 -0.00046544752 0.0031651678 0.0013860473 -0.00084360066 0.004680134
-0.0017758079 0.0010475828 -0.0009276731 0.0006940397 -0.0007721717 0.005152049 0.00017466924 0.0019214735
00000000: 8c8b 8f3a c6d1 893a 8d4e 9d3a 4f07 f4b9
00000010: b46e 4f3b 08ac b53a 1525 5dba cf5b 993b
00000020: 3ac2 e8ba 0c4f 893a 172f 73ba 37f0 353a
00000030: 916b 4aba 85d2 a83b 6b27 3739 f4d9 fb3a

exp_avg_sq f4 [16]
1.4220096e-05 8.870813e-06 1.2011428e-05 3.6288955e-06 1.4253697e-05 9.621198e-06 9.079656e-06 3.511172e-05
2.2359325e-05 5.423204e-06 1.4177988e-05 1.2407662e-05 1.3525732e-05 5.036593e-05 5.353837e-06 6.1232895e-06
00000000: d992 6e37 dad3 1437 b184 4937 f387 7336
00000010: 2a23 6f37 bb6a 2137 d354 1837 ec44 1338
00000020: 4990 bb37 f8f8 b536 ffdd 6d37 812a 5037
00000030: 94ec 6237 0140 5338 1ca5 b336 a876 cd36
