lightning_logs/version_4/checkpoints/model-epoch=18-val_loss=0.44-2.ckpt (torch, 185102 bytes, 48 tensors)

classifier.1.weight f4 [16, 784]
0.014008888 -0.022206474 -0.08918676 -0.031568266 -0.08971962 -0.068091266 -0.11340606 0.042275418
0.00279985 0.06888989 0.013617323 -0.005342601 0.025911238 0.024224844 0.038668606 0.04771557
0.02358827 0.024630042 -0.007891388 -0.05565127 0.045138244 0.003016249 0.07789116 0.00047064797
-0.020183977 -0.028683195 -0.02723649 -0.05958987 -0.023394614 -0.072968945 -0.032226976 -0.04882724
-0.08435146 -0.064963765 0.06700534 0.08137099 0.07025821 -0.039437983 -0.035230767 0.00026707613
0.018610992 -0.040820412 -0.013715606 0.009413984 0.0036396256 0.017522667 -0.028378412 0.006655491
-0.010133397 -0.0025953643 -0.04494219 0.042655777 0.024246328 -0.024098307 -0.003946902 -0.03856911
-0.014632306 -0.035785567 -0.017921716 -0.05837272 0.004269172 0.04982631 0.018608551 0.049929306
0.010177053 -0.008423077 -0.020436399 -0.043489415 0.03147537 0.03242255 -0.0065115173 0.009597227
-0.015174332 -0.006341961 0.0024946341 -0.0071256 0.007762486 -0.003412949 -0.026403366 -0.024973392
0.0220539 0.06618043 -0.006513504 0.106096186 0.01653215 0.031167055 0.019738978 -0.0009942935
0.02654062 0.03689728 0.049113743 0.0091602355 -0.016596816 -0.040452756 0.0300663 -0.015538888
-0.035898875 0.006329643 0.018277222 0.016094755 0.020262234 -0.0011294213 0.004174788 -0.023814376
-0.02184094 -0.026816793 -0.03446639 -0.053087335 0.032800138 0.048046276 -0.00079049065 -0.034556173
0.008070014 -0.01577862 0.0029984366 -0.010846317 0.011005467 0.021224657 0.022670418 0.038768068
0.0172374 -0.018871939 -0.024374155 -0.034563847 -0.025502695 -0.020692645 0.030067045 0.018585188
0.04248921 0.0028424247 0.005965541 0.021045608 0.04225298 -0.007772234 0.01042999 -0.04914444
0.042456236 -0.024474613 -0.024922162 0.027719464 -0.0017367583 -0.0020236955 -0.018363962 0.025771135
-0.02258864 0.017008843 0.035084028 0.011453993 -0.035337962 0.026473824 -0.013811241 0.0076472126
-0.038255032 -0.018031005 0.039901543 0.017220456 0.008700955 0.0023356609 0.023478076 -0.02375556
0.02923902 0.016459359 -0.035402577 0.0011586476 -0.02704838 -0.008943887 0.01491861 0.10476944
-0.008842029 -0.037174094 0.012764642 -0.01887015 -0.025526797 0.0007791989 0.001861204 -0.020998247
-0.009369529 0.0073701497 0.022724373 -0.0067133433 -0.036949374 -0.009717974 0.015702771 -0.0147951115
-0.008606628 0.039782535 0.04167991 0.022559028 -0.019222913 -0.018654231 0.004562734 -0.010566496
-0.009563491 -0.01283543 0.027346693 0.05951574 0.008602384 -0.0036028847 0.02195366 -0.0015671207
-0.005113777 -0.009531021 -0.034139022 -0.0072667557 0.037941426 0.018287105 -0.024627777 -0.012485399
0.011999085 0.005118604 -0.007961901 0.0061764196 -0.013918387 0.033376135 0.056804772 0.0006716096
0.054156467 -0.0066136196 -0.0117761865 0.0036371127 -0.015612694 0.038481057 0.03254146 -0.020441143
-0.028347014 0.042037766 -0.031647865 -0.048196334 -0.0069776014 0.017568383 -0.02309412 0.029923948
-0.0037425112 -0.023976225 0.029885134 -0.023965532 -0.026900077 0.0041126786 -0.0044458886 0.020313967
-0.01957424 0.008389256 0.006068307 0.03547399 0.02165362 0.007768776 0.04188326 -0.009615008
0.06032155 0.028079892 0.047624283 -0.024844442 0.022145452 0.0051868754 -0.024834426 -0.014054009
00000000: 8985 653c 5aea b5bc 8ca7 b6bd ba4d 01bd
00000010: ecbe b7bd 6f73 8bbd 7041 e8bd fd28 2d3d
00000020: b07d 373b 2516 8d3d 311b 5f3c fc10 afbb
00000030: ce43 d43c 2e73 c63c f962 1e3d 6771 433d
00000040: 303c c13c f1c4 c93c e14a 01bc 96f2 63bd
00000050: e1e2 383d 43ac 453b 6785 9f3d 4dc1 f639
00000060: de58 a5bc 05f9 eabc 0f1f dfbc 8214 74bd
00000070: 10a6 bfbc be70 95bd 6f00 04bd 12ff 47bd
00000080: 75c0 acbd b90b 85bd 183a 893d d5a5 a63d
00000090: 89e3 8f3d b989 21bd 234e 10bd 5a06 8c39
000000a0: 1476 983c 4e33 27bd 6cb7 60bc 1c3d 1a3c
000000b0: c986 6e3b b28b 8f3c d879 e8bc 4e16 da3b
000000c0: 8c06 26bc fd16 2abb 4d15 38bd d3b7 2e3d
000000d0: 3ca0 c63c d069 c5bc 0455 81bb a5fa 1dbd
000000e0: 57bc 6fbc e393 12bd 90d0 92bc 3c18 6fbd
000000f0: 69e4 8b3b ac16 4c3d f670 983c ac82 4c3d
00000100: a7bd 263c f200 0abc 3c6a a7bc f521 32bd
00000110: 51ec 003d 82cd 043d 915e d5bb b03d 1d3c
00000120: c39d 78bc 3ad0 cfbb 047d 233b dd7d e9bb
00000130: 745c fe3b c8ab 5fbb df4b d8bc 0095 ccbc
00000140: 61aa b43c 9b89 873d 3b6f d5bb f548 d93d
00000150: 6e6e 873c 0d52 ff3c a3b3 a13c f452 82ba
00000160: b76b d93c 9a21 173d 7e2b 493d d014 163c
00000170: 0cf6 87bc cab1 25bd 9a4d f63c d296 7ebc
00000180: b30a 13bd e568 cf3b 1dba 953c 26d9 833c
00000190: fcfc a53c 1709 94ba a9cc 883b 5e16 c3bc
000001a0: c5eb b2bc e4ae dbbc a12c 0dbd 1b72 59bd
000001b0: 7059 063d 2ccc 443d ee38 4fba c68a 0dbd
000001c0: 1838 043c 2a42 81bc 6b81 443b c0b4 31bc
000001d0: 4650 343c 55df ad3c 50b7 b93c 44cb 1e3d
000001e0: 7335 8d3c 5399 9abc 4fac c7bc d292 0dbd
000001f0: 07eb d0bc 9f83 a9bc 2a4f f63c f73f 983c
00000200: 2a09 2e3d f947 3a3b 967a c33b d767 ac3c
00000210: 7611 2d3d 39ae febb 8ce2 2a3c ae4b 49bd
00000220: 97e6 2d3d fc7e c8bc 9029 ccbc ee13 e33c
00000230: f0a3 e3ba fa9f 04bb 0570 96bc fd1d d33c
00000240: d00b b9bc 2156 8b3c 45b4 0f3d 87a9 3b3c
00000250: 8abe 10bd a2df d83c 8b48 62bc 7895 fa3b
00000260: 4fb1 1cbd c2b5 93bc cd6f 233d ea11 8d3c
00000270: 738e 0e3c e311 193b 1855 c03c 059b c2bc
00000280: ab86 ef3c c7d5 863c 4b02 11bd c3dd 973a
00000290: 9094 ddbc 6289 12bc 306d 743c 5c91 d63d
000002a0: 28de 10bc dd43 18bd ca22 513c 9395 9abc
000002b0: 931d d1bc 2743 4c3a a5f3 f33a 8404 acbc
000002c0: a782 19bc 4c81 f13b 7728 ba3c 9bfb dbbb
000002d0: 3a58 17bd 2338 1fbc 19a3 803c 3267 72bc
000002e0: d002 0dbc 03f3 223d 8eb8 2a3d b6cd b83c
000002f0: 5f79 9dbc c2d0 98bc fd82 953b 191f 2dbc
00000300: 30b0 1cbc b24b 52bc 2c06 e03c c7c6 733d
00000310: 03f1 0c3c 601e 6cbb 29d8 b33c d867 cdba
00000320: 7891 a7bb 0028 1cbc 5cd5 0bbd f71d eebb
00000330: 7868 1b3d d7ce 953c 31c0 c9bc 8f8f 4cbc
00000340: cf97 443c f6b9 a73b a272 02bc 9063 ca3b
00000350: f209 64bc 6ab5 083d 1fac 683d f50e 303a
00000360: 2cd3 5d3d 10b7 d8bb e8f0 40bc a05c 6e3b
00000370: 63cc 7fbc 509e 1d3d 324a 053d 2f74 a7bc
00000380: ff37 e8bc cb2f 2c3d 31a1 01bd 8569 45bd
00000390: 5da4 e4bb 92eb 8f3c e12f bdbc 1123 f53c
000003a0: eb44 75bb ca69 c4bc abd1 f43c 5d53 c4bc
000003b0: 8d5d dcbc a6c3 863b d1ae 91bb 7a69 a63c
000003c0: 285a a0bc 1773 093c a6d8 c63b 2d4d 113d
000003d0: ef62 b13c 3791 fe3b c88d 2b3d 4488 1dbc
000003e0: bb13 773d cd07 e63c ae11 433d 9286 cbbc
000003f0: 616a b53c aaf6 a93b 9171 cbbc c942 66bc

classifier.1.bias f4 [16]
-0.017500408 -0.0073640863 0.0042175534 -0.03381101 -0.0023426767 0.03128048 0.016485678 -0.00024346069
-0.005749261 -0.00880915 0.008213548 -0.021947216 0.013647868 -0.009263203 0.023313873 -0.009177369
00000000: 045d 8fbc 6f4e f1bb 6733 8a3b 6a7d 0abd
00000010: 9887 19bb f61f 003d f90c 873c 7b49 7fb9
00000020: 4c64 bcbb 4154 10bc 1e92 063c a6ca b3bc
00000030: 4f9b 5f3c b0c4 17bc bcfc be3c ad5c 16bc

classifier.2.weight f4 [16]
0.95316297 0.95050174 1.0656639 0.9825934 0.9570648 0.96381664 1.0378233 1.0085309
0.9137219 1.0487301 1.0300138 1.1266141 0.9776422 1.0039692 0.9953302 0.92258924
00000000: 7d02 743f 1554 733f ad67 883f 3e8b 7b3f
00000010: 3302 753f b0bc 763f 65d7 843f 8a17 813f
00000020: aee9 693f ca3c 863f 7ed7 833f e434 903f
00000030: c246 7a3f 1082 803f f6cd 7e3f cf2e 6c3f

classifier.2.bias f4 [16]
-0.20161241 0.02288616 -0.063353404 0.02447432 -0.024716908 -0.007713837 -0.06349799 -0.17661269
-0.007485196 -0.15764374 -0.066636726 0.0026850677 -0.00559491 -0.105715096 -0.13298625 0.06703078
00000000: 7c73 4ebe c27b bb3c 6ebf 81bd 5e7e c83c
00000010: 1d7b cabc 5bc4 fcbb 3c0b 82bd f5d9 34be
00000020: 6046 f5bb 5c6d 21be d678 88bd f6f7 2f3b
00000030: 8255 b7bb 2881 d8bd 8c2d 08be 6f47 893d

classifier.2.running_mean f4 [16]
-0.2687541 1.0515149 2.1302447 4.475053 0.78506553 0.14075041 0.16989052 0.38284737
4.0096846 0.055066902 1.7371343 0.40332592 2.7518766 2.4705136 3.0962234 2.2128575
00000000: 239a 89be 0a98 863f ee55 0840 a233 8f40
00000010: 0efa 483f e020 103e c8f7 2d3e 9204 c43e
00000020: 564f 8040 d58d 613d 6b5a de3f bc80 ce3e
00000030: bf1e 3040 e51c 1e40 8628 4640 759f 0d40

classifier.2.running_var f4 [16]
0.8648712 1.3951945 0.9665251 1.0628966 1.3328995 0.79484284 0.83602893 1.1322602
1.3539138 0.4189307 0.99764854 1.5442685 1.619906 1.8723477 1.4745395 1.2212547
00000000: 3368 5d3f bc95 b23f 306e 773f ff0c 883f
00000010: 739c aa3f d27a 4b3f fe05 563f e7ed 903f
00000020: 0c4d ad3f 167e d63e e565 7f3f 97aa c53f
00000030: 1459 cf3f 17a9 ef3f b6bd bc3f 1352 9c3f

classifier.4.weight f4 [16, 16]
-0.0639912 -0.06457445 -0.027964367 -0.13015698 -0.08930409 -0.16773146 0.118105546 0.15558682
-0.13061604 0.111319855 -0.033730596 0.066809155 0.2783075 -0.013816867 0.057751056 -0.022165049
-0.21193533 0.24153998 -0.036658753 -0.0399274 -0.10302183 -0.03706158 -0.044465434 -0.20035517
-0.2649842 -0.064677574 0.17682065 -0.025729148 0.1842528 -0.16601974 0.04324879 -0.0048965304
-0.027394436 0.15973324 -0.071043015 0.1187364 0.14169006 0.0061622704 0.23204674 -0.20742683
0.022840803 -0.19502516 -0.21022938 -0.11818341 0.28121603 -0.10044358 -0.10462297 0.15372857
0.072228804 -0.10018242 -0.14221738 0.05276074 -0.022982003 -0.03238942 -0.14644547 0.11127219
0.03654859 0.09351522 -0.002129096 0.14511533 -0.07419574 -0.26857874 0.08166786 -0.027214957
0.1129218 0.15126011 -0.14713885 0.078000344 -0.03500282 0.07663404 0.05844671 -0.12608173
-0.26223055 -0.07009298 0.16053256 0.038035363 -0.075777575 0.021253739 -0.06460479 -0.3218395
-0.07303663 -0.08234215 -0.14907676 0.178426 0.03282728 -0.13824019 -0.14868075 -0.107241265
-0.067560375 -0.21072382 0.19550052 -0.20163096 0.20637846 0.14064702 -0.22623737 -0.03423015
-0.08856513 0.0499822 -0.24234164 0.12701172 0.20396258 -0.18420736 -0.021714931 -0.13065068
0.029551111 0.1574828 0.043310795 -0.3370678 0.13028839 -0.082059085 0.07000498 0.00044678547
-0.291112 -0.26468822 0.26187897 0.03876949 0.04720935 0.1120313 0.016159125 -0.14493749
0.11408819 -0.16383962 0.04363593 0.16200247 -0.16785663 -0.11446318 0.19507062 -0.050216436
0.044055637 -0.13677858 0.14497678 0.019241536 -0.0788767 -0.12838374 -0.092719555 0.019974288
0.14984664 -0.017003521 -0.037829146 -0.2544159 -0.17161644 -0.19364502 0.10342717 -0.06196108
-0.317119 -0.10599541 0.15022862 -0.062005173 -0.17291565 -0.013944665 0.062783524 -0.17152005
-0.024221662 0.1609367 0.2141298 0.10803449 0.060808703 0.20096238 0.24818264 0.12195339
0.0039515668 0.030408578 0.18709187 -0.1300213 -0.15041539 0.1109972 0.11338232 -0.1902314
-0.078951314 -0.17745413 0.17603904 0.15953311 0.17428312 -0.020514699 0.095226586 -0.0471088
0.08550576 0.14528805 -0.23044577 0.10084375 -0.19364819 -0.086447924 0.10836888 -0.08408958
0.13737772 -0.121044405 -0.12088708 -0.13638662 0.10052062 -0.16919237 0.040696148 0.050781157
0.008617628 0.11442731 0.056365594 0.28327465 0.22603154 0.14594005 0.015754098 -0.11445536
-0.18508671 -0.08277941 0.1129088 -0.2722973 0.13061036 -0.32508898 -0.07507015 0.08595989
-0.22709337 -0.19065863 -0.27841648 -0.014704187 0.05128451 -0.19694471 -0.10634171 0.025299802
0.17674647 0.15681551 -0.006029259 -0.14146818 0.047289673 0.039647594 0.24841247 0.14781027
0.0821259 -0.29494262 -0.22977208 0.093817756 -0.12569971 -0.046273053 -0.019826323 -0.21350327
0.16281062 -0.31772184 0.124943584 -0.23528157 0.12694746 0.23443758 -0.11521104 0.11748829
0.015506617 0.017500559 -0.18919018 -0.053423025 0.044696834 -0.002192719 -0.19498388 -0.214042
-0.113754086 -0.04672249 -0.03773313 0.014561302 -0.23655313 -0.26114985 0.05391871 -0.09740513
00000000: d10d 83bd 9c3f 84bd 8715 e5bc df47 05be
00000010: 10e5 b6bd ccc1 2bbe 52e1 f13d 2752 1f3e
00000020: 36c0 05be aafb e33d 1829 0abd 3dd3 883d
00000030: 527e 8e3e 2460 62bc 5f8c 6c3d 7a93 b5bc
00000040: 9305 59be 4256 773e 7d27 16bd ea8a 23bd
00000050: 1cfd d2bd e2cd 17bd 6321 36bd e829 4dbe
00000060: 02ac 87be ad75 84bd 7910 353e efc5 d2bc
00000070: c4ac 3c3e 1401 2abe a525 313d 1373 a0bb
00000080: 4c6a e0bc 1c91 233e 007f 91bd 122c f33d
00000090: 3317 113e dfec c93b a99d 6d3e b367 54be
000000a0: a31c bb3c adb4 47be 5f46 57be 250a f2bd
000000b0: 8cfb 8f3e 5db5 cdbd 9144 d6bd 066b 1d3e
000000c0: b2ec 933d 712c cdbd 6fa1 11be a51b 583d
000000d0: c144 bcbc c5aa 04bd cdf5 15be ade2 e33d
000000e0: f9b3 153d e884 bf3d 4e88 0bbb 1d99 143e
000000f0: f0f3 97bd 2783 89be 7b41 a73d e7f1 debc
00000100: 8b43 e73d eee3 1a3e 91ab 16be a5be 9f3d
00000110: 1e5f 0fbd 4ff2 9c3d d165 6f3d 921b 01be
00000120: 1543 86be e98c 8fbd a662 243e f8ca 1b3d
00000130: 4631 9bbd 521c ae3c 844f 84bd 26c8 a4be
00000140: 3b94 95bd 00a3 a8bd 94a7 18be 4eb5 363e
00000150: e675 063d d68e 0dbe c43f 18be 4fa1 dbbd
00000160: 185d 8abd fcc7 57be 4a31 483e 5978 4ebe
00000170: e054 533e c605 103e c5aa 67be ea34 0cbd
00000180: a361 b5bd 23ba 4c3d 6828 78be 5c0f 023e
00000190: 91db 503e dba0 3cbe 83e3 b1bc 4bc9 05be
000001a0: 2c15 f23c 2c43 213e a966 313d 2794 acbe
000001b0: 526a 053e 980e a8bd c55e 8f3d 883e ea39
000001c0: a20c 95be 3785 87be 0015 863e c2cc 1e3d
000001d0: 975e 413d ab70 e53d 2460 843c 7e6a 14be
000001e0: 12a7 e93d 93c5 27be 97bb 323d fae3 253e
000001f0: 9ce2 2bbe ac6b eabd 98c0 473e c0af 4dbd
00000200: af73 343d af0f 0cbe cb74 143e 6da0 9d3c
00000210: 1b8a a1bd 0777 03be c0e3 bdbd 1ea1 a33c
00000220: 6671 193e f84a 8bbc bcf2 1abd cd42 82be
00000230: 38bc 2fbe e14a 46be a0d1 d33d e7ca 7dbd
00000240: 6c5d a2be 1f14 d9bd 88d5 193e 23f9 7dbd
00000250: cd10 31be 2a78 64bc a694 803d f4a2 2fbe
00000260: 826c c6bc 97cc 243e d844 5b3e 3041 dd3d
00000270: 8c12 793d 15c9 4d3e 9723 7e3e b3c2 f93d
00000280: 257c 813b 691b f93c 0395 3f3e 4e24 05be
00000290: 7e06 1abe 8052 e33d fd34 e83d 05cc 42be
000002a0: 3ab1 a1bd 89b6 35be 9443 343e a65c 233e
000002b0: 4677 323e 710e a8bc 2806 c33d 28f5 40bd
000002c0: a51d af3d 64c6 143e faf9 6bbe 2b87 ce3d
000002d0: b64b 46be 9c0b b1bd 81f0 dd3d 2837 acbd
000002e0: bfac 0c3e 21e6 f7bd a593 f7bd efa8 0bbe
000002f0: c1dd cd3d c440 2dbe 01b1 263d e7ff 4f3d
00000300: f430 0d3c de58 ea3d 9cdf 663d 6009 913e
00000310: d074 673e 4f71 153e bd0e 813c 9267 eabd
00000320: 5f87 3dbe 4088 a9bd bb3c e73d 8d6a 8bbe
00000330: b9be 053e 1072 a6be 61be 99bd bd0b b03d
00000340: 2a8b 68be 043c 43be 9b8c 8ebe d5e9 70bc
00000350: b50f 523d e0ab 49be afc9 d9bd 8841 cf3c
00000360: 07fd 343e 3f94 203e 1791 c5bb 09dd 10be
00000370: d1b2 413d 8465 223d d75f 7e3e 935b 173e
00000380: a031 a83d b802 97be 5f49 6bbe 8623 c03d
00000390: 6db7 00be d088 3dbd d06a a2bc 9aa0 5abe
000003a0: d4b7 263e 70ac a2be 6ce2 ff3d a7ed 70be
000003b0: 84fe 013e 6810 703e c4f3 ebbd b39d f03d
000003c0: 770f 7e3c 555d 8f3c 12bb 41be 1ad2 5abd
000003d0: 0714 373d b8b3 0fbb dba9 47be d32d 5bbe
000003e0: e7f7 e8bd 1560 3fbd 0e8e 1abd 8792 6e3c
000003f0: fc3a 72be 6fb5 85be ded9 5c3d 577c c7bd

classifier.4.bias f4 [16]
0.005082061 -0.08204303 -0.022529185 0.045336097 0.037784934 0.14337729 -0.10949051 -0.103165574
-0.10080825 -0.050280895 0.18740663 -0.18816356 0.17618984 0.2167428 -0.105070196 -0.15976952
00000000: 6b87 a63b 2d06 a8bd 208f b8bc 58b2 393d
00000010: 60c4 1a3d 7fd1 123e 8f3c e0bd 7948 d3bd
00000020: 8e74 cebd 57f3 4dbd 86e7 3f3e f3ad 40be
00000030: 1c6b 343e d3f1 5d3e 0b2f d7bd 9f9a 23be

classifier.5.weight f4 [16]
1.1014259 1.0376146 1.0035847 0.9263357 1.0287359 1.0012071 0.96814615 0.9466095
1.0340288 1.0310799 0.9917387 0.9858125 1.0769211 0.9299537 0.9580227 1.0174079
00000000: 86fb 8c3f 8ed0 843f 7775 803f 5624 6d3f
00000010: 9ead 833f 8e27 803f 6dd8 773f 0055 723f
00000020: 0e5b 843f 6dfa 833f 96e2 7d3f 355e 7c3f
00000030: 8dd8 893f 7211 6e3f fa40 753f 6c3a 823f

classifier.5.bias f4 [16]
0.103934206 -0.009516739 0.006046322 0.16917932 0.11315203 0.048236597 -0.038005702 -0.047708966
0.014088773 0.026397211 -0.030511428 0.009881214 0.03777424 -0.12608802 0.078136876 0.11897924
00000000: 75db d43d 19ec 1bbc 3a20 c63b 583d 2d3e
00000010: 40bc e73d bd93 453d deab 1bbd 7a6a 43bd
00000020: 99d4 663c f73e d83c 1af3 f9bc d1e4 213c
00000030: 29b9 1a3d 381d 01be 3a06 a03d 63ab f33d

classifier.5.running_mean f4 [16]
0.020725207 -0.24844633 0.03792099 -0.04373076 -0.1274515 -0.09208546 -0.25416258 -0.11968619
-0.40199944 0.1588543 0.3265605 -0.34230876 0.22620353 0.09356261 -0.34518814 -0.6487284
00000000: e9c7 a93c b768 7ebe 0a53 1b3d 071f 33bd
00000010: a582 02be 4d97 bcbd 9921 82be 081e f5bd
00000020: dfd2 cdbe b4aa 223e f032 a73e 1843 afbe
00000030: e6a1 673e c19d bf3d 80bc b0be 1013 26bf

classifier.5.running_var f4 [16]
0.17190167 0.057110034 0.09804032 0.042241283 0.066172965 0.11522999 0.20526884 0.1978313
0.06561549 0.047601175 0.23472318 0.060646646 0.07194663 0.21237318 0.20102848 0.09086509
00000000: fe06 303e 36ec 693d 5dc9 c83d 3205 2d3d
00000010: b185 873d b3fd eb3d ff31 523e 4a94 4a3e
00000020: 6a61 863d 73f9 423d 465b 703e 9e68 783d
00000030: c158 933d 5b78 593e 69da 4d3e 7a17 ba3d

classifier.7.weight f4 [16, 16]
0.1393766 -0.023047935 -0.036035262 -0.20603573 0.076297455 0.14354384 -0.10773909 0.11595894
0.014322196 0.10275962 -0.1861076 -0.04430316 0.29902864 0.24286367 -0.24250515 0.0277857
-0.094496764 -0.04604697 -0.04256303 0.18351011 0.05687195 -0.11909517 -0.13100125 0.13578078
-0.21105087 -0.1202465 -0.14531413 -0.003828368 -0.06011831 0.2509336 -0.22683464 0.039576404
0.02596606 -0.019038148 -0.21861394 -0.06674773 -0.06906599 0.06687155 -0.26851884 0.022126092
0.00063758437 -0.19516319 -0.19883285 -0.18474686 -0.18583174 0.03229983 0.035837766 -0.10887159
-0.14536649 -0.2751318 0.049838673 -0.074896626 -0.050299417 0.10309479 0.038244322 -0.00894843
-0.16765696 0.09799358 -0.16754767 -0.15066057 -0.09804914 0.16698644 -0.043641757 -0.16932566
-0.13813934 -0.03221505 -0.13364749 -0.109475076 -0.14981449 0.045102663 -0.0021291636 0.04953558
0.22238928 -0.053941797 0.038034268 0.26293558 -0.083179146 0.23534943 -0.2785268 -0.050645906
-0.15779266 0.20209217 -0.19991186 -0.38759932 0.23041257 0.28089246 0.041502275 -0.06655194
0.065674774 -0.15256122 -0.02544145 -0.21410157 -0.10184217 0.13853677 0.16432899 -0.09508431
0.25624672 -0.16034797 0.29752776 -0.23755312 0.09838219 0.19915119 -0.038679413 0.12841338
-0.056629654 -0.01573429 0.2241748 0.00049692317 -0.089645304 0.050590474 -0.123221636 -0.029853461
-0.01600395 0.19082385 -0.024522847 0.11942995 -0.15449284 -0.16188666 -0.12800628 -0.05412945
0.013937769 0.1178137 0.051242255 -0.1559152 0.0093852505 0.14600416 0.015044745 -0.14295441
-0.11346259 -0.15374595 -0.12950584 -0.10508877 -0.13017957 -0.014797718 -0.15128072 0.21304388
-0.08900137 -0.058951158 -0.104147 0.18133695 0.11387121 -0.08184251 -0.0128799025 0.27553257
-0.15288967 -0.08205884 0.05045001 -0.15213577 -0.32834166 0.10052863 -0.20621517 0.060945123
0.20698327 -0.10234888 0.03436846 0.014104904 0.1598032 0.07572305 0.078718185 0.04757282
0.15674615 0.056842674 -0.15612158 0.17470191 -0.25187054 0.04493591 -0.22310898 0.06322005
-0.10144819 0.08944628 0.07136051 0.09845034 0.26836917 -0.13010968 0.044147976 -0.06606891
0.007887274 -0.04784899 0.008568978 0.026115527 -0.056410767 -0.0032922104 0.3048743 -0.13916713
0.07502488 0.11539973 -0.02674691 0.17260234 0.20697753 0.009734335 -0.11403486 0.09988461
-0.2636573 -0.07328973 -0.047232382 -0.0020577458 0.15113385 -0.2045615 0.083053485 0.13888502
-0.011431051 -0.026909731 -0.121749826 -0.14083855 0.036926292 -0.3410203 -0.16254309 0.2573566
-0.014605427 0.2476778 -0.13267763 -0.15975383 0.010611078 -0.0022009464 0.02792022 0.008374338
-0.0017206545 0.25369883 0.10864561 0.13127413 0.028360508 -0.19938676 0.018561784 0.054016005
0.1329659 -0.064962775 0.09083153 -0.049021874 0.085581705 0.3070506 -0.038279362 -0.021495566
0.076033264 -0.059508607 0.015312919 0.13390937 -0.18470687 0.20573278 0.13411978 0.033505507
0.25223413 -0.1153015 -0.21642727 -0.0665914 0.07192062 -0.16347982 -0.05260407 -0.24820942
-0.042463046 -0.22692896 0.09326024 0.1082425 0.07813423 -0.080608405 -0.062187847 -0.15627874
00000000: bdb8 0e3e 06cf bcbc b699 13bd 08fb 52be
00000010: d741 9c3d 28fd 123e 50a6 dcbd e17b ed3d
00000020: a5a7 6a3c a373 d23d fe92 3ebe 3b77 35bd
00000030: 481a 993e 41b1 783e 4553 78be d69e e33c
00000040: 8587 c1bd bf9b 3cbd 9256 2ebd 13ea 3b3e
00000050: 90f2 683d 2be8 f3bd 3125 06be 1e0a 0b3e
00000060: b81d 58be cc43 f6bd 3acd 14be 5be5 7abb
00000070: 9e3e 76bd 5e7a 803e 5747 68be de1a 223d
00000080: c6b6 d43c e4f5 9bbc 55dc 5fbe 09b3 88bd
00000090: 7872 8dbd f4f3 883d 4d7b 89be c741 b53c
000000a0: 9023 273a dcd8 47be d79a 4bbe 482e 3dbe
000000b0: ad4a 3ebe d44c 043d 9fca 123d 11f8 debd
000000c0: f4da 14be 13de 8cbe a323 4c3d 6763 99bd
000000d0: c306 4ebd 5c23 d33d 14a6 1c3d 709c 12bc
000000e0: 44ae 2bbe dcb0 c83d 9e91 2bbe c446 1abe
000000f0: fdcd c8bd 7efe 2a3e b3c1 32bd b563 2dbe
00000100: 6674 0dbe eef3 03bd e3da 08be 7834 e0bd
00000110: f868 19be 92bd 383d 7089 0bbb d2e5 4a3d
00000120: 04ba 633e 13f2 5cbd d2c9 1b3d 7e9f 863e
00000130: d459 aabd 71ff 703e 119b 8ebe 1572 4fbd
00000140: 6694 21be 40f1 4e3e b2b5 4cbe 6b73 c6be
00000150: 46f1 6b3e 23d1 8f3e 4afe 293d 624c 88bd
00000160: 7f80 863d 0239 1cbe 966a d0bc 713d 5bbe
00000170: a192 d0bd 95dc 0d3e dc45 283e 90bb c2bd
00000180: c532 833e 4232 24be 8f55 983e 2041 73be
00000190: 9a7c c93d 4aee 4b3e 4e6e 1ebd cc7e 033e
000001a0: 7ff4 67bd 33e5 80bc 148e 653e f343 023a
000001b0: f597 b7bd f537 4f3d a05b fcbd 3f8f f4bc
000001c0: b71a 83bc 5467 433e 23e4 c8bc b197 f43d
000001d0: 5f33 1ebe 9ec5 25be 1414 03be d8b6 5dbd
000001e0: 3e5b 643c 4f48 f13d 66e3 513d 3ca8 1fbe
000001f0: 98c4 193c 1d82 153e 3c7e 763c a462 12be
00000200: 135f e8bd 946f 1dbe 2e9d 04be c838 d7bd
00000210: cb4d 05be 2172 72bc 55e9 1abe 2d28 5a3e
00000220: 5a46 b6bd c576 71bd 064b d5bd 65b0 393e
00000230: 4f35 e93d 0c9d a7bd 3a06 53bc 9b12 8d3e
00000240: 1c8f 1cbe 770e a8bd aba4 4e3d 7bc9 1bbe
00000250: 661c a8be f4e1 cd3d 122a 53be 98a1 793d
00000260: 6cf3 533e 4a9c d1bd f1c5 0c3d 4118 673c
00000270: 73a3 233e b014 9b3d 0037 a13d b8db 423d
00000280: 1082 203e ddd3 683d 56de 1fbe 0fe5 323e
00000290: 2df5 80be b70e 383d ae76 64be 8379 813d
000002a0: 12c4 cfbd 9c2f b73d 7625 923d 55a0 c93d
000002b0: af67 893e 793b 05be 82d4 343d 234f 87bd
000002c0: a039 013c 4dfd 43bd e664 0c3c 3bf0 d53c
000002d0: fa0e 67bd 20c2 57bb 7c18 9c3e d481 0ebe
000002e0: a5a6 993d b256 ec3d 561c dbbc abbe 303e
000002f0: ebf1 533e c37c 1f3c 1c8b e9bd 4d90 cc3d
00000300: 17fe 86be ed18 96bd be76 41bd 3fdb 06bb
00000310: d5c2 1a3e 9278 51be f217 aa3d e037 0e3e
00000320: 4e49 3bbc cc71 dcbc f957 f9bd fb37 10be
00000330: 0640 173d 369a aebe b271 26be 3fc4 833e
00000340: 9a4b 6fbc 409f 7d3e a5dc 07be 8296 23be
00000350: 16da 2d3c c13d 10bb f2b8 e43c 8534 093c
00000360: 9687 e1ba d0e4 813e 9781 de3d ba6c 063e
00000370: 4c54 e83c 0b2c 4cbe e20e 983c e33f 5d3d
00000380: 3628 083e 340b 85bd e205 ba3d 29cb 48bd
00000390: 7645 af3d bc35 9d3e d2ca 1cbd 7817 b0bc
000003a0: 54b7 9b3d 4cbf 73bd 0ae3 7a3c 8a1f 093e
000003b0: cc23 3dbe 9dab 523e b256 093e 123d 093d
000003c0: d524 813e 3123 ecbd 1c9f 5dbe 1261 88bd
000003d0: 1e4b 933d 4167 27be 5e77 57bd 9c2a 7ebe
000003e0: bbed 2dbd 1160 68be 3aff be3d 3eae dd3d
000003f0: d704 a03d 0516 a5bd afb8 7ebd 8907 20be

classifier.7.bias f4 [16]
-0.13094877 0.1994977 0.01609179 -0.23771861 -0.24769291 -0.07817075 -0.15422155 0.02415995
0.25841075 0.084827825 0.13958523 0.018380329 0.16816977 0.2578022 0.06091442 -0.31838378
00000000: 6f17 06be 2049 4c3e eed2 833c 826c 73be
00000010: 36a3 7dbe fc17 a0bd 41ec 1dbe 16eb c53c
00000020: 6a4e 843e 36ba ad3d 6eef 0e3e 5892 963c
00000030: b234 2c3e a6fe 833e 6681 793d 3303 a3be

classifier.8.weight f4 [16]
1.3668572 1.3318492 1.3718053 1.3505808 1.3260968 1.3513004 1.3360516 1.2951479
1.3196623 1.331714 1.3089913 1.3583053 1.3110791 1.3232492 1.3673801 1.3614669
00000000: 2df5 ae3f 097a aa3f 5197 af3f d5df ac3f
00000010: 8abd a93f 69f7 ac3f bd03 ab3f 68c7 a53f
00000020: b2ea a83f 9b75 aa3f 078d a73f f3dc ad3f
00000030: 71d1 a73f 3b60 a93f 5006 af3f 8c44 ae3f

classifier.8.bias f4 [16]
0.340592 0.29609755 0.34340623 0.32211035 0.3248684 0.3573914 0.33576742 0.2869287
0.3078308 0.3277899 0.2927359 0.41545194 0.32575577 0.3534529 0.36643657 0.3004419
00000000: 1362 ae3e 199a 973e f1d2 af3e a6eb a43e
00000010: 2755 a63e 01fc b63e b5e9 ab3e 52e8 923e
00000020: 009c 9d3e 14d4 a73e 7be1 953e 1eb6 d43e
00000030: 76c9 a63e c7f7 b43e 939d bb3e 85d3 993e

classifier.8.running_mean f4 [16]
0.0010313996 -0.060431167 -0.52328795 -0.65901476 -0.4013151 -0.19795562 0.031879477 -0.07305505
0.10691434 -0.03868598 0.23463053 0.28959003 -0.09635082 0.4362459 0.37629846 -0.61303705
00000000: 0730 873a ac86 77bd 33f6 05bf 31b5 28bf
00000010: 2c79 cdbe e1b4 4abe 0e94 023d e39d 95bd
00000020: e8f5 da3d 3175 1ebd fc42 703e 2545 943e
00000030: 9453 c5bd 9f5b df3e 31aa c03e ffef 1cbf

classifier.8.running_var f4 [16]
0.06921441 0.08526282 0.08014473 0.11463189 0.08256203 0.29068366 0.19898519 0.08602058
0.14869007 0.24303852 0.08290707 0.08352206 0.17296478 0.07792824 0.07205904 0.111188024
00000000: 49c0 8d3d 469e ae3d ec22 a43d 20c4 ea3d
00000010: 4816 a93d 7dd4 943e c6c2 4b3e 8f2b b03d
00000020: 3642 183e 17df 783e 2fcb a93d 9d0d ab3d
00000030: ae1d 313e d798 9f3d b193 933d 8cb6 e33d

classifier.10.weight f4 [10, 16]
-0.05543754 -0.24730487 0.5179779 0.41637632 -0.29017517 0.2874259 -0.041891 -0.3960704
-0.17188138 -0.011440109 -0.32926697 -0.22211275 -0.16545054 -0.34609464 0.5083684 -0.4072492
0.25574663 0.3237178 -0.08986419 0.48989955 0.1788619 -0.27414608 -0.3898865 0.33880728
-0.45011258 -0.32576886 -0.17433907 0.5035441 -0.27970055 -0.38172314 -0.27962524 -0.20452157
-0.3628619 -0.2503062 -0.14686704 -0.25061247 0.51289624 -0.4836021 -0.19525875 -0.40765983
0.364132 0.36350036 -0.11582293 0.28099182 -0.55257237 -0.0242263 0.5664947 -0.33173165
0.57454705 -0.3513367 -0.13781321 -0.2430096 -0.34911463 0.398552 -0.36329535 -0.2877535
-0.042746462 -0.38634542 -0.23017746 0.37032017 0.24351959 0.34701473 -0.038207185 -0.39554608
0.44367823 -0.3625339 -0.43567196 -0.41514143 0.0295572 -0.45790678 -0.3567125 -0.2116423
0.37378788 0.36136875 0.48013452 0.35182387 0.22375603 -0.51134104 -0.27087924 -0.15642281
0.124490514 -0.42751288 -0.12595184 -0.21428217 -0.13783503 -0.38065457 0.2128947 0.49012238
-0.2527053 -0.101739675 0.42769435 -0.2332843 -0.32423258 0.4632129 -0.27538598 -0.49437955
-0.15869103 -0.34804162 0.5610374 0.017027803 0.43978155 0.103806764 -0.29833636 -0.20632942
0.3947663 0.32240927 -0.36831376 -0.51172674 0.047827292 -0.054822125 -0.055792525 -0.26092592
-0.4012959 0.27665967 0.556653 -0.13303669 -0.33315164 -0.33562374 -0.28079215 0.3667551
-0.4455334 -0.4018397 0.41370073 -0.27862784 -0.52766454 -0.39207345 -0.41605008 0.41708368
-0.16885531 0.49955356 0.31491154 -0.16814739 -0.15531847 -0.16623421 -0.38485214 -0.36080647
0.37755072 -0.5386018 -0.48407814 -0.21475238 0.5235108 -0.41925523 -0.49743685 -0.26223773
-0.029376382 -0.27017665 -0.46438178 -0.3031003 -0.2765918 -0.353553 0.46577892 -0.34468874
-0.34616423 -0.14856794 -0.21719134 -0.18574105 -0.46932063 -0.3336729 0.30138952 0.4251848
00000000: 7912 63bd 7d3d 7dbe 339a 043f 472f d53e
00000010: d791 94be 7d29 933e e695 2bbd bdc9 cabe
00000020: ac01 30be 4c6f 3bbc ae95 a8be 8671 63be
00000030: de6b 29be 5133 b1be 6e24 023f f882 d0be
00000040: 39f1 823e 57be a53e b70a b8bd 1dd4 fa3e
00000050: 9327 373e e05c 8cbe 349f c7be 2678 ad3e
00000060: 2875 e6be 2dcb a6be f185 32be 44e8 003f
00000070: e934 8fbe 3771 c3be 0a2b 8fbe 1a6e 51be
00000080: 09c9 b9be 2228 80be 5064 16be 4750 80be
00000090: 2b4d 033f b29a f7be e9f1 47be cab8 d0be
000000a0: 826f ba3e b81c ba3e 9334 edbd 29de 8f3e
000000b0: 6275 0dbf 3c76 c6bc cc05 113f bbd8 a9be
000000c0: 8415 133f 67e2 b3be e81e 0dbe 82d7 78be
000000d0: 27bf b2be 020f cc3e d901 babe 6d54 93be
000000e0: ea16 2fbd 11cf c5be a4b3 6bbe 9b9a bd3e
000000f0: 335d 793e eaab b13e 237f 1cbd 0485 cabe
00000100: cb29 e33e 0b9e b9be 6510 dfbe 6b8d d4be
00000110: f121 f23c c272 eabe 05a3 b6be c2b8 58be
00000120: 2061 bf3e 5305 b93e 31d4 f53e 4222 b43e
00000130: 4d20 653e 3fe7 02bf afb0 8abe 4d2d 20be
00000140: e2f4 fe3d f8e2 dabe 85f9 00be c96c 5bbe
00000150: a024 0dbe 28e5 c2be 1101 5a3e 52f1 fa3e
00000160: 9762 81be e45c d0bd c1fa da3e 14e2 6ebe
00000170: d001 a6be 3e2a ed3e 64ff 8cbe 511f fdbe
00000180: e77f 22be 8332 b2be 26a0 0f3f e47d 8b3c
00000190: 0c2b e13e a498 d43d 8bbf 98be 0548 53be
000001a0: cf1e ca3e d412 a53e 9f93 bcbe 8600 03bf
000001b0: 8de6 433d 2a8d 60bd b486 64bd 1598 85be
000001c0: a876 cdbe 56a6 8d3e d080 0e3f c53a 08be
000001d0: da92 aabe e0d6 abbe fdc3 8fbe 53c7 bb3e
000001e0: f41c e4be efbd cdbe 95d0 d33e 4fa8 8ebe
000001f0: 0615 07bf dabd c8be 8404 d5be fe8b d53e
00000200: 68e8 2cbe 7cc5 ff3e 163c a13e d42e 2cbe
00000210: ce0b 1fbe 4d39 2abe 570b c5be a0bb b8be
00000220: 544e c13e cfe1 09bf 17d9 f7be 0ce8 5bbe
00000230: ce04 063f 9fa8 d6be 0bb0 febe 0644 86be
00000240: bda6 f0bc 9854 8abe 73c3 edbe f62f 9bbe
00000250: 719d 8dbe e604 b5be 937a ee3e 0b7b b0be
00000260: 703c b1be 3222 18be 6867 5ebe e732 3ebe
00000270: cb4a f0be 2dd7 aabe ba4f 9a3e d2b1 d93e

classifier.10.bias f4 [10]
-0.026931493 -0.26987487 -0.12852173 -0.21645924 -0.11926527 0.04426597 0.2644945 0.018911814
0.109427765 0.31715977
00000000: 6f9f dcbc 0a2d 8abe 339b 03be 7ea7 5dbe
00000010: 5a41 f4bd 3c50 353d d36b 873e f3ec 9a3c
00000020: aa1b e03d c462 a23e

exp_avg f4 [16, 784]
-3.4751235e-08 1.0675368e-07 -2.3787227e-06 3.004412e-06 4.983403e-05 1.6879976e-05 6.4117776e-05 0.00015276212
0.00019446886 -0.00025992646 9.8087105e-05 0.00043528376 0.00047102844 0.00079331413 0.00075101276 0.0002747462
-0.00022178622 7.932984e-06 0.0002108216 -0.00018536042 -7.437609e-05 -0.00016979233 -0.00024055516 -0.00012271835
3.1228054e-05 1.8126151e-05 -2.5307969e-05 7.2219277e-06 -2.8894545e-08 -1.7508695e-06 -4.639225e-06 2.2908627e-05
6.48286e-05 0.00010166863 0.0002314293 6.1782834e-05 -3.24762e-07 0.001125165 0.00172789 0.0019298277
0.0018233311 0.0021874346 0.0023339859 0.001538037 0.00087008096 0.0011019855 0.0010390935 -0.0001404883
-0.00019087268 0.00033157502 -0.00038443843 -0.00041577435 0.00017601877 0.00020400519 -4.0073006e-05 2.8368313e-06
-6.3865664e-06 -4.2103566e-05 -4.8686445e-05 -1.6657821e-05 9.70082e-05 0.00054994127 0.0002810137 6.0565104e-05
0.00057110935 0.0014592154 0.0019484744 0.0018304526 0.0017624018 0.001208088 0.0011361262 0.00067870057
0.00076324394 0.0010350783 0.001187242 0.00014179977 -0.0007351163 6.57044e-05 0.0001428751 -0.00012269613
0.00040251587 0.00034230595 -3.0339514e-05 -2.8649354e-05 -7.9538895e-06 -3.5177804e-05 -3.3063425e-05 3.349886e-05
0.000390174 0.0007772336 0.00011743527 0.0005673781 0.0010067386 0.0014478475 0.0018026764 0.0014421864
0.0013454945 0.0013859493 0.0005220746 0.000830129 0.0009883079 0.0011291727 0.001091553 0.00058664323
-0.0003060638 -0.0005007998 0.00011332459 -0.00016813556 7.640427e-05 0.00014104314 -0.00010398688 2.8605444e-05
1.11096575e-07 1.4812785e-05 3.80984e-05 0.00012611355 0.00030282605 0.0006208728 0.0007669394 0.00048806213
0.0007362865 0.001059499 0.0014822474 0.0017201793 0.0013110297 0.00085084204 0.00064683385 0.0008967234
0.00079767546 0.0013395514 0.0005408428 -0.000540204 -0.0012443264 -0.0012700527 -0.00031956026 -0.0003226249
-8.083474e-05 0.00026629303 4.3829976e-05 -3.1452586e-05 9.923734e-07 2.5787991e-05 7.910754e-05 0.00013333089
0.00049566635 0.0005245334 0.0007781865 0.000549675 0.0008519297 0.0013798767 0.0015581668 0.0017582694
0.0014578771 0.0010204494 0.0006144601 0.0008770219 0.00034145013 0.0002860369 0.00021075484 9.34245e-05
-0.0009689053 -0.0010234005 -0.00045017994 -0.0011046091 -0.00030485165 0.00028731133 7.368315e-05 -1.1675027e-05
1.61984e-06 3.4112494e-05 9.535409e-05 0.00020994186 0.0006834876 0.00048860593 0.0009171284 0.00046688167
0.00070623204 0.0011149099 0.0014189834 0.001720272 0.001241046 0.0005797622 0.00026874145 0.0007121985
0.00029290497 0.00029983633 0.0001580138 -0.00014120086 -0.00087822427 -0.0007361509 -0.0007467087 -0.0006195387
-0.00014319124 0.00017226212 -8.52727e-05 8.1337166e-05 7.943645e-06 2.4398296e-05 0.00012476367 0.00042474596
0.00082160847 0.0011476994 0.0011434059 0.0008768869 0.00087010814 0.0012725964 0.0011850048 0.0012359953
0.0013112298 0.0008912067 0.00068664184 0.0001543809 0.0005560829 0.00095451786 0.0006254448 0.00016501403
-0.00095963397 -0.0007204886 0.00011836901 -0.00015048242 -5.490851e-05 0.0006544084 -0.00010615111 0.00026790606
7.816294e-06 4.2199983e-05 0.00016995773 0.0005115657 0.0006290963 0.0015863137 0.0014620987 0.0011324171
0.0015510881 0.0013410139 0.0010297168 0.0013420421 0.0017147254 0.0007034904 0.00041742364 0.000555759
0.00049837277 0.0009313925 -3.231434e-05 -0.00037684888 -0.00054405606 -0.0003393526 0.0002351039 -0.00014968801
0.00035889418 0.0003608836 -0.00015273702 -8.077415e-05 2.1907814e-05 4.5849843e-06 0.0002011776 0.0005587998
00000000: 6341 15b3 7540 e533 25a2 1fb6 689f 4936
00000010: e204 5138 7999 8d37 f876 8638 c52e 2039
00000020: 56ea 4b39 bd46 88b9 1db4 cd38 cc36 e439
00000030: 5ef4 f639 69f6 4f3a 9ddf 443a d00b 9039
00000040: 498f 68b9 e817 0537 fe0f 5d39 4f5d 42b9
00000050: 5cfa 9bb8 480a 32b9 893d 7cb9 f5ad 00b9
00000060: defa 0238 9d0d 9837 734c d4b7 e353 f236
00000070: c733 f8b2 6bff eab5 a4aa 9bb6 e72b c037
00000080: 97f4 8738 ee36 d538 d4ab 7239 6891 8138
00000090: f35a aeb4 467a 933a 5e7a e23a 46f2 fc3a
000000a0: d7fc ee3a 105b 0f3b c9f5 183b f597 c93a
000000b0: 2516 643a 7f70 903a 3132 883a 0a50 13b9
000000c0: ff24 48b9 3fd7 ad39 748e c9b9 4afc d9b9
000000d0: ae91 3839 3aea 5539 1014 28b8 6460 3e36
000000e0: 304c d6b6 5c98 30b8 ac34 4cb8 66bc 8bb7
000000f0: e170 cb38 ef29 103a 0555 9339 4907 7e38
00000100: 80b6 153a 2543 bf3a f463 ff3a cceb ef3a
00000110: 6400 e73a b558 9e3a 12ea 943a d3ea 313a
00000120: 6f14 483a 77ab 873a 3b9d 9b3a 16b0 1439
00000130: d2b4 40ba c8ca 8938 bed0 1539 fea7 00b9
00000140: c408 d339 8777 b339 9c81 feb7 0554 f0b7
00000150: b271 05b7 e18b 13b8 95ad 0ab8 2181 0c38
00000160: 4590 cc39 44bf 4b3a 9547 f638 1abc 143a
00000170: 8bf4 833a b3c5 bd3a c847 ec3a bf07 bd3a
00000180: 4e5b b03a bea8 b53a d5db 083a 049d 593a
00000190: 1c8a 813a c000 943a 7112 8f3a f6c8 193a
000001a0: 3077 a0b9 1b48 03ba ada8 ed38 8c4d 30b9
000001b0: 3b3b a038 fbe4 1339 8813 dab8 b9f5 ef37
000001c0: fd93 ee33 6d84 7837 d8cb 1f38 593d 0439
000001d0: a0c4 9e39 11c2 223a 6f0c 493a 97e2 ff39
000001e0: 5a03 413a e3de 8a3a f847 c23a a477 e13a
000001f0: dbd6 ab3a 0b0b 5f3a 4990 293a 1712 6b3a
00000200: 181b 513a e393 af3a 59c7 0d3a 7a9c 0dba
00000210: aa18 a3ba e677 a6ba a78a a7b9 fb25 a9b9
00000220: d285 a9b8 3f9d 8b39 14d6 3738 f5eb 03b8
00000230: b131 8535 4a53 d837 8ae6 a538 bdce 0b39
00000240: 9bef 013a d780 093a 36ff 4b3a 1118 103a
00000250: 0954 5f3a fbdc b43a 673b cc3a bb75 e63a
00000260: 3d16 bf3a 9ac0 853a b813 213a f2e7 653a
00000270: a904 b339 39f7 9539 12fe 5c39 e6ec c338
00000280: 22fe 7dba 9f23 86ba 2106 ecb9 88c8 90ba
00000290: 7fd4 9fb9 46a2 9639 5786 9a38 dcdf 43b7
000002a0: 4769 d935 0314 0f38 d6f8 c738 d723 5c39
000002b0: 142c 333a ca15 003a 726b 703a ccc7 f439
000002c0: 6e22 393a 2b22 923a 2ffd b93a c07a e13a
000002d0: 98aa a23a 2ffb 173a dee5 8c39 d5b2 3a3a
000002e0: 0a91 9939 5a33 9d39 82b0 2539 510f 14b9
000002f0: a238 66ba 40fa 40ba c6be 43ba 8a68 22ba
00000300: 9b25 16b9 43a1 3439 6fd4 b2b8 8f93 aa38
00000310: b245 0537 f1aa cc37 fed2 0239 70b0 de39
00000320: 3661 573a 676e 963a 56de 953a e2de 653a
00000330: f817 643a 40cd a63a 2a52 9b3a 1f01 a23a
00000340: 92dd ab3a df9f 693a c1ff 333a 4fe1 2139
00000350: 17c6 113a 9c38 7a3a e4f4 233a 9e07 2d39
00000360: f28f 7bba 2cdf 3cba e13c f838 d1ca 1db9
00000370: 904d 66b8 9b8c 2b3a 719d deb8 be75 8c39
00000380: ba22 0337 e3ff 3038 ae36 3239 981a 063a
00000390: f0e9 243a dbeb cf3a e4a3 bf3a 9d6d 943a
000003a0: e14d cb3a f6c4 af3a 90f7 863a 76e7 af3a
000003b0: a3c0 e03a 716a 383a a7d9 da39 5bb0 113a
000003c0: 3ba5 023a b128 743a 4289 07b8 cd93 c5b9
000003d0: fc9e 0eba 23eb b1b9 3986 7639 92f5 1cb9
000003e0: f629 bc39 fa34 bd39 0828 20b9 4b65 a9b8
000003f0: acc6 b737 b7d8 9936 33f3 5239 6b7c 123a

exp_avg_sq f4 [16, 784]
6.2347087e-14 2.5154235e-11 1.4687852e-10 8.955274e-10 5.959617e-09 1.0126584e-08 2.7300853e-08 1.05021044e-07
3.3020413e-07 1.0617221e-06 4.6296523e-06 6.8638665e-06 5.9760523e-06 5.3092954e-06 4.9792993e-06 5.915326e-06
6.8242744e-06 6.7091787e-06 4.045609e-06 1.0526181e-06 4.932742e-07 3.311246e-07 2.1148601e-07 2.8800872e-07
1.1922555e-07 9.602353e-08 3.355094e-08 1.71909e-09 1.5264269e-11 2.0369567e-10 9.702839e-10 5.4832205e-09
2.0566256e-08 6.8514304e-08 3.665202e-07 1.3945246e-06 4.0249734e-06 8.616469e-06 1.7810073e-05 2.20944e-05
2.4719362e-05 2.3582992e-05 2.3500857e-05 2.489097e-05 2.443653e-05 2.100764e-05 1.7633509e-05 8.826709e-06
4.246391e-06 2.1429032e-06 1.4823228e-06 1.1242561e-06 5.7804834e-07 2.972353e-07 6.550252e-08 5.740294e-10
8.6170154e-11 1.1507516e-09 5.4121725e-09 1.6579094e-08 6.286338e-08 4.75608e-07 1.8289729e-06 3.7247244e-06
6.6465554e-06 1.1588542e-05 1.9341293e-05 2.0380578e-05 2.0813117e-05 2.1430626e-05 2.1643957e-05 2.254439e-05
2.1972863e-05 2.1103562e-05 2.0274316e-05 1.210852e-05 7.750081e-06 5.2385612e-06 2.992468e-06 2.0943762e-06
1.3274899e-06 5.1697623e-07 9.7613494e-08 5.107229e-09 3.5602082e-10 3.3365415e-09 9.680443e-09 3.3170757e-08
2.1526016e-07 1.4469313e-06 2.6245023e-06 4.651131e-06 8.0725595e-06 1.4141469e-05 2.0551248e-05 2.0037316e-05
2.0804693e-05 2.2252847e-05 2.2424643e-05 2.2746988e-05 2.2075372e-05 2.1833275e-05 2.2297676e-05 1.570549e-05
9.623991e-06 7.2016046e-06 5.498561e-06 3.7220998e-06 2.6171124e-06 1.1063205e-06 4.5785194e-07 4.566579e-08
5.037484e-10 5.352394e-09 2.2792205e-08 6.178278e-08 5.842741e-07 2.1060548e-06 3.4846514e-06 5.7056122e-06
9.294796e-06 1.5455551e-05 2.092383e-05 1.9968584e-05 2.0726922e-05 2.1704924e-05 2.237486e-05 2.2466329e-05
2.2676802e-05 2.2384673e-05 2.2966955e-05 1.6566726e-05 1.0899814e-05 8.421283e-06 6.859678e-06 4.8393576e-06
4.06691e-06 1.9482322e-06 5.8452025e-07 3.2800248e-08 1.2952899e-09 1.4961985e-08 4.151456e-08 1.4066109e-07
1.0872644e-06 2.7314318e-06 4.1373646e-06 6.4031115e-06 9.793007e-06 1.6598331e-05 2.0991496e-05 2.0956633e-05
2.1459335e-05 2.193893e-05 2.2854487e-05 2.3852539e-05 2.3422519e-05 2.2563687e-05 2.2283333e-05 1.7271701e-05
1.0924862e-05 8.976526e-06 7.521694e-06 6.1155174e-06 5.0555723e-06 2.9667872e-06 8.460571e-07 4.1551655e-08
2.5009246e-09 2.446951e-08 7.466044e-08 3.082236e-07 1.5312195e-06 3.0961687e-06 4.359882e-06 7.1957584e-06
1.0462298e-05 1.6791957e-05 2.0471878e-05 2.121934e-05 2.1425505e-05 2.1285203e-05 2.1376263e-05 2.2542623e-05
2.0896527e-05 1.9101653e-05 1.954681e-05 1.6110922e-05 1.0730858e-05 9.276834e-06 8.208245e-06 6.8251074e-06
5.911725e-06 4.6500745e-06 1.353992e-06 8.501814e-08 5.2795373e-09 4.4088807e-08 1.2668208e-07 4.9467724e-07
1.983998e-06 3.4350642e-06 4.966067e-06 7.717445e-06 1.0872887e-05 1.6898908e-05 2.0752912e-05 2.1042553e-05
2.1660871e-05 2.0018522e-05 1.8295092e-05 1.8676843e-05 1.6415413e-05 1.5592623e-05 1.5884385e-05 1.3619495e-05
9.8898045e-06 7.942592e-06 7.5210455e-06 6.880376e-06 6.1999726e-06 5.3610456e-06 2.378232e-06 1.9901562e-07
8.16396e-09 6.6556055e-08 1.7797431e-07 7.0204777e-07 2.1636984e-06 3.5478547e-06 5.1969328e-06 7.647583e-06
1.0591159e-05 1.6086651e-05 2.0429057e-05 2.0365385e-05 2.0115052e-05 1.6798816e-05 1.2637526e-05 1.4210748e-05
1.3789277e-05 1.3246294e-05 1.1710616e-05 9.673708e-06 7.991595e-06 7.144943e-06 6.8723425e-06 6.6089847e-06
6.1429923e-06 6.704411e-06 4.122168e-06 3.3427452e-07 1.2769902e-08 1.0266368e-07 2.3076205e-07 8.8228376e-07
00000000: a664 8c29 4d42 dd2d a17e 212f 2329 7630
00000010: 58c5 cc31 30f9 2d32 3683 ea32 ee87 e133
00000020: e946 b134 7e80 8e35 6958 9b36 2a50 e636
00000030: e685 c836 8026 b236 db13 a736 437c c636
00000040: 12fc e436 681f e136 84bf 8736 af47 8d35
00000050: 8b69 0435 6bc5 b134 d514 6334 9e9f 9a34
00000060: 7804 0034 7e35 ce33 a619 1033 1a45 ec30
00000070: 1444 862d 3cf7 5f2f d45a 8530 eb66 bc31
00000080: ada9 b032 2322 9333 27c6 c434 802b bb35
00000090: 420e 8736 748f 1037 d766 9537 5d57 b937
000000a0: 6d5c cf37 17d4 c537 b523 c537 f3cc d037
000000b0: 0cfd cc37 9039 b037 aceb 9337 6d16 1437
000000c0: 397c 8e36 ccce 0f36 39f4 c635 25e5 9635
000000d0: 2e2b 1b35 b593 9f34 64aa 8c33 bac9 1d30
000000e0: 7c7d bd2e 7928 9e30 f9f5 b931 d069 8e32
000000f0: 82ff 8633 1157 ff34 087b f535 47f6 7936
00000100: 7a05 df36 696c 4237 1c3f a237 f5f6 aa37
00000110: d497 ae37 ebc5 b337 0b90 b537 b51d bd37
00000120: 5d52 b837 8e07 b137 c312 aa37 b325 4b37
00000130: 5806 0237 e6c6 af36 35d2 4836 1c8d 0c36
00000140: 352c b235 56c6 0a35 969f d133 a97b af31
00000150: 7ab9 c32f 0f49 6531 0a4f 2632 a277 0e33
00000160: 4322 6734 2e34 c235 9b20 3036 e910 9c36
00000170: 616f 0737 2641 6d37 7865 ac37 cf15 a837
00000180: bd85 ae37 a0ab ba37 8e1c bc37 c9d0 be37
00000190: 802e b937 9a26 b737 e50b bb37 48bf 8337
000001a0: ba76 2137 50a5 f136 4880 b836 30c9 7936
000001b0: a6a1 2f36 e27c 9435 b1ce f534 1122 4433
000001c0: 2478 0a30 28e8 b731 97c8 c332 71ad 8433
000001d0: 03d7 1c35 bf55 0d36 dbd9 6936 d672 bf36
000001e0: d8f0 1b37 8ba6 8137 9585 af37 3582 a737
000001f0: bade ad37 f812 b637 a5b1 bb37 1376 bc37
00000200: 103a be37 b8c6 bb37 29a9 c037 c6f8 8a37
00000210: 58de 3637 2349 0d37 2f2c e636 c461 a236
00000220: 7e76 8836 60be 0236 ede7 1c35 41e0 0c33
00000230: f605 b230 c185 8032 be4d 3233 a008 1734
00000240: 1fee 9135 a44d 3736 b1d3 8a36 4fda d636
00000250: a54c 2437 a53c 8b37 e516 b037 07cc af37
00000260: 9203 b437 7e09 b837 a3b7 bf37 f016 c837
00000270: 7a7b c437 2647 bd37 18ed ba37 b2e2 9037
00000280: ed49 3737 e399 1637 dc62 fc36 e533 cd36
00000290: 09a3 a936 0419 4736 9a1c 6335 8776 3233
000002a0: bbdc 2b31 0631 d232 0355 a033 ee79 a534
000002b0: 4d84 cd35 c6c7 4f36 1a4b 9236 1873 f136
000002c0: 3a87 2f37 74dc 8c37 06bb ab37 3000 b237
000002d0: ecba b337 a08d b237 2d51 b337 ea19 bd37
000002e0: f34a af37 7d3c a037 74f8 a337 f125 8737
000002f0: af08 3437 b3a3 1b37 25b6 0937 3a03 e536
00000300: 555d c636 d607 9c36 d0ba b535 3793 b633
00000310: 4d67 b531 285c 3d33 1b06 0834 f6c9 0435
00000320: d324 0536 f485 6636 31a2 a636 2d7a 0137
00000330: b26a 3637 21c2 8d37 8a16 ae37 8a84 b037
00000340: 5eb4 b537 73ed a737 6978 9937 37ac 9c37
00000350: d5b3 8937 e7cc 8237 753f 8537 497f 6437
00000360: 63ec 2537 2c41 0537 4a5d fc36 fbdd e636
00000370: 5c09 d036 08e3 b336 b799 1f36 ffb0 5534
00000380: 7a41 0c32 94ed 8e33 3519 3f34 5b74 3c35
00000390: 0e34 1136 ae17 6e36 5061 ae36 1e4e 0037
000003a0: aeb0 3137 d2f1 8637 115f ab37 55d6 aa37
000003b0: bfbc a837 2feb 8c37 c305 5437 b36a 6e37
000003c0: 7e58 6737 663c 5e37 b678 4437 424c 2237
000003d0: a413 0637 98be ef36 f998 e636 bfc2 dd36
000003e0: e71f ce36 74f6 e036 2751 8a36 5776 b334
000003f0: 9f62 5b32 f477 dc33 64c7 7734 14d6 6c35

exp_avg f4 [16]
1.5854719e-10 3.010616e-11 3.6307934e-10 1.3929765e-09 -2.2478829e-10 4.2726997e-10 -1.1044056e-10 1.5540132e-10
-8.117329e-10 1.5564275e-10 -3.39096e-10 -2.0958663e-10 2.1588571e-10 -1.0837849e-10 9.98388e-11 -2.6477132e-10
00000000: 1153 2e2f 8668 042e e09a c72f 0173 bf30
00000010: 4728 77af e7e4 ea2f 82dc f2ae 95dd 2a2f
00000020: a020 5fb0 8a21 2b2f 856b baaf 6471 66af
00000030: 6d5e 6d2f aa53 eeae 3f8c db2e 408f 91af

exp_avg_sq f4 [16]
3.2099263e-19 6.85961e-19 1.4871048e-18 2.2152228e-18 4.1847326e-19 1.4879392e-18 3.816393e-19 1.0793569e-18
2.3720343e-18 3.9801892e-19 1.3041548e-18 2.9333786e-19 8.0636353e-19 1.4507321e-18 4.3272043e-19 3.2203935e-19
00000000: 097b bd20 bf75 4a21 3b75 db21 6074 2322
00000010: e405 f720 c194 db21 b347 e120 f348 9f21
00000020: 7606 2f22 ebf2 ea20 9375 c021 f727 ad20
00000030: 1bff 6d21 1c17 d621 dd6e ff20 3619 be20

exp_avg f4 [16]
-0.0017638699 0.000678167 0.0012878221 0.00069662783 -0.0017793184 0.0017240823 -0.00031511442 0.0007788877
0.00044144836 0.0013220864 -0.0019116648 0.0004034359 0.00052831013 0.000499943 -0.00021831147 -0.0016883253
00000000: a731 e7ba 04c7 313a 24cc a83a e79d 363a
00000010: 0538 e9ba 9afa e13a f135 a5b9 452e 4c3a
00000020: 3272 e739 dc49 ad3a d490 faba 4084 d339
00000030: 4b7e 0a3a 9b0e 033a 8aea 64b9 cc4a ddba

exp_avg_sq f4 [16]
1.6107399e-05 1.7014478e-05 1.1906533e-05 1.007478e-05 2.6347243e-05 3.3169385e-05 2.3759183e-05 2.7123751e-05
3.6877907e-05 1.1559008e-05 3.4090514e-05 2.2338752e-05 3.4245808e-05 5.227408e-05 5.691861e-06 6.430996e-06
00000000: 601e 8737 50ba 8e37 2bc2 4737 da06 2937
00000010: 4604 dd37 5b1f 0b38 754e c737 d087 e337
00000020: 5aad 1a38 90ed 4137 69fc 0e38 1b64 bb37
00000030: 28a3 0f38 de40 5b38 b7fc be36 d6c9 d736

exp_avg f4 [16]
0.00032862453 -0.000114060516 -0.000111766 0.0017616492 -0.0012287481 0.0019626806 0.0011459204 0.0037976913
0.0023281283 0.0020984868 -0.0016801129 0.0029144392 0.0029989653 -0.00032689885 0.0013019998 0.0009346526
00000000: 3d4b ac39 c633 efb8 ea63 eab8 23e7 e63a
00000010: f20d a1ba 51a0 003b b532 963a b0e2 783b
00000020: 8393 183b c486 093b 3c37 dcba 2d00 3f3b
00000030: 4a8a 443b 9f63 abb9 dda7 aa3a 7903 753a

exp_avg_sq f4 [16]
1.8570832e-05 1.39055055e-05 1.6470174e-05 5.8890137e-06 1.810074e-05 1.4093226e-05 1.4442827e-05 4.8250604e-05
2.8713452e-05 6.725719e-06 2.0067662e-05 2.085726e-05 2.1598074e-05 6.886314e-05 6.8797167e-06 8.210485e-06
00000000: 8fc8 9b37 b14b 6937 6e29 8a37 3e9a c536
00000010: 0bd7 9737 f271 6c37 784f 7237 b160 4a38
00000020: abdd f037 7cad e136 fa56 a837 a0f6 ae37
00000030: 832d b537 9e6a 9038 51d8 e636 c4bf 0937
