lightning_logs/version_4/checkpoints/model-epoch=19-val_loss=0.42-2.ckpt (torch, 185102 bytes, 48 tensors)

classifier.1.weight f4 [16, 784]
0.014474167 -0.022386359 -0.08711509 -0.03160804 -0.0947931 -0.0659762 -0.11792079 0.03573851
-0.0028425478 0.07319402 0.016482335 -0.003972611 0.026985163 0.022842795 0.03635247 0.04896327
0.02709881 0.026938451 -0.0063743517 -0.05656995 0.041176636 0.00278149 0.086333364 0.004646549
-0.015902394 -0.02767217 -0.025110438 -0.060473528 -0.023884604 -0.07124189 -0.028158206 -0.047771703
-0.083102256 -0.06443817 0.06520973 0.08331838 0.073169164 -0.039877005 -0.03489728 -0.00043225987
0.018562058 -0.042182963 -0.01627621 0.009627383 0.004376047 0.018230287 -0.027961822 0.008239419
-0.010924884 -0.0061221207 -0.042549703 0.04592175 0.025336454 -0.025263945 -0.0016347369 -0.040483635
-0.008809253 -0.026890025 -0.010012777 -0.055518962 0.0031890753 0.046970326 0.02056589 0.055875935
0.011653618 -0.009579224 -0.02071573 -0.04398388 0.031019138 0.03291071 -0.00629181 0.01098126
-0.014858685 -0.006654228 0.0022873718 -0.005026749 0.010869216 -0.0028171942 -0.026702737 -0.024667604
0.020791996 0.06392839 -0.005185545 0.1095557 0.023089917 0.03903023 0.024518741 -6.520042e-05
0.024502268 0.0345376 0.053611998 0.010725868 -0.017557615 -0.042527024 0.029641671 -0.014861481
-0.036014847 0.005997878 0.01995059 0.016590377 0.020561978 -0.0006558665 0.0028772047 -0.024986774
-0.019792216 -0.026057873 -0.0346211 -0.0541693 0.031939156 0.04757683 0.0013248683 -0.036200438
0.011156179 -0.014076518 0.0033790586 -0.013467551 0.013499931 0.021906989 0.022740794 0.03947963
0.016362634 -0.019050313 -0.0240216 -0.034848236 -0.025654644 -0.021087524 0.03033281 0.01846528
0.043340735 0.002204596 0.0059887003 0.022291949 0.04615097 -0.0044251545 0.011500129 -0.048232302
0.041763812 -0.025023013 -0.026793333 0.029204998 -0.0003060243 -0.0013663353 -0.018503346 0.027948584
-0.022962203 0.01796685 0.03680813 0.013039247 -0.035850827 0.025557136 -0.013535859 0.007084351
-0.038710155 -0.018462809 0.040032096 0.017066466 0.009407517 0.0036472946 0.02449389 -0.02454377
0.031004729 0.017533239 -0.03589533 0.0057051145 -0.027320916 -0.0119397575 0.0147493435 0.106869
-0.0073985104 -0.035764623 0.014013336 -0.015025527 -0.02643403 0.0023531315 0.0036771644 -0.018035112
-0.008948156 0.008280428 0.02315831 -0.0071359854 -0.036942914 -0.008235579 0.017506748 -0.014778925
-0.0077322577 0.04000791 0.041751873 0.023047054 -0.017294386 -0.017377274 0.006035227 -0.0069802934
-0.009059438 -0.014891797 0.028223865 0.05926852 0.00927928 7.0276624e-06 0.02307772 -0.0010812097
-0.0061020846 -0.011222291 -0.033478417 -0.006379606 0.038600568 0.018438585 -0.023699729 -0.012182592
0.011799374 0.0059387446 -0.0076941084 0.008124252 -0.0133000435 0.03204983 0.055572867 -0.00052975444
0.055726092 -0.0056245904 -0.012769315 0.0043048505 -0.013442722 0.038139433 0.031963352 -0.024864709
-0.02730079 0.045049395 -0.031480942 -0.04834462 -0.0078681 0.0141959535 -0.024619756 0.03003612
-0.005380276 -0.02378812 0.031512372 -0.023563266 -0.0285215 0.0045019537 -0.0025273717 0.021877177
-0.019392304 0.007826307 0.0063420064 0.03651687 0.022035012 0.008475093 0.040398218 -0.009245082
0.062199093 0.029715493 0.047971062 -0.024373062 0.025006237 0.009574701 -0.024350272 -0.015136329
00000000: 0e25 6d3c 9963 b7bc 6569 b2bd 6f77 01bd
00000010: e322 c2bd 881e 87bd 7580 f1bd 8b62 123d
00000020: 0a4a 3abb bfe6 953d f605 873c ad2c 82bb
00000030: fd0f dd3c d020 bb3c 54e6 143d b68d 483d
00000040: 53fe dd3c 07ae dc3c f0df d0bb e4b5 67bd
00000050: d5a8 283d a949 363b 8ccf b03d 1442 983b
00000060: bd45 82bc bfb0 e2bc 68b4 cdbc 17b3 77bd
00000070: a5a9 c3bc 45e7 91bd 0aac e6bc 43ac 43bd
00000080: 8431 aabd 29f8 83bd ae8c 853d d4a2 aa3d
00000090: b7d9 953d 1256 23bd 73f0 0ebd f0a0 e2b9
000000a0: 750f 983c 0bc8 2cbd b055 85bc 2cbc 1d3c
000000b0: f164 8f3b af57 953c 3110 e5bc a1fe 063c
000000c0: 49fe 32bc 129c c8bb 9948 2ebd 7218 3c3d
000000d0: 658e cf3c 55f6 cebc ab44 d6ba 2bd2 25bd
000000e0: af54 10bc 7848 dcbc a10c 24bc da67 63bd
000000f0: ceff 503b f563 403d cc79 a83c 2ade 643d
00000100: d1ee 3e3c 2df2 1cbc 09b4 a9bc 7128 34bd
00000110: d91b fe3c 61cd 063d 872b cebb beea 333c
00000120: d871 73bc b60b dabb bbe7 153b 6db7 a4bb
00000130: cc14 323c ada0 38bb b3bf dabc b713 cabc
00000140: fa53 aa3c e3ec 823d 81eb a9bb bd5e e03d
00000150: 1127 bd3c 2ade 1f3d 87db c83c 35bc 88b8
00000160: fbb8 c83c 4c77 0d3d 4198 5b3d 8dbb 2f3c
00000170: fdd4 8fbc d130 2ebd 17d3 f23c 927d 73bc
00000180: 4e84 13bd d989 c43b 6b6f a33c 8be8 873c
00000190: 9871 a83c 75ee 2bba 7c8f 3c3b 10b1 ccbc
000001a0: 4923 a2bc 5277 d5bc dbce 0dbd a1e0 5dbd
000001b0: a2d2 023d ecdf 423d 34a7 ad3a e946 14bd
000001c0: 68c8 363c 32a1 66bc 3273 5d3b 01a7 5cbc
000001d0: d12e 5d3c 4976 b33c e74a ba3c 64b5 213d
000001e0: ee0a 863c 670f 9cbc f2c8 c4bc 06bd 0ebd
000001f0: b029 d2bc bebf acbc 837c f83c 8044 973c
00000200: 0e86 313d fc7a 103b dc3c c43b 9b9d b63c
00000210: cd08 3d3d e300 91bb 096b 3c3c 3c8f 45bd
00000220: 8810 2b3d 10fd ccbc b17d dbbc 523f ef3c
00000230: e371 a0b9 9b16 b3ba 5494 97bc 6ef4 e43c
00000240: 3b1b bcbc 372f 933c 1fc4 163d 91a2 553c
00000250: 51d8 12bd 335d d13c 82c5 5dbc d823 e83b
00000260: 8a8e 1ebd 513f 97bc b2f8 233d f9ce 8b3c
00000270: fc21 1a3c 7307 6f3b 69a7 c83c 0410 c9bc
00000280: a1fd fd3c dea1 8f3c fb06 13bd f8f1 ba3b
00000290: 1dd0 dfbc f99e 43bc 3ba7 713c 22de da3d
000002a0: 346f f2bb ed7d 12bd 3198 653c a12d 76bc
000002b0: 2e8c d8bc ff36 1a3b 95fc 703b 5fbe 93bc
000002c0: 499b 12bc a2aa 073c 7fb6 bd3c fcd4 e9bb
000002d0: 7451 17bd 86ee 06bc 506a 8f3c 4e23 72bc
000002e0: e15e fdbb 56df 233d 0304 2b3d 2dcd bc3c
000002f0: f5ac 8dbc c95a 8ebc 27c3 c53b f2ba e4bb
00000300: 096e 14bc b9fc 73bc bc35 e73c 8cc3 723d
00000310: 1f08 183c 29cf eb36 7d0d bd3c 61b7 8dba
00000320: fff3 c7bb b3dd 37bc aa20 09bd 040c d1bb
00000330: a11b 1e3d 840c 973c ef25 c2bc 7f99 47bc
00000340: 2952 413c cd99 c23b dc1e fcbb 951b 053c
00000350: 6de8 59bc af46 033d 60a0 633d 38df 0aba
00000360: 0b41 643d 7c4e b8bb 6436 51bc b40f 8d3b
00000370: dd3e 5cbc 1838 1c3d 01ec 023d 13b1 cbbc
00000380: e8a5 dfbc b785 383d 29f2 00bd 0205 46bd
00000390: 34e9 00bc 2596 683c 5faf c9bc 4f0e f63c
000003a0: 074d b0bb 4edf c2bc 1e13 013d c007 c1bc
000003b0: eca5 e9bc 2085 933b 43a2 25bb c437 b33c
000003c0: 9cdc 9ebc e939 003c 9bd0 cf3b b792 153d
000003d0: c582 b43c 1edb 0a3c 9a78 253d af78 17bc
000003e0: 7ac4 7e3d e86d f33c 4e7d 443d 04aa c7bc
000003f0: e1d9 cc3c 35df 1c3c 397a c7bc 5efe 77bc

classifier.1.bias f4 [16]
-0.016956333 -0.007107972 0.003801925 -0.034594487 -0.0022057253 0.030522855 0.015907241 0.00047245872
-0.0057704793 -0.008735937 0.008297395 -0.021707648 0.013114396 -0.009385644 0.023342486 -0.00913547
00000000: 02e8 8abc fee9 e8bb b829 793b f3b2 0dbd
00000010: ee8d 10bb 110b fa3c e74f 823c 56b4 f739
00000020: 4a16 bdbb 2d21 0fbc ccf1 073c 3dd4 b1bc
00000030: c3dd 563c 3fc6 19bc be38 bf3c f0ac 15bc

classifier.2.weight f4 [16]
0.9551984 0.94959706 1.0625325 0.9855429 0.95823187 0.9644415 1.0378293 1.0072901
0.9144613 1.0465678 1.0292945 1.1277738 0.9772601 1.003397 0.99447095 0.9198937
00000000: e287 743f cb18 733f 1101 883f 8a4c 7c3f
00000010: af4e 753f a3e5 763f 97d7 843f e2ee 803f
00000020: 231a 6a3f eff5 853f ecbf 833f e45a 903f
00000030: b82d 7a3f 506f 803f a695 7e3f 277e 6b3f

classifier.2.bias f4 [16]
-0.20412548 0.021996796 -0.065694414 0.02488626 -0.026550353 -0.0075649284 -0.06785412 -0.17994128
-0.0027616988 -0.16601236 -0.06615671 -0.0028441583 -0.0066758827 -0.106737524 -0.13628612 0.06444367
00000000: 4506 51be a032 b43c cb8a 86bd 45de cb3c
00000010: 2080 d9bc 38e3 f7bb 1af7 8abd 8742 38be
00000020: 9efd 34bb 25ff 29be 2b7d 87bd 0f65 3abb
00000030: 5dc1 dabb 3499 dabd 978e 0bbe 0bfb 833d

classifier.2.running_mean f4 [16]
-0.31071624 0.967106 2.1332548 4.418224 0.7544714 0.21580848 0.013228383 0.2851711
3.9765866 0.26946995 1.9005969 0.37821037 2.6887581 2.520908 3.166722 2.2478094
00000000: 3316 9fbe 4294 773f 3f87 0840 1762 8d40
00000010: 0a25 413f e6fc 5c3e dcbb 583c f201 923e
00000020: 6580 7e40 f7f7 893e c246 f33f caa4 c13e
00000030: 9d14 2c40 8f56 2140 93ab 4a40 1cdc 0f40

classifier.2.running_var f4 [16]
0.8497313 1.3692563 0.9742223 1.0467036 1.2423326 0.79355663 0.844358 1.0959067
1.3704466 0.43283567 1.0299165 1.536595 1.6249955 1.9365526 1.4636141 1.1500032
00000000: fe87 593f ca43 af3f a266 793f 62fa 853f
00000010: c104 9f3f 8726 4b3f d927 583f ac46 8c3f
00000020: cb6a af3f a39c dd3e 4ed4 833f 25af c43f
00000030: daff cf3f f5e0 f73f b557 bb3f 4e33 933f

classifier.4.weight f4 [16, 16]
-0.0653491 -0.066328235 -0.03055742 -0.13498431 -0.09008043 -0.17317517 0.11688294 0.15335822
-0.13487001 0.11132982 -0.034075297 0.06312102 0.27498916 -0.01493547 0.058131687 -0.019011289
-0.21517546 0.24033898 -0.035693552 -0.040067334 -0.103281796 -0.036484398 -0.0446219 -0.20102271
-0.26719162 -0.06256631 0.17510483 -0.026986584 0.18543115 -0.16490574 0.04119037 -0.005483897
-0.02945779 0.16433376 -0.07042799 0.123613164 0.14172496 0.0040112315 0.2322885 -0.20608322
0.021640247 -0.19514585 -0.20708069 -0.11845481 0.2807599 -0.09526329 -0.10451812 0.15435903
0.0719066 -0.10459801 -0.14428619 0.050751872 -0.02462627 -0.033575132 -0.14741218 0.11062663
0.033741467 0.09378707 -0.0041813725 0.14347813 -0.07203672 -0.2690681 0.08085782 -0.028429711
0.112362385 0.15306191 -0.14329346 0.08555394 -0.030169176 0.080698125 0.059148554 -0.124365404
-0.26263967 -0.069055036 0.16022441 0.0377984 -0.07734461 0.022636307 -0.06704272 -0.3218285
-0.07446299 -0.08035081 -0.14676371 0.17777687 0.032019254 -0.13658944 -0.15086868 -0.10244197
-0.0714745 -0.2073307 0.19488916 -0.20346746 0.21132123 0.13933772 -0.22828317 -0.03580679
-0.092797354 0.049663726 -0.24207285 0.122903325 0.20367022 -0.18549562 -0.024235053 -0.13223073
0.033867344 0.15420504 0.043556735 -0.33959886 0.1310322 -0.08033859 0.06989143 0.00058908394
-0.29556048 -0.2663806 0.26150325 0.03963132 0.048853315 0.11408586 0.017938111 -0.14620493
0.1152036 -0.1584928 0.043471355 0.15918414 -0.16634496 -0.112801604 0.19435085 -0.04838093
0.041741 -0.13696517 0.14454624 0.014826729 -0.07807669 -0.12543067 -0.09626082 0.02213296
0.14572895 -0.018567482 -0.03577983 -0.2603492 -0.17115417 -0.19373226 0.106206305 -0.060576018
-0.3198916 -0.10607673 0.14827403 -0.06323974 -0.17457004 -0.008780958 0.06165693 -0.1719166
-0.024140047 0.16004403 0.21698768 0.107455574 0.06003947 0.20015238 0.24559155 0.12076341
0.00095384644 0.028583312 0.17965351 -0.12783302 -0.15466264 0.11255431 0.11264075 -0.19326556
-0.08160805 -0.1759222 0.18003592 0.16223808 0.1703066 -0.022586362 0.09358039 -0.04238857
0.083670005 0.14419052 -0.22906415 0.10357583 -0.19312558 -0.08710124 0.10752195 -0.085246935
0.1373865 -0.12392584 -0.1177326 -0.13733621 0.10113286 -0.17150412 0.041326992 0.05079697
0.006085291 0.112060025 0.05748938 0.28415295 0.22675955 0.1459219 0.013774307 -0.11588135
-0.18484092 -0.08428869 0.111058496 -0.27119452 0.12771621 -0.3273267 -0.07521118 0.08313669
-0.22696209 -0.18861355 -0.27447698 -0.011223372 0.053724814 -0.19978526 -0.103787236 0.024078922
0.17739834 0.15648358 -0.0030612291 -0.14550842 0.047884434 0.039729163 0.24943429 0.14655985
0.0826258 -0.29354906 -0.2294877 0.09169351 -0.123609096 -0.0459115 -0.01944883 -0.20661159
0.16135766 -0.3210296 0.12514597 -0.23709458 0.12686303 0.23575103 -0.12291228 0.11983014
0.021768684 0.02286385 -0.19550079 -0.058592584 0.04419613 -0.0071953544 -0.19511947 -0.21395414
-0.118177615 -0.050882813 -0.03624983 0.010785594 -0.23908117 -0.25391695 0.05475181 -0.092497066
00000000: c0d5 85bd 19d7 87bd 8e53 fabc 5439 0abe
00000010: 177c b8bd d554 31be 5360 ef3d f009 1d3e
00000020: 5d1b 0abe e300 e43d 8a92 0bbd 9845 813d
00000030: 61cb 8c3e e7b3 74bc 7e1b 6e3d 90bd 9bbc
00000040: f556 5cbe 6c1b 763e 6733 12bd a51d 24bd
00000050: 6885 d3bd aa70 15bd 74c5 36bd e6d8 4dbe
00000060: 57cd 88be c422 80bd ae4e 333e f812 ddbc
00000070: aae1 3d3e 0ddd 28be 3cb7 283d 43b2 b3bb
00000080: 7751 f1bc 1c47 283e 8d3c 90bd e628 fd3d
00000090: 5920 113e a670 833b 09dd 6d3e 7b07 53be
000000a0: e346 b13c 50d4 47be f60c 54be 6f98 f2bd
000000b0: c3bf 8f3e 6619 c3bd 990d d6bd 4b10 1e3e
000000c0: c443 933d 7b37 d6bd c2bf 13be 32e1 4f3d
000000d0: 08bd c9bc 1486 09bd 38f3 16be 3790 e23d
000000e0: 7e34 0a3d 6f13 c03d e503 89bb eeeb 123e
000000f0: fd87 93bd 4bc3 89be c998 a53d 6de5 e8bc
00000100: 401e e63d 43bc 1c3e 85bb 12be e736 af3d
00000110: 5925 f7bc 0f45 a53d c145 723d 4ab3 febd
00000120: b578 86be ba6c 8dbd de11 243e 7fd2 1a3d
00000130: da66 9ebd c76f b93c b24d 89bd b5c6 a4be
00000140: 0d80 98bd f78e a4bd 3a49 16be 240b 363e
00000150: 9f26 033d 1ade 0bbe 527d 1abe 18cd d1bd
00000160: 3961 92bd 804e 54be 0691 473e c659 50be
00000170: 9864 583e 8cae 0e3e 10c3 69be 24aa 12bd
00000180: 8a0c bebd 316c 4b3d f2e1 77be bdb4 fb3d
00000190: ed8e 503e 90f2 3dbe 9788 c6bc 7e67 07be
000001a0: 7cb8 0a3d ede7 1d3e 8c68 323d e7df adbe
000001b0: 4e2d 063e 8f88 a4bd 3d23 8f3d c16c 1a3a
000001c0: b453 97be 0a63 88be c1e3 853e 7354 223d
000001d0: 6a1a 483d d9a5 e93d f2f2 923c bfb6 15be
000001e0: ddef eb3d f04b 22be 050f 323d 2b01 233e
000001f0: 5556 2abe 8704 e7bd e903 473e 152b 46bd
00000200: 9cf8 2a3d 9940 0cbe ee03 143e cfeb 723c
00000210: ace6 9fbd e670 00be 6524 c5bd 2e50 b53c
00000220: f839 153e d51a 98bc df8d 12bd 7e4c 85be
00000230: 0a43 2fbe c061 46be b182 d93d 8f1e 78bd
00000240: d5c8 a3be c23e d9bd 26d5 173e d683 81bd
00000250: 7dc2 32be 02de 0fbc fa8b 7c3d e80a 30be
00000260: 59c1 c5bc 95e2 233e 0532 5e3e ab11 dc3d
00000270: f3eb 753d bff4 4c3e 5a7c 7b3e cf52 f73d
00000280: 8d0b 7a3a 8d27 ea3c 17f7 373e a9e6 02be
00000290: e25f 1ebe e082 e63d 32b0 e63d 68e7 45be
000002a0: 1f22 a7bd f324 34be 565b 383e bd21 263e
000002b0: da64 2e3e 0907 b9bc 13a7 bf3d a39f 2dbd
000002c0: 2e5b ab3d aea6 133e cb8f 6abe 911f d43d
000002d0: b6c2 45be 2362 b2bd 7834 dc3d f295 aebd
000002e0: 0caf 0c3e d5cc fdbd ca1d f1bd dda1 0cbe
000002f0: bf1e cf3d c79e 2fbe 7e46 293d 7c10 503d
00000300: 1f67 c73b ba7f e53d fc79 6b3d 7f7c 913e
00000310: a833 683e 8d6c 153e a2ad 613c 3453 edbd
00000320: f046 3dbe 8c9f acbd a372 e33d 02da 8abe
00000330: 0ac8 023e 5d97 a7be 5208 9abd 9243 aa3d
00000340: c068 68be e923 41be 3f88 8cbe 3ce2 37bc
00000350: 8d0e 5c3d 8294 4cbe 678e d4bd 2941 c53c
00000360: e9a7 353e 3b3d 203e e79e 48bb 2900 15be
00000370: 7822 443d 0cbb 223d b46b 7f3e c913 163e
00000380: b737 a93d 104c 96be d3fe 6abe cfc9 bb3d
00000390: c426 fdbd b20d 3cbd 2753 9fbc fd91 53be
000003a0: f13a 253e fe5d a4be 4426 003e ecc8 72be
000003b0: 62e8 013e b868 713e 6fb9 fbbd 8169 f53d
000003c0: 3d54 b23c f84c bb3c 5c31 48be c7fe 6fbd
000003d0: 0007 353d 02c7 ebbb 66cd 47be cb16 5bbe
000003e0: 1b07 f2bd 7f6a 50bd b47a 14bd 0fb6 303c
000003f0: b2d1 74be 6701 82be 6f43 603d 1a6f bdbd

classifier.4.bias f4 [16]
0.0053535816 -0.08175336 -0.02234089 0.04439717 0.036543988 0.14287283 -0.10884295 -0.10333903
-0.09977221 -0.050163243 0.18755125 -0.18868487 0.1747337 0.21818292 -0.10676618 -0.15910928
00000000: 196d af3b 4e6e a7bd 3e04 b7bc cfd9 353d
00000010: 26af 153d 414d 123e 0de9 debd 6aa3 d3bd
00000020: 5f55 ccbd f977 4dbd 6f0d 403e 9b36 41be
00000030: 64ed 323e 586b 5f3e 3aa8 dabd 8bed 22be

classifier.5.weight f4 [16]
1.1002901 1.0369843 1.0045437 0.928005 1.0267657 0.99902385 0.969635 0.9469636
1.0358233 1.0313189 0.99315876 0.9852047 1.0778586 0.92821896 0.95706755 1.0160627
00000000: 4ed6 8c3f e7bb 843f e394 803f bc91 6d3f
00000010: 0f6d 833f 07c0 7f3f 003a 783f 356c 723f
00000020: dc95 843f 4202 843f a73f 7e3f 6036 7c3f
00000030: 45f7 893f c29f 6d3f 6102 753f 580e 823f

classifier.5.bias f4 [16]
0.10367635 -0.0134250745 0.0076016816 0.17698887 0.113087766 0.04217712 -0.037624717 -0.046175566
0.013265584 0.023841854 -0.029562395 0.009373769 0.037950847 -0.13166697 0.07423696 0.11706905
00000000: 4454 d43d d8f4 5bbc 8717 f93b 923c 353e
00000010: 8f9a e73d eac1 2c3d 601c 1abd 9722 3dbd
00000020: e457 593c fe4f c33c d62c f2bc 7094 193c
00000030: 5972 1b3d b5d3 06be 8c09 983d e6c1 ef3d

classifier.5.running_mean f4 [16]
0.011248477 -0.25199634 0.046161488 -0.051088464 -0.12062534 -0.089512296 -0.258387 -0.11558378
-0.40184668 0.15581447 0.32366627 -0.34198326 0.223142 0.096408196 -0.34473515 -0.6509179
00000000: 884b 383c aa05 81be d413 3d3d 2342 51bd
00000010: 6b0a f7bd 3952 b7bd 4d4b 84be 30b7 ecbd
00000020: d9be cdbe d48d 1f3e 96b7 a53e 6e18 afbe
00000030: 567f 643e a971 c53d 2081 b0be 8ea2 26bf

classifier.5.running_var f4 [16]
0.17276832 0.053930234 0.0957023 0.0416104 0.06716981 0.10957887 0.19813864 0.19649221
0.06483966 0.04597734 0.22553378 0.060674608 0.07202525 0.20268138 0.19640826 0.087917455
00000000: 2eea 303e f3e5 5c3d 91ff c33d ab6f 2a3d
00000010: 5390 893d e36a e03d dbe4 4a3e 4135 493e
00000020: a8ca 843d bc52 3c3d 54f2 663e f085 783d
00000030: f981 933d b58b 4f3e 3f1f 493e 110e b43d

classifier.7.weight f4 [16, 16]
0.13331032 -0.023096472 -0.03754021 -0.21007861 0.07464513 0.14160712 -0.10853656 0.115951754
0.018946582 0.10053191 -0.19329007 -0.04434402 0.29935116 0.24102023 -0.24355008 0.030098617
-0.09469135 -0.044586733 -0.045772932 0.17992821 0.056313794 -0.11955151 -0.13084862 0.13437328
-0.21484232 -0.11971238 -0.14565405 -0.0067991056 -0.061075218 0.25033426 -0.22854988 0.03772797
0.028498633 -0.01862628 -0.21610577 -0.06463462 -0.0703587 0.06630188 -0.26927987 0.019964717
-0.0001339783 -0.1961453 -0.1968194 -0.18390088 -0.18835421 0.03133702 0.038057994 -0.109303206
-0.14598201 -0.27453202 0.054260064 -0.073867716 -0.053265385 0.10339538 0.03933781 -0.00438306
-0.16928154 0.09600343 -0.16735256 -0.14900452 -0.098619364 0.16634715 -0.04545092 -0.1717722
-0.14003761 -0.032000896 -0.13461445 -0.10957426 -0.15127854 0.044120967 -0.00039825568 0.050115686
0.22213286 -0.052345343 0.036959246 0.2629452 -0.083572686 0.23663166 -0.27575362 -0.051947784
-0.15531802 0.19710787 -0.20158298 -0.39939123 0.22405852 0.2765284 0.036108933 -0.058230016
0.075628676 -0.15363476 -0.029011542 -0.22399488 -0.104587466 0.13568427 0.15742412 -0.09874364
0.25406557 -0.15997417 0.29861456 -0.23826532 0.099925116 0.19803901 -0.040923104 0.12977156
-0.056941275 -0.012765196 0.22450295 0.0026420008 -0.091221824 0.04997972 -0.12419577 -0.028933441
-0.013746282 0.19397815 -0.027872525 0.121053964 -0.15409018 -0.16117766 -0.1261747 -0.055949442
0.010644377 0.11779813 0.0525221 -0.15141365 0.009370939 0.1456763 0.013312414 -0.14380363
-0.11533482 -0.15024488 -0.13088134 -0.109018564 -0.13212183 -0.01625479 -0.15720376 0.21364263
-0.08849335 -0.05723355 -0.1062934 0.18276575 0.11215412 -0.08269502 -0.011705091 0.27345264
-0.14836864 -0.077272415 0.045844343 -0.15271722 -0.32912806 0.096946314 -0.2112897 0.064230345
0.2062798 -0.09946086 0.034240827 0.012010511 0.16031048 0.071316354 0.079334505 0.04784087
0.1577049 0.057661142 -0.1554612 0.17346857 -0.2514261 0.045113094 -0.22379526 0.062771626
-0.100081176 0.08701484 0.0701938 0.09841975 0.26905245 -0.13340509 0.045329064 -0.067300044
0.0027126693 -0.045708 0.005297485 0.025520671 -0.05483681 -0.00338892 0.3051256 -0.13772647
0.07744452 0.11346296 -0.02888304 0.17259394 0.20626983 0.00986186 -0.11925368 0.10059694
-0.26565325 -0.07159384 -0.045958888 -0.0038987363 0.15137982 -0.20411511 0.07978039 0.14008902
-0.0123459175 -0.023261245 -0.12578394 -0.14034978 0.03448592 -0.3447994 -0.16157725 0.25591844
-0.015478778 0.24860984 -0.13207713 -0.16172834 0.010120138 0.001311499 0.027776333 0.00790777
-0.0019373805 0.25328535 0.10824396 0.13061626 0.026825223 -0.19866629 0.019602407 0.05447047
0.13418043 -0.06464116 0.09321064 -0.043166663 0.08316726 0.3091867 -0.033136666 -0.018944249
0.07677504 -0.060355637 0.017553817 0.13306852 -0.18519264 0.20648044 0.12882465 0.035216555
0.2514635 -0.11646385 -0.21719989 -0.06527215 0.072967455 -0.15778847 -0.04986165 -0.24922517
-0.043013908 -0.2305307 0.09314084 0.10596296 0.078663275 -0.07759665 -0.06096922 -0.15313579
00000000: 8082 083e d034 bdbc c3c3 19bd d91e 57be
00000010: 8cdf 983d 7501 113e 6a48 debd 1d78 ed3d
00000020: dd35 9b3c ade3 cd3d d5ed 45be 13a2 35bd
00000030: 8e44 993e 02ce 763e 3165 79be 6091 f63c
00000040: 8aed c1bd 94a0 36bd 667c 3bbd 1a3f 383e
00000050: 4ba9 663d 6cd7 f4bd 2efd 05be 2699 093e
00000060: a0ff 5bbe c42b f5bd 5626 15be 08cb debb
00000070: 022a 7abd d02b 803e fb08 6abe a588 1a3d
00000080: f775 e93c 2496 98bc d54a 5dbe 285f 84bd
00000090: 3918 90bd 48c9 873d 0ddf 89be 0c8d a33c
000000a0: 877c 0cb9 50da 48be 068b 49be 8350 3cbe
000000b0: eddf 40be 3f5b 003d b3e2 1b3d 5cda dfbd
000000c0: 4f7c 15be 768f 8cbe cd3f 5e3d f547 97bd
000000d0: ce2c 5abd f5c0 d33d af20 213d c69f 8fbb
000000e0: 2458 2dbe 729d c43d 785e 2bbe a494 18be
000000f0: f3f8 c9bd e856 2a3e be2a 3abd 0de5 2fbe
00000100: 0566 0fbe 5f13 03bd 5fd8 09be 7868 e0bd
00000110: c3e8 1abe 30b8 343d f9cc d0b9 1b46 4d3d
00000120: cc76 633e 1268 56bd 9462 173d c1a0 863e
00000130: 2828 abbd 924f 723e 942f 8dbe 33c7 54bd
00000140: b00b 1fbe a5d6 493e c56b 4ebe 027d ccbe
00000150: 996f 653e 2195 8d3e f6e6 133d 9982 6ebd
00000160: 35e3 9a3d 6e52 1dbe 9da9 edbc ea5e 65be
00000170: f431 d6bd d1f0 0a3e ca33 213e 1b3a cabd
00000180: e214 823e 45d0 23be 02e4 983e d3fb 73be
00000190: 8aa5 cc3d bdca 4a3e fc9e 27bd d6e2 043e
000001a0: 413b 69bd 1d25 51bc 1ae4 653e 6b25 2d3b
000001b0: 82d2 babd 89b7 4c3d 5a5a febd d305 edbc
000001c0: 1638 61bc 35a2 463e ec54 e4bc 24eb f73d
000001d0: d1c9 1dbe c20b 25be f133 01be 3e2b 65bd
000001e0: c165 2e3c 2540 f13d 6a21 573d 2e0c 1bbe
000001f0: 9188 193c 2b2c 153e 501c 5a3c 4241 13be
00000200: a934 ecbd cbd9 19be c205 06be 2045 dfbd
00000210: f24a 07be c428 85bc 06fa 20be 22c5 5a3e
00000220: 003c b5bd ba6d 6abd 5bb0 d9bd f226 3b3e
00000230: 0fb1 e53d 025c a9bd b6c6 3fbc fc01 8c3e
00000240: f3ed 17be 0041 9ebd 47c7 3b3d e761 1cbe
00000250: 7983 a8be ca8b c63d 545c 58be 338b 833d
00000260: 033b 533e 23b2 cbbd 1c40 0c3d bcc7 443c
00000270: 6e28 243e 4f0e 923d 217a a23d caf4 433d
00000280: 657d 213e 172e 6c3d 3931 1fbe bfa1 313e
00000290: ecba 80be 82c8 383d 962a 65be 698e 803d
000002a0: 5cf7 ccbd d634 b23d c4c1 8f3d 4b90 c93d
000002b0: 3ec1 893e 589b 08be f8aa 393d 9bd4 89bd
000002c0: 0ac7 313b 5038 3bbd 8696 ad3b ba10 d13c
000002d0: 909c 60bd a518 5ebb 6c39 9c3e 2b08 0dbe
000002e0: 3c9b 9e3d 455f e83d 209c ecbc 77bc 303e
000002f0: 6638 533e a493 213c 463b f4bd c505 ce3d
00000300: b403 88be cb9f 92bd 633f 3cbd f181 7fbb
00000310: 5003 1b3e 8d03 51be e763 a33d 7f73 0f3e
00000320: 8846 4abc 5e8e bebc 81cd 00be dab7 0fbe
00000330: 1c41 0d3d 8c89 b0be 8274 25be be07 833e
00000340: b39a 7dbc 9493 7e3e 3a3f 07be 1d9c 25be
00000350: efce 253c 9be6 ab3a 318b e33c 978f 013c
00000360: b4ef fdba 9eae 813e 02af dd3d 45c0 053e
00000370: 92c0 db3c 2d6f 4bbe 3a95 a03c 6d1c 5f3d
00000380: 9866 093e 9662 84bd 38e5 be3d 87cf 30bd
00000390: 9953 aa3d b84d 9e3e 50ba 07bd f830 9bbc
000003a0: 3b3c 9d3d 7937 77bd 06cd 8f3c 1d43 083e
000003b0: 24a3 3dbe 9c6f 533e 9cea 033e 3c3f 103d
000003c0: d3bf 803e 9984 eebd a669 5ebe 68ad 85bd
000003d0: f66f 953d 4d93 21be bb3b 4cbd e234 7fbe
000003e0: 5a2f 30bd 3d10 6cbe a0c0 be3d 1c03 d93d
000003f0: 361a a13d feea 9ebd dcba 79bd a1cf 1cbe

classifier.7.bias f4 [16]
-0.13043424 0.19834663 0.01025884 -0.24140878 -0.24762082 -0.07789469 -0.15331668 0.023712285
0.25957006 0.08492879 0.14058198 0.020309007 0.16756181 0.25846404 0.061234895 -0.32208872
00000000: 8e90 05be 611b 4b3e b214 283c dd33 77be
00000010: 5090 7dbe 4087 9fbd 0cff 1cbe 4440 c23c
00000020: 5ee6 843e 25ef ad3d b9f4 0f3e 135f a63c
00000030: 5395 2b3e 6655 843e 71d1 7a3d d0e8 a4be

classifier.8.weight f4 [16]
1.3760759 1.3406978 1.3810984 1.359786 1.3317916 1.361281 1.3450727 1.3015814
1.3261211 1.3393791 1.3156171 1.3671416 1.3176885 1.3315494 1.3772358 1.3709604
00000000: 4123 b03f fc9b ab3f d5c7 b03f 780d ae3f
00000010: 2678 aa3f 753e ae3f 582b ac3f 389a a63f
00000020: 56be a93f c670 ab3f 2466 a83f 7ffe ae3f
00000030: 04aa a83f 3670 aa3f 4349 b03f a17b af3f

classifier.8.bias f4 [16]
0.34943795 0.30330932 0.349603 0.3293409 0.33032265 0.36692518 0.34473094 0.29292208
0.3142613 0.33469546 0.29872194 0.42750227 0.33285183 0.36192656 0.37492323 0.30794302
00000000: 88e9 b23e 5c4b 9b3e 2aff b23e 5f9f a83e
00000010: 0d20 a93e 9edd bb3e 9380 b03e e2f9 953e
00000020: dbe6 a03e 345d ab3e 15f2 983e 94e1 da3e
00000030: 8e6b aa3e 704e b93e f0f5 bf3e b5aa 9d3e

classifier.8.running_mean f4 [16]
-0.011182573 -0.06589743 -0.52847683 -0.664426 -0.40113476 -0.2239441 0.031959016 -0.06923829
0.09968424 -0.040010102 0.23443891 0.28693783 -0.09991084 0.43581605 0.3814034 -0.61214006
00000000: 1c37 37bc 3bf5 86bd 424a 07bf d317 2abf
00000010: 8961 cdbe 9a51 65be 75e7 023d cecc 8dbd
00000020: 4027 cc3d a2e1 23bd c110 703e 84e9 923e
00000030: 0e9e ccbd 4823 df3e 4e47 c33e 36b5 1cbf

classifier.8.running_var f4 [16]
0.071426146 0.08359341 0.08150149 0.11297713 0.082921445 0.2922096 0.20177117 0.08744059
0.1464384 0.23670053 0.08535378 0.08305059 0.16597922 0.079004295 0.07007956 0.11036491
00000000: df47 923d 0633 ab3d 41ea a63d 8e60 e73d
00000010: b8d2 a93d 7f9c 953e 1a9d 4e3e 0d14 b33d
00000020: f3f3 153e a061 723e f6cd ae3d 6d16 aa3d
00000030: 75f6 293e 01cd a13d df85 8f3d ff06 e23d

classifier.10.weight f4 [10, 16]
-0.065591656 -0.24983707 0.5230675 0.42218503 -0.29488835 0.29641116 -0.04840198 -0.40018195
-0.17457531 -0.011679232 -0.33243498 -0.22797745 -0.1680088 -0.35226843 0.5146 -0.41250062
0.26074323 0.32597935 -0.09523605 0.49596044 0.18561749 -0.27798274 -0.3945383 0.3408787
-0.455925 -0.3319125 -0.17958677 0.50753057 -0.28531548 -0.38630915 -0.2869177 -0.20929423
-0.3682411 -0.25346777 -0.15379429 -0.25595295 0.51570964 -0.48859972 -0.20092624 -0.41247657
0.36895758 0.36560547 -0.115341306 0.29506284 -0.5577364 -0.026277602 0.57661396 -0.33830717
0.58288753 -0.35590145 -0.14149863 -0.24705976 -0.35170916 0.40378895 -0.370616 -0.29276347
-0.046511 -0.390304 -0.23564571 0.3731464 0.24513523 0.3518711 -0.038296327 -0.3984554
0.44777626 -0.3716546 -0.44055986 -0.421953 0.031778034 -0.4656363 -0.3615331 -0.21676563
0.37798694 0.3673441 0.48418394 0.35875994 0.22404122 -0.5185995 -0.2763348 -0.16275564
0.11542618 -0.4302376 -0.13099979 -0.21879816 -0.14111476 -0.38698068 0.22339708 0.4964959
-0.25649166 -0.10558079 0.43190682 -0.24006215 -0.3277797 0.4690424 -0.28023753 -0.5046164
-0.15806939 -0.3589992 0.5731807 0.013164797 0.4445381 0.112353235 -0.3076022 -0.21040018
0.3957611 0.32760504 -0.37451178 -0.5236502 0.044114977 -0.05831271 -0.06421835 -0.26708192
-0.40555272 0.28073758 0.5617906 -0.13839982 -0.33701578 -0.34122607 -0.28926617 0.37017307
-0.4503612 -0.4051207 0.41885397 -0.2828303 -0.53423643 -0.40105674 -0.4216365 0.42338073
-0.17543842 0.5073051 0.31550354 -0.17249577 -0.16133147 -0.17677455 -0.3886775 -0.3629795
0.3821362 -0.54580635 -0.48853564 -0.21983904 0.52972716 -0.4210375 -0.5033013 -0.2667565
-0.03353224 -0.27155873 -0.4689705 -0.30671695 -0.2800236 -0.35991648 0.47139654 -0.34998313
-0.350025 -0.15181166 -0.22072181 -0.19214803 -0.47273612 -0.33777583 0.30625343 0.43137187
00000000: eb54 86bd 4ad5 7fbe c0e7 053f a328 d83e
00000010: 9bfb 96be 34c3 973e 2841 46bd a6e4 ccbe
00000020: dfc3 32be 405a 3fbc eb34 aabe ec72 69be
00000030: 800a 2cbe 875c b4be d3bc 033f 4833 d3be
00000040: 2380 853e c4e6 a63e 1e0b c3bd 87ee fd3e
00000050: 8312 3e3e c153 8ebe ed00 cabe a787 ae3e
00000060: 006f e9be 6ff0 a9be 98e5 37be 86ed 013f
00000070: df14 92be 50ca c5be e0e6 92be 3a51 56be
00000080: 198a bcbe 87c6 81be 407c 1dbe 440c 83be
00000090: 8c05 043f be29 fabe 9cbf 4dbe 2130 d3be
000000a0: 02e8 bc3e a430 bb3e 1038 ecbd 7a12 973e
000000b0: d0c7 0ebf 2044 d7bc f99c 133f 9936 adbe
000000c0: 1e38 153f b738 b6be 04e5 10be 3cfd 7cbe
000000d0: 3913 b4be 6dbd ce3e 61c1 bdbe 18e5 95be
000000e0: 5182 3ebd edd5 c7be 1c4d 71be 0c0d bf3e
000000f0: bb04 7b3e 7328 b43e 9cdc 1cbd 5902 ccbe
00000100: ee42 e53e 8349 bebe 1091 e1be 390a d8be
00000110: af29 023d e267 eebe de1a b9be cff7 5dbe
00000120: 8187 c13e 8714 bc3e f5e6 f73e 62af b73e
00000130: 106b 653e f0c2 04bf c17b 8dbe 6aa9 26be
00000140: 9064 ec3d 1a48 dcbe cf24 06be a00c 60be
00000150: 6380 10be 5522 c6be 34c2 643e b634 fe3e
00000160: e052 83be be3a d8bd e422 dd3e dad2 75be
00000170: bed2 a7be 5326 f03e 4b7b 8fbe 8a2e 01bf
00000180: f1dc 21be bece b7be f8bb 123f 29b1 573c
00000190: 7f9a e33e 7419 e63d 097e 9dbe 2573 57be
000001a0: 33a1 ca3e d9bb a73e 02c0 bfbe f10d 06bf
000001b0: e8b1 343d 4fd9 6ebd e984 83bd f6be 88be
000001c0: 9ba4 cfbe d6bc 8f3e 82d1 0f3f afb8 0dbe
000001d0: 558d acbe 2fb5 aebe b21a 94be 5387 bd3e
000001e0: be95 e6be fb6b cfbe 0774 d63e 22cf 90be
000001f0: b8c3 08bf 4f57 cdbe bde0 d7be 5cc5 d83e
00000200: 21a6 33be bfde 013f ae89 a13e bba2 30be
00000210: 1434 25be 6304 35be bd00 c7be 73d8 b9be
00000220: 5ba7 c33e f7b9 0bbf 5821 fabe 7c1d 61be
00000230: 339c 073f 3a92 d7be 5bd8 00bf 4f94 88be
00000240: 1a59 09bd bf09 8bbe e71c f0be 010a 9dbe
00000250: 415f 8fbe f946 b8be e35a f13e fd30 b3be
00000260: 7a36 b3be 8474 1bbe e604 62be 74c2 44be
00000270: 780a f2be f4f0 acbe 40cd 9c3e c6dc dc3e

classifier.10.bias f4 [10]
-0.027891695 -0.2733112 -0.12893783 -0.21501091 -0.11939207 0.04341725 0.25902045 0.017184224
0.114616714 0.32376277
00000000: 207d e4bc 72ef 8bbe 4708 04be d22b 5cbe
00000010: d483 f4bd 49d6 313d 549e 843e eec5 8c3c
00000020: 2bbc ea3d 3cc4 a53e

exp_avg f4 [16, 784]
-4.0016985e-09 2.9247937e-07 -3.823549e-06 -1.2272449e-06 1.0523606e-05 -2.6027315e-05 3.053275e-05 0.000142327
0.00010065731 6.0267546e-05 5.0251514e-05 0.00021901469 0.00012935577 0.00046404175 0.00057187973 0.00012897007
-1.7626026e-05 0.00016207204 0.00010392771 0.00010235341 0.00011742447 9.8856635e-06 -0.00017471668 -0.00013390722
-7.939189e-05 -7.6047596e-05 -3.6732545e-05 1.650608e-06 6.007326e-07 -6.8565775e-08 -8.225984e-06 -1.7120934e-05
-2.8848157e-05 -0.00021290353 8.867804e-06 -0.00013299724 -0.00012925525 0.00021831373 -0.0005990927 -0.00018562983
7.929735e-05 0.0003918226 0.00089775654 -0.00023434732 1.0359638e-06 -0.00024310958 -0.00056705874 -1.57253e-05
0.0003561789 0.00031841922 -0.0003277931 -0.0004330847 -0.00029660476 -0.00020939423 -8.339869e-05 -4.970147e-07
-1.9403474e-06 -1.9178033e-05 -5.4394342e-05 -1.6870887e-05 -9.152931e-05 -4.529285e-05 -0.00059759174 -0.00071034516
-9.381539e-05 5.900976e-06 -0.00030477365 -5.6464916e-05 -0.00030613507 -0.00046235454 -3.5537705e-05 -0.00086708384
-0.0005874821 -0.0006740245 -0.0004282577 -0.0005685575 -0.00035194278 -0.00020466666 -0.000118959004 -0.00045333288
-0.0002972456 -0.0003875974 -0.00018083004 -2.2605836e-05 -5.2331716e-06 -3.0714098e-05 -8.2174614e-05 -8.2474115e-05
-3.5554982e-05 -0.0003906474 -0.0012890153 -0.00031856538 0.00027425963 0.00018413631 -0.00037525225 -0.0004207176
-0.0003574307 -0.00078334427 -0.0012192491 -0.0006942302 -0.0009299185 -0.0012796584 -0.00082035945 -0.00026053152
-0.00068622676 -0.0011074934 -0.0006874514 -0.00059084804 -0.0006145502 -0.0006756168 2.0185358e-05 0.00013080947
-2.7324147e-06 -1.7928425e-05 -1.8112456e-05 -9.98555e-05 -0.0004104359 -0.00084906357 -0.0006931809 0.00010390965
0.00044883892 -6.3210505e-06 -0.00043694858 -0.0005558436 -0.0005825803 -0.0010313712 -0.0012314878 -0.0011620272
-0.0013203742 -0.0014060929 -0.00057857926 -0.0005204048 -0.0005402061 -0.0012785651 -0.00083867874 -0.000882872
-0.0011931051 -0.00091108907 -0.00022290529 -6.774565e-05 -8.283205e-06 -1.4148374e-05 -5.0224928e-05 -0.00018174603
-0.00046809117 -0.0009305713 -0.000788979 1.5940499e-05 0.0002807312 2.3913579e-05 -0.00045792127 -0.00024290026
-0.0006068215 -0.0007195012 -0.0011281891 -0.0011953042 -0.0016580917 -0.0011799615 -0.00093593 -0.0012489408
-0.00045749074 -0.00041572688 -0.0009810203 -0.0016590086 -0.0013895155 -0.0005204903 -0.0005090923 -0.0001947198
-7.824339e-06 -5.664417e-06 -8.2998245e-05 -0.00036286394 -0.00044449995 -0.0008182269 -0.0009680715 -0.00041031925
-0.00018910127 -0.00049034366 -0.00073824136 -0.00042603738 -0.00072465686 -0.00027762132 -0.00059803645 0.00032159183
-0.00052684144 -0.0017078748 -0.0018834377 -0.0022654356 -0.0012868377 -0.0009798256 -0.0014486316 -0.0010022752
-0.00095439015 -0.00071945804 -0.00019612293 -0.00012773418 -5.451253e-06 -4.6856905e-05 -0.0001834613 -0.00016783056
-0.00046786253 -0.0005735375 -0.0009918938 -0.00057843735 -0.0004204333 -0.0003684387 -0.0009428713 -0.0015534413
-0.0009895095 -0.00042349225 0.00036032675 0.00013484807 -3.0166526e-05 -0.0010373575 -0.0011254871 -0.0015534402
-0.001555682 -0.0014695883 -0.00069934217 -0.0007020013 -0.0012135396 -0.0007023789 -0.00022069507 -2.5357383e-05
-1.7528087e-05 -0.0001173434 -0.00020174097 -0.00019252143 -0.00043164726 -0.000457187 -0.0006427799 -0.0007356531
-0.0004374818 -0.0007061908 -0.0012063459 -0.0014152394 -0.0008726696 -0.00045860576 0.0008452904 0.0009811311
0.00019674072 -0.0006574954 0.00068910926 0.0016276686 0.0008056374 0.00042602487 0.0010901543 0.0002951783
0.00056659454 0.00032576628 6.4133535e-05 5.7992174e-06 -5.609659e-05 -0.00015506793 -0.00019936312 -0.00018512967
00000000: 507f 89b1 0f06 9d34 094c 80b6 d0b7 a4b5
00000010: 8b8e 3037 3c55 dab7 4a10 0038 9d3d 1539
00000020: fb17 d338 c9c7 7c38 27c5 5238 4fa7 6539
00000030: ada3 0739 a14a f339 33ea 153a 243c 0739
00000040: 9adb 93b7 e2f1 2939 c4f3 d938 92a6 d638
00000050: c841 f638 9ada 2537 2734 37b9 7269 0cb9
00000060: 327f a6b8 be7b 9fb8 4511 1ab8 768a dd35
00000070: 0842 2135 6f3e 93b3 5502 0ab7 ed9e 8fb7
00000080: f2fe f1b7 db3e 5fb9 eec6 1437 2d75 0bb9
00000090: b188 07b9 25eb 6439 6e0c 1dba a1a5 42b9
000000a0: 714c a638 8a6d cd39 6c57 6b3a 21bb 75b9
000000b0: 720b 8b35 3beb 7eb9 aba6 14ba d3e9 83b7
000000c0: 86bd ba39 81f1 a639 a5db abb9 a50f e3b9
000000d0: 9e81 9bb9 d690 5bb9 55e6 aeb8 976a 05b5
000000e0: ea36 02b6 83e0 a0b7 7b25 64b8 f485 8db7
000000f0: 6df3 bfb8 d4f8 3db8 b4a7 1cba 7536 3aba
00000100: c1be c4b8 ff00 c636 07ca 9fb9 bed4 6cb8
00000110: c180 a0b9 2d68 f2b9 520e 15b8 034d 63ba
00000120: 4201 1aba 05b1 30ba c787 e0b9 3f0b 15ba
00000130: f684 b8b9 ca9b 56b9 a179 f9b8 4fad edb9
00000140: a1d7 9bb9 7136 cbb9 329d 3db9 aaa1 bdb7
00000150: 9a98 afb6 03d3 00b8 2955 acb8 f4f5 acb8
00000160: df20 15b8 cecf ccb9 2df4 a8ba 1f05 a7b9
00000170: 81ca 8f39 b714 4139 81bd c4b9 c393 dcb9
00000180: 8965 bbb9 5859 4dba 36cf 9fba 00fd 35ba
00000190: c6c5 73ba 36ba a7ba 640d 57ba f397 88b9
000001a0: e6e3 33ba 5029 91ba 1536 34ba 24e3 1aba
000001b0: c419 21ba e01b 31ba ba53 a937 e629 0939
000001c0: 875e 37b6 0065 96b7 34f0 97b7 8369 d1b8
000001d0: c62f d7b9 b193 5eba 95b6 35ba 12ea d938
000001e0: 2452 eb39 6919 d4b6 3f16 e5b9 08b6 11ba
000001f0: 4db8 18ba 132f 87ba e069 a1ba 2a4f 98ba
00000200: 6810 adba a64c b8ba ccab 17ba c66b 08ba
00000210: 9e9c 0dba 8795 a7ba c7da 5bba 8970 67ba
00000220: f761 9cba 27d6 6eba afbb 69b9 ab12 8eb8
00000230: 18f8 0ab7 ce5e 6db7 9ba8 52b8 1493 3eb9
00000240: 226a f5b9 95f1 73ba 7cd3 4eba f6b7 8537
00000250: 1b2f 9339 059a c837 2715 f0b9 0bb3 7eb9
00000260: 1a13 1fba e89c 3cba bfdf 93ba c1ab 9cba
00000270: 5354 d9ba f0a8 9aba 3359 75ba 80b3 a3ba
00000280: 5edb efb9 ebf5 d9b9 9495 80ba 1773 d9ba
00000290: 6720 b6ba 8371 08ba 9b74 05ba b32d 4cb9
000002a0: 4845 03b7 f910 beb6 580f aeb8 c63e beb9
000002b0: c60b e9b9 477e 56ba 2ec6 7dba 1e20 d7b9
000002c0: 7c49 46b9 688a 00ba 8a86 41ba c55d dfb9
000002d0: e6f6 3dba b48d 91b9 8cc5 1cba 539b a839
000002e0: bb1b 0aba c5da dfba afdd f6ba b477 14bb
000002f0: 1cab a8ba 7e6d 80ba 03e0 bdba c65e 83ba
00000300: 0a30 7aba 039a 3cba 59a6 4db9 62f0 05b9
00000310: e8e9 b6b6 3888 44b8 855f 40b9 acfb 2fb9
00000320: 724b f5b9 7359 16ba 6f02 82ba 46a2 17ba
00000330: 9a6d dcb9 012b c1b9 062b 77ba d79c cbba
00000340: 6eb2 81ba 2b08 deb9 3dea bc39 0166 0d39
00000350: 1f0e fdb7 f1f7 87ba 1585 93ba ce9c cbba
00000360: 07e8 cbba 339f c0ba 0f54 37ba 8306 38ba
00000370: a20f 9fba da1f 38ba 626a 67b9 91b6 d4b7
00000380: 4809 93b7 4216 f6b8 6e8a 53b9 94df 49b9
00000390: b74e e2b9 9ab2 efb9 3b80 28ba d8d8 40ba
000003a0: d05d e5b9 aa1f 39ba 401e 9eba 8e7f b9ba
000003b0: dec3 64ba 0671 f0b9 7a96 5d3a 4c99 803a
000003c0: 2f4c 4e39 c55b 2cba 57a5 343a 7f57 d53a
000003d0: 6931 533a 175c df39 82e3 8e3a 29c2 9a39
000003e0: 8487 143a 9ccb aa39 6e7f 8638 e696 c236
000003f0: 4149 6bb8 bb99 22b9 210c 51b9 5e1f 42b9

exp_avg_sq f4 [16, 784]
6.091861e-14 2.4750717e-11 1.441657e-10 9.0130303e-10 6.105865e-09 1.0251726e-08 2.8310037e-08 1.1193125e-07
3.6833876e-07 1.1268115e-06 4.813215e-06 7.0605365e-06 6.1048195e-06 5.4055927e-06 5.0793647e-06 6.130124e-06
7.0838887e-06 6.9309945e-06 4.2535266e-06 1.1395207e-06 5.28688e-07 3.5359847e-07 2.2202252e-07 2.9268853e-07
1.2408753e-07 9.804632e-08 3.2915704e-08 1.6792993e-09 1.4965827e-11 1.9937657e-10 9.775767e-10 5.7490155e-09
2.2052605e-08 7.871367e-08 3.8709538e-07 1.5443153e-06 4.268695e-06 8.884853e-06 1.8358693e-05 2.2689781e-05
2.527187e-05 2.4048488e-05 2.404238e-05 2.5618843e-05 2.5111729e-05 2.1904882e-05 1.8362747e-05 9.315711e-06
4.652754e-06 2.2883928e-06 1.5563468e-06 1.1912946e-06 6.15583e-07 3.2015012e-07 6.6201366e-08 5.701515e-10
8.579319e-11 1.159811e-09 5.838252e-09 1.8682755e-08 7.317727e-08 4.998882e-07 1.9648667e-06 3.9699435e-06
6.9316843e-06 1.1768193e-05 1.9711533e-05 2.0737094e-05 2.1444572e-05 2.2351349e-05 2.2460428e-05 2.356028e-05
2.291541e-05 2.1981949e-05 2.1264517e-05 1.2812246e-05 8.58423e-06 5.785794e-06 3.2916896e-06 2.335808e-06
1.4754876e-06 5.8158423e-07 9.920498e-08 5.1186566e-09 3.5433298e-10 3.3490946e-09 1.0189977e-08 3.8850928e-08
2.3431589e-07 1.5438566e-06 2.8324298e-06 4.927576e-06 8.352848e-06 1.4300875e-05 2.089236e-05 2.0475421e-05
2.1596787e-05 2.3106764e-05 2.3389995e-05 2.3645462e-05 2.2916298e-05 2.2579758e-05 2.329428e-05 1.6347507e-05
1.0320243e-05 7.965751e-06 5.993834e-06 3.9958622e-06 2.778583e-06 1.2108067e-06 4.6251182e-07 4.7018744e-08
5.004756e-10 5.2988436e-09 2.4242173e-08 6.985483e-08 6.277977e-07 2.2450763e-06 3.6355032e-06 5.9480317e-06
9.527117e-06 1.5639984e-05 2.1366466e-05 2.0491625e-05 2.1577114e-05 2.2666592e-05 2.354652e-05 2.362081e-05
2.390563e-05 2.3450571e-05 2.3787668e-05 1.7305681e-05 1.1527721e-05 9.187009e-06 7.565431e-06 5.1907878e-06
4.3218997e-06 2.1419544e-06 5.987408e-07 3.3301543e-08 1.2796986e-09 1.4780708e-08 4.5702745e-08 1.4964473e-07
1.1455792e-06 2.8561574e-06 4.299386e-06 6.647538e-06 9.951324e-06 1.6830963e-05 2.1420743e-05 2.1442438e-05
2.2336397e-05 2.3005265e-05 2.4143481e-05 2.512589e-05 2.4459114e-05 2.337451e-05 2.3004042e-05 1.8141605e-05
1.1546182e-05 9.765696e-06 8.362406e-06 6.7486044e-06 5.3589556e-06 3.1259137e-06 8.740388e-07 4.3400277e-08
2.5025533e-09 2.4471898e-08 8.156023e-08 3.3068025e-07 1.592822e-06 3.1989111e-06 4.5394972e-06 7.3874835e-06
1.06025545e-05 1.7040893e-05 2.100818e-05 2.1655189e-05 2.2087197e-05 2.2145781e-05 2.2336097e-05 2.3201927e-05
2.1943397e-05 1.9985504e-05 2.0298232e-05 1.6921334e-05 1.1297531e-05 9.891742e-06 8.702965e-06 7.146475e-06
6.1522715e-06 4.895985e-06 1.4357565e-06 8.887488e-08 5.248228e-09 4.5273357e-08 1.3627373e-07 5.2120276e-07
2.0529599e-06 3.5603919e-06 5.1692873e-06 7.915213e-06 1.1018198e-05 1.7072878e-05 2.117324e-05 2.1492087e-05
2.2416185e-05 2.0741265e-05 1.897849e-05 1.9321908e-05 1.7417424e-05 1.6167969e-05 1.6421116e-05 1.4187262e-05
1.033257e-05 8.662166e-06 8.2406195e-06 7.2131415e-06 6.4369124e-06 5.55929e-06 2.4755327e-06 2.085603e-07
8.208698e-09 6.798905e-08 1.868634e-07 7.330473e-07 2.2259646e-06 3.6963359e-06 5.38984e-06 7.8752555e-06
1.0681725e-05 1.6249045e-05 2.0821291e-05 2.0887628e-05 2.0852178e-05 1.7589029e-05 1.3339775e-05 1.5056498e-05
1.4724455e-05 1.3741717e-05 1.2325143e-05 1.0447924e-05 8.650507e-06 8.0582595e-06 8.008488e-06 7.1636514e-06
6.6095167e-06 6.9752778e-06 4.1737912e-06 3.5073e-07 1.2919086e-08 1.0475455e-07 2.413667e-07 9.0696614e-07
00000000: 302d 8929 a9b5 d92d 0983 1e2f 90bf 7730
00000010: c2cb d131 911f 3032 6e2e f332 db5e f033
00000020: 18c0 c534 f33c 9735 3481 a136 8ce9 ec36
00000030: 00d8 cc36 b061 b536 696f aa36 5db1 cd36
00000040: 24b2 ed36 ca90 e836 84b9 8e36 a2f1 9835
00000050: 2aeb 0d35 34d6 bd34 1665 6e34 ce22 9d34
00000060: ec3c 0534 898d d233 335f 0d33 17cd e630
00000070: 0ca4 832d 8437 5b2f 6c5b 8630 e088 c531
00000080: 316e bd32 4c09 a933 fcd1 cf34 4546 cf35
00000090: d03b 8f36 2710 1537 fe00 9a37 ef55 be37
000000a0: edfe d337 bcbb c937 9eae c937 0ce8 d637
000000b0: 07a7 d237 60c0 b737 b309 9a37 ad4a 1c37
000000c0: da1e 9c36 4a92 1936 abe3 d035 92e4 9f35
000000d0: 8b3e 2535 19e1 ab34 962a 8e33 d8b8 1c30
000000e0: 46a9 bc2e 3967 9f30 cf99 c831 d07b a032
000000f0: a125 9d33 0e30 0635 27dc 0336 8e35 8536
00000100: b796 e836 0170 4537 325a a537 92f4 ad37
00000110: dee3 b337 287f bb37 6769 bc37 51a3 c537
00000120: 783a c037 e065 b837 3461 b237 2df4 5637
00000130: fd04 1037 9823 c236 cce6 5c36 e0c0 1c36
00000140: 5e09 c635 2a1e 1c35 840a d533 2ee0 af31
00000150: efcb c22f e525 6631 fe0f 2f32 0cdd 2633
00000160: 4398 7b34 8236 cf35 c614 3e36 8e57 a536
00000170: 3623 0c37 caed 6f37 0042 af37 a2c2 ab37
00000180: bf2a b537 66d5 c137 a235 c437 3e5a c637
00000190: 603c c037 a969 bd37 1668 c337 0122 8937
000001a0: 1b25 2d37 a4a4 0537 a41e c936 3214 8636
000001b0: b177 3a36 0083 a235 244f f834 a8f1 4933
000001c0: d791 0930 1f11 b631 1a3d d032 1903 9633
000001d0: ee85 2835 1eaa 1636 78f9 7336 3495 c736
000001e0: a8d6 1f37 9c32 8337 233c b337 6ee5 ab37
000001f0: 8000 b537 2324 be37 c485 c537 4e25 c637
00000200: f388 c837 b8b7 c437 a18b c737 ab2b 9137
00000210: 2f67 4137 e721 1a37 8fda fd36 872c ae36
00000220: d604 9136 7fbe 0f36 28b9 2035 6f07 0f33
00000230: 64e1 af30 3eee 7d32 b34a 4433 08ae 2034
00000240: cdc1 9935 69ac 3f36 7243 9036 eb0d df36
00000250: 9cf4 2637 3830 8d37 b2b0 b337 49df b337
00000260: 0c5f bb37 6efb c037 bb87 ca37 70c5 d237
00000270: 8c2d cd37 6114 c437 cef8 c037 cd2e 9837
00000280: 79b6 4137 58d7 2337 434c 0c37 1272 e236
00000290: 14d1 b336 cac6 5136 7d9f 6a35 1c67 3a33
000002a0: 62f9 2b31 4636 d232 3626 af33 5988 b134
000002b0: f2c8 d535 e0ac 5636 fc51 9836 00e2 f736
000002c0: a0e1 3137 0af3 8e37 b93a b037 2aa8 b537
000002d0: e547 b937 b4c5 b937 675e bb37 c2a1 c237
000002e0: 1613 b837 8ba6 a737 1f46 aa37 4af2 8d37
000002f0: 878a 3d37 b5f4 2537 f302 1237 c1cb ef36
00000300: 9c6f ce36 3148 a436 38b4 c035 7bdb be33
00000310: e753 b431 9572 4233 a352 1234 c8e8 0b35
00000320: 95c5 0936 11ef 6e36 d773 ad36 95cb 0437
00000330: cdda 3837 ba37 8f37 309d b137 e849 b437
00000340: 640a bc37 87fd ad37 ff33 9f37 7b15 a237
00000350: a21b 9237 73a0 8737 14c0 8937 d405 6e37
00000360: 0d5a 2d37 b853 1137 3141 0a37 6a08 f236
00000370: a8fc d736 f089 ba36 5421 2636 9ef0 5f34
00000380: 3c06 0d32 6001 9233 9fa4 4834 a0c6 4435
00000390: c861 1536 910e 7836 60da b436 f71f 0437
000003a0: a935 3337 8f4e 8837 62a9 ae37 d737 af37
000003b0: b6eb ae37 278c 9337 e6cd 5f37 2b9b 7c37
000003c0: 0d09 7737 3a8c 6637 16c8 4e37 7e49 2f37
000003d0: a521 1137 f631 0737 325c 0637 4c5f f036
000003e0: 51c7 dd36 2e0d ea36 980c 8c36 f74b bc34
000003f0: bef2 5d32 6cf5 e033 3095 8134 3d76 7335

exp_avg f4 [16]
-6.926056e-10 -5.6430705e-10 -1.1675689e-09 1.8311642e-09 6.6550085e-11 -2.7341873e-10 -2.954146e-10 -5.82858e-10
1.4198691e-10 -6.4981534e-11 1.5969485e-10 -3.784221e-10 5.6343996e-10 -4.5228934e-10 -1.3795715e-11 4.5229476e-10
00000000: c961 3eb0 941d 1bb0 2e78 a0b0 5dac fb30
00000010: 5e58 922e 4450 96af e967 a2af fc36 20b0
00000020: c31d 1c2f 5ae5 8eae 1b96 2f2f 2d0a d0af
00000030: 90e0 1a30 11a6 f8af 60b2 72ad d4a6 f82f

exp_avg_sq f4 [16]
3.6039722e-19 7.363945e-19 1.6221268e-18 2.6021946e-18 4.283656e-19 1.5494309e-18 4.2070098e-19 1.1757574e-18
2.4180743e-18 4.20797e-19 1.3656234e-18 3.2105462e-19 8.358072e-19 1.5308354e-18 4.367152e-19 3.399684e-19
00000000: b0bd d420 6558 5921 3862 ef21 1102 4022
00000010: c7dc fc20 d8a7 e421 8956 f820 dc82 ad21
00000020: 226c 3222 0b65 f820 cb87 c921 6784 bd20
00000030: ceaf 7621 54e9 e121 44e5 0021 92ae c820

exp_avg f4 [16]
0.0030325707 -0.0013449742 -0.00016941673 -9.7025935e-05 -0.0013915082 -0.00038819597 0.0016513397 0.0006976439
-0.0023019447 -0.00032598493 0.00012476707 -0.0013917701 0.0008472119 0.0018718872 0.000106298525 0.0010660712
00000000: 18be 463b d849 b0ba 75a5 31b9 677a cbb8
00000010: 4463 b6ba c886 cbb9 c471 d83a 17e2 363a
00000020: 39dc 16bb f5e8 aab9 e8d3 0239 0e6c b6ba
00000030: 6e17 5e3a 1d5a f53a 96ec de38 6abb 8b3a

exp_avg_sq f4 [16]
1.6818014e-05 1.8416455e-05 1.2081151e-05 1.1507572e-05 2.8508308e-05 3.6459463e-05 2.4890358e-05 2.931208e-05
3.8361388e-05 1.17212885e-05 3.5543784e-05 2.3419807e-05 3.5528486e-05 5.700296e-05 6.1011788e-06 7.145313e-06
00000000: 6914 8d37 097d 9a37 26b0 4a37 a510 4137
00000010: 2025 ef37 0dec 1838 a3cb d037 36e3 f537
00000020: 3ae6 2038 8da6 4437 d914 1538 a775 c437
00000030: 6c04 1538 7616 6f38 bab8 cc36 c5c1 ef36

exp_avg f4 [16]
0.004750406 -0.0011966759 0.0027646082 -0.00036404587 0.0011102667 0.001061248 0.0020957591 0.0008737787
-0.0048037325 4.121639e-06 0.0027509972 0.0024860243 -8.778319e-05 0.0036754073 0.00034654516 0.001215505
00000000: 4ba9 9b3b c8d9 9cba 6e2e 353b 69dd beb9
00000010: 5e86 913a 9319 8b3a 0159 093b 4c0e 653a
00000020: a168 9dbb 9c4c 8a36 134a 343b 91ec 223b
00000030: 3e18 b8b8 1adf 703b 81b0 b539 9451 9f3a

exp_avg_sq f4 [16]
2.0388205e-05 1.5569287e-05 1.8085322e-05 6.6756093e-06 1.9791738e-05 1.5165351e-05 1.5237681e-05 5.1704395e-05
3.0517363e-05 7.411786e-06 2.1305801e-05 2.3130404e-05 2.2983897e-05 7.536115e-05 7.1622444e-06 8.7637345e-06
00000000: 5607 ab37 ca9a 8237 efb5 9737 0cff df36
00000010: 6f06 a637 b06e 7e37 57a5 7f37 2cdd 5838
00000020: 8aff ff37 c2b2 f836 dcb9 b237 2a08 c237
00000030: 8bcd c037 360b 9e38 3653 f036 f407 1337
