lightning_logs/Layers_16/fold_3/checkpoints/model-epoch=02-3.ckpt (torch, 184337 bytes, 48 tensors)

classifier.1.weight f4 [16, 784]
00000000: b809 90bb 1a2e ed3b a221 c1bc 90c4 bdbc
00000010: 4288 3abd c6df 143d eb59 90bc 6584 3e3b
00000020: 439d 3ebd 4e7d e1ba 5175 9bbb 2567 233c
00000030: e26c 4abd 587e 30bd 218e 06bd b630 3bbd
00000040: 88a1 1038 aa8d 49bc 8fd9 27bc a886 8ebc
00000050: ce6b fb3c e44c 72bc 8782 483d c815 1bbc
00000060: fbd3 ba3c 5468 96bb a437 4f3d ae78 b9bc
00000070: 212b b1bc 3bab 6abd 1356 20bd 10b5 7bbc
00000080: e631 aa3c 4e2c a9bb 6353 2fbc 06bc bb3a
00000090: 867d abbb 638a 2abd 5c31 48bd e54f 5cbc
000000a0: d66d 26bd 2f69 39bd e27a 4d3c f381 c43b
000000b0: b784 17bd f6c0 ed3a 4bf0 b2ba 49c8 5d3c
000000c0: d50d f3ba 148a 603c d160 3fbb 6a6f bf3c
000000d0: 6548 dd3b 671e 30bc 859c bcbb 3dac 20bd
000000e0: adc1 f2bc 5e62 77bd b6d8 c43b f096 26bd
000000f0: 1c3b 8a3c 9989 c1bb edb2 883c 171b 78bc
00000100: 502d 77bc 6298 113c b9e6 f4bc 56cc 9e3c
00000110: ffc7 25bd d9c6 44bd dc3c 3fbd abcc 443c
00000120: d66e 22bd fdf2 87bc 04ba cabb 9c08 00bd
00000130: ed0e 063c d6c8 0ebd f62f f2b9 ba6d e93c
00000140: 8312 94bc 27c1 a2bc f78a 813c f01c 85bc
00000150: 8edb a5bc 0d5e debb 5deb 8fb8 0aa7 dcbc
00000160: 823f 40bd de50 27bc 2451 e43a 71b0 0ebb
00000170: 3acd cfbc dda5 8a3c 9d6c 753c ae92 e9bc
00000180: 1387 efbc 4c9c aebc 3720 19bb fb5e 88bb
00000190: 52b2 3fbd 6d96 0dbd 3581 af3c 4c42 c33c
000001a0: 96e8 9c3c d53b bb3b 2c92 a43b 23b3 bbbc
000001b0: 167b ee3c 49dc 8c3c 0589 d6bc b372 02bd
000001c0: d42b a2bc 0138 f6bc 50b7 20bd a7fd efbc
000001d0: 42fb 0abd 47ff 5d3c b31d 15bd 2c26 fabc
000001e0: f155 4abc ffa3 d73b 8215 f5bc 046b b7bb
000001f0: 4d77 b33c 3cb7 c13b bcd5 c8bc 92a6 0ebd
00000200: 0e4c febc 6479 cabc ae1e ab3c 82b0 fcbc
00000210: 7f0d febb 808d 3cbb ad36 60bc b4ae 54bc
00000220: 939b 93bc 99e9 a4bc 06af ae3b 0e3f 20bc
00000230: aaf8 043c b2f9 0f3d 3348 2b3c 84d7 83bc
00000240: 88aa 9b3b 59d5 a43c 7251 a0bb 118e 1fbd
00000250: 5f51 9d3c 6001 963c 0876 74bc 0f89 30bc
00000260: f701 a13c 5778 2bbc 6763 26bd 115e 9b3c
00000270: d329 8cbc e0fc a3bc d32b bd3b 93f4 733c
00000280: 8dd3 82bc 28a4 e0bc 9d62 cabc f8d3 5a3c
00000290: 0828 123b 4108 113c 5c47 7cbb 493a ddbb
000002a0: 5ba0 e63b 6bb7 a3ba 8320 293c 8354 83ba
000002b0: c752 00bd b911 7a3c 2959 06bd 0051 ffbc
000002c0: 9ce0 da3b bc8a 26bd 966e 973c 26bf 15bd
000002d0: 3a98 db3c f5a7 743c 37c0 cbbc 8e50 bf3c
000002e0: 3edc a8bb cd5e 1a3c 34cb a7ba edbe 24bd
000002f0: b323 16bc 9e59 573c 7864 e2bc 529d a13b
00000300: cbaf 2f3b cd41 163d 0ebd 113d 4943 50bc
00000310: 2bbb bebc 3be5 c5bc 7f67 803c 41ec 663c
00000320: 92dc 0fbd c151 40bd 3656 3cbc ee96 253c
00000330: 6fb6 a73c 64f2 923c 539f 21bd a802 82bc
00000340: 1446 0b3b 1ae9 dbbc 95ab 5f3c c151 f8bc
00000350: e0fa babc 7e3b 3f3c 973c 0fbd c140 1bbd
00000360: 6492 d63c cc45 c5bb f41f e93c e999 993c
00000370: 82ca 92bc f0a6 f9ba a1f2 e23b 5801 2f3b
00000380: ded5 4dbc 983a 74bc 6d02 adbc 7ccb 50bd
00000390: b32a 99bc 9d36 1cbd c8ca 85bb a54a 10bd
000003a0: 3707 273c a3eb d2bc 365e b93c c7a6 e9bc
000003b0: 161a 5c3c 5cd5 ea3c 18df efbc 2885 a6bc
000003c0: 2dd1 003d 5a03 dfbc af4b 21bd 6e6a d9bc
000003d0: d394 08bd 303d b23b a6dd 66bc cbfd a0bc
000003e0: 173d 04bc 759d 53bc 7013 fcbb 1c40 a5bc
000003f0: 784c 2a3c ece9 c6bc 950e d5bc 04bb 423c
-0.00439569 0.0072381618 -0.023575608 -0.023165017 -0.0455401 0.03634622 -0.017621001 0.0029070613
-0.046536695 -0.0017203481 -0.00474421 0.009973322 -0.049420245 -0.04308924 -0.03285039 -0.04570075
3.4482713e-05 -0.012301842 -0.010244741 -0.017398193 0.030691054 -0.01478884 0.048952606 -0.009465642
0.022806158 -0.0045900736 0.050590172 -0.022640552 -0.02162701 -0.057292204 -0.039144587 -0.015362993
0.020775747 -0.0051627522 -0.010701033 0.0014323003 -0.0052334694 -0.041635882 -0.048875198 -0.013446783
-0.04063209 -0.045266327 0.012541505 0.0059969365 -0.0369918 0.0018139172 -0.0013651935 0.013536521
-0.0018543551 0.013704795 -0.0029201994 0.023368556 0.006753015 -0.010749436 -0.0057559633 -0.03922676
-0.029633367 -0.060396545 0.0060072793 -0.04067129 0.016873889 -0.0059062955 0.016686881 -0.0151431775
-0.015086487 0.008886429 -0.029895173 0.019384544 -0.040473934 -0.0480412 -0.0466889 0.012011687
-0.039656483 -0.016595358 -0.0061867256 -0.03125821 0.0081822695 -0.0348595 -0.0004619357 0.028494705
-0.018075233 -0.019867493 0.015813334 -0.01624915 -0.020246293 -0.006786114 -6.862611e-05 -0.02693512
-0.046935566 -0.010212151 0.0017419201 -0.0021772648 -0.025366414 0.016924793 0.014979509 -0.028512325
-0.029239213 -0.021314763 -0.0023365149 -0.004161713 -0.04680092 -0.034567285 0.021423915 0.023835324
0.019153874 0.0057139196 0.005022308 -0.022912567 0.029111426 0.017194884 -0.026188383 -0.031847667
-0.01979629 -0.030056002 -0.03923732 -0.029295756 -0.033931024 0.013549632 -0.036405277 -0.03053578
-0.012349592 0.006580829 -0.029917482 -0.005597474 0.021907473 0.005911736 -0.024515979 -0.034826823
-0.031042125 -0.024716087 0.020888653 -0.030845884 -0.0077530737 -0.0028770864 -0.013684911 -0.012981106
-0.01801852 -0.02013092 0.005330923 -0.009780658 0.008115927 0.035150237 0.010454225 -0.016093977
0.0047505535 0.020121263 -0.0048925215 -0.038953844 0.01920384 0.018311203 -0.014920719 -0.010774865
0.019654257 -0.010465703 -0.04062214 0.018965753 -0.017109787 -0.020018041 0.0057730465 0.014889854
-0.015970016 -0.027422026 -0.024705226 0.013356201 0.0022301693 0.008852066 -0.0038494682 -0.006751333
0.007038159 -0.0012490576 0.010322693 -0.0010019693 -0.031328943 0.0152630145 -0.032799874 -0.031166553
0.0066796076 -0.04065965 0.018485349 -0.036559246 0.026805986 0.014932622 -0.024871929 0.023353841
-0.005153208 0.009422016 -0.0012801648 -0.040221144 -0.009163785 0.013143925 -0.027635798 0.004932084
0.0026807662 0.036683846 0.035580687 -0.0127113545 -0.023282608 -0.024157157 0.01567435 0.014094413
-0.03512246 -0.046952967 -0.011495164 0.010106785 0.020472733 0.017937846 -0.039458584 -0.015870407
0.0021251487 -0.02684455 0.013651748 -0.03031242 -0.022824705 0.011671899 -0.034969892 -0.03790355
0.026192851 -0.0060202833 0.02845762 0.018750148 -0.017918829 -0.0019046944 0.0069258963 0.0026703682
-0.012563197 -0.014906548 -0.02111932 -0.050975308 -0.018697118 -0.03813802 -0.0040830113 -0.035227437
0.010194591 -0.025747126 0.022627931 -0.028521908 0.013433954 0.02866619 -0.029281184 -0.020327166
0.031449486 -0.027223278 -0.039378818 -0.026540007 -0.033345055 0.005439423 -0.014090931 -0.019652268
-0.008071206 -0.012915959 -0.007692747 -0.020172171 0.010394208 -0.024281465 -0.02600793 0.011885408

classifier.1.bias f4 [16]
00000000: f761 4cbc 05ea a9bc 7300 02bc 81b7 eeba
00000010: 8854 d4bc 69b4 903c 7485 07bb a66a 5d3c
00000020: 9946 a93c 9954 0bbc 4cfc e6bc e26c a13c
00000030: 12e8 0f3c 8235 b9bc cd58 9fbc 7254 8fbc
-0.0124745285 -0.020741472 -0.007934677 -0.0018212647 -0.025919214 0.017664151 -0.002067891 0.0135141965
0.020663546 -0.008504056 -0.028196476 0.01970524 0.008783357 -0.022608522 -0.019451523 -0.017496321

classifier.2.weight f4 [16]
00000000: a62b 7a3f 8535 733f 146f 783f 4b90 823f
00000010: dac1 813f dfbe 863f 394a 803f 94f1 823f
00000020: b7b5 803f 66bc 753f 4825 793f 9d8b 7d3f
00000030: 3e23 803f 6ca5 793f d7cf 7c3f 2388 853f
0.9772285 0.9500354 0.9704449 1.0200285 1.0137284 1.0526999 1.0022651 1.0229974
1.0055455 0.959906 0.9732251 0.9904116 1.0010755 0.9751804 0.9875464 1.0432171

classifier.2.bias f4 [16]
00000000: e2f4 8e3c 9bab e13b a12e 8b3c 4929 383d
00000010: c60e e93c a96f 443d 6c70 423c 5369 fe3c
00000020: 2dfa 16bb a1d3 34bd 6831 9cbc cfb2 0a3c
00000030: e45a c63c 93c0 53bc 3b09 9cbc 96a6 e93c
0.017450754 0.006886912 0.016990008 0.044961248 0.028449427 0.04795805 0.011867624 0.031056082
-0.00230373 -0.044147138 -0.019066527 0.008465483 0.024213262 -0.012924331 -0.01904737 0.028521817

classifier.2.running_mean f4 [16]
00000000: c727 483f bef4 b9be 0617 11bf c856 9cbe
00000010: e50b fe3e 9833 1dc0 4d73 d43f feb6 c63f
00000020: e893 ee3f 1080 0cc0 d239 50bf 55fd a43f
00000030: 624a ff3f fa53 eabe 69c5 fbbe dfc4 903f
0.78185695 -0.36319536 -0.56675756 -0.3053496 0.4961845 -2.456274 1.6597687 1.5524595
1.8638887 -2.1953163 -0.81338227 1.2889811 1.9944575 -0.45767194 -0.4917405 1.131008

classifier.2.running_var f4 [16]
00000000: b45f 3140 aec3 de3f 22d4 6d3f a3c5 1d3f
00000010: eb9a 6a3f 9cb8 583f 3ca8 db3f cb3e 0440
00000020: 17f7 443f b428 bd3f bc12 a43f 6c58 b53f
00000030: 9908 963f 0706 4f3f 1a53 1240 3ed0 903f
2.7714663 1.7403467 0.92901814 0.61629695 0.91642636 0.8465669 1.7160716 2.0663326
0.7693953 1.4778047 1.2818217 1.4167609 1.1721374 0.8086857 2.286322 1.131355

classifier.4.weight f4 [16, 16]
00000000: 71b0 583d 449b 35bd 1ce4 623e a5ed c9bb
00000010: 29bb 2a3e d3de 733e d424 81bd b2bf 0abe
00000020: 54a9 24be efb6 313e d060 943d 4b66 a23b
00000030: 5d35 5e3e 7603 6c3e 8e83 343e b84d 043e
00000040: ac58 cd3d 5693 b5bd 987f 483e 086d 89be
00000050: e911 cd3c 5860 15be 63b0 b63d ce6e 36be
00000060: 178f 3bbe 081c 48bc 7526 c83d 30e4 ad3d
00000070: f422 5b3b 2f0e fabd 554b 833d a633 733e
00000080: 254b 623e 18a7 be3d 5ff2 bfbd 7897 afbc
00000090: 7652 40be 3fc2 5e3e ad2d b8bd e2d4 c1bd
000000a0: 46f4 463e 6f5a 833e 08cb 87bd 6127 debc
000000b0: 258b 603e 484b 403e 1aac 993d 59d2 33be
000000c0: eebd 0abe e652 4cbe c6c4 0c3e a3ae 09be
000000d0: c1cc e43d 3bbb 5bbe ef56 14bc 47da 01be
000000e0: 06d6 8bbe e94f babd e11c e8bd 78c7 c33d
000000f0: 904e d63d fc3d 613e 019f d83d 5a7d c0bd
00000100: db7c 313e c843 77be c54d 8fbb bfc9 ab3d
00000110: 5370 683e c90e 79be 6705 ec3c 0570 73be
00000120: 0afd 563e ef6e 26be 796f 86bd d1bf 40be
00000130: 6b30 303e 6687 1c3e ebd0 8c3e abf0 4bbe
00000140: 145c d93d b035 07be a631 26be 77f4 d73d
00000150: 5ad7 903d 5984 3abe ea7a ff3d 17b8 8e3c
00000160: 445b c23d 56de 543e 1c7d 1abd af2f 593e
00000170: d6b2 243d 95a2 a23c 1e18 15be 04ea 2ebe
00000180: 937c 243e 3121 d43d 4473 d4bc 22e4 203e
00000190: 0257 bcbd f8a3 02bd 716b 5a3e 25ea 3e3e
000001a0: a9c9 113e d736 49be b390 2fbd 3046 80bc
000001b0: 434c 393d cd3a a63d 647b 58be c47e 7dbc
000001c0: 097d c83d 3e73 303e 7f1d 183e ccdb f23d
000001d0: 1b1c 94be 5785 123e 2023 4fbe 22cf 703c
000001e0: 1e07 eb3c b9df 08be 2092 313e 3f42 31be
000001f0: 6136 673e ad39 01bd 0a12 21be fb42 5cbe
00000200: 48e1 443d 2b36 0b3e d7d6 c53d 6f70 513d
00000210: bdbc c0bd 4a2b 1bbe 679e c63d 05df 873e
00000220: 2bb7 fb3d ece8 6dbe 3957 0d3d 10d0 dabd
00000230: d25c db3d e4d7 5e3e 180b 33be 5e11 9c3d
00000240: d897 6dbd f75a afbd 5564 2cbe 6125 2e3e
00000250: b700 d23c 1c2e 86be af18 183e 2154 c3bd
00000260: c07e 36be 934b 3e3e 8fcf 833d 66e3 64b9
00000270: ed7f 23be bd82 383e 29ee 0b3c 62a0 3ebe
00000280: 0b2b abbd 92dc af3d 8733 10be 7b14 58be
00000290: c618 f8bc 59c2 07bd 39d7 febc bb05 433c
000002a0: db43 72be 1772 cabd c1bc 633d 2827 13be
000002b0: fe90 b2bd 995a 44be d4f0 a43d 22de ccbd
000002c0: 000c 493d 415f c1bd 5a4f 363e 7ee4 1d3e
000002d0: 44df 093e 7e8d 34be ce15 c1bd 98a3 cc3d
000002e0: 7a67 973d 4f83 e13d 5d33 903c 7101 d4bc
000002f0: 7385 16bd ff56 d5b8 acb9 2c3e c0ec a7bd
00000300: 4a72 75be d31b f8bc 313d 2d3e 25f4 0e3e
00000310: 9c09 83be 1531 babd 0393 033e acd3 27be
00000320: c9aa 223d ac6b 183e cff6 11be 1169 c23d
00000330: 5bf3 3f3e 5d7c 5cbe 651b aebd 92f5 453b
00000340: 2bd6 a93d 884d 443e 2b21 96bd 4cfe 693c
00000350: 48c5 99bd ad12 46be c439 5cbe 4a5e 283e
00000360: e04c f3bd a167 4abd cd9f 613e 0a3f debb
00000370: 7001 6fbd e403 0d3d 7cbb 99bc 8d35 2abe
00000380: 8ee3 b0bc a71d 24bd b968 51be 82ce 2dbe
00000390: b55a fcbd 16cf f63d 494c 853e 89f2 f43d
000003a0: e7ab dabd 7b9b 45be 039f 3fbc c7ab abbd
000003b0: 07f8 dd3d d972 743e 947e 523e cbc9 2dbe
000003c0: ff0d 473e 1fb1 84be 1368 81be dc90 923d
000003d0: 9c27 39bd ac56 3b3e 2d4b e13d f3dc 71be
000003e0: b252 d6bc 9980 3b3e 6b0d 813e 7046 073e
000003f0: b2cb 453e ebac 42be 4e42 693c 88bb 02bd
0.052902643 -0.044337526 0.2215733 -0.0061623626 0.16672958 0.2381547 -0.063058525 -0.13549688
-0.16080219 0.1735494 0.07245028 0.004956042 0.21700044 0.23048195 0.17628309 0.12920272
0.100266784 -0.08865993 0.19579923 -0.26840997 0.025032954 -0.14587533 0.08920362 -0.17815706
-0.18316303 -0.012213714 0.0977296 0.08490789 0.0033437582 -0.122097366 0.06410853 0.23750171
0.22098978 0.09309214 -0.093724005 -0.02143453 -0.18781456 0.21753787 -0.08993087 -0.09464432
0.1942912 0.25654933 -0.06630522 -0.027118387 0.2192808 0.18778718 0.07503529 -0.1756071
-0.13549015 -0.19953498 0.13746938 -0.13445525 0.11171866 -0.21458142 -0.00905393 -0.12680922
-0.27311724 -0.09097273 -0.11333633 0.0955953 0.10464203 0.21996301 0.105772026 -0.09398909
0.17332785 -0.2414695 -0.0043732845 0.083880894 0.22699098 -0.24322046 0.02881117 -0.23773201
0.20994964 -0.16253255 -0.065642305 -0.18823172 0.1720597 0.15286025 0.27503142 -0.19916026
0.10613266 -0.13204074 -0.16229877 0.10544675 0.07072325 -0.18214549 0.12474616 0.017421765
0.09490064 0.2078794 -0.03771697 0.21209596 0.040209614 0.019852916 -0.14559981 -0.17081457
0.16063146 0.10357893 -0.02593387 0.15712026 -0.09196283 -0.031894654 0.21330048 0.18644007
0.14237083 -0.19649826 -0.042862605 -0.015658468 0.045238744 0.08116684 -0.2114082 -0.015472118
0.097894736 0.17231461 0.14855002 0.11858329 -0.28927693 0.14308678 -0.20228243 0.014697822
0.028689917 -0.13366593 0.17340899 -0.17310427 0.22579338 -0.031549145 -0.15729538 -0.21509926
0.048066407 0.13594882 0.09660118 0.051132616 -0.09410999 -0.15153232 0.096981816 0.26537338
0.12290796 -0.23233384 0.03450701 -0.10684216 0.107110634 0.21762043 -0.174847 0.076205
-0.058006138 -0.08562272 -0.16835149 0.17006446 0.025635106 -0.26207054 0.14853166 -0.09537531
-0.17821789 0.18583517 0.06436073 -0.00021828487 -0.15966769 0.18018623 0.0085406685 -0.18615869
-0.08357819 0.08586992 -0.14082156 -0.21101563 -0.03028525 -0.03314433 -0.031108486 0.011903222
-0.23658697 -0.09885042 0.05559993 -0.14370406 -0.08719061 -0.19175185 0.08053747 -0.10003306
0.04908371 -0.09441996 0.17803708 0.15419194 0.13464075 -0.176321 -0.09427987 0.099921405
0.073927835 0.11011373 0.017602617 -0.025879594 -0.03674836 -0.00010172836 0.16867703 -0.08199453
-0.23969379 -0.030286705 0.16917874 0.13960321 -0.2559327 -0.09091393 0.1284905 -0.1638934
0.039713655 0.14884824 -0.14254306 0.09492696 0.18745176 -0.21531816 -0.08501319 0.0030206186
0.082928024 0.19170201 -0.07330545 0.0142818205 -0.075083315 -0.19343062 -0.21506411 0.16442218
-0.11879897 -0.049415234 0.22033615 -0.006782417 -0.05835098 0.03442754 -0.018766157 -0.1662199
-0.021592882 -0.04006734 -0.20450105 -0.16973308 -0.123219885 0.12051217 0.26034763 0.119603224
-0.10677319 -0.19297592 -0.011695626 -0.08382373 0.10838323 0.23871936 0.20556098 -0.16971509
0.19438933 -0.25916383 -0.25274715 0.07156536 -0.04520379 0.18294781 0.11000667 -0.23619442
-0.02616248 0.18310775 0.2520555 0.13210464 0.19315985 -0.19011275 0.014237 -0.031917125

classifier.4.bias f4 [16]
00000000: 2cda 4abe b080 4c3e 72b4 4d3e 933b d7bd
00000010: 7090 09be fdf8 023e f32f 8c3d d588 11bd
00000020: 2a03 4abe 5a6e 543e 1788 0d3e 1b41 163e
00000030: fac3 793e c123 5e3e e9aa 5dbe c014 0bbe
-0.19809788 0.19970965 0.20088366 -0.1050941 -0.13434005 0.12790294 0.06845083 -0.035530884
-0.1972777 0.20745221 0.13821445 0.14673273 0.24391165 0.21693327 -0.21647228 -0.13582134

classifier.5.weight f4 [16]
00000000: 9e4d 743f 4418 803f b055 7a3f 0f59 833f
00000010: 8af1 813f 1e80 863f f1ce 7a3f a6e9 873f
00000020: 5173 703f 3082 803f b30f 853f d179 803f
00000030: ddac 793f ded3 753f 6e40 803f a8ae 793f
0.95430934 1.0007405 0.97787 1.0261554 1.0151837 1.0507848 0.9797202 1.0618179
0.9392596 1.003973 1.0395416 1.0037175 0.97529393 0.9602641 1.0019662 0.9753213

classifier.5.bias f4 [16]
00000000: dcda febc c2d0 1b3d 3b22 4b3d 05f0 503d
00000010: c8f7 393d 2303 713d 941d 68bc e400 913d
00000020: 6643 61bd d054 243d 4556 293d c522 103d
00000030: d313 1fbd 9d09 7fbc 921b a5bb 1cce 28bc
-0.03111022 0.038040884 0.04959319 0.05101015 0.04540232 0.058840882 -0.014167208 0.07080248
-0.054995917 0.040119946 0.04134204 0.03518941 -0.038837265 -0.015566257 -0.005038687 -0.010303047

classifier.5.running_mean f4 [16]
00000000: 5b94 a43e 590b 2b3e 9bae f33e 72f8 b6be
00000010: fa6f 0cbe 8249 3e3e 8544 8c3e 7f70 72bd
00000020: 61b6 603c 321e 9d3c 612c a0be 6cb1 af3e
00000030: 9d78 ad3d 81ae dd3d 5e64 72be 1655 adbc
0.32144436 0.16703548 0.4759415 -0.35736424 -0.1371459 0.18582729 0.27396026 -0.059189316
0.0137153575 0.019179437 -0.31283858 0.3431505 0.08470271 0.108242996 -0.236711 -0.021158736

classifier.5.running_var f4 [16]
00000000: 4008 8b3e 4613 563e edc9 2f3e 1119 e03d
00000010: 7685 9e3e 38c5 b73d ff93 133e 5129 ec3d
00000020: 6911 f03d 6128 e43d ba57 863d 4664 db3d
00000030: 5bea 413e f870 333d 8e5a aa3e 5b01 1b3e
0.27154732 0.2090579 0.17166872 0.10942281 0.30961198 0.08973163 0.14411925 0.11531318
0.11722071 0.11140514 0.06559701 0.10712485 0.18937056 0.043808907 0.33272213 0.15137236

classifier.7.weight f4 [16, 16]
00000000: 3bc9 283e 8d8a afbc 5c7a 973d a048 7f3d
00000010: fe2a 90be f9ae e5bd 2c1d 6c3d bdca 583e
00000020: 9e8c 653d f352 613e ab26 dd3d 2757 0b3d
00000030: eee1 1c3d dd0b 0dbe 1d72 17be 7f50 303c
00000040: db48 2ebe 7dc4 683e 94dd eebd 4a7b 3d3d
00000050: b785 d4bd f4f9 153c d84a 86bd e33b 1cbe
00000060: 5173 36be f60a 7f3d 4d38 1dbe a425 973e
00000070: 6d78 79be 4335 abbc bbe8 f8bd cd4e 4cbe
00000080: b0ac 02be 444c 143e a32e 04be 4a55 1d3e
00000090: e7e1 413e 6c52 5fbe 0d48 6d3e fae9 023e
000000a0: cd49 28be 445a 83bd 40bc c0bd 8447 853e
000000b0: 3eb6 2fbe 4e20 353e 145f 60bd 8633 553e
000000c0: 7388 483e 2f28 82be d6eb cabd 4e9c 113d
000000d0: c92d ebbd b941 6e3e 8312 833e a70a ec3a
000000e0: ebbc 51be 86a7 fdbb c213 d5bc 51cf a93d
000000f0: 656e 503e 7052 0dbe 4858 adbd 1abd 273e
00000100: 2afd 843e 4893 393e 851a 003e 65b0 9b3c
00000110: 6787 a2bc b35c 42be da47 33bd f277 253e
00000120: eff5 ab3d d4b4 32be 7dc1 83be f97e 3a3e
00000130: 3b2a c8bd 03b9 b33d a202 f53d ca92 213d
00000140: e78a ffbd 77be 5e3d 4711 8abe 202b 61be
00000150: 8a04 94bc 983b 13be a605 3dbd 44ae 143e
00000160: 4e0a 003e a215 83bd 81e9 9fbd 9d49 ae3d
00000170: 4010 1a3e deed 65bb 5c7b 193e 1c15 bf3d
00000180: ce0e d5bd e985 2cbe 8acf 863c 3d15 c7bd
00000190: 32f5 cbbd 383c 95be cd0f 863d 82b1 10be
000001a0: 859a 68bd 8141 e8bd ec7c 383e e76b 74bd
000001b0: ce09 183d 111a 313e 4792 2bbd 17a6 7bbe
000001c0: 107c 9ebd 784a 353e 11ed b63d f8ce 033e
000001d0: 9a78 323e 6323 d83d 58b5 993d 51cb 31be
000001e0: 8822 65be 18cf 22b9 eb8d e13b 66d4 c2bd
000001f0: 5e04 5b3e a91a 493e ab6d 7abd 8bca 7a3e
00000200: ea51 57be 4671 0fbe 75f6 103d e403 303d
00000210: 63b2 1dbe 4265 38be 04f1 ecbd 442c 3bbe
00000220: 3410 053e 2062 d8bb 5fd7 68be 1951 aebd
00000230: 8436 7e3e 8ce8 c93c 3d83 3bbe 1f18 d9bd
00000240: b3dd d5bd 6181 21be c28d 83bd 7810 eb3c
00000250: cc38 893d b49f 413e db71 043e 51d3 5b3e
00000260: f392 6f3e 2ed2 2dbd a5fb 1e3d 7a86 983d
00000270: 46e9 543e 2d4c 3b3d dec6 623d 0977 cdbd
00000280: 1bfe dcbd 969b f5bd 4c4b 813d 6950 3a3e
00000290: f020 183d e4e1 ac3d eaa1 2e3e b3d4 163d
000002a0: a625 02be 15ac 02bd 81cc a638 5af0 25be
000002b0: 8040 a73d c2f5 00be 3357 8c3e 2cb8 fc3c
000002c0: d83d debd 38ab 1bbe 1d34 6dbd 4f20 dbbc
000002d0: e11b 38bd 952b 85bd 3e61 223e 5837 50be
000002e0: 0591 873e 5857 b93c 8c5c 6ebe 3046 5b3e
000002f0: a13d f53d b00b 90bc 7500 673e cfc0 cfbd
00000300: 8974 273e 3e5e 683e 813e e73d 542a 503e
00000310: b0dc c33c dba5 b03d 70a1 3cbd bac3 2ebe
00000320: 17f4 0b3e 6eee 39be 1a72 4b3e bb4b 063e
00000330: c753 dc3d 7238 43be 413b 1fbe 0573 0d3d
00000340: 7d46 90bd 4d1c fc3d 866b 8fbc cc99 3ebe
00000350: 3439 123e 114b 083e 1d9c f23c 9b51 aabc
00000360: 3937 ce3d b817 643e bf48 963d 32a2 0e3e
00000370: f35a f2bd 9e45 da3c 74e3 303e 00c6 2b3d
00000380: 64ff 5d3d 89ff a23d f5de 56be 6d11 aebd
00000390: c7ae 5fbe eaff 8abd 4827 a13d 7276 b2bd
000003a0: 587c 40be 3749 9fbd 4a9f 22be d35d cf3c
000003b0: 53a1 803d 1085 54bd 01e4 863d 91d1 ea3d
000003c0: 4f15 313c 7089 72be 5cb0 343d 507f 4abd
000003d0: 24c4 edbd 74f6 8bbd 5a14 23be ca85 c13c
000003e0: b467 eabd e0ad 84bc 848d 193e 7656 713e
000003f0: 1824 ae3d bdd6 463e 52ec 203e 5fc6 5b3d
0.16483013 -0.02142837 0.07396385 0.06232512 -0.281578 -0.11215014 0.057645008 0.21171089
0.056042306 0.22004299 0.10798391 0.03401866 0.0383014 -0.13774057 -0.14789625 0.010761379
-0.1701998 0.22731204 -0.116633564 0.046260156 -0.103770666 0.009153832 -0.06557244 -0.1525722
-0.17817427 0.062266313 -0.15353508 0.29520905 -0.24362345 -0.02089942 -0.12153765 -0.19951935
-0.12761188 0.14482218 -0.12908415 0.15364566 0.18933831 -0.21808785 0.23172016 0.12784567
-0.16434403 -0.06413701 -0.09410906 0.26031125 -0.17159364 0.17688105 -0.054778174 0.20820436
0.19583301 -0.25421283 -0.099082634 0.035549454 -0.11483342 0.23267259 0.2560006 0.0018008546
-0.20482223 -0.0077409176 -0.026010398 0.082914956 0.20354612 -0.13800979 -0.08464104 0.1638073
0.259744 0.1812259 0.12510116 0.01900501 -0.019839955 -0.18980674 -0.043769695 0.16159037
0.083965175 -0.17451793 -0.25733557 0.18212499 -0.0977368 0.087755226 0.11963393 0.03944663
-0.124776654 0.05438086 -0.26966307 -0.21989107 -0.01806857 -0.14378202 -0.046147965 0.14519602
0.12503931 -0.064006105 -0.07808209 0.08510134 0.15045261 -0.0035084407 0.14988464 0.09330198
-0.104032144 -0.16847958 0.016456384 -0.09720848 -0.09958877 -0.29147506 0.065459825 -0.14130214
-0.056787986 -0.11340619 0.18016404 -0.059673216 0.037118725 0.172951 -0.041887548 -0.24575077
-0.07738507 0.17704189 0.089319356 0.12871921 0.17428818 0.105536245 0.07505292 -0.17362715
-0.22376454 -0.00015526672 0.006883373 -0.09513168 0.21388385 0.19639076 -0.061139744 0.24491327
-0.21027341 -0.14008054 0.03539129 0.04297246 -0.1540008 -0.18007377 -0.115694076 -0.18278605
0.12994462 -0.0066034943 -0.22738408 -0.08511562 0.24825484 0.02464702 -0.18311782 -0.10600304
-0.104426764 -0.1577201 -0.064235225 0.028694376 0.06700286 0.18908578 0.12934057 0.2146733
0.233959 -0.04243677 0.038814206 0.07447524 0.20792112 0.045726944 0.055365436 -0.1003247
-0.10790654 -0.11992566 0.0631319 0.18194737 0.037140787 0.08441523 0.17053953 0.03682394
-0.12709674 -0.03190239 7.953589e-05 -0.16204968 0.08166599 -0.12593749 0.27410278 0.030849539
-0.108516395 -0.15202034 -0.057911027 -0.026748804 -0.044948462 -0.06502453 0.15857407 -0.20333612
0.2647783 0.022624657 -0.23277491 0.21413493 0.119746454 -0.017583698 0.22558768 -0.10144197
0.16353048 0.226922 0.112912185 0.20328647 0.023908943 0.086253844 -0.046052396 -0.17066851
0.13667332 -0.1815736 0.19867745 0.13114826 0.10758167 -0.19064501 -0.15549947 0.03453352
-0.070446946 0.123100854 -0.017507326 -0.18613356 0.14279634 0.13309886 0.029615456 -0.020790866
0.10069127 0.22274673 0.07338094 0.1392906 -0.118337534 0.026644524 0.17274266 0.041936874
0.054198638 0.07958896 -0.20983489 -0.084994175 -0.21844016 -0.06787093 0.078688204 -0.08713998
-0.18797433 -0.077776365 -0.15881076 0.025313294 0.0628077 -0.05188471 0.06586457 0.11465753
0.010808303 -0.23685241 0.044113502 -0.04943782 -0.116096765 -0.068341166 -0.15925732 0.023623366
-0.11445561 -0.016196191 0.1499539 0.23568138 0.08502978 0.19417854 0.15715149 0.05365598

classifier.7.bias f4 [16]
00000000: e2e0 a53c fc44 26bd aa26 d3bd bfa7 9f3c
00000010: 9703 7ebe 3e6a 3d3e d511 5b3e cbaa 393e
00000020: f3f1 7dbe a4fb 5e3e 3804 ed3d 2ca8 5dbe
00000030: 7339 d03d b762 e83d a838 7ebe 811d 913d
0.020248834 -0.040593132 -0.10310109 0.019489167 -0.24806057 0.1849756 0.21393521 0.18131559
-0.24799328 0.21775681 0.1157307 -0.21646184 0.101672076 0.11346953 -0.248263 0.070857055

classifier.8.weight f4 [16]
00000000: 7166 8a3f 93f9 873f a92c 893f 9098 883f
00000010: 0ca8 873f 4286 873f ab17 8a3f 6c48 883f
00000020: 45e9 883f 4f86 883f db26 8a3f a62b 893f
00000030: 2ab1 863f ae2b 893f 60c4 873f 6f4c 8a3f
1.0812513 1.0623039 1.0716754 1.0671558 1.0598159 1.0587847 1.0788473 1.0647101
1.0696188 1.0665988 1.0793108 1.0716445 1.0522816 1.0716455 1.0606804 1.0804576

classifier.8.bias f4 [16]
00000000: ccc5 ac3d ae37 603d bde4 8c3d f5dc 703d
00000010: 5ee5 513d 1c4a 813d 60be 983d a2bf 803d
00000020: 0a0b 893d 34c3 853d a863 a13d 657f 933d
00000030: b4f5 793d 2295 8f3d 1ebd 813d dff0 993d
0.08436164 0.0547406 0.06879566 0.05880447 0.051244132 0.06312963 0.07458186 0.06286551
0.06691559 0.06531373 0.07880336 0.07202033 0.061025336 0.07010867 0.06334899 0.07516646

classifier.8.running_mean f4 [16]
00000000: b496 213e 51ad d0be 937d de3d dcea d83d
00000010: 63a8 76bd 6a03 d63d ed0b 3abe 44f5 fa3e
00000020: f6b2 37bf 0bc7 0c3f 6bcb 613e 5fe1 80be
00000030: 7544 bb3e 2cd9 df3e 2d49 04bf 3136 063e
0.15780145 -0.4075723 0.10863795 0.10591671 -0.06021918 0.1044987 -0.18168612 0.49015248
-0.7175745 0.54991215 0.22050254 -0.25171944 0.36575666 0.43720376 -0.5167416 0.1310661

classifier.8.running_var f4 [16]
00000000: 4b11 8c3d 0376 863e 8ecf 023e d957 bb3d
00000010: 0f4b 3f3e 5e3c 8b3d c28d 1f3e 1475 a43d
00000020: fc2e 1a3e fa82 553e e698 b03d 197b 623e
00000030: 4780 153e aea8 243e d90c 4c3d 4622 913d
0.06839236 0.2626191 0.12774488 0.09147615 0.18680976 0.067986235 0.1558142 0.080301434
0.15056986 0.20850745 0.08622913 0.2211727 0.14599715 0.16079971 0.04981694 0.07086615

classifier.10.weight f4 [10, 16]
00000000: 9525 ca3d 5e31 55bd 3e96 95bc d26d 87be
00000010: fbfc d7bd 17c9 58be eabd 233e 3af6 febd
00000020: da7f c03d e880 af3c 7a16 933c 4e7e 64be
00000030: 8505 85be 47a5 8ebe b449 ecbd 28f2 783e
00000040: 08aa 0dbe b4e5 0f3e ae0b 283d 1e03 9a3e
00000050: b99e 193e 608a 2cbe d6b4 10be 6b23 10be
00000060: 24e6 f03d d00d 983e 8906 86be d2ec 823e
00000070: b8c2 183e 32fb 743e e08a 2e3d 1e3a 2ebd
00000080: 3af4 4bbd e199 9a3d 49ed 22bc a703 333c
00000090: 0209 7fbd d5fd 4f3d e0be 05bd f5b8 0e3e
000000a0: 09c9 973e 2385 36be 834d 2cbe a0eb d63b
000000b0: 5eb2 fe3d 8a49 55bd 0d14 4e3e 1a5d 60be
000000c0: fb2c 8e3d fe0e 91be 86ba 483d f3c2 063e
000000d0: d0d5 0a3e d6b9 bb3d aadb 12be 5153 80be
000000e0: 1054 703e 9e60 a53e 5cf1 533e cdbf 2d3c
000000f0: 850f 9bbe 3363 1ebe 18df 85be 5011 5abe
00000100: 69bd c73c cfeb 053e 00a9 523d 185f b0bd
00000110: cec5 91be 40fe 953e 08ad 4a3e 811d 19be
00000120: 4b42 9d3e f088 73be 95eb 5ebe 151e 233e
00000130: 6eb0 83be 213a 64be ea22 9d3e ebe2 e6bd
00000140: d36b 20be 5a90 a33d e5a4 5e3e 69b1 48be
00000150: e087 42be 3f25 913d 1875 09be e67d a13e
00000160: 7f50 43be e45f 71be c919 7cbe bcc3 71be
00000170: ab94 dabc fc33 873e aec3 5cbe 309d 9b3e
00000180: 9c17 c0bd f64e 2bbd 9d36 51be 404c 48bd
00000190: 6281 5a3d 30a5 47bd f139 1c3e cbe2 5739
000001a0: f011 653e 5c22 13be 43c3 4ebe 3156 7cbe
000001b0: 4984 183e 0b1a 6ebe f9db 913e 34fd 0dbd
000001c0: be9a c6bd b333 24be ed5f 60be 6c6d a8bd
000001d0: b555 d83d 2557 89be f960 85be a6a5 d9bd
000001e0: 8576 31be b05f 49bc 2c01 9c3e 2a85 953e
000001f0: c490 2f3e d264 ca3d fe9a 8f3d 8782 f23b
00000200: e88e 6d3e 165d 8abe f0e3 a93c db9c 2e3e
00000210: 0015 963e 1787 18be 5a67 50be d347 1cbc
00000220: 92a7 323d 9ef7 93bd 1469 bb3c 584b 4bbe
00000230: ed11 45bd 135d 60bd 5f2e bf3b 540a 0a3e
00000240: 94cb 4ebe c722 4c3e 84bf 713e 5dd2 02be
00000250: 8c41 5d3e ad46 68be f18e 1fbe 87d1 c13d
00000260: b23a 81be cd27 28be 7ec3 50be 8b2a 36be
00000270: 5b8f 963e 28e7 62be fea8 53be 4cdf 81be
0.098704495 -0.052049033 -0.018260118 -0.26450974 -0.10546299 -0.2117046 0.15990415 -0.12449308
0.09399386 0.021423772 0.017955054 -0.22313806 -0.25980774 -0.27860472 -0.11537495 0.24311125
-0.13834393 0.14052469 0.041026764 0.30080503 0.15001954 -0.16849661 -0.14131483 -0.14076011
0.11762646 0.29698038 -0.2617686 0.25571305 0.1491803 0.23923948 0.04261291 -0.042535894
-0.04979346 0.07548881 -0.0099442685 0.010926164 -0.06226445 0.050779182 -0.032652736 0.13937743
0.29645565 -0.17824225 -0.16826443 0.0065588504 0.124363646 -0.052072085 0.20124836 -0.21910515
0.06942173 -0.2833175 0.049006008 0.13160305 0.13558125 0.09166305 -0.14341608 -0.25063565
0.23469567 0.32300276 0.2069754 0.010604811 -0.30285278 -0.15467529 -0.2614677 -0.21295667
0.02438231 0.13078235 0.051430702 -0.08611888 -0.28471226 0.2929554 0.19792569 -0.14952661
0.3071464 -0.23782706 -0.21769555 0.15929444 -0.25720543 -0.222878 0.306907 -0.1127375
-0.15666132 0.07986517 0.2174259 -0.19598927 -0.18997145 0.07087182 -0.13423574 0.31541365
-0.19073676 -0.23571736 -0.24619211 -0.23609823 -0.026682219 0.26406848 -0.21559021 0.30393362
-0.09379503 -0.04182335 -0.2043099 -0.048900843 0.053346045 -0.04874152 0.15256478 0.00020588485
0.22370124 -0.14368576 -0.20191674 -0.24642254 0.14894213 -0.23252122 0.28488138 -0.0346653
-0.096974835 -0.16035347 -0.21911593 -0.082239956 0.10563222 -0.26824299 -0.26050547 -0.10627298
-0.17330368 -0.01229088 0.30469644 0.2920316 0.17145067 0.09882511 0.07011984 0.007400814
0.23199046 -0.27024144 0.020738572 0.17052023 0.29312897 -0.14895283 -0.20351925 -0.009538609
0.04361684 -0.072249636 0.022877254 -0.1985296 -0.0481128 -0.054776262 0.0058343853 0.13480502
-0.20194846 0.19935142 0.23608214 -0.1277556 0.21607035 -0.2268321 -0.15581872 0.09463792
-0.25240093 -0.16421433 -0.20387074 -0.17789666 0.29406247 -0.22158492 -0.20669934 -0.25365674

classifier.10.bias f4 [10]
00000000: 9f24 803d b805 433c 8625 9e3c c421 a53d
00000010: 10f6 e7bd 0dff 1a3e 2a93 5c3d fbad dbbd
00000020: c3fa 2c3e 9912 213e
0.06256985 0.011903219 0.019305002 0.08063081 -0.113262296 0.15136357 0.053851284 -0.107265435
0.16892533 0.1572975

exp_avg f4 [16, 784]
00000000: 4415 2334 cc17 1a35 b5c5 8936 2eac 2f37
00000010: bf9f 48b6 4702 6834 7e08 2637 8c17 5638
00000020: 974c fd38 0d51 2939 61d7 0339 3d9e 7239
00000030: 3ef1 1e3a ac4e dc39 0909 a339 8ecc 1e3a
00000040: 0c17 0d3a b21b 5639 6c4b 0339 78ca b137
00000050: 28bc 8fb6 09e6 3fb8 321b a3b8 cad7 18b8
00000060: 16d3 a1b7 c0f8 99b6 bc27 bdb5 0fc1 1936
00000070: 9878 16b3 c445 14b4 f06e 2337 b9f0 a637
00000080: 72f3 4f36 c416 2b38 6503 2d39 b9e5 9239
00000090: b632 c239 f0af da39 abb7 183a 33f5 843a
000000a0: 13b3 df3a c251 033b 9c11 063b 198d 073b
000000b0: 641a b43a 4136 343a 99fe d539 6270 0939
000000c0: 35d4 f937 dac2 c7b7 28b3 2cb9 ff39 72b8
000000d0: 06d3 51b7 1fb8 26b5 8393 0837 8086 6137
000000e0: 00cc e436 63d8 5837 e38e 2038 2f80 1f38
000000f0: e3d3 5538 1cf2 5039 3dc6 ba39 966c fb39
00000100: 355c 2e3a 921a 503a 2a07 613a 44f8 883a
00000110: 3308 ba3a 9fe3 083b ddef 163b b6fe de3a
00000120: 9e73 4d3a 29c4 3c3a e3ce 123a 2474 b239
00000130: 5021 3638 d58d 4737 d0c6 b1b8 2fbf 1ab8
00000140: 4fe2 26b7 5128 acb6 012a 2338 11ea 9937
00000150: 01b7 0538 d9bd e237 e8a4 c937 691f 3538
00000160: dce0 dd38 7804 8b39 a384 e039 bdae 413a
00000170: 3644 653a b118 5a3a 2757 3d3a d267 263a
00000180: e157 2e3a 7f82 923a 0f38 a23a 2459 353a
00000190: 0436 7339 e33a 1c39 3274 b239 2558 8c39
000001a0: fbcd 8439 8db3 bab8 3562 99b9 3448 8ab9
000001b0: 188d 88b8 d773 cab7 f24a 0e38 325a 9937
000001c0: 21d5 e736 7d6c 8f37 bf11 4b36 2608 8537
000001d0: e30b a238 74da 8e39 2771 223a 3ad4 3e3a
000001e0: 688d 1b3a 5f6d bf39 992c c639 3ed6 8c39
000001f0: 7b59 5339 4dba 2c39 e51c 3439 3db2 5737
00000200: 2982 4fb9 03de dab9 67f6 fdb9 88d1 dcb9
00000210: b515 abb9 1c35 10ba 4b11 3eba 3660 36ba
00000220: 1659 82b9 5bd4 3eb8 e5f7 b4b7 8b54 8537
00000230: b656 b737 2a12 8838 e2db 7f38 31d6 6c38
00000240: 75c2 df38 fe6e ad39 b630 1c3a 66eb 053a
00000250: f3a6 c339 541a da38 1186 3538 1c60 16b8
00000260: 0eaf 8bb9 8709 abb9 b69c 9fb9 f18a a0b9
00000270: 6c15 e8b9 5c1d 25ba ec65 10ba 2c67 21ba
00000280: ef12 23ba d325 48ba 6a24 4aba 6579 34ba
00000290: f0b6 bab9 bebe fa37 4cd7 3538 4dbf f2b6
000002a0: edca 9638 d9df 5839 45e2 6d39 4591 3239
000002b0: d3ff 3139 045b ea39 b3cb 2c3a 7ee2 fb39
000002c0: f259 b039 9723 2d39 a16e 1d38 5b01 9cb8
000002d0: 257a c3b9 e7f1 14ba 8c9e 03ba 4092 06ba
000002e0: c7ed c8b9 cfc4 c8b9 58d7 bbb9 c6e1 dfb9
000002f0: 1f06 17ba 0562 27ba b920 d6b9 f1bf bab9
00000300: c42c 8eb9 adc1 1839 d01d 3239 4e55 e7b5
00000310: 99a3 0939 216e b039 acf6 b339 877f b439
00000320: 8c05 a439 f601 133a 5511 433a b066 133a
00000330: 0f17 c339 40f5 b338 8722 e5b7 862b 37b9
00000340: 293f 34ba 79dc 63ba c9d5 46ba 971e 49ba
00000350: 38a8 00ba d0f0 a6b9 5977 8bb9 cfd4 a3b9
00000360: b4e2 08b9 c26b 91b8 8594 7139 e04f 6b39
00000370: 4cbe 29b6 ff6b d238 f704 6039 0c64 3d38
00000380: 8e6b 3339 0361 cd39 de4c f039 fcb0 d639
00000390: e649 b939 c63e 1b3a de4a 3a3a 9492 1d3a
000003a0: d097 bc39 ed94 7db8 2bf1 79b8 f95f d2b9
000003b0: efaa 8aba 7d80 86ba ad2b 41ba 217e 7aba
000003c0: de53 c2b9 a3cf 35b9 3fbf ecb9 a585 09ba
000003d0: 06a4 55b9 4546 ffb8 4908 3a39 992f c838
000003e0: 711d 5eb8 1e7c c638 1ea7 3e39 0223 ec38
000003f0: f12a 1339 3624 d939 8ebd d739 0705 f939
1.5188294e-07 5.74041e-07 4.1059343e-06 1.04709015e-05 -2.9895307e-06 2.1607512e-07 9.896348e-06 5.1043506e-05
0.00012078246 0.0001614729 0.00012573368 0.00023137867 0.00060631696 0.00042020285 0.00031096514 0.00060577027
0.00053821574 0.00020418948 0.0001252123 2.1194326e-05 -4.2836364e-06 -4.5752186e-05 -7.777511e-05 -3.6440593e-05
-1.929099e-05 -4.5887136e-06 -1.4093162e-06 2.2911152e-06 -3.5034276e-08 -1.3808955e-07 9.741387e-06 1.9900837e-05
3.0987107e-06 4.079078e-05 0.0001649983 0.00028018447 0.00037040346 0.00041711284 0.00058257085 0.0010143876
0.0017066918 0.0020037745 0.0020457273 0.0020683466 0.0013740775 0.00068745395 0.00040816216 0.00013107204
2.978193e-05 -2.3813383e-05 -0.00016469939 -5.775131e-05 -1.25065035e-05 -6.210775e-07 8.140577e-06 1.3442361e-05
6.8186782e-06 1.2924985e-05 3.8280046e-05 3.8027934e-05 5.0980492e-05 0.00019926619 0.00035624384 0.00047955354
0.0006651313 0.00079385296 0.00085841364 0.0010449965 0.0014193117 0.0020887626 0.0023031153 0.0017013166
0.00078373577 0.0007200861 0.00056002865 0.00034037337 4.3423206e-05 1.1894347e-05 -8.4770494e-05 -3.6894515e-05
-9.947063e-06 -5.130693e-06 3.8901348e-05 1.8348017e-05 3.1880107e-05 2.7029704e-05 2.4037858e-05 4.3183016e-05
0.000105799845 0.00026515475 0.0004282343 0.0007388404 0.0008745821 0.00083197193 0.00072227645 0.0006347868
0.0006650668 0.0011177807 0.0012376326 0.0006917885 0.00023194408 0.00014899256 0.00034037378 0.00026768554
0.0002533047 -8.902615e-05 -0.00029255604 -0.00026375207 -6.511266e-05 -2.4134219e-05 3.3925236e-05 1.8281022e-05
6.909148e-06 1.7097447e-05 3.0259687e-06 1.585863e-05 7.726976e-05 0.0002724711 0.00061966706 0.0007279549
0.0005933852 0.00036511847 0.0003779873 0.00026862504 0.00020155862 0.000164726 0.00017176902 1.2856498e-05
-0.00019789547 -0.00041745612 -0.00048439504 -0.00042117783 -0.00032631835 -0.0005501078 -0.00072505017 -0.00069570856
-0.00024861906 -4.54973e-05 -2.1573107e-05 1.5894204e-05 2.1855678e-05 6.488369e-05 6.100152e-05 5.6466266e-05
0.00010669689 0.00033079827 0.0005958186 0.00051086245 0.00037317685 0.00010399954 4.3278622e-05 -3.5852296e-05
-0.00026642572 -0.0003262276 -0.00030443602 -0.00030621098 -0.0004426645 -0.00062986254 -0.00055083516 -0.00061570364
-0.0006220778 -0.0007635031 -0.00077111146 -0.0006884544 -0.00035612984 2.9891144e-05 4.3354274e-05 -7.2344324e-06
7.190355e-05 0.00020682755 0.00022686373 0.0001702952 0.00016975337 0.0004469977 0.0006591633 0.000480432
0.0003363635 0.00016511824 3.7534748e-05 -7.438912e-05 -0.00037284303 -0.0005681798 -0.0005020879 -0.0005133487
-0.0003832413 -0.00038293606 -0.00035827863 -0.0004270209 -0.0005761105 -0.00063851505 -0.0004084164 -0.00035619692
-0.00027117704 0.00014568 0.00016986509 -1.7235668e-06 0.00013126283 0.00033651388 0.00034325325 0.0003442729
0.0003128465 0.0005607897 0.00074412423 0.00056229066 0.00037210478 8.5810665e-05 -2.7315005e-05 -0.00017468454
-0.00068758667 -0.0008692216 -0.0007584957 -0.00076721 -0.0004907879 -0.00031841407 -0.00026601067 -0.00031248337
-0.00013054424 -6.93421e-05 0.00023038879 0.00022441102 -2.529373e-06 0.00010033696 0.00021364154 4.5154287e-05
0.00017110838 0.00039172926 0.00045833638 0.00040949124 0.00035341008 0.0005922135 0.0007106493 0.00060109165
0.00035971263 -6.04586e-05 -5.959083e-05 -0.00040125826 -0.0010579507 -0.0010261681 -0.0007368874 -0.0009555538
-0.0003706505 -0.00017338856 -0.00045155917 -0.000524605 -0.00020374366 -0.00012172436 0.00017741429 9.545609e-05
-5.2956344e-05 9.464494e-05 0.00018182068 0.00011259878 0.0001403501 0.00041416445 0.00041149225 0.00047496727

exp_avg_sq f4 [16, 784]
00000000: 24cd 932a 53f8 2d2c 47c5 7e2e 376b e82e
00000010: 026a d32e a9c5 732f 1a75 bb30 94e8 e131
00000020: f0b9 af33 ea9d b234 11c0 2335 dc35 9a35
00000030: c5a2 1536 62c3 f235 fb03 d835 7bf7 0e36
00000040: 4ab7 1b36 f542 8e35 3acf ee34 3b57 fe33
00000050: 80d2 9d32 c3ba fb31 2542 ce31 8cb9 9c31
00000060: 1ecf ec30 00aa 7530 cec5 642f adb6 862e
00000070: 424b aa2b ac8f 692c a401 822f b0ee 8630
00000080: 1128 0632 9f6f b632 d294 a934 ba0e 0a36
00000090: 8ead 9b36 d7cc 8136 36a6 c036 f181 3537
000000a0: d9ee 6d37 7a69 7037 d080 7f37 68a8 8a37
000000b0: 25a7 7037 6fe6 0e37 260e 6536 46ee 3536
000000c0: a222 1136 134e 3f35 4d16 0e34 ed0d 1033
000000d0: a171 ba32 3fcc d331 c02e 8d30 f360 f42f
000000e0: 3b63 572d af25 462e 04a3 3431 3e5d 7732
000000f0: 4bf1 a833 0208 3435 4d57 5b36 d442 b836
00000100: c632 0337 fc4c 1037 a033 3637 9985 4737
00000110: 6877 6d37 ee43 9637 872c a737 347d 8c37
00000120: 86bb 4a37 46ab 3237 c5f7 0937 47c9 c136
00000130: 819c 9736 56fa 4636 2bbc 8f35 c999 3c34
00000140: 7472 9c33 b6ac a132 f7f7 7d31 9c48 2230
00000150: ec0e 152f 71ca 902f 2cc6 c731 83f4 0d33
00000160: 5e3a 9234 a874 1936 fa84 b936 73e8 2137
00000170: e121 5837 6146 4037 3aff 1737 05fe 1d37
00000180: 74eb 4837 032d 6337 2cd2 7d37 f2cb 4d37
00000190: c3ee 2537 7995 2137 0d70 1b37 8b4c 2537
000001a0: 559d 1537 9a6f a736 4772 0d36 4647 2835
000001b0: 54e0 2634 88a7 5733 6c80 5132 cb1d fb30
000001c0: c4b2 552e fc82 8a30 dfbb 0a32 4408 1833
000001d0: 2130 1735 990b 8536 811e 0937 bad2 5237
000001e0: f794 6c37 dc8a 3b37 aa37 1537 d9fe 2837
000001f0: 3bcf 3437 0a04 4637 1bd6 4b37 6699 2c37
00000200: 7148 1537 b2d0 2437 6fc4 0c37 6e5d 1837
00000210: c478 2137 067b fb36 e881 7336 e255 7635
00000220: c83c b034 3d51 3234 b0b4 b433 357f 9e31
00000230: 32ee 2530 d564 2e32 811d c932 c3b3 8433
00000240: 9532 8335 b07d a336 fd41 1637 e7b1 5b37
00000250: 988c 6e37 ab1c 1d37 48dc 1137 dc7a 0f37
00000260: 22e1 1b37 aa4b 1537 61c4 1237 873d 0837
00000270: 88ec d036 bfbd dc36 e42c cd36 41ee bc36
00000280: b220 1137 c06b d936 8ca3 8d36 dc0d 9535
00000290: 6817 5c35 6572 4735 b200 d434 1933 c732
000002a0: 431a 4c31 69c8 4733 68da 9333 7f43 b033
000002b0: c9ff 7535 86d4 a536 3cf2 1f37 dd44 6537
000002c0: b7e3 6337 aca1 0d37 9cb2 0f37 fd02 0137
000002d0: b032 0137 8d21 0537 3503 dc36 7e57 ba36
000002e0: 57d8 9836 8912 a336 24c8 c336 189f 9336
000002f0: 55b8 e636 6e7f b436 f3b4 6736 e722 b035
00000300: a0e1 0336 399e 1f36 76ff 8035 cf19 9033
00000310: f711 d831 8b22 9833 626f 8633 f0da d133
00000320: b5d8 8a35 5c55 b136 28b9 2a37 9454 7b37
00000330: f361 6037 9834 0a37 ed04 1437 2bb9 ec36
00000340: ad1a ee36 2b30 e436 c38f ba36 64d3 8c36
00000350: 1f53 6936 828b 6f36 8f7f 9d36 27cc 7136
00000360: 053e ca36 bfdc b236 2b88 7436 6d08 1236
00000370: 770d 7036 86ac 8436 6125 a235 83d0 6833
00000380: 0028 0a32 4551 c233 8886 a733 bd7e f133
00000390: 5f87 9b35 e5f6 b236 3fa7 2937 72cb 8937
000003a0: 4be0 6c37 b888 0e37 ac35 1537 7652 0037
000003b0: 6af7 f336 077b cd36 f21e da36 01dc 6636
000003c0: 307b 3b36 3a7c 3236 72cb 6e36 7625 7836
000003d0: fac3 dc36 6327 c336 b898 8336 7d6b 4536
000003e0: 8190 a236 9e15 af36 be44 ea35 c533 6433
000003f0: 706e 5a32 43c0 f433 ef4e 9b33 de5c e433
2.625479e-13 2.4722626e-12 5.792813e-11 1.0569184e-10 9.614e-11 2.2170944e-10 1.3639323e-09 6.574803e-09
8.1828944e-08 3.326998e-07 6.1001725e-07 1.1489569e-06 2.2297475e-06 1.8087269e-06 1.6094413e-06 2.1303701e-06
2.3203488e-06 1.0599312e-06 4.4481732e-07 1.1843664e-07 1.837293e-08 7.326294e-09 6.002909e-09 4.561292e-09
1.7230126e-09 8.9372065e-10 2.0806754e-10 6.126064e-11 1.2100115e-12 3.3191045e-12 2.3648028e-10 9.817622e-10
7.808937e-09 2.1238348e-08 3.1586984e-07 2.0572174e-06 4.6395644e-06 3.868346e-06 5.7413954e-06 1.0818695e-05
1.4181912e-05 1.4329673e-05 1.5229176e-05 1.6529302e-05 1.4344031e-05 8.517512e-06 3.4131895e-06 2.7109795e-06
2.1626843e-06 7.126666e-07 1.3232894e-07 3.3540278e-08 2.1704922e-08 6.1641283e-09 1.0272387e-09 4.4452228e-10
1.2243369e-11 4.5053457e-11 2.628611e-09 1.4398493e-08 7.8670006e-08 6.706688e-07 3.2684359e-06 5.491407e-06
7.82003e-06 8.600993e-06 1.0860065e-05 1.189243e-05 1.4154102e-05 1.7913026e-05 1.9928686e-05 1.6747603e-05
1.2083799e-05 1.06495045e-05 8.223525e-06 5.77528e-06 4.51837e-06 2.9650014e-06 1.0709094e-06 1.7564811e-07
7.285135e-08 1.8821407e-08 3.6957297e-09 5.903844e-10 1.3556772e-10 2.633729e-10 5.814192e-09 3.3051503e-08
2.7237087e-07 2.286668e-06 5.52891e-06 9.650469e-06 1.2882491e-05 1.1460478e-05 9.059726e-06 9.417073e-06
1.197575e-05 1.35407345e-05 1.512891e-05 1.2266437e-05 9.890357e-06 9.63115e-06 9.264809e-06 9.852588e-06
8.917724e-06 4.98998e-06 2.1077155e-06 6.2688594e-07 1.5541565e-07 5.0210957e-08 1.2194601e-08 1.8271121e-09
4.858937e-11 1.007805e-09 8.075374e-09 3.5397775e-08 5.632192e-07 3.965059e-06 8.172939e-06 1.2566039e-05
1.410138e-05 1.1178399e-05 8.894052e-06 1.0072917e-05 1.0777086e-05 1.180266e-05 1.2149593e-05 1.0287715e-05
8.897959e-06 9.823752e-06 8.390386e-06 9.081659e-06 9.624466e-06 7.4947047e-06 3.6285437e-06 9.176712e-07
3.282678e-07 1.6607096e-07 8.41477e-08 4.612867e-09 6.0365146e-10 1.01510595e-08 2.3412897e-08 6.1794275e-08
9.774982e-07 4.8724105e-06 8.956061e-06 1.3094838e-05 1.421864e-05 9.364604e-06 8.693962e-06 8.55207e-06
9.291138e-06 8.898709e-06 8.748001e-06 8.120557e-06 6.226419e-06 6.5786003e-06 6.114702e-06 5.630573e-06
8.650286e-06 6.4796477e-06 4.221167e-06 1.1105399e-06 8.1990447e-07 7.4299743e-07 3.9488583e-07 2.3189886e-08
2.9700835e-09 4.651557e-08 6.884949e-08 8.207916e-08 9.164183e-07 4.942124e-06 9.533538e-06 1.3665497e-05
1.3583273e-05 8.441897e-06 8.56505e-06 7.689695e-06 7.700801e-06 7.935229e-06 6.5568843e-06 5.5534174e-06
4.5551383e-06 4.8599363e-06 5.8347523e-06 4.3994623e-06 6.875993e-06 5.379253e-06 3.4527009e-06 1.312318e-06
1.9651852e-06 2.3784944e-06 9.611092e-07 6.710217e-08 6.2884697e-09 7.084335e-08 6.260122e-08 9.7721454e-08
1.0344871e-06 5.284948e-06 1.01759e-05 1.4980458e-05 1.3374246e-05 8.237686e-06 8.822634e-06 7.0549045e-06
7.096058e-06 6.800537e-06 5.559968e-06 4.1969342e-06 3.4768088e-06 3.569498e-06 4.6938144e-06 3.603063e-06
6.027289e-06 5.3305116e-06 3.6438094e-06 2.17606e-06 3.5770624e-06 3.953991e-06 1.2080819e-06 5.420635e-08
8.041752e-09 9.048612e-08 7.8010146e-08 1.12454906e-07 1.1587798e-06 5.3335557e-06 1.0112125e-05 1.642641e-05
1.4118918e-05 8.495692e-06 8.8935885e-06 7.648594e-06 7.270767e-06 6.1237984e-06 6.500509e-06 3.440073e-06
2.7936876e-06 2.6596376e-06 3.5583184e-06 3.6976685e-06 6.5793256e-06 5.816038e-06 3.921883e-06 2.9417854e-06
4.8447987e-06 5.217923e-06 1.7454365e-06 5.313247e-08 1.2714381e-08 1.13971076e-07 7.232108e-08 1.063397e-07

exp_avg f4 [16]
00000000: 24c0 b3ae 1ab6 81ae ede1 902f 038e 8f2e
00000010: d22c d52e 22df 31af a8d2 ec2f 9962 dcae
00000020: be63 30b0 8b96 00af d552 7eae 90c2 062e
00000030: 842a 082f 3de8 2aaf ffa7 ec2e 625a e5af
-8.1741086e-11 -5.8985886e-11 2.6353977e-10 6.5281135e-11 9.69408e-11 -1.6177329e-10 4.307783e-10 -1.0021956e-10
-6.417017e-10 -1.1695016e-10 -5.7826483e-11 3.064088e-11 1.2384233e-10 -1.5543918e-10 1.07618796e-10 -4.1719078e-10

exp_avg_sq f4 [16]
00000000: 1a4a 9f1e 6c47 0a1f d097 741f 9d88 a31f
00000010: aa33 cf1e 3712 b520 7d0c 891f 748e 9f1f
00000020: 6943 2320 a8b2 4120 5d1c 5f1f da6b 991e
00000030: f9ba 1c20 0d93 5b20 63a5 231f 40ab 791f
1.6865428e-20 2.9281715e-20 5.1794586e-20 6.925919e-20 2.1938345e-20 3.0674646e-19 5.804242e-20 6.757479e-20
1.3828941e-19 1.6406848e-19 4.7245548e-20 1.6244111e-20 1.3275578e-19 1.8598677e-19 3.4653397e-20 5.2869456e-20

exp_avg f4 [16]
00000000: 91d2 62b9 88a6 3b3b 4486 be3a 0348 a339
00000010: f3c6 28b9 90e5 9cbb 5d56 b939 11ae a0ba
00000020: 5629 7db9 19c0 ec39 4285 bfb8 f357 19ba
00000030: 5778 4f3b 0630 1c3b a46c db39 194d 5cbb
-0.00021631482 0.0028633196 0.0014535864 0.00031143436 -0.00016095843 -0.004788108 0.00035350295 -0.0012258907
-0.00024143359 0.00045156552 -9.132411e-05 -0.0005849592 0.0031657421 0.0023832335 0.0004185188 -0.003361529

exp_avg_sq f4 [16]
00000000: 367b 9c35 7868 2436 ea9d 0636 b566 7a35
00000010: 2bad c534 619b ca36 d191 0c36 3005 9936
00000020: de20 9935 8494 6536 1391 d635 3ae3 5035
00000030: 8705 5836 5a72 a836 444a 8f35 ed62 a036
1.1658765e-06 2.4498713e-06 2.0059474e-06 9.3281716e-07 3.6820106e-07 6.0381576e-06 2.0946502e-06 4.5603592e-06
1.1408954e-06 3.4210107e-06 1.5986465e-06 7.7816696e-07 3.2189726e-06 5.0201024e-06 1.0675944e-06 4.779888e-06

exp_avg f4 [16]
00000000: 8654 80ba 0fd7 1cba 8576 00b9 bf15 3eba
00000010: 68e4 f239 86b6 28bb 3364 3d39 a2e9 3cba
00000020: e9be 853a 03d0 8b3a e9e7 e639 f8fe 7cba
00000030: e989 a93a 4c90 b139 ae23 5f39 9e5f 93ba
-0.0009790815 -0.0005982974 -0.00012251183 -0.0007251165 0.00046328013 -0.0025743558 0.00018061772 -0.0007206445
0.001020399 0.0010666851 0.00044041805 -0.00096510304 0.0012934777 0.0003386758 0.00021280229 -0.0011243706

exp_avg_sq f4 [16]
00000000: a4ed bc34 4f95 5e35 edd7 8735 ebe8 9235
00000010: 78f9 ec34 d932 b536 ad68 6d35 c0f5 0b36
00000020: 5ca1 0d35 f67c 8b35 276b a935 571a 3235
00000030: d945 0136 380b ba35 2a3e 7c35 d70a 5e36
3.5190635e-07 8.291872e-07 1.0121126e-06 1.0945636e-06 4.4139938e-07 5.40014e-06 8.8441703e-07 2.085566e-06
5.27614e-07 1.0392675e-06 1.2622667e-06 6.6348497e-07 1.9263155e-06 1.3861345e-06 9.3967776e-07 3.3086887e-06
