lightning_logs/version_0/checkpoints/epoch=23-step=576.ckpt (torch, 369102 bytes, 48 tensors)

classifier.1.weight f4 [32, 784]
-0.08606132 -0.10858576 -0.0741108 0.15343986 0.061043628 -0.023535617 -0.10634185 6.8150366e-05
0.029426824 -0.06740133 0.04611903 0.082222074 0.00989819 -0.039041974 0.0071031717 0.0017010627
0.028037649 0.0031253665 0.03614164 -0.0049050595 0.12218295 0.06272685 -0.006649917 -0.020425363
-0.00365929 0.049701743 -0.069527924 -0.076444015 0.032886423 -0.05247651 -0.008306703 -0.057443958
-0.0328227 -0.078010514 -0.068760276 -0.0576719 0.04934659 0.019585472 0.05632981 0.0044464464
0.006280212 -0.02464543 -0.016934376 -0.0043354332 0.023527602 0.020187879 0.03079741 0.054732382
0.020345753 0.013930637 -0.029956024 0.010564737 -0.010548838 0.046421103 0.12941043 0.048878964
0.01942874 -0.04533783 0.032446183 0.039070398 -0.047805473 -0.033960104 -0.030157471 -0.07525709
-0.0346737 0.019242324 0.032237288 0.01827744 0.0021447232 -0.0021480173 -0.051475696 -0.02139845
-0.048817657 0.028535414 -0.03184991 -0.014366825 0.014751671 0.011912512 0.07172125 0.06904706
-0.014865532 -0.04220587 0.05864303 -0.021430751 -0.048921607 -0.056688495 0.07603998 0.014614608
0.068580754 -0.10772197 0.01630224 -0.06981729 -0.013753929 -0.03327111 -0.002510347 -0.022355413
-0.012014972 -0.0401309 -0.006474835 -0.0017073659 -0.014826322 -0.009873002 -0.019790905 -0.027379263
-0.0639869 0.067936525 -0.009222563 -0.03267812 0.04349106 0.07467439 0.13054998 0.037014183
-0.10001258 0.022223424 0.0051000295 0.06755782 -0.03241147 -0.041114397 -0.06231338 -0.083243415
-0.10973141 0.017394468 -0.07586008 -0.014751819 0.001662115 -0.0130471 -0.006636966 0.040671624
-0.037756886 -0.054697357 0.0055894316 -0.015315819 -0.04399153 0.022934131 0.07486709 -0.055219274
-0.002810646 0.0652736 0.086923726 0.12932178 -0.030666301 0.009815314 0.012128177 -0.031427752
0.03332634 -0.02506203 -0.004255771 -0.061360817 -0.037213676 -0.0045792377 -0.028986124 -0.026275609
-0.04963784 0.036678977 0.038458638 0.01663717 0.012179579 0.00059738045 -0.012095589 -0.049890067
0.00210132 -0.0104565015 -0.003025852 0.026736433 -0.013061958 -0.0215985 -0.021078432 0.0879539
0.028306652 -0.021439157 -0.08261368 0.0039772927 -0.03381446 0.0055182776 -0.06065708 -0.061683614
0.00622853 0.033433065 -0.009552903 0.0054828296 -0.062936306 0.010769425 0.036268726 -0.018217184
0.005995727 0.015120786 0.07311753 0.0077311764 -0.024521727 -0.068027295 0.029053045 -0.0040778024
0.0137737505 0.0322606 -0.02650523 -0.018067379 -0.01555791 0.010060313 0.052713774 -0.03887773
-0.036597848 0.006585961 0.02408661 -0.05017494 -0.036358986 -0.043150853 -0.0030908333 -0.017360447
-0.023605546 0.007392597 -0.0074334024 -0.022750085 -0.027336497 0.014982217 0.06722644 0.07400429
-0.00601249 -0.060720164 0.0061244084 0.068462566 0.03256376 -0.04056546 -0.028283698 -0.13310625
-0.10363358 -0.01345217 0.0050366656 0.01190582 0.03994148 0.004054397 0.0027845341 -0.04991414
-0.0020403299 -0.005540117 -0.032503534 -0.026362922 -0.016147008 -0.046837185 -0.0035668917 -0.009825856
-0.0023181848 0.0006970428 0.042854212 0.007144627 -0.009068564 -0.021709275 -0.028115613 0.01958272
0.017599624 -0.0031453993 -0.020193322 0.0052701607 -0.07478065 -0.105136395 -0.0482449 -0.005583056
00000000: eb40 b0bd 3662 debd 67c7 97bd 571f 1d3e
00000010: e208 7a3d c4cd c0bc c1c9 d9bd f3eb 8e38
00000020: 8610 f13c b509 8abd 4fe7 3c3d 0c64 a83d
00000030: 052c 223c 7aea 1fbd b9c1 e83b 31f6 de3a
00000040: 36af e53c f3d2 4c3b 4209 143d 9fba a0bb
00000050: 0e3b fa3d ef76 803d 8ce7 d9bb 1753 a7bc
00000060: b3d0 6fbb 0e94 4b3d a864 8ebd ae8e 9cbd
00000070: eab3 063d 9cf1 56bd d618 08bc 5b4a 6bbd
00000080: 1871 06bd fac3 9fbd 30d2 8cbd 5f39 6cbd
00000090: a61f 4a3d b671 a03c 16ba 663d 7fb3 913b
000000a0: 3dca cd3b 36e5 c9bc f6b9 8abc 4010 8ebb
000000b0: f5bc c03c 0d61 a53c da4a fc3c 102f 603d
000000c0: 23ac a63c 543d 643c 5666 f5bc b817 2d3c
000000d0: 09d5 2cbc 0e24 3e3d 2b84 043e 4f35 483d
000000e0: 0529 9f3c 29b4 39bd 4ae6 043d 4808 203d
000000f0: accf 43bd c019 0bbd cd0c f7bc 6420 9abd
00000100: 0206 0ebd 14a2 9d3c 3f0b 043d 92ba 953c
00000110: 7c8e 0c3b c0c5 0cbb 2ed8 52bd cd4b afbc
00000120: 06f5 47bd 1ac3 e93c 0d75 02bd d562 6bbc
00000130: feb0 713c b22c 433c 97e2 923d 8c68 8d3d
00000140: 8f8e 73bc 10e0 2cbd ac33 703d 8b8f afbc
00000150: 0662 48bd 3232 68bd d9ba 9b3d 1c72 6f3c
00000160: 1174 8c3d 569d dcbd 468c 853c 5efc 8ebd
00000170: 2958 61bc 4a47 08bd a284 24bb b322 b7bc
00000180: 72da 44bc 4c60 24bd da2a d4bb b1c9 dfba
00000190: 1aea 72bc 5fc2 21bc 8920 a2bc 7a4a e0bc
000001a0: 900b 83bd 4e22 8b3d 3c1a 17bc 7ed9 05bd
000001b0: af23 323d e3ee 983d e5ae 053e 2f9c 173d
000001c0: 65d3 ccbd e60d b63c 261e a73b c15b 8a3d
000001d0: e4c1 04bd 9267 28bd 513c 7fbd 867b aabd
000001e0: ddba e0bd d87e 8e3c 885c 9bbd 9db1 71bc
000001f0: 53db d93a 81c3 55bc e87a d9bb 4a97 263d
00000200: f7a6 1abd 560a 60bd 8d27 b73b 33ef 7abc
00000210: 7630 34bd 5ce0 bb3c eb53 993d 9b2d 62bd
00000220: d132 38bb 2aae 853d 1105 b23d ee6c 043e
00000230: e537 fbbc 69d0 203c 43b5 463c 63ba 00bd
00000240: 3381 083d e34e cdbc ff73 8bbb 7b55 7bbd
00000250: 5e6d 18bd 6e0d 96bb 4f74 edbc f23f d7bc
00000260: 0c51 4bbd b23c 163d ce86 1d3d ad4a 883c
00000270: db8c 473c 8699 1c3a 942c 46bc 8759 4cbd
00000280: 4db6 093b bf51 2bbc 5f4d 46bb 5d06 db3c
00000290: d301 56bc 56ef b0bc adac acbc 2d21 b43d
000002a0: 5ae3 e73c 2ca1 afbc 5c31 a9bd f353 823b
000002b0: 0881 0abd abd2 b43b 8f73 78bd f5a7 7cbd
000002c0: b218 cc3b 1cf1 083d c783 1cbc 4fa9 b33b
000002d0: c0e4 80bd 3e72 303c 848e 143d 343c 95bc
000002e0: ce77 c43b 2cbd 773c a5be 953d cf55 fd3b
000002f0: cae1 c8bc e551 8bbd a700 ee3c 169f 85bb
00000300: 4cab 613c b123 043d 7f21 d9bc 0a02 94bc
00000310: 9be6 7ebc 03d4 243c 66ea 573d 413e 1fbd
00000320: a0e7 15bd 0ccf d73b 4851 c53c 3d84 4dbd
00000330: 29ed 14bd f3be 30bd 948f 4abb 7f37 8ebc
00000340: 6b60 c1bc 993d f23b e693 f3bb 635e babc
00000350: caf0 dfbc f977 753c 04ae 893d 908f 973d
00000360: 6c04 c5bb b5b5 78bd 43af c83b 1a36 8c3d
00000370: 9461 053d f827 26bd 37b3 e7bc 014d 08be
00000380: d83d d4bd 7e66 5cbc 9d0a a53b a110 433c
00000390: ad99 233d bfda 843b bb7c 363b c572 4cbd
000003a0: 0eb7 05bb df89 b5bb 6d22 05bd 0ef7 d7bc
000003b0: bb46 84bc 59d8 3fbd 83c2 69bb a1fc 20bc
000003c0: b0ec 17bb c0b9 363a e687 2f3d 7a1d ea3b
000003d0: 5094 14bc a6d7 b1bc b752 e6bc f16b a03c
000003e0: 162d 903c 0b23 4ebb 776c a5bc 50b1 ac3b
000003f0: 9926 99bd c051 d7bd 729c 45bd 11f2 b6bb

classifier.1.bias f4 [32]
-0.012889092 0.022483137 0.0073782783 -0.03446013 0.000572629 -0.014141034 0.016532537 -0.0066351406
0.009705681 -0.028843176 -0.03126709 -0.034570664 0.0012979448 -0.0025097895 0.033794723 0.035168502
0.007581029 -0.026334876 -0.008019447 0.02662034 -0.033742297 -0.004207828 -0.023149442 -0.016292699
0.007528738 0.02259071 0.025463728 0.0010531943 0.03203333 -0.012916281 0.029076617 0.019001618
00000000: c52c 53bc 8e2e b83c 7cc5 f13b 1126 0dbd
00000010: 7b1c 163a ccaf 67bc 3e6f 873c 986b d9bb
00000020: 9404 1f3c 8648 ecbc ec11 00bd f899 0dbd
00000030: cd1f aa3a 487b 24bb 566c 0a3d d90c 103d
00000040: 486a f83b 3dbc d7bc 0064 03bc e612 da3c
00000050: 5d35 0abd d2e1 89bb e6a3 bdbc 4478 85bc
00000060: a2b3 f63b 2710 b93c 4f99 d03c 560b 8a3a
00000070: 6235 033d cf9e 53bc 1632 ee3c 48a9 9b3c

classifier.2.weight f4 [32]
1.0199678 0.97125286 1.010012 0.9935187 1.0037657 0.94626683 1.0636749 1.0200385
0.9404423 0.9476565 0.9710603 1.0050137 0.9919291 0.94934785 1.0189269 1.0145957
0.93679583 1.03766 0.97165984 1.0661315 1.0258852 1.0067269 1.0118647 0.96834344
1.0742056 1.038739 1.0526004 1.0073256 0.99376714 0.9949538 0.9888411 0.9445174
00000000: 4e8e 823f 07a4 783f 1348 813f 3e57 7e3f
00000010: 657b 803f 8b3e 723f 8026 883f 9f90 823f
00000020: d4c0 703f 9e99 723f 6897 783f 4aa4 803f
00000030: 11ef 7d3f 7608 733f 326c 823f 46de 813f
00000040: dad1 6f3f 0bd2 843f b3be 783f ff76 883f
00000050: 3550 833f 6ddc 803f c884 813f 5be5 773f
00000060: 927f 893f 66f5 843f 9cbb 863f 0cf0 803f
00000070: 8667 7e3f 4bb5 7e3f b124 7d3f e4cb 713f

classifier.2.bias f4 [32]
-0.120102406 -0.19200203 0.013356368 -0.06291647 -0.1034129 -0.07838017 0.0588812 -0.12342803
-0.093368344 0.0064894403 -0.0059382175 -0.074678324 -0.11745728 -0.09955288 -0.15569401 0.03462469
-0.14534485 -0.062314767 -0.07952674 -0.032336567 -0.002959847 -0.08223527 -0.056829557 -0.035435714
-0.10220034 -0.05902044 -0.1372664 -0.07019447 -0.08883631 -0.07221171 -0.011365435 -0.018436119
00000000: 40f8 f5bd 2e9c 44be abd4 5a3c 5ada 80bd
00000010: 24ca d3bd c885 a0bd 6a2d 713d d6c7 fcbd
00000020: e737 bfbd 5fa5 d43b 6195 c2bb f3f0 98bd
00000030: 718d f0bd 61e2 cbbd 406e 1fbe 9ed2 0d3d
00000040: 48d5 14be c53d 7fbd eade a2bd 5973 04bd
00000050: fef9 41bb f76a a8bd 1cc6 68bd 0a25 11bd
00000060: 694e d1bd 6bbf 71bd 908f 0cbe 1ec2 8fbd
00000070: d0ef b5bd bce3 93bd 1736 3abc 5807 97bc

classifier.2.running_mean f4 [32]
3.7015257 1.3252988 2.278133 4.0822864 0.69109446 2.3717213 -2.4236157 1.1904752
3.1380582 -2.2125714 -0.99444735 3.152524 1.4922345 0.63865256 0.45770428 -1.2183449
2.3266 0.8849234 0.7542878 -0.9648294 3.7612364 4.2586594 0.76770437 -0.42979866
-0.6975844 5.079925 2.2454438 1.0769355 0.84459764 -0.1941412 2.66953 -1.4729897
00000000: cce5 6c40 64a3 a93f eecc 1140 17a2 8240
00000010: 91eb 303f 48ca 1740 851c 1bc0 7e61 983f
00000020: f2d5 4840 c59a 0dc0 1a94 7ebf f4c2 4940
00000030: 8a01 bf3f bc7e 233f 3758 ea3e baf2 9bbf
00000040: 04e7 1440 578a 623f 0119 413f 0fff 76bf
00000050: 19b8 7040 f046 8840 4688 443f 920e dcbe
00000060: e494 32bf bf8e a240 5ab5 0f40 06d9 893f
00000070: 8d37 583f f3cc 46be 94d9 2a40 ed8a bcbf

classifier.2.running_var f4 [32]
2.2701163 0.89324784 1.3387754 1.2689805 0.9165596 0.59425634 1.1792539 1.4053034
1.3840053 0.7414797 1.1156965 0.8580234 1.5017668 0.80503905 0.6708843 1.0197984
0.58583707 1.9945551 0.82429713 1.9594346 0.98000705 0.6085226 0.58317417 0.58342123
0.845945 0.8312436 1.55256 0.8709123 0.5839663 0.6287978 1.8208691 1.7565851
00000000: 9649 1140 e4ab 643f fe5c ab3f f46d a23f
00000010: a6a3 6a3f 2f21 183f cbf1 963f fbe0 b33f
00000020: 1627 b13f 9dd1 3d3f 25cf 8e3f 6ca7 5b3f
00000030: e539 c03f 0a17 4e3f 13bf 2b3f c188 823f
00000040: 6bf9 153f 954d ff3f 2305 533f c1ce fa3f
00000050: bee1 7a3f 23c8 1b3f e74a 153f 185b 153f
00000060: da8f 583f 61cc 543f 49ba c63f 1cf4 5e3f
00000070: d17e 153f e5f8 203f 3d12 e93f c8d7 e03f

classifier.4.weight f4 [64, 32]
0.074968226 -0.04571428 0.13272776 0.024220204 0.11587546 -0.043911025 -0.087590046 -0.1382539
-0.11338502 -0.063983895 -0.1804375 -0.0335233 0.21174334 -0.06683639 -0.024782788 0.12617691
0.113522954 -0.14884642 0.06350943 -0.21854189 0.015968505 0.08098592 -0.11039348 -0.10557843
-0.042733952 -0.08945617 0.08663626 -0.12126875 0.047548942 -0.21572167 -0.17079864 -0.04113851
-0.074109524 0.13843083 0.08359636 0.040968716 0.1633435 -0.06351537 -0.060208406 0.014132057
0.102234684 -0.09141881 0.13884968 -0.099186994 0.0030816426 -0.14889902 0.1326585 -0.22195943
0.077705584 0.09750501 -0.14138508 -0.1945994 0.0148199545 0.045380954 -0.00010654733 -0.072905496
0.110250704 -0.059883915 -0.16539298 -0.12234501 -0.18084228 0.052864105 0.018285979 -0.10101086
-0.019491658 0.0010281339 -0.008135374 -0.05307586 -0.03875021 -0.04384517 0.15867147 -0.058955237
-0.039393764 0.072570466 0.056820918 0.06387134 -0.15222254 -0.026216798 0.066829234 0.0040113777
0.12869403 0.09740173 -0.041032545 0.04088817 -0.19841261 0.16729698 -0.018895 -0.065068275
-0.09705811 0.022433156 0.036136664 0.12920254 0.054437853 0.15408368 -0.08130839 0.05550153
-0.05773243 0.050178513 0.18892659 0.035857335 -0.18267441 -0.010851899 -0.17517474 -0.023871586
-0.029813912 0.0780721 -0.21184416 0.12964775 -0.1475773 0.051188976 -0.029506292 -0.13023938
0.061092764 -0.2012101 -0.045717437 0.065174386 -0.13664494 -0.0019081793 -0.088659346 0.039844453
0.001401969 0.15315981 -0.093129724 -0.21233486 0.0733842 -0.06543163 0.086457245 0.047536552
0.10071506 0.07822961 -0.13005805 0.04156035 0.06947707 0.10935555 0.003294256 -0.0823791
-0.100061044 -0.002761866 0.10334374 -0.14549978 0.03980603 0.0615783 0.06308127 -0.12569235
0.120429814 -0.031622157 0.10138624 0.020925242 -0.21313292 0.085287474 -0.1686587 0.15414375
0.022909679 -0.14577097 -0.13332598 0.104625806 0.086284325 0.069483235 -0.1265184 -0.009368993
-0.08426339 0.01942683 0.0046830685 -0.004739572 0.11389428 -0.18075773 0.1148445 0.18009502
0.04065638 -0.12925133 0.018405454 -0.009118401 -0.025985345 -0.15364282 -0.18091254 -0.13510828
-0.013511495 -0.18930446 -0.12065269 -0.18021479 -0.12806696 -0.007984154 -0.15042153 -0.14111252
-0.08891565 0.035462942 0.08470307 0.028313367 -0.11857159 0.10162324 0.02678498 0.047322743
-0.064762466 -0.16345349 -0.18464825 0.07261135 0.0818546 0.20642494 -0.12464156 -0.021578446
0.15722027 0.13310102 -0.12930465 0.13347645 -0.08458178 0.11097579 0.10886684 -0.1937773
0.062814385 0.12736087 0.10057169 -0.07885034 -0.18317072 -0.22457051 0.21804932 0.08713828
-0.05342779 -0.1023846 -0.05568559 0.119771324 -0.06601717 -0.029860992 0.039272945 -0.14947863
0.07326458 -0.03103801 0.22131445 -0.1086801 -0.024466848 -0.16074389 -0.18657312 0.14545053
-0.14791508 -0.07527568 0.031655353 -0.018442504 -0.10388164 -0.101882175 0.095597446 -0.18815656
0.08218439 -0.043118246 -0.06685881 -0.06102692 -0.014604091 -0.007608874 0.07182953 0.17112082
0.00900604 -0.2419808 -0.07260443 -0.045168705 -0.084799856 -0.14483371 0.15112717 -0.03915003
00000000: f188 993d e63e 3bbd c9e9 073e 7369 c63c
00000010: 1d50 ed3d 0cdc 33bd 6962 b3bd 6e92 0dbe
00000020: 6836 e8bd fd09 83bd 9cc4 38be ba4f 09bd
00000030: 3fd3 583e 84e1 88bd 4605 cbbc 8534 013e
00000040: b97e e83d 326b 18be 3b11 823d 72c9 5fbe
00000050: 62d0 823c f2db a53d fa15 e2bd 8139 d8bd
00000060: cc09 2fbd cc34 b7bd 5a6e b13d c05b f8bd
00000070: aec2 423d 24e6 5cbe d7e5 2ebe db80 28bd
00000080: bcc6 97bd d0c0 0d3e 9234 ab3d d0ce 273d
00000090: 8543 273e 5914 82bd 179d 76bd 258a 673c
000000a0: 6b60 d13d c939 bbbd 9c2e 0e3e 8d22 cbbd
000000b0: 62f5 493b fc78 18be a1d7 073e 5549 63be
000000c0: 1b24 9f3d b5b0 c73d 40c7 10be 1145 47be
000000d0: 65cf 723c 61e1 393d 2a72 dfb8 7a4f 95bd
000000e0: 1fcb e13d d648 75bd c75c 29be 0590 fabd
000000f0: b82e 39be 0888 583d 7acc 953c c8de cebd
00000100: f8ac 9fbc 73c2 863a 3b4a 05bc 1366 59bd
00000110: 8ab8 1ebd fe96 33bd c67a 223e 0c7b 71bd
00000120: 5b5b 21bd d39f 943d 0dbd 683d face 823d
00000130: 3ae0 1bbe 9cc4 d6bc c4dd 883d e071 833b
00000140: 5ec8 033e 8f7a c73d be11 28bd 5b7a 273d
00000150: ad2c 4bbe e64f 2b3e b0c9 9abc 8442 85bd
00000160: 67c6 c6bd bdc5 b73c 0a04 143d ac4d 043e
00000170: 3afa 5e3d 1dc8 1d3e 0385 a6bd 9355 633d
00000180: d778 6cbd fc87 4d3d f975 413e 24df 123d
00000190: 000f 3bbe 2acc 31bc 0261 33be 588e c3bc
000001a0: 4e3c f4bc 44e4 9f3d aded 58be 61c2 043e
000001b0: 811e 17be 88ab 513d 2eb7 f1bc 795d 05be
000001c0: 683c 7a3d 050a 4ebe 3542 3bbd 267a 853d
000001d0: a7ec 0bbe df1b faba 0893 b5bd f033 233d
000001e0: 46c2 b73a edd5 1c3e ccba bebd 4f6e 59be
000001f0: 754a 963d 0501 86bd 7f10 b13d b0b5 423d
00000200: b343 ce3d d936 a03d f02d 05be 303b 2a3d
00000210: fe49 8e3d cdf5 df3d 72e4 573b 60b6 a8bd
00000220: ceec ccbd 6c00 35bb e2a5 d33d e5fd 14be
00000230: a60b 233d 8739 7c3d c130 813d 7fb5 00be
00000240: e8a3 f63d 3c86 01bd 97a3 cf3d 6a6b ab3c
00000250: 843f 5abe 33ab ae3d deb4 2cbe dcd7 1d3e
00000260: 14ad bb3c fc44 15be 9b86 08be 0e46 d63d
00000270: d6b5 b03d 3a4d 8e3d 0a8e 01be 6880 19bc
00000280: 4992 acbd 0425 9f3c 6d74 993b 694e 9bbb
00000290: 6741 e93d 8e18 39be 9833 eb3d d46a 383e
000002a0: 4e87 263d 765a 04be 09c7 963c 5965 15bc
000002b0: 38df d4bc 8b54 1dbe 2341 39be d359 0abe
000002c0: 515f 5dbc 07d9 41be c218 f7bd 3a8a 38be
000002d0: fc23 03be f8cf 02bc 1a08 1abe cd7f 10be
000002e0: 6919 b6bd 9741 113d ce78 ad3d 6ff1 e73c
000002f0: a9d5 f2bd d81f d03d 2d6c db3c 7ed5 413d
00000300: 2fa2 84bd 5a60 27be 6e14 3dbe 42b5 943d
00000310: 62a3 a73d 0f61 533e 1344 ffbd 48c5 b0bc
00000320: 5afe 203e a24b 083e 7068 04be 0dae 083e
00000330: 3639 adbd 4647 e33d 94f5 de3d 8e6d 46be
00000340: d4a4 803d e36a 023e 88f8 cd3d 497c a1bd
00000350: 1b91 3bbe d0f5 65be 5248 5f3e 8e75 b23d
00000360: 19d7 5abd 04af d1bd 9316 64bd ab4a f53d
00000370: 0334 87bd 0a9f f4bc abdc 203d ed10 19be
00000380: bd0b 963d 6d43 febc 41a0 623e ac93 debd
00000390: b36e c8bc 0c9a 24be 060d 3fbe fcf0 143e
000003a0: 0d77 17be 232a 9abd 0ba9 013d bc14 97bc
000003b0: e6bf d4bd 9aa7 d0bd 98c8 c33d 1dac 40be
000003c0: 4a50 a83d c29c 30bd 46ed 88bd 5df7 79bd
000003d0: ff45 6fbc dc53 f9bb 5c1b 933d 4c3a 2f3e
000003e0: 128e 133c d1c9 77be a2b1 94bd d202 39bd
000003f0: 8cab adbd 4a4f 14be 15c1 1a3e c85b 20bd

classifier.4.bias f4 [64]
-0.15664613 0.14323857 -0.15329573 -0.092428796 -0.067948975 0.1143418 -0.15857217 -0.011317906
0.055407397 0.108350836 -0.034760088 0.1600851 0.088928886 0.033320487 0.16835016 -0.15397903
0.15101504 -0.0634961 0.15701693 0.031820938 0.15642868 -0.07138044 -0.11374674 0.09417823
0.1413165 0.03650123 -0.06516898 -0.17432965 0.1726365 0.07706964 -0.10911019 -0.006996102
0.008545286 0.13879141 -0.07147319 -0.012175206 -0.12629476 -0.16688828 -0.027268186 0.16427648
-0.041784298 0.07959964 -0.09963914 0.03727778 -0.026085347 -0.048087645 0.02130073 -0.077840336
0.16903521 -0.09136965 0.0740301 0.039255314 0.04628255 -0.006669917 -0.024502868 -0.04565765
-0.16242315 0.01953807 -0.004450632 -0.008596815 -0.10628527 0.09648631 0.019516706 0.07715473
00000000: d867 20be 22ad 123e 8ef9 1cbe 4f4b bdbd
00000010: d528 8bbd 092c ea3d be60 22be bd6e 39bc
00000020: def2 623d 0be7 dd3d 9860 0ebd 59ed 233e
00000030: 5920 b63d 107b 083d fc63 2c3e aeac 1dbe
00000040: b0a3 1a3e 3e0a 82bd 0cc9 203e ac56 023d
00000050: d72e 203e e82f 92bd 0df4 e8bd 84e0 c03d
00000060: 46b5 103e 5082 153d 5077 85bd 7983 32be
00000070: 9fc7 303e b0d6 9d3d 2a75 dfbd 8f3f e5bb
00000080: 8701 0c3c 561f 0e3e 8960 92bd 847a 47bc
00000090: 6a53 01be c3e4 2abe 8861 dfbc 1838 283e
000000a0: 0326 2bbd 2305 a33d 9b0f ccbd 96b0 183d
000000b0: f0b0 d5bc 8df7 44bd de7e ae3c c16a 9fbd
000000c0: 9117 2d3e 0320 bbbd 189d 973d 2eca 203d
000000d0: c592 3d3d 528f dabb 3dba c8bc 8403 3bbd
000000e0: 4152 26be 4d0e a03c 9bd6 91bb a8d9 0cbc
000000f0: 17ac d9bd 9d9a c53d 80e1 9f3c 4d03 9e3d

classifier.5.weight f4 [64]
0.9654064 0.99932855 0.9680943 1.0266302 1.0146382 1.0571905 0.951142 1.042853
1.0331434 1.0110886 0.8934411 0.94764894 0.9964719 1.0020995 0.96701366 0.9501273
1.0927744 0.9807101 0.96877956 1.0291985 0.96968925 1.0118307 0.96610326 1.0364246
0.9372354 0.97467685 0.9470999 0.9574111 1.0053438 1.0113043 0.9793605 1.0734113
1.0495849 1.0180358 1.0166903 1.0010251 1.0967746 1.0258224 1.0422995 0.9853113
1.0598903 0.9908863 1.0089533 0.9941273 0.9780538 0.9770517 0.99215895 1.0100731
1.002596 1.0111884 0.98073274 0.99487513 0.9739951 0.99496436 1.0368874 1.0017558
0.9810494 0.99295545 0.98400813 0.97739583 0.9331643 0.97995764 0.987795 0.94629186
00000000: e024 773f ffd3 7f3f 07d5 773f 9e68 833f
00000010: aadf 813f 0552 873f 0b7e 733f 357c 853f
00000020: 0b3e 843f 5a6b 813f 8eb8 643f 1f99 723f
00000030: c818 7f3f cc44 803f 358e 773f 8b3b 733f
00000040: 08e0 8b3f d10f 7b3f f001 783f c7bc 833f
00000050: 8e3d 783f ab83 813f 8b52 773f 90a9 843f
00000060: a9ee 6f3f 6c84 793f 2475 723f e518 753f
00000070: 1baf 803f 6b72 813f 5fb7 7a3f 8b65 893f
00000080: cc58 863f ff4e 823f e822 823f 9721 803f
00000090: 1c63 8c3f 264e 833f 126a 853f 5d3d 7c3f
000000a0: 7caa 873f b9aa 7d3f 6225 813f 207f 7e3f
000000b0: bc61 7a3f 0f20 7a3f 21fe 7d3f 134a 813f
000000c0: 1155 803f 9f6e 813f 4d11 7b3f 23b0 7e3f
000000d0: be57 793f fcb5 7e3f bab8 843f 8939 803f
000000e0: 0e26 7b3f 5432 7e3f f5e7 7b3f 9d36 7a3f
000000f0: dbe3 6e3f 81de 7a3f 22e0 7c3f 2f40 723f

classifier.5.bias f4 [64]
-0.04037707 -0.15592949 -0.027592145 -0.04641206 0.013271715 -0.089552194 -0.09496654 -0.02352649
0.06150419 -0.120320275 -0.042294387 -0.01981017 0.020226082 -0.040722042 -0.04418667 -0.106058694
-0.053807966 -0.058751486 0.014752373 -0.03893659 0.0063124727 0.05139045 -0.0449832 -0.04630003
-0.010829542 -0.01077644 -0.04790209 -0.043102205 0.00340314 -0.049764074 -0.015949136 -0.1331827
-0.18922405 -0.19498804 -0.026825236 0.042433076 -0.10614416 -0.08978586 -0.09958229 -0.13386293
-0.050618693 -0.15088859 -0.014919679 0.033017606 0.032535207 0.008293213 0.0075451294 -0.024709096
-0.019600656 -0.060591113 -0.15754718 -0.044418164 -0.009429798 0.12097595 0.05826592 -0.06853743
-0.01368274 -0.06766735 -0.004938584 -0.0423922 -0.026199523 -0.02983001 -0.0138036795 0.028547134
00000000: 6d62 25bd fbab 1fbe ec08 e2bc 921a 3ebd
00000010: 9b71 593c 2467 b7bd d17d c2bd a0ba c0bc
00000020: d1eb 7b3d 7a6a f6bd e13c 2dbd f048 a2bc
00000030: 2bb1 a53c 28cc 26bd 15fd 34bd 4d35 d9bd
00000040: be65 5cbd 66a5 70bd f0b3 713c f97b 1fbd
00000050: dcd8 ce3b cb7e 523d 4e40 38bd 1aa5 3dbd
00000060: 646e 31bc aa8f 30bc fb34 44bd f08b 30bd
00000070: 3707 5f3b 6ad5 4bbd c3a7 82bc 0c61 08be
00000080: f3c3 41be f2aa 47be 99c0 dbbc 4ece 2d3d
00000090: 1c62 d9bd a6e1 b7bd cdf1 cbbd 5d13 09be
000000a0: 8c55 4fbd 8a82 1abe ab71 74bc 783d 073d
000000b0: a343 053d 42e0 073c 223d f73b bb6a cabc
000000c0: 8e91 a0bc 632e 78bd 0c54 21be d2ef 35bd
000000d0: 717f 1abc 3dc2 f73d 3fa8 6e3d 5a5d 8cbd
000000e0: 922d 60bc 2e95 8abd d8d3 a1bb 72a3 2dbd
000000f0: 62a0 d6bc 115e f4bc d428 62bc aedb e93c

classifier.5.running_mean f4 [64]
-0.5461537 -0.105555065 -0.014609401 -0.40899056 -0.11059465 -0.34269276 -0.26976684 -0.35354233
-0.2573095 -0.25618005 -0.0752892 0.09427241 -0.057030693 -0.074137226 0.46794963 -0.4329712
0.01469779 -0.4295318 -0.096603364 -0.19227861 0.28074864 -0.2134221 -0.31994507 -0.26167226
0.5320513 -0.18345687 -0.5086487 -0.123252004 0.4557548 0.191336 -0.0012411607 -0.18333715
-0.06589325 0.03882031 -0.44245857 -0.33387133 -0.37960836 -0.1945667 -0.14360657 0.2618555
-0.3530746 -0.05974467 -0.38559377 -0.05130374 -0.28661972 0.0031492363 -0.18975152 0.1283229
0.24619702 0.025623888 0.013880685 -0.046389706 0.07141968 0.38681227 0.24956132 -0.01629729
-0.17880513 -0.18882419 -0.4630074 -0.2271044 -0.04525441 -0.33204952 0.3958907 -0.023915628
00000000: bbd0 0bbf 412d d8bd 455c 6fbc 3667 d1be
00000010: 737f e2bd 6d75 afbe e11e 8abe 8003 b5be
00000020: 12be 83be 082a 83be 3931 9abd e511 c13d
00000030: 0499 69bd 42d5 97bd 1897 ef3e 67ae ddbe
00000040: 00cf 703c 98eb dbbe fcd7 c5bd afe4 44be
00000050: 49be 8f3e 538b 5abe d7cf a3be e8f9 85be
00000060: 8434 083f 1edc 3bbe cd36 02bf 8c6b fcbd
00000070: b158 e93e 96ed 433e 71ae a2ba bcbc 3bbe
00000080: 0af3 86bd 0c02 1f3d ee89 e2be 2ff1 aabe
00000090: 075c c2be 7e3c 47be 9a0d 13be ed11 863e
000000a0: 32c6 b4be d4b6 74bd 8c6c c5be df23 52bd
000000b0: d2bf 92be 6b63 4e3b 394e 42be 1467 033e
000000c0: 121b 7c3e 30e9 d13c d06b 633c 2203 3ebd
000000d0: 7b44 923d 420c c63e 018d 7f3e e581 85bc
000000e0: b118 37be 215b 41be 4e0f edbe 0e8e 68be
000000f0: b05c 39bd 6502 aabe 30b2 ca3e b5ea c3bc

classifier.5.running_var f4 [64]
0.24067554 0.04703727 0.11693592 0.07210801 0.06690064 0.050864678 0.17408882 0.10049795
0.12670512 0.15210728 0.0919535 0.23468158 0.22199863 0.12827666 0.055963293 0.05646202
0.08298944 0.12865965 0.13350058 0.07287678 0.22173674 0.18874407 0.07087398 0.25479865
0.137638 0.37130553 0.26513535 0.25942928 0.0379211 0.099856846 0.18686946 0.03966802
0.056006327 0.062353086 0.0945043 0.24735759 0.116872355 0.20411997 0.086490236 0.06955832
0.0997601 0.15815316 0.096411556 0.11483874 0.051000573 0.16308506 0.12476303 0.18547015
0.20820203 0.084711865 0.08287892 0.29219565 0.114759535 0.12649134 0.19867586 0.13009179
0.12540802 0.11290928 0.097410664 0.08146609 0.10020668 0.13846713 0.29611343 0.12662907
00000000: a673 763e 27aa 403d 1a7c ef3d 5dad 933d
00000010: 3403 893d 7b57 503d 5744 323e dfd1 cd3d
00000020: fdbe 013e 03c2 1b3e 1e52 bc3d 5e50 703e
00000030: 9c53 633e f55a 033e c439 653d b844 673d
00000040: 5ef6 a93d 5bbf 033e 60b4 083e 6c40 953d
00000050: f50e 633e 2046 413e 6126 913d f874 823e
00000060: faf0 0c3e c21b be3e d2bf 873e ead3 843e
00000070: 2853 1b3d bf81 cc3d b55a 3f3e ef7a 223d
00000080: e466 653d f365 7f3d 788b c13d 4f4b 7d3e
00000090: c65a ef3d d304 513e cb21 b13d 9874 8e3d
000000a0: 064f cc3d e7f2 213e 6c73 c53d 9330 eb3d
000000b0: fae5 503d c5ff 263e c283 ff3d e3eb 3d3e
000000c0: ea32 553e 6a7d ad3d 6cbc a93d ab9a 953e
000000d0: 0c07 eb3d f286 013e af71 4b3e c836 053e
000000e0: f66a 003e fb3c e73d 3e7f c73d b2d7 a63d
000000f0: 2939 cd3d 54ca 0d3e 2e9c 973e 0dab 013e

classifier.7.weight f4 [16, 64]
-0.0847274 0.02587593 -0.00030635885 -0.01362167 0.012607066 -0.07952847 -0.016102735 -0.08127737
0.09714297 -0.043279678 0.031176325 0.08221112 -0.029530814 -0.04432955 -0.025658384 -0.07895021
-0.056006167 0.016415458 0.004078583 -0.090175 -0.002058614 -0.094153 -0.06342511 -0.111685306
0.02891829 0.03883632 0.09347292 0.16265026 0.07637287 -0.11821815 -0.023493204 -0.14315274
-0.0018203155 -0.07417794 -0.0054686335 -0.006764831 -0.20123452 -0.056138698 0.08647035 0.019524423
0.12695502 -0.12642802 0.037288904 0.11840795 0.13245781 -0.14953819 -0.0020936409 -0.09345507
0.09315614 0.018294506 -0.045463413 -0.0062706396 0.11165816 -0.108476765 0.03461422 -0.02731163
0.08603223 -0.0039487113 0.044279616 0.044495706 0.034578267 0.02604256 -0.07912275 0.083969146
0.06055227 0.08586524 -0.09201247 0.10406011 0.043989293 -0.08168282 -0.09215004 0.0032332295
-0.119017415 -0.121302694 -0.09685936 0.06858334 -0.06558011 0.026238315 -0.07179959 -0.086788945
-0.15536262 -0.12248407 0.049275745 -0.06438478 -0.113265075 0.00657412 -0.010322673 0.11741623
0.03761028 -0.15414716 -0.0328009 0.026785538 -0.032255366 -0.07093312 0.10529086 0.016526211
-0.1389593 -0.032516584 0.017662255 -0.05094657 0.047807466 0.090422854 0.16037317 0.02755307
-0.04401719 0.165653 0.05130185 -0.10627843 -0.006069317 0.06718118 0.08825952 -0.006455992
-0.055551432 -0.044157404 -0.050379407 -0.09285874 -0.040281508 -0.01603573 -0.20288445 -0.040009134
0.06046651 0.06614969 -0.1152234 -0.08997501 -0.04194017 0.062126048 0.11331756 0.047102693
0.10458679 -0.12733084 0.029825063 -0.014675683 -0.016504155 0.05592658 0.039194107 -0.123072766
0.08178729 0.092519365 0.09245109 -0.01013182 -0.08687096 -0.11871934 -0.046304382 0.032364417
0.23281997 -0.026386905 -0.062179517 0.05531901 0.027532717 0.03032478 -0.106510945 -0.022136979
-0.032787584 -0.0082215 0.077048875 0.01694151 0.1227457 0.06120176 -0.0379708 -0.13435131
-0.013864016 0.04260225 -0.007706402 -0.080471046 -0.14173558 -0.020311967 0.08723055 0.09747807
0.0038293405 -0.07859385 -0.09640717 -0.032852985 -0.028297517 -0.058759965 0.120203294 0.08976656
-0.016169826 0.061560154 0.007832517 0.059317667 -0.011242074 -0.054561343 -0.014408142 -0.034277532
0.006986777 0.0016225645 0.03452732 -0.041310098 -0.098457865 0.0012905307 -0.09339129 0.007754187
0.07589025 0.015305622 0.05554297 -0.06752762 -0.12190238 -0.043147065 -0.05945571 -0.02932818
0.023594892 -0.036130145 -0.06999472 -0.08697362 0.0007902806 0.043080434 0.0413593 0.046650063
0.14497134 0.08537743 -0.02619168 0.23012835 0.04454618 -0.11644796 0.01866789 -0.13941154
-0.11490807 0.12415404 -0.04603578 -0.011105455 -0.09351305 -0.0055003185 -0.03451097 -0.061940014
-0.016021954 -0.05582013 0.048355777 -0.10165752 0.12045301 0.006354131 -0.026350925 0.026102424
-0.03959447 0.08798121 0.06348706 -0.015674379 -0.033481803 -0.021833127 -0.12550656 -0.101457424
-0.0521333 0.08675189 0.007250609 0.063213065 0.037210748 0.050939873 -0.14607182 0.1057306
-0.035457607 -0.16061981 0.09063065 -0.11186868 -0.0033080662 0.07622821 0.086905 -0.07573819
00000000: 8f85 adbd c2f9 d33c ca9e a0b9 6d2d 5fbc
00000010: de8d 4e3c d3df a2bd e2e9 83bc c074 a6bd
00000020: e5f2 c63d 0846 31bd 7e65 ff3c 4e5e a83d
00000030: 9bea f1bc e792 35bd 8831 d2bc a6b0 a1bd
00000040: b966 65bd b679 863c a2a5 853b acad b8bd
00000050: d0e9 06bb 4ad3 c0bd 06e5 81bd 44bb e4bd
00000060: 0de6 ec3c d512 1f3d bb6e bf3d ca8d 263e
00000070: 6169 9c3d 5c1c f2bd d274 c0bc a296 12be
00000080: a797 eeba 9bea 97bd 3932 b3bb 84ab ddbb
00000090: 6c10 4ebe b1f1 65bd 5e17 b13d aff1 9f3c
000000a0: 7f00 023e 5976 01be 40bc 183d de7f f23d
000000b0: 05a3 073e 8a20 19be 7735 09bb 5f65 bfbd
000000c0: a5c8 be3d 5cde 953c d837 3abd f079 cdbb
000000d0: 09ad e43d 1129 debd a4c7 0d3d a4bc dfbc
000000e0: aa31 b03d 3164 81bb 8b5e 353d 2141 363d
000000f0: f1a1 0d3d 3557 d53c 1c0b a2bd 04f8 ab3d
00000100: a805 783d 1dda af3d 0971 bcbd 781d d53d
00000110: 1e2e 343d 5349 a7bd 29b9 bcbd 97e4 533b
00000120: 67bf f3bd 8c6d f8bd 335e c6bd 6c75 8c3d
00000130: dd4e 86bd bcf1 d63c aa0b 93bd 67be b1bd
00000140: 6117 1fbe eed8 fabd 5dd5 493d 2bdc 83bd
00000150: 85f7 e7bd b76b d73b 6e20 29bc ec77 f03d
00000160: 3d0d 1a3d c1d8 1dbe 3d5a 06bd 586d db3c
00000170: 341e 04bd 6245 91bd bca2 d73d fa61 873c
00000180: 594b 0ebe 1c30 05bd 6fb0 903c 5aad 50bd
00000190: c3d1 433d 9e2f b93d dd38 243e fab6 e13c
000001a0: 5e4b 34bd f1a0 293e e321 523d 81a8 d9bd
000001b0: 1fe1 c6bb 4996 893d 68c1 b43d c98c d3bb
000001c0: e689 63bd 65de 34bd a35a 4ebd b92c bebd
000001d0: 39fe 24bd 5d5d 83bc f1c0 4fbe 9ee0 23bd
000001e0: bbab 773d 7d79 873d 3ffa ebbd d144 b8bd
000001f0: 75c9 2bbd e277 7e3d 0913 e83d c1ee 403d
00000200: 9931 d63d 0463 02be b153 f43c 4772 70bc
00000210: b933 87bc 4513 653d 008a 203d 930d fcbd
00000220: 1880 a73d cb7a bd3d ff56 bd3d efff 25bc
00000230: 67e9 b1bd 2023 f3bd aaa9 3dbd 8d90 043d
00000240: 5c68 6e3e 5a29 d8bc f3af 7ebd 3096 623d
00000250: 4b8c e13c ac6b f83c 6922 dabd 9c58 b5bc
00000260: 464c 06bd 78b3 06bc cdcb 9d3d ecc8 8a3c
00000270: 1962 fb3d b2ae 7a3d 4587 1bbd 6493 09be
00000280: e625 63bc b27f 2e3d fc85 fcbb 01ce a4bd
00000290: 2223 11be 4865 a6bc eea5 b23d 95a2 c73d
000002a0: acf5 7a3b d0f5 a0bd 1f71 c5bd da90 06bd
000002b0: 32d0 e7bc 4aae 70bd 252d f63d 88d7 b73d
000002c0: 9576 84bc 8026 7c3d f553 003c 15f7 723d
000002d0: ad30 38bc b77b 5fbd 2110 6cbc 9966 0cbd
000002e0: 55f1 e43b 3bac d43a 856c 0d3d c734 29bd
000002f0: 47a4 c9bd 0627 a93a ef43 bfbd d616 fe3b
00000300: 596c 9b3d 6ec4 7a3c 0681 633d ec4b 8abd
00000310: f4a7 f9bd faba 30bd d587 73bd a741 f0bc
00000320: 134a c13c 34fd 13bd 6459 8fbd 3a1f b2bd
00000330: d52a 4f3a 1c75 303d 5f68 293d 2314 3f3d
00000340: 5e73 143e 5dda ae3d ef8f d6bc c4a6 6b3e
00000350: 0e76 363d 457c eebd 67ed 983c e6c1 0ebe
00000360: ec54 ebbd 7944 fe3d 0490 3cbd a8f3 35bc
00000370: c583 bfbd 043c b4bb 605b 0dbd d0b4 7dbd
00000380: 7940 83bc a6a3 64bd b510 463d d131 d0bd
00000390: 11b0 f63d 5036 d03b e5dd d7bc c0d4 d53c
000003a0: d02d 22bd 7e2f b43d 8105 823d 8e67 80bc
000003b0: 3724 09bd 63db b2bc cb84 00be e9c8 cfbd
000003c0: ba89 55bd faaa b13d 8496 ed3b da75 813d
000003d0: 4c6a 183d 54a6 503d da93 15be 4989 d83d
000003e0: ff3b 11bd 8579 24be 909c b93d 681b e5bd
000003f0: 24cc 58bb 891d 9c3d 40fb b13d a01c 9bbd

classifier.7.bias f4 [16]
-0.11916693 -0.17659695 0.14689668 -0.028130822 -0.005292653 0.012801468 0.017091116 -0.15707015
-0.015978945 -0.031618483 -0.09191076 0.08069475 -0.052488357 0.16525935 -0.11703288 -0.06633662
00000000: cb0d f4bd d5d5 34be 156c 163e 9c72 e6bc
00000010: fe6d adbb 40bd 513c ab02 8c3c ffd6 20be
00000020: 47e6 82bc 6282 01bd b53b bcbd 4a43 a53d
00000030: 08fe 56bd bf39 293e efae efbd 7edb 87bd

classifier.8.weight f4 [16]
1.3824416 1.4138378 1.3577272 1.3853543 1.3204442 1.3863326 1.403314 1.3553997
1.3348806 1.3438476 1.370968 1.4090372 1.3764179 1.3398129 1.357072 1.4141414
00000000: d9f3 b03f a3f8 b43f 01ca ad3f 4a53 b13f
00000010: 5104 a93f 5973 b13f cb9f b33f bd7d ad3f
00000020: 5edd aa3f 3303 ac3f e17b af3f 555b b43f
00000030: 762e b03f fd7e ab3f 89b4 ad3f 9602 b53f

classifier.8.bias f4 [16]
0.34204 0.36905593 0.35124472 0.37574244 0.3082529 0.3809267 0.3819764 0.3463228
0.327343 0.34116435 0.37797374 0.38099244 0.35742044 0.3309592 0.34983233 0.37661088
00000000: de1f af3e e6f4 bc3e 59d6 b33e 5061 c03e
00000010: 53d3 9d3e d308 c33e 6992 c33e 3951 b13e
00000020: 8099 a73e 18ad ae3e c685 c13e 7111 c33e
00000030: d0ff b63e 7c73 a93e 391d b33e 24d3 c03e

classifier.8.running_mean f4 [16]
-0.26130834 -0.5483441 0.09454157 -0.18769264 0.28048557 -0.13502721 -0.30310553 -0.27582115
0.17446022 -0.21872488 -0.0027124085 0.27051106 -0.30472735 0.37728775 -0.42073902 0.06698735
00000000: 35ca 85be 4760 0cbf 039f c13d 8032 40be
00000010: ce9b 8f3e 9344 0abe a630 9bbe 6e38 8dbe
00000020: b3a5 323e 6af9 5fbe aac2 31bb 6d80 8a3e
00000030: 3905 9cbe dc2b c13e 1b6b d7be aa30 893d

classifier.8.running_var f4 [16]
0.19458257 0.11647352 0.07862002 0.10691221 0.28161395 0.12019619 0.1174022 0.09473357
0.40639013 0.14440286 0.12049615 0.1682434 0.09381956 0.12725584 0.17247477 0.1423148
00000000: a740 473e ab89 ee3d 8803 a13d caf4 da3d
00000010: b42f 903e 6c29 f63d 9170 f03d ad03 c23d
00000020: 5e12 d03e 58de 133e afc6 f63d ff47 2c3e
00000030: 7824 c03d 5b4f 023e 3a9d 303e f9ba 113e

classifier.10.weight f4 [10, 16]
-0.26714095 0.44613108 -0.13587931 -0.051041424 -0.25794116 -0.2692389 -0.5560535 -0.20176595
-0.19085695 0.490077 0.4717657 -0.4398744 0.06657196 -0.4376686 0.49629366 -0.48298028
-0.119563766 -0.37304074 -0.25063545 -0.19301262 -0.239582 -0.5471706 -0.2970032 0.50930154
-0.17419964 0.50754505 -0.20508939 0.37268466 -0.33258265 -0.38106278 -0.48648396 -0.19116786
-0.13483776 0.3440496 -0.053159367 -0.4933089 -0.38778034 0.3497875 0.3712537 0.4371313
-0.18560383 0.17634515 -0.4157555 -0.57547057 0.14286219 0.57814777 -0.24753371 -0.45265716
-0.3525087 -0.34752473 -0.3295875 -0.16890818 -0.41351575 0.50219446 -0.39021403 -0.42394447
-0.27891263 -0.3792663 -0.28943208 0.4097996 0.52095246 -0.1224065 -0.033708468 -0.23089226
-0.16693845 -0.28368556 0.5100693 0.5142387 -0.1286128 0.46702114 0.36519295 -0.41918474
-0.47873086 0.27138555 -0.37886912 -0.47536883 -0.41047564 -0.20931344 -0.3895138 -0.26044673
0.27885437 0.0054085907 0.39489996 -0.30566153 0.48463067 -0.33532926 0.4349622 -0.41360772
0.279421 -0.16833131 -0.5459331 0.13357641 -0.50672734 0.20688549 -0.57521707 0.38458115
-0.506243 0.45422482 -0.2887682 0.53456163 -0.25135985 -0.3550489 0.47704482 -0.20900247
-0.23572004 -0.43879887 -0.10037084 -0.53273255 0.5484679 -0.282471 0.13206531 -0.20187941
-0.4212201 -0.20077772 -0.40544754 0.44865078 0.33572793 -0.19713926 -0.51592076 -0.09154476
0.4481869 -0.3892707 0.32746023 -0.45154002 -0.14739205 0.46254593 -0.43644357 0.08002526
0.5683959 -0.1739447 -0.338371 0.19191603 -0.4698004 -0.29920593 0.101865426 -0.18755753
-0.11906516 -0.2999184 -0.38150203 -0.18371145 -0.10787908 -0.19462053 0.56702554 0.5418758
0.3946382 -0.39855218 0.37951386 -0.37911212 0.32473496 -0.12956461 -0.34032464 0.47362655
0.3752534 -0.4616881 0.28401697 -0.3086227 -0.35389113 -0.31308323 0.16747658 -0.48306918
00000000: b3c6 88be 4b6b e43e f223 0bbe d010 51bd
00000010: dd10 84be aed9 89be 8659 0ebf bc9b 4ebe
00000020: 0170 43be 5feb fa3e 468b f13e 3837 e1be
00000030: e156 883d 1916 e0be 341a fe3e 3149 f7be
00000040: d9dd f4bd 32ff bebe 4a53 80be 1aa5 45be
00000050: fc54 75be 5f13 0cbf ce10 98be 9661 023f
00000060: 6461 32be 79ee 013f f402 52be 86d0 be3e
00000070: 4648 aabe a91a c3be 6d14 f9be 82c1 43be
00000080: e912 0abe 4527 b03e a3bd 59bd fc92 fcbe
00000090: 258b c6be 5917 b33e f714 be3e accf df3e
000000a0: ee0e 3ebe d393 343e e8dd d4be 0a52 13bf
000000b0: 774a 123e 7e01 143f 7a79 7dbe aec2 e7be
000000c0: 057c b4be c3ee b1be b1bf a8be 44f6 2cbe
000000d0: 56b8 d3be d18f 003f 22ca c7be 400f d9be
000000e0: a3cd 8ebe 312f c2be 7130 94be 41d1 d13e
000000f0: 245d 053f 42b0 fabd e411 0abd 056f 6cbe
00000100: eaf1 2abe 3c3f 91be e793 023f 26a5 033f
00000110: 13b3 03be 651d ef3e 92fa ba3e 629f d6be
00000120: 361c f5be 0cf3 8a3e 22fb c1be 8b63 f3be
00000130: dd29 d2be 4356 56be 5a6e c7be 4659 85be
00000140: 00c6 8e3e 8c3a b13b 5430 ca3e ab7f 9cbe
00000150: 8321 f83e 47b0 abbe 5eb3 de3e 64c4 d3be
00000160: 4510 8f3e 0b5f 2cbe 46c2 0bbf 41c8 083e
00000170: e2b8 01bf cad9 533e 6d41 13bf d2e7 c43e
00000180: 2499 01bf 2890 e83e 6dd9 93be 08d9 083f
00000190: 3db2 80be f8c8 b5be 383f f43e be04 56be
000001a0: 9860 71be 3faa e0be 3a8f cdbd 2961 08bf
000001b0: 6468 0c3f 0aa0 90be 213c 073e 7ab9 4ebe
000001c0: 29aa d7be ad98 4dbe d296 cfbe 8eb5 e53e
000001d0: 88e4 ab3e e0de 49be 6213 04bf d27b bbbd
000001e0: c178 e53e 7d4e c7be dea8 a73e 4130 e7be
000001f0: f1ed 16be d2d2 ec3e 8875 dfbe 49e4 a33d
00000200: 6582 113f 8f1e 32be f73e adbe a385 443e
00000210: ae89 f0be 8531 99be d29e d03d 150f 40be
00000220: 6fd8 f3bd e88e 99be 3c54 c3be db1e 3cbe
00000230: b5ef dcbd 9b4a 47be 9628 113f 5fb8 0a3f
00000240: 050e ca3e 080f ccbe a44f c23e fc1a c2be
00000250: a943 a63e 96ac 04be 083f aebe 2e7f f23e
00000260: 3721 c03e 6262 ecbe ac6a 913e cb03 9ebe
00000270: 3831 b5be 724c a0be fb7e 2b3e d854 f7be

classifier.10.bias f4 [10]
0.113432735 0.5221331 -0.01591989 0.34526092 0.31790775 -0.5335658 0.34529045 -0.042512562
-0.12286124 -0.2892394
00000000: 6c4f e83d 84aa 053f 6e6a 82bc 0ac6 b03e
00000010: cec4 a23e c597 08bf e9c9 b03e a721 2ebd
00000020: ac9e fbbd 3017 94be

exp_avg f4 [32, 784]
2.598439e-07 4.1356248e-08 -3.6314486e-07 -5.5071992e-05 -1.9536254e-05 -2.5977117e-05 -5.1523257e-05 -0.00012439703
1.8884655e-05 0.00026302758 -0.00017296488 -3.4266464e-05 0.00020407866 5.901505e-05 -3.561608e-05 0.00011874318
0.00013726755 3.2595573e-05 0.000111732035 -8.895425e-05 -0.00013645926 -2.0095817e-05 -4.5053457e-06 -1.2861032e-05
-4.932369e-05 -4.5648458e-06 1.0778975e-06 2.8669496e-07 1.2430361e-07 3.8703544e-07 -1.9428795e-05 -4.124519e-05
-1.760403e-05 -4.373986e-05 -1.160482e-05 9.79345e-05 -0.00029107576 4.387885e-05 0.00046570148 0.00046137322
0.00045935894 0.00040479715 -1.3535094e-05 0.0005470942 0.00014859602 0.00060531596 0.00034667528 1.1623406e-05
-0.0003560101 -8.95302e-05 -4.365599e-05 -4.6914705e-05 -6.299571e-05 -3.5888883e-05 -7.1221775e-06 1.2833162e-06
8.212419e-07 2.3596476e-06 -5.370114e-05 -6.244933e-05 -2.7488599e-05 -3.8481096e-05 -1.4504598e-05 8.01802e-05
-2.7317832e-05 0.00016969275 0.0006527015 0.0010419344 0.0011210811 0.0011316938 0.0009223561 0.00088352634
0.0007930471 0.0009218838 0.00056710857 -0.00013350877 -0.00042939087 -0.00010912551 -6.7816104e-06 -0.0001027807
-9.2608454e-05 -8.318136e-05 -1.39304475e-05 -1.9093525e-07 7.3279347e-07 -5.3076687e-06 -6.618757e-05 -4.89574e-05
-7.291804e-05 -0.00016213367 -2.481717e-05 -0.00017483502 -0.00017498068 0.00021771218 0.0008860301 0.0009852131
0.0012646177 0.0008569458 0.00056191214 0.0008914441 0.0010555265 0.00080693566 0.0008489152 -4.1696552e-05
-0.00031974408 -0.00020002267 9.8575865e-06 -2.7732498e-05 -7.464713e-05 -0.00011695205 -0.00012473081 -3.843639e-05
4.319683e-06 -8.167091e-06 -4.1524992e-05 -3.0207368e-05 -9.797043e-05 -7.8097255e-05 0.00027109287 0.000116230985
-0.00029158473 0.00060143805 0.0010967955 0.0008439555 0.0013544735 0.0010649564 0.0008500455 0.0006899638
0.0006469549 0.0010373844 0.00061608024 5.876997e-05 -0.0004915897 -0.0003324296 -0.00032547727 -0.00023171949
-0.00019728496 -0.00018705071 -0.0002706249 -6.493891e-05 6.3745915e-06 -7.947761e-06 6.494115e-07 -1.6015243e-05
-8.62321e-05 3.184453e-05 4.3475215e-05 -6.340162e-05 -0.0005090485 0.00078342075 0.0010951553 0.0010229952
0.0012596854 0.0007393492 0.00092203787 0.00056801597 0.00015208824 0.0005843055 0.0006789074 0.00024285165
-0.0008237998 -0.00062688463 -0.0006640693 -0.00041862976 -0.00039018888 -0.00029052058 -0.00032954535 -7.564673e-05
-2.342429e-06 4.895342e-05 -1.33254935e-05 -0.00010511885 -1.8147692e-05 0.0002252275 4.4427386e-05 -0.00021256869
-0.000603454 0.00065577886 0.00083197135 0.0008315197 0.0011726639 0.0008710147 0.0009305234 0.00072001654
0.00020899223 0.00017619076 -0.00044140822 -0.00015919728 -0.0010212312 -0.00078364665 -0.0010365961 -0.0004364364
-0.0006567963 -0.00030786457 -0.00027224355 -7.1066555e-05 -3.5754288e-06 2.8357887e-05 -6.327874e-05 -0.00010214666
0.000107927925 0.0003076773 -9.723257e-06 -0.00023740219 -0.00025204266 0.001044198 0.00093424576 0.0009186114
0.000746977 0.00041674718 0.00060840853 0.00079346524 0.0011197593 0.0006207495 -0.000518833 0.00020440784
-0.00073968776 -0.00075591996 -0.0007949048 -0.000293322 -0.0004989811 -0.00031110397 -0.00039404 -0.00012478729
2.795407e-06 -4.079921e-06 -4.0773073e-05 1.5836467e-05 -3.1869564e-05 0.00033185823 -9.069141e-05 -0.00021536853
-0.00079547055 0.00094521994 0.0008522429 0.0009958541 0.00070739473 0.0007494996 0.0005790358 0.00079215475
0.0010261537 0.000445121 0.00016366853 0.00042178298 -0.00064009987 -0.00062958436 -0.0006850812 -0.00013225159
-4.100856e-05 -0.00058124424 -0.0005566311 -0.00020424536 2.034222e-05 3.5795838e-05 -5.60501e-05 -1.2580519e-05
00000000: ac80 8b34 ad9f 3133 40f6 c2b4 1afd 66b8
00000010: c9e1 a3b7 6fe9 d9b7 ad1a 58b8 9370 02b9
00000020: 7d6a 9e37 f7e6 8939 e85d 35b9 56b9 0fb8
00000030: f3fd 5539 ed86 7738 7a62 15b8 c205 f938
00000040: 7aef 0f39 3bb7 0838 ae51 ea38 f38c bab8
00000050: 8116 0fb9 7093 a8b7 a02c 97b6 b6c5 57b7
00000060: e9e0 4eb8 ba2b 99b6 47ac 9035 0eeb 9934
00000070: 5178 0534 bfc9 cf34 05fb a2b7 affe 2cb8
00000080: 5eac 93b7 5175 37b8 53b2 42b7 2f62 cd38
00000090: 879b 98b9 8e0a 3838 6529 f439 77e4 f139
000000a0: 1dd6 f039 f43a d439 c914 63b7 df6a 0f3a
000000b0: 71d0 1b39 11ae 1e3a f8c1 b539 2602 4337
000000c0: dea6 bab9 29c2 bbb8 431b 37b8 48c6 44b8
000000d0: 901c 84b8 6587 16b8 0afb eeb6 693e ac35
000000e0: 5073 5c35 705a 1e36 293d 61b8 3bf7 82b8
000000f0: 5197 e6b7 c366 21b8 c658 73b7 6b26 a838
00000100: 9928 e5b7 8def 3139 0e1a 2b3a 8491 883a
00000110: 3df1 923a 5855 943a 45ca 713a 739c 673a
00000120: 7de4 4f3a 93aa 713a 03aa 143a 7dfe 0bb9
00000130: de1f e1b9 50da e4b8 978d e3b6 f88b d7b8
00000140: c936 c2b8 a771 aeb8 d1b6 69b7 e203 4db4
00000150: 2fb5 4435 8718 b2b6 2ece 8ab8 9c57 4db8
00000160: 93eb 98b8 6d02 2ab9 772e d0b7 eb53 37b9
00000170: 057b 37b9 ab49 6439 7944 683a 4422 813a
00000180: 87c1 a53a a9a4 603a 494d 133a cdaf 693a
00000190: 9859 8a3a 8988 533a bc89 5e3a 55e3 2eb8
000001a0: 53a3 a7b9 2dbd 51b9 0362 2537 16a3 e8b7
000001b0: df8b 9cb8 2744 f5b8 2cca 02b9 c236 21b8
000001c0: cbf1 9036 6405 09b7 1f2b 2eb8 d465 fdb7
000001d0: 7975 cdb8 25c8 a3b8 7821 8e39 09c1 f338
000001e0: d7df 98b9 d3a9 1d3a 5ac2 8f3a e53c 5d3a
000001f0: 9788 b13a 0296 8b3a 96d5 5e3a b0de 343a
00000200: 6998 293a d8f8 873a 7280 213a c67f 7638
00000210: 07de 00ba f249 aeb9 d2a4 aab9 baf9 72b9
00000220: 47de 4eb9 0b23 44b9 a9e2 8db9 d02f 88b8
00000230: 53e5 d536 6057 05b7 3853 2e35 7958 86b7
00000240: 82d7 b4b8 ce90 0538 2859 3638 7cf6 84b8
00000250: ab71 05ba 7a5e 4d3a 508b 8f3a 0616 863a
00000260: 071c a53a e3d0 413a eab4 713a e8e6 143a
00000270: e079 1f39 142c 193a b4f8 313a fea5 7e39
00000280: 45f4 57ba 8455 24ba f014 2eba 897b dbb9
00000290: 4492 ccb9 0351 98b9 d4c6 acb9 87a4 9eb8
000002a0: a032 1db6 5653 4d38 8f90 5fb7 4173 dcb8
000002b0: df3b 98b7 0c2b 6c39 8b57 3a38 f9e4 5eb9
000002c0: 1d31 1eba 93e8 2b3a a718 5a3a 58fa 593a
000002d0: 12b4 993a cf54 643a 5eee 733a 7ebf 3c3a
000002e0: ed24 5b39 d9bf 3839 cf6c e7b9 32ee 26b9
000002f0: d5da 85ba a36d 4dba 65de 87ba 81d1 e4b9
00000300: db2c 2cba e268 a1b9 e9bb 8eb9 9109 95b8
00000310: 66f1 6fb6 19e2 ed37 84b4 84b8 9237 d6b8
00000320: 5d57 e238 c04f a139 1221 23b7 2aef 78b9
00000330: 9824 84b9 79dd 883a 2ce8 743a f8ce 703a
00000340: c7d0 433a dc7e da39 9b7d 1f3a 8d00 503a
00000350: e3c4 923a cbb9 223a 4b02 08ba 5056 5639
00000360: 9be7 41ba ee28 46ba 2861 50ba 03c9 99b9
00000370: 0ece 02ba ab1b a3b9 2797 ceb9 55d9 02b9
00000380: ba98 3b36 41e6 88b6 c103 2bb8 8ed8 8437
00000390: afab 05b8 42fd ad39 9431 beb8 8dd4 61b9
000003a0: 2087 50ba a3c8 773a 0e69 5f3a 5287 823a
000003b0: 7570 393a 117a 443a 6fca 173a 9ba8 4f3a
000003c0: 0180 863a 215f e939 709e 2b39 c122 dd39
000003d0: 60cc 27ba b10a 25ba 0597 33ba 04ad 0ab9
000003e0: 9b00 2cb8 a45e 18ba e1ea 11ba b22a 56b9
000003f0: 96a4 aa37 7d23 1638 5617 6bb8 eb10 53b7

exp_avg_sq f4 [32, 784]
1.8259482e-12 1.6396253e-12 1.0729779e-10 1.2148784e-09 2.2967777e-09 2.7719966e-09 7.464342e-09 4.2693088e-08
1.9074795e-07 6.567226e-07 2.0935934e-06 2.3783757e-06 1.7468667e-06 1.4443423e-06 1.3160452e-06 1.5646576e-06
2.1086128e-06 2.476671e-06 1.5987154e-06 3.6350087e-07 1.0251644e-07 2.68892e-08 8.7099075e-09 6.703567e-09
1.1415715e-09 2.046367e-10 3.836905e-11 1.5584206e-12 1.8611031e-11 1.2715029e-10 7.5092993e-10 5.1604334e-09
5.4197518e-09 2.1647955e-08 1.11484646e-07 4.3627574e-07 1.2925268e-06 3.3842891e-06 6.5216072e-06 7.0249152e-06
7.1994255e-06 7.1622535e-06 6.777907e-06 6.9416005e-06 6.9162547e-06 6.8420104e-06 5.733935e-06 2.4368394e-06
7.964789e-07 3.0901376e-07 8.417727e-08 3.394509e-08 6.9302413e-09 2.0370752e-09 3.9645234e-10 7.6657e-11
1.8810469e-11 3.816147e-10 2.027035e-09 3.599708e-09 1.9077183e-08 1.00128624e-07 3.3389074e-07 7.0028307e-07
1.5378265e-06 3.3947351e-06 5.8505993e-06 6.145076e-06 6.1669143e-06 6.2514114e-06 6.0884886e-06 5.884462e-06
5.7780644e-06 6.138365e-06 5.1459037e-06 2.398401e-06 1.1437887e-06 6.1447025e-07 2.4668668e-07 6.562901e-08
1.7480492e-08 6.5600996e-09 1.8094849e-09 2.2794541e-10 5.129365e-11 9.907264e-10 3.904071e-09 1.0382464e-08
5.215871e-08 2.1897856e-07 4.4697694e-07 7.100029e-07 1.4660491e-06 3.6944841e-06 6.043449e-06 5.993477e-06
6.0969633e-06 5.8023543e-06 5.8603455e-06 5.7946927e-06 5.869932e-06 6.1018095e-06 5.188034e-06 2.345921e-06
1.0069404e-06 7.12113e-07 4.5363365e-07 1.4257743e-07 5.479255e-08 2.1031804e-08 9.117942e-09 1.6051778e-09
1.9829817e-10 2.473131e-09 3.4118603e-09 2.0789821e-08 9.9724154e-08 2.849274e-07 5.517587e-07 7.6577345e-07
1.6534829e-06 4.2240545e-06 6.3363614e-06 6.4039973e-06 6.5835898e-06 6.2480217e-06 6.4110695e-06 6.4294927e-06
6.2694116e-06 6.291136e-06 5.5367927e-06 2.8166432e-06 1.0870873e-06 8.333527e-07 6.873571e-07 3.5134158e-07
1.6947598e-07 9.03958e-08 6.0163615e-08 1.1479682e-08 6.733559e-10 4.6795705e-09 1.24857795e-08 4.5458272e-08
1.3795774e-07 3.5393225e-07 5.8533607e-07 8.3428864e-07 2.0188536e-06 4.756785e-06 6.463514e-06 6.392476e-06
6.9231833e-06 6.78029e-06 7.200148e-06 6.9142625e-06 6.458141e-06 6.2229487e-06 5.699668e-06 3.3976808e-06
1.3780699e-06 9.73992e-07 8.043373e-07 5.6054193e-07 3.7915808e-07 2.4811646e-07 1.378521e-07 1.3727776e-08
1.246868e-09 1.43624295e-08 1.9168036e-08 4.7421373e-08 1.7792792e-07 4.7558552e-07 6.2940245e-07 7.72539e-07
2.3548437e-06 5.298729e-06 6.576804e-06 6.5698728e-06 7.0334413e-06 6.9889493e-06 7.1975246e-06 6.9372963e-06
6.542329e-06 6.353142e-06 5.866329e-06 3.7173334e-06 1.8336385e-06 1.3198525e-06 1.143681e-06 9.4693314e-07
7.766909e-07 5.8241795e-07 2.413575e-07 1.9126153e-08 1.0732757e-09 1.4909022e-08 2.988834e-08 6.634705e-08
2.3379141e-07 5.155881e-07 7.494354e-07 8.746698e-07 2.457037e-06 5.177377e-06 6.656978e-06 7.030217e-06
7.2497996e-06 6.9600233e-06 6.5671e-06 6.9415446e-06 6.7361416e-06 6.950275e-06 6.3254233e-06 4.4838584e-06
2.8270576e-06 2.3552177e-06 2.0525117e-06 1.7270978e-06 1.4526028e-06 1.2660025e-06 6.27943e-07 7.0187674e-08
1.1718997e-09 1.4951366e-08 3.512965e-08 9.859574e-08 2.6079422e-07 5.320987e-07 7.8328173e-07 9.456494e-07
2.3693635e-06 5.0936246e-06 6.3785146e-06 6.9798543e-06 7.115846e-06 6.2488866e-06 5.064732e-06 6.2866975e-06
6.914051e-06 6.8188706e-06 6.341665e-06 5.6772624e-06 5.0620406e-06 4.68294e-06 4.218856e-06 4.0407394e-06
3.7632083e-06 3.19826e-06 1.2824269e-06 1.10908175e-07 1.2641729e-09 1.6545417e-08 4.407068e-08 1.3093333e-07
00000000: 5c7d 002c bac1 e62b 49f3 eb2e bcf8 a630
00000010: 57d5 1d31 7b7d 3e31 863c 0032 8c5d 3733
00000020: 66d0 4c34 a249 3035 a97f 0c36 2f9c 1f36
00000030: e275 ea35 39db c135 f8a2 b035 3a01 d235
00000040: b181 0d36 e234 2636 7193 d635 2e27 c334
00000050: 0227 dc33 faf9 e632 94a2 1532 3355 e631
00000060: 7ae5 9c30 1c00 612f b6bf 282e 0554 db2b
00000070: 51b4 a32d a0cd 0b2f ff69 4e30 a74f b131
00000080: a438 ba31 5bf4 b932 5569 ef33 4839 ea34
00000090: e27a ad35 a51d 6336 2ed4 da36 90b7 eb36
000000a0: 9892 f136 4a53 f036 c76d e336 e5eb e836
000000b0: 2d12 e836 6c94 e536 2066 c036 9588 2336
000000c0: 9dcd 5535 87e6 a534 f2c4 b433 05cb 1133
000000d0: 0c1f ee31 9bfc 0b31 b5f3 d92f 0e92 a82e
000000e0: 6975 a52d 7fcb d12f fa4b 0b31 bc5e 7731
000000f0: 2bdf a332 4b06 d733 9841 b334 16fb 3b35
00000100: 5167 ce35 1bd1 6336 4450 c436 cd31 ce36
00000110: 64ed ce36 37c3 d136 b84b cc36 2573 c536
00000120: 32e1 c136 27f8 cd36 faaa ac36 37f4 2036
00000130: 4884 9935 13f2 2435 5c70 8434 eeef 8c33
00000140: 0228 9632 3f67 e131 97b1 f830 eea0 7a2f
00000150: 8497 612e 162a 8830 9224 8631 8f5e 3232
00000160: 1c05 6033 5e20 6b34 0bf8 ef34 0797 3e35
00000170: 10c5 c435 c1ee 7736 d5c8 ca36 931b c936
00000180: 8494 cc36 d8b1 c236 fca3 c436 0870 c236
00000190: 55f6 c436 25be cc36 df14 ae36 9e6e 1d36
000001a0: 3526 8735 0828 3f35 ef8a f334 6317 1934
000001b0: 0c55 6b33 6da9 b432 22a5 1c32 2c9d dc30
000001c0: f907 5a2f c8f3 2931 1576 6a31 4d95 b232
000001d0: ef27 d633 20f8 9834 921c 1435 8d8f 4d35
000001e0: 3ded dd35 5abc 8d36 ee9c d436 ebe1 d636
000001f0: 9be8 dc36 19a6 d136 ab1e d736 ecbc d736
00000200: d65d d236 7218 d336 b0c8 b936 9005 3d36
00000210: 09e8 9135 90b3 5f35 d282 3835 05a0 bc34
00000220: 34f9 3534 9e1f c233 4c33 8133 2d38 4532
00000230: 3617 3930 f0c9 a031 0a81 5632 e63d 4333
00000240: 8921 1434 1404 be34 fd1f 1d35 e1f3 5f35
00000250: a47b 0736 799c 9f36 2ae1 d836 f37e d636
00000260: b14d e836 3f82 e336 cd98 f136 1001 e836
00000270: 02b3 d836 b9ce d036 c63f bf36 b603 6436
00000280: 1ff6 b835 1cba 8235 a3e9 5735 2678 1635
00000290: 178f cb34 de34 8534 7f04 1434 66d7 6b32
000002a0: 455e ab30 a2be 7632 f5a6 a432 5aac 4b33
000002b0: 740c 3f34 fa53 ff34 35f4 2835 7a60 4f35
000002c0: e807 1e36 bccb b136 51ae dc36 c772 dc36
000002d0: cd00 ec36 9e82 ea36 4482 f136 ecc6 e836
000002e0: 2e86 db36 132d d536 62d7 c436 4d77 7936
000002f0: 571b f635 c925 b135 9480 9935 c030 7e35
00000300: cb7d 5035 7557 1c35 ec93 8134 db4a a432
00000310: 8882 9330 4911 8032 945e 0033 ad7a 8e33
00000320: 1808 7b34 f266 0a35 cf2c 4935 daca 6a35
00000330: 93e3 2436 54b9 ad36 015f df36 1be5 eb36
00000340: 4e43 f336 258a e936 f65a dc36 6aeb e836
00000350: 0407 e236 6836 e936 f93e d436 0d74 9636
00000360: 7bb8 3d36 550e 1e36 e2bd 0936 a1ce e735
00000370: 0df7 c235 84eb a935 ea8f 2835 15ba 9633
00000380: 8e10 a130 676e 8032 75e1 1633 95bb d333
00000390: 4903 8c34 8bd5 0e35 b642 5235 88d8 7d35
000003a0: 5b01 1f36 e7e9 aa36 0607 d636 7e34 ea36
000003b0: a7c4 ee36 87ad d136 b7f1 a936 52f2 d236
000003c0: 3fff e736 a7cd e436 7dca d436 507f be36
000003d0: 99da a936 2622 9d36 b28f 8d36 b095 8736
000003e0: 6d8b 7c36 b0a1 5636 da1f ac35 6a2c ee33
000003f0: 21bf ad30 c21f 8e32 3a48 3d33 ae96 0c34
