lightning_logs/version_0/checkpoints/epoch=16-step=408.ckpt (torch, 369102 bytes, 48 tensors)

classifier.1.weight f4 [32, 784]
00000000: 6120 5e3c f47b fc3b 7a74 d3bc d012 69bd
00000010: 98cf a43d 5d94 ac3d 4223 ac3d 38fb 9b3d
00000020: ef13 3a3d 7d99 36bd bf51 b8bd b8ed e4b9
00000030: 4599 113d 5eac 9d3d 881b b83c 0074 873d
00000040: 0625 0a3d c14e b9bc 7edd 2c3d e7e5 513d
00000050: 2930 193e 935b e03d 30e6 8e3d 7442 d43d
00000060: ee85 b5bd 31ce 8b3b 0829 f13c 59d2 c1bb
00000070: ce25 9bbc e2d4 f93c 3ba8 e23c 9cd0 823c
00000080: 65d0 e83c 0d60 e43b 4e05 953d 5ba5 823b
00000090: 1d0a 64bd 606c 1abc d6e7 91bb 6894 ab3c
000000a0: cfbd e23b ecfc e43c 0b02 1d3d 2877 183d
000000b0: 5922 08bd c0d7 d7bc abdf 7cbd 39b0 04bd
000000c0: 006e 103c 11a5 313d 7f21 b4bc 9b1e 213c
000000d0: 5659 8abc 9354 2abd dc8c 5abc 14ff 80bd
000000e0: 21b6 103c 8564 f6bb f82d 953c e72b 413d
000000f0: 5881 3d3c 8ca6 26bc 9fb2 88bd 961a 53bd
00000100: d333 84bb a17a 733c fac8 633c 4598 7fbc
00000110: 75cf 01bd 2b69 913c b16b c73d 3b4d 543d
00000120: c923 00bd 38cc aebc 6535 9e3c b159 7f3b
00000130: 8d52 72bd 328e 3abd 0e94 99bc 1ac0 0dbd
00000140: e66c 69bd 022b 8abc e303 1c3d 339c 41bd
00000150: c810 c73c 4260 86bc 920c 97bc 70e9 57bc
00000160: 87a1 18bd a9b6 70bd abe6 70bd eeda f43b
00000170: 620c 703d f7c3 aa3b 87d5 4abc 659c 513c
00000180: b864 c2bb f307 7f3d 5947 933d 0e4f 5b3b
00000190: 3c15 9c3c 73f8 41bc dba1 c63c 2200 373d
000001a0: 1c19 5e3d a59a 11bd 43a9 83bd a868 17bc
000001b0: cf61 b43b 8598 9abc 2187 c9b8 b301 283c
000001c0: 171b 04bd 0f4c ae3c 1d3b 8c3c b347 4dbc
000001d0: 46ed 51bd 8b42 8abc ddef aebc 1326 babc
000001e0: 0062 b33c 225e e2bc 9b58 263d ecd6 363d
000001f0: 6ab6 163d f9bb 3f3b 01ac 163d 54a8 953c
00000200: 1707 873d 6f6c e6bb 3bd7 67bd 1390 b9bb
00000210: 679f 603c f3bb 753c 49d0 c93c 899a 80bd
00000220: 2dc6 c5bc 9642 02bd 8050 77bc 3b3b 1fbc
00000230: 9926 08bd d08c 1abd eb1a a7bc ed67 a9bc
00000240: 29d4 793c ec81 04bd fde4 0c3c de02 95bc
00000250: b7fe fbbc 7382 3a3d 4f3d 6abb 959a 3e3c
00000260: 8357 5b3d 2239 6b3d 2e7d 803c 6e7f f43c
00000270: b810 f139 be92 9e3c 6596 f73b 111a 663c
00000280: 1a4c 64bd fb8a 3bbd d176 3abd 9f20 1dbd
00000290: b5d6 16bd ccce 5d3c f882 47bd d5da 8bbc
000002a0: 7a12 e3bc a17c 50bd ce92 96bc e254 fa3c
000002b0: c39f 093c b1e5 febc 16fb d7bc 1e93 a9bc
000002c0: 296a 1dbd 0905 4c3c adbc 103c e07e 723d
000002d0: 931c 1c3d b632 0d3c 45c3 c23c a581 71bc
000002e0: 8c12 e23b 3f19 d93b 1771 293c 237f d63c
000002f0: 176a 5bbd 7822 d1bc c117 9ebb f99d 03bd
00000300: 726e 013c 06e5 e13a 3a7a 0ebd 9ed6 53bd
00000310: 895b a7bc 2093 23bd f011 c5bb fd33 f73c
00000320: 8876 6f3a fda3 97bc 8548 f8b9 f9a2 98bd
00000330: b0c4 26bd cad8 893c b700 403c f45a 57ba
00000340: 4f1f 5c3c ab97 4c3d ce87 813d 40d9 a93c
00000350: fc10 183d bc30 e6bc d829 cfbb 10a2 aebc
00000360: 3bd5 4bbd c0af 803c a23d b5bc 05d6 4e3c
00000370: a591 a13c 5543 d43c d5ef 59bc 3c4a 59bc
00000380: 45c6 8f3c caca 14bd edaa 1fbd 0f9c a1bc
00000390: ba9f 023d c82c d73b c3a4 b3bc 3877 aebb
000003a0: 8da2 163c 8ad2 173c 7001 a93c 0bbb a03c
000003b0: e89c 153c 3085 2d3b 02aa 513c c58e 183d
000003c0: 48a1 773b 6909 1dbc 8e20 a83c 5147 cbba
000003d0: e871 17bc 38ca e7bc fe1a cabc 4201 dd3c
000003e0: 857c a03b 04d6 c8bb c167 633d ead1 4ebc
000003f0: 43d6 a5bc 68b7 a7bc 9b56 2dbc 080e 833c
0.013557524 0.007705206 -0.025812376 -0.056902707 0.08047408 0.084267356 0.084051624 0.076162755
0.045429166 -0.04457997 -0.08999967 -0.00043664663 0.03554656 0.07698892 0.022474065 0.06613922
0.033726715 -0.02262056 0.04220342 0.051244643 0.14959778 0.109549664 0.069774985 0.103642374
-0.08863436 0.0042665233 0.02943851 -0.005914968 -0.018938925 0.030497018 0.02766811 0.015968613
0.028419683 0.006969458 0.072764024 0.003986997 -0.055673707 -0.009425253 -0.004452686 0.020944789
0.0069195996 0.027952634 0.038332026 0.03722301 -0.03323588 -0.026347995 -0.061736744 -0.03239462
0.008815289 0.04337031 -0.021988628 0.009833957 -0.016888302 -0.041584563 -0.013339248 -0.06298652
0.008832485 -0.007519307 0.018210396 0.04716101 0.0115664825 -0.010171544 -0.06674694 -0.051539026
-0.0040344982 0.01486078 0.013902897 -0.015600269 -0.031691987 0.017750343 0.097373374 0.051831465
-0.031284127 -0.021337613 0.01931257 0.0038963372 -0.059160758 -0.045545764 -0.018747356 -0.03460703
-0.05698862 -0.01686621 0.038089644 -0.047268104 0.024299994 -0.016403321 -0.018438611 -0.013178214
-0.03726342 -0.05876795 -0.058813732 0.0074723875 0.05860556 0.005211349 -0.01238001 0.012793635
-0.0059324168 0.06226344 0.07191343 0.0033463868 0.019053094 -0.01183902 0.0242471 0.04467786
0.054223165 -0.03554787 -0.064287685 -0.009241261 0.0055048238 -0.018871555 -9.6095966e-05 0.010254311
-0.032252397 0.021276502 0.017118031 -0.012529301 -0.051251672 -0.016877433 -0.02135461 -0.022723233
0.021897316 -0.027632777 0.040611845 0.04463856 0.036795057 0.0029256328 0.03678513 0.018268742
0.06593149 -0.0070319693 -0.056601744 -0.005662927 0.0137098795 0.014998424 0.02463545 -0.06279475
-0.02414235 -0.031801783 -0.015094876 -0.0097187115 -0.033239935 -0.037731946 -0.020398578 -0.020679438
0.015248337 -0.032350466 0.008599517 -0.018189844 -0.030761106 0.045534562 -0.003574211 0.011633535
0.053550255 0.057427533 0.01568469 0.02984592 0.00045979558 0.019357082 0.00755577 0.014044301
-0.05573664 -0.04578684 -0.04552347 -0.038361188 -0.036825854 0.013538074 -0.048708886 -0.01707212
-0.027718771 -0.050900105 -0.018380549 0.030558053 0.008399907 -0.031115385 -0.026364844 -0.020700034
-0.03843132 0.012452372 0.008834046 0.05920303 0.038113188 0.008618047 0.023774752 -0.014740382
0.0068991836 0.006625324 0.010341904 0.02618367 -0.053567972 -0.025529131 -0.004824609 -0.032133076
0.007899867 0.0017234392 -0.034784533 -0.051718347 -0.02042939 -0.03993523 -0.006014101 0.030176157
0.0009134789 -0.018510813 -0.00047356277 -0.074529596 -0.04071492 0.016827006 0.01171892 -0.0008215152
0.013435199 0.04994933 0.06324731 0.020733476 0.037125573 -0.02809941 -0.006322127 -0.021317512
-0.0497639 0.015708804 -0.022124115 0.012624268 0.019722769 0.025911013 -0.013301809 -0.013262328
0.017550597 -0.036326207 -0.038981367 -0.019727735 0.03189061 0.0065666176 -0.02192915 -0.0053242706
0.009194029 0.009266505 0.020630568 0.019620439 0.009131648 0.002647709 0.012796881 0.03724553
0.003778534 -0.009584763 0.020523336 -0.0015508925 -0.009243466 -0.028294668 -0.024671074 0.026978139
0.0048976564 -0.0061290283 0.05551887 -0.01262329 -0.02024377 -0.020473197 -0.01057973 0.015997902

classifier.1.bias f4 [32]
00000000: 42b7 62b9 5701 963a ae48 fbbc 0244 19bc
00000010: 9744 6b3c d36b 4cbc 375e f13c 26bb 0e3d
00000020: 01b8 84bc 82b9 833c 6708 d93c 0064 dbbc
00000030: 1693 ff3c 66d3 32ba 4e4a 12bb 0bf3 803c
00000040: 6d30 823c 6611 cc3c f2e5 dc3c 1508 aebc
00000050: f358 61bc 4ce8 d8bc 4b63 0abd b17b 80bc
00000060: ccd5 c5bc 110c 483c d07e 983c 7fc1 c5bc
00000070: d8cf 273c edec b6bb 2b65 f83b dec0 d2bc
-0.00021621308 0.0011444491 -0.030674305 -0.009354593 0.014359615 -0.012476879 0.02946387 0.034846447
-0.016201021 0.016079668 0.026493264 -0.026781082 0.031198066 -0.0006821662 -0.002232212 0.015740892
0.015892232 0.02491064 0.026965115 -0.021244088 -0.013754117 -0.026477955 -0.0337861 -0.01568398
-0.024149798 0.012209908 0.018615156 -0.024140118 0.010242425 -0.005582443 0.0075804195 -0.025726732

classifier.2.weight f4 [32]
00000000: 8246 823f 3c91 763f e650 7e3f 52c0 803f
00000010: 4b4f 853f 1345 7a3f 8335 823f 33c9 763f
00000020: f7f1 813f ea19 783f 7cb5 793f d8f3 733f
00000030: d460 743f 8171 873f ac1d 783f 6507 7d3f
00000040: ee57 843f 3461 803f 5d01 843f a230 703f
00000050: 2430 823f ea16 763f e1cb 7c3f 41d9 763f
00000060: 81a8 833f 84a3 803f 9478 863f 7e98 803f
00000070: 5db5 7f3f f686 7c3f c972 883f 7e0d 7b3f
1.0177767 0.9631536 0.9934219 1.0058692 1.0414823 0.9776165 1.017258 0.96400756
1.0151967 0.9691454 0.9754255 0.9529395 0.9546025 1.0581514 0.96920276 0.9883941
1.0339334 1.0029664 1.0312916 0.9382421 1.0170941 0.96128714 0.98748595 0.96425253
1.0285798 1.0049901 1.0505548 1.0046537 0.99886113 0.98643434 1.066003 0.9806746

classifier.2.bias f4 [32]
00000000: 51d8 a7bd 277d 4abd 87f0 4bbd 7140 4bbd
00000010: 32f6 00be 1298 69bd 462e 4dbc a128 91bd
00000020: aa7e 82bd 7904 eebd 6274 0dbe da1c b7bd
00000030: 03f5 8abd fb40 17bc 5e26 babd e11c f2bd
00000040: b076 acbd 4f11 fe3c 655f e13a 25b0 cdbc
00000050: 7ef1 fbbd 176e 77bd 65aa 6cbd e800 2ebd
00000060: 82ee bbbd 8b63 0bbd 1b37 bfbd 524c cebd
00000070: 657f 80bc 2bd2 b9bd f492 9abd 669e debd
-0.08195556 -0.04943576 -0.04978993 -0.049622003 -0.12593916 -0.05702979 -0.0125232395 -0.070878275
-0.063718155 -0.11621947 -0.13813928 -0.0894105 -0.067850135 -0.009231801 -0.09089349 -0.118219145
-0.08421075 0.031014113 0.0017194567 -0.025108406 -0.1230192 -0.060407724 -0.05777969 -0.042481333
-0.09176351 -0.03403048 -0.093366824 -0.10073151 -0.015685746 -0.090732895 -0.0754756 -0.10870056

classifier.2.running_mean f4 [32]
00000000: 6817 f23e 7eaf fcbf 82b7 2640 127b b83e
00000010: 3e19 3f40 a9f2 a3bf 00f6 393f 18b8 a63f
00000020: 82a5 fc3f 2fd8 4a3f 4d3c 1c40 6cde f83f
00000030: eb91 4540 db19 89be 541e 8540 745b 033f
00000040: 9438 39be bba2 5cbf 5c06 3e3f 8e0f f6bf
00000050: fc97 293e b387 b33f ebde af3e 5549 a93f
00000060: 7d98 fb3e 9a2c 25bf 689e 323f edb2 793f
00000070: 332a 893f 0285 3040 f581 e4bd 63fc 9b3f
0.47283483 -1.9741056 2.6049504 0.36031395 2.9859157 -1.2808429 0.7264099 1.3024931
1.9738009 0.7923612 2.4411805 1.9442878 3.0870311 -0.2677754 4.159952 0.5131142
-0.18087989 -0.86185807 0.74228454 -1.9223497 0.16561884 1.4025787 0.3434976 1.3225504
0.49139777 -0.6452118 0.6977296 0.97538644 1.0716003 2.7581182 -0.111576 1.2186397

classifier.2.running_var f4 [32]
00000000: 2b6a 3c3f 6eb8 0f3f 0b0c dc3f d496 893f
00000010: e2c4 653f d6a4 dc3f 5316 b63f 7087 473f
00000020: 59e5 563f adce 883f df83 fd3e 023a 993f
00000030: ddbf 803f 9a31 493f cd7a 9c3f 1768 a53f
00000040: 64a2 6e3f e0ee 0740 7cb6 583f 8eb5 e93f
00000050: 19ed 623f 91b8 a63f 0208 ce3f 4c58 2e3f
00000060: dbb8 b33f 6642 d73f 7981 4b3f a982 8a3f
00000070: 21bc ba3f 6e92 823f bfd8 733f 8ddf 813f
0.735995 0.5614079 1.7191175 1.0749154 0.89753544 1.7237804 1.4225563 0.77941036
0.83943707 1.0688072 0.49514672 1.1970828 1.0058552 0.7859131 1.2224976 1.2922391
0.9321654 2.1239548 0.8465345 1.8258531 0.8864303 1.3025075 1.6096194 0.6810348
1.4040788 1.6817138 0.79494435 1.0821124 1.4588662 1.0200937 0.95252603 1.0146347

classifier.4.weight f4 [64, 32]
00000000: f0f3 e7bd f551 0b3d cfb3 2b3e 9b00 c53b
00000010: 4092 453e 3084 a93d d9f8 193e 3d6a 3abd
00000020: 11d9 003c 9965 a2bd 8ea7 51be 76e3 223e
00000030: 812d 863b 3aa1 44bd b25b e1bd a7aa f73b
00000040: 09f1 253e 3560 443d 041f cfbd e066 af3d
00000050: 8785 9e3b bce0 e6bc 13fd 3b3e 48db c53c
00000060: 58ca 143e d42b d4bc 53e1 193e d9bf ff3d
00000070: 2777 be3d 120e e83c c4b1 133e 0a02 403e
00000080: 92ff fcbd 00db cbbd d335 f3bd d0da 54bd
00000090: 739f 293e 625d 47bd f021 d93c 8721 093e
000000a0: dd12 d33d 4c1a 273e fae7 eb3d 0e99 d43d
000000b0: 2870 36be fce4 0b3e 6c23 a43c 65db 4e3c
000000c0: 818c 79be 1faf d0b8 a1bd 183e cf68 e5bd
000000d0: 7444 b3bb 4573 fb3d 575f e2bc 11fc 4f3d
000000e0: 022b f0bd 9585 6d3d 6422 753c 8cf8 263e
000000f0: 3b16 5ebe 6712 9bbc 45d4 883d 0a7b 2c3d
00000100: 4425 f3bc 1704 37bc 5712 e73d 2c73 a03d
00000110: 7e3e 3bbe deaa 00bd 35c4 33be 5db9 bd3d
00000120: d1e7 02be e2d1 30bd 6c3c 853c 671f 1dbe
00000130: e369 57bd a0c9 40be 3b83 90bd 30fc 9e3c
00000140: 9f8b 343e 9999 6a3d 00c8 95bd 8543 53be
00000150: 8779 a33d 1900 fe3d 63ed e23d d8b1 e23d
00000160: 0976 fcbd 4d49 883d f6b3 cc3c f1e0 1a3e
00000170: f2c9 9b3d c141 88bd 110d b5bd d522 10bd
00000180: d550 f1bc 432e 40bc 50fe 843d 1b87 d43d
00000190: a3ec bc3d 2686 1e3d 46d1 fa3d 039a 59bd
000001a0: 0791 c7bd 44cf 3ebe 64a3 06be d836 f3bd
000001b0: c8cb 82bb 28a5 69be e8a2 243d c9d1 4e3d
000001c0: 8c3c e13c 259a cf3d 9bff 1cbd 72e6 f43c
000001d0: 0adb 483d 7565 813d 74af 7fbd 74d1 dbbd
000001e0: f74d d13d bcd9 0abe 06ba 4f3d b653 2a3e
000001f0: a3c7 443e 89fb 093e b17d 733c 38aa d93d
00000200: 477f ba3d ad0a 84bd 01b7 c23d e03b b4bd
00000210: 850a b53c f97f 8b3c 6127 4fbe 42df 323d
00000220: 957f 14bd a2aa 18be 6845 51bd a72d 303c
00000230: fa65 bcbd c6da 3ebe b6c9 79bd 2d88 de3d
00000240: af44 0cbe 5eee e7bc bf11 d6bd 956c d1bd
00000250: 4ba5 bf3c 8af6 2fbd f21a 5fbd e3f3 993d
00000260: 00fc 603d 85ff a3bd 8a27 8abc 752d 56be
00000270: 9f94 383c c0f4 8bbb 4885 1c3d 0872 513e
00000280: 4199 43be 5458 163d 0ca9 093e 1aa7 163d
00000290: 4ba9 923d c862 3cbe 1342 54be 2a67 8d3d
000002a0: 32b5 09be 18dd bebd 13d6 d93c f02e 033e
000002b0: 4c15 553c 47a7 40be c48c b8bd 8625 523d
000002c0: 2b21 623d 8cd7 26be 7fb8 ccbd ea66 133d
000002d0: 6a42 703b c031 1d3c af52 19be 1008 b0bd
000002e0: 2433 45bc 7d30 6ebe 9977 acbd fe52 53bd
000002f0: 803c e63c 768a c23d f8a6 e63d 9223 ac3d
00000300: 835e 4abd f616 5fbd 7504 f33d 413a c5bd
00000310: 14a1 c23d 91ee 03be f82a 87bd a4be 013e
00000320: fa0a 6fbd e303 3fbd b3e4 b33d 7d08 a0bd
00000330: 9522 843c 2dda 5abc 9ade 12be d954 f0bd
00000340: 3a27 d9bd a0a3 003d 4b71 05bd ba55 f23d
00000350: 7bfd 193d 37c4 dcbc 7dea bebd e8b9 683d
00000360: 461f 20be 17fd ed3c 940e 5c3d 5e2e 1bbe
00000370: 618d 14be ec27 e03d 23cc a33d 4f24 353e
00000380: b1d2 e7bd 30ad ddbd a874 d13d e669 0ebc
00000390: fea3 28be 4306 bdbd c0ca 04bb bc94 9f3c
000003a0: 9089 273e 999e cdbd 78eb 05bd 4e3d 0abe
000003b0: 1fdd 55bd cb68 08be 52a7 cdbc abcc 473d
000003c0: a77c ca3d 0ffa c8bc 1c7c 2cbe 20d6 613d
000003d0: a85a 79be 8d6b b23d 7699 a03d e276 143e
000003e0: f758 fdbc 0082 03be 205b ab3d 9fd8 413e
000003f0: 2490 973d 7b07 c73d 6639 c4bd 49ff ebbd
-0.11325824 0.034013707 0.1676781 0.006012035 0.19294071 0.08277166 0.15036334 -0.045511473
0.007864253 -0.079295345 -0.20474073 0.15907082 0.00409478 -0.04800532 -0.110038176 0.007558185
0.16205229 0.047943313 -0.10113338 0.08564544 0.004837695 -0.028183334 0.18358259 0.024152413
0.14530313 -0.025899805 0.1502736 0.12487764 0.0930007 0.028327022 0.14423281 0.18750778
-0.12353434 -0.0995388 -0.118755005 -0.05196649 0.16564731 -0.04867304 0.02650544 0.13391696
0.10306332 0.16318625 0.115188554 0.10380755 -0.17816222 0.1366157 0.020036422 0.01262555
-0.24370004 -9.950832e-05 0.14916088 -0.11201631 -0.0054708067 0.12277845 -0.027633352 0.0507775
-0.11726953 0.057988722 0.014961813 0.1630575 -0.21688168 -0.018929673 0.06681112 0.042109527
-0.029680856 -0.011170409 0.11282795 0.07834467 -0.18285558 -0.03141295 -0.17555316 0.09263871
-0.12783743 -0.04316891 0.016264163 -0.1534401 -0.052591216 -0.18826914 -0.0705628 0.019407362
0.17631386 0.05727539 -0.073135376 -0.20631225 0.07982164 0.124023624 0.11080434 0.11069077
-0.12327201 0.06654606 0.024988156 0.15124871 0.076068774 -0.066531666 -0.08840383 -0.03518947
-0.029457489 -0.01172978 0.06493819 0.10377332 0.09224822 0.038702153 0.12246947 -0.053125393
-0.09744459 -0.18633753 -0.13148266 -0.11875695 -0.003991578 -0.22816908 0.040194422 0.050493035
0.027494691 0.101368226 -0.038329702 0.029895041 0.049037017 0.063181795 -0.062423185 -0.107333094
0.10219949 -0.13559622 0.050714515 0.16633496 0.1921678 0.1347486 0.01486151 0.1062817
0.091063075 -0.06447349 0.095075615 -0.08800483 0.022099743 0.017028796 -0.20229866 0.043669946
-0.036254484 -0.14908841 -0.05109158 0.010753072 -0.09199138 -0.18638143 -0.060983382 0.10865817
-0.13698076 -0.028311905 -0.104526035 -0.102257885 0.023394248 -0.042959727 -0.054469056 0.07517221
0.054927826 -0.08007721 -0.016864557 -0.20915778 0.011265903 -0.00427112 0.038213044 0.20453656
-0.1910143 0.03670533 0.13443393 0.036780454 0.07161196 -0.18397057 -0.2072833 0.069044426
-0.13448027 -0.09319514 0.026591336 0.12810874 0.013005566 -0.18813811 -0.09011224 0.051305316
0.055207413 -0.16293162 -0.09996127 0.03598682 0.003666068 0.009594381 -0.14972948 -0.08595288
-0.012036119 -0.23260684 -0.08421249 -0.05159282 0.02810502 0.094990656 0.112623155 0.08405222
-0.04940654 -0.054465257 0.118660845 -0.09630252 0.095033795 -0.12883975 -0.065999925 0.1267038
-0.058360077 -0.046634566 0.08783855 -0.07814119 0.016129771 -0.013357681 -0.14342728 -0.117349334
-0.10603185 0.031406045 -0.032578748 0.11832757 0.037595253 -0.026949031 -0.09322069 0.05681792
-0.1563693 0.029051347 0.05372484 -0.15154406 -0.14507057 0.109451145 0.0799792 0.17689632
-0.11319483 -0.108240485 0.102273285 -0.00869224 -0.16468808 -0.0922971 -0.002026245 0.019480102
0.1636107 -0.10040016 -0.032695264 -0.13499948 -0.05221283 -0.13321225 -0.025104199 0.04877917
0.09887057 -0.0245333 -0.16844219 0.055135846 -0.24350989 0.0871192 0.0784177 0.14498475
-0.03092621 -0.1284256 0.0836699 0.1893029 0.074005395 0.09718224 -0.095812604 -0.11523301

classifier.4.bias f4 [64]
00000000: e9f1 1cbe daa6 21be 0dec 853d 95dc 153c
00000010: 3cde 1abe b414 00be 72c3 173e a9fc 233e
00000020: 2fcb 113e 1564 b9bc b994 593d b318 06be
00000030: e687 f2bd e5d8 e23d 4acb 2d3e 3010 b43d
00000040: 43d6 21be 1d0b 333e a4d1 d83d 5ef7 293e
00000050: 7efe debc 488e e2bb dba1 163e 306d 02be
00000060: d768 203e 0a05 a73d 1575 f4bc 3d03 ea3d
00000070: c893 173b e452 15be 2a0a d43d 135c d7bd
00000080: 4b88 2c3e 2450 ce3c a6f5 233c 5111 b8bd
00000090: cfa0 10be e43d 833d c59c e73d ed3b 85bd
000000a0: ffe2 153e 28b9 2c3e f3d7 313e eac3 7f3d
000000b0: 24fa 2a3e e39d d43c 2f51 6ebd 22aa 203e
000000c0: 6480 843d 3088 34be be34 313e 6ded f7bd
000000d0: 0707 f53d a260 1cbe 306e 78bd 385b 0abe
000000e0: c465 0f3e 6ca1 2cbe 7f2c 89bd 91ae cdbd
000000f0: 38f2 a9bd f913 213e f0f0 08be 2033 28be
-0.15326656 -0.15786305 0.06539164 0.009146829 -0.15123838 -0.12507898 0.1482065 0.16014351
0.14237665 -0.02263073 0.05312035 -0.1309536 -0.11842327 0.110765256 0.1697208 0.0879215
-0.1580439 0.17484708 0.10586861 0.1659827 -0.02722096 -0.006913934 0.1471018 -0.12736964
0.15664993 0.08155258 -0.029840985 0.11426399 0.0023128856 -0.14582402 0.10353501 -0.10515609
0.16848867 0.025184698 0.010007298 -0.08987678 -0.14123844 0.06408289 0.11309198 -0.065055706
0.14637373 0.16867507 0.17367534 0.062442698 0.16696984 0.025954193 -0.05818289 0.156899
0.06469801 -0.17630076 0.17305276 -0.12105832 0.11964231 -0.15271237 -0.060651958 -0.1351136
0.14003664 -0.16858453 -0.0669794 -0.100430615 -0.08298153 0.15730275 -0.1337316 -0.16425753

classifier.5.weight f4 [64]
00000000: 9b89 753f a903 813f 0ea1 7c3f 2130 813f
00000010: 7547 863f 6aac 873f d92e 833f 44db 7f3f
00000020: 9083 793f 6827 773f 108d 773f e2c6 7c3f
00000030: b004 813f 8732 853f 62d0 7f3f 1b3f 843f
00000040: 6e3b 7d3f f854 803f 5dc2 833f e05c 7f3f
00000050: e32e 7c3f bd14 8a3f 36e0 7b3f 79e3 7b3f
00000060: 462f 8a3f 0ced 6b3f 920f 823f 2276 823f
00000070: 2ea7 7b3f cef7 6f3f c711 783f b6d4 753f
00000080: f2ed 803f b1cf 853f c137 7b3f ce76 7a3f
00000090: d6be 813f f880 883f a60f 703f 6b3c 823f
000000a0: 576e 813f 9c7c 883f b4e0 883f 55fa 773f
000000b0: e4e7 783f 0408 833f b6fb 7c3f e85c 823f
000000c0: 75fc 773f 0134 7b3f 75b2 7a3f a40b 873f
000000d0: c837 773f 1748 803f cd74 793f 7b8a 7b3f
000000e0: 2381 7c3f 015e 793f b27f 783f e19a 803f
000000f0: 2e8c 803f 84a5 783f 0feb 7c3f f173 7b3f
0.95913094 1.0079242 0.9868325 1.0092813 1.0490557 1.0599492 1.0248672 0.9994395
0.97466373 0.96544504 0.9669962 0.9874097 1.0079556 1.0406045 0.9992734 1.0331758
0.9891881 1.002593 1.029369 0.9975109 0.98509043 1.0787579 0.98388994 0.9839397
1.0795677 0.9215858 1.0161002 1.0192301 0.9830197 0.93737495 0.96902126 0.96027696
1.0072615 1.0454007 0.9813195 0.9783753 1.0136364 1.0664358 0.9377388 1.0174688
1.0111798 1.0663028 1.0693574 0.9686635 0.97228837 1.0236821 0.9882158 1.0184603
0.96869594 0.98126227 0.97928554 1.0550427 0.9656949 1.0022 0.9744385 0.9825818
0.98634547 0.97409064 0.9706985 1.0047265 1.004278 0.97127557 0.9879617 0.9822379

classifier.5.bias f4 [64]
00000000: e792 473d 1d01 a13d 202f 9cbd cb20 b7bd
00000010: 17cc aebc 0431 cebc b929 953b e094 bebd
00000020: 4dde 67bd 0bd7 91bd f2d2 31bd 3db4 923c
00000030: 5d48 2cbd d437 583d 729d 0ebe 3fa2 db3c
00000040: 8046 663d 2e21 3a3d d82e cb3c 84b2 1f3d
00000050: 01a7 aabc bab8 9fbd ad98 29bd 6c68 c0bc
00000060: 1bd5 87bc ae9b b9bc 03ca 09bd 0eb7 973d
00000070: 220c 9f3c a0f4 c3bc 4ef7 443c 055f 84bd
00000080: 005a 92bb 28fd 13bd f87e 273d 693b 3cbc
00000090: 18fc 9bbd 003f b53d a183 ceba 7b33 323d
000000a0: a522 a03c 5005 89bd 4818 56bc f61b 9dbc
000000b0: 2d71 e0bd 36a2 ecbc d062 b1bc 4f95 803d
000000c0: 8820 d2bd 2d91 98bc e247 1e3d 5396 08bb
000000d0: 3b7d 0abc bef9 2ebd f3c9 043d 058d 17be
000000e0: d523 63bd bc91 42bd 791d 52bc 9b61 c73c
000000f0: 10d9 5bbd e9a9 e4bc 5699 993c b763 65bd
0.04872408 0.078615405 -0.07626176 -0.08941802 -0.021337552 -0.025169857 0.004552093 -0.093057394
-0.056608487 -0.07121094 -0.043414064 0.01790821 -0.0420612 0.052787617 -0.13927248 0.026810763
0.056219578 0.0454418 0.02480261 0.038988605 -0.020831587 -0.07798906 -0.04140537 -0.023487292
-0.016581109 -0.022657242 -0.03363992 0.07407962 0.019414965 -0.023920357 0.012021853 -0.06463436
-0.0044662952 -0.0361301 0.04089257 -0.011488774 -0.076164424 0.08849907 -0.0015755781 0.043506127
0.01954777 -0.066904664 -0.013067313 -0.019178372 -0.109590866 -0.028885942 -0.021653563 0.06278478
-0.10260111 -0.018623913 0.03864277 -0.0020841553 -0.008452709 -0.04271864 0.032419156 -0.14799888
-0.055454094 -0.047502264 -0.01282441 0.024338534 -0.053673804 -0.02791305 0.018749874 -0.0560033

classifier.5.running_mean f4 [64]
00000000: 9d71 cd3e db73 6cbd b10a aebd b5b5 213e
00000010: 78d0 06bf 210d 05bf 57ad cabc 8e0d 97bc
00000020: 2ca8 ec3e 31a1 05be d394 e23d c382 50be
00000030: 82a6 f7be d8b0 123c cdd1 5dbe 1728 69be
00000040: f0a7 9ebd df04 a93e 5e05 1c3d 7ac0 a03e
00000050: a2e4 aabe 76d0 a2be 1557 babd f695 8a3d
00000060: 2b55 25be 43f5 0c3e 3552 833d b951 80be
00000070: f4ca 46bd 34e6 70bd 737d edbd c6e7 80be
00000080: c1f7 243e c05e 85be ef27 b0be 8b24 cbbe
00000090: 1257 9dbe e2a7 5e3d ed0b 053d c565 a73d
000000a0: e248 e6be 21a5 d6bd f8e6 8bbd a180 93bd
000000b0: be20 fc3e 8a19 233c a61e 2ebf 7058 84be
000000c0: e15a 33bf 34f4 2bbe 8c5d 823d 9f1a 87be
000000d0: fb86 ddb9 8e5f 053d 7e31 56be 7919 b8be
000000e0: 61d6 313e de08 80be ad56 08bd beb8 0dbf
000000f0: 54a0 363e 792f 323d d960 3ebe 6f32 04be
0.40125743 -0.057727676 -0.08498133 0.15791972 -0.5266185 -0.5197316 -0.024740858 -0.01843908
0.46222055 -0.13049771 0.11063542 -0.20362382 -0.48369223 0.008953296 -0.21662064 -0.227692
-0.07746875 0.3301153 0.038091056 0.31396848 -0.33377558 -0.31799668 -0.09098641 0.06766884
-0.1614577 0.13765435 0.06412164 -0.2506235 -0.048533395 -0.05881329 -0.11596193 -0.2517683
0.16110136 -0.2604885 -0.34405467 -0.39676318 -0.30730492 0.054359324 0.032482076 0.08173708
-0.4497748 -0.104807146 -0.06831163 -0.072022684 0.4924373 0.009954819 -0.68015516 -0.25848722
-0.70060545 -0.16792375 0.06365499 -0.26387498 -0.00042252973 0.03256183 -0.20917317 -0.35956934
0.17366935 -0.25006765 -0.033285785 -0.5536002 0.17834598 0.043502305 -0.18591632 -0.12909864

classifier.5.running_var f4 [64]
00000000: 2f87 883e 7de8 5e3e 5743 ea3d 46da 843d
00000010: 130e 913d 6efc 003e 5610 243e eb40 113e
00000020: aa96 063e 3263 c13d bada 8c3d 7d10 283e
00000030: ea2e 9f3d 9ec5 6e3e 7e0c a53d a523 283e
00000040: 22c5 583e d377 ad3e dc80 053e 1313 fd3d
00000050: ceb8 7e3d aa6b 703d af04 8f3d 0174 b83d
00000060: 3c6d 2c3e 9c2d 133e 05db e63d caf0 663e
00000070: 336e 9b3d b2a3 6c3e 8236 ab3e 21d6 383e
00000080: f64f 0a3e d062 fb3d 4c4b e03d 46d6 a43d
00000090: 26e3 823d 602a c83d 7158 623d 64fc b33d
000000a0: 181d 8f3e 2fc2 603d 1315 893d 09da aa3d
000000b0: 9f92 433e 21fc 9f3d d973 073e 47fd 003e
000000c0: c518 963d fea0 123e 250a a03d 4d79 c93d
000000d0: 63b4 eb3d a756 3c3e 4546 5e3e 0b69 0c3e
000000e0: bfc3 a93d 568a 503d a63a 013e 2d97 703e
000000f0: 22fc 4a3d fa79 343e 079b be3d 9d7d 5c3e
0.26665637 0.21768375 0.11438625 0.06486945 0.070827626 0.12596294 0.16021857 0.1418492
0.13143411 0.09442748 0.06877656 0.1641254 0.0777262 0.23317572 0.08059023 0.16419847
0.2116895 0.3388048 0.13037437 0.12357154 0.062187962 0.058696426 0.06983315 0.09006501
0.16838545 0.14372867 0.112722434 0.22552791 0.07589378 0.2310932 0.33440024 0.18050434
0.13507065 0.12274706 0.10951862 0.08048682 0.063909814 0.097737074 0.055260126 0.08788374
0.27951884 0.054872688 0.06693473 0.08342368 0.190989 0.07811762 0.13227786 0.12596618
0.07328943 0.14319226 0.07814435 0.098375894 0.115090154 0.1839243 0.21706493 0.13711946
0.08289289 0.050913177 0.12620029 0.23495169 0.04955686 0.17624655 0.09306913 0.21532293

classifier.7.weight f4 [16, 64]
00000000: bfe2 d4bd 32b4 f7bd 0383 26bd bd10 dc3c
00000010: 190f 973d 7f89 8eba 7db5 0cbe 3e79 013e
00000020: cc35 8abd f38f bf3d 8827 2b3d d58a 4e3d
00000030: 44fc 22bd 4090 e03d 358f 3c3d 42fe ac3c
00000040: 6255 febc 6603 ba3d b211 1cbe 4de1 82bd
00000050: 9df4 b3bc 7e22 4fbc 3f99 1fbd 54ad 89bb
00000060: 0642 333d f3ca b7bb 3867 523a e6a5 163c
00000070: df96 be3d aae3 bcbd d2d1 07bd fab3 b63c
00000080: 1732 d7bc d56d 2c3c 0b71 89bb ced8 d0bc
00000090: ce8e 81bd d9e1 ae3b 38fb 583d f9e8 343d
000000a0: 7c8a 6b3c 8bb3 38be 4c93 5bbe 5962 d23d
000000b0: 7080 343d 20f6 e0bd 3f30 e03d 801e b53d
000000c0: da56 debd 41e8 93bd f3ae 92bd cd97 353c
000000d0: 5bec fabd 464d 2b3d 80fc 83b9 3744 a2bd
000000e0: cc5b eb3c 8552 d6bc 49d8 babd 77da 19bd
000000f0: 1a44 d8bd a2b6 d63d 091d 3c3d b64f 853c
00000100: 7908 b93d b01c b5ba 9a72 19ba 892e edbd
00000110: 8c63 f23d 3285 0fbc b227 653c 5559 c1bd
00000120: 6100 9fbd c7d5 b3bc b084 12bd 1f7c bdbd
00000130: 9b97 5bbc 1b04 f0bd ab99 08be 3966 3cbe
00000140: 3f18 1fbb b1e7 a5bd ce32 bf3d c03d e63d
00000150: 0f52 773d 5a64 bcbd 5e0a 963d a32b 703d
00000160: 5278 ca3c 1647 a73d 08ea 5fbd a50e 423d
00000170: 3241 243d 5a25 853c 44b1 adbd b276 ab3c
00000180: 8b4e 64bd 050f 083c 6149 a13c 0706 9c3d
00000190: 7eed 313d b5c3 ec3d 0571 513c 3786 ebbd
000001a0: c17a 013c fb95 a93d 806c e73d 8922 053c
000001b0: 2eaa ac3d 643d fd3d 49a9 7cbd 2bbd 4d3c
000001c0: e3dc 97bd 9b16 863d 9945 aa3d e29d ea3d
000001d0: 6c0c bc3d 187c a8bd f445 c6bc 4601 8bbd
000001e0: ff2c babc f97e 003e 6666 09bc 8ebb d1bd
000001f0: 07a7 4b3d 04c3 d4bd 5870 94bd ecf8 97bd
00000200: 7f5b 983d 971e 3d3b 07cc 613d 1b6a 5ebd
00000210: 2818 6fbd 39f8 f6ba 2d8b 483d 1c93 c13c
00000220: e2d7 603c ea13 e33d 6759 1c3c 2c07 b43d
00000230: 1156 d73d 3e58 6abd 8040 14bd 2bcf 2b3d
00000240: c632 0d3d fc79 12bc 4897 443d 3c5a edbc
00000250: 1ea9 223d 50fd eb3b 6b12 c03d 2d8c f6bc
00000260: 2195 98bd 362f 98bd b159 003e f130 3abd
00000270: 0cef 833c a6b2 9f3d 3661 0abd f5cd 94bb
00000280: 75d3 963c 85f4 ddbc 8b07 373b ce6b 20bd
00000290: b012 2d3c 63f7 35bc a1c0 82bd 8829 6dbd
000002a0: 71cb 1b3d 7f8d b7bc a2cd 06be b8d4 eb3d
000002b0: 1387 f2bd a691 28bc a7a1 19be 3fba 103e
000002c0: b62b a0bd 319b fdbd e2b1 083d 58a4 2cbe
000002d0: b8fa 893b 2f17 d7bd 44aa 54bd 184e df3b
000002e0: 0965 67bc ab64 8dbd 5ff2 6bbd b85c bb3c
000002f0: 2327 33be ba5e 903b 0b81 ba3c ea23 a23d
00000300: 68bd 75bc c7eb fc3d b91d dabd 1f30 bcbd
00000310: 9157 b6bd db1c 77bd 31bf a6bd d444 8fbd
00000320: e695 713d b6e1 95bd 2bc6 76bd 380b b73d
00000330: eeb4 b8bd 1123 6dbd 98ea c0bd 0076 173d
00000340: 930a c43d 1d6e c33d 38d2 debc efd0 b8bd
00000350: 7c07 aabd e1b4 ddbd 4297 e0bd ce8c 71bd
00000360: d072 b83a 1bb1 efbc 5b10 ed3d ed0d c6bd
00000370: 2b0f c0bd 167b 19bd 3049 563d 7f75 593d
00000380: 5466 f8bd 1509 8fbc 7b7d 013d 87c2 94bd
00000390: 4e9f 70bd 78c7 79bd 73e6 473d 2091 293d
000003a0: 2f4a 77bd c5a1 f63c 255c c0bc 97fe aebd
000003b0: 0528 8b3d 242c 133d 8812 f8bc f245 f63d
000003c0: aabd 373c 33c1 00bc ac5f c1bd 903e 6a3d
000003d0: 4bcb f4bc 9f84 5d3d 4bcc 67bd 4394 893d
000003e0: ebc3 003c 906f 9d3d a851 ba3b 832b 6cbd
000003f0: bc04 6e3d 7b58 3a3d e0d2 25be 1d64 69bc
-0.10394811 -0.120949164 -0.040652286 0.02686345 0.073759265 -0.0010874717 -0.13741107 0.12643906
-0.06748542 0.09353628 0.041785747 0.05042537 -0.03979136 0.109650135 0.04603501 0.021117333
-0.031046573 0.090826795 -0.15241125 -0.06390629 -0.021967227 -0.012642501 -0.038964506 -0.0042015705
0.043764137 -0.00560891 0.0008026245 0.009194827 0.0930612 -0.09223111 -0.033159085 0.022302616
-0.026269002 0.010524233 -0.004194384 -0.025494006 -0.06326066 0.0053369817 0.052973956 0.044167493
0.014376279 -0.1803724 -0.21442908 0.102726646 0.0440678 -0.109844446 0.10946702 0.08843708
-0.10856409 -0.07222033 -0.07162275 0.011083555 -0.122521125 0.04182174 -0.00025174394 -0.07923167
0.028730296 -0.026162395 -0.09123284 -0.03756186 -0.10559864 0.10484053 0.045926128 0.01627336
0.09034819 -0.0013817754 -0.0005853564 -0.115811415 0.11835393 -0.008759784 0.013986515 -0.09440867
-0.07763744 -0.021952523 -0.035771072 -0.0925219 -0.013402845 -0.11719533 -0.1333987 -0.1839837
-0.0024275926 -0.08100832 0.09335862 0.11242247 0.06038099 -0.09198828 0.07326196 0.058635365
0.024715576 0.081678554 -0.05466655 0.047377247 0.040101238 0.016253162 -0.08481076 0.020930622
-0.055738967 0.008304362 0.01968831 0.07618337 0.04343938 0.11560766 0.012783294 -0.11500209
0.007902802 0.0828056 0.112999916 0.00812591 0.08430897 0.12365225 -0.06168488 0.012557308
-0.07415178 0.065472804 0.08314056 0.11455895 0.09182057 -0.08226794 -0.024203278 -0.06787352
-0.022726534 0.12548436 -0.00838623 -0.10240851 0.049719837 -0.10388759 -0.0724799 -0.07420525
0.074393265 0.0028857344 0.055126216 -0.05430041 -0.058372647 -0.0018842287 0.048960853 0.023629718
0.0137233455 0.11087783 0.0095428 0.087904304 0.10514463 -0.05721306 -0.036194324 0.041945618
0.03447225 -0.008940216 0.047995836 -0.028973691 0.039712064 0.007201828 0.09378513 -0.030096138
-0.07450319 -0.0743088 0.12534215 -0.04545683 0.016105197 0.07797746 -0.033784114 -0.0045411536
0.018411377 -0.027094135 0.002792808 -0.03916531 0.0105635375 -0.011106345 -0.06384397 -0.057900935
0.038035814 -0.022406338 -0.1316438 0.11515182 -0.118421696 -0.010288632 -0.15003072 0.14133547
-0.07820837 -0.12383116 0.033372767 -0.16859567 0.004210796 -0.10502469 -0.05192019 0.0068147294
-0.01412321 -0.069039665 -0.05760419 0.02287136 -0.17495398 0.0044058235 0.02276661 0.07917006
-0.014998771 0.123496585 -0.106502004 -0.09188866 -0.08903421 -0.060330253 -0.081419356 -0.0699555
0.058980845 -0.073184416 -0.06024758 0.08937687 -0.090188846 -0.05789477 -0.09419745 0.036977768
0.09572329 0.09542487 -0.02719985 -0.09024226 -0.08302209 -0.108255155 -0.1096635 -0.058972172
0.0014072303 -0.029259255 0.11575385 -0.09670625 -0.09377893 -0.0374709 0.05231589 0.05309057
-0.121288925 -0.017460385 0.031613808 -0.07263666 -0.058745675 -0.060981244 0.048803758 0.041398168
-0.06037348 0.030106435 -0.023481438 -0.08544653 0.067947425 0.035930768 -0.030282274 0.1202506
0.011214653 -0.007858562 -0.09442076 0.05718857 -0.029882094 0.054081555 -0.056591313 0.06717732
0.0078592105 0.076872945 0.0056860037 -0.057658684 0.058109984 0.045494538 -0.16193724 -0.01424506

classifier.7.bias f4 [16]
00000000: 2062 a53c b022 953d 00bc d2bb edd6 e5bd
00000010: 0e75 cc3c 01d4 bebd 370f d0bc 5bc2 14bd
00000020: 9859 d5bd 1029 00be 1abd 8c3c 540f 88bd
00000030: 1e4b 00bd f4e6 44bd c0ca a6bd 41dd 943c
0.020188391 0.07282007 -0.0064311028 -0.112226345 0.02495816 -0.0931778 -0.02539788 -0.036318164
-0.10417479 -0.12515664 0.017180014 -0.066435486 -0.031321637 -0.048071817 -0.0814414 0.018171908

classifier.8.weight f4 [16]
00000000: 4f55 a63f ebad a93f ab6b a93f 97c9 a33f
00000010: 2dcc a13f 4918 aa3f 5f9d a73f 46a7 ac3f
00000020: c619 a43f cf6d a73f cc69 a63f 23b3 a73f
00000030: 2e99 aa3f 83f1 a53f 32c1 ac3f 8cf9 a53f
1.2994784 1.32562 1.3235983 1.2795895 1.2640435 1.3288661 1.3094901 1.3488548
1.2820365 1.3080386 1.3001037 1.3101543 1.3327997 1.2964329 1.3496459 1.2966781

classifier.8.bias f4 [16]
00000000: 3f5e 943e 221a ac3e c51a 953e 617c 933e
00000010: 2ba2 853e 68b3 b23e 3e30 8c3e 7d18 a93e
00000020: c797 8b3e 8284 9b3e e336 8a3e fe1d a83e
00000030: f38e a43e eb45 843e 175c 973e df3b a83e
0.28978154 0.33613688 0.29121986 0.2880583 0.26100287 0.349025 0.27380556 0.33026496
0.27264234 0.30374533 0.26995 0.32835382 0.32140312 0.25834593 0.29562446 0.32858178

classifier.8.running_mean f4 [16]
00000000: 9793 8fbe 2112 d03d 4ded 4cbe ee08 06bf
00000010: c97d 8cbe b263 c0bd 60d8 33bc 688a 89be
00000020: 732e afbe c92b 80be 82e7 fdbd b56a 99be
00000030: 063b a13d ab53 94be 678c a4bc c561 2bbe
-0.2804229 0.10159708 -0.20012398 -0.52357376 -0.27439716 -0.09394015 -0.010976881 -0.26863408
-0.34215125 -0.25033405 -0.12397672 -0.29964224 0.07872586 -0.28970084 -0.02008648 -0.16736515

classifier.8.running_var f4 [16]
00000000: 1d44 043e d06e b43d 0026 2f3e fc38 d33e
00000010: 1270 673e b9e8 1b3e 7a0b b03d b541 023e
00000020: bed6 483e 7e5c db3d 8a84 353e fc0f 753e
00000030: 9c09 3a3e 3195 273e 30e8 a93d 8759 e43d
0.12916608 0.08810198 0.1710434 0.41254413 0.22601345 0.15225495 0.08595939 0.12720378
0.19613168 0.10711001 0.17726341 0.23931879 0.18167728 0.16365506 0.082962394 0.111498885

classifier.10.weight f4 [10, 16]
00000000: 3d14 c9bd 2337 ae3e 9850 cbbd 320f c2be
00000010: 150c 0ebe 825c d6be ba9c 47be b8ab 59bd
00000020: 20b4 0bbe 35a7 d13e e7df efbe c784 09bf
00000030: 02c3 e73e 6841 d3be 49a6 dbbe e119 4dbe
00000040: 146e c33e 64b9 8ebe 92b9 e3bd 4bbd 1cbe
00000050: 665d c93e d33e 86be 90e3 59be 5474 0bbe
00000060: 1297 e83e 32f8 f2be f29a a5be c917 9dbe
00000070: 8929 90be 977c df3e ad0b efbd 1e3e dbbe
00000080: 69f5 f0bc d8c0 01bf 2b1c e6be 2141 c0be
00000090: 3477 d4be 6717 193e dae2 d4be bc34 f43e
000000a0: c348 ebbe 5a24 c6be 3d9f 3dbe 7fcf b23e
000000b0: aa9d 053f 611e b9bd ba67 8ebd 4a6d 7dbe
000000c0: 9c9c c03e 6eb2 e8be 39cd b1be 2099 a4be
000000d0: 0b62 fb3e 0607 a3be ee38 df3e e176 ddbe
000000e0: c0b4 f6be d68d 2cbd 81ff 9bbe 69dc 2cbe
000000f0: 361d cbbd 7555 efbe eb5d acbe 4222 1b3e
00000100: 8bb0 093f dad1 cebe 616b e73d 2187 c4be
00000110: b78c 38be 3f5c 9dbe 4896 d3be 3db7 ea3e
00000120: 3ec7 18be 6cae 0ebe 973d c6be f009 d8be
00000130: a7c8 72be c793 b6be bd0a e33e ec3e e7be
00000140: c66b 8ebe 2b2b 7a3e a9cd 44be c6c6 8b3e
00000150: f0da 7fbe 8f8a a93e 902d b43e 559a c2be
00000160: 613b 9e3e e4de e6be cdd3 c6be 6422 b03e
00000170: 9ebe 8ebe 2a8c f03b 1c4c e0be 4687 0abf
00000180: 823b 96be a658 f53c 138f 08be 79bb 24be
00000190: e242 a5be 9ddf e0be c4f5 57be 0cf8 89be
000001a0: 0df9 c4be 87bc 1bbe 2ac9 d0bd 76e4 8bbe
000001b0: 6ab2 d23e 6ff5 2bbe 4256 183f 68dc 8f3e
000001c0: 1a0f d6be 5f8d fcbe 8b80 55bd de7b 843e
000001d0: 147e aabe fad2 ebbe 45cd a8be 07f9 9ebe
000001e0: cc0e e63e 0940 d63e 254c bc3e 6039 193e
000001f0: 5e6f 92be b4b7 6fbe 68b5 a8bd 1f41 a7be
00000200: ad67 49be f5d9 e6be a342 e53e 2f1d c7be
00000210: c169 75bd ea3a a03e 6654 c9be e3ae 1dbe
00000220: 7d13 82be 2163 49be b528 e53e 03a7 49be
00000230: c9bb 92bd c991 023e 723d 913b e9cd c73e
00000240: d494 cdbe a0a3 a5be 27dc e43e be5c ed3e
00000250: 27d2 a8be 7b0a dabe b9e5 18be 5abf 973e
00000260: 4d4f 36be 3922 77be 24d3 e8be 00cc ad3e
00000270: 625c ecbe 27b6 21be 406c bcbe a4ae b23e
-0.09818313 0.3402644 -0.099274814 -0.37902218 -0.13871796 -0.41867453 -0.1949338 -0.05314228
-0.13642931 0.4094788 -0.4685051 -0.5371823 0.45265967 -0.41260839 -0.42900303 -0.20029403
0.3816992 -0.27875817 -0.11119379 -0.15306585 0.3932907 -0.26219806 -0.21278214 -0.13618594
0.45427758 -0.47454983 -0.32344776 -0.3068221 -0.2815669 0.43649742 -0.11672149 -0.4282083
-0.029413896 -0.5068488 -0.44943365 -0.3754969 -0.41497195 0.14950334 -0.41579324 0.47696483
-0.4595395 -0.3869961 -0.18517776 0.34923932 0.521937 -0.090389974 -0.06953378 -0.24748722
0.37619483 -0.4544863 -0.34726885 -0.32148075 0.49098238 -0.31841296 0.4359812 -0.4325476
-0.48184776 -0.042127453 -0.30468372 -0.16880955 -0.09917681 -0.46744886 -0.33665404 0.15149787
0.5378501 -0.4039448 0.11299778 -0.38384345 -0.18022428 -0.3073444 -0.41325593 0.45842925
-0.14919755 -0.13933724 -0.38718864 -0.42195082 -0.23709355 -0.3565962 0.4434413 -0.45165193
-0.278166 0.2443053 -0.19219078 0.2730009 -0.24985862 0.33113524 0.3519101 -0.3800837
0.30904678 -0.45091927 -0.38833466 0.34401238 -0.27879804 0.0073409276 -0.43808067 -0.5411266
-0.29342276 0.029949497 -0.13335828 -0.1608714 -0.3227759 -0.43920603 -0.21089846 -0.26947057
-0.3847126 -0.15208636 -0.10194619 -0.2732274 0.41151744 -0.16792844 0.5950662 0.28097844
-0.41808397 -0.49326608 -0.05212454 0.25875753 -0.33299315 -0.460594 -0.32969108 -0.31049368
0.44933164 0.4184573 0.36776844 0.14963293 -0.2860059 -0.23409921 -0.082377255 -0.3266687
-0.19668455 -0.45088163 0.44777402 -0.38889453 -0.059915308 0.31294948 -0.39322203 -0.15398745
-0.25405493 -0.19666721 0.4475762 -0.19692616 -0.071647234 0.12750925 0.0044323737 0.39024284
-0.4015261 -0.32351398 0.44699213 0.4635982 -0.32972834 -0.4258612 -0.14931382 0.29638177
-0.17803688 -0.24134149 -0.45473588 0.33944702 -0.46164232 -0.15792142 -0.36801338 0.34898865

classifier.10.bias f4 [10]
00000000: 481f 903e 9c44 b2be 8eb6 a03e e48f 603e
00000010: ad2b 993e 26b8 ff3b 7fba d83e 018e 00bc
00000020: 45ce 9fbe d91d 7ebe
0.28148866 -0.3481797 0.31389278 0.2192989 0.29916134 0.0078039346 0.42329785 -0.007846356
-0.3121206 -0.24816073

exp_avg f4 [32, 784]
00000000: 7176 7b31 c936 c4b4 ce77 5636 969c e0b6
00000010: 7608 d0b8 c6b5 a7b8 2e90 18b8 e39b 2838
00000020: a902 36b9 ad1d cd39 855f 653a 249b 97ba
00000030: dd9f caba c708 38ba 4152 48ba 51b2 a0ba
00000040: 589a 77ba 169b 5db9 7eee 8a39 21e6 9f38
00000050: cdf5 19b9 ba3e 77b8 41ff b1b8 5efd abb8
00000060: e4a3 ff37 d168 3336 0f3e 65b5 4da9 bc33
00000070: 2d77 d035 6cf8 4635 c893 8236 510e 89b7
00000080: 8675 b0b8 ade2 8138 40cd 44b8 e255 e339
00000090: be74 73b9 d287 a1b8 9335 0c3a 8bd3 eb3a
000000a0: 56ac ba39 cce3 21b9 efca 7fb9 c857 1139
000000b0: 8cff b83a dbae c93a 0920 cc39 a988 b73a
000000c0: cc08 a8b8 06c9 deb8 c730 cab6 1b09 4cb7
000000d0: 056b 8b38 1a1c 0138 8c51 7436 b9c3 6c36
000000e0: c113 e034 f620 0534 1194 c836 1876 97b7
000000f0: 09c5 3738 98ca 0439 9c48 433a 895f 633a
00000100: 1c70 0b3a a567 ad3a cb39 543a 954d 133b
00000110: 7493 f43a 99b7 75b9 b917 fdb9 3c11 913a
00000120: 7e78 2a3b f4ea 913a 4c50 e73a abb5 073b
00000130: d2c8 873a 56a2 4d39 a106 4eb9 446a f8b8
00000140: ec9a b638 7348 9337 34af 23b7 f555 7836
00000150: 3b96 4e36 bba2 9036 c1bc 2838 78ea e938
00000160: 8cc5 a639 7632 3939 a4a4 4b3a fe02 343a
00000170: a86c bc3a 25a6 0c3b 483d f23a 27de 363b
00000180: f5d5 3a3b 81e7 133b b218 033b 5d59 ec3a
00000190: 1106 fd3a b2f0 293b 1d5e 293b 09b4 cb3a
000001a0: 09a0 c03a 152c 3e3a d0c0 d0b9 8069 37b9
000001b0: 7760 9838 c195 7537 c446 3cb7 500e 3936
000001c0: e434 8a36 c23a 5f36 f802 0138 b34e d439
000001d0: 2b8c d739 f657 e637 19c1 503a b8b1 133b
000001e0: 6f96 593b 169d 263b 3296 cd3a 4b2f f33a
000001f0: 0a95 ed3a adca 1c3b ffc3 3f3b 5964 033b
00000200: 59b1 b23a 62fe f33a c15a 3e3b bf55 373b
00000210: 34e0 133b 896b 1f3b f13c 03b8 ff28 49b9
00000220: 8a20 cfb8 68c3 a1b7 f502 9038 bab4 e137
00000230: 4c44 fb36 77de 3f35 005e b736 a17c 8039
00000240: 4b39 2d39 9b4f 123a 2942 053b 088d 403b
00000250: 02d5 293b 4bc3 173b 4151 ae3a 13d0 863a
00000260: 6923 123b 7d7a e33a 04d4 273b d7b2 153b
00000270: 5035 b83a 799a bd3a 4314 073b 8fa3 2d3b
00000280: ce48 243b 6b0e 5f3b 9b7d 703a 548e 9cb9
00000290: 6035 bdb7 1068 50b6 0173 e238 8bec 3938
000002a0: 1992 8a36 af7c 4e36 249f c6b6 6ba0 52b8
000002b0: a5c1 f938 d156 9d3a 0033 023b c685 293b
000002c0: 2b80 163b 06b8 113b 3f3a 813a bcee 4a3a
000002d0: 29d3 c13a d395 9a3a f9c2 ea3a 0131 de3a
000002e0: 6c84 de3a 5e5e 023b 180d 243b 4cbd 203b
000002f0: 51fd f03a 8db3 4f3b 0a10 143b 4e60 e3b9
00000300: e7ec 1cb8 40e8 e1b8 9e79 8eb7 694b 2f38
00000310: 0206 95b6 2f77 c837 d6cc 0c37 3118 df37
00000320: 3ab4 1738 26d1 a43a 9010 0e3b 3b4d 453b
00000330: 0b38 133b 8450 123b 0614 043b 1496 b63a
00000340: ee2d 8c3a 9d6c da3a f313 093b 5d05 c13a
00000350: e415 d13a 84bf a13a 9416 023b 4105 1e3b
00000360: 3754 073b 9901 433b cdf1 293b 875a 74b9
00000370: 82db 2fb9 4d1b 84b9 9c2d ceb8 d4f1 b238
00000380: 2149 5936 aec7 6738 fda9 84b8 96b2 f0b7
00000390: af97 7c39 7b34 ab3a 25ef 1d3b b44e 433b
000003a0: 3d5f 273b 5b3f e93a 3134 dd3a 7b3c bd3a
000003b0: ff3d cc3a 8bcf ed3a af63 063b 3bbe f83a
000003c0: e401 d63a edfe 963a 7b00 7d3a 412f e53a
000003d0: a678 0a3b a2fc 203b 9624 4e3b ab5b 2a37
000003e0: dc5e b7b9 7e74 e0b9 9a6f ebb9 a189 7938
000003f0: 9b74 9837 c074 f636 bd1f d3b8 018b 1bb8
3.6592633e-09 -3.6547706e-07 3.195822e-06 -6.693949e-06 -9.919789e-05 -7.9970385e-05 -3.6373902e-05 4.0199502e-05
-0.00017357864 0.00039122757 0.000874989 -0.0011566621 -0.001545902 -0.0007020351 -0.00076416513 -0.0012260174
-0.0009445301 -0.00021133976 0.00026499102 7.624576e-05 -0.00014682785 -5.8947808e-05 -8.4875624e-05 -8.201109e-05
3.0474686e-05 2.673409e-06 -8.5399455e-07 8.785228e-08 1.5531892e-06 7.412225e-07 3.891506e-06 -1.633834e-05
-8.4142244e-05 6.193421e-05 -4.6921195e-05 0.00043360802 -0.00023217776 -7.702377e-05 0.00053485594 0.0017992122
0.00035605085 -0.00015439017 -0.00024394294 0.00013860979 0.0014114245 0.0015387194 0.0003893378 0.001400252
-8.012503e-05 -0.000106232284 -6.0257476e-06 -1.2161468e-05 6.6479704e-05 3.078217e-05 3.64063e-06 3.5280666e-06
4.1737624e-07 1.2398581e-07 5.9777017e-06 -1.8055594e-05 4.3814103e-05 0.00012663973 0.00074494793 0.00086735986
0.0005319135 0.0013229741 0.000809577 0.0022476662 0.0018659667 -0.00023433416 -0.00048273595 0.0011067758
0.002601176 0.0011132644 0.0017647832 0.0020707648 0.0010359532 0.00019610798 -0.0001964816 -0.00011845355
8.707293e-05 1.7557502e-05 -9.75635e-06 3.7004913e-06 3.0783838e-06 4.3104787e-06 4.0230112e-05 0.00011153979
0.0003180917 0.00017661773 0.0007768369 0.0006866901 0.0014375644 0.0021461335 0.0018481398 0.002790341
0.0028508876 0.0022568407 0.0020003733 0.0018032003 0.0019304176 0.002593082 0.002584345 0.0015541326
0.0014696132 0.00072544935 -0.00039816508 -0.00017491542 7.265893e-05 1.4638005e-05 -1.122215e-05 2.757548e-06
4.1188778e-06 3.326379e-06 3.075876e-05 0.00040494427 0.0004111243 2.7459097e-05 0.0007963344 0.0022536349
0.0033201238 0.002542322 0.001568502 0.0018553523 0.0018126082 0.0023924515 0.002926111 0.0020048826
0.0013633176 0.0018615241 0.0029045793 0.0027974693 0.0022564055 0.002432557 -3.128959e-05 -0.00019184126
-9.87659e-05 -1.9283689e-05 6.867006e-05 2.6906248e-05 7.4883337e-06 7.1476774e-07 5.464768e-06 0.00024506918
0.00016519909 0.000558132 0.0020333624 0.0029380936 0.0025914316 0.0023157175 0.0013299362 0.00102854
0.0022298938 0.001735523 0.002560855 0.0022842193 0.0014053974 0.0014465592 0.0020611442 0.0026495194
0.002506781 0.0034035693 0.000917399 -0.0002986068 -2.255541e-05 -3.1054988e-06 0.00010797941 4.4327735e-05
4.1297285e-06 3.0768967e-06 -5.9193862e-06 -5.0217302e-05 0.00011909314 0.0012004023 0.0019866824 0.0025867089
0.0022964578 0.002223493 0.0009859278 0.00077412627 0.0014787662 0.0011793919 0.001791089 0.001695186
0.0016976721 0.0019892673 0.0025032219 0.0024526892 0.0018386041 0.0031692714 0.0022592568 -0.00043368567
-3.741393e-05 -0.00010772096 -1.6984352e-05 4.1793483e-05 -4.4412454e-06 2.3897357e-05 8.392342e-06 2.6594937e-05
3.6169055e-05 0.0012574538 0.0021677352 0.0030105847 0.0022463824 0.0022325823 0.0020153536 0.0013930225
0.001069484 0.0016664449 0.0020916432 0.001472633 0.0015951958 0.0012340401 0.0019849883 0.0024112018
0.0020649561 0.002975559 0.0025931478 -0.00023303377 -0.00016771074 -0.00025197343 -9.831341e-05 8.5327454e-05
3.2378086e-06 5.5260658e-05 -6.325913e-05 -2.869339e-05 0.000240891 0.0013061905 0.002409884 0.002980155
0.0025538944 0.0017795371 0.0016876516 0.001443758 0.0015582441 0.0018143518 0.0020506193 0.0018977592
0.0016327468 0.0011520066 0.00096512557 0.0017485396 0.002112904 0.0024564643 0.0031454912 1.0154133e-05
-0.00034975156 -0.00042811403 -0.00044905843 5.9494403e-05 1.817411e-05 7.344963e-06 -0.00010067176 -3.7084337e-05

exp_avg_sq f4 [32, 784]
00000000: ea81 692b de02 932c b670 a02e df89 f530
00000010: e3f0 7333 14d9 7533 91cc 0534 0328 6634
00000020: e0c8 f334 1976 8935 e4d5 3536 1f06 9036
00000030: 0fbe b936 3f1d cd36 9daa d136 b25d c536
00000040: b1cd 9e36 e550 7836 eb0a 0b36 770e 5935
00000050: 9e76 b734 ec1b 1434 4f83 8133 b202 1b33
00000060: 42d4 a631 e90e 2830 0ec1 e22d 8ad2 992d
00000070: ac76 dd2c b51b 112e 4490 5930 2de0 cd32
00000080: 120c d333 5619 4834 a603 1a35 ec7d a935
00000090: 1fea 6836 7b63 f836 f420 2537 1e59 0c37
000000a0: 0027 0037 cec9 fc36 1f3a ff36 bc8a 0537
000000b0: 3660 1437 f180 2737 a938 1437 8f2d a336
000000c0: a21a fe35 4f5f 4b35 0682 7934 34fe c733
000000d0: 3977 a432 b3ac e331 23d1 da30 1516 e82f
000000e0: b13d e82d 5c29 372f 5265 e430 cb2c e932
000000f0: c7b5 0234 cec3 d734 4713 f335 86bf b336
00000100: eae6 1437 0a76 3537 3bbd 1b37 61e6 1937
00000110: e37f 1137 46c9 e336 7885 ea36 0b33 0437
00000120: 46f5 2137 63f0 1937 eae4 1b37 f894 1f37
00000130: e419 d736 c599 4636 5b86 3d35 fcc1 2d34
00000140: d4a8 1a33 4d62 4332 e5b0 5031 e72c 942f
00000150: 8f6d 802e cf0e 8d30 e332 6831 3222 3b33
00000160: 176b 6d34 89be b435 1de1 dd36 596f 4537
00000170: cb05 4c37 7e9b 3437 927d 2b37 fc87 3037
00000180: dd95 2437 e79a 1037 ea72 0537 de13 1b37
00000190: d25d 2c37 2a50 3837 5de2 2637 c643 3337
000001a0: ba16 5037 9b77 1137 af48 4036 1730 bc34
000001b0: 496a b333 1c9b b032 5694 9b31 585f 1630
000001c0: 8342 f22e d159 bf30 5e60 7932 6adb b433
000001d0: 3cb3 e634 8999 7636 d11c 5737 0dff 8937
000001e0: c20a 8037 83af 4e37 e04b 2f37 acf6 2b37
000001f0: 953b 3437 a01e 2437 7cb8 1237 446f 2c37
00000200: e32c 2a37 2632 3437 6699 3a37 5a34 5b37
00000210: ecca 8537 db8a 7537 e975 f636 d4f5 7035
00000220: f9a3 1934 3851 4133 2105 3532 4b4a ac30
00000230: 7519 a12f 5965 4731 7b4c 1333 8065 e133
00000240: 0d73 8935 a8d8 ea36 db52 9037 195a 9537
00000250: c615 7937 7925 4637 5b37 3437 fc94 2237
00000260: a3f5 2b37 d5aa 1a37 223d 1537 0800 2f37
00000270: 277f 3137 7cba 2a37 f16d 3937 cc1f 5c37
00000280: d506 8537 a4aa 9937 d8a6 4437 cc2f 2536
00000290: fadf af34 3b13 e633 70ea 0333 040e 6331
000002a0: b8bc 4931 33e3 2a32 acd0 6333 135d 4434
000002b0: c432 f135 10c3 2437 bc86 9e37 534c 8e37
000002c0: 47a5 7337 f6c0 3b37 53ce 2c37 7501 2137
000002d0: ddc9 2337 c94d 1437 34e1 0c37 3344 2437
000002e0: 12aa 1f37 c7b6 1b37 13a6 3437 6d01 5237
000002f0: c4a9 7937 2fe9 9637 f6a1 6737 669f 9336
00000300: 56d8 2435 4ef0 7d34 5368 a433 e4c1 e231
00000310: d795 2f31 6ed2 8b32 ca70 b733 d1d9 9d34
00000320: 5fb8 3636 e3a6 5037 96d3 a637 52ba 8b37
00000330: 816a 6a37 7e3f 3b37 6acd 2f37 031a 1f37
00000340: 05bc 1b37 29ce 1137 72fc 0437 f289 1a37
00000350: 4201 1a37 dd27 1c37 2c59 2a37 9084 5337
00000360: 5a16 6d37 0a57 9237 de75 8537 3b0f c736
00000370: 5196 8235 941b da34 18f2 0134 1529 1f32
00000380: 2297 f530 9c57 dc32 1273 d333 be8e ee34
00000390: 74aa 8236 edad 7537 0e34 a937 2dca 8b37
000003a0: c44f 6537 a333 3e37 d025 2c37 20c5 1637
000003b0: 3381 1937 c267 1037 f412 0937 70da 1a37
000003c0: 20ff 0937 9a00 0f37 edeb 3337 545c 5337
000003d0: 9d80 6537 407a 8d37 18f1 8c37 5f00 0537
000003e0: 7b3d bc35 a0ff 2535 8135 7934 dfcb ac32
000003f0: 22a9 8e31 32a0 1233 3d72 f533 70ac 1e35
8.295852e-13 4.1783096e-12 7.295979e-11 1.7865281e-09 5.679693e-08 5.724094e-08 1.2461011e-07 2.1434975e-07
4.5408433e-07 1.0241666e-06 2.7095602e-06 4.292247e-06 5.5355554e-06 6.112881e-06 6.2485474e-06 5.881965e-06
4.7327126e-06 3.7001967e-06 2.071897e-06 8.085985e-07 3.4172712e-07 1.3793732e-07 6.0309155e-08 3.60912e-08
4.8553668e-09 6.113923e-10 2.5778959e-11 1.7487584e-11 6.294373e-12 3.299379e-11 7.9149154e-10 2.3967084e-08
9.827649e-08 1.8635669e-07 5.737478e-07 1.2628129e-06 3.470697e-06 7.402557e-06 9.842439e-06 8.3653995e-06
7.638475e-06 7.5336784e-06 7.6063584e-06 7.959719e-06 8.843888e-06 9.983997e-06 8.83468e-06 4.8630823e-06
1.8932226e-06 7.5762085e-07 2.3237234e-07 9.312899e-08 1.9146329e-08 6.626203e-09 1.5921028e-09 4.2216244e-10
2.6402743e-11 1.6658447e-10 1.661798e-09 2.714514e-08 1.2173324e-07 4.0189337e-07 1.8110521e-06 5.356912e-06
8.875251e-06 1.0815924e-05 9.282779e-06 9.17315e-06 8.672449e-06 6.7885585e-06 6.9892812e-06 7.8796975e-06
9.653455e-06 9.17548e-06 9.292018e-06 9.511823e-06 6.4105134e-06 2.9593805e-06 7.06035e-07 1.6182452e-07
3.6009467e-08 1.1372845e-08 3.0368537e-09 2.6952948e-10 5.8402276e-11 1.0263309e-09 3.378937e-09 4.357043e-08
2.2111304e-07 1.3466498e-06 6.61252e-06 1.176804e-05 1.2160696e-05 1.0765039e-05 1.0221631e-05 1.0522079e-05
9.8100545e-06 8.619135e-06 7.954173e-06 9.243346e-06 1.0273843e-05 1.0985919e-05 9.947075e-06 1.0685011e-05
1.2403058e-05 8.670521e-06 2.8652537e-06 3.505272e-07 8.35467e-08 2.0559632e-08 4.5279576e-09 5.4705174e-10
1.1016701e-10 1.3922606e-09 1.4515619e-08 8.4218144e-08 4.297125e-07 3.6746226e-06 1.2821708e-05 1.645044e-05
1.5263799e-05 1.2319421e-05 1.0448479e-05 1.0249827e-05 1.0742709e-05 9.782292e-06 8.745232e-06 1.0277905e-05
1.0143241e-05 1.0740512e-05 1.112218e-05 1.3065606e-05 1.5949328e-05 1.4635468e-05 7.345098e-06 8.9764694e-07
1.4308888e-07 4.5010182e-08 1.0536753e-08 1.2535762e-09 2.9303818e-10 2.901592e-09 3.4295663e-08 1.0495842e-07
1.024078e-06 6.9989655e-06 1.720472e-05 1.780414e-05 1.4846626e-05 1.1810444e-05 1.07417245e-05 9.690641e-06
1.0249586e-05 9.21889e-06 8.895326e-06 1.043082e-05 1.0579627e-05 1.0176209e-05 1.1052457e-05 1.3120425e-05
1.5858017e-05 1.8318482e-05 1.1721357e-05 2.4614737e-06 3.2759255e-07 1.07137076e-07 3.0714034e-08 3.3040815e-09
2.9356624e-09 9.9469615e-09 5.3042342e-08 1.8287783e-07 1.7970674e-06 9.820578e-06 1.8897808e-05 1.696326e-05
1.452241e-05 1.1190996e-05 1.03000375e-05 9.596687e-06 9.762557e-06 8.839598e-06 8.3970845e-06 9.791041e-06
9.516736e-06 9.281276e-06 1.0767503e-05 1.2517307e-05 1.4881083e-05 1.7989978e-05 1.3806382e-05 4.399498e-06
6.140957e-07 2.3649883e-07 7.6558216e-08 6.5995085e-09 2.5551026e-09 1.6277422e-08 8.542118e-08 2.940201e-07
2.7227431e-06 1.24366225e-05 1.988727e-05 1.6656853e-05 1.3972284e-05 1.11608515e-05 1.04786395e-05 9.483195e-06
9.282497e-06 8.690674e-06 7.92659e-06 9.211233e-06 9.179408e-06 9.307606e-06 1.0153552e-05 1.2607445e-05
1.4131505e-05 1.7445087e-05 1.5909722e-05 5.932435e-06 9.729503e-07 4.062573e-07 1.2102134e-07 9.264359e-09
1.7869051e-09 2.5651211e-08 9.846384e-08 4.4434813e-07 3.8941453e-06 1.4643633e-05 2.017061e-05 1.6664237e-05
1.36680355e-05 1.1336905e-05 1.0260803e-05 8.9865935e-06 9.149592e-06 8.607227e-06 8.170249e-06 9.229974e-06
8.225237e-06 8.523604e-06 1.0724162e-05 1.2598077e-05 1.3679409e-05 1.6865437e-05 1.6801569e-05 7.927504e-06
1.4024985e-06 6.1839273e-07 2.3209397e-07 2.0116145e-08 4.151972e-09 3.413897e-08 1.14294814e-07 5.9110516e-07
