lightning_logs/version_0/checkpoints/epoch=18-step=456.ckpt (torch, 369102 bytes, 48 tensors)

classifier.1.weight f4 [32, 784]
000000 a3 44 62 3c a8 e4 a9 3c 57 e9 12 bd da d4 61 bd
       0.01381031 0.020738915 -0.03586706 -0.05513463
000010 f4 98 b4 3d 86 5a b9 3d 65 f6 a8 3d 68 44 8d 3d
       0.08818236 0.09050469 0.08250121 0.06897813
000020 3b 97 3b 3d 87 a9 3f bd 89 67 b3 bd fe 1e ad 3b
       0.04579852 -0.046792533 -0.08759982 0.0052832356
000030 a7 b6 1c 3d 3b 1a a3 3d 73 4b d6 3c f6 a5 8c 3d
       0.03826013 0.079639874 0.026159024 0.06867592
000040 57 70 15 3d fa a6 7f bc 26 00 51 3d 45 05 7f 3d
       0.03648409 -0.015603775 0.051025532 0.062260885
000050 d7 95 20 3e 32 58 e6 3d 78 52 97 3d 8a 41 ec 3d
       0.1568216 0.11247291 0.073887765 0.11535938
000060 cb b2 c9 bd a0 2a 6b 3b 80 d9 0d 3d 29 1b 94 bb
       -0.09848555 0.003588356 0.034631252 -0.0045198393
000070 1e 9c 98 bc c2 a7 10 3d d5 ac ff 3c 90 7e a1 3c
       -0.01862913 0.035316236 0.031210342 0.01971367
000080 1d 7d fe 3c 3e e3 89 ba fe 1d 97 3d 51 6a a7 3b
       0.031065518 -0.0010519994 0.073787674 0.0051091095
000090 ba db 58 bd c9 35 dd bb 5b c2 a2 bb 0c 71 9a 3c
       -0.052943923 -0.0067507965 -0.0049670166 0.018852733
0000a0 a7 d3 ae 3b e9 3a 0c 3d 05 c6 3b 3d ac 17 23 3d
       0.0053352895 0.03423587 0.045843143 0.039817497
0000b0 ac d5 00 bd 13 bc c3 bc 1f 90 5e bd 15 a3 09 bd
       -0.031453773 -0.023893392 -0.054336663 -0.033602793
0000c0 01 65 90 3c 11 b3 4e 3d ee e1 d3 bc 63 04 88 3c
       0.017626287 0.05046374 -0.025864568 0.016603654
0000d0 e9 48 b7 bc e2 a1 3c bd bd f5 4a bc b4 ee 80 bd
       -0.022373633 -0.04605282 -0.01238769 -0.06295529
0000e0 49 90 1d 3c ce 18 b8 bb 02 ad 84 3c 27 03 40 3d
       0.00961692 -0.0056181913 0.016195778 0.046878006
0000f0 f7 54 cd 3b 29 d1 7e bc 16 66 91 bd 58 9a 5a bd
       0.006266232 -0.015552797 -0.070995495 -0.05336985
000100 59 8a b0 bb 53 77 4a 3c a5 2c 8d 3c 47 11 8b bc
       -0.005387586 0.012357551 0.017233202 -0.016976012
000110 d9 ac 05 bd 21 68 a8 3c 78 70 d1 3d 71 a0 67 3d
       -0.032635543 0.020557465 0.1022653 0.056549493
000120 d5 ca 0a bd 5b 65 9c bc ed 12 9c 3c 43 43 27 3b
       -0.033884842 -0.019091299 0.019051993 0.002552227
000130 29 96 74 bd 0c 66 39 bd c2 a7 9a bc e0 50 fd bc
       -0.059713516 -0.045263335 -0.018878821 -0.030922353
000140 3b dc 81 bd 64 cc 75 bc 66 d2 33 3d 79 79 45 bd
       -0.06340834 -0.015002344 0.043901823 -0.04821155
000150 40 62 a8 3c df 46 8e bc e2 16 f5 bc 62 72 92 bc
       0.020554662 -0.017367778 -0.029918138 -0.017876808
000160 08 16 34 bd 60 42 71 bd 01 1b 6e bd d5 1e 64 3c
       -0.043966323 -0.05890119 -0.05813122 0.013923367
000170 9f ea 6f 3d 4f 22 f1 3a 5f bd 56 bc d3 e7 39 3c
       0.05857336 0.0018397066 -0.013106673 0.011346775
000180 24 7c ea bb b6 73 7c 3d 23 95 8e 3d 18 71 b0 3b
       -0.007155912 0.061633788 0.06962039 0.0053845756
000190 92 87 9e 3c 4d cc 5d bc 91 0a b4 3c a2 49 3f 3d
       0.019351754 -0.013537479 0.021977695 0.04670108
0001a0 f8 01 72 3d 87 2f f9 bc b1 8e 81 bd 7b dc f2 bb
       0.05908391 -0.03041817 -0.06326044 -0.007411537
0001b0 72 cc ac b9 aa 46 8d bc 53 23 c4 3b 95 33 0e 3c
       -0.0003295872 -0.01724561 0.0059856563 0.00867929
0001c0 7c 5e 17 bd ef 01 88 3c be e2 80 3c 2c 2d e9 bc
       -0.03695534 0.016602485 0.01573312 -0.028463922
0001d0 ac c5 68 bd 7f 3f 66 bc 2d 76 90 bc b4 21 9c bc
       -0.05682914 -0.014053225 -0.017634476 -0.01905904
0001e0 05 d3 ab 3c 9c 27 e0 bc fe ed 31 3d c2 ce 3e 3d
       0.020974645 -0.027362637 0.043439858 0.0465839
0001f0 44 37 21 3d 0f 0b 8b bb 40 a5 dd 3c bd e3 9f 3c
       0.039359346 -0.0042432616 0.027056336 0.019517774
000200 fc 77 8e 3d 79 73 01 bc 6d 02 71 bd c7 81 a3 bb
       0.06956479 -0.007901066 -0.058840204 -0.004989836
000210 58 fb 8c 3c 3e 9d 82 3c 96 6a e7 3c 41 b0 79 bd
       0.017209694 0.01594412 0.028249066 -0.060959104
000220 a5 98 d4 bc 39 34 05 bd 3d ef 9e bc 44 b3 8c bc
       -0.025951693 -0.032520507 -0.019401187 -0.017175324
000230 18 b1 14 bd cd 1e 1e bd 2b d8 9c bc 0b 36 05 bd
       -0.036301702 -0.038603593 -0.019146046 -0.032522243
000240 2f 6d 88 3c 99 91 06 bd d4 e3 25 3c c4 3f 8f bc
       0.016653625 -0.032853696 0.010125119 -0.01748646
000250 f7 d2 0a bd 10 49 3d 3d b8 c5 f2 b9 95 65 84 3c
       -0.033892598 0.046212256 -0.0004630515 0.01616172
000260 0f 38 61 3d 5a bf 5f 3d 4b 64 e2 3b 97 40 e7 3c
       0.054985102 0.054625846 0.0069089285 0.028229041
000270 66 67 37 3b a2 30 a5 3c ec ec 0a 3c e5 10 56 3c
       0.0027985214 0.020164791 0.008479338 0.013065551
000280 75 55 62 bd f6 71 37 bd 1d dd 31 bd be b1 13 bd
       -0.05525728 -0.044786416 -0.04342376 -0.03605818
000290 2d 1a 32 bd 4b 9f 11 3c 6a 02 64 bd f2 ac c0 bc
       -0.043481994 0.008888076 -0.055666365 -0.023519967
0002a0 f5 79 e9 bc a7 91 4f bd 86 9b 97 bc 1d 25 cd 3c
       -0.028500536 -0.050676014 -0.018506777 0.025042111
0002b0 b0 18 09 3c 4c 56 09 bd fd c3 b9 bc 6a 54 b4 bc
       0.008367702 -0.033529565 -0.022676462 -0.022012908
0002c0 84 46 21 bd ba 58 52 3c a3 aa 46 3c 76 d4 85 3d
       -0.03937389 0.012838537 0.012125644 0.06534664
0002d0 52 6b 26 3d 6c cb 15 3c e1 82 94 3c f9 b8 79 bc
       0.040629692 0.009142738 0.018128814 -0.015241855
0002e0 2d a8 0d 3c 10 ac e6 3b 32 e4 00 3c 2f 14 c9 3c
       0.008646053 0.0070395544 0.007866906 0.024545757
0002f0 9c 78 57 bd d2 3d c1 bc d6 f0 a2 bb 42 aa f1 bc
       -0.052605256 -0.023589049 -0.0049725575 -0.02950013
000300 86 2b 9c 3a e2 d0 df ba ac df 18 bd 43 a7 81 bd
       0.0011914826 -0.0017075802 -0.037322685 -0.06330731
000310 42 cc 90 bc 66 27 34 bd 8f 0d cd bb 2d b5 c4 3c
       -0.017675523 -0.043982886 -0.00625772 0.024012173
000320 9e 4f 40 3b a1 d3 9a bc c9 49 64 3a 29 09 a0 bd
       0.002934433 -0.01889974 0.00087085046 -0.07814247
000330 39 c4 2b bd e2 8f 7b 3c ef b4 25 3c a5 87 f6 3a
       -0.04193518 0.015354129 0.010113939 0.0018808736
000340 6d 01 93 3c 36 b0 45 3d d0 23 70 3d 70 cb af 3c
       0.017945016 0.04826375 0.058627903 0.021459311
000350 56 f3 19 3d 8a c5 e2 bc e1 02 c7 bb 78 91 bf bc
       0.03758558 -0.027682085 -0.0060733412 -0.023384795
000360 8a 4a 53 bd cd 2c 83 3c df 93 b0 bc 42 18 77 3c
       -0.051584758 0.016012574 -0.021554885 0.015081467
000370 94 c7 91 3c 9b 5b b9 3c e2 59 61 bc d1 36 ba bc
       0.017795362 0.022626689 -0.01375434 -0.022731217
000380 0e 91 8a 3c 64 f7 31 bd ee 99 15 bd 05 cb c7 bc
       0.01691487 -0.04344882 -0.036523752 -0.0243888
000390 c7 a3 fc 3c 98 4f 02 3c 68 dc af bc 7a 59 14 bc
       0.030839814 0.007953547 -0.021467403 -0.009054536
0003a0 94 75 da 3b fb c5 22 3c 96 18 be 3c 2d ea b1 3c
       0.0066668484 0.009934898 0.023205083 0.021718109
0003b0 d9 df 2a 3c 5c 2f c3 ba ef 8e be 3b 7c 60 1a 3d
       0.010429346 -0.0014891434 0.005815379 0.03768967
0003c0 53 3a 6c 3b 99 7e 1f bc 63 23 cc 3c 98 7f f1 ba
       0.0036045506 -0.009734773 0.024919217 -0.0018424867
0003d0 21 41 59 bc 7a a1 eb bc c6 ea d5 bc d1 41 ed 3c
       -0.013260157 -0.028763521 -0.026112925 0.028962048
0003e0 04 6f 99 3b c4 f8 c6 bb 45 5d 82 3d 34 17 a8 bc
       0.0046824235 -0.0060721356 0.06365446 -0.020518877
0003f0 10 b0 a7 bc 70 3c 96 bc 1a fc 36 bc 60 b8 5f 3c
       -0.020469695 -0.018339366 -0.011168504 0.013654798

classifier.1.bias f4 [32]
000000 83 26 fb b9 fd cb 1a 3b b8 ef fd bc f7 59 19 bc
       -0.00047903144 0.0023620122 -0.030998096 -0.009359828
000010 c6 25 6c 3c 48 d5 4e bc d7 17 ed 3c ba 2e 0f 3d
       0.014413303 -0.012624092 0.028942032 0.03495667
000020 e8 ec 87 bc 3a f9 89 3c cc b1 e4 3c 91 61 dc bc
       -0.016592458 0.016842473 0.027916811 -0.026901992
000030 dc 86 02 3d 59 8c 57 b8 2a db 48 ba cc 2e 7e 3c
       0.031866893 -5.1390703e-05 -0.00076620525 0.015514087
000040 41 3e 82 3c a3 21 c9 3c f2 89 e5 3c 7f bc ac bc
       0.015898826 0.024552172 0.028019879 -0.021085976
000050 2b 56 64 bc 04 af d7 bc ac 4b 0c bd cc 57 77 bc
       -0.01393656 -0.026328571 -0.034251854 -0.015096616
000060 be bc c5 bc f2 11 49 3c 32 a2 98 3c 4b 5b c4 bc
       -0.02413785 0.012272345 0.018632028 -0.023969313
000070 6c 5f 1c 3c 90 17 e3 bb 35 e5 03 3c 9f 5c ca bc
       0.009544235 -0.006930299 0.008050253 -0.024702368

classifier.2.weight f4 [32]
000000 48 90 82 3f a5 6d 76 3f 4c a2 7d 3f 0d 02 81 3f
       1.0200281 0.96261054 0.9907577 1.0078751
000010 61 44 85 3f 47 22 7b 3f 4d 3d 82 3f c7 b0 74 3f
       1.0411493 0.9809918 1.0174958 0.9558224
000020 90 19 82 3f e9 9d 78 3f c2 41 79 3f 07 85 74 3f
       1.0164051 0.9711595 0.97365963 0.95515484
000030 11 55 75 3f f3 64 87 3f c0 fa 77 3f 5e 36 7c 3f
       0.95832926 1.0577682 0.9686699 0.9852046
000040 fb ad 84 3f 0f bc 80 3f 8b 70 83 3f 80 99 6f 3f
       1.0365595 1.0057391 1.026872 0.935936
000050 c4 4f 82 3f 7f ca 75 3f 1b 0a 7c 3f ec 69 76 3f
       1.0180593 0.9601211 0.9845292 0.96255374
000060 a0 72 83 3f 3c 7b 80 3f d7 47 86 3f ab 3c 80 3f
       1.0269356 1.0037608 1.0490674 1.0018514
000070 7d c0 7f 3f a3 aa 7d 3f 02 dd 88 3f 46 64 7a 3f
       0.9990309 0.99088496 1.0692446 0.97809255

classifier.2.bias f4 [32]
000000 19 bd a5 bd b0 16 6e bd 61 99 57 bd f9 69 65 bd
       -0.08092708 -0.058127105 -0.052636508 -0.056009267
000010 b0 be 07 be 58 c8 7e bd fa c8 66 bc 25 e0 9b bd
       -0.13256335 -0.06220278 -0.0140860025 -0.076111116
000020 75 46 8c bd 43 28 ee bd 3f 05 17 be 21 ed b7 bd
       -0.06849376 -0.11628773 -0.14748095 -0.089807756
000030 0d 32 91 bd b0 b8 26 bc b6 06 c3 bd 66 9e 06 be
       -0.070896246 -0.010175869 -0.095227644 -0.13146362
000040 ba 3b b1 bd 2a 2c cb 3c 90 33 29 bb 2f 8c ce bc
       -0.0865397 0.024801333 -0.0025818087 -0.02521333
000050 13 7a 02 be 66 89 8b bd cd 92 90 bd 26 c5 48 bd
       -0.1274188 -0.06813316 -0.0705925 -0.04901614
000060 79 b4 d5 bd 38 80 0c bd 25 64 d4 bd 45 1f e2 bd
       -0.10434813 -0.034301966 -0.103706636 -0.110411204
000070 58 4c 94 bc 0c db ba bd 1f ca ad bd 46 e2 ef bd
       -0.01810281 -0.09123811 -0.08485817 -0.1171308

classifier.2.running_mean f4 [32]
000000 d1 80 24 3f b4 cc fa bf 8e 9e 28 40 6e 7d c3 3e
       0.6425906 -1.959372 2.6346774 0.38181633
000010 c5 0d 57 40 09 e4 88 bf b0 e8 49 3f be d6 c2 3f
       3.3602154 -1.0694591 0.7887068 1.5221784
000020 73 2e f8 3f 0b 5f 5d 3f 15 87 28 40 1b 8a 03 40
       1.9389175 0.8647315 2.6332448 2.0553043
000030 c5 40 3b 40 51 1c b9 be 04 f6 89 40 b0 7c 1b 3f
       2.9258282 -0.36154416 4.311281 0.60737133
000040 8d c2 86 be 66 ca 50 bf 0d 9b 35 3f 0b 6b 00 c0
       -0.26320305 -0.81558836 0.70939714 -2.0065334
000050 86 2c c4 3d 65 cc cb 3f 82 82 aa 3e 58 d7 a4 3f
       0.09578805 1.5921751 0.33302695 1.2878218
000060 63 b9 f0 3e 2e 61 47 bf 09 fb eb 3e d6 88 7a 3f
       0.4701644 -0.7788266 0.46089962 0.97865045
000070 ee 4b 8a 3f f5 e4 45 40 c2 0d 42 be 43 fa a7 3f
       1.0804422 3.0920994 -0.1895056 1.3123249

classifier.2.running_var f4 [32]
000000 fd ad 43 3f 77 e8 0a 3f c5 9c d1 3f 2f b3 85 3f
       0.7643736 0.54260963 1.6375967 1.0445307
000010 3c 28 62 3f e4 b7 be 3f 35 d8 ab 3f c3 05 49 3f
       0.8834264 1.4899869 1.3425356 0.78524417
000020 08 92 4a 3f 76 e5 80 3f a7 90 0b 3f e1 c4 92 3f
       0.79129076 1.0070026 0.54517597 1.1466333
000030 9a c5 51 3f 91 8f 53 3f e6 7e a2 3f ae f7 af 3f
       0.8194214 0.8264094 1.2694976 1.3747461
000040 b7 cb 5c 3f dd d8 fd 3f 1e ca 5d 3f 21 54 ef 3f
       0.86248344 1.9831806 0.8663653 1.8697549
000050 7f 3d 69 3f 2b d2 89 3f 8b 7b f9 3f 05 c4 3b 3f
       0.9110946 1.0767263 1.9490827 0.7334598
000060 f7 dc c9 3f f0 43 e3 3f 94 ca 44 3f a2 11 92 3f
       1.5770558 1.7755108 0.7687161 1.1411631
000070 5d da bf 3f 6e 23 81 3f 7c 08 86 3f f3 ee 80 3f
       1.4988514 1.0088937 1.0471339 1.0072922

classifier.4.weight f4 [64, 32]
000000 69 59 ec bd 76 7e 01 3d 81 3e 2d 3e ef b7 53 3c
       -0.11540491 0.031614743 0.16918375 0.012922271
000010 3d 8b 44 3e f6 af aa 3d 82 bd 15 3e 1b 05 39 bd
       0.1919374 0.08334343 0.14623073 -0.045170885
000020 1a 50 56 3b 5e c4 9c bd c7 1f 55 be 9f 29 21 3e
       0.0032701553 -0.076546416 -0.20812903 0.15738533
000030 29 29 20 b8 e7 a5 33 bd 5e 07 e9 bd c8 1d 86 3c
       -3.8185306e-05 -0.04385939 -0.11378358 0.016371623
000040 1d 15 2b 3e 2d 0c 44 3d 4c 56 d1 bd 61 b4 b4 3d
       0.16707273 0.047863174 -0.10221538 0.08823467
000050 8f 1f 13 3c 7f 14 e6 bc 12 8f 37 3e 87 ff fb 3c
       0.008979692 -0.028085945 0.1792567 0.030761493
000060 69 01 0b 3e 92 24 f5 bc 7e 09 1e 3e 45 f9 fe 3d
       0.13574757 -0.029924665 0.15433308 0.12449888
000070 08 15 c6 3d d0 51 c2 3c e6 70 16 3e 4f 25 40 3e
       0.0967198 0.023720652 0.14691505 0.18764232
000080 c3 45 ff bd ba d8 ce bd 43 a1 ee bd 33 20 65 bd
       -0.12464478 -0.10099931 -0.11651852 -0.05593891
000090 d4 a4 28 3e 7d b5 44 bd 27 72 e6 3c 4f 1c 04 3e
       0.16469127 -0.048024643 0.028130604 0.12901424
0000a0 31 7a d4 3d 2f 47 23 3e db 40 e9 3d 0c 9b d4 3d
       0.10374869 0.15945123 0.11389323 0.10381135
0000b0 51 88 36 be 26 02 0f 3e 3a bb 90 3c 3a 31 58 3c
       -0.17825438 0.13965663 0.017667402 0.01319533
0000c0 6a 97 7a be 7c 44 b8 bb 28 f8 1a 3e b1 c9 db bd
       -0.24471822 -0.0056233983 0.15133727 -0.10731829
0000d0 90 df 09 bc c7 4b fd 3d ef 00 ee bc c3 c6 6b 3d
       -0.008415118 0.12367969 -0.02905318 0.0575626
0000e0 f8 ad ed bd 8c e1 57 3d 2d 96 30 3c 30 98 2c 3e
       -0.116054475 0.052705333 0.010777992 0.1685493
0000f0 2e ba 5e be 92 19 b3 bc 99 af 8f 3d a4 40 23 3d
       -0.2175071 -0.021862779 0.070159145 0.039856568
000100 d3 c1 d0 bc 13 dd 0b bc 4f ee ec 3d 22 96 ae 3d
       -0.025483048 -0.008536595 0.11568891 0.08524729
000110 24 10 36 be 6c a7 05 bd c8 78 3f be cd d9 c5 3d
       -0.17779595 -0.03263037 -0.18698418 0.09660683
000120 a1 5a 01 be 21 e0 61 bd f8 e1 ad 3c f4 89 20 be
       -0.12632228 -0.055145387 0.021225914 -0.15677625
000130 ce 7d 49 bd 87 e4 3f be 8b 4b 98 bd a5 18 bd 3c
       -0.049192242 -0.1873952 -0.07436284 0.02308304
000140 dd 65 35 3e fc 94 5b 3d 75 6f 9a bd 26 4b 50 be
       0.17714639 0.05360888 -0.0754079 -0.20341167
000150 1e 2d a1 3d 9f 05 fd 3d 03 dc e7 3d e0 c1 e7 3d
       0.078699335 0.12354588 0.11321261 0.113162756
000160 51 fd f0 bd de f6 73 3d 33 7c e0 3c 5a 68 18 3e
       -0.11767066 0.059561603 0.027402973 0.14883557
000170 33 e8 95 3d 57 9c 88 bd 50 be b7 bd 66 33 0f bd
       0.07319679 -0.066704445 -0.08971846 -0.034961127
000180 c5 c8 ff bc 9c 0c 66 bc c9 9f 86 3d 0c fd da 3d
       -0.031223664 -0.014041092 0.06573445 0.10692796
000190 38 52 c4 3d 8d 65 19 3d af 7e f6 3d af a3 3c bd
       0.095859945 0.037450362 0.12035882 -0.04605454
0001a0 33 a0 c1 bd 0c 6c 3e be 71 b3 0d be 57 16 f3 bd
       -0.09454384 -0.18595904 -0.13837983 -0.11869495
0001b0 b2 98 44 3b 97 38 69 be 52 6b 1a 3d ef f3 46 3d
       0.002999824 -0.22775494 0.037700005 0.048572477
0001c0 7b 47 f4 3c ad 84 ce 3d bc 04 2b bd 30 bf d1 3c
       0.02981924 0.100839 -0.041752562 0.02560386
0001d0 b7 12 50 3d 06 dc 81 3d 38 bc 7d bd e3 0d e0 bd
       0.050799098 0.06340794 -0.061947078 -0.10940149
0001e0 a1 2c cd 3d 52 3d 05 be 71 54 4a 3d f7 6b 2c 3e
       0.10018278 -0.13011673 0.049396936 0.1683806
0001f0 53 85 48 3e f3 36 0a 3e 41 08 77 3c 45 ee d7 3d
       0.19582109 0.13497524 0.0150776515 0.10543493
000200 13 10 b5 3d e8 cb 8f bd 9e 25 c7 3d a3 4c ae bd
       0.088409565 -0.07021314 0.09723972 -0.08510711
000210 4f 14 f5 3c ec e2 9b 3c 08 af 53 be f1 00 34 3d
       0.02991691 0.019029103 -0.20672238 0.04394621
000220 7d 4d 20 bd 0b e8 1b be df 2f 59 bd e8 e3 2a 3c
       -0.0391364 -0.15225236 -0.05302417 0.010430314
000230 56 e8 be bd c7 33 41 be f3 fb 55 bd 08 7f d3 3d
       -0.09321658 -0.18867408 -0.05224223 0.10326964
000240 2f 82 0e be 51 c8 c6 bc 8f 0e ce bd e9 db d5 bd
       -0.13916849 -0.02426544 -0.100613706 -0.10442335
000250 61 54 ee 3c 64 0e 3f bd bc 09 85 bd 9c 93 9b 3d
       0.02909297 -0.046644583 -0.06495997 0.07596514
000260 5e de 6f 3d e3 ca a0 bd c0 87 82 bc a5 25 56 be
       0.058561675 -0.078511976 -0.015933871 -0.20912798
000270 32 ff 6d 3c b9 f0 de bb bf f0 48 3d a0 e8 4f 3e
       0.014526175 -0.0068035987 0.04905772 0.20303583
000280 b1 19 43 be 1b a1 1c 3d e6 3c 04 3e 68 7f 1f 3d
       -0.19052769 0.03823958 0.12913856 0.038939863
000290 af 62 89 3d e8 0d 3d be 37 b7 5e be be db 89 3d
       0.067082755 -0.18462336 -0.21749578 0.067313656
0002a0 da 4f 10 be 62 28 cf bd fb 74 76 3c 6b 77 02 3e
       -0.14092961 -0.10115124 0.015042539 0.12740867
0002b0 a3 b7 27 3c 00 67 39 be 3f b9 ba bd 2d 46 38 3d
       0.0102366535 -0.18105698 -0.09117364 0.0449888
0002c0 a8 02 61 3d bd ee 28 be 49 c5 c4 bd d7 12 0c 3d
       0.054934174 -0.16497321 -0.09607942 0.034197655
0002d0 95 af 1c 3c 73 c5 95 ba f3 e8 16 be 03 ab b2 bd
       0.009563346 -0.0011426642 -0.147373 -0.08724024
0002e0 d8 ef 58 bc c8 75 73 be 00 c7 a3 bd 69 34 4c bd
       -0.013240777 -0.23775399 -0.079969406 -0.04985467
0002f0 e2 92 fe 3c ad 2f c5 3d 95 9b e6 3d a9 16 ab 3d
       0.031075899 0.09628234 0.11260144 0.083539315
000300 3f 2e 65 bd e8 fa 61 bd 0c 04 f9 3d 5c b4 c7 bd
       -0.055952307 -0.055170923 0.12158975 -0.09751198
000310 67 32 cd 3d ef b8 02 be 63 56 6c bd 7f 74 02 3e
       0.10019379 -0.12765859 -0.057699572 0.12739752
000320 9c c7 89 bd db 45 47 bd f6 49 ac 3d 18 9f 9c bd
       -0.067275256 -0.048650604 0.084125444 -0.07647532
000330 04 2a 8c 3c 5a d6 5d bc 9e c6 16 be 0b 5f ec bd
       0.017109878 -0.013539875 -0.14724204 -0.115415655
000340 81 7b d9 bd 3c da e5 3c b4 d7 0f bd 24 75 f5 3d
       -0.106192596 0.028058164 -0.03511782 0.119852334
000350 ba 08 16 3d 75 59 b8 bc 7f 6f c5 bd 53 72 61 3d
       0.036629416 -0.022503594 -0.09640407 0.05504067
000360 d8 36 10 be ed c0 cc 3c 86 79 45 3d 89 dc 1f be
       -0.14083421 0.024994338 0.048211597 -0.15611471
000370 81 38 11 be bb 75 e5 3d f3 40 c6 3d 2f ce 36 3e
       -0.14181711 0.11204096 0.09680357 0.1785209
000380 3f a4 eb bd 15 cc df bd 48 f6 ca 3d 00 73 3b bb
       -0.11505937 -0.109275974 0.09910256 -0.002860248
000390 a8 c8 24 be 6a 01 bb bd ad c7 d3 bb d9 13 a6 3c
       -0.1609217 -0.09131129 -0.006463012 0.020273136
0003a0 ce 36 2b 3e e6 ad cf bd 1b ae df bc f5 ae 0b be
       0.16720125 -0.1014059 -0.0273047 -0.1364096
0003b0 91 1b 5f bd 1d 28 08 be 25 26 c1 bc 71 b0 4b 3d
       -0.05446965 -0.13296552 -0.023577759 0.049728815
0003c0 d3 1c ca 3d f9 9d ec bc 82 71 29 be 50 ff 50 3d
       0.09868779 -0.028883921 -0.16547206 0.051024735
0003d0 34 94 7d be 09 40 ad 3d 18 1d a9 3d ea 64 10 3e
       -0.24763566 0.08459479 0.08257502 0.14100996
0003e0 e3 3c 19 bd 9a c1 05 be 8e 0a ac 3d 42 b5 44 3e
       -0.03741158 -0.13062134 0.08400451 0.1920977
0003f0 9d 08 8b 3d da 5b c5 3d f0 56 d0 bd 35 fe ed bd
       0.06788752 0.0963666 -0.10172832 -0.11620752

classifier.4.bias f4 [64]
000000 95 c3 1d be 23 2e 22 be 35 26 86 3d 75 18 07 3c
       -0.1540664 -0.15837912 0.06550256 0.008245577
000010 b4 6c 1c be d5 2c ff bd 5e fa 17 3e 6b 06 25 3e
       -0.15275842 -0.12459723 0.14841601 0.1611573
000020 61 98 11 3e 03 a7 c5 bc 36 c4 5a 3d 0a 5e 06 be
       0.14218284 -0.024127489 0.053409778 -0.1312181
000030 d1 4c f3 bd 1a 04 e2 3d 11 5b 2d 3e 65 ab b2 3d
       -0.11879886 0.110359386 0.1692927 0.08724097
000040 b9 98 21 be ad bc 32 3e 82 69 da 3d ea ec 28 3e
       -0.15780915 0.17454787 0.10664655 0.16496626
000050 03 f2 d0 bc 39 70 0f bc c3 2c 16 3e df 64 02 be
       -0.025506025 -0.008754783 0.14665513 -0.12733792
000060 a6 d5 1f 3e f1 2a a6 3d c7 01 f2 bc 22 e7 e9 3d
       0.15608844 0.08113659 -0.029541863 0.11421038
000070 c4 68 0b 3b 12 25 15 be a4 ff d2 3d 38 d1 d6 bd
       0.0021272162 -0.14564922 0.10302666 -0.10489124
000080 e7 d7 2c 3e d8 fc c2 3c 5e 70 1b 3c fa e9 b5 bd
       0.16879235 0.023802206 0.00948724 -0.08882518
000090 dd 6d 10 be 38 12 84 3d f3 95 e7 3d c5 33 84 bd
       -0.1410441 0.064487875 0.113078974 -0.06455187
0000a0 54 9b 15 3e 63 8a 2b 3e 5a 40 30 3e f9 1e 81 3d
       0.14610034 0.16752009 0.17212048 0.06304736
0000b0 17 28 2a 3e 01 a8 ce 3c ea 41 6e bd 3e 7c 20 3e
       0.16616856 0.025226595 -0.05816833 0.15672395
0000c0 07 ce 83 3d 3b 95 34 be 21 27 31 3e 28 b4 f9 bd
       0.06435781 -0.17635052 0.17300083 -0.12192565
0000d0 b2 96 f6 3d 3e 7d 1c be e9 30 7a bd d8 a2 0b be
       0.120404616 -0.15282151 -0.0610818 -0.13636339
0000e0 f5 75 0f 3e 7f 9e 2a be ae 4d 89 bd 31 fa cc bd
       0.14009841 -0.16662024 -0.06704269 -0.10008658
0000f0 15 b7 a8 bd a7 2a 21 3e 41 08 09 be 00 83 28 be
       -0.08238045 0.15738927 -0.13382055 -0.16456223

classifier.5.weight f4 [64]
000000 d5 d0 74 3f 81 b5 80 3f f9 1d 7c 3f 2a bf 80 3f
       0.9563115 1.0055391 0.98483235 1.0058339
000010 f7 17 86 3f 29 96 87 3f d7 07 83 3f dd 14 80 3f
       1.0476063 1.05927 1.0236768 1.0006367
000020 84 69 79 3f 66 6b 77 3f ae 21 79 3f f4 ca 7c 3f
       0.9742663 0.9664825 0.97317016 0.9874718
000030 cc 67 80 3f 5e 17 85 3f 64 a5 7f 3f 3e 7d 84 3f
       1.0031676 1.0397756 0.9986174 1.0350721
000040 31 fd 7c 3f 7c 5f 80 3f 89 b7 83 3f ca 3d 7e 3f
       0.9882384 1.002914 1.0290385 0.9931303
000050 50 1d 7c 3f 08 89 8a 3f 34 7b 7b 3f 5a 2e 7c 3f
       0.9848223 1.0823069 0.9823487 0.98508227
000060 0d f7 89 3f 0a a8 6b 3f aa 58 82 3f 30 d4 82 3f
       1.0778519 0.9205328 1.0183308 1.0221004
000070 4c 7c 7c 3f a9 86 6f 3f f4 ed 76 3f 9b db 75 3f
       0.9862716 0.9356485 0.9645684 0.96038216
000080 6c 8d 80 3f 79 df 85 3f 15 55 7b 3f 3a f4 7b 3f
       1.0043159 1.0458823 0.981767 0.98419535
000090 2d 22 82 3f a3 d2 88 3f 41 6e 70 3f 7b f9 81 3f
       1.016668 1.0689281 0.93918234 1.015426
0000a0 1b 61 81 3f c3 35 88 3f a8 32 89 3f 6f b2 78 3f
       1.0107759 1.0641407 1.0718584 0.9714727
0000b0 7c 9d 78 3f 6a 99 82 3f 40 22 7d 3f 66 0e 82 3f
       0.971153 1.0203068 0.98880386 1.0160644
0000c0 34 34 77 3f ba 0c 7b 3f 15 46 7a 3f 02 89 87 3f
       0.9656403 0.98066294 0.97763187 1.0588686
0000d0 43 cf 76 3f d8 a8 80 3f 2b 03 78 3f e5 15 7b 3f
       0.96410006 1.0051527 0.96879834 0.98080283
0000e0 0a f6 7d 3f 97 20 7a 3f 14 fa 79 3f 71 be 80 3f
       0.9920355 0.9770598 0.97647214 1.0058118
0000f0 e2 2b 80 3f 64 86 78 3f 9d 83 7d 3f 86 a2 7b 3f
       1.0013392 0.97080064 0.9902895 0.98294866

classifier.5.bias f4 [64]
000000 c1 86 4e 3d cb 9b a7 3d d8 8c ac bd f8 e2 c7 bd
       0.05042148 0.08184012 -0.08425301 -0.09760088
000010 59 2d f8 bc 88 a3 09 bd 29 9f ad ba af e2 c1 bd
       -0.030295061 -0.03360322 -0.0013246286 -0.094670646
000020 c6 ec 67 bd 46 bd 9e bd cd b3 2a bd 49 35 8d 3c
       -0.05662229 -0.07750945 -0.041675378 0.017237322
000030 bc cd 5d bd 1e da 45 3d 68 c8 17 be 7b c3 ce 3c
       -0.05415128 0.048303716 -0.14822543 0.025239697
000040 50 91 62 3d d8 26 3c 3d b6 24 d1 3c 67 5c 11 3d
       0.055314362 0.04593548 0.0255302 0.035488512
000050 23 6e e0 bc 29 99 ba bd 60 14 38 bd ef 72 c9 bc
       -0.027396267 -0.09111244 -0.044941306 -0.024590937
000060 84 50 cd bc c7 07 e7 bc 27 9d 1f bd 66 df 9b 3d
       -0.025062807 -0.02820195 -0.03896823 0.07610969
000070 e5 17 8d 3c e9 3a c8 bc fc 13 09 3c 02 eb 86 bd
       0.017223308 -0.024442153 0.008366581 -0.06587793
000080 06 54 4d bc 5d 46 36 bd 03 6c 2f 3d 28 44 90 bc
       -0.01253224 -0.044500697 0.042827617 -0.017610624
000090 09 2d ab bd e8 a4 b1 3d 33 ae 86 3b 98 9b 19 3d
       -0.08358199 0.086740315 0.0041101216 0.0375019
0000a0 6f 20 9c 3c 9f e4 98 bd 90 78 9c bc ba 84 ba bc
       0.019058434 -0.07465481 -0.019100457 -0.022768367
0000b0 43 e1 e6 bd c2 58 13 bd 1c 87 ca bc 38 c6 7b 3d
       -0.11273434 -0.035973318 -0.024722628 0.061468333
0000c0 b3 b4 d8 bd b3 f0 b7 bc ca 66 19 3d 54 cb 1b ba
       -0.10581341 -0.022453642 0.037451543 -0.0005943079
0000d0 d3 11 51 bc 90 9d 2b bd 12 a9 ec 3c d4 10 22 be
       -0.012760597 -0.04189831 0.028889213 -0.15826732
0000e0 7a 3e 50 bd 5d 56 4b bd 4a 3e 01 bc 58 40 a0 3c
       -0.050840832 -0.04964291 -0.007888386 0.019561931
0000f0 d2 f4 7d bd 14 79 ee bc 4b 78 64 3c d2 49 6c bd
       -0.062001057 -0.029110469 0.013944696 -0.057687588

classifier.5.running_mean f4 [64]
000000 31 79 ce 3e 69 38 89 bd 71 36 99 bd f8 84 1d 3e
       0.40326837 -0.067002125 -0.07481087 0.15382755
000010 4f 34 07 bf 93 e9 08 bf 95 1b bf bc 73 46 e7 bc
       -0.5281419 -0.53481406 -0.023328582 -0.028231835
000020 7c de ea 3e 43 f8 07 be 58 ef e4 3d a4 01 6a be
       0.45872867 -0.13278298 0.11178464 -0.22852188
000030 54 be f9 be df 3b b0 b9 70 09 70 be 57 67 66 be
       -0.4877802 -0.00033613943 -0.234411 -0.22500359
000040 37 53 ae bd 4e 43 a6 3e ff 58 37 3d 4d a1 a0 3e
       -0.08511966 0.32473224 0.044762608 0.31373063
000050 ac 60 a9 be 5a fc 9e be 41 1f ca bd 24 5c 89 3d
       -0.33081567 -0.31051904 -0.098692425 0.067070276
000060 51 19 23 be 7f 81 06 3e b2 51 72 3d b1 98 88 be
       -0.15927626 0.13135336 0.059159942 -0.26678994
000070 1f a7 29 bd 26 3d 86 bd 31 08 0a be 7c be 83 be
       -0.041419145 -0.06554632 -0.13479687 -0.25731266
000080 9e fd 30 3e 26 9f 85 be 2a 5e b7 be 92 5e c9 be
       0.17284247 -0.26097983 -0.3581403 -0.39329964
000090 d9 ae 9d be de 0e 43 3d 65 c0 da 3c 24 cc af 3d
       -0.3079746 0.0476216 0.026703069 0.085838586
0000a0 74 14 e6 be 69 73 c9 bd ac 30 6e bd e2 3a 87 bd
       -0.4493748 -0.09836466 -0.058151886 -0.06603028
0000b0 9c 9f fe 3e 34 03 2b 3c 89 72 2c bf 77 86 8b be
       0.49731147 0.010437775 -0.67362267 -0.27251026
0000c0 5c a5 34 bf 12 85 29 be 0e 48 8e 3d ef 47 7d be
       -0.7056482 -0.16554669 0.06947337 -0.24734472
0000d0 94 bf f1 bb ee 1b 1f 3d ee 14 54 be b1 84 b3 be
       -0.007377574 0.038844995 -0.20711109 -0.35062173
0000e0 74 65 3b 3e 9c a4 84 be d1 b5 17 bd 30 e0 0c bf
       0.1830042 -0.25906837 -0.037038628 -0.5502958
0000f0 38 ae 2f 3e b4 ef 41 3d 2e c3 34 be cf 66 09 be
       0.17156303 0.04734774 -0.1765258 -0.13418125

classifier.5.running_var f4 [64]
000000 af 14 84 3e ea a8 59 3e d2 23 d6 3d 83 0d 7b 3d
       0.2579703 0.21255842 0.10456051 0.061292183
000010 8d f2 91 3d f4 ad 06 3e d0 32 1b 3e 0a f2 0d 3e
       0.07126341 0.13152295 0.15156102 0.13861862
000020 1f 06 07 3e 60 6b bc 3d aa 86 88 3d 4c a4 30 3e
       0.13185929 0.09200168 0.0666631 0.17250174
000030 38 22 a7 3d 29 ab 6f 3e 49 a4 9a 3d 88 ed 27 3e
       0.081608236 0.23405136 0.07550866 0.16399205
000040 3e d3 47 3e 11 33 aa 3e b0 c7 00 3e 84 46 f7 3d
       0.19514176 0.33242086 0.12576175 0.12073997
000050 55 0a 7a 3d 37 33 6c 3d 6c 7c 8e 3d 22 4b b3 3d
       0.06104501 0.05766603 0.06957325 0.08754565
000060 c9 c1 27 3e e8 23 13 3e 74 54 e6 3d 1b 56 62 3e
       0.16382517 0.14369166 0.11246577 0.22103159
000070 63 c4 9b 3d e6 cb 5e 3e 64 45 aa 3e ba 04 3b 3e
       0.07605817 0.21757469 0.33256066 0.18263522
000080 e0 0d f9 3d 03 c7 f6 3d 02 70 e5 3d b5 d6 a3 3d
       0.121608496 0.12049677 0.112030044 0.079999365
000090 c9 d7 80 3d e6 ac d2 3d de e6 58 3d c7 a2 a7 3d
       0.06291158 0.10286884 0.052954547 0.08185344
0000a0 1b f2 95 3e 59 0e 6a 3d 00 c0 80 3d 5b f2 97 3d
       0.29286274 0.05714259 0.06286621 0.074192725
0000b0 bf cd 45 3e c0 bb 9c 3d 59 61 0e 3e 39 d9 0b 3e
       0.19316767 0.07652998 0.13904323 0.13657083
0000c0 15 63 9e 3d da fb 12 3e 1b 99 95 3d c0 06 bf 3d
       0.07733742 0.14353886 0.07304593 0.09327459
0000d0 b5 79 e3 3d 12 bc 45 3e 6f 7b 55 3e 0b 99 02 3e
       0.11107198 0.19310024 0.20847867 0.12753694
0000e0 3c 50 ac 3d 79 06 55 3d 94 f8 f4 3d 9d 8f 6c 3e
       0.08413741 0.052008126 0.11961475 0.23101659
0000f0 5a 03 52 3d ea d5 31 3e 46 be bc 3d f0 16 50 3e
       0.051272728 0.17366758 0.09215979 0.2032125

classifier.7.weight f4 [16, 64]
000000 9b 9c da bd 5d 68 f8 bd 95 e2 15 bd 6e 45 ce 3c
       -0.106744014 -0.12129281 -0.03659304 0.025179591
000010 fd 40 8f 3d 58 68 95 bb ac 70 0f be 96 55 01 3e
       0.069948174 -0.004559558 -0.14007825 0.12630305
000020 5c a1 90 bd 5d d6 be 3d a7 b6 4b 3d 51 c2 53 3d
       -0.07062027 0.0931823 0.049734738 0.051698986
000030 98 55 33 bd 17 06 e3 3d 1a 27 5a 3d 42 bf d0 3c
       -0.0437828 0.11085146 0.053259946 0.025481824
000040 c1 20 df bc a4 67 ba 3d df 4a 1d be 7c 56 79 bd
       -0.027237298 0.09101799 -0.15360592 -0.060873494
000050 01 b9 d0 bc 00 4a 94 bc 5a 98 0d bd ff 2b 22 bb
       -0.025478842 -0.018101692 -0.034569122 -0.0024745462
000060 95 05 2e 3d a4 05 88 bb eb 3f a4 ba cd c1 84 3c
       0.042485792 -0.004151063 -0.0012531256 0.016205693
000070 02 4c c3 3d 2b eb ba bd 70 a1 fd bc 7a 12 ec 3c
       0.09535982 -0.09126886 -0.030960768 0.028817404
000080 37 55 a9 bc dc c3 35 3c ea 03 26 bb bf 5e da bc
       -0.020670516 0.01109406 -0.0025331923 -0.026656507
000090 0c 36 80 bd 27 e4 aa b8 cf fd 4a 3d 97 38 2c 3d
       -0.062603086 -8.1487284e-05 0.049558457 0.042046156
0000a0 7d 87 72 3c cc b4 3c be 26 92 5e be 79 45 d5 3d
       0.014802811 -0.18428344 -0.21735439 0.104136415
0000b0 54 69 2c 3d 80 c2 dd bd f4 e8 df 3d f8 fa b7 3d
       0.042092636 -0.108281136 0.10933104 0.08983415
0000c0 8a 30 de bd f7 44 93 bd ae d3 99 bd 4d 60 25 3c
       -0.10849102 -0.071908884 -0.07511078 0.010093761
0000d0 d9 33 ea bd b4 31 1b 3d cf 33 8c ba 0c 64 95 bd
       -0.114356704 0.037889197 -0.0010696593 -0.07294473
0000e0 bd 55 ef 3c ec 06 e4 bc 9d db b5 bd 25 cf 10 bd
       0.029215688 -0.027835332 -0.088797785 -0.0353538
0000f0 09 30 de bd b1 3e d9 3d 9b 43 33 3d 6c c8 91 3c
       -0.10849006 0.106076606 0.043765645 0.017795764
000100 d3 2a b2 3d 1f b6 3f 39 94 1f 2b b9 f9 db ef bd
       0.08699574 0.00018283025 -0.00016319595 -0.11711878
000110 1b b9 f5 3d 2f 79 9e bb b1 86 95 3c e3 7c c3 bd
       0.11998197 -0.0048362236 0.018252702 -0.095453046
000120 05 ea 97 bd fd 19 aa bc 7b 71 16 bd d1 1b c8 bd
       -0.074176826 -0.020764345 -0.036729317 -0.097709306
000130 30 bf 8f bc 3d 2f e9 bd c4 c2 08 be dc 44 3e be
       -0.01754722 -0.11385963 -0.13355547 -0.18580955
000140 1b 60 d1 bb 15 2b ac bd e2 2c c3 3d 1e 0b e3 3d
       -0.0063896305 -0.08406655 0.09530045 0.11086105
000150 b3 c4 82 3d 02 67 c1 bd ce aa 93 3d dd 3f 6d 3d
       0.06385174 -0.09443475 0.07210313 0.057922233
000160 6f 68 cf 3c f9 c7 99 3d 3b 61 63 bd 38 af 47 3d
       0.025318353 0.07508845 -0.055512648 0.048751086
000170 a9 06 27 3d 51 0a 58 3c 4d 19 a8 bd e3 5d a9 3c
       0.040777836 0.013186053 -0.08207951 0.020674651
000180 74 b7 5c bd 5d c7 3f 3c ee 9d a6 3c 58 98 ab 3d
       -0.053885892 0.011705247 0.020338979 0.08378667
000190 5a f6 3b 3d 7f 82 f0 3d 62 a7 85 3c 76 b7 f3 bd
       0.045889236 0.1174364 0.016315166 -0.11900227
0001a0 09 eb 3e 3c e8 ef a6 3d 85 16 e8 3d 0d 67 21 3c
       0.011652716 0.08151227 0.1133242 0.009851229
0001b0 b4 a1 a3 3d 8f 90 fa 3d db 29 80 bd 4f 10 00 3c
       0.07989827 0.122346036 -0.06257983 0.007816388
0001c0 9e cc 95 bd 20 88 82 3d dd 3d ad 3d 03 ec ee 3d
       -0.07314418 0.0637362 0.08459065 0.116661094
0001d0 25 9c bd 3d cc 7a a8 bd 78 23 b7 bc 2b 22 89 bd
       0.09258298 -0.08226547 -0.02235578 -0.0669597
0001e0 71 fe da bc 23 1d fc 3d cd 31 fa bb 5c b5 d5 bd
       -0.026732655 0.12310245 -0.0076353312 -0.10434982
0001f0 a1 59 3a 3d 7e 54 d5 bd 6e 4f 8e bd 48 a4 99 bd
       0.045495633 -0.10416506 -0.06948744 -0.07502037
000200 a2 93 97 3d b3 e1 87 3b cc 16 66 3d 75 f3 53 bd
       0.074012056 0.0041467785 0.056174085 -0.05174585
000210 a6 fd 7e bd 45 42 ec bb 68 c0 37 3d e6 65 9c 3c
       -0.062253617 -0.0072100484 0.044861227 0.019091558
000220 33 c4 28 3c 99 93 ee 3d c1 99 f0 3b d2 ea b2 3d
       0.010300684 0.11649246 0.0073425476 0.08736195
000230 77 c1 c7 3d 3b f9 67 bd 16 ef 16 bd 29 dc 40 3d
       0.09753697 -0.05663417 -0.036849104 0.04708496
000240 37 c6 09 3d 12 c3 18 bc 68 42 31 3d 25 11 d5 bc
       0.033636298 -0.009323852 0.04327622 -0.026009152
000250 f6 17 21 3d f1 47 ad 3b e0 df be 3d 65 29 ee bc
       0.03932949 0.005288117 0.093200445 -0.029072473
000260 b8 a7 9b bd 6d 1b a6 bd e0 7a 04 3e a4 fe 3a bd
       -0.07600349 -0.081107 0.12937498 -0.045653
000270 bc 75 12 3c 81 cd 9f 3d 67 06 0b bd 6b b8 97 bb
       0.008939203 0.07802869 -0.033941653 -0.0046301386
000280 02 0d 9c 3c b0 a8 d3 bc 17 7c 65 bb e2 2d 31 bd
       0.019049171 -0.025837272 -0.003501659 -0.043256648
000290 e5 ed 09 3c c8 50 b2 bc 49 88 88 bd 72 59 56 bd
       0.008418535 -0.021767035 -0.06666619 -0.052331395
0002a0 c2 ef 1b 3d e7 01 c6 bc 4e dd 06 be 77 0d ec 3d
       0.038070448 -0.024170829 -0.13170359 0.11526006
0002b0 d7 81 f2 bd 93 b0 eb bb 91 48 20 be ea 99 10 3e
       -0.11841171 -0.00719268 -0.15652682 0.14121214
0002c0 e9 25 a9 bd 91 dc fa bd 3e ab f3 3c 6d 12 2e be
       -0.08259184 -0.12249101 0.02974474 -0.16999216
0002d0 b9 d2 ca 3b 47 3b dd bd 82 ba 4a bd 4b 40 b9 3b
       0.006189671 -0.10802322 -0.049494274 0.0056534163
0002e0 e2 56 a9 bc 22 39 8b bd c1 b4 5d bd 94 8d b9 3c
       -0.020671312 -0.067980066 -0.05412746 0.022650518
0002f0 60 4a 32 be 0f 2d cd 3b fc 68 84 3c e7 a5 a2 3d
       -0.17411184 0.006261475 0.016163342 0.079417996
000300 03 6b 68 bc 5d d7 fc 3d 92 25 da bd cd ba b3 bd
       -0.01418567 0.12345765 -0.10651697 -0.08775864
000310 a7 1d b2 bd 6c fc 79 bd d1 e3 a4 bd 1c dd 95 bd
       -0.08697062 -0.061031744 -0.08051265 -0.07317564
000320 be 8e 6a 3d 10 70 97 bd ea 9a 80 bd 45 af b0 3d
       0.057265036 -0.07394421 -0.062795475 0.0862718
000330 4e eb b6 bd 37 73 7b bd 3c a6 c2 bd 47 02 0b 3d
       -0.089315996 -0.061389174 -0.09504363 0.03393772
000340 42 f7 c6 3d 6a 06 cb 3d 2e c8 d1 bc 7e 03 bd bd
       0.097151294 0.09913333 -0.025608148 -0.09229182
000350 0d ab ad bd 93 3a d7 bd b2 13 e8 bd 56 8b 75 bd
       -0.08479891 -0.10509219 -0.113318816 -0.059947334
000360 ae 82 60 3a bb c9 f4 bc ea fd eb 3d b4 90 c8 bd
       0.00085643947 -0.029881349 0.1152304 -0.09793225
000370 f3 ec c6 bd d5 9f 08 bd 93 07 57 3d cd 2c 59 3d
       -0.09713163 -0.033355553 0.052497458 0.05302124
000380 b8 fc f2 bd b6 02 92 bc fb 73 01 3d 62 01 93 bd
       -0.118646085 -0.017823558 0.03160475 -0.07177998
000390 f8 8f 80 bd 06 3e 7d bd 78 b6 4c 3d 49 8b 26 3d
       -0.0627746 -0.06182673 0.049978703 0.040660176
0003a0 8b ec 70 bd 45 62 ec 3c 2f dc cb bc 52 a2 aa bd
       -0.058819335 0.028855452 -0.024885265 -0.083317414
0003b0 69 79 89 3d bf a0 1e 3d 6d 7b fb bc 04 40 f3 3d
       0.0671261 0.03872752 -0.030698502 0.118774444
0003c0 b0 a4 37 3c c0 b4 db bb 4e 63 c1 bd 04 ef 5b 3d
       0.011208698 -0.0067048967 -0.09442769 0.05369474
0003d0 a5 c7 e5 bc 50 b4 67 3d 3d d3 6b bd f8 a2 8a 3d
       -0.0280493 0.056568444 -0.0575745 0.06769365
0003e0 5a 3f a6 3b 6e be 97 3d a7 65 63 3b 44 2c 6d bd
       0.00507347 0.074093685 0.003469804 -0.057903543
0003f0 56 08 6e 3d 89 82 30 3d 89 2c 27 be 0e b4 59 bc
       0.05811342 0.043093238 -0.16325583 -0.013287557

classifier.7.bias f4 [16]
000000 0a 6e a5 3c 7c a0 97 3d 7f e2 ea bb 45 4b ea bd
       0.020194072 0.07403657 -0.0071681137 -0.11440138
000010 28 5e ba 3c 26 2d be bd f1 f3 ca bc 8d b6 22 bd
       0.022749975 -0.09285955 -0.024774523 -0.039724875
000020 7e 81 d8 bd ba c8 04 be 8f 75 84 3c 87 c3 8d bd
       -0.10571574 -0.12967196 0.016169338 -0.069220595
000030 69 fd 00 bd 7d 71 4a bd f7 fe a4 bd 38 2e 70 3c
       -0.03149167 -0.049424637 -0.08056443 0.014659457

classifier.8.weight f4 [16]
000000 9e 66 a8 3f 5c 2c ac 3f 99 3a ac 3f 98 f1 a5 3f
       1.3156316 1.3451037 1.3455383 1.2964354
000010 ad 4b a3 3f 8e be ac 3f 78 9b a9 3f 61 12 af 3f
       1.275747 1.3495653 1.325057 1.3677484
000020 ce 21 a6 3f 8f b4 a9 3f 9f c1 a8 3f c1 ee a9 3f
       1.2979066 1.3258227 1.3184088 1.3275987
000030 a6 f5 ac 3f b2 0e a8 3f 00 90 af 3f 2f 4a a8 3f
       1.3512466 1.3129485 1.371582 1.3147639

classifier.8.bias f4 [16]
000000 bb 5d 9c 3e 25 c4 b5 3e f8 78 9e 3e 8a 28 9c 3e
       0.3054026 0.3550121 0.30951667 0.3049968
000010 eb 4f 8b 3e 48 cd bc 3e 33 6e 92 3e db c5 b1 3e
       0.2720941 0.36875367 0.285997 0.34721264
000020 c9 91 92 3e 3b b3 a3 3e 43 22 91 3e da 4f b1 3e
       0.2862685 0.3197268 0.28346452 0.34631234
000030 36 53 ad 3e 9a 0f 8a 3e 9e 29 a0 3e 9e dd b3 3e
       0.33852547 0.26965028 0.3128175 0.35130018

classifier.8.running_mean f4 [16]
000000 92 37 8b be 7e 0e c3 3d 09 2b 5e be 95 46 08 bf
       -0.27190834 0.095242485 -0.21696104 -0.532327
000010 50 e3 96 be c1 db b2 bd a9 b0 78 bc 44 ef 87 be
       -0.294703 -0.08733321 -0.015178838 -0.26549733
000020 c1 03 b1 be 94 5e 7f be 33 d9 03 be 3d 2c 9d be
       -0.34573177 -0.24938422 -0.12875824 -0.30697814
000030 e4 42 68 3d ac 65 96 be 33 3d f1 bc 34 30 49 be
       0.056704417 -0.29374444 -0.029448127 -0.19647294

classifier.8.running_var f4 [16]
000000 64 b9 f3 3d e5 35 ac 3d e1 e4 2d 3e ea af d2 3e
       0.11900595 0.08408717 0.16981842 0.41149837
000010 df 58 5f 3e eb a3 0f 3e 8b f0 ae 3d aa 50 01 3e
       0.21811245 0.14027373 0.08541974 0.12628427
000020 00 d4 4a 3e a8 31 cb 3d 4a 73 2d 3e 5e 02 5c 3e
       0.19807434 0.099215806 0.1693851 0.21485278
000030 e5 b2 25 3e 29 53 26 3e 67 b7 ba 3d 81 3a d1 3d
       0.16181524 0.1624266 0.091170125 0.10216237

classifier.10.weight f4 [10, 16]
000000 2e 38 e4 bd 25 83 b5 3e 71 c7 d3 bd bd ae c8 be
       -0.11143528 0.35451618 -0.10340775 -0.39195815
000010 63 46 10 be b1 fe dc be 30 5a 4c be 40 4c 80 bd
       -0.1408935 -0.43163064 -0.19956279 -0.062645435
000020 3b 86 15 be 00 df d8 3e 51 6b f4 be eb b0 0d bf
       -0.14601986 0.42357635 -0.47738126 -0.5534808
000030 aa 37 ef 3e d0 b8 d6 be 38 81 e3 be fc 1a 52 be
       0.46722156 -0.41937876 -0.44434524 -0.20518106
000040 45 93 c3 3e 32 98 92 be b0 3f fa bd a6 5e 26 be
       0.38198295 -0.2863174 -0.12219179 -0.16247043
000050 ed 81 ce 3e 69 99 8c be 83 39 66 be 6c 38 18 be
       0.403335 -0.27460793 -0.22482876 -0.14865273
000060 1f 5f f3 3e 53 b4 f8 be 46 ae aa be 4c 64 a2 be
       0.4753351 -0.48575076 -0.33336085 -0.31717145
000070 65 7f 94 be e4 5c e5 3e 77 27 08 be 45 38 e4 be
       -0.29003444 0.44797432 -0.13296305 -0.4457418
000080 9d 46 d8 bc ce 94 05 bf 7e 96 ee be 61 17 c7 be
       -0.026400859 -0.5218018 -0.4659919 -0.38885024
000090 e0 16 d7 be 7b 45 28 3e 55 58 da be cd 52 fa 3e
       -0.4200964 0.16432755 -0.42645517 0.48891297
0000a0 f1 23 f1 be 70 c9 ca be 58 a7 48 be 47 5e bc 3e
       -0.47097734 -0.3960681 -0.19595087 0.36790678
0000b0 73 65 08 3f 8a 62 c4 bd a7 fe 84 bd d2 b7 85 be
       0.532798 -0.09589107 -0.064938836 -0.26116806
0000c0 33 e0 cb 3e 29 cb ef be 51 d5 b7 be 0c 8d aa be
       0.39819488 -0.46834686 -0.35904935 -0.33310735
0000d0 3c 2e ff 3e cf d0 ab be 6f 0b e4 3e 0a 86 e1 be
       0.49839962 -0.33557746 0.44539973 -0.44047576
0000e0 58 5c fe be 8e a7 1e bd 2b 65 a1 be 7f 1a 39 be
       -0.49679828 -0.03873401 -0.31522498 -0.18076514
0000f0 af 2c d4 bd 37 6c f6 be 36 dd af be cd c0 3e 3e
       -0.10360085 -0.48129436 -0.34348458 0.18628235
000100 52 f1 0d 3f 08 33 d5 be 41 39 ec 3d 67 2b ca be
       0.5544635 -0.41640496 0.11534358 -0.39486238
000110 e1 d3 41 be aa 6b 9f be 15 2d d5 be ec 07 f2 3e
       -0.18928482 -0.3113683 -0.41635957 0.4727167
000120 f1 9b 23 be 39 18 17 be 3a ff c9 be f6 5a dd be
       -0.15977456 -0.14755334 -0.39452535 -0.4323346
000130 05 b5 80 be b1 a3 bb be 9c 6b e8 3e 34 59 ef be
       -0.25138107 -0.36648324 0.453946 -0.46747744
000140 97 ca 93 be 97 64 80 3e 11 bf 59 be 89 ff 8d 3e
       -0.288655 0.25076744 -0.21264292 0.2773402
000150 ff b4 84 be 71 dc b1 3e f4 de bb 3e 11 6a ca be
       -0.2591934 0.34738496 0.36693537 -0.39534047
000160 43 19 9f 3e 44 74 ee be b7 2b d0 be ed 09 b2 3e
       0.3107396 -0.4657308 -0.40658352 0.34773198
000170 73 49 96 be 78 60 72 bc 42 6f e5 be 58 52 0f bf
       -0.29352912 -0.014793508 -0.44811445 -0.5598502
000180 f5 10 9b be 99 b3 2e 3d ec 04 15 be 15 a2 2f be
       -0.30286375 0.042651746 -0.14552659 -0.17151673
000190 e2 5b a7 be 42 5d e7 be 05 17 5e be de 2a 8e be
       -0.3268729 -0.45188338 -0.21688469 -0.2776708
0001a0 2e 10 c9 be ae 1d 33 be 31 f9 e4 bd d3 7d 8e be
       -0.39270157 -0.1749179 -0.11180342 -0.2783037
0001b0 ff 8c d9 3e 70 b8 30 be 49 53 1d 3f a5 43 99 3e
       0.42490384 -0.17257857 0.6145521 0.2993442
0001c0 62 3b db be 13 56 02 bf f5 32 79 bd 6c 63 8c 3e
       -0.42818743 -0.5091259 -0.060839612 0.27419603
0001d0 b5 c6 af be 20 e9 f3 be 13 5e b0 be be 8d a4 be
       -0.3433129 -0.47638798 -0.34446773 -0.3213939
0001e0 01 3e ea 3e f2 56 db 3e e0 64 c1 3e 24 64 21 3e
       0.4575043 0.42839772 0.37772274 0.15760857
0001f0 8a 35 98 be a6 b7 7f be 48 47 bd bd 59 7d af be
       -0.29728347 -0.249724 -0.092421114 -0.3427532
000200 97 07 53 be e8 df ed be 38 6d ea 3e ce 42 ce be
       -0.20608364 -0.4645989 0.45786452 -0.40285343
000210 fb 80 8d bd 51 55 a5 3e ff 8d cf be 67 50 2a be
       -0.06909367 0.32291654 -0.40538022 -0.16632234
000220 b3 b9 87 be 31 3b 54 be ee 2c ed 3e 3d d6 58 be
       -0.26508865 -0.20725705 0.4632334 -0.21175475
000230 23 09 af bd 1f 24 09 3e 62 6e 57 bc 1b 1b ca 3e
       -0.085466646 0.13392685 -0.013148876 0.39473805
000240 2a 22 d6 be 64 d5 ac be 40 b4 ec 3e 5d b4 f2 3e
       -0.4182294 -0.33756554 0.4623127 0.4740323
000250 9e d2 ad be c6 0f e3 be 68 5d 21 be aa aa 99 3e
       -0.3394975 -0.44347972 -0.15758288 0.3001302
000260 9d 60 42 be a8 0e 7e be 3c 5c f0 be e1 a7 b1 3e
       -0.18982168 -0.24810278 -0.4694537 0.34698394
000270 02 a6 f3 be 2e 2c 2a be c7 29 c4 be ab de b5 3e
       -0.4758759 -0.16618416 -0.38313124 0.35521445

classifier.10.bias f4 [10]
000000 05 6b 97 3e dc 36 b5 be af 1f a4 3e 18 4a 66 3e
       0.29573837 -0.35393417 0.32055423 0.22489202
000010 6d 7b 9c 3e 42 3c b5 ba 13 96 dc 3e 5c 43 40 bc
       0.30562916 -0.0013827162 0.43083248 -0.01173481
000020 85 7b a3 be d1 fd 80 be
       -0.31930175 -0.25193647

exp_avg f4 [32, 784]
000000 bf f3 10 b3 de 46 20 b5 12 b7 45 b5 a8 48 fc b4
       -3.37493e-08 -5.970777e-07 -7.365462e-07 -4.6991522e-07
000010 79 a9 fc b8 e4 a0 18 b9 71 dd bf b8 e8 a8 fb b4
       -0.00012047863 -0.00014555786 -9.1488364e-05 -4.687529e-07
000020 87 15 c1 b9 3d 7f ad b9 75 91 ae ba 33 2d c9 ba
       -0.00036827868 -0.0003309193 -0.0013318496 -0.0015348553
000030 db 5f 56 ba 8d 58 55 b6 45 42 96 b8 6d 99 31 b8
       -0.0008177736 -3.1791017e-06 -7.164901e-05 -4.2342977e-05
000040 15 9c 55 ba 83 4e 2a ba 2d c6 85 ba 37 d5 95 b9
       -0.0008148563 -0.00064966845 -0.0010206156 -0.00028578352
000050 37 45 ba b9 88 04 1f b9 ac 62 30 b9 14 16 2b b9
       -0.00035528254 -0.0001516511 -0.00016821426 -0.00016316056
000060 1b 76 13 38 a7 97 a1 35 d0 35 b1 b4 fa 97 28 b3
       3.5157525e-05 1.2039571e-06 -3.3007973e-07 -3.925377e-08
000070 d7 c4 c1 b2 4d 3c ec b4 73 5a 41 b7 62 e2 0c b8
       -2.255767e-08 -4.40023e-07 -1.1524756e-05 -3.3589436e-05
000080 61 ce b9 b8 e3 da 8f b8 93 fb 55 b9 6d 96 8a b9
       -8.8599285e-05 -6.859542e-05 -0.00020406982 -0.00026433487
000090 a6 fd 62 ba af aa 90 ba 9d ec e0 b9 e3 69 ac b9
       -0.00086590124 -0.0011037196 -0.000429009 -0.00032885288
0000a0 26 51 d4 39 56 fa 40 b9 b2 b5 51 ba 97 fa fe b8
       0.0004049625 -0.00018403804 -0.0007999792 -0.0001215834
0000b0 df 0d 23 39 6b 20 87 ba 34 50 87 ba 59 eb 8a b7
       0.00015550059 -0.0010309344 -0.0010323585 -1.6560474e-05
0000c0 c2 d4 15 ba 78 d0 3a ba 35 95 e2 b9 88 7a 6e b9
       -0.00057156023 -0.0007126401 -0.00043217247 -0.00022743095
0000d0 1e 5c fa 37 09 71 b5 37 91 4e 3b b6 3a d1 9c b6
       2.9845218e-05 2.1629518e-05 -2.7910903e-06 -4.6735195e-06
0000e0 0c 0a 4c 33 03 70 fc 35 02 1d a0 b7 a1 e7 96 b6
       4.750659e-08 1.8808063e-06 -1.9086994e-05 -4.4973135e-06
0000f0 63 ca 3d b8 a7 35 03 b8 e8 a5 6d b7 b2 f8 07 b9
       -4.52496e-05 -3.12828e-05 -1.4164929e-05 -0.0001296725
000100 4c 27 62 ba 60 c5 91 39 ad a9 90 3a 11 70 54 3a
       -0.00086270715 0.0002780361 0.0011036895 0.00081038574
000110 19 15 a9 3a 51 f2 9f 3a 7c 1c 90 3a 97 88 f2 b8
       0.0012899964 0.0012202953 0.0010994817 -0.00011564901
000120 f2 e1 6a 3a 24 61 4a 3a 6d a7 74 b9 1f 56 c0 38
       0.000896006 0.00077201636 -0.00023332024 9.171315e-05
000130 d8 f9 17 3a 6c 10 41 38 db cc 56 ba 1f a9 f5 b9
       0.00057974225 4.603008e-05 -0.0008193978 -0.00046856047
000140 c8 ee 26 38 02 2b 17 35 74 f8 a7 b5 19 20 31 b6
       3.9799866e-05 5.631447e-07 -1.2514779e-06 -2.6393739e-06
000150 2e ac 14 35 e3 91 ad b5 c5 a2 6b b6 f2 70 ca b6
       5.538485e-07 -1.2931963e-06 -3.5112473e-06 -6.0332177e-06
000160 ad bc 00 b9 40 b7 e0 b9 87 b2 71 ba da 65 a5 ba
       -0.00012277318 -0.0004286114 -0.0009220023 -0.0012618855
000170 26 bb 9d b9 63 cc 8d 3a 7d 3b fe 39 a3 cc 2f 3a
       -0.0003008481 0.0010818358 0.00048490977 0.00067062135
000180 d2 e9 81 3a 41 aa 89 3a 60 13 bd 3a 04 9f b2 37
       0.0009911603 0.001050301 0.001442533 2.1293301e-05
000190 12 0d c6 39 31 c0 0e 3a 2d 06 65 3a 80 36 09 3a
       0.0003777524 0.0005445509 0.0008736577 0.00052342564
0001a0 7c fc 28 ba b8 e0 09 ba 47 28 be 38 84 94 2b ba
       -0.00064463145 -0.0005259621 9.067408e-05 -0.0006545263
0001b0 4f cc 81 b8 1b 91 a0 37 d8 8b 34 b6 9b 12 cd 35
       -6.189255e-05 1.9141056e-05 -2.690349e-06 1.5279105e-06
0001c0 24 27 6b 35 9e 70 bf b6 dc 1b bc 37 18 82 71 38
       8.760128e-07 -5.705354e-06 2.242432e-05 5.7580037e-05
0001d0 22 82 13 b9 b9 b6 ca ba e9 e2 87 ba e8 3a 93 ba
       -0.0001406749 -0.0015465833 -0.0010367307 -0.0011232765
0001e0 27 c8 f7 b9 a5 19 29 3a 0a 41 0e 3a e8 43 51 3a
       -0.00047260636 0.000645066 0.00054265617 0.0007982836
0001f0 e2 94 a8 38 9b ea 5e 3a f1 71 6a 3a 93 d4 a6 37
       8.038596e-05 0.0008503587 0.000894337 1.988773e-05
000200 8d c9 49 39 11 df 68 3a ae 09 93 3a 99 96 32 3a
       0.00019243937 0.0008883337 0.0011218095 0.0006812602
000210 09 c1 08 ba 60 a3 80 ba d7 9e d6 b8 15 6a d6 b9
       -0.0005216753 -0.0009814315 -0.000102339014 -0.00040896298
000220 32 b9 d5 b8 d8 7c e5 37 c0 41 ac b6 cb cb 22 37
       -0.00010191127 2.7357062e-05 -5.1336538e-06 9.703402e-06
000230 81 5f ff b3 2d f2 61 b7 71 f2 b4 37 fc d3 a4 38
       -1.1891735e-07 -1.3467431e-05 2.1570568e-05 7.8596146e-05
000240 c0 01 28 ba 5a 53 0f bb a5 9d b0 ba b3 84 d6 b7
       -0.0006408952 -0.002186975 -0.0013474716 -2.557258e-05
000250 20 0a 68 3a b3 d6 14 3a a3 fa 24 3a 12 91 5c 3a
       0.00088516064 0.00056777446 0.00062934513 0.0008413951
000260 a2 ac 42 3a 23 db 13 3a 30 00 ba 3a 82 c7 61 3a
       0.0007426237 0.0005640259 0.001419073 0.0008612798
000270 cc 66 93 3a 5b a6 1e 3a a1 7a 07 3a 65 d3 89 3a
       0.0011245846 0.00060520106 0.00051681144 0.0010515271
000280 f2 cf 36 3a 1e f3 a0 ba 9a 33 87 ba 7f 22 1d ba
       0.0006973735 -0.0012279486 -0.0010315061 -0.0005994215
000290 c6 96 08 b9 3b 5b 89 38 04 27 4b 38 c1 52 c9 36
       -0.00013026138 6.549662e-05 4.8435308e-05 5.9999006e-06
0002a0 23 87 a9 b6 f1 9a 6c b7 18 f5 17 b7 f2 70 91 37
       -5.0523245e-06 -1.4102771e-05 -9.057367e-06 1.7337941e-05
0002b0 b1 fe 95 ba b8 0d 03 bb 5d c6 9b ba 1c e8 1f 3a
       -0.0011443702 -0.001999719 -0.0011884678 0.00060999556
0002c0 ff f4 54 3a 1f 7e 39 3a 45 83 d8 39 a0 b5 40 38
       0.00081236655 0.00070759834 0.00041296534 4.594552e-05
0002d0 8d 0f 2c 3a 32 f8 fc 39 cb 27 93 3a 0f cc 8c 3a
       0.00065635965 0.00048250105 0.0011227069 0.0010741967
0002e0 bf 17 48 3a df 1a fe 39 3a f6 87 3a 95 ae bb 3a
       0.0007632933 0.00048466676 0.0010373064 0.0014318997
0002f0 e9 91 bc 3a a0 76 b4 b9 33 17 8b ba 9a 17 0c ba
       0.0014386746 -0.00034420658 -0.0010611772 -0.0005344093
000300 36 92 17 b9 c7 58 a9 38 1a 3e 66 37 4a 35 1d 38
       -0.0001445495 8.075084e-05 1.3723527e-05 3.7481346e-05
000310 83 70 26 b7 d8 fb a1 36 13 bc 6c b8 79 b7 8b b7
       -9.920567e-06 4.8274924e-06 -5.6441942e-05 -1.6655527e-05
000320 06 10 c2 ba 6d 01 f1 ba b0 f1 93 ba e5 4f c2 39
       -0.0014805801 -0.0018387266 -0.0011287238 0.0003706209
000330 f5 94 aa 3a 44 21 89 3a bd 74 1b 3a 42 2e 98 39
       0.0013014363 0.0010462184 0.0005930176 0.00029026164
000340 ef 1b 17 3a f6 88 47 3a c5 9e 76 3a 2d 9d 71 3a
       0.00057643553 0.00076116563 0.0009407814 0.00092168414
000350 a6 b4 3c 3a be 83 bf 39 ed 97 90 3a fb 17 8b 3a
       0.00071985496 0.00036528514 0.0011031606 0.0010612005
000360 08 21 bc 3a 3d 91 3d 39 5c 3e 87 ba 5e 05 43 38
       0.0014353106 0.0001807855 -0.0010318267 4.649662e-05
000370 3d 07 0e b9 26 59 6c 39 a3 12 84 b8 33 36 20 b8
       -0.00013544872 0.00022539924 -6.297722e-05 -3.819745e-05
000380 60 60 bf b6 02 32 76 36 27 10 5d b8 b2 48 e8 b8
       -5.703463e-06 3.6685965e-06 -5.270555e-05 -0.000110761626
000390 cf 86 b8 ba 7a 59 c3 ba e0 c8 7c ba b7 ed 18 39
       -0.0014078262 -0.0014903985 -0.000964297 0.00014584405
0003a0 c8 bb e6 3a 03 fe 64 3a 7f fb 59 3a c9 40 fe 39
       0.0017603571 0.00087353605 0.0008315369 0.00048494924
0003b0 6c 05 4b 3a ee d2 5a 3a e0 91 d7 3a 3f 54 a2 3a
       0.00077446434 0.0008347471 0.0016446672 0.0012384726
0003c0 1b d5 b0 3a d1 50 8b 3a 1e fc 3c 3a 79 8b 91 3a
       0.0013491245 0.0010628944 0.0007209199 0.0011104188
0003d0 d9 de db 3a 86 c0 eb b7 fb 4c 60 ba 38 7c 0d 39
       0.0016774788 -2.8103834e-05 -0.0008556393 0.00013493083
0003e0 13 80 d0 b9 90 68 f3 37 96 12 55 b9 56 92 61 b7
       -0.00039768274 2.9016548e-05 -0.00020320187 -1.3445117e-05
0003f0 6d fd bc b5 4a fd ce b7 40 f4 2e 37 dc fb ed b8
       -1.4080848e-06 -2.467506e-05 1.0428077e-05 -0.00011347953
