lightning_logs/version_0/checkpoints/epoch=20-step=504.ckpt (torch, 369102 bytes, 48 tensors)

classifier.1.weight f4 [32, 784]
0.014202654 0.02801131 -0.045433626 -0.058606885 0.09501416 0.095615976 0.07899289 0.060397953
0.047313754 -0.047698922 -0.08321994 0.0060478416 0.03578815 0.074918404 0.023488436 0.06427108
0.02972498 -0.018090473 0.059476174 0.07093502 0.16259469 0.113919914 0.079734 0.12914285
-0.11550862 -0.0085450625 0.03717282 -0.0036901566 -0.012333607 0.041741855 0.033637535 0.021293428
0.031288814 -0.008654725 0.07199845 0.0051130834 -0.04878406 -0.0017385607 -0.003205879 0.018108232
-0.0011227106 0.033702195 0.049461696 0.040175755 -0.034900982 -0.024600342 -0.05107573 -0.033814296
0.025831027 0.059178073 -0.024018807 0.027118346 -0.032504547 -0.059342097 -0.012595872 -0.0616891
0.012909843 -0.0033275632 0.016121307 0.045323305 0.0034277777 -0.020943085 -0.07818354 -0.056320388
-0.003135636 0.011835693 0.020601826 -0.017722521 -0.03619336 0.017131751 0.10002208 0.060806174
-0.036360506 -0.02240831 0.01960285 0.00063705066 -0.061865494 -0.04672368 -0.010841582 -0.02130562
-0.07158726 -0.02032459 0.045827314 -0.047811113 0.020638296 -0.017352678 -0.033214793 -0.018414382
-0.04171081 -0.060686186 -0.05903992 0.019230194 0.0614649 0.00056451716 -0.011579095 0.012101706
-0.0064845863 0.06254273 0.066283755 0.009742563 0.019681484 -0.01357722 0.020769697 0.04708407
0.062900014 -0.027766747 -0.06503261 -0.00030561135 -0.0012777502 -0.021469755 0.009127432 0.007799686
-0.038450792 0.016506761 0.015417488 -0.032602526 -0.05668382 -0.012797358 -0.016510526 -0.014066274
0.024355812 -0.025324475 0.045853965 0.047241565 0.041268602 -0.010132673 0.020485058 0.02104838
0.07120149 -0.0093589015 -0.059994508 -0.00332321 0.020839738 0.018906895 0.02684589 -0.056156844
-0.02544307 -0.03447399 -0.020273743 -0.019374471 -0.037252296 -0.035515126 -0.017888581 -0.03454481
0.02016066 -0.03424995 0.011949609 -0.016698867 -0.034166392 0.048736513 0.0010054068 0.018010726
0.05555522 0.052444305 -0.0016325612 0.026074855 0.0026937865 0.019331547 0.009820548 0.013587142
-0.05475026 -0.04292477 -0.04219034 -0.03309966 -0.047577567 0.003473246 -0.061032165 -0.02122037
-0.027551023 -0.04789682 -0.015516435 0.024875334 0.010061318 -0.03636616 -0.01841493 -0.022861786
-0.039070327 0.015618573 0.014405301 0.071044795 0.043804165 0.012070173 0.013810335 -0.015362995
0.009296308 0.0072422577 0.0078120055 0.023456622 -0.053659905 -0.022724146 -0.00395871 -0.027921738
-0.0021420289 -0.004259052 -0.038891036 -0.07125943 -0.013444619 -0.04342908 -0.0053251414 0.020940658
0.00447548 -0.019920059 0.004142679 -0.0799652 -0.04356351 0.015328916 0.010268088 0.0049265693
0.023286905 0.049128577 0.05549407 0.023170004 0.03703393 -0.025646886 -0.006340503 -0.02438218
-0.053650882 0.0161216 -0.020044506 0.014531335 0.015735881 0.01851575 -0.012455486 -0.02360841
0.018174078 -0.04600785 -0.03274585 -0.025772821 0.028582504 0.007285971 -0.020054027 -0.011287639
0.005411049 0.0109549435 0.025380794 0.023671256 0.011299355 -0.0023959188 0.00015319393 0.037435453
0.002388575 -0.010295548 0.028105775 -0.00088437233 -0.016838964 -0.029318027 -0.026057782 0.027788222
0.004306306 -0.006022584 0.0708245 -0.021430109 -0.020086378 -0.014487954 -0.01081494 0.01400392
00000000: 40b2 683c fa77 e53c 9c18 3abd c60d 70bd
00000010: c996 c23d 4fd2 c33d 06c7 a13d d863 773d
00000020: 11cc 413d f25f 43bd 376f aabd f92c c63b
00000030: 9896 123d d26e 993d d26a c03c 8ea0 833d
00000040: cd81 f33c 7932 94bc 4a9d 733d 6146 913d
00000050: 397f 263e d84e e93d 944b a33d 063e 043e
00000060: c98f ecbd 9700 0cbc 8742 183d 8ed6 71bb
00000070: e612 4abc 82f9 2a3d 83c7 093d 8e6f ae3c
00000080: b328 003d 8ccc 0dbc ec73 933d a78b a73b
00000090: cbd1 47bd 6be0 e3ba b919 52bb b757 943c
000000a0: eb27 93ba 500b 0a3d 5998 4a3d 558f 243d
000000b0: 55f4 0ebd a886 c9bc c934 51bd dc80 0abd
000000c0: 979b d33c b564 723d 17c3 c4bc 4b27 de3c
000000d0: 7d23 05bd b310 73bd eb5e 4ebc b6ad 7cbd
000000e0: ce83 533c 3f13 5abb d510 843c eea4 393d
000000f0: 91a4 603b d590 abbc b11e a0bd 35b0 66bd
00000100: 3e7f 4dbb 7fea 413c 29c5 a83c d22e 91bc
00000110: 7d3f 14bd e357 8c3c 60d8 cc3d e50f 793d
00000120: c1ee 14bd a291 b7bc 2896 a03c bfff 263a
00000130: ac66 7dbd 5461 3fbd e4a0 31bc 2089 aebc
00000140: 579c 92bd c17f a6bc 6cb5 3b3d 96d5 43bd
00000150: a511 a93c 3427 8ebc 3c0c 08bd c2d9 96bc
00000160: f4d8 2abd 1492 78bd d8d3 71bd a488 9d3c
00000170: 9ec2 7b3d 1bfc 133a 3fb6 3dbc 3c46 463c
00000180: a77c d4bb 6716 803d c7bf 873d 459f 1f3c
00000190: 103b a13c fd72 5ebc 3625 aa3c 3adb 403d
000001a0: b9d1 803d 1777 e3bc d12f 85bd 763a a0b9
000001b0: 2f7a a7ba 57e1 afbc 398b 153c 8294 ff3b
000001c0: 947e 1dbd 3039 873c a299 7c3c 3a8a 05bd
000001d0: 4b2d 68bd 03ac 51bc 1541 87bc 3b76 66bc
000001e0: d785 c73c 4675 cfbc 5ed1 3b3d 5f80 413d
000001f0: 4409 293d 8303 26bc 48d0 a73c a76d ac3c
00000200: 16d2 913d 1456 19bc cdbc 75bd 36ca 59bb
00000210: 19b8 aa3c a2e2 9a3c e9eb db3c b804 66bd
00000220: fc6d d0bc 9934 0dbd 1f15 a6bc 36b7 9ebc
00000230: dd95 18bd 4f78 11bd 138b 92bc dc7e 0dbd
00000240: f827 a53c ad49 0cbd 4bc8 433c 10cc 88bc
00000250: 0ff2 0bbd f09f 473d dbc7 833a 3b8b 933c
00000260: df8d 633d d7cf 563d aafb d5ba ef9a d53c
00000270: 3d8a 303b 315d 9e3c 5de6 203c 9b9c 5e3c
00000280: cf41 60bd e2d1 2fbd c7cf 2cbd 8293 07bd
00000290: b2e0 42bd 669f 633b ddfc 79bd 57d6 adbc
000002a0: afb2 e1bc 752f 44bd a538 7ebc 5bc7 cb3c
000002b0: 3ad8 243c aff4 14bd e8da 96bc a448 bbbc
000002c0: 3508 20bd 0be5 7f3c 3604 6c3c ef7f 913d
000002d0: ff6b 333d fac1 453c be44 623c 12b5 7bbc
000002e0: 8b4f 183c 7650 ed3b dafb ff3b 1a28 c03c
000002f0: 7dca 5bbd fd27 babc 11b8 81bb 21bc e4bc
00000300: 4861 0cbb 858f 8bbb 354c 1fbd 77f0 91bd
00000310: d246 5cbc b1e2 31bd 867e aebb be8b ab3c
00000320: 0ca7 923b 642f a3bc 4fbf 873b cbc4 a3bd
00000330: a76f 32bd 2226 7b3c 7c3b 283c 0f6f a13b
00000340: 2ec4 be3c 0c3b 493d c04d 633d 05cf bd3c
00000350: e4b0 173d 6b19 d2bc ffc3 cfbb 23bd c7bc
00000360: 07c1 5bbd 7211 843c 6034 a4bc d614 6e3c
00000370: 89e8 803c 58ae 973c 1812 4cbc 6d66 c1bc
00000380: cee1 943c ba72 3cbd 8320 06bd 8621 d3bc
00000390: db25 ea3c 28bf ee3b 5848 a4bc caef 38bc
000003a0: 2b4f b13b 5d7c 333c 62eb cf3c 39ea c13c
000003b0: ee20 393c d904 1dbb afa2 2039 eb55 193d
000003c0: a489 1c3b a8ae 28bc 153e e63c 39d5 67ba
000003d0: def1 89bc 5c2c f0bc 2177 d5bc 20a4 e33c
000003e0: ea1b 8d3b 1959 c5bb 6f0c 913d 328e afbc
000003f0: 308c a4bc e25e 6dbc 2531 31bc b370 653c

classifier.1.bias f4 [32]
-0.0003139565 0.0035485895 -0.03125569 -0.009360277 0.014964729 -0.012069707 0.028581062 0.03450372
-0.016772505 0.018008184 0.029540244 -0.026520323 0.031202288 -0.0008158201 -0.000721832 0.014890463
0.015419633 0.024867276 0.030084077 -0.020647475 -0.0149350595 -0.026337544 -0.034287013 -0.014874578
-0.024500085 0.012003815 0.01874052 -0.023544982 0.009735516 -0.006475895 0.007841284 -0.026602061
00000000: 879a a4b9 748f 683b f705 00bd d95b 19bc
00000010: 9f2e 753c 05c0 45bc d522 ea3c c653 0d3d
00000020: 7e66 89bc e685 933c 62fe f13c 2641 d9bc
00000030: f19b ff3c c3dc 55ba 5339 3dba 21f7 733c
00000040: a1a2 7c3c 75b6 cb3c e272 f63c e524 a9bc
00000050: 2eb2 74bc d5c1 d7bc 8a70 0cbd 81b4 73bc
00000060: 67b4 c8bc a6ab 443c b885 993c 68e1 c0bc
00000070: b781 1f3c bf33 d4bb bb78 003c 91ec d9bc

classifier.2.weight f4 [32]
1.0210372 0.95891815 0.9889212 1.0087631 1.0410551 0.9805942 1.0163587 0.94942135
1.0150987 0.9711771 0.9712215 0.95841587 0.9616553 1.0569919 0.9647723 0.98389405
1.0327246 1.0042653 1.022833 0.93847144 1.0201228 0.9608334 0.9885862 0.9643914
1.027344 1.0029685 1.046437 1.0027984 1.0004903 0.995484 1.073821 0.9750312
00000000: 59b1 823f a97b 753f f129 7d3f 261f 813f
00000010: 4b41 853f 3908 7b3f 0b18 823f 470d 733f
00000020: c1ee 813f 109f 783f f9a1 783f be5a 753f
00000030: 0b2f 763f 834b 873f 51fb 763f 7be0 7b3f
00000040: 5230 843f c48b 803f 31ec 823f aa3f 703f
00000050: 6293 823f 2df9 753f fc13 7d3f 5be2 763f
00000060: 0280 833f 4661 803f a6f1 853f b35b 803f
00000070: 1110 803f 0ad8 7e3f f772 893f a59b 793f

classifier.2.bias f4 [32]
-0.08134441 -0.06691502 -0.05612304 -0.062208395 -0.14098413 -0.06605457 -0.01843528 -0.078138925
-0.074972235 -0.119946584 -0.15654956 -0.08944918 -0.07549837 -0.01029643 -0.10128441 -0.13985458
-0.0925363 0.01677058 -0.008982909 -0.017296268 -0.13321579 -0.07540186 -0.07256326 -0.049219593
-0.1156843 -0.038813107 -0.11470713 -0.11672776 -0.020100163 -0.087106474 -0.092558965 -0.12575138
00000000: e697 a6bd be0a 89bd 46e1 65bd 3bce 7ebd
00000010: 255e 10be 9e47 87bd 9605 97bc 4d07 a0bd
00000020: 0b8b 99bd 8ea6 f5bd 874e 20be 2231 b7bd
00000030: e49e 9abd 5cb2 28bc 336e cfbd 0a36 0fbe
00000040: ac83 bdbd 7562 893c 0d2d 13bc e7b0 8dbc
00000050: b869 08be 4a6c 9abd 0c9c 94bd 7c9a 49bd
00000060: e4eb ecbd 7efa 1ebd 92eb eabd f70e efbd
00000070: 19a9 a4bc e164 b2bd 8e8f bdbd f8c4 00be

classifier.2.running_mean f4 [32]
0.5835633 -1.8178343 2.4104075 0.17304422 3.4162092 -1.2098922 0.91386664 1.3937652
2.164003 0.7811625 2.4380362 1.9663153 3.0556953 -0.18685763 4.458972 0.2313274
-0.0069901617 -0.77648973 0.6816007 -1.7272322 0.04047404 1.5509652 0.3573709 1.2800295
0.5173923 -0.85529006 0.40607524 1.0131891 0.9002849 3.138334 0.056665577 1.1921135
00000000: 6864 153f cbae e8bf 1e44 1a40 8132 313e
00000010: 2ca3 5a40 bfdd 9abf 2af3 693f e666 b23f
00000020: 067f 0a40 44fa 473f c908 1c40 38b0 fb3f
00000030: 8390 4340 9b57 3fbe e6af 8e40 17e1 6c3e
00000040: ba0d e5bb 08c8 46bf 627d 2e3f f215 ddbf
00000050: 1bc8 253d 0786 c63f 52f9 b63e 02d8 a33f
00000060: d273 043f 4af4 5abf 18e9 cf3e 2eb0 813f
00000070: 1279 663f 77da 4840 2a1a 683d 2d97 983f

classifier.2.running_var f4 [32]
0.7612244 0.52947795 1.6853503 1.0384203 0.80582815 1.5245231 1.4122733 0.7294069
0.85623246 0.8851172 0.5674979 1.0954169 0.7530592 0.80996555 1.2618175 1.3759391
0.89495337 1.9328581 0.8551395 1.7125503 0.9620961 0.93287885 1.6263151 0.71353275
1.5340971 1.7262114 0.8004885 1.0489709 1.5101525 1.014224 0.9883242 1.0823578
00000000: 9adf 423f de8b 073f 8fb9 d73f f5ea 843f
00000010: c14a 4e3f 9323 c33f 5fc5 b43f 69ba 3a3f
00000020: 0d32 5b3f 0a97 623f 8b47 113f 9f36 8c3f
00000030: 7dc8 403f e759 4f3f 3c83 a13f c61e b03f
00000040: aa1b 653f e567 f73f 6cea 5a3f d934 db3f
00000050: ee4b 763f 26d1 6e3f 182b d03f 15aa 363f
00000060: 4b5d c43f 7ff4 dc3f d0ec 4c3f ae44 863f
00000070: ad4c c13f 18d2 813f d102 7d3f b38a 8a3f

classifier.4.weight f4 [64, 32]
-0.117408276 0.034116674 0.16958219 0.014280053 0.19141982 0.086753756 0.14353675 -0.044291228
-0.00057118834 -0.076631755 -0.20574379 0.15892501 -0.005466692 -0.040974744 -0.11687997 0.027705012
0.17019738 0.04978621 -0.10474066 0.088355795 0.006985957 -0.029790923 0.17575595 0.03556155
0.1274424 -0.030450683 0.16122854 0.12580103 0.09936309 0.014814428 0.14882971 0.1841831
-0.12788732 -0.10241586 -0.11323825 -0.060353823 0.16651039 -0.048199505 0.030761758 0.12638786
0.10005872 0.15336825 0.111482926 0.10241098 -0.17774372 0.1407467 0.015373298 0.013610106
-0.24493642 -0.010096478 0.15247595 -0.1044704 -0.01040258 0.12446404 -0.030787988 0.065955296
-0.11361592 0.047010146 0.006767416 0.17313376 -0.22165853 -0.02418222 0.07462869 0.039811004
-0.029020043 -0.004245034 0.12016086 0.089239836 -0.17040151 -0.027949069 -0.18961404 0.10181118
-0.12315437 -0.059188083 0.024649201 -0.15062614 -0.048437774 -0.18538974 -0.07280678 0.018196605
0.17317963 0.05311108 -0.07232622 -0.20987484 0.080062054 0.1279031 0.12009562 0.115835816
-0.11070141 0.062050927 0.032778114 0.15143768 0.0669852 -0.06134436 -0.08838489 -0.035130393
-0.032736234 -0.01939356 0.06510157 0.109527186 0.097612515 0.037710022 0.11718781 -0.04337987
-0.09201965 -0.1872757 -0.14466326 -0.11775317 0.008462166 -0.22714387 0.034744505 0.046235595
0.034206003 0.10049096 -0.042757854 0.022581067 0.049010184 0.06277139 -0.06286927 -0.11086804
0.09877646 -0.12547977 0.049427487 0.16931361 0.19856858 0.14152844 0.014107531 0.10260268
0.09173277 -0.06942301 0.097769715 -0.08281924 0.03406323 0.020069966 -0.20628865 0.03930488
-0.040729035 -0.15365136 -0.05069883 0.00964378 -0.08830206 -0.18683109 -0.043491747 0.10429551
-0.13843194 -0.018223638 -0.10223528 -0.10283823 0.030985441 -0.05007911 -0.07361382 0.07884884
0.057105295 -0.07914586 -0.017149381 -0.21437827 0.0197901 -0.0081231035 0.05736327 0.20146593
-0.18983573 0.044129923 0.12873876 0.03700111 0.068494424 -0.18705341 -0.22000906 0.06568329
-0.14433789 -0.10286102 0.0066169575 0.1294454 0.014766671 -0.17251551 -0.09021744 0.044041328
0.05462698 -0.1633369 -0.10077626 0.027581045 0.013367925 -0.0044294074 -0.1425325 -0.085995086
-0.021212144 -0.23988613 -0.0786503 -0.04452886 0.032960214 0.100629814 0.11835326 0.080774225
-0.058551274 -0.05119485 0.12293431 -0.094883285 0.10331463 -0.123666614 -0.050445445 0.12356995
-0.07536645 -0.051914092 0.082275495 -0.07227569 0.018107632 -0.013771247 -0.14761046 -0.11327892
-0.10581454 0.027004573 -0.038939487 0.12274914 0.034467816 -0.019518502 -0.10373336 0.055978116
-0.13143682 0.019248003 0.044956554 -0.164305 -0.14459899 0.11392516 0.111114025 0.17847581
-0.11906343 -0.10880811 0.097903565 0.000246742 -0.15865271 -0.08776964 -0.005239623 0.022137534
0.16906163 -0.09946592 -0.027308509 -0.13744505 -0.05386464 -0.13337621 -0.019789744 0.04601267
0.09843559 -0.029413369 -0.16668399 0.044652164 -0.25057292 0.08546297 0.089594826 0.13712221
-0.043669727 -0.13122465 0.08422489 0.19435315 0.06433339 0.094173044 -0.10497718 -0.11869019
00000000: c073 f0bd edbd 0b3d f4a6 2d3e e2f6 693c
00000010: 8f03 443e f4ab b13d 4cfb 123e b86a 35bd
00000020: cdbb 15ba 1cf1 9cbd 80ae 52be 3dbd 223e
00000030: f021 b3bb 22d5 27bd c45e efbd 9ff5 e23c
00000040: 3948 2e3e a0ec 4b3d 4582 d6bd e2f3 b43d
00000050: 74ea e43b 180c f4bc 5ef9 333e fda8 113d
00000060: 4380 023e b673 f9bc 1819 253e fcd1 003e
00000070: e07e cb3d 37b8 723c d166 183e 7f9a 3c3e
00000080: e5f4 02be 68bf d1bd 75e9 e7bd 9235 77bd
00000090: b381 2a3e d86c 45bd 1500 fc3c d26b 013e
000000a0: 96eb cc3d 910c 1d3e 2951 e43d d9bc d13d
000000b0: 7302 36be e71f 103e 49e0 7b3c ecfc 5e3c
000000c0: 9dd0 7abe b36b 25bc a822 1c3e 94f4 d5bd
000000d0: 956f 2abc 01e7 fe3d 1737 fcbc 9213 873d
000000e0: 77af e8bd b68d 403d 33c1 dd3b fa49 313e
000000f0: 74fa 62be cb19 c6bc edd6 983d dd10 233d
00000100: 71bb edbc ed19 8bbb e616 f63d 60c3 b63d
00000110: bc7d 2ebe 72f5 e4bc 2f2a 42be 6182 d03d
00000120: 5c38 fcbd 346f 72bd 1fed c93c bd3d 1abe
00000130: b066 46bd cfd6 3dbe b91b 95bd 0c11 953c
00000140: 0056 313e 018b 593d c51f 94bd 6ee9 56be
00000150: 93f7 a33d 08f9 023e b1f4 f53d 543b ed3d
00000160: 6cb7 e2bd 1d29 7e3d 5842 063d 7b12 1b3e
00000170: 892f 893d 3944 7bbd 2303 b5bd e3e4 0fbd
00000180: 6e16 06bd 3edf 9ebc f953 853d ca4f e03d
00000190: 12e9 c73d d375 1a3d 2a00 f03d 17af 31bd
000001a0: cc74 bcbd 33c5 3fbe 9b22 14be 9328 f1bd
000001b0: e6a4 0a3c 6798 68be 4150 0e3d 8961 3d3d
000001c0: 981b 0c3d 34ce cd3d dc22 2fbd eefb b83c
000001d0: e7be 483d 498e 803d 9bc1 80bd c80e e3bd
000001e0: 504b ca3d c57d 00be 7a74 4a3d 8c60 2d3e
000001f0: 9055 4b3e d5ec 103e 4623 673c 5b21 d23d
00000200: 64de bb3d a72d 8ebd 7d3b c83d 229d a9bd
00000210: e385 0b3d c569 a43c 553d 53be 27fe 203d
00000220: 7dd3 26bd c856 1dbe 94a9 4fbd f200 1e3c
00000230: b6d7 b4bd a650 3fbe 6724 32bd e298 d53d
00000240: 1ac1 0dbe bd49 95bc bb60 d1bd da9c d2bd
00000250: 2ed5 fd3c c11f 4dbd d8c2 96bd 807b a13d
00000260: 3ee7 693d 3a17 a2bd dc7c 8cbc fa85 5bbe
00000270: d91e a23c c416 05bc c0f5 6a3d 164d 4e3e
00000280: 4c64 42be 94c1 343d 18d4 033e 7a8e 173d
00000290: ce46 8c3d ee8a 3fbe 0e4a 61be f684 863d
000002a0: 50cd 13be cca8 d2bd 10d3 d83b 568d 043e
000002b0: e8ef 713c e8a7 30be ecc3 b8bd ae64 343d
000002c0: 8ac0 5f3d ca41 27be c963 cebd a5f1 e13c
000002d0: 2405 5b3c 9024 91bb 0af4 11be 311e b0bd
000002e0: 17c5 adbc b6a4 75be 6913 a1bd e563 36bd
000002f0: 4a01 073d 0117 ce3d 3263 f23d f56c a53d
00000300: 76d3 6fbd b1b1 51bd fcc4 fb3d 2b52 c2bd
00000310: 9f96 d33d ec44 fdbd e29f 4ebd 3e12 fd3d
00000320: ba59 9abd dfa3 54bd 0e80 a83d 4705 94bd
00000330: 7556 943c cca0 61bc 3227 17be c7fe e7bd
00000340: 4bb5 d8bd b238 dd3c 037f 1fbd e763 fb3d
00000350: 202e 0d3d 44e5 9fbc 2872 d4bd 4f49 653d
00000360: 6097 06be fdad 9d3c 5d24 383d 923f 28be
00000370: c211 14be 9851 e93d c08f e33d 5dc2 363e
00000380: 87d7 f3bd c9d6 debd aa81 c83d 275d 8139
00000390: db75 22be 92c0 b3bd 25b1 abbb c659 b53c
000003a0: 7e1e 2d3e cab4 cbbd 18b6 dfbc 65be 0cbe
000003b0: 2ba1 5cbd c693 08be 1a1e a2bc c877 3c3d
000003c0: 9998 c93d 4ef4 f0bc 35af 2abe 30e5 363d
000003d0: 184b 80be 3607 af3d 7e7d b73d c469 0c3e
000003e0: 07df 32bd c15f 06be 197e ac3d 8304 473e
000003f0: 39c1 833d ccdd c03d 47fe d6bd d813 f3bd

classifier.4.bias f4 [64]
-0.15451983 -0.15909699 0.066236556 0.008774506 -0.15266123 -0.12460563 0.1498243 0.15896055
0.14251445 -0.0241561 0.05420582 -0.1312023 -0.119317085 0.111195855 0.16898173 0.08812607
-0.15740536 0.17465515 0.10798528 0.16430724 -0.025732212 -0.010957124 0.14689004 -0.12698914
0.15660334 0.08063458 -0.029255252 0.11345765 0.0021318346 -0.14607792 0.10329591 -0.10444329
0.16826168 0.02547837 0.009394432 -0.08867453 -0.13872467 0.06378242 0.113814265 -0.064689
0.14620158 0.16915245 0.1717333 0.06316582 0.16649362 0.02636035 -0.057926446 0.15615469
0.06351575 -0.1767649 0.173131 -0.1222801 0.12095729 -0.15245578 -0.06020831 -0.13591667
0.13966528 -0.1657073 -0.06700859 -0.10067612 -0.082936056 0.15764815 -0.13290724 -0.16473548
00000000: 723a 1ebe 52ea 22be 08a7 873d f2c2 0f3c
00000010: 3a53 1cbe 3d31 ffbd 8b6b 193e 8ec6 223e
00000020: 4fef 113e 03e3 c5bc ec06 5e3d e559 06be
00000030: 845c f4bd a7ba e33d 8c09 2d3e 717b b43d
00000040: df2e 21be cdd8 323e 6327 dd3d 2840 283e
00000050: 5ccc d2bc 8285 33bc 586a 163e 7109 02be
00000060: a05c 203e be23 a53d b6a8 efbc 7c5c e83d
00000070: 40b6 0b3b 7395 15be ce8c d33d 5de6 d5bd
00000080: ca4c 2c3e 04b8 d03c 1beb 193c fe9a b5bd
00000090: d70d 0ebe 5ba0 823d 7417 e93d ab7b 84bd
000000a0: deb5 153e 4d36 2d3e dbda 2f3e 155d 813d
000000b0: 4e7d 2a3e a9f1 d73c 4844 6dbd 04e7 1f3e
000000c0: 8c14 823d dc01 35be 4149 313e fd6d fabd
000000d0: 75b8 f73d 5e1d 1cbe fd9c 76bd bd2d 0bbe
000000e0: 6a04 0f3e 2daf 29be cd3b 89bd 482f cebd
000000f0: 61da a9bd 846e 213e d618 08be 6bb0 28be

classifier.5.weight f4 [64]
0.95265704 1.0008936 0.9856449 1.0034338 1.0486592 1.0627091 1.0277681 0.9986898
0.9736065 0.9665311 0.9777713 0.98877645 1.0026335 1.0374584 0.9995256 1.0370955
0.9892301 1.0032972 1.0288634 0.9910061 0.9855104 1.0836715 0.9818745 0.98688596
1.0794891 0.918665 1.0184951 1.0191739 0.98332226 0.93504566 0.9638541 0.9625037
1.0030102 1.0468752 0.9794018 0.9871137 1.0174016 1.0694112 0.937659 1.018423
1.0099132 1.0637649 1.071545 0.9731018 0.9717289 1.0212665 0.98565036 1.0187001
0.96284765 0.98078555 0.9739509 1.0592068 0.9640178 1.0059026 0.964752 0.98051476
0.99155915 0.9791743 0.9826993 1.0057997 0.99867976 0.96607983 0.9887308 0.9818245
00000000: 55e1 733f 481d 803f 3953 7c3f 8570 803f
00000010: 773a 863f da06 883f e88d 833f 22aa 7f3f
00000020: 473e 793f 956e 773f 384f 7a3f 7420 7d3f
00000030: 4b56 803f 70cb 843f e9e0 7f3f 8cbf 843f
00000040: 2f3e 7d3f 0b6c 803f ccb1 833f 93b2 7d3f
00000050: 694a 7c3f bfb5 8a3f 215c 7b3f 8fa4 7c3f
00000060: b32c 8a3f a12d 6b3f 0c5e 823f 4a74 823f
00000070: 02bb 7b3f 275f 6f3f 24bf 763f a466 763f
00000080: a362 803f 0200 863f 14ba 7a3f 7cb3 7c3f
00000090: 373a 823f 77e2 883f 6c0a 703f af5b 823f
000000a0: d644 813f 7329 883f 6328 893f 331d 793f
000000b0: 3ac3 783f dcb8 823f 9553 7c3f c464 823f
000000c0: 2f7d 763f c314 7b3f d954 793f 1794 873f
000000d0: dfc9 763f 6bc1 803f fdf9 763f 0403 7b3f
000000e0: d2d6 7d3f 2bab 7a3f 2e92 7b3f 0bbe 803f
000000f0: 7aa9 7f3f 0251 773f 761d 7d3f da58 7b3f

classifier.5.bias f4 [64]
0.048626 0.08340591 -0.09353912 -0.10051412 -0.038505614 -0.035161145 -0.0051674345 -0.100770324
-0.060921136 -0.07760594 -0.04546247 0.009543621 -0.06722506 0.04647372 -0.15912826 0.026455985
0.058459047 0.045011006 0.02280103 0.036891382 -0.032347888 -0.10222284 -0.04620034 -0.024047006
-0.031321418 -0.03268925 -0.04941486 0.073074505 0.011738431 -0.026713079 0.009479192 -0.06591045
-0.014816031 -0.058141485 0.040315486 -0.023801714 -0.09269283 0.08864803 0.005029856 0.036488984
0.018408557 -0.08505138 -0.024878481 -0.022995386 -0.114678316 -0.041055653 -0.024353342 0.06525047
-0.11083957 -0.021764701 0.03157375 -0.003983533 -0.009389998 -0.041100975 0.02847307 -0.16401471
-0.048024148 -0.05180398 -0.0062033804 0.016657501 -0.07237814 -0.030331297 0.0067243073 -0.063023604
00000000: 0e2c 473d b8d0 aa3d 7091 bfbd 59da cdbd
00000010: 10b8 1dbd 2205 10bd 9553 a9bb ac60 cebd
00000020: 7188 79bd ddef 9ebd db36 3abd d95c 1c3c
00000030: 4bad 89bd 3a5b 3e3d 85f2 22be 39ba d83c
00000040: c172 6f3d 765d 383d 3ac9 ba3c 6b1b 173d
00000050: 387f 04bd 355a d1bd 913c 3dbd 3afe c4bc
00000060: e34a 00bd 2ae5 05bd 3c67 4abd 16a8 953d
00000070: 8c52 403c 63d5 dabc 9d4e 1b3c 0ffc 86bd
00000080: f0be 72bc c425 6ebd da21 253d d0fb c2bc
00000090: bdd5 bdbd 198d b53d 7ed1 a43b 7975 153d
000000a0: 8bcd 963c 6b2f aebd f5cd cbbc d260 bcbc
000000b0: 77dc eabd f929 28bd a980 c7bc 0aa2 853d
000000c0: dbff e2bd e34b b2bc 7a53 013d 4c88 82bb
000000d0: 82d8 19bc 7f59 28bd 5b40 e93c 79f3 27be
000000e0: f8b4 44bd 6930 54bd ba45 cbbb 5075 883c
000000f0: fe3a 94bd 5779 f8bc 9457 dc3b 8512 81bd

classifier.5.running_mean f4 [64]
0.39816958 -0.07778408 -0.06708896 0.15258466 -0.509997 -0.528731 -0.008093059 -0.03718539
0.45717987 -0.13207284 0.12580052 -0.250737 -0.48615402 -0.01193121 -0.241846 -0.22595905
-0.099807605 0.327007 0.06234466 0.3185395 -0.3283257 -0.31409463 -0.116109625 0.06759818
-0.16534825 0.120229505 0.05492592 -0.27525192 -0.03830622 -0.07221733 -0.14827071 -0.27046186
0.1660276 -0.2540002 -0.36783737 -0.38506773 -0.3043462 0.05766349 0.019663496 0.0919578
-0.43768924 -0.081169665 -0.04888923 -0.07589513 0.5008025 0.012603371 -0.68261087 -0.28330755
-0.6917718 -0.16506259 0.07301119 -0.2468059 -0.010113032 0.02988548 -0.21605341 -0.35771385
0.17827985 -0.25321868 -0.03446562 -0.5533177 0.17030706 0.036116377 -0.17564611 -0.12889314
00000000: e2dc cb3e 424d 9fbd f065 89bd 273f 1c3e
00000010: 2a8f 02bf ea5a 07bf c098 04bc b54f 18bd
00000020: 7b13 ea3e 1a3e 07be dad1 003e 9a60 80be
00000030: 2ee9 f8be 1f7b 43bc 7aa6 77be cf61 67be
00000040: ee67 ccbd 766d a73e 1d5d 7f3d 9c17 a33e
00000050: 4e1a a8be 03d1 a0be e2ca edbd ea70 8a3d
00000060: 0d51 29be e33a f63d 00fa 603d d2ed 8cbe
00000070: fce6 1cbd aee6 93bd 47d4 17be fa79 8abe
00000080: 2403 2a3e 500c 82be 2e55 bcbe 9927 c5be
00000090: 44d3 9bbe 8d30 6c3d 5715 a13c 5f54 bc3d
000000a0: ce18 e0be 483c a6bd 1340 48bd e86e 9bbd
000000b0: 9834 003f 5f7e 4e3c 96bf 2ebf b00d 91be
000000c0: f517 31bf 2b06 29be e486 953d b0ba 7cbe
000000d0: 21b1 25bc 65d2 f43c 1b3d 5dbe 4526 b7be
000000e0: fe8e 363e e1a5 81be d22b 0dbd 3ba6 0dbf
000000f0: f964 2e3e c4ee 133d 93dc 33be 90fc 03be

classifier.5.running_var f4 [64]
0.25096858 0.21853928 0.098265156 0.060054135 0.067319095 0.13022354 0.13891946 0.13456209
0.1258151 0.0955049 0.06289836 0.16940176 0.07856187 0.23612769 0.074207895 0.17050439
0.18355277 0.3351706 0.11958439 0.12131081 0.059406087 0.060469452 0.071912505 0.088728316
0.16193202 0.14490354 0.11337207 0.23140794 0.071960196 0.2094727 0.33981872 0.18662038
0.11486073 0.12250855 0.1083698 0.07502112 0.060139265 0.09759072 0.053468026 0.08727467
0.2940593 0.05999359 0.061174095 0.070252046 0.19236907 0.075242564 0.14713576 0.14018567
0.07270159 0.13456567 0.07483089 0.09043298 0.10612515 0.18763874 0.21191888 0.1283928
0.07932412 0.05351285 0.10973586 0.22915848 0.050323788 0.18996498 0.090771 0.19325711
00000000: f47e 803e c3c8 5f3e 3e3f c93d 53fb 753d
00000010: 98de 893d 5259 053e e740 0e3e a5ca 093e
00000020: acd5 003e 1398 c33d dbd0 803d a877 2d3e
00000030: 0ce5 a03d 75cb 713e 4ffa 973d b498 2e3e
00000040: 42f5 3b3e 7b9b ab3e a9e8 f43d cd71 f83d
00000050: cc53 733d d1ae 773d dd46 933d 31b7 b53d
00000060: 82d1 253e 9861 143e 9e2f e83d 34f6 6c3e
00000070: de5f 933d 0380 563e b8fc ad3e 6a19 3f3e
00000080: 1a3c eb3d c3e5 fa3d fcf0 dd3d aca4 993d
00000090: 9754 763d a5dd c73d 4a01 5b3d 10bd b23d
000000a0: f18e 963e d7bb 753d b091 7a3d 4ee0 8f3d
000000b0: 66fc 443e c618 9a3d c2aa 163e d58c 0f3e
000000c0: 92e4 943d 95cb 093e f040 993d ed34 b93d
000000d0: 2558 d93d 5f24 403e 4301 593e 6779 033e
000000e0: af74 a23d 4a30 5b3d 32bd e03d 85a8 6a3e
000000f0: 5120 4e3d 2e86 423e 25e6 b93d 31e5 453e

classifier.7.weight f4 [16, 64]
-0.10784134 -0.11984454 -0.033776555 0.022411445 0.06568262 -0.008550274 -0.1457421 0.1256534
-0.077875644 0.09308672 0.054709848 0.048198424 -0.04696727 0.111315005 0.06287778 0.03086524
-0.022129392 0.0922806 -0.15837184 -0.056283362 -0.026044313 -0.024108917 -0.033448454 -0.0024440486
0.041013625 -0.0029662116 -0.0038485348 0.018540613 0.09502805 -0.09049846 -0.031091344 0.031098243
-0.017746726 0.008713493 -0.0023358657 -0.028522775 -0.061056927 -0.0042854976 0.04500954 0.039572377
0.012465978 -0.18803601 -0.21813826 0.10405464 0.04256593 -0.109903306 0.107070155 0.092902824
-0.10765606 -0.06949676 -0.07885521 0.008764895 -0.11264756 0.033391476 -0.0030327016 -0.066639215
0.029383034 -0.025826003 -0.085881025 -0.033668105 -0.1049329 0.10290511 0.0423955 0.0166919
0.08443529 0.00089921366 -0.00093363883 -0.11953877 0.119597964 -0.004661843 0.0216749 -0.094819374
-0.069836795 -0.024311166 -0.037317332 -0.10068044 -0.021431997 -0.10981535 -0.1339 -0.18520895
-0.0085869925 -0.08554533 0.095164225 0.111292556 0.06588552 -0.09902069 0.071167186 0.05871441
0.022046493 0.07158846 -0.05873588 0.04876075 0.039062288 0.012409756 -0.08063492 0.019428317
-0.053353924 0.013641234 0.021799862 0.08763548 0.05206864 0.11953014 0.013464608 -0.123638466
0.009958281 0.08250686 0.10845292 0.014086515 0.07653458 0.12428752 -0.06444246 0.004687831
-0.07279805 0.064572796 0.08548467 0.119424805 0.09592052 -0.08061434 -0.022045555 -0.06650149
-0.031127159 0.12082344 -0.011067184 -0.10862911 0.041764565 -0.10699439 -0.06450907 -0.07341187
0.07076427 0.0038819064 0.057389405 -0.052339748 -0.062248126 -0.010871775 0.039166607 0.01590261
0.0067651323 0.1219304 0.0105057545 0.08570167 0.09483912 -0.052828923 -0.0384587 0.05225534
0.031025501 -0.011898175 0.038633455 -0.025657222 0.03561762 0.0047400077 0.09452812 -0.02772088
-0.07749303 -0.08766822 0.13045105 -0.045902643 0.006530903 0.07644158 -0.035529584 -0.0037553648
0.017034015 -0.026068792 -0.008964622 -0.044897392 0.007604592 -0.02681595 -0.06804397 -0.05781197
0.03794137 -0.025325965 -0.132135 0.11379417 -0.12035605 -0.008945428 -0.15755296 0.14224172
-0.08161131 -0.12347733 0.026100716 -0.16446273 0.0069194813 -0.1128414 -0.043892264 0.0047435476
-0.025014514 -0.06885458 -0.04715107 0.022686658 -0.17750612 0.004618998 0.010489499 0.0767826
-0.013589131 0.12298318 -0.10629191 -0.08251118 -0.08542549 -0.06248108 -0.07915012 -0.07685964
0.056031678 -0.075016975 -0.06522007 0.082451366 -0.08984729 -0.06339 -0.09668951 0.030144287
0.098365396 0.10155111 -0.024303779 -0.09419735 -0.08686689 -0.10124169 -0.11752926 -0.06049784
0.0011004244 -0.031012176 0.11414879 -0.099061646 -0.10076049 -0.03039682 0.052320622 0.052586406
-0.115400806 -0.019050924 0.03096868 -0.07022672 -0.06779605 -0.062471677 0.051738136 0.039917145
-0.057969127 0.027680838 -0.025972389 -0.08202941 0.06569598 0.041145783 -0.031072013 0.115902126
0.010723611 -0.0066577415 -0.094583556 0.052426092 -0.026633212 0.058435053 -0.058287375 0.067897946
0.0022873208 0.072024666 0.0026896873 -0.059410416 0.05858203 0.04058008 -0.1642284 -0.012639475
00000000: ecdb dcbd 0e71 f5bd 4959 0abd 3598 b73c
00000010: 9c84 863d 7316 0cbc 6b3d 15be 49ab 003e
00000020: 447d 9fbd 40a4 be3d 6f17 603d b66b 453d
00000030: c160 40bd 1ff9 e33d 11c6 803d 1ad9 fc3c
00000040: b348 b5bc 9cfd bc3d 3a2c 22be 6289 66bd
00000050: e25a d5bc 1080 c5bc 3f01 09bd 552c 20bb
00000060: e7fd 273d c664 42bb b337 7cbb 7ce2 973c
00000070: 119e c23d 4257 b9bd 46b3 febc bec1 fe3c
00000080: 9561 91bc 0ac3 0e3c 5315 19bb 98a8 e9bc
00000090: d416 7abd 5c6d 8cbb ec5b 383d a516 223d
000000a0: 1a3e 4c3c 838c 40be a35f 5fbe 991a d53d
000000b0: 9d59 2e3d fc14 e1bd 9947 db3d d643 be3d
000000c0: c87a dcbd 5154 8ebd d77e a1bd a29a 0f3c
000000d0: c4b3 e6bd 80c5 083d 4ac0 46bb 247a 88bd
000000e0: b0b4 f03c 0e91 d3bc 64e2 afbd 91e7 09bd
000000f0: 0fe7 d6bd eabf d23d e7a6 2d3d 74bd 883c
00000100: 69ec ac3d 35b9 6b3a 71bf 74ba bed0 f4bd
00000110: c7ef f43d 60c2 98bb 8f8f b13c a930 c2bd
00000120: 9806 8fbd 3628 c7bc 0fda 18bd 8c31 cebd
00000130: 2892 afbc dfe6 e0bd 151d 09be 6aa7 3dbe
00000140: 75b0 0cbc 6432 afbd 76e5 c23d 5aed e33d
00000150: fdee 863d 5ccb cabd 1ac0 913d 857e 703d
00000160: d99a b43c f89c 923d 0995 70bd 5ab9 473d
00000170: c7ff 1f3d 4a52 4b3c ec23 a5bd 2228 9f3c
00000180: a589 5abd 7b7f 5f3c a095 b23c 3b7a b33d
00000190: ed45 553d 38cc f43d a99a 5c3c 2a36 fdbd
000001a0: 0f28 233c 5bf9 a83d 911c de3d 20cb 663c
000001b0: 29be 9c3d 758a fe3d 69fa 83bd 609c 993b
000001c0: 2517 95bd be3e 843d 9612 af3d fe94 f43d
000001d0: fa71 c43d 2219 a5bd e198 b4bc ef31 88bd
000001e0: 62fe febc 4872 f73d 2253 35bc f078 debd
000001f0: 5211 2b3d e01f dbbd 551d 84bd f658 96bd
00000200: dcec 903d 9567 7e3b 2711 6b3d 3462 56bd
00000210: e4f7 7ebd 881f 32bc 2a6d 203d 3146 823c
00000220: 0bae dd3b a5b6 f93d 5420 2c3c 5b84 af3d
00000230: 033b c23d 2463 58bd df86 1dbd b209 563d
00000240: 3129 fe3c 90f0 42bc 1d3e 1e3d 182f d2bc
00000250: c8e3 113d 1152 9b3b f597 c13d e616 e3bc
00000260: aab4 9ebd 658b b3bd f694 053e 6904 3cbd
00000270: 2f01 d63b 678d 9c3d 7887 11bd 911c 76bb
00000280: eb8a 8b3c 388e d5bc 5ae0 12bc 54e6 37bd
00000290: f12f f93b 20ad dbbc a35a 8bbd 3fcc 6cbd
000002a0: 6968 1b3d 6678 cfbc 664e 07be eb0c e93d
000002b0: 3c7d f6bd d88f 12bc 9055 21be d0a7 113e
000002c0: d523 a7bd afe1 fcbd 2bd1 d53c eb68 28be
000002d0: d1bc e23b 6419 e7bd 60c8 33bd c36f 9b3b
000002e0: 3deb ccbc a103 8dbd 7b21 41bd 5fd9 b93c
000002f0: 2ac4 35be f75a 973b 26dc 2b3c 3240 9d3d
00000300: f2a4 5ebc 9bde fb3d 93af d9bd 9ffb a8bd
00000310: 8ff3 aebd 29ec 7fbd 7519 a2bd 9668 9dbd
00000320: 7981 653d 80a2 99bd 1a92 85bd 43dc a83d
00000330: db01 b8bd 9ed2 81bd 2605 c6bd 27f1 f63c
00000340: cc73 c93d 07fa cf3d b818 c7bc 8aea c0bd
00000350: 45e7 b1bd ce57 cfbd 2eb3 f0bd 95cc 77bd
00000360: 1e3c 903a 3f0d febc d7c6 e93d d5e0 cabd
00000370: 845b cebd c002 f9bc 264e 563d d864 573d
00000380: 4257 ecbd af10 9cbc 07b2 fd3c 07d3 8fbd
00000390: a8d8 8abd 4de2 7fbd 5eeb 533d 2980 233d
000003a0: 0971 6dbd edc2 e23c 0cc4 d4bc 09ff a7bd
000003b0: 9d8b 863d 7b88 283d bc8a febc 185e ed3d
000003c0: 16b2 2f3c 2f29 dabb 06b5 c1bd bebc 563d
000003d0: e52d dabc 9859 6f3d bebe 6ebd 140e 8b3d
000003e0: e0e6 153b ab81 933d 7745 303b 5658 73bd
000003f0: b6f3 6f3d 4c37 263d 7d2b 28be cd15 4fbc

classifier.7.bias f4 [16]
0.018976966 0.076608054 -0.008525905 -0.11673129 0.021049304 -0.09393127 -0.024718443 -0.04268397
-0.10816172 -0.13276194 0.015574725 -0.07091481 -0.030693797 -0.05112747 -0.08114882 0.011362285
00000000: 9575 9b3c afe4 9c3d 3db0 0bbc d110 efbd
00000010: 976f ac3c 0a5f c0bd 557e cabc 63d5 2ebd
00000020: e483 ddbd bff2 07be 222d 7f3c c93b 91bd
00000030: 8f71 fbbc 0a6b 51bd 5a31 a6bd e128 3a3c

classifier.8.weight f4 [16]
1.3304644 1.3627721 1.3656386 1.3116968 1.2863101 1.3684189 1.339345 1.385012
1.3125688 1.3421407 1.3349754 1.343564 1.3678619 1.3279073 1.3919053 1.3318686
00000000: a84c aa3f 516f ae3f 3fcd ae3f aee5 a73f
00000010: cfa5 a43f 5a28 af3f a86f ab3f 1348 b13f
00000020: 4102 a83f 44cb ab3f 79e0 aa3f e8f9 ab3f
00000030: 1916 af3f def8 a93f f429 b23f ac7a aa3f

classifier.8.bias f4 [16]
0.31964785 0.371963 0.32528353 0.3203899 0.28241956 0.3861631 0.29732546 0.3625558
0.29873693 0.33351544 0.2944355 0.36292177 0.35393813 0.2795089 0.32795823 0.3708051
00000000: e2a8 a33e ef71 be3e 908b a63e 250a a43e
00000010: 4c99 903e 2bb7 c53e 0b3b 983e eaa0 b93e
00000020: 0cf4 983e 89c2 aa3e 40c0 963e e2d0 b93e
00000030: 6137 b53e ca1b 8f3e 24ea a73e 2bda bd3e

classifier.8.running_mean f4 [16]
-0.26961476 0.09329993 -0.24677771 -0.5417107 -0.3038588 -0.07798407 -0.004441137 -0.25997368
-0.34923643 -0.2532685 -0.14729127 -0.3096597 0.044900045 -0.3024117 -0.03413616 -0.21032041
00000000: f20a 8abe 0914 bf3d 4cb3 7cbe 8dad 0abf
00000010: 6193 9bbe 1db6 9fbd f586 91bb 451b 85be
00000020: 1ecf b2be 69ac 81be 86d3 16be b78b 9ebe
00000030: 1ce9 373d b5d5 9abe 5cd2 0bbd 3c5e 57be

classifier.8.running_var f4 [16]
0.115149796 0.08205916 0.15878841 0.4035109 0.19809543 0.13431998 0.0769651 0.121342346
0.17814866 0.08811013 0.1653075 0.18472849 0.14553152 0.1610966 0.079816826 0.093821675
00000000: a8d3 eb3d a20e a83d 6e99 223e fb98 ce3e
00000010: 87d9 4a3e 2d8b 093e e19f 9d3d 5682 f83d
00000020: 9a6c 363e 1573 b43d 5f46 293e 7729 3d3e
00000030: 3706 153e 82f6 243e 0177 a33d 9425 c03d

classifier.10.weight f4 [10, 16]
-0.122281484 0.36691523 -0.107098676 -0.40389124 -0.14241429 -0.44389418 -0.20330268 -0.07112515
-0.15478106 0.4362548 -0.48542744 -0.56812584 0.4801697 -0.42620406 -0.45926294 -0.21031494
0.38205338 -0.29250664 -0.13198513 -0.17084666 0.4123738 -0.28569767 -0.23543 -0.15918164
0.49429908 -0.49566212 -0.34196272 -0.3262442 -0.2973813 0.45814744 -0.14663844 -0.4615234
-0.023802584 -0.534676 -0.4817444 -0.4010782 -0.42456594 0.17859629 -0.4345284 0.4994501
-0.48124227 -0.40334305 -0.20589273 0.384575 0.5423336 -0.10001199 -0.060819644 -0.27458343
0.4163998 -0.48042196 -0.3693891 -0.34352946 0.5050119 -0.34922147 0.45388848 -0.44886178
-0.5102452 -0.036510777 -0.3236662 -0.19033386 -0.10613942 -0.49356303 -0.35209835 0.21905753
0.5698276 -0.42795148 0.11773406 -0.40465873 -0.19718604 -0.31613815 -0.42014223 0.48548126
-0.16901907 -0.15475185 -0.40109307 -0.44341984 -0.26495436 -0.37506732 0.46383628 -0.4816696
-0.29780552 0.25730222 -0.23109327 0.2832856 -0.26730436 0.36211914 0.38092527 -0.40902176
0.31363052 -0.47848585 -0.4215686 0.3513969 -0.30662793 -0.035507135 -0.4570725 -0.5762306
-0.31308258 0.0541814 -0.15602504 -0.18101399 -0.3315997 -0.46299616 -0.22463079 -0.2848083
-0.39962727 -0.19631293 -0.12039436 -0.28250483 0.4367878 -0.17594957 0.63151944 0.31516188
-0.43708524 -0.5235464 -0.067978844 0.28811628 -0.35275573 -0.49092448 -0.3578651 -0.33122864
0.46470672 0.4375896 0.3865603 0.16486426 -0.30729398 -0.26384106 -0.101185806 -0.35779613
-0.2145303 -0.47729608 0.4667386 -0.41542363 -0.07754513 0.33155826 -0.41620684 -0.17779261
-0.27543217 -0.21695963 0.4770304 -0.22518626 -0.09789007 0.13986146 -0.02851829 0.39880142
-0.4334573 -0.35068116 0.47607353 0.48305738 -0.34819132 -0.4590199 -0.16501771 0.30384
-0.20197321 -0.2554568 -0.48375693 0.35356826 -0.48838845 -0.17343427 -0.39671576 0.36077416
00000000: b76e fabd 50dc bb3e 8d56 dbbd d5ca cebe
00000010: 0dd5 11be 1946 e3be 942e 50be 10aa 91bd
00000020: ed7e 1ebe ca5c df3e f289 f8be b270 11bf
00000030: ced8 f53e 6b37 dabe 8324 ebbe cd5c 57be
00000040: 809c c33e 6ec3 95be 1c27 07be 6df2 2ebe
00000050: a922 d33e f746 92be 9014 71be 8300 23be
00000060: c514 fd3e 6dc7 fdbe bd15 afbe 7b09 a7be
00000070: 5d42 98be 4d92 ea3e 6328 16be cc4c ecbe
00000080: a3fd c2bc 87e0 08bf 34a7 f6be 1f5a cdbe
00000090: b560 d9be f2e1 363e 827a debe ecb7 ff3e
000000a0: 6365 f6be fb82 cebe 8bd5 52be 04e7 c43e
000000b0: 60d6 0a3f 16d3 ccbd 051e 79bd 3396 8cbe
000000c0: 5b32 d53e def9 f5be 9120 bdbe 18e3 afbe
000000d0: 7648 013f 28cd b2be 1264 e83e 36d1 e5be
000000e0: 6e9f 02bf 538c 15bd 93b7 a5be e1e6 42be
000000f0: a05f d9bd 4bb4 fcbe 3c46 b4be 9e50 603e
00000100: 39e0 113f 751c dbbe 8e1e f13d 6e2f cfbe
00000110: 23eb 49be dcdc a1be e21c d7be 0091 f83e
00000120: 5613 2dbe 4577 1ebe 125c cdbe ed07 e3be
00000130: 19a8 87be d308 c0be f37b ed3e 669d f6be
00000140: f779 98be 1ebd 833e b7a3 6cbe cf0a 913e
00000150: 1edc 88be ae67 b93e a308 c33e 4d6b d1be
00000160: 2e94 a03e 19fc f4be d7d7 d7be 4bea b33e
00000170: 56fe 9cbe ee6f 11bd 6805 eabe d983 13bf
00000180: 5c4c a0be 51ed 5d3d 07c5 1fbe bb5b 39be
00000190: 70c7 a9be d50d edbe 9d05 66be 65d2 91be
000001a0: f29b ccbe 4206 49be 5191 f6bd 79a4 90be
000001b0: a7a2 df3e 202c 34be 42ab 213f e65c a13e
000001c0: a3c9 dfbe 2307 06bf 7e38 8bbd fa83 933e
000001d0: 669c b4be 745a fbbe 183a b7be cd96 a9be
000001e0: 0aee ed3e be0b e03e 3beb c53e 2dd2 283e
000001f0: a355 9dbe 2d16 87be 813a cfbd 0e31 b7be
00000200: d5ad 5bbe 2760 f4be 5df8 ee3e 68b2 d4be
00000210: fbcf 9ebd 01c2 a93e 1019 d5be 440f 36be
00000220: 7205 8dbe aa2a 5ebe 543d f43e 3a97 66be
00000230: 977a c8bd d837 0f3e 309f e9bc b32f cc3e
00000240: 1dee ddbe 7b8c b3be e9bf f33e 4c53 f73e
00000250: 2246 b2be a804 ebbe 67fa 28be eb90 9b3e
00000260: 11d2 4ebe 3ccb 82be fdae f7be e606 b53e
00000270: 0d0e fabe c198 31be 541e cbbe 64b7 b83e

classifier.10.bias f4 [10]
0.307621 -0.3580463 0.32623047 0.22973385 0.31160566 -0.008832171 0.43639356 -0.015131085
-0.3258112 -0.25585464
00000000: 8080 9d3e d851 b7be ae07 a73e 5a3f 6b3e
00000010: c78a 9f3e cfb4 10bc fa6e df3e 5fe8 77bc
00000020: bad0 a6be 61ff 82be

exp_avg f4 [32, 784]
-2.5994085e-09 -1.4959344e-06 -4.199692e-07 -5.6639183e-06 -5.4689594e-05 7.450781e-07 0.00015262952 0.0001525328
-0.00026068414 -2.3646571e-05 0.00012553793 -0.000585659 -0.0004906541 -0.0004050467 7.479374e-05 0.00021845177
-0.0015898511 -0.0009640715 -0.00086935307 -0.0006477814 -0.0005517014 -0.00017098477 -3.471739e-05 -8.833325e-05
2.1905602e-05 3.787993e-06 7.0740674e-07 2.0299711e-07 -1.7401545e-07 -4.6061734e-07 -7.4993254e-06 -4.129267e-05
-2.2122407e-05 0.00028559245 0.00035628007 0.00028776441 0.00042403743 -0.00014722972 -0.0007658029 -0.0007420203
0.00033723452 -0.00042262085 -0.0007625651 0.00026943462 -1.4172687e-05 -0.0011388743 -0.0023406253 -0.000737744
-0.00062545005 -0.00025177145 0.000125933 -0.00021896994 3.8080104e-06 2.16093e-05 3.640345e-06 1.0448517e-07
3.706911e-07 4.923063e-08 6.463392e-06 -1.9186793e-05 2.980458e-05 0.00039142094 0.0009426883 0.00014936361
0.00049495295 -0.00024478373 -0.0006504145 0.00056472514 0.0014232909 0.0013099223 0.0016574403 0.00055110746
0.0005012708 0.0010032731 -0.0005859127 -0.0016778562 -0.00096114754 -5.6621095e-05 0.00031795222 1.7776418e-05
-2.1629668e-05 2.356704e-05 2.2448871e-06 1.1798305e-06 2.1528568e-07 3.197046e-06 9.599264e-06 -3.790494e-05
-8.1200196e-05 0.0004479327 0.00013004658 -0.0008123011 0.0007091963 0.0006955853 0.00069827173 0.0013164772
-0.00024265517 9.11662e-06 0.0012978797 -0.00045987288 -0.00019777723 0.00084212184 0.0011349441 -0.00067066785
-0.0011007193 -0.0012866814 -0.0006111611 7.581936e-05 -5.7150417e-05 -2.517877e-06 5.0524222e-06 1.6149677e-06
2.0073884e-07 1.39671065e-05 -1.5773647e-05 1.2130341e-05 0.000115815164 0.00024082945 0.00024357691 0.0005250778
0.0004417493 0.0002458719 0.00072526216 0.0013547095 -0.00039211378 0.00047967912 0.0011108042 -7.143823e-05
0.0005597254 0.0008222157 0.000264308 -0.00011217095 -0.00052560493 0.00031441302 -0.001016458 -0.0007091801
-3.5875164e-05 -9.8869976e-05 2.607631e-05 6.226293e-06 3.2043783e-06 1.3310161e-05 -4.233213e-05 4.153665e-05
2.1857434e-06 0.00075723324 0.0009923456 0.00037989943 0.0008616853 0.000826743 0.00089643593 0.0011175008
0.000599471 0.0007017589 0.0014596073 0.00020790892 0.00062809035 0.0005265053 0.00068523287 0.0008862908
0.0008293425 -0.00018108226 -0.0005519584 -0.0010836561 8.6849956e-05 -0.00014303716 7.459927e-05 9.719074e-06
-3.7226976e-06 -1.3947538e-05 -4.233109e-05 0.000102587954 0.00020711457 0.0014926096 0.00014431623 0.0003267056
0.00055073755 0.00023100103 8.466997e-05 4.182562e-06 -6.8658366e-05 -0.0003547511 0.0009322345 -0.00039877626
-1.7027472e-05 0.00014947612 0.0008765568 0.0006158718 0.0007153289 -0.00027366582 -0.00016918505 -0.0008102131
-0.00021853484 -6.619441e-05 3.749842e-06 1.6478702e-05 -1.3876067e-05 -6.3969355e-06 -3.35568e-05 8.312845e-05
0.00011055929 0.0016197053 0.0004980278 0.00035006995 0.00086370966 0.0013131144 0.0009478993 0.0005958781
5.7689394e-05 -0.00017272001 0.0009071556 1.3673651e-05 0.0005571884 0.0009083912 0.0012034134 0.0009196984
0.00048555754 0.0003599589 6.93141e-05 -0.0005834728 -0.00046416084 4.64362e-05 -8.274242e-05 3.099996e-05
1.0545816e-06 2.372562e-05 -0.00012533259 8.76962e-05 0.00065929 0.0016295882 0.00067566347 0.0009727909
0.001471594 0.0013384831 0.00091997813 0.0016386379 0.0009966946 0.0010062163 0.0014610895 0.0013243804
0.0016841079 0.0014034881 0.00075947965 0.0011817261 0.0018093005 0.00071478187 0.0004376478 -0.00060712645
-0.0006720503 -0.00014821407 -0.00026847929 4.788566e-05 -2.3251445e-07 -3.905969e-05 -7.314039e-05 0.00024329495
00000000: 47a1 32b1 eac7 c8b5 2178 e1b4 b00c beb6
00000010: 8162 65b8 6101 4835 2d0b 2039 36f1 1f39
00000020: 6fac 88b9 a05c c6b7 d5a2 0339 e986 19ba
00000030: 3d9f 00ba 735c d4b9 95da 9c38 3310 6539
00000040: 8d62 d0ba beb9 7cba 4ce5 63ba e0cf 29ba
00000050: 0ea0 10ba 604a 33b9 839d 11b8 8d3f b9b8
00000060: ecc1 b737 3935 7e36 9fe4 3d35 6cf7 5934
00000070: 01d9 3ab4 c44a f7b4 b7a2 fbb6 ab31 2db8
00000080: 8293 b9b7 92bb 9539 1acb ba39 16df 9639
00000090: 5751 de39 ad61 1ab9 2ac0 48ba 2484 42ba
000000a0: dace b039 3693 ddb9 e1e6 47ba e742 8d39
000000b0: 3ac7 6db7 4846 95ba 2d65 19bb 2965 41ba
000000c0: 3ef5 23ba 3100 84b9 e20c 0439 4c9b 65b9
000000d0: 1f8d 7f36 9e45 b537 a74c 7436 5461 e033
000000e0: 6603 c734 a671 5333 1de0 d836 53f3 a0b7
000000f0: d904 fa37 a137 cd39 be1e 773a 7d9e 1c39
00000100: bbbf 013a 5156 80b9 9480 2aba 100a 143a
00000110: b88d ba3a b3b1 ab3a 783e d93a 3278 103a
00000120: b767 033a 4280 833a f097 19ba 83eb dbba
00000130: 85f5 7bba 707c 6db8 d3b2 a639 911e 9537
00000140: 5c71 b5b7 d5b1 c537 dea6 1636 ab5a 9e35
00000150: 4729 6734 d58c 5636 860c 2137 1ffc 1eb8
00000160: 064a aab8 82d8 ea39 1d5d 0839 9bf0 54ba
00000170: 5ce9 393a f057 363a 390c 373a a58d ac3a
00000180: 4071 7eb9 96f3 1837 9e1d aa3a 181b f1b9
00000190: 6c62 4fb9 d7c1 5c3a 68c2 943a c2cf 2fba
000001a0: 0346 90ba dda5 a8ba 5436 20ba 3501 9f38
000001b0: cbb4 6fb8 ccf8 28b6 fa87 a936 dec1 d835
000001c0: ac8a 5734 4454 6a37 a651 84b7 6b83 4b37
000001d0: cbe1 f238 2a87 7c39 ae68 7f39 60a5 093a
000001e0: 969a e739 5ee8 8039 851f 3e3a 8290 b13a
000001f0: 9f94 cdb9 717d fb39 6798 913a 1cd1 95b8
00000200: 89ba 123a f689 573a d292 8a39 523d ebb8
00000210: c0c8 09ba cdd7 a439 ac3a 85ba 45e8 39ba
00000220: aa78 16b8 6a58 cfb8 73be da37 73eb d036
00000230: cd0a 5736 b54e 5f37 c78d 31b8 a337 2e38
00000240: c9ae 1236 1081 463a 9811 823a 3d2d c739
00000250: b9e2 613a c9b9 583a ccfe 6a3a 1b79 923a
00000260: d125 1d3a 3ef6 373a 4b50 bf3a 2002 5a39
00000270: 6ea6 243a 2c05 0a3a 33a1 333a f855 683a
00000280: 3c68 593a e6e0 3db9 4db1 10ba 7709 8eba
00000290: 3723 b638 3ffc 15b9 2e72 9c38 1b0f 2337
000002a0: 75d3 79b6 3800 6ab7 a98c 31b8 7d24 d738
000002b0: e52c 5939 aba3 c33a 9853 1739 af49 ab39
000002c0: 5f5f 103a de38 7239 d890 b138 ef57 8c36
000002d0: aefc 8fb8 e3fd b9b9 3361 743a d812 d1b9
000002e0: 38d6 8eb7 b1bc 1c39 bbc8 653a 7572 213a
000002f0: e984 3b3a ce7a 8fb9 4467 31b9 7b64 54ba
00000300: 8026 65b9 dad1 8ab8 cca5 7b36 be3b 8a37
00000310: 41cd 68b7 42a5 d6b6 57bf 0cb8 3f55 ae38
00000320: 11dc e738 4b4c d43a 148e 023a 9889 b739
00000330: 936a 623a cf1c ac3a 727c 783a b434 1c3a
00000340: 84f7 7138 2d1c 35b9 2fce 6d3a e267 6537
00000350: 4810 123a 1a21 6e3a dabb 9d3a ea17 713a
00000360: 6e92 fe39 deb8 bc39 b95c 9138 32f4 18ba
00000370: 9d5a f3b9 7dc4 4238 0086 adb8 f405 0238
00000380: 268b 8d35 6206 c737 b66b 03b9 8ae9 b738
00000390: 34d4 2c3a e897 d53a 021f 313a e402 7f3a
000003a0: 80e2 c03a 0a70 af3a b02a 713a 90c7 d63a
000003b0: 85a3 823a 04e3 833a 0782 bf3a d596 ad3a
000003c0: 49bd dc3a 3ff5 b73a d117 473a 26e4 9a3a
000003d0: 0d26 ed3a 3360 3b3a 1874 e539 9127 1fba
000003e0: 882c 30ba e969 1bb9 aec2 8cb9 d6d8 4838
000003f0: 16a9 79b4 06d4 23b8 f362 99b8 fe1c 7f39

exp_avg_sq f4 [32, 784]
7.5402445e-13 5.0046998e-12 8.160819e-11 2.070344e-09 6.1680055e-08 6.3421325e-08 1.540671e-07 2.9175092e-07
6.1196164e-07 1.3856568e-06 3.6207052e-06 6.2473478e-06 7.4219997e-06 8.477462e-06 8.755166e-06 8.1296575e-06
6.6962316e-06 5.0591675e-06 2.8308193e-06 1.1163788e-06 5.184383e-07 1.8775495e-07 8.0975035e-08 4.3468155e-08
5.492284e-09 6.1251104e-10 2.6227805e-11 1.6087786e-11 6.1277433e-12 3.1206645e-11 7.544624e-10 2.8827293e-08
1.074086e-07 2.2361287e-07 6.9012845e-07 1.5530609e-06 4.785555e-06 1.0804037e-05 1.5029178e-05 1.2595315e-05
1.027262e-05 9.655689e-06 1.0141958e-05 9.945093e-06 1.1385747e-05 1.484293e-05 1.2236406e-05 6.4542364e-06
2.5375348e-06 1.0683632e-06 3.3382557e-07 1.2620045e-07 2.218404e-08 7.038414e-09 1.4937055e-09 3.9475276e-10
2.5035824e-11 1.5606579e-10 1.6985706e-09 3.129776e-08 1.3809391e-07 5.1037694e-07 2.0624243e-06 6.7328433e-06
1.2378374e-05 1.52521e-05 1.3511493e-05 1.23193095e-05 1.1652102e-05 9.014609e-06 8.893769e-06 1.0350489e-05
1.2593128e-05 1.2409649e-05 1.2921964e-05 1.2778351e-05 8.442856e-06 3.4531404e-06 9.2455576e-07 2.2896609e-07
4.4192422e-08 1.2969468e-08 3.0195668e-09 2.583641e-10 5.4627036e-11 9.683174e-10 3.6017582e-09 4.9247824e-08
2.7090576e-07 1.6322056e-06 8.2513e-06 1.5776566e-05 1.7426095e-05 1.46797665e-05 1.3833857e-05 1.3684673e-05
1.2768884e-05 1.127862e-05 1.0696952e-05 1.2079006e-05 1.2943008e-05 1.3810811e-05 1.2935852e-05 1.4760383e-05
1.584405e-05 1.1304796e-05 3.521753e-06 4.709947e-07 1.138691e-07 2.5090301e-08 4.928748e-09 5.287249e-10
1.0383025e-10 1.4399452e-09 1.6332066e-08 9.0493124e-08 5.2744673e-07 4.8813376e-06 1.6916341e-05 2.2782988e-05
2.0500844e-05 1.610175e-05 1.4100121e-05 1.3885463e-05 1.3982878e-05 1.3119325e-05 1.2126371e-05 1.3691879e-05
1.3440797e-05 1.40183365e-05 1.4311653e-05 1.6654081e-05 2.1265567e-05 1.8938386e-05 9.173916e-06 1.26732e-06
1.9805039e-07 5.985555e-08 1.2366669e-08 1.3247773e-09 2.7830613e-10 3.735321e-09 3.9832635e-08 1.1992036e-07
1.3514983e-06 9.317368e-06 2.2751976e-05 2.3674433e-05 1.957853e-05 1.5947388e-05 1.428968e-05 1.3290935e-05
1.3466263e-05 1.2161867e-05 1.1806436e-05 1.3438875e-05 1.3453532e-05 1.3295738e-05 1.410944e-05 1.66689e-05
2.0858723e-05 2.3168981e-05 1.4509492e-05 3.435331e-06 4.3829812e-07 1.4431744e-07 4.022742e-08 3.803479e-09
3.3779641e-09 1.2713368e-08 6.272236e-08 2.2504626e-07 2.5131867e-06 1.3261851e-05 2.4853809e-05 2.2687147e-05
1.9806164e-05 1.5079437e-05 1.3376219e-05 1.26033e-05 1.2664399e-05 1.13971455e-05 1.09137445e-05 1.2433535e-05
1.2021686e-05 1.1925032e-05 1.3526176e-05 1.6209617e-05 1.976484e-05 2.3033514e-05 1.7116792e-05 5.8876117e-06
8.6123396e-07 3.1561007e-07 1.02805586e-07 8.195178e-09 2.7792897e-09 1.9408063e-08 9.8477926e-08 3.6700348e-07
3.83319e-06 1.6677195e-05 2.5920148e-05 2.2332511e-05 1.8922821e-05 1.5063076e-05 1.3774977e-05 1.2646866e-05
1.2513878e-05 1.1149255e-05 1.0195139e-05 1.1669949e-05 1.1872373e-05 1.2091804e-05 1.3049052e-05 1.6046757e-05
1.8716895e-05 2.2689712e-05 1.9669606e-05 7.78286e-06 1.3936908e-06 5.4390944e-07 1.6880179e-07 1.1399004e-08
1.8351516e-09 2.9167483e-08 1.1642838e-07 5.8971244e-07 5.3750155e-06 1.9970143e-05 2.6699614e-05 2.2446668e-05
1.8636416e-05 1.5262758e-05 1.3959583e-05 1.2563685e-05 1.2145009e-05 1.12607795e-05 1.0851789e-05 1.1759765e-05
1.0887339e-05 1.1174451e-05 1.3450657e-05 1.5785787e-05 1.7767648e-05 2.2191338e-05 2.1108317e-05 9.965565e-06
2.0137632e-06 8.332304e-07 3.2342027e-07 2.4398975e-08 4.7405053e-09 4.2418286e-08 1.4440609e-07 7.89708e-07
00000000: 303d 542b 5416 b02c 5475 b32e e045 0e31
00000010: f874 8433 3e32 8833 a46d 2534 f1a1 9c34
00000020: af45 2435 cefa b935 3efb 7236 4fa0 d136
00000030: 7e0a f936 6c3a 0e37 27e3 1237 9d64 0837
00000040: 31b0 e036 ebc1 a936 1bf9 3d36 7cd6 9535
00000050: cf2a 0b35 b099 4934 7fe4 ad33 beb1 3a33
00000060: a4b6 bc31 a25d 2830 c4b3 e62d 7982 8d2d
00000070: ce99 d72c 8f3f 092e 9262 4f30 e39f f732
00000080: 81a8 e633 3d1a 7034 4441 3935 c472 d035
00000090: 9b93 a036 fc42 3537 d425 7c37 7750 5337
000000a0: 9158 2c37 defe 2137 6127 2a37 d9d9 2637
000000b0: 6905 3f37 e605 7937 f74a 4d37 7891 d836
000000c0: 844a 2a36 ae64 8f35 a338 b334 b781 0734
000000d0: 388f be32 8bd6 f131 174b cd30 8304 d92f
000000e0: aa37 dc2d 9d98 2b2f 2473 e930 406c 0633
000000f0: f746 1434 d600 0935 2e68 0a36 afea e136
00000100: b6ac 4f37 45e3 7f37 6caf 6237 08af 4e37
00000110: 667d 4337 733d 1737 7236 1537 03a7 2d37
00000120: 1347 5337 0933 5037 6acb 5837 9a62 5637
00000130: caa5 0d37 80bc 6736 fd2e 7835 b8d9 7534
00000140: 15ce 3d33 53d0 5e32 c880 4f31 8409 8e2f
00000150: 9340 702e a415 8530 cd82 7731 8e84 5333
00000160: 0171 9134 2812 db35 106f 0a37 eb57 8437
00000170: 412e 9237 1e49 7637 f717 6837 3997 6537
00000180: f039 5637 4e39 3d37 0f77 3337 f0a6 4a37
00000190: cc25 5937 fbb4 6737 1007 5937 5da3 7737
000001a0: d7e8 8437 bba9 3d37 4157 6c36 05dd fc34
000001b0: 3388 f433 2886 d732 ba59 a931 b555 1130
000001c0: 3c53 e42e 91e7 c530 984a 8c32 1f55 c233
000001d0: dd95 0d35 5fca a336 91e7 8d37 181e bf37
000001e0: 3af9 ab37 3f12 8737 8f8f 6c37 9cf5 6837
000001f0: 0198 6a37 121b 5c37 5e72 4b37 2cb6 6537
00000200: c97f 6137 4c30 6b37 151c 7037 5eb4 8b37
00000210: 7563 b237 e0dd 9e37 abe9 1937 c918 aa35
00000220: ada7 5434 f089 8033 2f75 5432 7513 b630
00000230: 1b00 992f 3b58 8031 7214 2b33 75c3 0034
00000240: 2165 b535 ca51 1c37 7fdb be37 7598 c637
00000250: 933c a437 c1c6 8537 b5bd 6f37 22fc 5e37
00000260: 29ed 6137 d20a 4c37 4214 4637 8777 6137
00000270: 7bb6 6137 c310 5f37 95b7 6c37 31d4 8b37
00000280: c4f9 ae37 025b c237 cb6d 7337 8a8a 6636
00000290: 3c4f eb34 adf5 1a34 84c6 2c33 c1af 8231
000002a0: c621 6831 fc69 5a32 fbb1 8633 3fa4 7134
000002b0: 38a8 2836 377f 5e37 267d d037 4750 be37
000002c0: 6a25 a637 b0fd 7c37 6c6a 6037 c372 5337
000002d0: 2e79 5437 5e36 3f37 2d1a 3737 a099 5037
000002e0: c0b0 4937 9f11 4837 7cee 6237 e3f9 8737
000002f0: accc a537 1838 c137 0896 8f37 338e c536
00000300: 8c2f 6735 1e71 a934 f8c5 dc33 c6ca 0c32
00000310: c8fd 3e31 c8b6 a632 d07a d333 9308 c534
00000320: da9e 8036 01e6 8b37 186f d937 b456 bb37
00000330: 73bc 9e37 6bb7 7c37 131b 6737 e02d 5437
00000340: b2f2 5137 b00d 3b37 ca0b 2b37 0dca 4337
00000350: 742f 4737 e7dd 4a37 40ed 5a37 269c 8637
00000360: 3a02 9d37 c955 be37 2800 a537 2193 0237
00000370: da0e bb35 2c01 1235 e23f 3534 5ad5 4332
00000380: a838 fc30 f98b fa32 2e07 fa33 bb4c 1e35
00000390: 085b b436 8e85 a737 fcf8 df37 da4b bc37
000003a0: 6655 9c37 8608 8037 f433 6a37 9ec8 5237
000003b0: 6bc2 4b37 aeec 3c37 1410 3637 ce4b 4537
000003c0: c4a8 3637 e779 3b37 22aa 6137 b86b 8437
000003d0: bc0b 9537 8927 ba37 c411 b137 c731 2737
000003e0: 3024 0736 28ab 5f35 8ba2 ad34 ea95 d132
000003f0: ede1 a231 662f 3633 0b0e 1b34 52fc 5335
