lightning_logs/version_0/checkpoints/last.ckpt (torch, 369102 bytes, 48 tensors)

classifier.1.weight f4 [32, 784]
-0.06006963 0.15353754 -0.06064191 -0.23922613 -0.08880526 -0.09088239 0.0022437454 -0.06816196
-0.12932466 -0.113109924 -0.08534202 0.009190762 0.05485582 0.059563648 -0.047412917 -0.074311815
-0.07719972 0.03871457 -0.04240443 -0.19009145 -0.19182113 -0.1067858 -0.09708823 0.046767585
0.07228248 0.100338876 0.11358123 -0.077365495 -0.05052429 0.1957834 -0.16640477 -0.13258699
0.0062015946 -0.12452542 -0.21945286 -0.06391585 -0.058354314 0.03258622 0.08314162 0.017924044
-0.02198086 -0.111030556 -0.115842335 -0.11802442 -0.06065006 -0.016962439 -0.0057918006 -0.023493692
-0.027393969 -0.06321758 0.061249327 0.14028986 -0.028466549 -0.03753624 -0.057885922 -0.081571855
0.048258334 0.008038742 -0.21113145 -0.17883381 -0.01523902 -0.22129112 -0.0193375 0.038971227
-0.08394515 -0.041690063 -0.027484309 -0.038327117 -0.058368754 -0.0142564 -0.053652864 -0.029075392
-0.115118295 0.03134532 0.018034097 -0.08992317 0.0032927417 0.08776941 0.03264396 0.06984229
-0.034848187 0.04492112 0.028981782 0.034949746 0.028100977 -0.07510498 0.08897432 0.006877256
-0.13119593 -0.018392464 0.013471799 -0.047369663 -0.13028583 -0.020095298 -0.008080556 -0.06793866
-0.07240045 0.010704326 -0.06547807 -0.00022170844 0.020302914 0.014523616 0.045489445 -0.08613599
-0.09707857 -0.020864181 0.03292021 -0.06050626 0.052443407 0.039735023 -0.054273374 -0.062834516
0.15858436 0.22517104 0.15966691 0.026014386 0.038494706 -0.0021063017 -0.02166053 0.045856796
-0.05838364 -0.0033257194 0.0664516 -0.008261335 -0.057735316 0.042322606 0.024254289 -0.056552514
-0.06022647 -0.035753682 0.047468655 -0.00028403194 0.045728516 0.047127996 -0.0010580226 -0.021256404
-0.0017350734 0.0055948067 0.0028355394 0.00530189 0.20016816 0.17271844 0.03902276 0.020929605
0.0108755315 -0.046343844 0.021990472 0.029773628 0.093776554 0.006271675 0.00026331402 -0.0469338
-0.053196445 -0.020985195 0.007844566 -0.0057331864 -0.008155947 0.01971668 0.012153235 -0.006072051
0.009418621 0.07185274 -0.12065627 0.012438228 -0.018135259 -0.030955732 0.03098721 0.05847068
-0.044837985 -0.013493017 0.08357989 -0.00072711613 -0.0010564916 -0.07051669 0.03666678 0.084311746
-0.014716097 -0.0021939194 0.01385088 -0.0028344777 -0.034949195 0.011660322 -0.10417275 -0.047258053
0.012888625 -0.0040923785 0.09077263 0.018898182 0.006149001 -0.018160699 -0.081253536 -0.03314615
-0.011836762 -0.060072295 -0.040389102 0.054714464 -0.07044403 -0.10298594 0.031485 -0.02122421
0.004417787 -0.09221046 -0.027403122 0.08218367 -0.010510567 -0.014107736 -0.027531054 -0.022686487
0.022048255 -0.007969332 -0.019832224 0.017339047 -0.048699033 0.022909896 0.047132432 0.05694469
0.033950236 -0.07920993 -0.08524233 0.0068089417 -0.04365077 -0.027504245 -0.018614097 0.14037137
-0.1504819 -0.10313969 0.07552077 -0.008578593 -0.029817143 -0.088357426 -0.0905894 -0.0062545543
-0.07637041 -0.0067226677 -0.032993104 -0.044116262 -0.0074797072 0.026575979 0.026141962 -0.034428332
-0.02255885 -0.044166822 0.0835922 0.03143985 -0.07671725 -0.0077780657 -0.058123905 -0.0031410083
0.006696241 0.026172683 0.0141789485 0.03856473 0.00033707835 0.07333189 0.08558769 -0.011531434
00000000: 930b 76bd f238 1d3e a763 78bd b2f7 74be
00000010: 88df b5bd 8c20 babd cd0b 133b 7f98 8bbd
00000020: af6d 04be 2da6 e7bd ccc7 aebd da94 163c
00000030: 7fb0 603d 03f9 733d 0c34 42bd cb30 98bd
00000040: e31a 9ebd 2b93 1e3d 45b0 2dbd 55a7 42be
00000050: c26c 44be 83b2 dabd 32d6 c6bd 5e8f 3f3d
00000060: d608 943d 787e cd3d 479d e83d cd71 9ebd
00000070: 8ff2 4ebd 727b 483e 0366 2abe e2c4 07be
00000080: bf36 cb3b 2f07 ffbd 40b8 60be 50e6 82bd
00000090: ef04 6fbd 2179 053d 2746 aa3d 72d5 923c
000000a0: 3411 b4bc fd63 e3bd bf3e edbd cab6 f1bd
000000b0: 336c 78bd d0f4 8abc 25c9 bdbb d875 c0bc
000000c0: 5169 e0bc 3878 81bd 93e0 7a3d 25a8 0f3e
000000d0: ae32 e9bc 9abf 19bd ca19 6dbd 250f a7bd
000000e0: 88aa 453d edb4 033c d832 58be 3620 37be
000000f0: 15ad 79bc 249a 62be ad69 9ebc 4ba0 1f3d
00000100: 6feb abbd 33c3 2abd c626 e1bc e5fc 1cbd
00000110: 1314 6fbd ad93 69bc 1bc3 5bbd 842f eebc
00000120: 24c3 ebbd f363 003d 3ebc 933c a429 b8bd
00000130: 0acb 573b 73c0 b33d acb5 053d 7909 8f3d
00000140: f9bc 0ebd 35ff 373d 346b ed3c 7727 0f3d
00000150: 0534 e63c a4d0 99bd 2b38 b63d 9b5a e13b
00000160: 3a58 06be cbab 96bc d2b8 5c3c b106 42bd
00000170: a669 05be e59e a4bc 4f64 04bc 6d23 8bbd
00000180: b046 94bd 3361 2f3c 5e19 86bd 687a 68b9
00000190: 4c52 a63c 76f4 6d3c 2453 3a3d 1168 b0bd
000001a0: 21d1 c6bd 5ceb aabc 58d7 063d 69d5 77bd
000001b0: e6ce 563d 31c1 223d c24d 5ebd 62af 80bd
000001c0: f063 223e 3d93 663e b97f 233e 1f1c d53c
000001d0: a0ac 1d3d e109 0abb 6c71 b1bc 56d4 3b3d
000001e0: af23 6fbd 50f4 59bb c717 883d 8d5a 07bc
000001f0: de7b 6cbd 785a 2d3d eeb0 c63c 9ca3 67bd
00000200: 08b0 76bd 7472 12bd 7e6e 423d 1fea 94b9
00000210: d34d 3b3d 4909 413d 59ad 8aba e921 aebc
00000220: 676b e3ba a454 b73b 75d4 393b 7abb ad3b
00000230: e2f8 4c3e 1add 303e 54d6 1f3d 9074 ab3c
00000240: 492f 323c 0bd3 3dbd 5d25 b43c d3e7 f33c
00000250: ec0d c03d a082 cd3b 690d 8a39 a83d 40bd
00000260: 84e4 59bd 25e9 abbc 7f86 003c 74dd bbbb
00000270: 85a0 05bc e084 a13c 5d1e 473c 0ef8 c6bb
00000280: 8f50 1a3c 8827 933d a21a f7bd b6c9 4b3c
00000290: 6590 94bc e096 fdbc e4d8 fd3c f47e 6f3d
000002a0: 09a8 37bd d111 5dbc ef2b ab3d f09b 3eba
000002b0: fa79 8aba 0e6b 90bd e82f 163d a3ab ac3d
000002c0: c91b 71bc dcc7 0fbb cdee 623c a5c2 39bb
000002d0: e326 0fbd ef0a 3f3c 8658 d5bd a991 41bd
000002e0: d02a 533c 5c19 86bb 00e7 b93d 5cd0 9a3c
000002f0: 8f7d c93b bfc5 94bc 4168 a6bd 42c4 07bd
00000300: faee 41bc 5e0e 76bd 0b6f 25bd 461c 603d
00000310: f644 90bd 4bea d2bd 6af6 003d 65de adbc
00000320: 15c3 903b d6d8 bcbd 837c e0bc e94f a83d
00000330: 8334 2cbc 2224 67bc ce88 e1bc 03d9 b9bc
00000340: 8b9e b43c cd91 02bc 3077 a2bc 9e0a 8e3c
00000350: a378 47bd 89ad bb3c f00d 413d d63e 693d
00000360: 670f 0b3d d138 a2bd 8893 aebd 8b1d df3b
00000370: 26cb 32bd 9550 e1bc 977c 98bc 83bd 0f3e
00000380: ed17 1abe e73a d3bd a2aa 9a3d 3a8d 0cbc
00000390: 1543 f4bc bdf4 b4bd ef86 b9bd 01f3 ccbb
000003a0: 1768 9cbd d349 dcbb c723 07bd 41b3 34bd
000003b0: 5518 f5bb deb5 d93c ab27 d63c b904 0dbd
000003c0: 56cd b8bc 45e8 34bd 6332 ab3d 12c7 003d
000003d0: ef1d 9dbd 25df febb 5513 6ebd 60d9 4dbb
000003e0: 246c db3b 1868 d63c d24e 683c 0df6 1d3d
000003f0: e4b9 b039 082f 963d 9948 af3d 57ee 3cbc

classifier.1.bias f4 [32]
-0.021754721 0.022058418 0.017372336 0.014713283 0.00080701447 -0.025085216 -0.036624223 0.005748375
0.03156103 0.03334792 0.014428682 0.016220108 -0.020733865 0.016735708 0.028294511 0.01580106
0.027418409 -0.0026072448 0.0331476 -0.014665202 -0.00055347045 0.0193003 0.008086441 -0.011872415
0.027271364 0.0059351074 0.015693162 -0.01817083 0.020172035 0.0036374894 0.004387996 -0.010151685
00000000: f536 b2bc dbb3 b43c 6e50 8e3c fb0f 713c
00000010: d38d 533a 837f cdbc 4803 16bd dd5c bc3b
00000020: 2346 013d d497 083d 4766 6c3c 08e0 843c
00000030: 11da a9bc 5319 893c e4c9 e73c 3971 813c
00000040: 929c e03c 4fde 2abb c7c5 073d 5146 70bc
00000050: c616 11ba aa1b 9e3c fe7c 043c 8584 42bc
00000060: 3268 df3c 4a7b c23b f28e 803c feda 94bc
00000070: d33f a53c f262 6e3b 2ec9 8f3b 4153 26bc

classifier.2.weight f4 [32]
1.0385876 0.9485622 0.9517673 1.0198038 0.9469313 0.95900166 0.9850109 1.0506974
0.9758846 0.98008597 0.99371964 0.99644303 0.971421 1.037563 0.9847567 1.0240663
0.9347649 0.95170695 1.0497606 1.0226163 0.98718053 1.0128703 0.9444476 1.0979319
0.9857082 0.939078 1.010258 1.0202326 0.9926574 1.0626965 1.0051681 1.0135053
00000000: 70f0 843f f9d4 723f 06a7 733f ee88 823f
00000010: 176a 723f 2281 753f ad29 7c3f 417d 863f
00000020: 93d3 793f eae6 7a3f 6964 7e3f e416 7f3f
00000030: 0caf 783f ddce 843f 0419 7c3f 9b14 833f
00000040: c14c 6f3f 11a3 733f 8e5e 863f 17e5 823f
00000050: ddb7 7c3f bca5 813f 51c7 713f 0889 8c3f
00000060: 5f57 7c3f 6a67 703f 2250 813f fb96 823f
00000070: cc1e 7e3f 7006 883f 59a9 803f 8bba 813f

classifier.2.bias f4 [32]
-0.040865894 -0.05386139 -0.17816912 -0.1093052 -0.03466714 0.07591322 -0.03053218 -0.15817778
-0.0914836 -0.106260784 -0.04783794 -0.027452357 -0.17306443 -0.083238214 -0.044344764 -0.08935053
-0.12288107 -0.10399408 -0.11004595 -0.036428194 -0.09152339 -0.10251781 -0.14172992 -0.04143779
-0.17400391 -0.026163133 -0.14131469 -0.0008983704 -0.064329065 -0.033957288 -0.10913449 -0.079684146
00000000: ff62 27bd c39d 5cbd f771 36be 68db dfbd
00000010: 22ff 0dbd 6478 9b3d 9f1e fabc 5bf9 21be
00000020: c15b bbbd 419f d9bd b7f1 43bd c4e3 e0bc
00000030: cd37 31be cc78 aabd dba2 35bd 69fd b6bd
00000040: 12a9 fbbd d9fa d4bd c55f e1bd bb35 15bd
00000050: 9d70 bbbd dcf4 d1bd a621 11be acba 29bd
00000060: 152e 32be 1154 d6bc ccb4 10be 9e80 6bba
00000070: f5be 83bd cc16 0bbd e781 dfbd 7131 a3bd

classifier.2.running_mean f4 [32]
1.9590976 5.624145 1.3050259 4.100352 4.6479473 1.7136257 -1.3432614 0.30864757
2.6708586 3.5052216 0.5606385 -0.06448454 0.5942916 -1.8035095 -0.91877633 0.35660782
1.6300925 -2.2477067 0.7385239 1.6841763 1.7319165 -0.49935392 3.3879552 0.8177604
2.0600708 -3.385237 -1.5617197 -1.8441018 0.21169597 0.47562343 1.5572493 1.6319177
00000000: b6c3 fa3f fff8 b340 170b a73f 1536 8340
00000010: fcbb 9440 1658 db3f fdef abbf 0e07 9e3e
00000020: 59ef 2a40 8d55 6040 0186 0f3f 7810 84bd
00000030: 7f23 183f 66d9 e6bf ed34 6bbf 4d95 b63e
00000040: dfa6 d03f 6dda 0fc0 e70f 3d3f 1793 d73f
00000050: 71af dd3f 51ab ffbe 42d4 5840 bf58 513f
00000060: 33d8 0340 b9a7 58c0 6ee6 c7bf 870b ecbf
00000070: d4c6 583e ea84 f33e f253 c73f aee2 d03f

classifier.2.running_var f4 [32]
1.8943254 1.3583002 1.0263281 2.5903351 1.4801801 1.0092556 2.224008 0.74744827
0.823999 1.2692395 2.2023356 2.6626916 0.6536546 1.5942391 1.0939296 2.4546952
0.9301791 1.2928357 1.867031 1.1290239 1.0004854 1.9777241 0.7734559 2.0545888
0.8692899 1.2913945 1.3103161 1.0906116 1.2506676 1.8342935 1.1105285 0.71172804
00000000: 4179 f23f c8dc ad3f b85e 833f 0dc8 2540
00000010: 8b76 bd3f 4a2f 813f 2656 0e40 c558 3f3f
00000020: 99f1 523f 7176 a23f 11f3 0c40 8a69 2a40
00000030: e855 273f 0710 cc3f e305 8c3f ba19 1d40
00000040: 3820 6e3f a47b a53f dffa ee3f db83 903f
00000050: e80f 803f 1026 fd3f 3501 463f 627e 0340
00000060: c889 5e3f 6a4c a53f 70b8 a73f 2999 8b3f
00000070: e015 a03f 21ca ea3f cc25 8e3f cf33 363f

classifier.4.weight f4 [64, 32]
0.026866594 -0.033572894 0.025386928 -0.028566187 -0.016615573 -0.0093142195 0.0640047 -0.07960053
0.07224896 0.060130622 -0.07638136 -0.011390745 0.109204434 -0.14172615 0.0519275 0.16098651
-0.082669854 0.096097186 -0.07871627 0.17631876 -0.03696588 -0.0076270695 -0.047859266 0.10150068
0.08880139 -0.017503036 -0.083930686 -0.19515419 0.10709707 -0.15874812 0.21095267 0.25148723
0.09575052 -0.16857477 0.12729122 -0.22396816 -0.12865931 -0.20848036 0.12637769 -0.13147762
0.0897172 0.011383642 0.002525846 0.042678237 -0.055036247 -0.14135468 -0.12770014 -0.11349277
-0.012120731 -0.1123274 0.08132476 0.112432875 0.09966989 -0.07749699 -0.025722874 -0.066494174
0.16383502 -0.1216524 -0.06160718 0.1274721 -0.0029262046 0.07403858 0.061799522 -0.10917703
-0.026360627 -0.061213356 0.15406342 0.023900298 0.05841557 -0.042951293 -0.113800816 0.07401191
-0.12872745 -0.08226615 0.17084098 0.10805769 0.0038141345 -0.107824266 -0.006721274 -0.074170314
0.1488859 -0.17886215 -0.06418545 0.124857865 0.039383043 -0.13845162 -0.12240633 0.06907325
0.0920077 0.15704627 0.17289913 -0.02954567 -0.09133413 -0.025333555 0.025792435 -0.15061897
0.14041063 0.076951064 0.13800335 0.036911014 -0.0966974 -0.01677132 0.06194576 -0.14472872
-0.04351455 0.01348266 0.008754908 -0.090180375 0.047709975 0.09169912 -0.071117744 0.08887742
0.14267807 0.025374183 -0.050462022 0.009414079 0.033029318 0.14425884 -0.052239 0.028107455
0.022287596 -0.03137516 0.014591362 -0.16577199 -0.12730238 -0.16269127 -0.06171838 -0.12141729
-0.07935072 0.065103464 -0.012291957 -0.0052325977 0.1292222 0.13262478 0.062558964 0.19070598
-0.0008642006 0.073815614 0.086365424 -0.014358045 0.09336536 -0.121275544 -0.12931226 0.12410795
0.023962244 0.0064077047 -0.13752264 -0.02916248 0.050183356 -0.012586905 -0.100918606 0.12501808
-0.018383874 -0.09410012 0.09822739 -0.26588896 0.15215145 0.050883368 -0.17203987 -0.12520188
0.04864473 0.14470167 -0.12133117 0.20257708 -0.0904997 -0.18182847 0.01903866 -0.08831392
-0.13514607 -0.070073165 -0.15698761 0.018490456 -0.07053111 -0.10714696 -0.08831317 0.05145789
0.034708336 -0.14217359 0.19213003 -0.15579742 0.048523672 -0.11800427 -0.015359707 -0.13230515
-0.12581767 0.091365986 0.13140471 -0.03455638 -0.11542595 0.08744108 0.0531802 -0.056244433
-0.051597774 -0.16712771 0.12160541 0.0006709197 0.081053406 -0.04084 -0.14262706 -0.14793792
-0.11931348 0.010858103 0.078605846 0.113940395 -0.24926811 -0.07829046 -0.016338373 0.097709924
0.12120389 -0.13600269 -0.026099872 -0.22172251 -0.1585483 0.12021729 0.055055216 0.01899344
-0.07777377 -0.15583344 -0.036103692 0.10338854 0.15674593 -0.057744097 -0.1087969 -0.03779928
-0.07563235 -0.14100915 0.08576683 0.077634335 -0.164636 -0.05413541 0.055287085 -0.03197691
-0.088559166 -0.22420658 0.023974536 -0.0667431 0.15089037 0.18377921 0.04651172 -0.018818548
0.05357668 -0.06788064 0.1653487 -0.03100463 0.07895928 -0.007784655 -0.20808287 -0.067952454
0.07435065 -0.09551499 0.18406726 -0.08398839 0.055196274 0.06941904 -0.06482036 0.058511313
00000000: 5517 dc3c bb83 09bd 3ff8 cf3c a303 eabc
00000010: 621d 88bc ab9a 18bc e514 833d 9a05 a3bd
00000020: 43f7 933d 874b 763d d56d 9cbd 3fa0 3abc
00000030: 93a6 df3d a920 11be eeb1 543d a6d9 243e
00000040: d04e a9bd 9ace c43d ff35 a1bd e88c 343e
00000050: 8969 17bd 7fec f9bb 1408 44bd 97df cf3d
00000060: 81dd b53d 8762 8fbc dae3 abbd 80d6 47be
00000070: b555 db3d de8e 22be fa03 583e efc2 803e
00000080: d918 c43d dd9e 2cbe a158 023e e957 65be
00000090: 44bf 03be e07b 55be 2769 013e 12a2 06be
000000a0: a7bd b73d 7582 3a3c aa88 253b 60cf 2e3d
000000b0: b06d 61bd 48bf 10be d3c3 02be e66e e8bd
000000c0: 0896 46bc e80b e6bd 998d a63d 3543 e63d
000000d0: ba1f cc3d beb6 9ebd c7b8 d2bc 192e 88bd
000000e0: 5ec4 273e e524 f9bd cf57 7cbd 0c88 023e
000000f0: 91c5 3fbb 8aa1 973d 7f21 7d3d 3598 dfbd
00000100: 3ef2 d7bc dbba 7abd cdc2 1d3e 8fca c33c
00000110: 2a45 6f3d b2ed 2fbd 6710 e9bd 8e93 973d
00000120: 21d1 03be 287b a8bd f0f0 2e3e 5a4d dd3d
00000130: 8ff6 793b f8d2 dcbd 223e dcbb 9be6 97bd
00000140: 8c75 183e a427 37be a973 83bd 7bb5 ff3d
00000150: 1d50 213d 43c6 0dbe 2cb0 fabd 4776 8d3d
00000160: 886e bc3d bdd0 203e 780c 313e c309 f2bc
00000170: 630d bbbd 5188 cfbc a84a d33c dc3b 1abe
00000180: cec7 0f3e 8598 9d3d c050 0d3e 0130 173d
00000190: 4909 c6bd 0264 89bc d6ba 7d3d c433 14be
000001a0: 503c 32bd 60e6 5c3c bf70 0f3c 7db0 b8bd
000001b0: 896b 433d c0cc bb3d 2ea6 91bd 5d05 b63d
000001c0: 331a 123e 85dd cf3c 44b1 4ebd 823d 1a3c
000001d0: c049 073d 97b8 133e 90f8 55bd 9b41 e63c
000001e0: 7a94 b63c 3d83 00bd 9c10 6f3c 22c0 29be
000001f0: 8e5b 02be 8a98 26be 69cc 7cbd a1a9 f8bd
00000200: a182 a2bd f754 853d 3464 49bc 3676 abbb
00000210: d352 043e cace 073e ea1e 803d 6e48 433e
00000220: 858b 62ba a42c 973d 5be0 b03d 013e 6bbc
00000230: 5636 bf3d 505f f8bd 6f6a 04be 4f2c fe3d
00000240: 784c c43c b9f7 d13b bcd2 0cbe 27e6 eebc
00000250: 108d 4d3d 4e39 4ebc 6aae cebd bd04 003e
00000260: c799 96bc 90b7 c0bd 712b c93d 9922 88be
00000270: 97cd 1b3e 146b 503d 382b 30be ec34 00be
00000280: b23f 473d ad2c 143e 7a7c f8bd 5e70 4f3e
00000290: e857 b9bd 3e31 3abe f7f6 9b3c eedd b4bd
000002a0: bb63 0abe 8582 8fbd 5cc1 20be 4c79 973c
000002b0: 9d72 90bd de6f dbbd 89dd b4bd 82c5 523d
000002c0: 542a 0e3d f495 11be bcbd 443e 5c89 1fbe
000002d0: c2c0 463d 39ac f1bd 48a7 7bbc 007b 07be
000002e0: 59d6 00be 171e bb3d f58e 063e fe8a 0dbd
000002f0: 7164 ecbd 4f14 b33d 7bd3 593d 9060 66bd
00000300: 3058 53bd 8723 2bbe 420c f93d a9e0 2f3a
00000310: 54ff a53d d847 27bd d40c 12be 0a7d 17be
00000320: a05a f4bd 2fe6 313c 1afc a03d 9559 e93d
00000330: 2440 7fbe c056 a0bd 0dd8 85bc 241c c83d
00000340: bf39 f83d 4a44 0bbe 66cf d5bc 3a0b 63be
00000350: 7c5a 22be 7c34 f63d 9481 613d 2198 9b3c
00000360: db47 9fbd cd92 1fbe 77e1 13bd 5fbd d33d
00000370: 0182 203e 1385 6cbd e9d0 debd 6bd3 1abd
00000380: 22e5 9abd b464 10be 85a6 af3d c0fe 9e3d
00000390: 5796 28be 17bd 5dbd b674 623d 38fa 02bd
000003a0: 825e b5bd 6996 65be 3f66 c43c 9bb0 88bd
000003b0: 0183 1a3e 9e30 3c3e 1383 3e3d 5b29 9abc
000003c0: 3973 5b3d 0105 8bbd 2b51 293e 6cfd fdbc
000003d0: 67b5 a13d 6b16 ffbb ad13 55be a82a 8bbd
000003e0: 2745 983d 5d9d c3bd 217c 3c3e 1b02 acbd
000003f0: 7d15 623d 922b 8e3d 89c0 84bd 8fa9 6f3d

classifier.4.bias f4 [64]
-0.040393356 -0.094005 0.17536846 0.09683184 0.059122846 0.10452331 -0.15787487 0.103562795
-0.028167134 0.011043913 0.08192812 0.007168642 0.17071049 -0.043406907 0.04028298 0.15923645
-0.011206341 0.14877886 -0.109686226 0.009908163 -0.092649885 0.020352779 -0.1614855 0.060818736
-0.016514363 -0.15771377 0.12694266 -0.17603411 -0.119912736 0.11997024 0.077074274 0.15560602
-0.16557203 -0.014352935 -0.0034785864 -0.11375586 -0.08694076 0.1145913 0.13030778 -0.0057385797
-0.062825635 0.10750915 0.053433463 -0.01740233 0.11828673 0.02555389 0.13382167 0.027418412
0.07586861 -0.15454726 -0.06425585 -0.05314715 0.018650878 -0.08736693 -0.14093868 -0.057604756
0.11082209 -0.11961271 -0.11328416 0.15895632 -0.15470532 -0.10085835 0.1275152 0.10543514
00000000: 8173 25bd b285 c0bd ca93 333e c64f c63d
00000010: cc2a 723d 5110 d63d f3a9 21be bb18 d43d
00000020: c3be e6bc 87f1 343c eec9 a73d ede6 ea3b
00000030: bbce 2e3e 71cb 31bd c4ff 243d e10e 233e
00000040: cd9a 37bc 7c59 183e 2ca3 e0bd d955 223c
00000050: 39bf bdbd dfba a63c 745c 25be 111d 793d
00000060: 2149 87bc b87f 21be 42fd 013e 4942 34be
00000070: cf94 f5bd f5b2 f53d 1ed9 9d3d 2f57 1f3e
00000080: b78b 29be 9328 6bbc fff8 63bb d5f8 e8bd
00000090: ff0d b2bd d8ae ea3d 676f 053e b20a bcbb
000000a0: baaa 80bd c22d dc3d 0cdd 5a3d 558f 8ebc
000000b0: 5040 f23d 6456 d13c 8c08 093e 949c e03c
000000c0: 0061 9b3d a341 1ebe 9298 83bd d3b0 59bd
000000d0: bac9 983c 6fed b2bd 3b52 10be f7f2 6bbd
000000e0: b1f6 e23d 82f7 f4bd 8701 e8bd 72c5 223e
000000f0: 126b 1ebe d38e cebd 5893 023e 61ee d73d

classifier.5.weight f4 [64]
1.0284508 0.93910795 0.9489123 1.0005122 1.0112938 1.0308032 0.98563045 1.0382133
0.9432844 1.0056475 1.0739375 0.9744963 1.0107071 0.9937526 0.9554496 0.9152317
0.9818772 0.9858512 0.9494853 0.9910953 1.0084952 1.0634145 1.0166098 0.96164936
1.0603666 0.9769235 1.0882645 0.99437875 0.934381 0.96019536 0.9157425 0.99312204
0.96086687 1.0090377 0.9063207 0.94459873 1.0422981 0.9658742 1.0008253 1.0846543
1.0379434 0.95343447 0.9782628 0.9834323 1.0601306 0.950171 1.017299 1.0759245
1.0492748 1.0243162 0.9128156 1.0506359 1.0037751 1.0270408 0.9501176 0.976294
1.0014614 0.9373456 1.000483 1.0308152 0.98551023 0.97339404 0.9802131 1.0506887
00000000: 47a4 833f 6169 703f ebeb 723f c910 803f
00000010: 1372 813f 5cf1 833f 4752 7c3f 2ce4 843f
00000020: 167b 713f 0fb9 803f c976 893f 9778 793f
00000030: da5e 813f 9266 7e3f 5898 743f a04c 6a3f
00000040: 4e5c 7b3f bf60 7c3f 7811 733f 6cb8 7d3f
00000050: 5f16 813f f71d 883f 4520 823f a72e 763f
00000060: 18ba 873f a917 7a3f 404c 8b3f 9b8f 7e3f
00000070: 9833 6f3f 5dcf 753f 1a6e 6a3f 3f3d 7e3f
00000080: 5ffb 753f 2628 813f a204 683f 39d1 713f
00000090: 066a 853f 8843 773f 0b1b 803f f4d5 8a3f
000000a0: 54db 843f 4814 743f 6e6f 7a3f 38c2 7b3f
000000b0: 5cb2 873f 683e 733f db36 823f e5b7 893f
000000c0: a34e 863f cb1c 833f 48ae 693f 3d7b 863f
000000d0: b47b 803f 1376 833f e83a 733f 67ee 793f
000000e0: e32f 803f e2f5 6f3f d40f 803f c1f1 833f
000000f0: 664a 7c3f 5a30 793f 3fef 7a3f f87c 863f

classifier.5.bias f4 [64]
-0.2084276 -0.027627015 -0.11507549 -0.038270354 0.03728561 -0.029123256 -0.05438711 -0.035839066
-0.039597783 -0.013231966 0.004554015 -0.15481938 -0.045750465 -0.040628903 -0.018604394 0.03384572
-0.0057259547 -0.014730441 0.13195692 0.048892114 0.041057143 -0.10540324 -0.16396827 -0.061938107
-0.07067608 -0.005558938 0.022273902 -0.13143907 0.061958533 -0.013255646 0.034266848 -0.14658473
-0.114950806 -0.006539115 0.044583302 -0.12364952 -0.04785553 0.007639675 0.01095311 -0.11633623
0.08410999 0.042821307 0.026868945 0.01641827 0.031082962 -0.099477656 0.0065710843 -0.115057126
0.059334483 -0.0752046 0.01637007 -0.027275976 -0.0046055242 -0.10101632 -0.09695187 -0.05958016
-0.19617112 -0.018165356 -0.0065409415 0.00424189 0.013737908 -0.065456524 -0.004968554 -0.195636
00000000: 0b6e 55be 0d52 e2bc b3ac ebbd 60c1 1cbd
00000010: ccb8 183d e593 eebc 05c5 5ebd fccb 12bd
00000020: 4931 22bd e3ca 58bc d939 953b f988 1ebe
00000030: d764 3bbd 7e6a 26bd 3e68 98bc cfa1 0a3d
00000040: caa0 bbbb f357 71bc b71f 073e 1943 483d
00000050: 892b 283d a7dd d7bd 4ce7 27be d0b2 7dbd
00000060: 9fbe 90bd c027 b6bb c277 b63c f797 06be
00000070: 3bc8 7d3d 362e 59bc 655b 0c3d 4f1a 16be
00000080: 546b ebbd 1346 d6bb fb9c 363d f63b fdbd
00000090: 2904 44bd 3d56 fa3b ac74 333c b041 eebd
000000a0: dc41 ac3d 6565 2f3d 431c dc3c 9c7f 863c
000000b0: b2a1 fe3c f1ba cbbd 4052 d73b 12a3 ebbd
000000c0: b708 733d df04 9abd 861a 863c de71 dfbc
000000d0: f0e9 96bb a5e1 cebd b48e c6bd 530a 74bd
000000e0: 15e1 48be 83cf 94bc 6555 d6bb 8dff 8a3b
000000f0: f614 613c 120e 86bd 40cf a2bb ce54 48be

classifier.5.running_mean f4 [64]
0.12222844 -0.34513175 0.148105 0.046537884 0.11415591 -0.2079004 -0.48613328 0.06417792
-0.5128911 0.028229497 0.16299497 -0.3873654 0.09765197 0.12300403 0.026171586 0.027717235
0.037545495 0.07545183 -0.32723007 -0.4500497 0.010867711 0.034679808 -0.5119914 0.1559315
-0.1717657 -0.45854035 -0.14149344 -0.33804995 -0.24014165 0.20456158 0.14169966 0.092838675
-0.30300862 0.08254167 -0.30656287 -0.6006376 -0.17169484 0.33514458 0.19118556 -0.39232543
-0.17439528 -0.1906508 -0.23847337 -0.04924926 0.40941167 -0.6554442 0.24755631 -0.30391526
-0.33668438 -0.2008797 -0.054642495 -0.33559027 -0.18478714 -0.1413412 -0.30950502 -0.05213704
0.02783183 -0.109321944 0.1214226 -0.07220006 -0.16042641 0.34339592 -0.21077892 0.0033722157
00000000: e852 fa3d 1cb5 b0be d6a8 173e 829e 3e3d
00000010: 93ca e93d d8e3 54be 76e6 f8be b76f 833d
00000020: d54c 03bf 8c41 e73c 27e8 263e c254 c6be
00000030: c2fd c73d 89e9 fb3d cb65 d63c 410f e33c
00000040: 4ec9 193d 7d86 9a3d b38a a7be ea6c e6be
00000050: 7c0e 323c 6a0c 0e3d de11 03bf 82ac 1f3e
00000060: 59e3 2fbe cdc5 eabe a8e3 10be e214 adbe
00000070: b1e7 75be 9778 513e b719 113e 3422 be3d
00000080: f223 9bbe 9b0b a93d cff5 9cbe 63c3 19bf
00000090: c6d0 2fbe 1298 ab3e 26c6 433e e1de c8be
000000a0: ad94 32be f739 43be 5d32 74be 98b9 49bd
000000b0: 689e d13e 31cb 27bf 677f 7d3e c89a 9bbe
000000c0: e561 acbe 68b3 4dbe cfd0 5fbd 7dd2 abbe
000000d0: d738 3dbe bfbb 10be 7177 9ebe a68d 55bd
000000e0: 94ff e33c 2fe4 dfbd 69ac f83d a0dd 93bd
000000f0: d246 24be 97d1 af3e 6ed6 57be 6400 5d3b

classifier.5.running_var f4 [64]
0.075071625 0.12375525 0.07497787 0.09421666 0.10906964 0.13762164 0.16685297 0.1593294
0.26282957 0.14302914 0.15029158 0.060776252 0.08634803 0.14366987 0.19362852 0.19434093
0.07387363 0.13753074 0.09602847 0.26390937 0.13815473 0.11074065 0.058748625 0.2922287
0.12894954 0.13696186 0.18263562 0.06651621 0.2118546 0.1796586 0.11370645 0.114703625
0.0950573 0.15818606 0.2764386 0.14953345 0.07838387 0.17470641 0.18870422 0.08908682
0.26629603 0.21811016 0.100231946 0.15208586 0.22911091 0.16115725 0.16271876 0.07886292
0.16192219 0.10126167 0.19495906 0.18510152 0.09794569 0.07409248 0.19227067 0.081909634
0.11385616 0.15679145 0.13949083 0.07558704 0.104614794 0.10709797 0.15226844 0.074569605
00000000: 27bf 993d 6473 fd3d ff8d 993d aaf4 c03d
00000010: e75f df3d b0ec 0c3e 81db 2a3e 3f27 233e
00000020: 9991 863e 3b76 123e 09e6 193e 85f0 783d
00000030: 3cd7 b03d 321e 133e 8e46 463e 4f01 473e
00000040: 0f4b 973d dcd4 0c3e 93aa c43d 211f 873e
00000050: 6f78 0d3e fecb e23d 66a2 703d 009f 953e
00000060: 590b 043e bb3f 0c3e d504 3b3e a739 883d
00000070: 6af0 583e 6df8 373e edde e83d bce9 ea3d
00000080: 67ad c23d 87fb 213e 5c89 8d3e 4c1f 193e
00000090: b987 a03d 3de6 323e ae3b 413e 2773 b63d
000000a0: f457 883e 4558 5f3e 6846 cd3d 65bc 1b3e
000000b0: 0d9c 6a3e 6806 253e bf9f 263e e282 a13d
000000c0: eece 253e 4762 cf3d 59a3 473e 418b 3d3e
000000d0: c097 c83d ccbd 973d 9ae2 443e 3dc0 a73d
000000e0: 6b2d e93d f08d 203e afd6 0e3e 61cd 9a3d
000000f0: 4840 d63d 2e56 db3d 42ec 1b3e f3b7 983d

classifier.7.weight f4 [16, 64]
-0.08990906 -0.024504151 0.016422747 -0.06043828 -0.07070014 -0.046071578 -0.013072026 -0.15064135
0.023673762 0.101633996 -0.03714627 -0.061633755 -0.054624643 0.012241275 -0.030359203 0.09606393
0.11637668 -0.0029969227 -0.008633978 -0.052487373 0.0655058 0.14995232 0.025848119 0.032343756
-9.9408164e-05 -0.13521667 -0.051805057 0.13586678 -0.09241058 0.10000965 0.056459293 -0.01497121
0.093483046 -0.014264391 0.09920405 0.065296195 0.10417018 -0.011471503 -0.029646548 0.048716635
-0.09555944 -0.01992392 0.03373889 -0.12686116 -0.114004284 -0.06542913 -0.11321514 -0.11783249
0.16934079 -0.059052184 0.014143292 -0.03202873 0.088112764 -0.090392 0.044724524 0.010019506
0.09786438 -0.038603704 0.09214265 0.0016939896 -0.0018030659 -0.074274205 0.118455686 0.028533837
-0.015284254 -0.091937445 -0.019741433 0.09544032 -0.024921382 -0.10513987 0.11751865 0.025627678
-0.07981474 0.0429689 0.0014532651 0.038246904 0.059141673 0.028391855 -0.012698323 0.02169666
0.07956311 0.012289925 -0.07845262 0.07710606 -0.034570903 0.03040267 0.009092683 -0.006663266
-0.08339138 -0.013749936 0.026966939 -0.021828497 0.098395385 -0.065032825 0.00208093 -0.026246063
-0.10384444 0.12277184 -0.008105865 -0.016672088 -0.05708408 0.026020747 0.0017378032 -0.08552404
0.04074432 0.08314246 0.009600719 0.07839419 0.09070682 -0.11868428 -0.044148006 -0.13339974
-0.044178188 0.08087856 0.083975956 -0.00096575235 -0.077519886 -0.15557101 -0.096467026 -0.043614488
0.0021645187 -0.108283326 0.00018792714 0.10397622 -0.0662397 -0.019936968 -0.064091444 0.039116535
0.036205366 0.0960564 -0.08165342 -0.02263303 -0.020779934 0.07526553 0.07770207 -0.06590751
-0.038495876 0.04621649 0.046284158 0.08148402 0.11238218 -0.1817454 0.01208466 0.07544462
-0.07042271 -0.046562854 0.052913744 -0.11252136 0.02573492 -0.031293154 -0.123180285 -0.017036937
-0.0063453433 -0.046893213 -0.14744258 -0.0026633781 -0.00949544 0.11139003 -0.08191069 -0.10243146
-0.013641133 -0.13336514 -0.068430446 -0.01665111 -0.061024014 0.052912507 0.105997436 -0.05492446
0.13690832 0.041488513 0.052930396 0.04167368 -0.0905781 0.14601053 0.1461019 0.045607656
-0.06357737 0.11846173 -0.13913575 -0.0978823 -0.012041694 0.057980634 0.031426713 -0.084126644
-0.07871476 -0.03636054 -0.03072511 -0.074089214 -0.17254612 0.039368328 -0.029270533 -0.18266663
-0.17726386 -0.018259034 0.09174378 0.1271486 0.0419279 -0.01425744 -0.03400439 -0.009924759
0.010346674 -0.008392191 0.06828661 0.1190528 -0.1054637 0.009118065 0.110368796 0.03851931
0.08028991 0.037788972 -0.027486797 -0.038557947 0.1864067 -0.025012523 0.07236764 -0.008550347
0.054031067 0.020838553 -0.062654406 0.051933803 -0.02861276 0.07427231 -0.08872572 0.11309024
0.05187575 -0.097132675 -0.01615565 0.148445 -0.11172924 -0.044767633 0.12106561 -0.10332828
0.12796135 0.013385508 -0.18451935 -0.00096469885 -0.026716983 -0.03043566 -0.060287777 -0.09500954
-0.107629925 -0.08838326 -0.057802588 -0.014696388 -0.044094045 -0.058535747 -0.055485476 -0.014675894
-0.03229786 -0.10686572 -0.04967398 -0.105963394 0.06341284 -0.055194885 -0.03162188 0.18823457
00000000: 3e22 b8bd eebc c8bc ff88 863c 218e 77bd
00000010: 3ccb 90bd 8db5 3cbd 0d2c 56bc ba41 1abe
00000020: 7aef c13c 7c25 d03d b026 18bd ad73 7cbd
00000030: 17be 5fbd a18f 483c ddb3 f8bc 2abd c43d
00000040: e656 ee3d 0568 44bb 8775 0dbc 00fd 56bd
00000050: e827 863d 1a8d 193e 6fbf d33c e37a 043d
00000060: 5a79 d0b8 3d76 0abe 8a31 54bd a920 0b3e
00000070: c241 bdbd dcd1 cc3d dc41 673d ce49 75bc
00000080: 0a74 bf3d 31b5 69bc 7e2b cb3d 03ba 853d
00000090: 2d57 d53d f9f2 3bbc 51dd f2bc 188b 473d
000000a0: abb4 c3bd 7d37 a3bc ca31 0a3d e4e7 01be
000000b0: 147b e9bd b5ff 85bd 57dd e7bd 2952 f1bd
000000c0: ac67 2d3e b4e0 71bd 44b9 673c 8f30 03bd
000000d0: 7774 b43d 711f b9bd 1031 373d db28 243c
000000e0: 1f6d c83d eb1e 1ebd 49b5 bc3d dc08 de3a
000000f0: da54 ecba 131d 98bd e598 f23d cbbf e93c
00000100: cf6a 7abc b349 bcbd c9b8 a1bc 3776 c33d
00000110: ed27 ccbc 9253 d7bd 9ead f03d 23f1 d13c
00000120: e975 a3bd 2800 303d 7c7b be3a c9a8 1c3d
00000130: 8a3e 723d 0996 e83c a00c 50bc 32bd b13c
00000140: fcf1 a23d ae5b 493c c4ab a0bd c8e9 9d3d
00000150: 389a 0dbd 050f f93c 7af9 143c 8757 dabb
00000160: 1ac9 aabd 6947 61bc c5e9 dc3c add1 b2bc
00000170: 8583 c93d ee2f 85bd 3660 083b fc01 d7bc
00000180: 65ac d4bd cd6f fb3d 76ce 04bc e793 88bc
00000190: ffd0 69bd 7629 d53c 00c7 e33a 3a27 afbd
000001a0: 84e3 263d 9846 aa3d 564c 1d3c 228d a03d
000001b0: 7fc4 b93d be10 f3bd 8ad4 34bd f199 08be
000001c0: 30f4 34bd a9a3 a53d 96fb ab3d 8b2a 7dba
000001d0: bfc2 9ebd 024e 1fbe 8190 c5bd 1ba5 32bd
000001e0: 99da 0d3b a6c3 ddbd 4f0e 4539 7cf1 d43d
000001f0: aea8 87bd da52 a3bc 6042 83bd a938 203d
00000200: 144c 143d 38b9 c43d e939 a7bd e768 b9bc
00000210: ae3a aabc d024 9a3d 4322 9f3d 84fa 86bd
00000220: daad 1dbd 814d 3d3d 7594 3d3d 18e1 a63d
00000230: a128 e63d 771b 3abe bdfe 453c b582 9a3d
00000240: c839 90bd b1b8 3ebd 15bc 583d 9971 e6bd
00000250: 0ad2 d23c 402d 00bd f245 fcbd 0c91 8bbc
00000260: 99ec cfbb 1913 40bd 30fb 16be 128c 2ebb
00000270: c392 1bbc 7520 e43d cbc0 a7bd 96c7 d1bd
00000280: 0f7f 5fbc df90 08be 4325 8cbd e967 88bc
00000290: 51f4 79bd c9ba 583d 2f15 d93d 78f8 60bd
000002a0: b231 0c3e dcef 293d 8bcd 583d 05b2 2a3d
000002b0: 0381 b9bd c983 153e bd9b 153e 18cf 3a3d
000002c0: da34 82bd 109c f23d 9a79 0ebe 8476 c8bd
000002d0: 864a 45bc 1a7d 6d3d 4cb9 003d 974a acbd
000002e0: 3435 a1bd caee 14bd 3ab3 fbbc 16bc 97bd
000002f0: eeaf 30be af40 213d c2c8 efbc f60c 3bbe
00000300: a884 35be f893 95bc 2ae4 bb3d 3e33 023e
00000310: 97bc 2b3d 0a98 69bc 3048 0bbd 759b 22bc
00000320: 1985 293c 667f 09bc dad9 8b3d f4d1 f33d
00000330: 5afd d7bd f063 153c 0909 e23d 6dc6 1d3d
00000340: 096f a43d 9cc8 1a3d fe2b e1bc f0ee 1dbd
00000350: 66e1 3e3e 10e7 ccbc 7c35 943d c116 0cbc
00000360: ae4f 5d3d 9db5 aa3c f450 80bd 8ab8 543d
00000370: 4f65 eabc 151c 983d d5b5 b5bd db9b e73d
00000380: ab7b 543d 7fed c6bd db58 84bc f701 183e
00000390: 4dd2 e4bd 445e 37bd 3ff1 f73d c79d d3bd
000003a0: 4d08 033e e44e 5b3c a4f2 3cbe d8e3 7cba
000003b0: 93dd dabc 3554 f9bc 51f0 76bd 5d94 c2bd
000003c0: 146d dcbd 4802 b5bd 68c2 6cbd 1ec9 70bc
000003d0: f59b 34bd 2ec3 6fbd bd44 63bd 2973 70bc
000003e0: c34a 04bd 6adc dabd f176 4bbd 5603 d9bd
000003f0: 97de 813d 0814 62bd f285 01bd 90c0 403e

classifier.7.bias f4 [16]
-0.074396454 -0.15573648 -0.15711989 0.03822127 -0.23415554 0.010994753 -0.10828628 0.0069563226
-0.14884937 0.01658864 -0.15826039 0.11279446 -0.12685668 0.10858458 0.0076282946 -0.000556248
00000000: 2b5d 98bd 6279 1fbe 09e4 20be e88d 1c3d
00000010: 78c6 6fbe 5623 343c 32c5 ddbd ddf1 e33b
00000020: f86b 18be e6e4 873c 030f 22be c800 e73d
00000030: b8e6 01be 9861 de3d c6f6 f93b 2cd1 11ba

classifier.8.weight f4 [16]
1.486529 1.4741699 1.4605471 1.4902602 1.4340502 1.42344 1.4378239 1.506839
1.4408106 1.4526945 1.4004344 1.4485317 1.4273214 1.496007 1.4544966 1.3922638
00000000: 9546 be3f 99b1 bc3f 35f3 ba3f d9c0 be3f
00000010: f58e b73f 4833 b63f 9d0a b83f 1ae0 c03f
00000020: 7b6c b83f e5f1 b93f 6f41 b33f 7d69 b93f
00000030: 78b2 b63f 287d bf3f f22c ba3f b335 b23f

classifier.8.bias f4 [16]
0.4779881 0.4753803 0.43038428 0.4001409 0.38164437 0.40634534 0.39691964 0.48300216
0.40647638 0.41862762 0.3520129 0.39232245 0.3687797 0.43659726 0.42651764 0.41271335
00000000: dbba f43e 0c65 f33e 545b dc3e 45df cc3e
00000010: e466 c33e 7f0c d03e 0d39 cb3e 0f4c f73e
00000020: ac1d d03e 5c56 d63e 093b b43e 7dde c83e
00000030: b1d0 bc3e ad89 df3e 8560 da3e 2a4f d33e

classifier.8.running_mean f4 [16]
-0.070591755 -0.2811925 -0.45034552 -0.08941583 -0.55457675 -0.0603776 -0.42419404 0.2143133
-0.3983296 0.024759779 -0.36041936 -0.11170594 -0.09105013 -0.13852097 -0.013590121 -0.2895169
00000000: 6992 90bd 77f8 8fbe b093 e6be a61f b7bd
00000010: bef8 0dbf 814e 77bd f62f d9be f274 5b3e
00000020: dbf1 cbbe 05d5 ca3c e388 b8be 15c6 e4bd
00000030: 7e78 babd 71d8 0dbe 19a9 5ebc 8f3b 94be

classifier.8.running_var f4 [16]
0.13854264 0.27063316 0.09111868 0.12816103 0.07881877 0.079776265 0.13341539 0.34403473
0.13164559 0.08707277 0.10916722 0.12156888 0.12730685 0.15025915 0.11846966 0.14230639
00000000: 1fde 0d3e 6e90 8a3e 6e9c ba3d a53c 033e
00000010: bc6b a13d bd61 a33d 0b9e 083e 5225 b03e
00000020: 1ace 063e 3553 b23d 1093 df3d 1bf9 f83d
00000030: ba5c 023e 89dd 193e 39a0 f23d c4b8 113e

classifier.10.weight f4 [10, 16]
0.5948684 -0.34144732 0.045866277 -0.2298905 -0.31407654 -0.4945038 -0.13096745 -0.26090792
-0.29129067 0.47793987 0.22980244 -0.11141934 -0.44501555 -0.12310891 0.5259146 -0.21398124
-0.33484456 -0.043000218 0.5640191 0.34686252 -0.48747584 -0.54999197 0.30311978 -0.3710265
-0.3883019 -0.52355784 0.4362495 -0.57404464 -0.51576984 -0.1749014 -0.381297 0.48953298
-0.40717983 -0.49013963 -0.08538332 -0.26248986 0.35019827 -0.5524544 -0.31341863 0.25497407
-0.3657375 0.5043501 -0.48117223 -0.23485392 0.3268615 0.513273 -0.42527163 0.53388417
0.40864518 -0.36378545 -0.33122393 0.5211239 0.4838402 -0.19643526 0.5304202 -0.41553074
-0.38777745 -0.36672062 -0.21586788 -0.22330579 -0.35886493 0.2657063 -0.26764417 -0.346734
-0.2330832 -0.30416352 -0.3618467 -0.26749754 0.08988705 0.59935325 0.12231323 0.3568718
-0.20148522 0.17625366 -0.37971818 -0.27794188 -0.403038 0.5724936 -0.28926688 -0.38191888
-0.5182535 0.3324998 -0.4087322 -0.30077043 -0.35134435 -0.5486444 -0.25077006 -0.2830031
0.48224285 -0.56193167 0.5575864 0.45455688 -0.52633154 -0.07269651 -0.23782855 -0.53806883
0.30956012 -0.1696219 -0.554504 -0.16460265 0.5786119 -0.24750453 -0.5544599 0.34232423
-0.30692935 -0.4651386 -0.3011717 -0.42340943 -0.3141378 0.1109363 0.6143424 0.20165738
-0.13986476 0.41326618 -0.42203954 0.4985538 -0.14428753 0.36755142 -0.4125743 -0.38013428
-0.59942544 -0.20629829 -0.5947535 0.3001904 0.29528832 -0.46459895 -0.46174705 -0.28052834
-0.39600843 -0.44794375 0.56442475 -0.15913115 -0.20593798 0.48859787 -0.5019948 -0.4288293
0.49280357 -0.38565555 -0.3861033 -0.25573343 -0.50827515 -0.16025752 0.4410464 -0.35789257
-0.50494665 0.40697435 0.29981828 -0.3464494 -0.111677684 -0.3645414 -0.41814902 -0.33768153
0.44001958 0.5881455 -0.23845828 -0.5063871 0.37599796 -0.19913498 -0.5488276 -0.54014444
00000000: 4c49 183f 2fd2 aebe 47de 3b3d 6a68 6bbe
00000010: a4ce a0be 9a2f fdbe 551c 06be b995 85be
00000020: 0d24 95be 89b4 f43e 5551 6b3e d32f e4bd
00000030: 14d9 e3be 8620 fcbd 57a2 063f e61d 5bbe
00000040: bf70 abbe ff20 30bd 8e63 103f f797 b13e
00000050: 6f96 f9be 46cc 0cbf 8432 9b3e 2ff7 bdbe
00000060: 82cf c6be e307 06bf 185c df3e 97f4 12bf
00000070: 7e09 04bf 5a19 33be 5c39 c3be 11a4 fa3e
00000080: e079 d0be 95f3 fabe 73dd aebd 1265 86be
00000090: 304d b33e a76d 0dbf 6878 a0be f68b 823e
000000a0: f241 bbbe 171d 013f 355c f6be 8c7d 70be
000000b0: 645a a73e dc65 033f 34bd d9be a2ac 083f
000000c0: f139 d13e 1642 babe 2f96 a9be 6068 053f
000000d0: e7b9 f73e 5326 49be 9ec9 073f 72c0 d4be
000000e0: c48a c6be cec2 bbbe 780c 5dbe 46aa 64be
000000f0: 25bd b7be a80a 883e a808 89be 1e87 b1be
00000100: 5dad 6ebe 52bb 9bbe f843 b9be 70f5 88be
00000110: b416 b83d 376f 193f 5c7f fa3d e7b7 b63e
00000120: 2452 4ebe d77b 343e 6c6a c2be 664e 8ebe
00000130: ff5a cebe f18e 123f ca1a 94be df8a c3be
00000140: 43ac 04bf 6a3d aa3e 5945 d1be 95fe 99be
00000150: 68e3 b3be f673 0cbf ef64 80be c8e5 90be
00000160: 89e8 f63e c1da 0fbf fbbd 0e3f aebb e83e
00000170: aabd 06bf e8e1 94bd 5489 73be e1be 09bf
00000180: aa7e 9e3e 5db1 2dbe f9f3 0dbf 998d 28be
00000190: e91f 143f d471 7dbe 16f1 0dbf 1f45 af3e
000001a0: d825 9dbe a626 eebe 2d33 9abe 1fc9 d8be
000001b0: abd6 a0be 9232 e33d 8b45 1d3f 467f 4e3e
000001c0: b538 0fbe a097 d33e 9115 d8be 7242 ff3e
000001d0: 1cc0 13be b32f bc3e f03c d3be f6a0 c2be
000001e0: f273 19bf dc3f 53be c441 18bf 8eb2 993e
000001f0: 0830 973e eadf edbe 1c6a ecbe 69a1 8fbe
00000200: 9ec1 cabe e258 e5be 247e 103f 47f3 22be
00000210: 68e1 52be 8029 fa3e bb82 00bf 848f dbbe
00000220: c050 fc3e a574 c5be 55af c5be 7eef 82be
00000230: 521e 02bf 8c1a 24be d5d0 e13e b23d b7be
00000240: 2f44 01bf f15e d03e c881 993e d161 b1be
00000250: 45b7 e4bd 2ca5 babe a117 d6be 98e4 acbe
00000260: 3f4a e13e b490 163f 682e 74be 96a2 01bf
00000270: ce82 c03e 0aea 4bbe f77f 0cbf e846 0abf

classifier.10.bias f4 [10]
0.12350313 0.092333786 -0.15150845 -0.18341064 0.020303477 0.19540535 0.082082026 0.16933113
0.054484073 -0.08080214
00000000: 36ef fc3d 7f19 bd3d 0825 1bbe 00d0 3bbe
00000010: 7a53 a63c 5718 483e 9f1a a83d 2465 2d3e
00000020: b12a 5f3d 987b a5bd

exp_avg f4 [32, 784]
1.7453435e-07 -3.8764947e-06 -3.332985e-07 4.3642693e-05 2.060788e-05 -6.646136e-05 -6.643131e-05 -3.935874e-05
-5.87662e-05 -1.1305795e-05 -0.00022723874 -0.000121974714 -0.00050269195 7.943976e-05 0.00019998917 0.00039451072
-3.7209913e-05 -0.000102891616 0.0001574288 0.0002501204 5.4270393e-05 0.00013382029 9.3317154e-05 3.599965e-05
3.2022486e-05 1.3838198e-07 -6.114706e-06 -3.4438642e-07 -1.9387385e-06 -1.0383446e-05 1.253357e-05 5.323249e-05
-7.500986e-05 -6.712178e-05 6.220452e-05 -0.00013530531 -0.00018279822 -0.00030064455 -0.00087848003 -0.0003750758
-0.0010834802 -0.0012605732 -0.0007579075 -0.0011390233 -0.0008545168 -0.00015696099 -3.543234e-05 0.00015194814
-0.0004598906 -2.9534505e-05 8.547752e-06 5.6963763e-05 7.027809e-05 3.1867137e-06 -1.5992322e-05 -5.492999e-06
-4.8587426e-06 -8.300984e-06 -4.0969358e-06 -6.630793e-05 -0.00013808731 0.00012156709 -0.00016822029 -0.00031960424
0.00011731771 -0.0005941534 -0.0011010584 -0.00037834453 -0.0005466373 -0.00076231844 -0.0009550659 -0.0004944125
-0.00060296507 -0.0007581467 -0.00049979094 -6.850205e-05 -0.0007109107 -0.0006758432 -0.00028511064 7.3411946e-05
9.9277095e-05 -2.6576517e-05 -1.4520742e-05 -4.103178e-06 -5.036916e-06 -2.3257428e-05 -4.3291937e-05 -0.00017353622
-4.0397605e-05 3.4349257e-05 -0.00012124201 0.00027452933 -0.00033747184 -0.0009581024 -0.000860034 -0.0012164803
-0.0004596443 -0.00017299235 -0.00015578869 -0.0004726998 -0.0009801815 -0.00075458107 -0.00031587167 -0.0002742163
0.00010805435 -0.0003125614 -0.00026693955 0.00025072592 9.451164e-05 -3.889211e-06 -1.1845705e-05 1.1888884e-05
-6.7958285e-06 -2.4185374e-05 -0.00013257025 -0.00020696165 1.0531771e-05 -2.2007741e-06 0.00047169652 0.00021888237
-0.00039268358 -0.00068787806 -0.0012921367 -0.00066752743 -0.0006911652 -0.00078262953 -6.240897e-05 -8.877965e-05
-0.0003092268 -0.00018428781 -0.0005565161 -0.00035681273 -0.0006081829 -6.656895e-05 -0.00012278715 0.00022194684
0.0002591757 9.642073e-05 3.315804e-05 4.2628348e-05 -1.5502783e-05 -5.442095e-05 -0.00023207786 -0.000117546246
-7.870225e-05 -0.00011256223 0.00057212054 -0.00025459856 -0.0005875969 -0.00082364934 -0.0008089815 -0.0009240631
-0.001181169 -0.0006296369 -0.00085958344 -0.0008770477 -0.00029772284 -0.00012092143 -0.00062747946 -0.0002965014
-0.00026649947 -0.00058936316 0.00051108934 7.907189e-05 0.00034812183 9.439742e-05 3.1662497e-05 -1.0685618e-05
-5.9781914e-06 -3.295056e-05 -0.00029482858 -6.522524e-05 -0.00014027502 0.00010554493 0.0002164303 -0.00062357204
-0.0007110055 -0.00055293256 -0.0004640818 -0.0010077782 -0.0007150829 -0.0008066957 -0.00025907185 0.0002449933
-4.8484628e-05 0.00015094539 -7.9525096e-05 -0.00010830772 -0.000101251375 -0.0005599126 0.00018695153 0.00026618948
0.00021464576 0.00021075051 0.000114042654 2.1536292e-05 2.6194004e-06 -3.77387e-05 -0.00040339647 -0.00013961805
-0.00014928031 0.00022972605 0.00012622651 -0.0011480137 -0.0006368552 -0.00029946753 -0.0007300273 -0.00044380536
-0.0005357213 -0.00083914696 -0.00053590845 0.00034333198 0.0003288233 -0.00047569783 0.000112879716 -0.00045882363
-0.00018053562 -5.1322168e-05 0.0003616528 0.00035676546 0.00040157358 0.00016834716 3.336526e-05 -7.391795e-05
-8.513107e-06 -5.895468e-05 -0.0003623125 -3.3370787e-05 -0.00016232506 0.00052313093 0.00042379647 -0.00028054783
-5.89234e-05 0.0001268866 0.0002711965 0.000114330556 -0.00044483054 -0.00046647165 -0.00031892335 0.000209494
0.0001390443 0.00017181161 0.00043096545 -0.00011248034 -2.4370625e-05 0.00036981542 0.00091989717 0.00052638876
0.0005795197 0.00018889463 -0.0001013789 -4.7777256e-05 -5.181988e-06 -0.00012136403 -0.00028757856 8.637803e-05
00000000: a367 3b34 d612 82b6 32f0 b2b4 fc0c 3738
00000010: 16df ac37 2c61 8bb8 0a51 8bb8 2015 25b8
00000020: ba7b 76b8 05ae 3db7 ef46 6eb9 adcc ffb8
00000030: 16c7 03ba e598 a638 2fb4 5139 55d6 ce39
00000040: d711 1cb8 84c7 d7b8 7913 2539 9822 8339
00000050: 64a0 6338 1c52 0c39 44b3 c338 54fe 1638
00000060: e24f 0638 2696 1434 ed2c cdb6 1ce4 b8b4
00000070: 461b 02b6 9034 2eb7 4647 5237 f345 5f38
00000080: 9d4e 9db8 bbc3 8cb8 cc73 8238 bee0 0db9
00000090: 86ad 3fb9 d49f 9db9 cc49 66ba d2a5 c4b9
000000a0: 9003 8eba d139 a5ba 50ae 46ba 484b 95ba
000000b0: a701 60ba e595 24b9 2f9d 14b8 4554 1f39
000000c0: 791d f1b9 dec0 f7b7 5168 0f37 60ec 6e38
000000d0: 4362 9338 53db 5536 4027 86b7 8150 b8b6
000000e0: 4808 a3b6 7444 0bb7 6978 89b6 cd0e 8bb8
000000f0: 88cb 10b9 d6f1 fe38 4a64 30b9 8e90 a7b9
00000100: 7708 f638 f6c0 1bba 6451 90ba 8b5c c6b9
00000110: 354c 0fba 53d6 47ba 635d 7aba 769b 01ba
00000120: 4d10 1eba 5dbe 46ba 6704 03ba c2a8 8fb8
00000130: 695c 3aba 122b 31ba e77a 95b9 bdf4 9938
00000140: fc32 d038 a3f0 deb7 1d9e 73b7 08ae 89b6
00000150: c702 a9b6 f218 c3b7 5d94 35b8 46f7 35b9
00000160: 9970 29b8 3c12 1038 4f43 feb8 b4ee 8f39
00000170: b4ee b0b9 2a29 7bba e873 61ba 4e72 9fba
00000180: 6afc f0b9 4865 35b9 355b 23b9 b1d4 f7b9
00000190: 6f79 80ba 14cf 45ba 949b a5b9 b0c4 8fb9
000001a0: 3d9b e238 48df a3b9 05f4 8bb9 dd73 8339
000001b0: 8d34 c638 1180 82b6 eabc 46b7 5e76 4737
000001c0: b907 e4b6 b2e1 cab7 8e02 0bb9 d803 59b9
000001d0: 9db1 3037 03b1 13b6 094e f739 ca83 6539
000001e0: 19e1 cdb9 b752 34ba ea5c a9ba 02fd 2eba
000001f0: 502f 35ba 6129 4dba 90e1 82b8 362f bab8
00000200: b81f a2b9 623d 41b9 2ae3 11ba 9812 bbb9
00000210: 776e 1fba ef9a 8bb8 6dc0 00b9 67ba 6839
00000220: f9e1 8739 7c35 ca38 2d13 0b38 d7cb 3238
00000230: f90b 82b7 0d42 64b8 ed59 73b9 2983 f6b8
00000240: f30c a5b8 630f ecb8 5cfa 153a a47b 85b9
00000250: f608 1aba 2cea 57ba d411 54ba d33c 72ba
00000260: 74d1 9aba 380e 25ba ab55 61ba ade9 65ba
00000270: af17 9cb9 3397 fdb8 6f7d 24ba bf73 9bb9
00000280: f4b8 8bb9 7e7f 1aba a0fa 053a 66d3 a538
00000290: 1f84 b639 3bf7 c538 59cd 0438 6146 33b7
000002a0: 4698 c8b6 6534 0ab8 3993 9ab9 89c9 88b8
000002b0: ca16 13b9 0158 dd38 91f1 6239 3677 23ba
000002c0: c562 3aba adf2 10ba 0150 f3b9 6d17 84ba
000002d0: 6774 3bba 6f78 53ba 09d4 87b9 7272 8039
000002e0: f95b 4bb8 1847 1e39 b6c6 a6b8 4423 e3b8
000002f0: eb56 d4b8 19c7 12ba 6b08 4439 598f 8b39
00000300: 8812 6139 e9fc 5c39 2f2a ef38 d6a8 b437
00000310: f5c8 2f36 9f49 1eb8 f57e d3b9 6f66 12b9
00000320: 2188 1cb9 9ee2 7039 ac5b 0439 f378 96ba
00000330: a1f2 26ba da01 9db9 4e5f 3fba 8cae e8b9
00000340: a66f 0cba 33fa 5bba 357c 0cba 3d01 b439
00000350: eb65 ac39 1567 f9b9 d6b9 ec38 448e f0b9
00000360: 294e 3db9 c242 57b8 389c bd39 400c bb39
00000370: 4b8a d239 5986 3039 adf1 0b38 6604 9bb8
00000380: 84d3 0eb7 1b46 77b8 c3f4 bdb9 9cf7 0bb8
00000390: cd35 2ab9 b922 093a 0031 de39 7e16 93b9
000003a0: 8524 77b8 dd0c 0539 612f 8e39 c0c4 ef38
000003b0: 2538 e9b9 c490 f4b9 2b35 a7b9 9eab 5b39
000003c0: 6ccc 1139 5428 3439 34f3 e139 6ce3 ebb8
000003d0: 856f ccb7 c9e3 c139 4125 713a 5afd 093a
000003e0: e9ea 173a 0412 4639 629b d4b8 7064 48b8
000003f0: f0e0 adb6 d184 feb8 24c6 96b9 da25 b538

exp_avg_sq f4 [32, 784]
1.2597383e-11 4.2072592e-11 1.9425181e-10 2.6668594e-09 1.5254976e-08 3.358611e-08 7.718396e-08 1.5056898e-07
2.3476797e-07 5.556794e-07 1.2803716e-06 1.2727312e-06 2.1963692e-06 2.288725e-06 2.292363e-06 2.1059525e-06
1.7161104e-06 1.3831198e-06 9.093888e-07 4.0794632e-07 2.0361595e-07 1.2262872e-07 4.947717e-08 2.4352255e-08
2.4192028e-09 6.3270267e-10 2.2703524e-10 1.7054569e-10 3.52762e-11 1.5449755e-10 6.191649e-09 1.7180978e-08
4.7452815e-08 8.967766e-08 1.7363728e-07 9.765992e-07 1.9551169e-06 2.819471e-06 3.6860085e-06 3.6760518e-06
4.5658912e-06 5.184955e-06 5.1028455e-06 5.0718936e-06 4.168804e-06 3.8489566e-06 3.8747335e-06 2.4589651e-06
1.3391776e-06 5.214882e-07 1.9134319e-07 9.0681155e-08 2.2026015e-08 7.751928e-09 2.253053e-09 1.3716556e-09
6.235776e-11 1.3538115e-10 3.7339865e-09 3.6348162e-08 8.106181e-08 2.0831419e-07 6.822842e-07 1.5821457e-06
2.3527953e-06 2.7115752e-06 3.4914503e-06 3.961259e-06 4.607651e-06 5.6823756e-06 6.279227e-06 4.8321876e-06
3.9866586e-06 3.9807683e-06 3.638632e-06 2.691389e-06 1.9408394e-06 1.3847246e-06 5.517825e-07 2.0176891e-07
8.6131514e-08 2.5772874e-08 8.256857e-09 8.480444e-10 2.716717e-10 4.6972057e-09 2.0201549e-08 7.827507e-08
1.0509697e-07 5.3173227e-07 1.0017145e-06 1.8536408e-06 2.6507385e-06 3.1344825e-06 3.4604798e-06 3.9189244e-06
3.987833e-06 4.355373e-06 4.907323e-06 4.239312e-06 4.1912663e-06 4.2229926e-06 4.2383945e-06 3.2678827e-06
2.2145111e-06 1.7002453e-06 1.0059965e-06 4.5940652e-07 1.9276028e-07 8.9144926e-08 3.2958496e-08 3.32806e-09
4.6214915e-10 2.0574523e-08 7.130559e-08 1.0858972e-07 2.2074215e-07 6.526668e-07 1.2318637e-06 2.2695906e-06
3.346052e-06 3.7412347e-06 3.7427803e-06 3.7906914e-06 3.8946955e-06 4.341059e-06 4.342174e-06 4.212616e-06
4.1788894e-06 4.700445e-06 4.6453265e-06 3.989828e-06 2.9334474e-06 2.1862961e-06 1.4190209e-06 9.2690493e-07
4.8217913e-07 2.3469768e-07 1.02599095e-07 1.1814102e-08 1.2368983e-09 3.6483872e-08 1.1333471e-07 1.4153662e-07
3.2778743e-07 7.992047e-07 1.4959121e-06 2.797808e-06 4.258378e-06 4.0646273e-06 3.9692777e-06 4.1618614e-06
4.128638e-06 4.3554505e-06 4.2762663e-06 4.389718e-06 5.1764623e-06 5.7186708e-06 5.8961455e-06 5.0938047e-06
4.0726877e-06 2.8109773e-06 1.8848033e-06 1.4532918e-06 9.461491e-07 5.616619e-07 1.8399942e-07 1.6991866e-08
4.127129e-09 5.6882538e-08 1.43078e-07 1.5699905e-07 3.304084e-07 8.9748386e-07 1.7065847e-06 3.2177984e-06
4.3259743e-06 4.4657877e-06 4.4149137e-06 4.547322e-06 4.527665e-06 4.903722e-06 4.9980285e-06 5.597066e-06
6.365151e-06 6.8755744e-06 6.9885623e-06 6.1044966e-06 4.7117765e-06 3.699076e-06 2.557613e-06 1.983946e-06
1.5210818e-06 1.0515226e-06 3.6548178e-07 2.6609518e-08 4.0679575e-09 7.329594e-08 1.814761e-07 2.1818975e-07
4.7476814e-07 1.0003482e-06 1.9471956e-06 3.4835568e-06 4.3129353e-06 5.0782983e-06 4.9335636e-06 4.709231e-06
4.9453115e-06 4.8383517e-06 5.14104e-06 5.8912424e-06 7.0240176e-06 7.6244933e-06 7.993097e-06 6.817384e-06
5.514803e-06 4.8169736e-06 3.883333e-06 3.037256e-06 2.4489898e-06 1.8190146e-06 5.8743797e-07 4.033562e-08
4.957466e-09 8.1562035e-08 2.2107177e-07 2.8993907e-07 6.0698704e-07 1.1830542e-06 2.1530282e-06 3.5591984e-06
4.7153962e-06 5.680614e-06 5.308396e-06 5.0969975e-06 4.923731e-06 5.0360663e-06 5.530689e-06 6.6184457e-06
7.6132696e-06 8.389132e-06 8.8523875e-06 7.986733e-06 6.4493715e-06 5.9005274e-06 5.4909196e-06 4.589652e-06
3.6898923e-06 2.8135441e-06 9.931069e-07 6.3529555e-08 8.068968e-09 8.488102e-08 2.3765332e-07 4.0128074e-07
00000000: 929d 5d2d 8709 392e 0695 552f e343 3731
00000010: 0c0a 8332 5240 1033 55c0 a533 16ac 2134
00000020: 8714 7c34 ff29 1535 3cd9 ab35 b6d2 aa35
00000030: 5665 1336 ff97 1936 7fd6 1936 fd53 0d36
00000040: 1b55 e635 a2a3 b935 b91c 7435 b703 db34
00000050: 87a1 5a34 edab 0334 b980 5433 2d2f d132
00000060: 113f 2631 7eea 2d30 bda0 792f 5884 3b2f
00000070: 7825 1b2e 32df 292f 52be d431 5f95 9332
00000080: ecce 4b33 d194 c033 0d71 3a34 b113 8335
00000090: a734 0336 2536 3d36 255d 7736 17b2 7636
000000a0: b534 9936 6dfa ad36 1c39 ab36 3c2f aa36
000000b0: c1e1 8b36 4926 8136 b503 8236 b304 2536
000000c0: cbbd b335 65fc 0b35 0474 4d34 7ebc c233
000000d0: b833 bd32 572d 0532 21d4 1a31 d784 bc30
000000e0: 4c20 892e 68da 142f 7e4c 8031 3a1d 1c33
000000f0: 3414 ae33 f8ac 5f34 3726 3735 1d5a d435
00000100: b7e4 1d36 82f8 3536 a94e 6a36 f5ea 8436
00000110: 6c9b 9a36 3cab be36 26b2 d236 2d24 a236
00000120: 23c5 8536 8a92 8536 392f 7436 b69d 3436
00000130: 5e3f 0236 c6da b935 341e 1435 d1a5 5834
00000140: 4df7 b833 2663 dd32 0bda 0d32 d21b 6930
00000150: 655a 952f 0f65 a131 ad87 ad32 2d18 a833
00000160: acb1 e133 5dbc 0e35 a672 8635 9dca f835
00000170: 57e3 3136 005a 5236 973a 6836 4e7f 8336
00000180: 3acf 8536 5f24 9236 95a9 a436 6a3f 8e36
00000190: b4a2 8c36 3bb3 8d36 8837 8e36 cc4d 5b36
000001a0: 039d 1436 fc33 e435 c705 8735 5aa4 f634
000001b0: 8bf9 4e34 f16f bf33 408e 0d33 dab3 6431
000001c0: b611 fe2f dbbb b032 aa20 9933 d431 e933
000001d0: 2405 6d34 ec32 2f35 8456 a535 454f 1836
000001e0: bc8c 6036 ec11 7b36 7a2c 7b36 9563 7e36
000001f0: 2eaf 8236 6aa9 9136 feb2 9136 195a 8d36
00000200: 6338 8c36 84b8 9d36 0ddf 9b36 5de0 8536
00000210: 3edc 4436 48b8 1236 3075 be35 6cd0 7835
00000220: 196f 0135 3501 7c34 7354 dc33 f8f6 4a32
00000230: 7dff a930 71b2 1c33 6a62 f333 4af9 1734
00000240: c3fa af34 ee88 5635 26c7 c835 fac1 3b36
00000250: 30e3 8e36 e262 8836 d62f 8536 1ea6 8b36
00000260: bb88 8a36 0925 9236 d97c 8f36 644b 9336
00000270: 79b1 ad36 02e3 bf36 81d7 c536 73eb aa36
00000280: 1fa8 8836 39a4 3c36 59f9 fc35 ba0e c335
00000290: dffa 7d35 1dc5 1635 6091 4534 82f5 9132
000002a0: 9cce 8d31 034f 7433 fba0 1934 9293 2834
000002b0: fc62 b134 9fea 7035 ce0d e535 5bf1 5736
000002c0: d627 9136 d3d8 9536 d223 9436 3395 9836
000002d0: 59ec 9736 a78a a436 bdb4 a736 6ece bb36
000002e0: 3b94 d536 bcb4 e636 4b7f ea36 3ad5 cc36
000002f0: da19 9e36 a43d 7836 75a3 2b36 ef23 0536
00000300: f927 cc35 0b22 8d35 6f37 c434 f392 e432
00000310: 22c6 8b31 df66 9d33 c5db 4234 8b47 6a34
00000320: a3e3 fe34 b443 8635 91ac 0236 0dc7 6936
00000330: d5b7 9036 4066 aa36 fd8a a536 fc03 9e36
00000340: e7ef a536 2059 a236 3381 ac36 63ad c536
00000350: daaf eb36 e6d5 ff36 171a 0637 e2c0 e436
00000360: cc0b b936 7da1 a136 944d 8236 a9d3 4b36
00000370: 5359 2436 de24 f435 6eb0 1d35 7c3d 2d33
00000380: 5556 aa31 3427 af33 bf5f 6d34 eca8 9b34
00000390: d5ef 2235 6fc9 9e35 be7c 1036 90da 6e36
000003a0: f238 9e36 1a9c be36 c61e b236 e006 ab36
000003b0: 8736 a536 7bfb a836 4294 b936 0414 de36
000003c0: 7d75 ff36 0cbf 0c37 b784 1437 c2fe 0537
000003d0: ae67 d836 25fd c536 a43e b836 cf00 9a36
000003e0: de9f 7736 52d0 3c36 e54a 8535 be6d 8833
000003f0: b29f 0a32 d647 b633 a62d 7f34 9b6f d734
