lightning_logs/version_3/checkpoints/model-epoch=21-val_loss=0.42-1.ckpt (torch, 185102 bytes, 48 tensors)

classifier.1.weight f4 [16, 784]
000000 63 c8 c1 3c 5b 9d 70 3d 64 bb 8a 3d c3 83 b8 bd
       0.023655122 0.058743816 0.06774023 -0.090095066
000010 19 ae 30 3d f0 47 a9 3d a1 c5 68 3d 70 86 26 3a
       0.043134782 0.08265674 0.0568291 0.000635243
000020 90 66 b2 bd f1 70 7c 3c bb 9d d1 3c 5b 31 b4 bc
       -0.087109685 0.015407787 0.025587907 -0.02199619
000030 21 c7 ee 3c ee 2f 04 be 47 f1 db bd 2f dc 9c bd
       0.029147686 -0.12908909 -0.107393794 -0.07659184
000040 f3 d3 a4 bc 07 42 2b 3d 12 27 06 3d 37 4d 96 3d
       -0.020120597 0.041811015 0.032752104 0.07338946
000050 c3 00 0d 3d 65 16 f7 3c 49 81 9c 3d f9 55 6c 3d
       0.034424555 0.030162046 0.07641847 0.057699177
000060 e0 51 86 3d 20 ce 94 bd 04 94 8f 3d 86 2d df 3c
       0.06558585 -0.07265878 0.070106536 0.027243387
000070 c2 d6 bd 3d 8c 23 82 3d 39 c5 be ba 6c 4a 8c bd
       0.092694774 0.06354436 -0.0014554627 -0.06850132
000080 4f 93 40 3d 65 42 a2 bc d3 9e 29 3d cd 39 0d 3b
       0.047015484 -0.01980705 0.041411232 0.0021549345
000090 b3 bf 3e bb 48 6d 50 3c 96 71 18 b9 69 2a d6 3c
       -0.002910596 0.012721367 -0.00014538164 0.02614327
0000a0 6f 6c c9 3c 1d 22 23 bd 3b 84 91 bd 52 25 a5 bc
       0.024587838 -0.039827455 -0.07105299 -0.020159397
0000b0 4c fc aa 3b 01 c9 61 3d c6 c3 09 bc 05 4f d0 bc
       0.0052180644 0.055123333 -0.008408492 -0.025428304
0000c0 26 00 74 3c b3 b8 05 3d d9 22 2e 3d 49 4b 8e bb
       0.0148926135 0.032646846 0.042513702 -0.004342471
0000d0 e6 5c 94 3d 43 5e 43 3d 90 1c 6c bb 2a 8c 36 bd
       0.072442815 0.047697317 -0.0036027767 -0.044567265
0000e0 da 38 aa 3b 99 50 44 bd 42 53 1b 3d 1c 8a b4 bd
       0.0051947655 -0.047928426 0.037921198 -0.08815405
0000f0 77 cd d3 3b 71 45 69 bc e1 6e 73 bc 9d f8 3c 3d
       0.0064637023 -0.0142377475 -0.014857979 0.046135534
000100 7b f4 59 3d 56 b0 40 3d 58 b2 51 3c e1 e4 6a 3d
       0.05321167 0.047043167 0.012798868 0.057347182
000110 c3 4c 08 bc d2 87 0b 3d 3b 99 23 bc 16 f6 f3 bc
       -0.008319083 0.034065075 -0.009985263 -0.029780429
000120 db ff 91 bc 77 75 f7 3c 68 dd 48 3c 6e 0c 5c bd
       -0.017822197 0.030207379 0.012259819 -0.05372279
000130 5a b9 6e 3d 98 fb 23 3c c2 d1 b9 bc 61 5b dc 3c
       0.058282234 0.010008715 -0.022683028 0.026899042
000140 cb 8e 7d 3d e9 8e c9 bb c2 93 99 bc 9a 67 62 bd
       0.061903756 -0.0061510694 -0.018747214 -0.055274583
000150 b5 60 3d bc a7 09 c5 bd 30 8f a3 bd 3c 96 47 bc
       -0.011558701 -0.09620982 -0.07986295 -0.012181815
000160 cc b5 30 3d b6 86 d3 3c d0 0f 13 bd 90 ba 81 3d
       0.043142125 0.025821071 -0.03590375 0.06334412
000170 fe 41 76 3d 65 d8 34 3d 03 70 cc 3c 71 9f 18 bd
       0.06012153 0.044151682 0.024955755 -0.03726143
000180 16 1b a7 bb b7 a4 2f bd 58 c3 67 bc 9e 6d 9d bc
       -0.0050996644 -0.042881694 -0.014145695 -0.019217309
000190 66 85 70 bd 93 24 01 3d 0b 62 10 bd 6a bb 0c 3a
       -0.05872097 0.03152902 -0.03524975 0.0005368503
0001a0 3d cb d2 3b 5e 0e f3 3c 48 32 f3 b9 43 14 85 bc
       0.0064329193 0.029669937 -0.00046386034 -0.016245013
0001b0 4b 97 f0 3c 7d 05 60 bc 52 d7 6f bb d4 dd a8 bc
       0.029369017 -0.0136731835 -0.0036596847 -0.020613588
0001c0 77 ad ae 3c d3 83 16 bd 83 31 28 bd 1f 57 4b 3a
       0.021322949 -0.03674681 -0.041062843 0.00077568175
0001d0 b8 5a 9b 3d 03 f8 50 3d 59 4e ba 3d 21 5d 3a 3d
       0.075856626 0.051017772 0.09096975 0.04549897
0001e0 85 1f 66 bc e2 75 c0 bc 19 72 d1 3c fe d7 e1 3b
       -0.014045601 -0.02349371 0.025567101 0.0068922034
0001f0 41 d3 e5 3c 2f f8 01 ba ee a4 dd 3a 43 7c 09 bc
       0.028054835 -0.0004957942 0.0016910115 -0.008391443
000200 f3 8c fb 3a 93 92 bc 3b ad a2 2c 3c a5 9e 3e 3a
       0.0019191786 0.0057547777 0.010536832 0.00072715647
000210 1b 88 62 3d 99 9a 23 bb b9 c4 04 bc 2a 1c d7 bc
       0.05530558 -0.0024963974 -0.008103543 -0.026258547
000220 42 3b 92 bb 84 4f 48 3c 6a c0 d5 bc be 55 0a 3d
       -0.0044626305 0.012225989 -0.026092727 0.033773176
000230 af 60 d9 bd 07 89 80 bd 6a 22 57 bc 26 d6 f3 bb
       -0.10614144 -0.06276136 -0.013130764 -0.0074413
000240 71 de 91 bb fe 7e 81 3d 4d 72 bc 3d 08 3a 5f 3d
       -0.004451566 0.0632305 0.09201489 0.054498702
000250 d3 aa ce 3c b8 fe b1 3c 0d 8a de 3b fb 43 6d 3c
       0.02522794 0.021727905 0.0067913593 0.01448154
000260 91 71 d4 bc 28 65 2a bc 67 b7 5d bc 10 d3 d6 3c
       -0.025933059 -0.010400094 -0.013532496 0.02622369
000270 76 6c e1 bc 8b 66 6b bc ec 6f dd b9 3c 12 a6 3c
       -0.027517539 -0.01436771 -0.00042235793 0.020272367
000280 73 09 cd bc c7 65 a2 bc ae a0 cb 3c 6f 67 9f bc
       -0.02502892 -0.019823922 0.024856891 -0.0194585
000290 3c 0c 3e 3d 2d ad 37 3b 1e 5d db bc 04 42 5e bc
       0.046398386 0.0028026805 -0.0267778 -0.013565544
0002a0 96 19 88 bd 9a 4b 97 bc d9 05 d3 bd 27 a7 85 bd
       -0.06645505 -0.018468667 -0.1030385 -0.065260224
0002b0 36 7a 9e bc 6b c3 54 39 9d 1d 13 3d 88 8c 23 3c
       -0.019345384 0.00020290694 0.035916913 0.009982236
0002c0 54 08 82 3c 0f 52 22 3d 06 29 fe 3c ef da aa bc
       0.015873112 0.03962904 0.03102542 -0.020856349
0002d0 c7 0d a4 bc f1 5c 0d 3c f8 a5 7c bb 57 40 f0 3b
       -0.0200261 0.008628116 -0.0038551074 0.0073318887
0002e0 03 e1 82 bc 9c 99 74 3c bd 64 6d 3b 0c fd 44 3d
       -0.015976435 0.014929201 0.0036223375 0.048092887
0002f0 54 6e 89 bc ae 97 57 3c d0 23 7a bc 99 38 28 bb
       -0.016776241 0.013158722 -0.015267327 -0.00256685
000300 d2 61 3a bd 26 14 2e bd 99 7d 1f bd b8 94 5d bd
       -0.045503445 -0.042499684 -0.03893814 -0.054096907
000310 75 89 ba bd ae dc 88 bd aa 16 c1 bd 04 a0 77 bd
       -0.09108249 -0.06682716 -0.09428151 -0.060455337
000320 6c 38 5e bd 51 be 54 3c 60 a6 42 bd e7 4f a0 bd
       -0.054253027 0.012984828 -0.04752195 -0.0782774
000330 89 d5 48 3c 0f b7 81 bc e4 ff 20 3c 3d 84 d0 bc
       0.012257942 -0.01583436 0.009826634 -0.025453681
000340 91 be 99 bd 92 23 e9 bc 3e 33 1b bd 17 77 3d 3c
       -0.07507051 -0.028459344 -0.037890665 0.011564038
000350 ef 8a d8 3b d6 b1 ef bb 62 b9 fc 3c e7 03 1c 3d
       0.006608359 -0.007314901 0.030850116 0.03808966
000360 fc d5 16 bc cd a5 b6 3b ba cc 2d bc 0f 88 44 bd
       -0.009206291 0.005573964 -0.010607893 -0.047981318
000370 98 96 5e bc 29 49 5c bc 4a 88 ba 3c b0 0f da bc
       -0.013585709 -0.013445177 0.022770066 -0.026618809
000380 7b 05 4f bd 6a 15 18 bc a2 dc c8 bd 26 f0 6b bd
       -0.050542336 -0.009282449 -0.09807707 -0.05760207
000390 93 4a b7 bb ee 1f 12 bc 1d 2c 84 bc 28 cb 9b bd
       -0.0055936067 -0.008918745 -0.016134316 -0.07607108
0003a0 05 6a 5f bd 6c eb 8b bc 1d de 86 bd 2d e0 ff bc
       -0.054544467 -0.017080031 -0.065853335 -0.031234825
0003b0 bd 3c 39 bc 73 7a b8 bb 81 e0 af 3c 4b 56 43 ba
       -0.011305985 -0.0056298315 0.021469356 -0.00074515183
0003c0 8e be cc 3c ba 77 fc 3b c3 e4 26 3d ae 29 0f 3d
       0.024993207 0.007704702 0.040745508 0.03495186
0003d0 e0 f3 91 bc 61 71 aa bc 2f 31 50 3d 7b b3 a1 bc
       -0.017816484 -0.020806016 0.050828155 -0.019738903
0003e0 35 70 1c 3a 69 07 f5 3b ab 46 70 3c 49 63 a4 3c
       0.0005967648 0.00747769 0.014665286 0.020066874
0003f0 38 bb 83 bd 85 a9 2c bd 6a 44 9a bd be c3 4b bd
       -0.064321935 -0.042153854 -0.0753258 -0.04974722

classifier.1.bias f4 [16]
000000 3d d1 f4 3b ed 33 0c 3c 42 aa f7 bc 1d 26 1a 3d
       0.007471232 0.008557302 -0.030232552 0.037634004
000010 ba fc 91 bc b0 dd a5 3c a5 a1 8f bc 24 f1 04 3d
       -0.017820705 0.02024731 -0.017533133 0.032456532
000020 53 46 11 3d 5e 1b c5 bc 77 ad 04 bd 26 55 8d bc
       0.035467457 -0.024060901 -0.03239199 -0.017252516
000030 b5 22 60 bc 33 3e 97 bc f2 b3 07 3d 52 45 4b 3c
       -0.01368015 -0.018462276 0.033130594 0.012406664

classifier.2.weight f4 [16]
000000 40 5e 76 3f f0 65 80 3f 51 e5 81 3f 3a 9a 91 3f
       0.96237564 1.0031109 1.0148107 1.1375191
000010 99 65 75 3f 70 b1 80 3f 7e c9 71 3f ca 1a 88 3f
       0.9585815 1.005415 0.9444808 1.0633175
000020 a4 9f 6d 3f 18 ef 71 3f 3d 5b 83 3f 32 8b 80 3f
       0.9282172 0.94505453 1.0262219 1.0042479
000030 63 9b 73 3f 19 c0 70 3f 03 3b 87 3f 62 88 71 3f
       0.95158976 0.9404312 1.0564884 0.9434873

classifier.2.bias f4 [16]
000000 17 de d6 bd 71 de 25 be d6 a1 28 bd 7c ad 9c bc
       -0.10491579 -0.16198136 -0.041169964 -0.019125693
000010 ac 0c 39 be 1e f2 a0 bd a6 cc 21 be f5 2b 7d 3d
       -0.1807124 -0.0785868 -0.15800723 0.0618095
000020 aa 30 10 be 87 e7 7f 3d 63 93 10 be 61 53 9f 3c
       -0.14081064 0.06247666 -0.14118724 0.019448938
000030 fb 46 bc bd c9 9b bc 3c bf e1 22 be 34 f6 b4 3d
       -0.09193226 0.023023503 -0.15906428 0.08836022

classifier.2.running_mean f4 [16]
000000 a1 f4 fb 3f fe 96 86 40 62 93 89 3f 3d 58 94 40
       1.968403 4.2059317 1.0748103 4.6357713
000010 b1 72 04 c0 e1 c8 d3 3f 56 ae 1f 40 bd 31 1f 40
       -2.0695002 1.6545678 2.4950156 2.4874108
000020 11 6a 32 bf c3 01 85 40 da bd 28 40 09 47 d8 be
       -0.69693094 4.156465 2.6365876 -0.42241696
000030 67 23 d9 3e 4b 42 2b 40 31 a2 e0 be ad 8b c3 bf
       0.42409822 2.6759212 -0.43873742 -1.5277001

classifier.2.running_var f4 [16]
000000 1f f0 a7 3f b0 97 e6 3f e1 f2 97 3f ec 5d 79 3f
       1.3120154 1.8015041 1.1870996 0.9740894
000010 8f 1e 95 3f 7f 24 98 40 a7 e8 c2 3f c5 7f c9 3f
       1.1649951 4.754455 1.522725 1.5742117
000020 12 1b 13 3f ec fc 85 3f 5b 62 a1 3f 13 16 05 40
       0.5746318 1.0467811 1.2608141 2.0794723
000030 26 04 03 3f 48 d8 8e 3f de 80 8b 3f 8f e3 c0 3f
       0.51178205 1.1159754 1.0898702 1.5069445

classifier.4.weight f4 [16, 16]
000000 01 6a 08 3e 8b 9a 3c 3c 16 24 03 be dd 58 83 bc
       0.13321687 0.011511455 -0.12806734 -0.016033584
000010 46 27 50 bd 2d ac a4 be 4e 13 29 be db 38 8e be
       -0.050818704 -0.3216261 -0.1651127 -0.27777752
000020 b1 1c 61 bd 5b 27 3e 3e 61 10 dc bc bb 88 96 be
       -0.054959003 0.185697 -0.026863279 -0.29401192
000030 1b a3 65 3e cb fc d7 3d 28 93 2d bd a4 65 00 3d
       0.22425501 0.10546263 -0.042376667 0.031346932
000040 ab b3 85 3e 32 2a 9d 3d 56 bc 8d 3d 30 8d 98 bd
       0.26113638 0.07674064 0.06920688 -0.074488044
000050 7b ba 04 be 78 6d 42 3e ea cd c5 3c f6 45 41 3e
       -0.12961762 0.18987072 0.024146039 0.18874344
000060 7f 61 10 3e 82 67 12 3e d1 96 47 be f4 17 21 be
       0.14099692 0.14297298 -0.19491126 -0.15731794
000070 d1 2b c2 be 27 d2 19 3e 60 dd 06 3c 3c 25 94 3d
       -0.37924054 0.15021573 0.008231491 0.072336644
000080 71 b9 00 3e 77 25 d6 3d b8 90 40 3d 20 46 07 3d
       0.1257074 0.104563646 0.047013015 0.03302586
000090 0b 59 52 bc a9 97 97 3d 61 5a 7e be df af 85 3d
       -0.012838612 0.07401974 -0.24839164 0.065276854
0000a0 b3 39 03 be 5c 65 a7 bd 3b 20 05 be 09 c7 36 be
       -0.1281498 -0.0817363 -0.13000576 -0.17849363
0000b0 fe ee 16 be 6c d6 94 3d 48 ef 65 bd 58 06 91 be
       -0.14739606 0.0726746 -0.0561364 -0.28325152
0000c0 9a 75 58 3e 21 57 58 3e 4d bb 0d be b8 42 b5 3d
       0.21138611 0.21126987 -0.13840981 0.08850616
0000d0 23 41 0a be 01 07 c3 3a 13 88 24 be 45 2a 3d bd
       -0.1350141 0.0014879407 -0.16067533 -0.04618289
0000e0 0a 12 2a be 53 d6 87 bd bd 54 ed bd f7 8d 17 3d
       -0.16608444 -0.06632676 -0.11588428 0.037000623
0000f0 36 e9 06 be 8b a3 f7 bd 2e 4d 35 bd a4 81 4e 3e
       -0.131749 -0.1209174 -0.044263057 0.20166641
000100 04 41 38 3d 94 8f d3 3c b4 61 53 3e 78 7b 96 bd
       0.04498388 0.0258253 0.2064274 -0.073477685
000110 1b 2f b7 bc b1 7c a2 3e ff f3 05 3e 96 b6 94 bd
       -0.022361329 0.31735757 0.13081358 -0.07261388
000120 80 ff 0a bd e2 6a 83 bc bf 11 2a 3e 55 76 9c bd
       -0.03393507 -0.016042177 0.16608332 -0.076397575
000130 4f 89 9c 3d 41 cf 37 be 77 35 8b be da 07 ab 3d
       0.07643377 -0.17950155 -0.27189228 0.08351107
000140 70 11 12 be 8b d3 be bd e8 fd 63 bb 01 33 8a be
       -0.14264464 -0.09317692 -0.003478879 -0.26992038
000150 da 4e 6d bd 66 c5 df 3c 01 95 91 3e b5 25 58 3d
       -0.057936527 0.027315807 0.28433993 0.052770335
000160 2e e3 fc 3d e1 ea 2a 3e d2 0d 50 be 00 fe c0 3d
       0.123480186 0.16691162 -0.20317772 0.09423447
000170 d3 f9 36 be a7 2b d1 bd 6b 7a e3 bd 43 37 f7 bc
       -0.17868738 -0.10213404 -0.11107334 -0.030177718
000180 ba f3 e3 3d cb 76 47 bd 93 a3 88 3a 13 b9 5e be
       0.111304715 -0.048697274 0.0010424725 -0.21750288
000190 c1 8e 24 be f0 df 95 3c ca 71 fa bd 7e a1 f4 bd
       -0.16070081 0.018295258 -0.12228735 -0.11944865
0001a0 00 74 74 be 01 3e f7 bc 79 9d 76 3d 13 0c a6 3c
       -0.23872375 -0.030180933 0.06020877 0.02026943
0001b0 76 9a 1a 3e ac a0 80 be 2f 1d 84 3e 23 d0 56 3d
       0.15097985 -0.25122583 0.25803515 0.05244459
0001c0 d6 da 93 3e 0b b8 cb bd 38 4f 8a 3d 4f 77 61 bd
       0.28877896 -0.09947213 0.06753391 -0.055045422
0001d0 45 b0 2f be a3 06 86 3d 62 cf 62 be f3 43 1b be
       -0.17157085 0.065442346 -0.22149423 -0.1516264
0001e0 96 ef 0d be a5 4c 06 3d 77 72 ac 3d d5 96 99 3c
       -0.13860926 0.032787938 0.0842027 0.01874868
0001f0 a4 d5 01 3e 58 e2 b0 bd dc 09 17 3e 4d ce 13 be
       0.12679154 -0.08636922 0.14749855 -0.14434166
000200 21 57 b5 3d f7 4d 92 3c 94 c5 1a 3e 9d 95 f1 be
       0.08854509 0.017859442 0.15114433 -0.47184458
000210 e5 e4 4d bd 92 12 c4 3d 1d b4 11 be 43 9a c5 bc
       -0.05026712 0.095738545 -0.14228864 -0.02412141
000220 c9 69 40 be f8 be 46 3d d6 19 95 bb ed 5a 9f bd
       -0.18790354 0.048521966 -0.004550199 -0.077810146
000230 78 20 fe 3c 7f 77 30 3e 69 01 1e 3e 43 f5 3b be
       0.031021342 0.17233084 0.15430225 -0.18355279
000240 4f 4e ed 3b 00 e7 48 3e 76 a0 49 3d c3 c4 70 bd
       0.007242001 0.1961937 0.049225293 -0.058781397
000250 e8 3f 4e 3e ba cf 27 3e e1 57 1d be 6e ca a7 be
       0.20141566 0.16387835 -0.15365554 -0.3277163
000260 f5 24 a7 bd ec 39 5e 3e 4a 50 0d bc 6b 89 5f bd
       -0.08161346 0.21701783 -0.008625099 -0.05457441
000270 ad 11 01 3d 8b c1 d7 3d bb 6a 57 3b fb 7e aa bd
       0.031510998 0.10534962 0.0032870013 -0.08325001
000280 f8 e1 b4 bd 0e ff 7e 3d e8 92 df bd 8c b6 82 bd
       -0.088321626 0.062254958 -0.10916692 -0.06382474
000290 12 5c 5b bd a0 f5 7c 3e b6 2a 94 be 4b 13 36 be
       -0.053554602 0.24703074 -0.28938836 -0.17780797
0002a0 1d d6 1b 3e bc 58 00 bd d1 97 9d be b5 17 6d bd
       0.15218396 -0.031334624 -0.3077989 -0.057883937
0002b0 49 f5 47 3d f3 39 a8 bd e5 5e 34 be ea f8 00 3c
       0.048817907 -0.08214178 -0.17614324 0.007871846
0002c0 ab bd ce 3d 91 77 56 3e 7a 96 1e be 35 4f bc be
       0.1009477 0.20944048 -0.1548709 -0.3677918
0002d0 27 fa 37 3e 03 1c 47 be 8f 91 0e 3e 0a 3d 17 be
       0.1796652 -0.1944428 0.13922714 -0.14769378
0002e0 2b 03 d2 bd cc 58 9d be 5a 07 be 3d a5 ff 24 3e
       -0.102545105 -0.3073181 0.09278746 0.16113146
0002f0 5a 19 91 3d b8 1d 0e 3e 58 bc ea 3d f0 d6 18 be
       0.070849136 0.13878524 0.11461705 -0.14925742
000300 79 08 09 be 21 00 73 bb ac b9 96 be 66 01 db bd
       -0.13382138 -0.0037078934 -0.2943853 -0.10693626
000310 65 f9 98 3d 8d 13 1a be 14 1e 98 bd 74 d4 84 3d
       0.07469443 -0.1504652 -0.07427612 0.06485835
000320 fd 95 5a 3d ac f2 3e 3e a3 bd f4 bc 32 67 2f 3d
       0.053365696 0.1864726 -0.029875582 0.042823024
000330 71 40 49 bd 00 56 5f be ea 19 64 3d 5b 12 08 be
       -0.04913372 -0.2181015 0.055688776 -0.13288252
000340 1a 73 70 3e f9 c2 d4 3d 02 5c 29 3e b6 20 3d be
       0.23481408 0.103887506 0.16539004 -0.1846951
000350 dd 34 da 3c f7 3a 7f be 11 8e 8c 3e 46 82 ff 3d
       0.026636535 -0.24924837 0.27452138 0.124760196
000360 92 5a a5 3d 85 c9 e4 3c 81 70 ca bd 56 8c 47 bd
       0.080739155 0.027928123 -0.0988474 -0.04871782
000370 d6 e5 c6 3d 34 9b ef 3d fb f4 81 be 7a 64 2b 3e
       0.097118065 0.116995245 -0.25382218 0.16737548
000380 05 b1 31 bd dd 09 7e be c1 7a 08 be 1e 2a 8d 3d
       -0.04338171 -0.2480845 -0.13328077 0.06892799
000390 86 46 3a be 4b 40 88 be 4e 52 b5 3d 09 e1 a5 3c
       -0.18190965 -0.26611552 0.08853589 0.020248907
0003a0 87 86 f8 bd 74 f5 84 3d 53 ee cd 3d 41 68 b9 be
       -0.12135034 0.06492129 0.10055222 -0.36212352
0003b0 3b db 4f be e0 e0 92 3d 46 03 88 be d7 a5 0b 3e
       -0.20298474 0.07171798 -0.26564997 0.13637482
0003c0 7f 24 1b bd 97 69 73 3e ed 68 d3 3c 66 7f f3 3c
       -0.037876602 0.23770748 0.025806868 0.029723834
0003d0 17 9b 7a bd bd 0c 95 3d 74 27 0e 3e 37 36 19 be
       -0.06118306 0.0727782 0.13882238 -0.14962088
0003e0 f1 6a f9 bd b8 56 15 be 4e 14 3f be a1 1a 08 3e
       -0.121786006 -0.14583862 -0.1866009 0.13291408
0003f0 20 20 88 3c a0 8b 1e 3d 73 90 02 3e af fb 45 3d
       0.01661688 0.038707376 0.12750416 0.048335727

classifier.4.bias f4 [16]
000000 49 cb 83 bd a1 2e 98 bd 7a 24 01 be e9 e1 9a 3c
       -0.06435258 -0.07430769 -0.12611571 0.01890655
000010 5c cb a9 bd ca cb 17 be 76 db 1d be cc a6 10 3d
       -0.08290741 -0.14823833 -0.15415749 0.03531532
000020 33 77 11 be a4 e7 27 3e 2d ea 4e 3d bc 15 4b 3d
       -0.14205627 0.16396958 0.050516296 0.049581274
000030 a9 f1 66 3e 11 fd 74 be 0f 48 b6 bd c2 a0 7a be
       0.22553124 -0.23924662 -0.08900463 -0.24475387

classifier.5.weight f4 [16]
000000 b6 69 71 3f a8 d6 68 3f cd 20 82 3f c3 6f 8c 3f
       0.9430193 0.9095254 1.016626 1.0971607
000010 1d 44 87 3f ed b0 86 3f 5c be 7c 3f c5 63 86 3f
       1.0567662 1.0522743 0.98727965 1.0499197
000020 c8 e2 5e 3f 71 ac 84 3f da 63 79 3f e5 72 88 3f
       0.8706479 1.0365125 0.97417986 1.0660063
000030 53 4f 7b 3f b5 61 6e 3f 72 40 82 3f b0 de 6b 3f
       0.98167914 0.9311784 1.0175917 0.9213667

classifier.5.bias f4 [16]
000000 4b df 30 3d 81 9b 5f 3d 90 18 3c bd d0 da 79 bd
       0.0431817 0.05459166 -0.045921862 -0.06099969
000010 24 94 73 be 40 34 5f 3c 6e 22 0b bd 2a a1 79 3c
       -0.2378698 0.013623297 -0.03396838 0.015236178
000020 02 6b 1b 3d 82 b4 1d 3e e6 be 83 bd 85 f8 9f 3d
       0.037943847 0.1540089 -0.06432895 0.07811073
000030 2f 88 01 3d e0 2d f3 3d 5b 4a de 3b 07 95 f1 bd
       0.031624015 0.11873984 0.006783766 -0.11796003

classifier.5.running_mean f4 [16]
000000 9e 9a b3 be c8 6f d5 3d b4 1b c3 be 62 a3 9e bd
       -0.350789 0.10421711 -0.38107073 -0.077460065
000010 2d 23 90 3c 7a 33 a2 be b2 d8 b1 be b3 5e 15 bd
       0.017594898 -0.31679899 -0.34735638 -0.036467265
000020 9d 56 98 be 7b 74 5d 3e e6 f6 91 be 81 ec 00 be
       -0.2975358 0.21626465 -0.2850868 -0.12590219
000030 c2 6d 4a bd 0c 25 86 bd 4f 65 05 bf 40 94 49 be
       -0.04942108 -0.06550035 -0.5210771 -0.19685459

classifier.5.running_var f4 [16]
000000 42 a9 31 3e de 17 0d 3e 71 54 6d 3d 7e 15 90 3d
       0.17349723 0.13778636 0.057941858 0.07035349
000010 07 20 46 3d a3 c8 b1 3d 66 f9 5c 3e c6 9a 40 3e
       0.048370387 0.086808465 0.21579513 0.18809041
000020 cc 5b 61 3e a9 77 99 3d 70 ec 02 3e e0 64 94 3e
       0.22007674 0.074935265 0.12785506 0.28983212
000030 86 a1 0e 3d 76 85 87 3e 38 58 8d 3e 8d a6 a5 3d
       0.03482201 0.2646901 0.27606368 0.08088408

classifier.7.weight f4 [16, 16]
000000 e2 b3 cc 3c 47 c5 59 3d f2 95 9d 3e cc 77 05 be
       0.024988119 0.053166654 0.30778462 -0.1303398
000010 80 c4 66 3d dc dc 15 bd 3b 40 c6 bd cb 70 9f 3d
       0.05633974 -0.03658758 -0.0968022 0.077851854
000020 ae 18 a2 bd e4 ae b0 bc 70 33 0a bd 1e a6 7e 3d
       -0.079148635 -0.02156777 -0.03374046 0.06217014
000030 af 0b be bd 50 0f ef bd 57 bc f2 bd 33 a0 cd bd
       -0.09279572 -0.116728425 -0.11852329 -0.10040321
000040 0e 7d 56 bd 77 9b 19 be 94 90 24 be c6 02 28 be
       -0.052365355 -0.15000711 -0.16070777 -0.16407308
000050 32 cb 82 3e b2 64 b7 bd f8 3c a3 bc e9 d6 8c 3e
       0.2554565 -0.08954753 -0.019926533 0.27507713
000060 bf 89 f9 3c d3 8c a5 3c a8 97 1a bd 92 f2 9d 3d
       0.03046119 0.020208752 -0.037742287 0.07712282
000070 11 67 97 bd df d5 11 3d 6f b1 24 be 65 bb 8a be
       -0.07392705 0.035604354 -0.1608331 -0.27096096
000080 7a fc 85 3e ef 6a 1c 3e 14 ac 18 bb 39 3a 50 3e
       0.26169187 0.15275167 -0.0023295926 0.2033471
000090 5a 75 d5 bd 67 da 23 bd ae 49 4e 3e 20 51 0d bd
       -0.10422774 -0.040003207 0.20145294 -0.034501195
0000a0 e2 a2 55 be d9 64 19 3d c2 1e 42 3d bd 37 17 be
       -0.20862916 0.03744969 0.047392614 -0.14767356
0000b0 ac 32 15 be 4e d0 b8 bd 10 70 10 3e 3b b7 d6 bc
       -0.14570111 -0.09024106 0.14105248 -0.026210418
0000c0 dd 4f f7 3d 74 d0 e8 3d c4 a2 27 be 2f 07 e2 3d
       0.120757796 0.11367884 -0.16370684 0.110365264
0000d0 23 65 51 bd 63 c9 73 be 99 c1 34 be 45 26 98 3d
       -0.051121842 -0.23807292 -0.17651977 0.07429174
0000e0 b4 30 b2 bd 6c b8 f9 bd 2b f3 28 be 3e 2c 67 be
       -0.08700696 -0.12193379 -0.16499011 -0.22575471
0000f0 1d d0 11 3e 62 c8 08 be 56 f3 aa 3e ae 4b 0a 3e
       0.14239545 -0.1335769 0.33388776 0.13505432
000100 a7 66 d9 bd d8 33 26 bd d7 1d 83 3d e3 ee 34 be
       -0.106152825 -0.040576786 0.06402176 -0.17669253
000110 b1 7c b9 bd 4b e1 37 bd 20 41 2e be 92 c0 83 3d
       -0.09056986 -0.04489259 -0.1701703 0.06433214
000120 4f 8d 39 be 1b d6 7e 3e 75 f1 b3 3d 9d 2b 25 bd
       -0.18120311 0.24886362 0.08786289 -0.040324796
000130 8a 5e 88 3e d0 27 6f bd 94 cb 02 3b ac 15 8e 3d
       0.26634628 -0.058387578 0.0019957768 0.06937727
000140 3b ad 09 3d 26 ea 9a 3d f3 47 58 3e 84 3e 93 3c
       0.03361247 0.075641915 0.21121196 0.017974146
000150 ae f9 c4 bd fe 1c 6c be 4c 10 0b 3c 00 a3 b8 3b
       -0.09617935 -0.23057935 0.008487772 0.0056346655
000160 97 e8 73 be 1e 17 bc be 10 53 2b be 6d 92 09 be
       -0.23819195 -0.36736387 -0.16730905 -0.13434763
000170 e4 af d8 3d 51 97 9b 3c 56 27 fe 3d 2e e8 34 3d
       0.105804235 0.018993052 0.124098465 0.044166736
000180 f9 14 cf bd e4 d0 e3 bd 2f dd c4 3c 35 ab 55 3e
       -0.10111422 -0.11123827 0.02403125 0.20866092
000190 06 b5 de 3e f4 43 ed 3c 2c 8f f5 3a 87 a1 ad 3d
       0.43497485 0.028963067 0.0018734685 0.084780745
0001a0 bd 89 46 3c 97 32 a5 3d d2 1f e2 3b 51 99 c7 bb
       0.0121178 0.0806629 0.006900766 -0.006091275
0001b0 03 c5 16 bd d1 e1 3f 3d 43 a2 06 bd 11 14 53 be
       -0.03680898 0.046846215 -0.03286959 -0.20613123
0001c0 a1 be 38 3e c7 52 0a be 62 36 ec bb 0b 00 20 be
       0.18041469 -0.1350814 -0.0072086314 -0.15625016
0001d0 a0 2b 21 3e 83 b7 aa 3c 24 f6 c5 bd e1 a2 10 bd
       0.15739298 0.020839458 -0.09666088 -0.035311583
0001e0 5f 9c b0 bb ea 24 76 3e 34 a7 9c bc 5b dc 9f bd
       -0.0053897346 0.24037519 -0.019122697 -0.07805701
0001f0 4a 5f 40 be 4b 7f cc bc 4d 60 c4 bd 9d b5 81 3d
       -0.1878635 -0.024963042 -0.095886804 0.06333468
000200 c7 cc 11 be 00 d5 a0 be ef 3a 7e bc 57 93 d0 bc
       -0.14238273 -0.31412506 -0.015516981 -0.025460882
000210 88 e7 17 be 36 62 da 3c e1 9a 93 bd e0 23 ae be
       -0.14834416 0.026658159 -0.07207275 -0.34011745
000220 9c e5 2e 3e 10 35 0c ba 5d bb e2 3d e0 85 88 3d
       0.17079777 -0.0005348483 0.11070893 0.0666616
000230 81 c7 8f bd ac b3 1a 3d 19 4b 75 be ce af 9e 3d
       -0.07020474 0.037769005 -0.23954429 0.07748376
000240 28 8e d6 3d db 58 33 be 78 66 ed 39 40 d3 3c 3e
       0.10476333 -0.17514364 0.00045280508 0.1843996
000250 53 5e 0d be b9 5d d6 bc e1 85 07 be ae c0 d0 bd
       -0.13805513 -0.026167737 -0.13234664 -0.10193001
000260 f8 76 a7 bd 31 f2 b5 3c cb 9d c0 bc 6e de 8d 3e
       -0.08176988 0.022210212 -0.023512742 0.27708763
000270 ca 56 a6 bd bf 39 5a 3e 6f 11 57 be 38 75 31 3e
       -0.081220224 0.21311091 -0.21002744 0.17329872
000280 26 e4 2a be eb fd 05 3e 73 99 af bd 10 ad d4 3d
       -0.16688594 0.13085143 -0.0857419 0.103845716
000290 4c a1 81 be 1d e8 d9 bd 52 2e 05 3e fb 07 33 3e
       -0.25318372 -0.10639975 0.13005951 0.17483513
0002a0 db 7e 65 bd 44 95 c1 3d e2 fe 8d 3d 78 b5 40 3e
       -0.056029182 0.09452298 0.06933381 0.18819225
0002b0 19 ce 97 3b 2a 11 16 bd 79 b0 eb 3c 8e 58 80 3d
       0.004632723 -0.036637463 0.028770672 0.062668905
0002c0 9e 2c 32 be a4 c6 08 be 9c 32 6c be ba 2b 0e 3e
       -0.17399833 -0.13357025 -0.23066181 0.13883868
0002d0 7e d0 b4 3c 93 14 83 3e 3a 71 69 3d f6 1c 64 be
       0.022072073 0.25601634 0.056992747 -0.22276673
0002e0 fc 70 aa 3d 4d f3 1b be 1b aa 5f 3e 4b 3d 3f be
       0.08322331 -0.1522953 0.21842234 -0.18675725
0002f0 e6 89 2f 3e 5a f5 ef 3d c7 5a 05 bd 3c 9b 6f 3d
       0.17142448 0.11716719 -0.032557275 0.058497652
000300 0e a3 c8 3d 88 13 8b 3e ff 84 90 39 cf 5e 56 ba
       0.09796725 0.2716334 0.0002756491 -0.000817758
000310 27 c5 f6 3d 7d 31 d4 3d 68 18 e1 3b e3 28 0a 3e
       0.120493226 0.10361002 0.0068693645 0.1349216
000320 d1 0a 47 bc 36 f5 0e be 2d fd e3 bb 7c ad 83 bd
       -0.012148575 -0.13960728 -0.006957671 -0.06429574
000330 96 61 0c be 87 ef d7 3d 4d 9b 5f 3e a0 9a c7 bd
       -0.13709101 0.10543733 0.21836586 -0.09746289
000340 dc 95 d8 bb 81 ce c7 3d 7a 32 90 be 01 4d e6 3d
       -0.0066096615 0.09756184 -0.2816351 0.11245156
000350 7a 45 40 be 0f 90 9f 3e 77 b9 76 bd 87 f5 44 3e
       -0.18776503 0.31164595 -0.060235467 0.19234286
000360 fc 10 50 3e 1c 91 53 bc 5b a8 70 be fa f3 ff 3d
       0.20318979 -0.012913015 -0.23501723 0.12497707
000370 71 41 48 be e9 62 69 bd d7 0f 43 3e be f0 05 be
       -0.19556214 -0.056979094 0.19049011 -0.13080117
000380 f5 3b da bd 6d c2 12 3d b4 ea a6 3e 60 96 89 3d
       -0.10655967 0.03582995 0.3260094 0.06718135
000390 d1 95 75 3c 51 a2 d4 3d 9d 23 36 be 99 21 ff bd
       0.014989332 0.10382522 -0.17787023 -0.1245758
0003a0 a8 0f 0c 3e 32 c2 4d 3d a1 a6 06 3e ae c2 1b 3d
       0.13677847 0.050234027 0.13149501 0.038027458
0003b0 d0 2b a6 bc 40 1b 9f be a4 5b 31 be b6 fd a5 3d
       -0.020284563 -0.31075478 -0.17320114 0.08105032
0003c0 3d c9 70 be 52 d7 53 be 36 29 58 3e 48 94 11 be
       -0.23514266 -0.20687607 0.2110947 -0.14216721
0003d0 1e 29 ac bd 36 6d c1 bd fa df 23 3e 6d 92 0a bd
       -0.0840628 -0.094446585 0.16003409 -0.03383105
0003e0 b7 a9 25 3e c9 b3 79 bc 0d 8c 09 be e1 d3 67 bc
       0.16178022 -0.015240618 -0.13432331 -0.014149637
0003f0 a0 f6 33 3e 0a c9 17 3e 15 62 19 3e 16 60 ec 3c
       0.17574549 0.14822784 0.14978822 0.028854411

classifier.7.bias f4 [16]
000000 a4 e5 75 3e d0 35 07 be 77 4a 5d bd 38 f6 8f be
       0.24013382 -0.13204122 -0.054026093 -0.28117537
000010 76 20 66 be f3 86 bd 3d 24 35 ea bd 76 ff 8a be
       -0.2247332 0.09254255 -0.11435917 -0.27148026
000020 d9 f1 be ba 69 0f 26 be 92 4d 0c 3d c4 12 55 3d
       -0.0014567926 -0.16216816 0.034253664 0.05201985
000030 6b 08 fb 3d 16 6f 03 be 97 5f 20 3e 50 3a 1e be
       0.12257465 -0.12835345 0.15661465 -0.15451932

classifier.8.weight f4 [16]
000000 84 c9 ac 3f 5f a2 ae 3f 0a 06 ae 3f ae ab ae 3f
       1.3498998 1.3643302 1.3595593 1.3646142
000010 dc a7 b1 3f 13 5f b1 3f 75 d7 b3 3f bc 40 b5 3f
       1.3879352 1.3857139 1.4050127 1.416038
000020 78 c4 af 3f 74 d3 ac 3f 6b 74 ad 3f 18 2a aa 3f
       1.3731833 1.350203 1.3551153 1.3294096
000030 03 54 af 3f 6c 95 b6 3f 23 db af 3f 7e eb ad 3f
       1.3697513 1.426435 1.373875 1.3587492

classifier.8.bias f4 [16]
000000 c1 c6 aa 3e 71 58 af 3e 88 ca c0 3e 89 61 b2 3e
       0.33354762 0.34247163 0.3765452 0.34840038
000010 de 44 b8 3e c5 79 b3 3e fd 7c bb 3e 2d 07 d0 3e
       0.35990041 0.3505384 0.36618796 0.40630475
000020 45 61 b1 3e 21 e1 9f 3e 9c 8a 9c 3e e6 34 ac 3e
       0.34644523 0.31226447 0.305745 0.33634108
000030 bc 17 da 3e 11 62 cb 3e 9d a4 cc 3e 1a 24 c9 3e
       0.42596233 0.39723256 0.3996934 0.39285356

classifier.8.running_mean f4 [16]
000000 2e eb 1b 3e 5a 05 9c be 92 44 14 3d c4 04 dd be
       0.15226433 -0.30472833 0.036198206 -0.43167698
000010 99 e7 76 be ff cf 2b be 37 a3 3e 3d 96 7c ab be
       -0.24111785 -0.16778563 0.046542373 -0.3349349
000020 12 1c b5 be bb 38 fe bd 8e dd 3b 3e 57 69 0d bc
       -0.35372978 -0.12413164 0.18346235 -0.008631072
000030 8f 61 b1 3e b0 70 27 bd 54 fc 2c 3e 35 1f eb bd
       0.34644744 -0.04087895 0.1689313 -0.11480562

classifier.8.running_var f4 [16]
000000 25 c2 32 3d ef 40 f7 3d a5 52 80 3d 05 6b 34 3e
       0.043642182 0.12072932 0.06265763 0.1761895
000010 a3 10 b2 3d 8b e7 b5 3d 77 d8 18 3e dc f4 95 3d
       0.086945795 0.08882054 0.14926325 0.07322094
000020 8d c2 7e 3d b7 1a 1e 3e 37 a9 f8 3d 66 dd 43 3e
       0.062197257 0.15439878 0.1214165 0.19127426
000030 3f cb ac 3d fc 94 c0 3d d9 75 04 3e bb 25 60 3d
       0.084372036 0.094034165 0.1293558 0.054723483

classifier.10.weight f4 [10, 16]
000000 8e 49 39 be 15 cc ee be 40 ca 11 be 7c 7f a3 be
       -0.18094465 -0.46640077 -0.14237309 -0.319332
000010 b1 54 c0 be 06 c9 64 be f1 22 b8 bd 2a 96 37 be
       -0.37564614 -0.2234231 -0.089910395 -0.17928377
000020 2e 5c ef be 6b 4e aa be cb 76 02 bf 63 20 b6 3e
       -0.46750015 -0.33262953 -0.50962514 0.35571584
000030 a2 28 0a 3f 35 ad 12 3f 59 ed 93 be bb 56 d3 bd
       0.5396825 0.5729554 -0.2889202 -0.10319277
000040 48 1f 84 be 47 9a 30 bd 99 37 fd be 53 13 1f be
       -0.25805116 -0.04311588 -0.4945648 -0.15534715
000050 b2 03 2e be d0 e9 f1 be 8b a5 a5 be 39 fe ed 3e
       -0.16993597 -0.47248697 -0.32352862 0.4648302
000060 43 61 f0 3e 37 7e 11 3f 89 7b ca bd b1 9f f1 bd
       0.46949205 0.56833214 -0.09886844 -0.11798037
000070 34 25 35 bd c0 c5 7b bd 7d 78 ea be d8 61 9a be
       -0.044224933 -0.061467886 -0.4579505 -0.30152774
000080 72 6a b0 be 00 69 04 bc 47 29 63 3d 0a 96 c3 3e
       -0.3445621 -0.008081675 0.055459287 0.38200408
000090 df dc fc 3e e8 4e e8 3e 9f 31 ae be d2 0a 64 be
       0.4938726 0.453727 -0.34022233 -0.22269753
0000a0 ba 7a 90 be c4 c9 c5 be 71 d5 df be 2f 20 df bd
       -0.28218633 -0.38630497 -0.4371753 -0.108948104
0000b0 dd a3 c2 be 08 48 6c be fd d1 de be a5 3f 8d 3e
       -0.38015643 -0.23074353 -0.43519583 0.2758762
0000c0 48 33 ee 3e af 4e e1 be a0 cd b7 be c2 ae fb be
       0.465235 -0.44005343 -0.35899067 -0.49156767
0000d0 73 79 42 be 6e b9 9b 3e 06 9b 14 bf a1 85 02 be
       -0.18991642 0.3041491 -0.58049047 -0.12746288
0000e0 e8 10 19 3e f7 7f 1c be 09 84 00 bf c6 a3 03 bf
       0.14947855 -0.1528319 -0.5020147 -0.51421773
0000f0 e0 9e 2f 3e 2e e1 9e be 7d dd 71 3e 26 8b c1 3e
       0.1715045 -0.31031173 0.23619647 0.37801474
000100 95 77 a3 bd 07 4b 11 be 3f 1a 02 3f f8 ec a8 3e
       -0.07981793 -0.14188777 0.508213 0.32993293
000110 98 a0 08 3f f1 a4 3f be 04 7f cd be 39 c4 01 3f
       0.53370047 -0.18715264 -0.40135968 0.50690037
000120 1f f5 ef be 37 af 58 be 90 ca 8e be fd c7 02 bf
       -0.468667 -0.21160589 -0.27888918 -0.5108641
000130 4f f1 95 be a0 49 07 be fb 7c 3d be 11 45 d1 be
       -0.29285666 -0.1321168 -0.18504708 -0.40873006
000140 ce 70 45 3e af 44 1a 3f a1 2a ce be 49 44 e7 be
       0.19281313 0.6026105 -0.40266898 -0.45169285
000150 c6 4e c9 be 3b 35 56 be cd b5 d6 3e 13 b5 ab 3e
       -0.39317912 -0.20918743 0.41935578 0.33536586
000160 24 b6 09 bf ac d1 d0 be 67 1d c8 be 6b 5d 40 be
       -0.5379355 -0.40784967 -0.39084932 -0.18785636
000170 6d e5 8d 3d fd 93 8c be 1f 0f e7 bd a9 59 fc bc
       0.06928525 -0.27456656 -0.11282181 -0.030804472
000180 c5 87 0e be 46 3b e9 be c9 f8 c8 3e 36 66 e5 3e
       -0.1391898 -0.45553035 0.39252308 0.44804543
000190 73 c8 05 bf f2 d7 b8 3e 8c 64 92 be b1 98 89 bd
       -0.52258986 0.36102253 -0.28592336 -0.06718577
0001a0 fe 94 0c bc 1a bf e4 be ce 37 79 be ef fc af bd
       -0.008580444 -0.4467705 -0.24337694 -0.08593165
0001b0 dc 15 9b 3e a2 4b 8a 3e 14 e0 03 bf df 55 e2 be
       0.30290115 0.27010828 -0.5151379 -0.4420614
0001c0 9d fe 18 3e e2 ac e5 be 09 48 a9 3e 55 6e 7e be
       0.14940877 -0.44858462 0.3306277 -0.24846776
0001d0 b9 04 95 bd 4e 01 fd be f0 92 7d 3e d0 e7 01 bf
       -0.072762914 -0.49415058 0.24763083 -0.5074434
0001e0 c9 15 92 be f8 3e b0 3e d9 35 f9 3e 24 c8 7a be
       -0.28532246 0.3442304 0.48673895 -0.2449041
0001f0 a6 b5 b5 be 24 b7 07 be 90 56 8e 3e f1 9c 03 bf
       -0.3549015 -0.13253456 0.27800417 -0.5141135
000200 c2 70 da be a7 54 be be a5 7f 95 be 8f 1f a1 be
       -0.42664152 -0.3717396 -0.29198948 -0.3146939
000210 9f 6d df 3e da 77 b8 be 91 d5 aa be b0 b3 a5 be
       0.43638322 -0.3602894 -0.33366063 -0.32363653
000220 69 b5 fd 3e f0 76 2a be 70 c1 56 be 88 6c fd 3e
       0.49552467 -0.16646934 -0.20972228 0.49496865
000230 71 55 6b be dd d5 a2 be 89 c7 6d 3d 87 f0 00 bf
       -0.22981812 -0.3180379 0.05805162 -0.50367016
000240 90 16 99 be ee 49 c9 3e 43 ba da bd e9 05 bf be
       -0.29900026 0.39314216 -0.10680058 -0.37309197
000250 5f bd d7 3c 41 cc 06 bf 97 54 24 be 86 55 00 bf
       0.026335416 -0.52655417 -0.16047893 -0.501305
000260 fc 53 e2 be cf 37 2a be d5 57 ea 3e 1d b8 e8 be
       -0.442047 -0.16622852 0.45770136 -0.45452967
000270 8d 91 b4 be b5 89 bd 3e a5 07 e5 be 9d 16 d8 3e
       -0.35267296 0.37019125 -0.44732395 0.42204753

classifier.10.bias f4 [10]
000000 1d 1e 87 3e e7 f2 49 bd f8 c4 a4 bd 76 40 51 3e
       0.26390162 -0.049303915 -0.08045381 0.20434746
000010 81 e9 75 bd 2c 81 f9 bd 88 7c 4d 3e 6e 8e 6d bd
       -0.06003714 -0.12182841 0.20067036 -0.05799716
000020 39 82 7b 3e f0 27 01 3d
       0.24561395 0.031532228

exp_avg f4 [16, 784]
000000 f0 54 85 b6 86 76 91 b5 a5 9c 3d b6 87 59 12 37
       -3.973597e-06 -1.0837837e-06 -2.8254374e-06 8.723123e-06
000010 46 5a 38 37 7c a1 08 38 ad 10 e3 38 5d 9e eb 38
       1.0988273e-05 3.257532e-05 0.000108273096 0.00011235171
000020 64 a2 95 39 db 7d 8d b9 be 22 b1 ba 6a 2f b4 ba
       0.00028540485 -0.00026987385 -0.0013514382 -0.0013747041
000030 b2 c3 4f ba c6 d5 31 b9 50 38 46 b9 ce 8d 19 ba
       -0.0007925584 -0.00016959672 -0.0001890373 -0.00058576174
000040 31 83 8c ba 5d 65 bb ba 55 cf 47 b9 3e fc ae b8
       -0.001072025 -0.0014297176 -0.00019055356 -8.34395e-05
000050 d7 ec 79 39 a4 63 a7 39 19 d3 23 39 72 db 68 37
       0.0002383472 0.0003192696 0.00015623531 1.3879371e-05
000060 c3 c0 91 b8 6b 81 39 b8 d8 f8 25 b8 72 fd 1c b6
       -6.9500435e-05 -4.4227967e-05 -3.957082e-05 -2.3393336e-06
000070 f8 86 a3 b6 09 f2 9e b6 0f 5b d5 b6 6f a0 24 37
       -4.873491e-06 -4.7369435e-06 -6.3584953e-06 9.812516e-06
000080 63 4d 5d 38 2c 8c b2 39 95 ae be 39 96 24 04 3a
       5.2762578e-05 0.00034055242 0.00036369698 0.0005040852
000090 50 26 60 b8 03 41 db b9 d8 e8 c3 ba fd dd 0a bb
       -5.3441443e-05 -0.00041819373 -0.0014946712 -0.0021189444
0000a0 5b d1 25 bb 77 27 10 bb 8a 3a ec ba 62 fe d5 ba
       -0.0025301788 -0.002199618 -0.0018022817 -0.0016326422
0000b0 17 7f 08 bb 1c 20 16 bb a3 3f fc b9 ae 80 af 39
       -0.0020827705 -0.0022907322 -0.000481126 0.00033474475
0000c0 a9 5e 2b 3a a8 6a 6e 3a 23 a3 2b 3a 4e 4d 41 39
       0.0006537238 0.00090948725 0.00065474416 0.00018434713
0000d0 41 96 47 b8 76 bb 41 b8 f5 67 55 b8 61 3e b1 b6
       -4.7585232e-05 -4.6189372e-05 -5.0879975e-05 -5.282273e-06
0000e0 58 5a c4 b6 cb bf d7 b6 78 96 37 b8 41 24 f3 37
       -5.8517726e-06 -6.429827e-06 -4.3770735e-05 2.898474e-05
0000f0 fb 07 83 39 df 41 2a 3a c9 d4 5f 3a 47 aa 65 39
       0.00024992213 0.0006494801 0.00085384824 0.00021902575
000100 ce f1 86 b8 54 09 05 ba 86 30 67 ba 53 a2 bb ba
       -6.4346576e-05 -0.00050749374 -0.0008819181 -0.0014315344
000110 df 9b a3 ba dc f2 37 ba df 96 03 ba 61 cf 66 ba
       -0.0012482366 -0.0007017085 -0.0005019735 -0.00088047056
000120 f9 3b 84 ba 2f d7 87 ba ab 1b da b9 f4 a1 5e 3a
       -0.0010088674 -0.0010363812 -0.00041600814 0.0008492761
000130 ee 10 1d 38 86 e7 80 3a 2b dd 69 3a 9a 95 62 39
       3.7447484e-05 0.0009834624 0.0008921201 0.0002160877
000140 27 91 c6 b8 e3 dc d1 b7 79 a1 47 38 1f 32 9c 36
       -9.4684125e-05 -2.50176e-05 4.759568e-05 4.654997e-06
000150 5a e1 7e b6 4a 50 3a b5 98 2b 2a 38 92 e5 ae 38
       -3.7980121e-06 -6.9407236e-07 4.057176e-05 8.339727e-05
000160 3c 6d b0 39 bb 75 c8 39 14 21 24 3a 76 0d e9 b8
       0.00033650722 0.0003823469 0.00062610325 -0.00011112813
000170 1e e9 18 39 3c 03 53 ba 5b 16 9c ba 4f b2 b0 ba
       0.00014582693 -0.0008049493 -0.0011908518 -0.0013480874
000180 46 a5 5f ba 71 75 79 38 99 94 e5 b8 8d 11 46 b9
       -0.00085314026 5.9475602e-05 -0.000109472494 -0.0001888929
000190 8a f8 e4 b9 7f 91 d5 ba b1 3c d5 b9 79 8b 56 37
       -0.00043672725 -0.0016293972 -0.00040671745 1.27878675e-05
0001a0 45 b0 85 b9 84 76 c9 39 d4 d6 bb 39 27 ee 51 39
       -0.00025499068 0.00038426009 0.0003582748 0.00020020512
0001b0 6f 7c 84 b8 73 a1 e7 b6 f0 ea a1 37 c9 2b 27 b7
       -6.317428e-05 -6.9031316e-06 1.9302097e-05 -9.96417e-06
0001c0 33 06 41 b7 06 0d 09 b7 9e fc c2 35 2c 46 48 39
       -1.150514e-05 -8.168869e-06 1.4527648e-06 0.00019099627
0001d0 31 12 61 38 80 80 90 39 c7 4c 61 38 61 50 1e b9
       5.3661122e-05 0.0002756156 5.3715685e-05 -0.00015097998
0001e0 dd 82 68 b9 9a 31 d6 b9 e4 1c 17 ba 29 5a 72 ba
       -0.00022173995 -0.00040854217 -0.0005764498 -0.00092450023
0001f0 af 09 3d ba 7a 01 5a b9 a7 8e 8a b7 c5 7e 12 ba
       -0.0007211221 -0.0002079065 -1.651731e-05 -0.0005588348
000200 f0 7f 3e ba 0b d0 54 ba 68 1d c9 b9 65 b7 f4 b7
       -0.0007266989 -0.0008118159 -0.00038359617 -2.9172466e-05
000210 54 d5 aa b9 d9 0c b8 39 bf d5 40 3a 50 0a 2c 39
       -0.0003258387 0.00035104787 0.00073560694 0.0001640704
000220 80 8c d5 b8 b5 2f c0 38 10 6a 0d 39 9f c2 3c b8
       -0.000101828016 9.1641596e-05 0.00013486319 -4.5003948e-05
000230 18 30 db 35 81 f2 a0 37 51 fd 6d 38 da 46 2b 39
       1.6330769e-06 1.9186411e-05 5.6741123e-05 0.00016334225
000240 b2 4c 02 b6 9b 4d 30 39 ee 6f 41 b9 c4 58 96 b9
       -1.9416152e-06 0.00016813578 -0.00018447611 -0.00028676365
000250 3d 80 a7 b9 57 97 21 ba 27 46 38 ba 1e ed 0a ba
       -0.00031948267 -0.0006164214 -0.00070294965 -0.00052996154
000260 64 7f 65 b9 3e f6 c3 b9 c9 8a 51 39 bc bd 4a b8
       -0.00021886599 -0.00037376763 0.00019983495 -4.8337257e-05
000270 a4 58 d6 b9 c2 52 16 ba e6 ef 51 b9 ac 1c c4 38
       -0.00040883303 -0.0005734378 -0.00020021162 9.351349e-05
000280 f4 1f 0a 37 7c a2 be 39 79 d7 03 3a 00 79 57 39
       8.232881e-06 0.00036360684 0.00050293613 0.00020549074
000290 fa 09 c1 b8 85 0d a7 37 aa 24 12 38 6f d6 0c b8
       -9.2048154e-05 1.9914247e-05 3.484326e-05 -3.3578308e-05
0002a0 55 80 89 36 3e d7 3d 38 ff 91 24 39 25 61 ac 39
       4.097858e-06 4.526157e-05 0.00015694647 0.00032878775
0002b0 15 b0 7d 39 69 02 6c 39 a0 f7 eb 38 00 c5 ce 37
       0.00024193556 0.00022507612 0.00011251797 2.4648849e-05
0002c0 c7 15 91 b5 1e e8 43 ba 88 8f 87 ba 1b f7 46 ba
       -1.080968e-06 -0.0007473248 -0.0010342458 -0.0007589922
0002d0 9c fb a7 b9 92 30 2c ba d8 80 be b9 f3 a2 a9 b9
       -0.00032040186 -0.0006568517 -0.0003633562 -0.00032355599
0002e0 ee b8 7a ba d5 8d ae ba c4 01 34 ba b2 ef 03 ba
       -0.00095643 -0.0013317416 -0.0006866718 -0.0005032971
0002f0 7f d8 02 b9 aa c1 0b b8 e5 36 b5 39 be 30 d9 39
       -0.00012478417 -3.3320546e-05 0.0003456391 0.0004142578
000300 b2 73 55 39 93 07 d4 b8 fc 97 1b b9 79 a3 db 37
       0.00020356363 -0.000101103586 -0.0001483857 2.6182957e-05
000310 53 8f af 36 f8 85 8b 38 89 33 60 39 54 72 d3 39
       5.2320916e-06 6.65299e-05 0.00021381503 0.00040330237
000320 da dd 00 3a 18 2d 8c b7 56 d6 7c 39 59 63 00 b9
       0.0004915871 -1.6710299e-05 0.00024112439 -0.00012244041
000330 bc 08 06 ba 0f 9f 43 ba f4 a7 a0 ba d2 57 8f ba
       -0.0005112996 -0.0007462361 -0.0012257085 -0.0010936207
000340 ba 35 a5 b9 2b e7 f0 b9 3c 66 14 b9 0a e6 e3 b9
       -0.00031511282 -0.000459486 -0.00014152465 -0.00043468206
000350 08 ea e9 ba a0 2b d3 ba 25 3c 4b ba 59 32 40 ba
       -0.0017846236 -0.0016111024 -0.00077527977 -0.0007331721
000360 0a e3 4a b9 0b c2 a3 38 fe bf 97 38 0d fa 1c 39
       -0.000193488 7.808589e-05 7.2360024e-05 0.0001497047
000370 b1 d7 8c 39 7d 36 14 b9 ac bb 24 39 da e8 4d b5
       0.00026863583 -0.00014134678 0.00015710172 -7.6707295e-07
000380 77 b2 df 37 bc 49 2f 38 8a 40 5e 39 44 da 98 39
       2.6666776e-05 4.1791922e-05 0.00021195612 0.0002915432
000390 95 e1 7d 39 25 d1 26 b9 7a a6 1c b8 6f e6 7c b9
       0.00024211996 -0.00015908906 -3.734834e-05 -0.00024118436
0003a0 d5 30 d2 b9 f4 cc 10 ba 40 9e 8a ba c7 28 c4 ba
       -0.00040090704 -0.00055237045 -0.0010575727 -0.0014965766
0003b0 14 4c 06 ba 74 d2 11 ba b8 1f 6e ba d0 ee a7 ba
       -0.0005123031 -0.0005562671 -0.0009083706 -0.001281226
0003c0 21 63 08 bb 4a 8c d9 ba 55 1f 1d ba a3 12 4e ba
       -0.0020811039 -0.0016597596 -0.00059937435 -0.00078610535
0003d0 a5 d5 55 39 34 3c ea 39 51 e9 99 b6 e6 ba a0 b8
       0.00020392852 0.00044676813 -4.586917e-06 -7.664207e-05
0003e0 e2 ed 2e 39 de 31 b8 39 ee 62 db 38 74 26 9e b8
       0.00016682551 0.0003513237 0.00010461161 -7.5411896e-05
0003f0 f9 65 a9 37 95 cf 21 39 d6 d0 95 39 bc ca a0 38
       2.0193855e-05 0.00015431487 0.0002857509 7.667157e-05

exp_avg_sq f4 [16, 784]
000000 a6 6b 92 2c 98 2a 22 2d 3e c0 94 2f 80 06 f3 31
       4.161521e-12 9.218092e-12 2.705764e-10 7.0729698e-09
000010 ba 2b 41 32 69 6c 26 33 39 b4 cb 33 1b 69 47 34
       1.1244021e-08 3.8748485e-08 9.4857064e-08 1.8571556e-07
000020 03 f8 00 35 c3 0f 90 35 3a 33 fb 35 39 4f f0 35
       4.804462e-07 1.0733423e-06 1.8715866e-06 1.790445e-06
000030 64 6c c1 35 74 d0 c7 35 e9 cb d7 35 19 01 cb 35
       1.4411166e-06 1.4887323e-06 1.6078094e-06 1.5124998e-06
000040 31 06 ec 35 a0 9b 0a 36 c6 cd d2 35 f3 01 3e 35
       1.7585172e-06 2.0654188e-06 1.5706107e-06 7.078335e-07
000050 c2 f2 ac 34 b3 86 2e 34 12 3a 8b 33 7a 02 21 33
       3.2214126e-07 1.6254016e-07 6.483255e-08 3.7487986e-08
000060 26 de 9c 32 6a d4 2b 32 15 5c 35 31 2d cc c9 2f
       1.8261812e-08 1.0001807e-08 2.639131e-09 3.6706763e-10
000070 40 f7 10 2d 74 7f 35 2e d0 f4 e3 31 d2 92 e4 32
       8.240353e-12 4.1267836e-11 6.6344015e-09 2.660946e-08
000080 d7 06 d6 33 bc b1 97 34 be a5 60 35 48 3c f4 35
       9.966396e-08 2.825526e-07 8.368769e-07 1.8196961e-06
000090 a9 8c 61 36 12 03 a2 36 fd e8 c2 36 3a 27 c3 36
       3.3609488e-06 4.8283337e-06 5.808774e-06 5.8160194e-06
0000a0 29 8b be 36 92 77 b1 36 06 61 b6 36 b3 4f b4 36
       5.6786416e-06 5.288931e-06 5.4353177e-06 5.3736962e-06
0000b0 6a 75 ba 36 21 91 c6 36 10 f9 ba 36 73 be 80 36
       5.5569008e-06 5.917755e-06 5.5722267e-06 3.8368685e-06
0000c0 a3 82 2a 36 bd 4f b4 35 28 af 1f 35 00 02 91 34
       2.5408015e-06 1.3434252e-06 5.9487e-07 2.700981e-07
0000d0 43 e9 ef 33 78 59 48 33 1a 38 4e 32 22 70 0b 30
       1.1171735e-07 4.66475e-08 1.2003534e-08 5.0727256e-10
0000e0 73 09 4c 2e ed 13 90 2f 26 8c 40 32 82 7a 67 33
       4.6392622e-11 2.6207606e-10 1.1207737e-08 5.38953e-08
0000f0 8a 8e 36 34 95 22 39 35 26 ef f1 35 38 c5 30 36
       1.7001926e-07 6.8968194e-07 1.8025501e-06 2.634084e-06
000100 f7 50 7b 36 12 84 9b 36 e9 26 bf 36 e1 e6 bb 36
       3.7449042e-06 4.634735e-06 5.6967733e-06 5.599912e-06
000110 b9 c8 b4 36 38 ad aa 36 f4 bd af 36 e3 fe b0 36
       5.387785e-06 5.08656e-06 5.23752e-06 5.2748815e-06
000120 1f f7 b7 36 5d bf be 36 b3 ad b5 36 fc d2 8f 36
       5.4825937e-06 5.684719e-06 5.4144416e-06 4.286294e-06
000130 e6 7f 70 36 fc 8b 29 36 8a be aa 35 12 f9 25 35
       3.5837234e-06 2.5264444e-06 1.2721441e-06 6.1829735e-07
000140 02 68 93 34 5d c6 c7 33 1e 7c 0f 33 c3 13 56 31
       2.745656e-07 9.302742e-08 3.3407666e-08 3.1152332e-09
000150 e3 a1 14 2f 36 46 75 31 10 71 db 32 6c b3 c2 33
       1.3518035e-10 3.5692103e-09 2.554637e-08 9.0664656e-08
000160 fd 83 b3 34 81 02 8d 35 41 f2 07 36 45 5c 42 36
       3.3437382e-07 1.0506047e-06 2.0257578e-06 2.896196e-06
000170 7d d8 82 36 18 c6 9c 36 8f 21 bc 36 09 da b2 36
       3.8995045e-06 4.6722234e-06 5.6067433e-06 5.330196e-06
000180 19 8d af 36 12 19 b2 36 3f 85 c4 36 52 d2 bc 36
       5.2318323e-06 5.307732e-06 5.856767e-06 5.627321e-06
000190 3f 11 b6 36 63 ae c0 36 43 19 be 36 da ee 99 36
       5.4260304e-06 5.742347e-06 5.665382e-06 4.5875613e-06
0001a0 0e 41 6e 36 f1 8f 3d 36 a4 b9 ff 35 c8 17 89 35
       3.550263e-06 2.824698e-06 1.9053009e-06 1.0214217e-06
0001b0 95 74 18 35 67 d5 52 34 67 a0 6b 33 fb 51 ef 31
       5.679406e-07 1.963541e-07 5.4861086e-08 6.9651356e-09
0001c0 a5 91 8d 30 df fa 13 31 1a 12 df 32 12 df f1 33
       1.0300495e-09 2.153392e-09 2.5968848e-08 1.1263013e-07
0001d0 20 df f5 34 8e b4 a4 35 e2 44 1d 36 af ed 45 36
       4.579715e-07 1.22715e-06 2.3434918e-06 2.9493638e-06
0001e0 fb 40 70 36 84 18 a1 36 9a 43 b4 36 0c ec a9 36
       3.580061e-06 4.801028e-06 5.372288e-06 5.064072e-06
0001f0 cd 16 b7 36 3b 4d b9 36 b2 f3 cb 36 0c dd c6 36
       5.4564794e-06 5.5224205e-06 6.0782413e-06 5.926593e-06
000200 58 50 d0 36 55 45 d4 36 06 12 ce 36 fc ba a9 36
       6.2082363e-06 6.3261637e-06 6.1413766e-06 5.0583603e-06
000210 70 48 84 36 4b d0 6b 36 7a 41 22 36 5d 67 bf 35
       3.9423394e-06 3.5138971e-06 2.4177994e-06 1.4260692e-06
000220 4a 3c 63 35 87 29 d5 34 83 3c 00 34 a1 a2 9d 32
       8.465182e-07 3.9704557e-07 1.1942943e-07 1.835116e-08
000230 f4 cb 16 31 90 1f 0a 32 0e bc 85 33 35 7e 1e 34
       2.1943807e-09 8.039834e-09 6.227502e-08 1.476081e-07
000240 1c 1c 15 35 48 5c bc 35 fa 00 1f 36 af be 39 36
       5.554773e-07 1.4033949e-06 2.3693415e-06 2.767814e-06
000250 e5 0a 6a 36 79 65 9c 36 2b ef af 36 c2 64 9e 36
       3.4875059e-06 4.6609753e-06 5.2432492e-06 4.7204967e-06
000260 17 14 a2 36 1c f7 b4 36 55 3c c9 36 d3 ef d6 36
       4.830315e-06 5.3931853e-06 5.9972904e-06 6.405616e-06
000270 d9 e2 e5 36 0f c3 f0 36 fd 1c f1 36 80 a2 d0 36
       6.8511404e-06 7.175265e-06 7.1857344e-06 6.2178005e-06
000280 6e ea 96 36 5c 75 8a 36 f9 6f 43 36 95 d2 04 36
       4.4976396e-06 4.126383e-06 2.912244e-06 1.9792108e-06
000290 9b c2 b7 35 ec 9d 3c 35 c4 d2 96 34 02 e6 d9 32
       1.36912e-06 7.0265264e-07 2.809303e-07 2.536672e-08
0002a0 4e f4 e0 31 02 3b d5 32 9b 37 dc 33 28 40 9c 34
       6.5470322e-09 2.4823297e-08 1.0254663e-07 2.9103944e-07
0002b0 a2 a8 57 35 cd 8f cd 35 64 ff 16 36 2d 6b 22 36
       8.0339134e-07 1.5315542e-06 2.2500399e-06 2.4202266e-06
0002c0 2f 82 70 36 21 61 9e 36 b5 76 a7 36 6a 61 9e 36
       3.5838564e-06 4.7200742e-06 4.990807e-06 4.7201074e-06
0002d0 3b 60 9c 36 72 4a af 36 74 94 c1 36 ce d3 db 36
       4.660365e-06 5.224073e-06 5.7691304e-06 6.551366e-06
0002e0 48 c2 f5 36 ca 0a 04 37 ce 6b 0a 37 f3 b5 fc 36
       7.3241863e-06 7.870325e-06 8.250541e-06 7.531367e-06
0002f0 62 8c a6 36 75 40 9e 36 aa fd 6f 36 09 1a 2e 36
       4.963528e-06 4.7162707e-06 3.5761427e-06 2.5943175e-06
000300 d9 51 11 36 ce 8e be 35 2f ba 20 35 73 39 53 33
       2.1654325e-06 1.4197665e-06 5.987558e-07 4.9179516e-08
000310 73 88 19 32 26 66 93 33 a2 b3 61 34 9a 5b f3 34
       8.936797e-09 6.8638016e-08 2.1020108e-07 4.5328926e-07
000320 0a e1 91 35 21 e9 d4 35 6c 84 1f 36 10 a0 29 36
       1.0868837e-06 1.586308e-06 2.3769926e-06 2.527613e-06
000330 42 05 68 36 71 db a1 36 2b 53 ac 36 68 4e a4 36
       3.4573754e-06 4.8237202e-06 5.1356815e-06 4.8967086e-06
000340 98 5f 9e 36 44 2b a8 36 ca dc be 36 12 a0 e1 36
       4.7198955e-06 5.011827e-06 5.6881445e-06 6.724157e-06
000350 a0 be 03 37 bd 9d 1d 37 bb 58 2c 37 54 3a 23 37
       7.852592e-06 9.3946555e-06 1.0272658e-05 9.729138e-06
000360 49 5e fb 36 97 5c d6 36 a5 e7 a9 36 75 f4 82 36
       7.491359e-06 6.388476e-06 5.0635595e-06 3.9027605e-06
000370 21 75 69 36 54 f0 34 36 3a a8 97 35 5a d9 eb 33
       3.4787884e-06 2.696198e-06 1.1299337e-06 1.0982576e-07
000380 b5 5f e1 32 07 86 44 34 b3 3c c1 34 9c b9 3f 35
       2.623697e-08 1.8302681e-07 3.5993216e-07 7.142314e-07
000390 13 5e d5 35 2d 78 01 36 dd 8e 1e 36 92 86 3c 36
       1.5897116e-06 1.929245e-06 2.3626992e-06 2.8092513e-06
0003a0 c0 bf 6f 36 17 dc b0 36 e7 2e aa 36 f2 d3 9d 36
       3.5725388e-06 5.2708306e-06 5.071855e-06 4.7036383e-06
0003b0 62 6f a7 36 a2 ca b3 36 bc b9 ca 36 ff bf e4 36
       4.9899545e-06 5.3582053e-06 6.0416914e-06 6.817281e-06
0003c0 09 c9 0e 37 b9 77 29 37 7a fd 35 37 27 7a 3d 37
       8.510667e-06 1.010106e-05 1.0847458e-05 1.1293719e-05
0003d0 93 b4 25 37 f2 04 14 37 ad 77 fe 36 62 4a dc 36
       9.87681e-06 8.822639e-06 7.583722e-06 6.56517e-06
0003e0 fd 1c c2 36 50 59 9a 36 d7 92 00 36 20 e7 59 34
       5.785025e-06 4.599955e-06 1.9158958e-06 2.0293783e-07
0003f0 39 34 4f 33 f0 46 9d 34 90 85 29 35 38 55 a8 35
       4.824344e-08 2.9295143e-07 6.3151765e-07 1.2541777e-06

exp_avg f4 [16]
000000 84 d1 1a 30 34 27 86 30 27 b4 36 b0 6a e3 8c b0
       5.6322613e-10 9.760925e-10 -6.6467226e-10 -1.0250976e-09
000010 76 23 0c b1 9d af eb 2e 10 17 e7 af 7b 11 6b b0
       -2.0392839e-09 1.0717758e-10 -4.2035042e-10 -8.5517343e-10
000020 0b d3 65 2f 93 46 41 31 17 35 52 2f 4e 78 95 ae
       2.0902406e-10 2.8125313e-09 1.911825e-10 -6.797106e-11
000030 37 77 44 2f 4d 4f 2a b0 0d 6d a2 2e 5b c9 0a 30
       1.786845e-10 -6.1958333e-10 7.3862784e-11 5.049025e-10

exp_avg_sq f4 [16]
000000 47 d9 33 21 b4 2e 83 21 55 0b 65 21 7b 11 a2 22
       6.0935123e-19 8.889268e-19 7.7603216e-19 4.3928696e-18
000010 86 0f c9 21 ef b2 7a 20 31 cf aa 21 55 65 24 22
       1.3624399e-18 2.1235028e-19 1.1574491e-18 2.227979e-18
000020 ab 5d 11 21 53 15 b8 22 ab 55 d4 21 13 f1 54 20
       4.925188e-19 4.9895878e-18 1.4388355e-18 1.8036863e-19
000030 64 d8 a7 21 90 b0 a0 21 2c 90 13 21 92 6b c5 21
       1.1373638e-18 1.0888757e-18 4.9996347e-19 1.3377713e-18

exp_avg f4 [16]
000000 aa ba fd 3a f4 d2 fb b9 71 c4 e0 ba a8 5f fc ba
       0.0019357998 -0.00048031623 -0.0017148388 -0.0019254582
000010 54 d4 92 3a eb 7f 79 3a d3 ae 7c 39 c8 61 51 ba
       0.0011202195 0.00095176575 0.0002409772 -0.0007987288
000020 87 84 83 ba 91 2f 52 3b 8c 59 bc 39 80 cb ee b9
       -0.0010034003 0.0032071809 0.00035924872 -0.00045546517
000030 8c 49 0d bb 2a 7c f4 3a fc f4 2b ba bf 69 d3 3a
       -0.002155873 0.0018652726 -0.0006559638 0.0016129537

exp_avg_sq f4 [16]
000000 b3 72 ab 37 34 32 48 37 e0 c2 5e 37 18 2b 9e 37
       2.04382e-05 1.1932618e-05 1.3277604e-05 1.8855135e-05
000010 33 5c 26 38 bf 7c e5 37 49 c6 a8 37 7f 55 24 37
       3.966335e-05 2.7357017e-05 2.0119494e-05 9.795068e-06
000020 43 5d 15 37 a7 ba b9 37 3c b3 fd 36 12 98 37 37
       8.902806e-06 2.2140635e-05 7.560853e-06 1.0943057e-05
000030 27 37 d5 36 72 84 14 37 c8 32 a9 37 42 fb 25 38
       6.3543152e-06 8.852325e-06 2.0170017e-05 3.9573068e-05

exp_avg f4 [16]
000000 a1 45 3f 3b eb 63 57 39 ba f6 1a bb 08 d4 82 ba
       0.002918579 0.0002054122 -0.0023645596 -0.0009981403
000010 d8 1a f5 3a b4 79 0f 3b 97 52 51 3b c6 f7 d5 3a
       0.0018700017 0.002189261 0.0031940097 0.0016324453
000020 77 7e 53 3a 1d 4a de 3a be 1c 93 3a 3e 6d 97 ba
       0.0008067856 0.0016959343 0.0011223776 -0.0011552942
000030 2c dc 6c ba ce f5 20 ba 28 b3 bd b9 8d 1f 73 bb
       -0.0009035494 -0.00061401434 -0.0003618237 -0.0037097663

exp_avg_sq f4 [16]
000000 62 a9 a6 37 bf cd 8e 37 12 d0 bb 37 10 03 c3 37
       1.9867617e-05 1.7023527e-05 2.2389027e-05 2.3247238e-05
000010 b5 51 ac 37 f8 49 a4 37 be 08 10 38 41 10 4b 38
       2.0542046e-05 1.9584768e-05 3.4340417e-05 4.841411e-05
000020 f1 48 eb 36 58 23 a4 37 41 59 94 37 0f d1 64 37
       7.0120373e-06 1.9566782e-05 1.7684537e-05 1.3638534e-05
000030 9d 15 6c 37 b6 7c bd 37 90 f2 84 37 20 c9 0b 38
       1.4071728e-05 2.2588629e-05 1.5848578e-05 3.3327495e-05
