lightning_logs/version_3/checkpoints/model-epoch=22-val_loss=0.44-1.ckpt (torch, 185102 bytes, 48 tensors)

classifier.1.weight f4 [16, 784]
0	0x3d0d756b	0.034535807
1	0x3d7e63e0	0.062106967
2	0x3d8e8e32	0.06960715
3	0xbdbaa4b1	-0.09113444
4	0x3d405be6	0.04696264
5	0x3da7d048	0.08194023
6	0x3d653dc2	0.0559671
7	0x3b63f74b	0.003478485
8	0xbdaef61f	-0.085430376
9	0x3c994fc2	0.01871479
10	0x3ceeeb62	0.029164974
11	0xbca8516e	-0.020546641
12	0x3cd73f6e	0.026275363
13	0xbe09bae9	-0.13450207
14	0xbde5f2f3	-0.112279795
15	0xbda5085f	-0.08058237
16	0xbcb59564	-0.022165962
17	0x3d37bd30	0.044858158
18	0x3d0a7f38	0.03381273
19	0x3da2676b	0.07929882
20	0x3d1211de	0.03566157
21	0x3cddd333	0.027078247
22	0x3d91fe3e	0.07128571
23	0x3d679405	0.056537647
24	0x3d909ae8	0.07060796
25	0xbd8f7074	-0.070038706
26	0x3d98bd9b	0.074580394
27	0x3cdd4558	0.027010605
28	0x3dd1eba5	0.10250024
29	0x3d8cd78d	0.068770505
30	0xb83a67f6	-4.4442677e-05
31	0xbd8cd1a7	-0.068759255
32	0x3d46b3eb	0.048511427
33	0xbcbfd8a4	-0.023418732
34	0x3d2e1c13	0.042507242
35	0x3ba47c56	0.005019705
36	0xba1ac61e	-0.00059041556
37	0x3c5050ef	0.012714609
38	0x3b2a2ead	0.0025967762
39	0x3cf55917	0.029949708
40	0x3ce226a9	0.027606325
41	0xbd1d80df	-0.03845298
42	0xbd961374	-0.07327929
43	0xbcb10853	-0.021610415
44	0x3be8545a	0.0070901336
45	0x3d77faf7	0.060542073
46	0xbbf19e88	-0.0073736347
47	0xbcd0ffd8	-0.02551262
48	0x3c7f5b39	0.015585714
49	0x3cf84154	0.030304588
50	0x3d1e8f90	0.03871113
51	0xbc06791b	-0.008207585
52	0x3d9d8ad2	0.076924935
53	0x3d540885	0.051765937
54	0xbab0fccd	-0.0013503075
55	0xbd3bd776	-0.045859776
56	0x3c1dd080	0.00963223
57	0xbd387a7b	-0.04503868
58	0x3d3392ae	0.043841057
59	0xbdb145bd	-0.0865588
60	0x3bd10a80	0.0063794255
61	0xbc86e658	-0.016467258
62	0xbc88a293	-0.016679084
63	0x3d43dd6b	0.047818583
64	0x3d60296e	0.05472701
65	0x3d3fccf3	0.046826314
66	0x3c66f92e	0.014097495
67	0x3d78e292	0.06076295
68	0xbbd0d6e2	-0.0063732723
69	0x3d108e6c	0.035292074
70	0xbc3f0e58	-0.011661135
71	0xbce829ac	-0.028340183
72	0xbc62958e	-0.013829602
73	0x3d0265e7	0.031835463
74	0x3c2ed4b7	0.010670832
75	0xbd6ef855	-0.058342297
76	0x3d71ead1	0.05906183
77	0x3c088b94	0.008334059
78	0xbcdbfa60	-0.026852787
79	0x3cd35828	0.025798872
80	0x3d8961ce	0.06708108
81	0xbb4da605	-0.0031379473
82	0xbcaa8a1f	-0.020817814
83	0xbd6888a3	-0.056770932
84	0xbc4348b8	-0.011919193
85	0xbdc2d9c6	-0.09514193
86	0xbda35dd7	-0.07976883
87	0xbc2c2198	-0.010506056
88	0x3d31a174	0.043366864
89	0x3cc9308a	0.024559278
90	0xbd216ded	-0.039411474
91	0x3d8267aa	0.063674286
92	0x3d7237de	0.05913531
93	0x3d37d1b1	0.04487771
94	0x3ce0b9f0	0.027432412
95	0xbd0e67b5	-0.03476687
96	0xbbade1fd	-0.005306481
97	0xbd3b1b66	-0.045680426
98	0xbc8f67ab	-0.017505487
99	0xbca3f138	-0.020012483
100	0xbd6ce551	-0.05783588
101	0x3d0bddc0	0.034147024
102	0xbd143e07	-0.036191966
103	0xb96a89d9	-0.00022367331
104	0x3bbd082d	0.005768797
105	0x3ce7a741	0.028277995
106	0xb8c47066	-9.366944e-05
107	0xbc80d161	-0.01572484
108	0x3d0a687d	0.033791054
109	0xbc150046	-0.0090943035
110	0xbbbcbb0d	-0.005759603
111	0xbcb41680	-0.021983385
112	0x3cdaa24e	0.026688721
113	0xbd03f400	-0.03221512
114	0xbd2a32a0	-0.041552186
115	0x3a95599e	0.0011394506
116	0x3da56cf4	0.08077422
117	0x3d51f652	0.0512603
118	0x3db9f315	0.09079567
119	0x3d37e479	0.044895623
120	0xbc6cdbb4	-0.014456678
121	0xbccb5bd0	-0.024824053
122	0x3ccb58db	0.024822643
123	0x3c03179e	0.008001236
124	0x3cee5eaf	0.029097883
125	0xbace5c1f	-0.0015744007
126	0xba214f82	-0.000615351
127	0xbbf5bbeb	-0.007499208
128	0x3b883079	0.004156169
129	0x3bd06a69	0.0063603413
130	0x3c29e062	0.010368438
131	0xba1f3698	-0.0006073504
132	0x3d5fd95d	0.054650653
133	0xbb6b4029	-0.0035896397
134	0xbc0f2a4e	-0.008738114
135	0xbcbac14c	-0.02279725
136	0xba6e3d91	-0.00090881536
137	0x3c79cd40	0.015246689
138	0xbce66721	-0.028125348
139	0x3d248b6a	0.040172018
140	0xbdd7c6c2	-0.10535957
141	0xbd812858	-0.06306523
142	0xbc7576df	-0.014981954
143	0xbbb1df30	-0.0054282174
144	0xb897be04	-7.235634e-05
145	0x3d8485c2	0.06470825
146	0x3dc122ac	0.09430441
147	0x3d64a19d	0.05581819
148	0x3ccd1ecb	0.025039097
149	0x3cb53578	0.022120222
150	0x3be6db8f	0.0070452164
151	0x3c5e1538	0.013554864
152	0xbcda1aad	-0.026624048
153	0xbc2d6c0b	-0.0105848415
154	0xbc80c106	-0.01571704
155	0x3cd2627f	0.025681732
156	0xbce00694	-0.027346887
157	0xbc63e716	-0.013910076
158	0xb9c12b51	-0.00036844102
159	0x3ca1ba9b	0.0197423
160	0xbcdab341	-0.026696803
161	0xbca01484	-0.019541033
162	0x3cdb5d91	0.026778014
163	0xbc71599e	-0.014730839
164	0x3d5412db	0.051775794
165	0x3bd88c3a	0.006608513
166	0xbcbc045f	-0.022951303
167	0xbc000505	-0.007813697
168	0xbd86eb05	-0.06587795
169	0xbc9e0661	-0.019290151
170	0xbddbedbe	-0.10738705
171	0xbd8a68e1	-0.06758285
172	0xbca3529d	-0.019936854
173	0x3a338504	0.0006848129
174	0x3d171c22	0.036892064
175	0x3c245065	0.010028933
176	0x3c7a6c65	0.015284632
177	0x3d2cf1ba	0.042222716
178	0x3d049969	0.032372866
179	0xbcacc072	-0.021087859
180	0xbca4e409	-0.020128267
181	0x3c2ee758	0.010675274
182	0xbb155e0e	-0.0022791657
183	0x3bfe0e2c	0.0077531543
184	0xbc7a412c	-0.015274327
185	0x3c91aa65	0.017781446
186	0x3b60fb7b	0.0034329582
187	0x3d51d4c6	0.051228307
188	0xbc813aab	-0.015775045
189	0x3c7b5f98	0.015342616
190	0xbc25c801	-0.010118485
191	0x3a165efb	0.0005736199
192	0xbd2f08e7	-0.0427331
193	0xbd194981	-0.037423614
194	0xbd0ba257	-0.034090366
195	0xbd507067	-0.050888445
196	0xbdb88d1f	-0.09011292
197	0xbd8ac41f	-0.067756884
198	0xbdca7f6e	-0.098875865
199	0xbd86851a	-0.06568356
200	0xbd70112d	-0.05861013
201	0x3c85917c	0.016304724
202	0xbd446a68	-0.04795304
203	0xbd9e7b75	-0.07738391
204	0x3c82c3ea	0.01596256
205	0xbc5d65cc	-0.01351304
206	0x3c26c00d	0.010177624
207	0xbccb23c1	-0.024797322
208	0xbd9a3c55	-0.07531039
209	0xbce4ceb7	-0.0279306
210	0xbd1eb4fb	-0.038746815
211	0x3c32ed4a	0.010920832
212	0x3c0b017f	0.008484243
213	0xbba60572	-0.005066567
214	0x3d010733	0.031501006
215	0x3d2605b4	0.040532783
216	0xbc060416	-0.008179685
217	0x3be3cd2e	0.0069519496
218	0xbbc68e34	-0.0060594324
219	0xbd387808	-0.045036346
220	0xbc3b0494	-0.011414666
221	0xbc20c6cd	-0.009813023
222	0x3cc7d0c2	0.024391536
223	0xbccd1944	-0.025036462
224	0xbd510751	-0.051032368
225	0xbc21c402	-0.009873392
226	0xbdcf6f65	-0.10128669
227	0xbd788491	-0.0606733
228	0xbc1798c5	-0.009252732
229	0xbbd7765b	-0.0065753884
230	0xbc749494	-0.014928002
231	0xbd99e577	-0.0751447
232	0xbd4f96f0	-0.050681055
233	0xbc827bda	-0.015928198
234	0xbd8765c8	-0.0661121
235	0xbce51aae	-0.027966823
236	0xbc450fef	-0.012027725
237	0xbbecec42	-0.0072303126
238	0x3cc01748	0.023448601
239	0xb824d57b	-3.9299466e-05
240	0x3cdcf6d6	0.02697317
241	0x3c270c43	0.0101957945
242	0x3d25ea67	0.040506747
243	0x3d1872ae	0.037218742
244	0xbc943fc1	-0.018096806
245	0xbcaa1219	-0.020760583
246	0x3d5d954a	0.05409745
247	0xbc8ea86e	-0.017414298
248	0x3ab451bd	0.001375727
249	0x3c0221f9	0.00794267
250	0x3c848810	0.01617816
251	0x3cad2efb	0.021140566
252	0xbd842030	-0.06451452
253	0xbd34dcb4	-0.04415579
254	0xbda06ad1	-0.078328736
255	0xbd516798	-0.051124185

classifier.1.bias f4 [16]
0	0x3be92de0	0.0071160644
1	0x3c0337dc	0.008008923
2	0xbcf45aab	-0.02982839
3	0x3d1d9d93	0.038480353
4	0xbc84d0a0	-0.016212761
5	0x3ca61987	0.020275844
6	0xbc8643cb	-0.016389748
7	0x3d0299ed	0.031885076
8	0x3d0e86f2	0.034796663
9	0xbcd0ebea	-0.025503118
10	0xbd03f45a	-0.032215454
11	0xbc8b8273	-0.017029976
12	0xbc659d8d	-0.014014614
13	0xbc9812b2	-0.018563602
14	0x3d06d037	0.032913413
15	0x3c37e4a8	0.0112239495

classifier.2.weight f4 [16]
0	0x3f768386	0.9629444
1	0x3f807ed0	1.00387
2	0x3f818cbf	1.0121077
3	0x3f91b2c5	1.1382681
4	0x3f7574c1	0.9588128
5	0x3f80eec3	1.0072864
6	0x3f70d088	0.94068193
7	0x3f882bdf	1.0638388
8	0x3f6df815	0.9295667
9	0x3f72a889	0.94788414
10	0x3f835ad7	1.0262097
11	0x3f80ea6c	1.007154
12	0x3f73d601	0.9524842
13	0x3f6f978f	0.93590635
14	0x3f86f02f	1.0542048
15	0x3f70a702	0.94004834

classifier.2.bias f4 [16]
0	0xbdd646e4	-0.1046274
1	0xbe2924ad	-0.16517897
2	0xbd3861b2	-0.045015045
3	0xbc9729c8	-0.01845254
4	0xbe3c434e	-0.1838505
5	0xbda166d3	-0.0788094
6	0xbe29a065	-0.16565092
7	0x3d7d6c57	0.0618709
8	0xbe145d4c	-0.14488715
9	0x3d846fda	0.064666465
10	0xbe1484f1	-0.14503838
11	0x3c97a4c8	0.018511191
12	0xbdc0c900	-0.09413338
13	0x3c9d1cfa	0.019178856
14	0xbe27d9a3	-0.16391616
15	0x3db9f0f9	0.09079165

classifier.2.running_mean f4 [16]
0	0x4000c68a	2.0121179
1	0x40898715	4.2977395
2	0x3f93dc12	1.1551535
3	0x40960db2	4.689172
4	0xc00166d2	-2.0219007
5	0x3fd845e6	1.6896331
6	0x401d85d9	2.4612944
7	0x401c188f	2.438999
8	0xbf302407	-0.68804973
9	0x408628e5	4.192492
10	0x40260f0f	2.594669
11	0xbe8969d4	-0.26838553
12	0x3e9a8ef2	0.30187184
13	0x4027b2ae	2.6202807
14	0xbef9cc06	-0.4878847
15	0xbfd3ef35	-1.6557375

classifier.2.running_var f4 [16]
0	0x3fa2e430	1.2725887
1	0x3ff6939a	1.9263794
2	0x3f901136	1.1255252
3	0x3f840d1e	1.0316503
4	0x3fa2033a	1.2657235
5	0x408fba05	4.4914575
6	0x3fb519bc	1.4148479
7	0x3fd2e182	1.647507
8	0x3f15dfd2	0.5854465
9	0x3f893e6b	1.0722173
10	0x3fa1e5a7	1.2648209
11	0x3ff91c7b	1.9461817
12	0x3ef13bbe	0.47115892
13	0x3f95186c	1.1648078
14	0x3f976c6a	1.182996
15	0x3fbf79e3	1.4959072

classifier.4.weight f4 [16, 16]
0	0x3e08d08e	0.13360807
1	0x3c6c4fb2	0.014423298
2	0xbe00bd8a	-0.12572303
3	0xbc960669	-0.018313603
4	0xbd514158	-0.051087707
5	0xbea52e0f	-0.32261702
6	0xbe27dbc3	-0.16392426
7	0xbe8f3525	-0.27970234
8	0xbd6130a0	-0.054978013
9	0x3e3a8fe2	0.1821895
10	0xbcd8b9fe	-0.026455875
11	0xbe986e40	-0.29771614
12	0x3e6746fa	0.22585669
13	0x3dd30b97	0.10304945
14	0xbd2d1843	-0.042259466
15	0x3cf40b59	0.029790567
16	0x3e866c6e	0.262546
17	0x3d9cfe1b	0.07665654
18	0x3d892644	0.06696752
19	0xbda21caf	-0.07915627
20	0xbe03d28b	-0.12873285
21	0x3e44d725	0.19222696
22	0x3ccc668b	0.02495124
23	0x3e412360	0.1886115
24	0x3e1036bf	0.14083384
25	0x3e125fd6	0.14294371
26	0xbe498115	-0.19678147
27	0xbe2038d5	-0.1564668
28	0xbec1800d	-0.37793007
29	0x3e17324e	0.14765283
30	0x3bea5241	0.0071509187
31	0x3d8f41f0	0.069949985
32	0x3dffae83	0.12484457
33	0x3dd6999a	0.10478516
34	0x3d456a38	0.048197
35	0x3d15b665	0.036550898
36	0xbc561206	-0.013065821
37	0x3d92b7c4	0.07163957
38	0xbe7b0ef3	-0.24517421
39	0x3d892002	0.06695558
40	0xbe04e699	-0.12978591
41	0xbda2495f	-0.07924151
42	0xbe078b76	-0.13236794
43	0xbe386414	-0.18006927
44	0xbe1924d7	-0.1495546
45	0x3d98b1c9	0.07455785
46	0xbd5ed52b	-0.05440251
47	0xbe90a995	-0.2825438
48	0x3e5727c5	0.21011265
49	0x3e5795fb	0.21053307
50	0xbe0bb4f4	-0.13643247
51	0x3db441a3	0.08801582
52	0xbe0e3681	-0.13887979
53	0x3b4b0c73	0.0030982762
54	0xbe26514d	-0.16241951
55	0xbd4d3302	-0.050097473
56	0xbe2cedcf	-0.16887592
57	0xbd8f0a76	-0.06984417
58	0xbdf0d0be	-0.117585644
59	0x3d17b975	0.0370421
60	0xbe064d9c	-0.13115543
61	0xbdf3c5d6	-0.119029686
62	0xbd2937c0	-0.041312933
63	0x3e4d2e75	0.20037253
64	0x3d39fe62	0.045408614
65	0x3cf2e1a4	0.02964861
66	0x3e516bdd	0.20451303
67	0xbd96db0f	-0.07366001
68	0xbccbcfbd	-0.02487933
69	0x3ea28c46	0.31747645
70	0x3e09850d	0.13429661
71	0xbd9827b7	-0.0742945
72	0xbd10ff93	-0.035399985
73	0xbc7da46f	-0.015481099
74	0x3e277b40	0.1635561
75	0xbda02d1e	-0.078211054
76	0x3da02bf6	0.07820885
77	0xbe3413ec	-0.17585725
78	0xbe8bb5d3	-0.27287158
79	0x3da8ae39	0.08236355
80	0xbe162ae7	-0.14664803
81	0xbdbc112c	-0.09182963
82	0xbb36b77a	-0.0027880357
83	0xbe896df9	-0.26841715
84	0xbd6e8088	-0.058228046
85	0x3cef5847	0.029216899
86	0x3e904eb4	0.28185046
87	0x3d5364ad	0.051609684
88	0x3e012d24	0.12614876
89	0x3e2ae845	0.16690166
90	0xbe500a78	-0.20316494
91	0x3dc21003	0.0947571
92	0xbe357148	-0.17718995
93	0xbdd584be	-0.10425709
94	0xbde51a1b	-0.1118662
95	0xbd005056	-0.031326614
96	0x3dec180c	0.11528024
97	0xbd3ec16f	-0.04657119
98	0xb8c3f6c4	-9.344288e-05
99	0xbe61b72e	-0.22042534
100	0xbe2587f7	-0.16165148
101	0x3c87051d	0.01648193
102	0xbdfc14f0	-0.12308681
103	0xbdf9f545	-0.122049846
104	0xbe7980cf	-0.24365543
105	0xbcf5eb37	-0.030019386
106	0x3d786bb6	0.060649596
107	0x3ca49cbb	0.020094266
108	0x3e18d4e2	0.14924958
109	0xbe806ce1	-0.25083068
110	0x3e81db2c	0.25362527
111	0x3d485d88	0.048917323
112	0x3e9383c1	0.28811458
113	0xbdc98f53	-0.0984179
114	0x3d837838	0.06419414
115	0xbd60fb49	-0.054927144
116	0xbe2b005f	-0.1669936
117	0x3d85f9a0	0.06541753
118	0xbe62c25d	-0.22144456
119	0xbe22c20c	-0.15894336
120	0xbe123225	-0.14276941
121	0x3d067de3	0.0328349
122	0x3da8ff3c	0.08251807
123	0x3c8cb7e5	0.017177531
124	0x3dfaa4a8	0.12238437
125	0xbdc30d24	-0.09523991
126	0x3e167033	0.14691238
127	0xbe14fa91	-0.14548708
128	0x3daf7a1b	0.08568212
129	0x3c98f8f5	0.0186734
130	0x3e19f823	0.15036063
131	0xbef29026	-0.47375602
132	0xbd4bd17d	-0.04976033
133	0x3dc3e68d	0.095654584
134	0xbe145ea7	-0.14489232
135	0xbcca348a	-0.024683256
136	0xbe3d77db	-0.18502752
137	0x3d546953	0.051858258
138	0xbbb8906f	-0.005632452
139	0xbd9ce978	-0.07661718
140	0x3d0471fa	0.03233526
141	0x3e30b91f	0.17258118
142	0x3e1c6e86	0.15276536
143	0xbe3de3ec	-0.18543977
144	0x3c09c52e	0.008408828
145	0x3e49d73c	0.19711012
146	0x3d48eddc	0.049054965
147	0xbd7183b0	-0.058963478
148	0x3e4d1596	0.20027766
149	0x3e292807	0.16519175
150	0xbe1f5126	-0.155583
151	0xbea69d03	-0.32541665
152	0xbda72c8e	-0.08162795
153	0x3e5f8781	0.21829034
154	0xbbdbd1ed	-0.0067083747
155	0xbd5c6abe	-0.053812735
156	0x3d0e4418	0.034732908
157	0x3dd92ae5	0.106038846
158	0x3b4ec553	0.003155072
159	0xbda98c8c	-0.0827876
160	0xbdb82a2e	-0.0899242
161	0x3d84b6b2	0.06480159
162	0xbdde2fd9	-0.1084897
163	0xbd7dfac4	-0.062006727
164	0xbd59abcc	-0.053142354
165	0x3e7e37ba	0.24825945
166	0xbe947a4e	-0.2899956
167	0xbe368298	-0.17823255
168	0x3e1b0314	0.15137893
169	0xbd04068c	-0.032232806
170	0xbe9e467b	-0.30913147
171	0xbd62ee74	-0.055403188
172	0x3d48e574	0.04904695
173	0xbda17a12	-0.07884611
174	0xbe337513	-0.17525129
175	0x3bf82c38	0.0075736307
176	0x3dd61f42	0.10455181
177	0x3e5740a2	0.21020749
178	0xbe237e88	-0.15966237
179	0xbebcbee3	-0.36864385
180	0x3e403efe	0.1877403
181	0xbe41745a	-0.18892041
182	0x3e0d0630	0.13771892
183	0xbe0fde4b	-0.14049642
184	0xbdcd8b26	-0.10036306
185	0xbe9f5b44	-0.31124318
186	0x3dc375ee	0.09543978
187	0x3e273863	0.16330104
188	0x3d89918a	0.067172125
189	0x3e0aa4b2	0.13539389
190	0x3debc84e	0.115128145
191	0xbe147f49	-0.1450168
192	0xbe09f384	-0.134718
193	0xbb0f3a0e	-0.0021854672
194	0xbe9645f5	-0.29350248
195	0xbddaa07d	-0.10675142
196	0x3d9a9219	0.07547397
197	0xbe1ce1b0	-0.15320468
198	0xbd939e33	-0.072079085
199	0x3d8d2ef8	0.06893724
200	0x3d511a17	0.05105027
201	0x3e4418df	0.19150113
202	0xbcf8cb59	-0.030370401
203	0x3d21e078	0.03952071
204	0xbd53680b	-0.051612895
205	0xbe5b08ea	-0.21390119
206	0x3d5b2505	0.0535021
207	0xbe04b09b	-0.12957995
208	0x3e71904e	0.23590204
209	0x3dd4f2b5	0.10397855
210	0x3e270d82	0.16313747
211	0xbe41c106	-0.18921289
212	0x3cf37c8b	0.029722473
213	0xbe812701	-0.2522507
214	0x3e8b006c	0.2714876
215	0x3dfe8ff3	0.124298
216	0x3da834f2	0.082132235
217	0x3cbf2632	0.023333643
218	0xbdc8dea2	-0.09808089
219	0xbd572955	-0.05252965
220	0x3dbbb604	0.09165576
221	0x3df9a663	0.12189939
222	0xbe8112ea	-0.25209743
223	0x3e2ba073	0.16760425
224	0xbd2e45f1	-0.04254717
225	0xbe8074c2	-0.2508908
226	0xbe09c6dc	-0.13454765
227	0x3d89716d	0.067110874
228	0xbe3d97ba	-0.1851491
229	0xbe88f9c0	-0.26753044
230	0x3db38e2c	0.087673515
231	0x3c98f50b	0.018671533
232	0xbdf16800	-0.117874146
233	0x3d6b5c18	0.057460874
234	0x3dc0c8de	0.094133124
235	0xbebcd6e5	-0.36882702
236	0xbe54ad48	-0.20769227
237	0x3d8a836f	0.0676335
238	0xbe8762cb	-0.2644256
239	0x3e04bbd6	0.12962279
240	0xbd09c930	-0.033639133
241	0x3e750312	0.23926952
242	0x3cae34d8	0.021265432
243	0x3d01ea54	0.031717613
244	0xbd6a3769	-0.05718175
245	0x3d945f40	0.0724473
246	0x3e0ae95d	0.13565584
247	0xbe17871f	-0.14797638
248	0xbdfe66bd	-0.124219395
249	0xbe12e7c4	-0.14346224
250	0xbe41a158	-0.18909204
251	0x3e0a4751	0.13503768
252	0x3c7c1a02	0.01538706
253	0x3d104a9e	0.03522741
254	0x3e03a92f	0.12857507
255	0x3d68b4f6	0.056813203

classifier.4.bias f4 [16]
0	0xbd8563ae	-0.06513153
1	0xbd992287	-0.07477289
2	0xbe030606	-0.12795267
3	0x3c9726b1	0.018451067
4	0xbdabfab5	-0.08397428
5	0xbe182ff4	-0.14862043
6	0xbe1d873c	-0.15383619
7	0x3d14f33a	0.03636477
8	0xbe131b0b	-0.14365785
9	0x3e29258e	0.16518232
10	0x3d4f9477	0.050678696
11	0x3d4c14b3	0.049824428
12	0x3e69ed18	0.2284435
13	0xbe75be49	-0.2399837
14	0xbdb76138	-0.0895409
15	0xbe7b18f6	-0.2452124

classifier.5.weight f4 [16]
0	0x3f708ce7	0.93965
1	0x3f68fc4b	0.9100997
2	0x3f825b0f	1.0184039
3	0x3f8ccd9d	1.1000248
4	0x3f874aa6	1.0569656
5	0x3f86499f	1.0491217
6	0x3f7c1972	0.98476326
7	0x3f86a8c0	1.0520248
8	0x3f5df15a	0.866964
9	0x3f847764	1.0348935
10	0x3f79eb56	0.9762472
11	0x3f887c2e	1.0662897
12	0x3f7b68db	0.9820687
13	0x3f6dcde9	0.9289232
14	0x3f829903	1.0202945
15	0x3f6b0ad6	0.9181341

classifier.5.bias f4 [16]
0	0x3d335f8e	0.0437923
1	0x3d5f530a	0.05452255
2	0xbd409700	-0.047019005
3	0xbd847132	-0.06466903
4	0xbe797604	-0.24361426
5	0x3c08f121	0.008358271
6	0xbd08b488	-0.033375293
7	0x3c7b1ec5	0.01532716
8	0x3d0f707d	0.035019387
9	0x3e1c6267	0.15271913
10	0xbd8fddde	-0.0702474
11	0x3d99bb89	0.075064726
12	0x3cc37818	0.023860976
13	0x3df6dd9f	0.120539896
14	0x3bfbf590	0.0076891854
15	0xbe010d78	-0.12602794

classifier.5.running_mean f4 [16]
0	0xbeb680ec	-0.35645235
1	0x3dc71749	0.09721238
2	0xbec33f04	-0.38134015
3	0xbda75aad	-0.08171592
4	0x3c7ebe09	0.015548238
5	0xbea21e8d	-0.31663933
6	0xbeb2ce71	-0.34923127
7	0xbd366085	-0.044525642
8	0xbe996bb1	-0.29964975
9	0x3e5f30a9	0.21795906
10	0xbe8f4e81	-0.2798958
11	0xbdfbbb57	-0.122915916
12	0xbd28d28e	-0.041216426
13	0xbd914a2b	-0.070942245
14	0xbf09b6fa	-0.53794825
15	0xbe463aed	-0.19358416

classifier.5.running_var f4 [16]
0	0x3e356f6e	0.17718288
1	0x3e0f8ea9	0.14019264
2	0x3d7612a4	0.06007637
3	0x3d8b92e7	0.06815129
4	0x3d421bd8	0.047389835
5	0x3db24990	0.08705437
6	0x3e5d5260	0.21613455
7	0x3e3ef514	0.18648177
8	0x3e5e2a56	0.21695837
9	0x3d99da21	0.07512308
10	0x3e05798d	0.13034649
11	0x3e953151	0.29139188
12	0x3d06eb3e	0.03293919
13	0x3e86df0c	0.26342046
14	0x3e8bd894	0.27313673
15	0x3da0e0bb	0.07855364

classifier.7.weight f4 [16, 16]
0	0x3cce0d52	0.025152836
1	0x3d535fd3	0.051605057
2	0x3e9e37f1	0.30902055
3	0xbe05f9d9	-0.1308359
4	0x3d68e03b	0.056854468
5	0xbd0d90a8	-0.034561783
6	0xbdc596f7	-0.09647935
7	0x3d9d997a	0.07695289
8	0xbda26acb	-0.079305254
9	0xbcc62e20	-0.024191916
10	0xbd1219d3	-0.03566916
11	0x3d7faff8	0.062423676
12	0xbdbfd985	-0.093676604
13	0xbdedcb16	-0.11611001
14	0xbdf27a19	-0.118396945
15	0xbdcb4dec	-0.09926972
16	0xbd504e84	-0.05085613
17	0xbe17d5a5	-0.14827593
18	0xbe24779a	-0.1606125
19	0xbe28a608	-0.16469586
20	0x3e82c0cf	0.25537726
21	0xbdb2d865	-0.0873268
22	0xbca3cf85	-0.019996414
23	0x3e8d1cc0	0.27560997
24	0x3cf7a04e	0.030227806
25	0x3ca7eba9	0.020498114
26	0xbd2579ca	-0.04039935
27	0x3da1826f	0.07886206
28	0xbd95dbd8	-0.073173225
29	0x3d0c81e7	0.034303572
30	0xbe242e3d	-0.16033264
31	0xbe8aaeee	-0.27086586
32	0x3e83fc98	0.2577865
33	0x3e1d5de0	0.15367842
34	0xbb800e56	-0.003907959
35	0x3e51d970	0.20493102
36	0xbdd4c71a	-0.10389538
37	0xbd247b39	-0.040156577
38	0x3e509892	0.20370701
39	0xbd035752	-0.032065697
40	0xbe543d95	-0.20726617
41	0x3d11b195	0.035569746
42	0x3d498971	0.04920334
43	0xbe16528b	-0.14679925
44	0xbe1916a5	-0.14950044
45	0xbdbbb8fa	-0.09166141
46	0x3e0dc396	0.13844141
47	0xbcd1172a	-0.02552374
48	0x3df28567	0.11841851
49	0x3de97c76	0.11400692
50	0xbe2a1283	-0.16608624
51	0x3de74125	0.11291722
52	0xbd534e3e	-0.05158829
53	0xbe72c1a5	-0.23706682
54	0xbe3440d8	-0.17602861
55	0x3d986f1e	0.07443069
56	0xbdb65a66	-0.08903961
57	0xbe00c6ca	-0.12575832
58	0xbe284a7e	-0.16434667
59	0xbe64373e	-0.22286698
60	0x3e14804e	0.1450207
61	0xbe05be2e	-0.13060829
62	0x3eac0b08	0.33602166
63	0x3e086874	0.13321096
64	0xbdd7cfd2	-0.105376855
65	0xbd2eb4dc	-0.04265295
66	0x3d86ddba	0.0658526
67	0xbe3ac723	-0.18240027
68	0xbdbc1003	-0.091827415
69	0xbd46c53a	-0.048527934
70	0xbe2deacf	-0.16984104
71	0x3d82b464	0.06382063
72	0xbe3d6424	-0.18495232
73	0x3e7cfd6c	0.24706048
74	0x3db6b8f5	0.089219965
75	0xbd3837f5	-0.04497524
76	0x3e8665ba	0.26249486
77	0xbd6cf5f3	-0.057851743
78	0x3b220a34	0.002472532
79	0x3d903597	0.070414715
80	0x3d081736	0.03322526
81	0x3d9cf8a3	0.07664611
82	0x3e5a5997	0.21323238
83	0x3c958e22	0.01825625
84	0xbdc497c4	-0.095992595
85	0xbe6b1acc	-0.22959441
86	0x3c021ada	0.007940972
87	0x3b86ba9b	0.0041116006
88	0xbe727ec8	-0.23681176
89	0xbebb9ce0	-0.36643124
90	0xbe2ce255	-0.16883214
91	0xbe0971f6	-0.13422379
92	0x3dd815e3	0.105510496
93	0x3cabb1ea	0.02095886
94	0x3e00dba7	0.1258379
95	0x3d351c6c	0.04421656
96	0xbdcf38dc	-0.10118267
97	0xbddc52b5	-0.107579626
98	0x3cbab429	0.022790985
99	0x3e561d6d	0.20909663
100	0x3edf1ccc	0.43576658
101	0x3cd6a600	0.026202202
102	0x3ab71d4e	0.0013970525
103	0x3dafa747	0.085768275
104	0x3c4c8988	0.012483962
105	0x3da30126	0.079592034
106	0x3baf82ab	0.005356153
107	0xbab34054	-0.0013675787
108	0xbd15c8a9	-0.036568318
109	0x3d3e6592	0.046483584
110	0xbd0b3b4c	-0.033992097
111	0xbe52ff02	-0.2060509
112	0x3e3691a4	0.17828995
113	0xbe0cca7b	-0.13749115
114	0xbbc71993	-0.0060760467
115	0xbe20c148	-0.15698731
116	0x3e208c79	0.15678586
117	0x3cbd4495	0.023103992
118	0xbdc722dd	-0.097234465
119	0xbd0e73f4	-0.03477855
120	0xbb96a3fb	-0.0045971847
121	0x3e73f6e4	0.2382465
122	0xbcc51329	-0.024056988
123	0xbd9a340c	-0.075294584
124	0xbe436d22	-0.190846
125	0xbcc01acd	-0.02345028
126	0xbdcb3900	-0.09922981
127	0x3d7f457f	0.062322136
128	0xbe13d608	-0.14437115
129	0xbe9f7819	-0.31146315
130	0xbc4e22a2	-0.012581499
131	0xbcc8fdbe	-0.024535056
132	0xbe19fc55	-0.15037663
133	0x3cbc76f3	0.023005938
134	0xbd934f83	-0.071929
135	0xbeaee39b	-0.34158024
136	0x3e2f3040	0.1710825
137	0x3b93fc01	0.004516125
138	0x3de1872c	0.1101211
139	0x3d87d9d7	0.066333465
140	0xbd8db5a2	-0.06919409
141	0x3d1a1db7	0.037625995
142	0xbe76cadf	-0.24100827
143	0x3d9bcb73	0.07607164
144	0x3dd00770	0.101576686
145	0xbe35affd	-0.17742915
146	0xba0c6213	-0.00053551904
147	0x3e3d1d7c	0.18468279
148	0xbe0cac8d	-0.13737698
149	0xbcdaf60a	-0.026728649
150	0xbe086ec7	-0.13323508
151	0xbdcdbfb2	-0.100463286
152	0xbda29c37	-0.07939952
153	0x3ca41f3f	0.02003443
154	0xbce0e0d6	-0.02745096
155	0x3e8fafdf	0.28063866
156	0xbd9dc54f	-0.07703649
157	0x3e59803b	0.21240322
158	0xbe5669b9	-0.20938767
159	0x3e3074cd	0.17232056
160	0xbe2ae6bf	-0.16689585
161	0x3e037a80	0.12839699
162	0xbdb0313b	-0.0860314
163	0x3dd88918	0.105730236
164	0xbe829aa8	-0.25508618
165	0xbdcfdb5c	-0.10149261
166	0x3e0451a4	0.12921768
167	0x3e34cbae	0.17655823
168	0xbd66a10b	-0.056305926
169	0x3dbc87bb	0.09205576
170	0x3d8a408b	0.06750592
171	0x3e3d91b3	0.18512611
172	0x3b411e9f	0.0029467714
173	0xbd1f74ab	-0.038929623
174	0x3cebee14	0.028800048
175	0x3d75863f	0.05994248
176	0xbe358b3b	-0.17728893
177	0xbe07a576	-0.13246712
178	0xbe7010b8	-0.23443878
179	0x3e0ef985	0.13962372
180	0x3ca1ee18	0.019766852
181	0x3e8144b0	0.25247717
182	0x3d6bed4e	0.05759936
183	0xbe67706c	-0.2260148
184	0x3da42600	0.080150604
185	0xbe19011e	-0.14941832
186	0x3e5fb2d3	0.2184556
187	0xbe4246d7	-0.18972336
188	0x3e2bbbd9	0.16770877
189	0x3dee0cc2	0.11623527
190	0xbd0d26f1	-0.034460966
191	0x3d6a6f2e	0.057234935
192	0x3dce8c59	0.10085363
193	0x3e8b88d2	0.27252823
194	0x3aed2414	0.0018092417
195	0x3b93a2f8	0.0045055114
196	0x3df29644	0.11845067
197	0x3dd730ca	0.10507353
198	0x3bfe6ad5	0.0077642
199	0x3e0890c8	0.1333648
200	0xbbe7266f	-0.007054142
201	0xbe1084d5	-0.14113171
202	0xbc0486ca	-0.008088777
203	0xbd78512d	-0.06062429
204	0xbe1045d7	-0.14089142
205	0x3dd53f85	0.10412506
206	0x3e5e06d1	0.21682288
207	0xbdcbc270	-0.099491954
208	0xbb92e5ec	-0.004482975
209	0x3dca6965	0.09883384
210	0xbe90a11e	-0.28247923
211	0x3dee8efa	0.11648364
212	0xbe42f358	-0.19038141
213	0x3e9e2655	0.3088862
214	0xbd6c3a66	-0.05767288
215	0x3e471f71	0.19445588
216	0x3e4f758a	0.20259681
217	0xbc6a8f8c	-0.014316451
218	0xbe6ee8c1	-0.23330976
219	0x3e0073f2	0.1254423
220	0xbe4afc11	-0.19822718
221	0xbd6d1c51	-0.057888333
222	0x3e4097e9	0.18807949
223	0xbe062002	-0.13098148
224	0xbdde9e7e	-0.10870074
225	0x3d159f5c	0.03652893
226	0x3ea65006	0.32482928
227	0x3d88afb6	0.06674139
228	0x3c5a2e02	0.013316633
229	0x3dd0ec0e	0.10201274
230	0xbe36225a	-0.17786542
231	0xbe000956	-0.12503561
232	0x3e053e8e	0.13012144
233	0x3d42f844	0.047600046
234	0x3e0b72f8	0.13618076
235	0x3d136b2c	0.03599088
236	0xbcc5d163	-0.024147695
237	0xbe9ffb6e	-0.31246513
238	0xbe35fe21	-0.17772724
239	0x3da1c9bf	0.07899808
240	0xbe6e4f86	-0.23272523
241	0xbe561694	-0.2090705
242	0x3e58563a	0.21126643
243	0xbe1434e3	-0.144733
244	0xbdb4f492	-0.088357106
245	0xbdbd6f72	-0.09249772
246	0x3e1fc929	0.1560408
247	0xbd14e42a	-0.036350407
248	0x3e21c55c	0.15797943
249	0xbc95383f	-0.018215297
250	0xbe0a3ac9	-0.13498987
251	0xbc869e60	-0.016432941
252	0x3e33d34d	0.17561074
253	0x3e1740f9	0.14770879
254	0x3e1edd54	0.15514117
255	0x3ccee065	0.025253484

classifier.7.bias f4 [16]
0	0x3e761d35	0.24034579
1	0xbe095cd6	-0.1341432
2	0xbd583fbf	-0.052795168
3	0xbe90e3ac	-0.282987
4	0xbe65de3e	-0.2244806
5	0x3dbdd7ba	0.09269662
6	0xbde9dfd8	-0.11419648
7	0xbe8af40b	-0.27139315
8	0xbb59c087	-0.0033226328
9	0xbe26acf5	-0.16276915
10	0x3d0df910	0.034661353
11	0x3d5672b9	0.0523555
12	0x3dfa3d2b	0.12218698
13	0xbe0441db	-0.12915747
14	0x3e2169da	0.15763035
15	0xbe1eb08f	-0.1549704

classifier.8.weight f4 [16]
0	0x3fad87a0	1.3557014
1	0x3fafa4b3	1.3722137
2	0x3faed043	1.3657306
3	0x3faf89fe	1.3713987
4	0x3fb29adc	1.3953509
5	0x3fb22313	1.3916954
6	0x3fb504fd	1.4142147
7	0x3fb6460f	1.424013
8	0x3fb0cb26	1.3811996
9	0x3fadda59	1.358226
10	0x3fae8338	1.3633795
11	0x3faaf07c	1.335464
12	0x3fb03135	1.3765017
13	0x3fb79857	1.4343365
14	0x3fb0bfd2	1.3808539
15	0x3faecddd	1.3656574

classifier.8.bias f4 [16]
0	0x3ead5b8c	0.33858907
1	0x3eb2972d	0.34880963
2	0x3ec4416e	0.3833117
3	0x3eb55d23	0.3542262
4	0x3ebb504d	0.36584702
5	0x3eb611ae	0.35560364
6	0x3ebfe518	0.37479472
7	0x3ed41d70	0.4142871
8	0x3eb4a31f	0.35280702
9	0x3ea36652	0.31914002
10	0x3e9f78ac	0.31146753
11	0x3eafa94f	0.3430886
12	0x3ede1869	0.43377998
13	0x3ecf6c00	0.40512085
14	0x3ed0c7ee	0.40777534
15	0x3ecc912b	0.39954504

classifier.8.running_mean f4 [16]
0	0x3e1b0184	0.15137297
1	0xbe9b5959	-0.30341604
2	0x3d014f07	0.031569507
3	0xbedbeb84	-0.42953122
4	0xbe7d8b46	-0.2476016
5	0xbe277494	-0.16353065
6	0x3d3c96b0	0.046042144
7	0xbeaf636d	-0.34255543
8	0xbeb5c98f	-0.3550534
9	0xbe032629	-0.12807526
10	0x3e381d07	0.17979823
11	0xbc83c50e	-0.016085174
12	0x3eb17de6	0.34666365
13	0xbd319b14	-0.043360785
14	0x3e207660	0.15670156
15	0xbdee41e5	-0.11633662

classifier.8.running_var f4 [16]
0	0x3d2ee521	0.042698983
1	0x3df53f8a	0.1197501
2	0x3d8080d6	0.062745735
3	0x3e330cb7	0.17485319
4	0x3dae3c0a	0.08507545
5	0x3dba9507	0.09110456
6	0x3e14e775	0.14541419
7	0x3d976d1b	0.07393857
8	0x3d6acd39	0.05732462
9	0x3e16b249	0.14716448
10	0x3dfea456	0.12433688
11	0x3e429909	0.19003691
12	0x3da764c6	0.08173518
13	0x3dbcd7fc	0.09220883
14	0x3e05f0a4	0.13080078
15	0x3d611dd3	0.054960083

classifier.10.weight f4 [10, 16]
0	0xbe37fc18	-0.1796726
1	0xbef12314	-0.47097075
2	0xbe15a6ca	-0.14614406
3	0xbea41ccf	-0.3205323
4	0xbec14a03	-0.3775178
5	0xbe60e012	-0.21960476
6	0xbdbea284	-0.09308341
7	0xbe396ed1	-0.1810868
8	0xbef00323	-0.46877393
9	0xbeab9209	-0.33509853
10	0xbf04035d	-0.5156763
11	0x3eb8a2fe	0.36061853
12	0x3f0b42e7	0.5439896
13	0x3f142463	0.5786802
14	0xbe955b39	-0.2917116
15	0xbdce8743	-0.10084393
16	0xbe85877c	-0.2607993
17	0xbd3b32f8	-0.045702904
18	0xbeff5cca	-0.4987548
19	0xbe258d88	-0.16167271
20	0xbe31c7dc	-0.17361397
21	0xbef35ea9	-0.47533157
22	0xbea9065f	-0.33012673
23	0x3ef0840f	0.46975753
24	0x3ef27a6b	0.47359022
25	0x3f135c4e	0.5756272
26	0xbde08768	-0.10963327
27	0xbdfa1932	-0.12211837
28	0xbd3e615a	-0.04647956
29	0xbd849dea	-0.06475432
30	0xbeed242b	-0.46316656
31	0xbe9b1dc2	-0.3029614
32	0xbeb30760	-0.34966564
33	0xbc43ea08	-0.011957653
34	0x3d590d7c	0.052991375
35	0x3ec64a9a	0.3872879
36	0x3effd3cc	0.49966276
37	0x3eeb0c1c	0.45907676
38	0xbeafb48e	-0.3431744
39	0xbe67efb5	-0.22650035
40	0xbe9370f7	-0.28797123
41	0xbec78e3a	-0.38975698
42	0xbee220b2	-0.4416557
43	0xbddb13ba	-0.10697122
44	0xbec448a6	-0.38336676
45	0xbe7061ad	-0.2347476
46	0xbee277cf	-0.44232032
47	0x3e91850e	0.28421825
48	0x3ef05afa	0.4694441
49	0xbee4f3e1	-0.44717315
50	0xbeb717a5	-0.35760227
51	0xbeff7b85	-0.49898925
52	0xbe4656ea	-0.19369093
53	0x3e9c99cf	0.30586097
54	0xbf16a929	-0.5885187
55	0xbdf72af2	-0.12068738
56	0x3e1dce17	0.15410648
57	0xbe20c69a	-0.1570076
58	0xbf0264c0	-0.5093498
59	0xbf05aec4	-0.52219796
60	0x3e35879b	0.1772751
61	0xbea01f93	-0.3127409
62	0x3e7540a3	0.23950438
63	0x3ec3525b	0.3814877
64	0xbd9837d0	-0.074325204
65	0xbe16d07e	-0.14727971
66	0x3f0333ca	0.512509
67	0x3ea941c8	0.33058
68	0x3f0a18e6	0.5394424
69	0xbe41c956	-0.1892446
70	0xbed06299	-0.40700224
71	0x3f0345c5	0.51278335
72	0xbef1a731	-0.4719787
73	0xbe5f99d7	-0.21836029
74	0xbe91072b	-0.2832578
75	0xbf03e4a0	-0.5152073
76	0xbe981e61	-0.29710677
77	0xbe0e8593	-0.13918142
78	0xbe3d5720	-0.18490267
79	0xbed28a41	-0.41121104
80	0x3e458ac2	0.19291213
81	0x3f1c0c6f	0.6095647
82	0xbed17f48	-0.4091742
83	0xbee9223b	-0.45533928
84	0xbecb5970	-0.39716673
85	0xbe5ac9a8	-0.21365988
86	0x3ed9d9ae	0.4254889
87	0x3ead22f9	0.33815745
88	0xbf0b9acd	-0.5453308
89	0xbed4af8b	-0.4154018
90	0xbecacdc7	-0.3961012
91	0xbe4204d7	-0.18947159
92	0x3d821d07	0.06353193
93	0xbe8f59da	-0.2799824
94	0xbde8d65a	-0.11369009
95	0xbd1fb823	-0.038993966
96	0xbe139599	-0.14412536
97	0xbeeb7db3	-0.45994338
98	0x3ecbed21	0.39829352
99	0x3ee7e494	0.4529158
100	0xbf0738fd	-0.5282133
101	0x3ebadb17	0.36495277
102	0xbe942ee8	-0.28942037
103	0xbd93a5f0	-0.072093844
104	0xbc309855	-0.010778506
105	0xbee60bc2	-0.44930845
106	0xbe7cfcbd	-0.24705787
107	0xbdb785f6	-0.08961098
108	0x3e9d1e8c	0.30687368
109	0x3e8b54ba	0.2721308
110	0xbf048e5c	-0.51779723
111	0xbee5e6d1	-0.4490266
112	0x3e1748dd	0.14773889
113	0xbee77e45	-0.45213524
114	0x3eaa1123	0.332162
115	0xbe80e4f7	-0.25174686
116	0xbd9e526c	-0.077305645
117	0xbeff3f5e	-0.49853033
118	0x3e80daff	0.2516708
119	0xbf03af3d	-0.5143927
120	0xbe96bb47	-0.29439756
121	0x3eb11bf9	0.34591654
122	0x3efdb08a	0.4954875
123	0xbe7eeaa2	-0.24894193
124	0xbeb87fa3	-0.3603488
125	0xbe0aeb9a	-0.13566437
126	0x3e900625	0.28129688
127	0xbf051df5	-0.51998836
128	0xbedd919a	-0.43275148
129	0xbec000c5	-0.37500587
130	0xbe96c35d	-0.29445925
131	0xbea2ee62	-0.31822497
132	0x3ee1178d	0.4396328
133	0xbeba4fb5	-0.36388937
134	0xbeabe396	-0.33572072
135	0xbea94454	-0.33059943
136	0x3f003960	0.5008755
137	0xbe31a965	-0.17349775
138	0xbe587f4f	-0.21142314
139	0x3eff4311	0.49855855
140	0xbe6ee8f7	-0.23331057
141	0xbea539f6	-0.32270783
142	0x3d8f34b4	0.06992474
143	0xbf039083	-0.5139238
144	0xbe9bd8ae	-0.3043875
145	0x3ecb1627	0.39665338
146	0xbddfaae1	-0.109212644
147	0xbec15812	-0.37762505
148	0x3ca21c7e	0.019788977
149	0xbf07f833	-0.53113097
150	0xbe28bc9d	-0.164782
151	0xbf01b367	-0.5066437
152	0xbee5143f	-0.4474201
153	0xbe2a0580	-0.1660366
154	0x3eeca3de	0.4621877
155	0xbeeb0b4d	-0.4590706
156	0xbeb7a85c	-0.35870636
157	0x3ebf1ebb	0.37328133
158	0xbee709e7	-0.45124742
159	0x3ed997c8	0.42498612

classifier.10.bias f4 [10]
0	0x3e891e2d	0.26780835
1	0xbd4dd898	-0.050255388
2	0xbda1f411	-0.0790788
3	0x3e514064	0.2043472
4	0xbd77e55c	-0.06052147
5	0xbdfd9382	-0.123816505
6	0x3e4db83b	0.2008981
7	0xbd77d2f7	-0.060503926
8	0x3e7d6cc3	0.2474852
9	0x3d0870c8	0.03331068

exp_avg f4 [16, 784]
0	0xb4bf59a0	-3.5641733e-07
1	0x35788c1f	9.25911e-07
2	0xb6ddb63b	-6.6075277e-06
3	0xb7a3337a	-1.9455085e-05
4	0xb82cc73b	-4.1193543e-05
5	0x38cef0cb	9.867697e-05
6	0x391477ae	0.00014158964
7	0x37454894	1.1759013e-05
8	0x3966f7d9	0.0002202684
9	0x3986fb59	0.0002574574
10	0x3634ce02	2.6942002e-06
11	0xb964af23	-0.00021809018
12	0x39142c59	0.000141309
13	0x391cfbc7	0.00014971114
14	0xb9bde5c5	-0.0003622008
15	0xb9b56cb4	-0.00034604
16	0x391c8445	0.00014926594
17	0x3a65a539	0.0008760277
18	0x39db9846	0.00041884388
19	0xb9bbcf05	-0.0003582166
20	0x38898e61	6.559189e-05
21	0x38c34c42	9.312529e-05
22	0x3898c233	7.284097e-05
23	0x37c423dc	2.3381719e-05
24	0xb88847a6	-6.498331e-05
25	0xb75924b5	-1.2942754e-05
26	0xb68d8a70	-4.2182437e-06
27	0xb4bcd8ad	-3.517538e-07
28	0xb529e94a	-6.3296886e-07
29	0xb5d63092	-1.5958378e-06
30	0xb7824db1	-1.5533386e-05
31	0xb84ad4d2	-4.8358757e-05
32	0x37d07f82	2.4854908e-05
33	0x398404a3	0.00025180457
34	0x3946b1d0	0.00018948992
35	0x39c16619	0.00036887897
36	0x3a191a22	0.0005840381
37	0x390642b9	0.00012804092
38	0x39675a9f	0.00022063636
39	0x39c96d42	0.0003841911
40	0x39dbd339	0.00041928308
41	0x3a36bc45	0.00069708034
42	0x3a572d42	0.0008208343
43	0x3a8279ea	0.0009954546
44	0x3a596ce3	0.00082941185
45	0x3980ee38	0.0002459155
46	0x3a19b1ff	0.00058630103
47	0x3a137726	0.00056253595
48	0x3a531dfc	0.0008053479
49	0x39fa3d75	0.00047729505
50	0x3982bd98	0.0002493679
51	0xb8dbceea	-0.000104812745
52	0xb9b109b8	-0.00033767312
53	0xb7cd3711	-2.4463547e-05
54	0xb77f0af6	-1.52017365e-05
55	0x3616cf59	2.2472434e-06
56	0xb4c521e2	-3.6718762e-07
57	0xb61ba5bd	-2.3193272e-06
58	0xb83f83fe	-4.5660876e-05
59	0xb60c519a	-2.0909124e-06
60	0x398b6f1f	0.00026594938
61	0x39b42739	0.000343615
62	0x3a0d2b24	0.00053851516
63	0x3a658dfa	0.0008756813
64	0x3a3b248d	0.00071389304
65	0x3a33694e	0.0006844
66	0x3a0e95fe	0.00054392207
67	0x3a26d16a	0.00063636026
68	0x39d1ce33	0.00040017217
69	0x3992cc78	0.0002799963
70	0x3a1716db	0.00057635986
71	0x3a1c1c0e	0.0005955108
72	0x3a47f860	0.00076282583
73	0x3a1a5383	0.0005887078
74	0x3a689af2	0.00088731863
75	0x3a899fed	0.0010499932
76	0x3a830c7d	0.0009998229
77	0x3ae7bad1	0.0017679577
78	0x3a44077e	0.0007477923
79	0xb901f16a	-0.00012392332
80	0xb9ad1c6f	-0.00033018316
81	0xb9260446	-0.00015832586
82	0xb81cab0e	-3.7352605e-05
83	0xb652bcc4	-3.1402315e-06
84	0x33f3be15	1.1350145e-07
85	0xb7acb0e7	-2.0586374e-05
86	0x37ece9cd	2.8242264e-05
87	0x385d71e5	5.279658e-05
88	0x3922157f	0.00015457532
89	0x396d369f	0.00022622429
90	0x3a8fce51	0.0010971521
91	0x3a987356	0.0011631052
92	0x3a9b716d	0.0011859365
93	0x39f0c4a6	0.00045922882
94	0x39de9251	0.00042452154
95	0x3a384191	0.0007028813
96	0x398c866c	0.00026803033
97	0x3a02adf1	0.0004985026
98	0x39701d76	0.00022899159
99	0x398aa8d9	0.00026447212
100	0x39d3b91f	0.00040382982
101	0xb9c45ca8	-0.00037453067
102	0x3a25871f	0.0006314385
103	0x39de481f	0.00042396874
104	0x3a945b4d	0.0011318714
105	0x3acb3748	0.0015504146
106	0x3a72ee39	0.00092670653
107	0xb9555f3d	-0.00020348742
108	0xb9592919	-0.00020710043
109	0xb988e4be	-0.00026110368
110	0xb8ae1157	-8.300196e-05
111	0xb7b2c7d6	-2.131231e-05
112	0xb6373705	-2.730115e-06
113	0xb6ac48c1	-5.134469e-06
114	0xb7c3cd6b	-2.3341467e-05
115	0xb8248984	-3.922872e-05
116	0xb95a866b	-0.00020840175
117	0x388a2f1a	6.589126e-05
118	0x3a95d61a	0.0011431605
119	0x3a4b731e	0.0007760989
120	0x3a93b581	0.0011269302
121	0x3a178bab	0.0005781005
122	0x39e960ae	0.00044513255
123	0x39fb0f62	0.00047885912
124	0x397b7c4f	0.00023983534
125	0x39c14d32	0.00036869344
126	0x3831649a	4.229378e-05
127	0xb7870939	-1.6097549e-05
128	0xb9f8330e	-0.00047340285
129	0xba14e5a3	-0.00056799705
130	0xb9cd1375	-0.00039115144
131	0x37ccaf22	2.4400248e-05
132	0x3a19269f	0.0005842242
133	0x3a8a8ba6	0.0010570183
134	0x3a3a54c1	0.0007107966
135	0xb92e6bce	-0.00016634093
136	0xba1b8086	-0.0005931932
137	0xb97820f4	-0.00023663399
138	0xb9428959	-0.00018552448
139	0xb89d3954	-7.4970216e-05
140	0x34f9b6ef	4.6512966e-07
141	0x37612809	1.34203665e-05
142	0xb8faba06	-0.000119555785
143	0xb90a5ae0	-0.00013194559
144	0xb8b86819	-8.7931934e-05
145	0x39ba5f09	0.0003554749
146	0x3a9225d4	0.001115019
147	0x3a422179	0.00074055005
148	0x3a8b9f1c	0.0010652277
149	0x376d9343	1.4160588e-05
150	0x3a1ddf8f	0.00060223875
151	0x39910eb9	0.00027667524
152	0x394bd35d	0.00019438328
153	0xb782252c	-1.5514517e-05
154	0x39a66603	0.00031737992
155	0xb942072f	-0.00018503958
156	0xb93a7031	-0.00017780137
157	0xb9f8f5a4	-0.00047485263
158	0xba434fe9	-0.0007450567
159	0xb90ddd37	-0.00013529217
160	0x3987fd0a	0.00025937735
161	0x3a411846	0.0007365983
162	0x3970861d	0.00022938145
163	0xb993c7cd	-0.00028186888
164	0xba6e6dce	-0.00090953417
165	0xba1c4684	-0.00059614354
166	0xb9d37869	-0.0004033477
167	0xb90aa01f	-0.00013220355
168	0x36ae82ba	5.2008227e-06
169	0xb79b1d12	-1.8490977e-05
170	0x38ed1bb2	0.00011306199
171	0x3950857b	0.00019886151
172	0xb789ed87	-1.644228e-05
173	0x3a1cb198	0.0005977391
174	0x3aba4bbc	0.0014213244
175	0x3a685a50	0.0008863555
176	0x3a1f0078	0.00060654385
177	0x3917a5a0	0.00014462182
178	0x3a19a93f	0.00058617064
179	0x3a582bc7	0.00082462694
180	0x3a5263ea	0.00080257526
181	0x38b47c91	8.606271e-05
182	0xb9d40d82	-0.00040445855
183	0xb9bebc2e	-0.0003637983
184	0xb9f95e57	-0.0004756327
185	0xba982d30	-0.0011610147
186	0xba8024a6	-0.0009776547
187	0xb9d657c2	-0.00040882645
188	0x38e69df9	0.00010996679
189	0x3a8d58e8	0.0010783942
190	0x39c5ca7f	0.0003772564
191	0x37650ee4	1.3652931e-05
192	0xba0a301d	-0.00052714517
193	0xba081bba	-0.000519212
194	0xb9823721	-0.00024836606
195	0xb86f13cd	-5.700048e-05
196	0x371cc5ab	9.344348e-06
197	0xb84beca9	-4.861938e-05
198	0x39404e68	0.00018339755
199	0x3989015c	0.0002613169
200	0x391e247a	0.00015081643
201	0x38d31205	0.000100646204
202	0x3a9e0e70	0.0012058746
203	0x3a90d12c	0.0011048666
204	0x39a26f3e	0.0003098193
205	0x399e2371	0.00030162514
206	0x3a45af33	0.00075410603
207	0x3a28e127	0.0006442242
208	0x3a2f836a	0.00066953024
209	0xb7567105	-1.2781708e-05
210	0xba534963	-0.00080599467
211	0xba5d0ea1	-0.0008432661
212	0xba8076cc	-0.0009801029
213	0xba5f20e1	-0.0008511674
214	0xba8157a5	-0.0009868039
215	0xba3a4c09	-0.0007106667
216	0x399b48a0	0.00029618014
217	0x3a271375	0.0006373444
218	0x393ee6b1	0.00018205751
219	0xb9a32d2e	-0.00031123444
220	0xba72919f	-0.00092532666
221	0xba0f83df	-0.00054746674
222	0xb984dca7	-0.000253414
223	0xb90d0af1	-0.00013450884
224	0xb62fac7a	-2.6177427e-06
225	0xb8ba7b9a	-8.892194e-05
226	0x394d422d	0.00019574976
227	0x38fdb6a9	0.00012098003
228	0xb7588fd2	-1.2908089e-05
229	0x39863d0d	0.00025603958
230	0x3a5f3e21	0.0008516033
231	0x3aa9dc30	0.0012959298
232	0x39c23ff6	0.00037050218
233	0x3a2ee9e0	0.00066724233
234	0x3a47e0bc	0.00076247356
235	0x3923c0b4	0.00015616679
236	0x3a0cc6c0	0.0005370192
237	0x39179e7b	0.00014459521
238	0xba79b4df	-0.0009525548
239	0xba5f3416	-0.00085145363
240	0xba933a50	-0.0011232588
241	0xbaaa4c9a	-0.00129928
242	0xba876b9d	-0.0010331754
243	0xba251a20	-0.00062981434
244	0x3a2381fc	0.0006237326
245	0x3910b418	0.000138
246	0xba2d2d3d	-0.00066061673
247	0xba2f37fc	-0.00066840625
248	0xba8ef1de	-0.0010905822
249	0xba6f9ee5	-0.00091408036
250	0xb9eff679	-0.0004576927
251	0xb99b035e	-0.00029566413
252	0x3773b59d	1.4526214e-05
253	0x37672956	1.3778297e-05
254	0x393e0ebc	0.00018125301
255	0x388bcd29	6.6662506e-05

exp_avg_sq f4 [16, 784]
0	0x2c8f01de	4.0645117e-12
1	0x2d329878	1.0151983e-11
2	0x2f92cb4c	2.6701696e-10
3	0x31f160d8	7.025033e-09
4	0x32510acf	1.2167859e-08
5	0x3334498b	4.1976403e-08
6	0x33d85e7f	1.00754725e-07
7	0x34534e56	1.9679405e-07
8	0x350b97b9	5.200232e-07
9	0x359ae8bd	1.154163e-06
10	0x3607f805	2.0260934e-06
11	0x360400e2	1.9670047e-06
12	0x35ccb018	1.5250434e-06
13	0x35cddd49	1.5338093e-06
14	0x35e1d0a0	1.6824524e-06
15	0x35d5cd05	1.5929405e-06
16	0x35f98ac4	1.8592332e-06
17	0x36175cf9	2.255487e-06
18	0x35eea752	1.7781078e-06
19	0x3551b4c6	7.812163e-07
20	0x34bc0cb4	3.5026972e-07
21	0x34342255	1.6776296e-07
22	0x3392e081	6.839492e-08
23	0x33283008	3.9159232e-08
24	0x32a9572d	1.9713832e-08
25	0x322b2cdb	9.963709e-09
26	0x3133a00e	2.6138909e-09
27	0x2fc58d83	3.593464e-10
28	0x2d1259fc	8.31912e-12
29	0x2e359121	4.1283536e-11
30	0x31dfed8c	6.51716e-09
31	0x32ef285c	2.7841615e-08
32	0x33e93879	1.086018e-07
33	0x34a1552e	3.0050563e-07
34	0x3570579a	8.9534444e-07
35	0x360964b7	2.0473215e-06
36	0x3676bde2	3.6767383e-06
37	0x36ad3c3d	5.1628144e-06
38	0x36d20171	6.2586555e-06
39	0x36cf8310	6.1843384e-06
40	0x36ca2353	6.0241814e-06
41	0x36bf3f5f	5.699621e-06
42	0x36c3a372	5.8304804e-06
43	0x36bf1a49	5.6953036e-06
44	0x36c28d52	5.7981024e-06
45	0x36d2677f	6.2705362e-06
46	0x36c971b2	6.0035027e-06
47	0x368bd20a	4.1669746e-06
48	0x363d75f9	2.8231864e-06
49	0x35be6298	1.4184798e-06
50	0x3525b073	6.172406e-07
51	0x34990a3b	2.8505914e-07
52	0x33fc76d8	1.1756282e-07
53	0x334cde26	4.7699494e-08
54	0x324c5885	1.189449e-08
55	0x3009c0c6	5.0114257e-10
56	0x2e4b57fa	4.6234995e-11
57	0x2f8e0c35	2.5838323e-10
58	0x323f568b	1.1137341e-08
59	0x336b0d52	5.4727316e-08
60	0x3445d8a9	1.8425875e-07
61	0x3545815d	7.357647e-07
62	0x3604f021	1.9809306e-06
63	0x3642fd2b	2.9055616e-06
64	0x368705cb	4.023988e-06
65	0x36a431ae	4.8933643e-06
66	0x36c9cae6	6.0138873e-06
67	0x36c4bc9e	5.863213e-06
68	0x36be028c	5.6627377e-06
69	0x36b89e52	5.5020582e-06
70	0x36bb6056	5.5842493e-06
71	0x36ba00c9	5.5433234e-06
72	0x36bfb375	5.713135e-06
73	0x36c6af6a	5.9212807e-06
74	0x36bf296f	5.697067e-06
75	0x369a153a	4.5920287e-06
76	0x368170e6	3.8576427e-06
77	0x36402c76	2.863611e-06
78	0x35b3555f	1.3361386e-06
79	0x352a958b	6.354755e-07
80	0x3496df1c	2.810201e-07
81	0x33cad15d	9.444441e-08
82	0x330f9ce6	3.343748e-08
83	0x315421b1	3.0869212e-09
84	0x2f124041	1.330145e-10
85	0x31745dd6	3.5560013e-09
86	0x32df2318	2.5976576e-08
87	0x33cb7d5f	9.475729e-08
88	0x34c34dfc	3.6378322e-07
89	0x359864b2	1.1354189e-06
90	0x36169c7e	2.2442832e-06
91	0x365b100b	3.2642881e-06
92	0x368f7ca5	4.2762426e-06
93	0x36a5cc1f	4.941146e-06
94	0x36c6c640	5.923939e-06
95	0x36bb3eea	5.5803584e-06
96	0x36b68be5	5.4403085e-06
97	0x36bdd05b	5.6568947e-06
98	0x36ce2ffd	6.144865e-06
99	0x36c50d65	5.872617e-06
100	0x36bf5d1f	5.7030843e-06
101	0x36c96f2d	6.0032094e-06
102	0x36c67cc7	5.915386e-06
103	0x36a58dc3	4.9338864e-06
104	0x3681b887	3.8659814e-06
105	0x36531c70	3.1458003e-06
106	0x360a6db4	2.0627458e-06
107	0x358c886c	1.0470517e-06
108	0x351b0fce	5.7765e-07
109	0x3458218e	2.0128775e-07
110	0x3370fbd0	5.6108377e-08
111	0x31f12620	7.0183575e-09
112	0x3094093e	1.0771044e-09
113	0x311b8dd6	2.2636093e-09
114	0x32e809b1	2.7012762e-08
115	0x34081ab4	1.2675702e-07
116	0x350079d8	4.786102e-07
117	0x35b524e7	1.3496291e-06
118	0x3630bf32	2.6337334e-06
119	0x365ff172	3.337013e-06
120	0x3684679d	3.9459687e-06
121	0x36a7d6c6	5.0019908e-06
122	0x36bd82ce	5.6478666e-06
123	0x36b47e9a	5.3791564e-06
124	0x36c07960	5.736176e-06
125	0x36c64f16	5.9100666e-06
126	0x36d66127	6.389007e-06
127	0x36cfe0c2	6.195246e-06
128	0x36db856e	6.542242e-06
129	0x36df9513	6.6632724e-06
130	0x36d82ceb	6.442531e-06
131	0x36b578c4	5.4082793e-06
132	0x36908c12	4.3078408e-06
133	0x367e353e	3.787994e-06
134	0x362f8b34	2.615806e-06
135	0x35c9ff92	1.5050048e-06
136	0x356968ff	8.6952053e-07
137	0x34dcf253	4.1154507e-07
138	0x340ae331	1.2934903e-07
139	0x32ae0357	2.0257785e-08
140	0x311a704c	2.2473783e-09
141	0x320e7055	8.291029e-09
142	0x3394f3e2	6.936149e-08
143	0x342a79a5	1.5876738e-07
144	0x3521ba20	6.024802e-07
145	0x35d03620	1.551296e-06
146	0x3635d51b	2.7095145e-06
147	0x3651ba41	3.125184e-06
148	0x36836455	3.9157844e-06
149	0x36a658f2	4.95754e-06
150	0x36bb59e7	5.5835003e-06
151	0x36ab65ae	5.108034e-06
152	0x36aca745	5.145472e-06
153	0x36c0bf19	5.7442926e-06
154	0x36d29002	6.2752524e-06
155	0x36de9351	6.6332655e-06
156	0x36f039fb	7.159307e-06
157	0x36fdcdc8	7.5639437e-06
158	0x36fb4e22	7.489479e-06
159	0x36dd018d	6.586494e-06
160	0x36a4859c	4.903135e-06
161	0x36956c9d	4.4531903e-06
162	0x365407ec	3.1595073e-06
163	0x360ef023	2.1299427e-06
164	0x35c04c2d	1.4327285e-06
165	0x354a35fa	7.532941e-07
166	0x34a637da	3.0960547e-07
167	0x32eb354d	2.7381839e-08
168	0x31e24082	6.5847994e-09
169	0x32d6ade1	2.499195e-08
170	0x33e1874a	1.0501988e-07
171	0x349fe9eb	2.9786256e-07
172	0x35649637	8.515521e-07
173	0x35da1bd0	1.625036e-06
174	0x36301743	2.6239584e-06
175	0x363dae6e	2.8264726e-06
176	0x36848c89	3.950267e-06
177	0x36a95860	5.0468807e-06
178	0x36b062c7	5.256708e-06
179	0x36a62409	4.9513806e-06
180	0x36a69c1d	4.9653595e-06
181	0x36baabe3	5.563242e-06
182	0x36ca5cbd	6.0308653e-06
183	0x36e34a2e	6.773763e-06
184	0x36fd8292	7.555188e-06
185	0x370b3b31	8.298827e-06
186	0x37115c1c	8.664119e-06
187	0x3706adc8	8.027484e-06
188	0x36b6d5fa	5.448933e-06
189	0x36b01c7f	5.248526e-06
190	0x36845d2b	3.9447527e-06
191	0x364356ee	2.9107864e-06
192	0x361a4ff4	2.2994327e-06
193	0x35d07dfe	1.5533876e-06
194	0x352eac4d	6.507078e-07
195	0x335e378f	5.1738933e-08
196	0x321ac308	9.008325e-09
197	0x33936645	6.8638236e-08
198	0x3463b4ce	2.1206799e-07
199	0x34f8ecb8	4.6365835e-07
200	0x35978480	1.1288939e-06
201	0x35e2e8e7	1.6906096e-06
202	0x36340a38	2.6828038e-06
203	0x363e42f8	2.8351187e-06
204	0x367b2751	3.74248e-06
205	0x36ab3151	5.1019383e-06
206	0x36b1a7ce	5.294546e-06
207	0x36aaabd0	5.0863964e-06
208	0x36a7e3bb	5.003499e-06
209	0x36af5ca4	5.226191e-06
210	0x36c5ad4e	5.891233e-06
211	0x36ee4870	7.1013856e-06
212	0x370a4fd9	8.244032e-06
213	0x3724ac3d	9.815264e-06
214	0x37389f51	1.1004348e-05
215	0x3732c3b0	1.0655189e-05
216	0x370a3067	8.2367105e-06
217	0x36f0d79a	7.1776567e-06
218	0x36ba04f9	5.543811e-06
219	0x368fc895	4.285083e-06
220	0x367cdfb4	3.7681139e-06
221	0x364142e3	2.8798174e-06
222	0x35a557ad	1.2318975e-06
223	0x33f3a72f	1.134598e-07
224	0x32e09320	2.6143937e-08
225	0x3443f1df	1.8248782e-07
226	0x34c284bd	3.6231896e-07
227	0x35409631	7.174413e-07
228	0x35d917d1	1.6174691e-06
229	0x360c0cb2	2.0869015e-06
230	0x36300f3a	2.6234907e-06
231	0x364eec83	3.083406e-06
232	0x36807c5e	3.8291755e-06
233	0x36bc678a	5.61489e-06
234	0x36b251b1	5.3143235e-06
235	0x36a800d8	5.0068884e-06
236	0x36b1812e	5.2900496e-06
237	0x36ba0a63	5.544441e-06
238	0x36d5448b	6.355874e-06
239	0x36efe40b	7.1493027e-06
240	0x3719032b	9.120248e-06
241	0x37334d98	1.0687298e-05
242	0x3745536a	1.1761536e-05
243	0x3750242c	1.2406188e-05
244	0x3738afe0	1.1008204e-05
245	0x3726becc	9.938794e-06
246	0x370e6f3c	8.489758e-06
247	0x36f61fef	7.335089e-06
248	0x36d708b1	6.408511e-06
249	0x36a8bbd9	5.0286585e-06
250	0x3608c72a	2.0381508e-06
251	0x345e9d3b	2.0732561e-07
252	0x334bf677	4.748878e-08
253	0x349b3e87	2.8916494e-07
254	0x3528baa4	6.2856475e-07
255	0x35a80a45	1.2519964e-06

exp_avg f4 [16]
0	0xaebdb779	-8.627316e-11
1	0x2f3797a8	1.6697632e-10
2	0xaea70919	-7.595897e-11
3	0x31a0ce23	4.680048e-09
4	0x2e24318f	3.73333e-11
5	0x2f144d88	1.3488066e-10
6	0x301a0459	5.603105e-10
7	0xaf6023f9	-2.0385461e-10
8	0x2f2d4d10	1.5761636e-10
9	0xb0657524	-8.347618e-10
10	0xb0921109	-1.062774e-09
11	0xaea653c3	-7.563685e-11
12	0x2f89599f	2.4983834e-10
13	0xb0ad3c8a	-1.2604613e-09
14	0x30171848	5.4967986e-10
15	0xb08c9631	-1.0229028e-09

exp_avg_sq f4 [16]
0	0x213b329f	6.342506e-19
1	0x2187393d	9.163107e-19
2	0x2174241c	8.2718206e-19
3	0x2302e050	7.094814e-18
4	0x21d517b9	1.4439721e-18
5	0x208a66f8	2.3446248e-19
6	0x21b9e773	1.2597352e-18
7	0x222f331b	2.3743978e-18
8	0x2116eb71	5.113358e-19
9	0x22ba1501	5.043764e-18
10	0x21e9d767	1.5845711e-18
11	0x206e2bf9	2.0173933e-19
12	0x21abe5f2	1.1648277e-18
13	0x21bd9adb	1.2848128e-18
14	0x211a5b65	5.229819e-19
15	0x21eb6c0e	1.5952821e-18

exp_avg f4 [16]
0	0xbadffac0	-0.0017088279
1	0x393f4fbc	0.00018244883
2	0xb9e04bd3	-0.00042781103
3	0x3b40ce55	0.0029419858
4	0xbb218828	-0.0024647806
5	0x398db3f5	0.00027027694
6	0x39eced78	0.00045190356
7	0xbb098f2b	-0.0020989876
8	0x38c10596	9.2039976e-05
9	0xbab030e9	-0.0013442311
10	0xbb1e27ac	-0.0024132533
11	0xb9b18bfe	-0.00033864373
12	0x382a5703	4.0612194e-05
13	0xba9eec7d	-0.0012124922
14	0x3a307d48	0.00067325355
15	0x3c018dc6	0.007907337

exp_avg_sq f4 [16]
0	0x37c2df3c	2.3230554e-05
1	0x3765fd58	1.370845e-05
2	0x3777d197	1.4771146e-05
3	0x37aab836	2.035136e-05
4	0x383105fc	4.2205662e-05
5	0x3803fea9	3.1470005e-05
6	0x37ac68f5	2.0552872e-05
7	0x372e5595	1.0391134e-05
8	0x37193c10	9.133495e-06
9	0x37caaee1	2.416171e-05
10	0x370a6d98	8.250958e-06
11	0x3744f322	1.1739119e-05
12	0x36ea0c23	6.9751563e-06
13	0x3724aa29	9.81478e-06
14	0x37bdba97	2.2617443e-05
15	0x383af564	4.4574394e-05

exp_avg f4 [16]
0	0xbab17352	-0.0013538396
1	0x3b078dd3	0.00206839
2	0x3b242657	0.0025047266
3	0x3b5f20b7	0.00340466
4	0xba2cd922	-0.00065936346
5	0xbab8b811	-0.0014092942
6	0x3accf4c4	0.0015636911
7	0xbb252aef	-0.0025202592
8	0x3acd0b23	0.0015643578
9	0xbac6d3f3	-0.0015169367
10	0xbb1de898	-0.0024094936
11	0xba23942b	-0.0006240035
12	0x3a83c349	0.0010052706
13	0x3a6e704c	0.0009095713
14	0x3ab5be3b	0.0013865897
15	0x3a80bd8d	0.0009822116

exp_avg_sq f4 [16]
0	0x37bc59c6	2.245315e-05
1	0x37a916c8	2.0156978e-05
2	0x37d014fb	2.4805302e-05
3	0x37d8dd57	2.5852276e-05
4	0x37bea087	2.2724516e-05
5	0x37bf32fb	2.2792714e-05
6	0x3813bf24	3.5225545e-05
7	0x384ed2fc	4.931072e-05
8	0x36f554ab	7.3114256e-06
9	0x37ae8152	2.0802636e-05
10	0x37a68fac	1.9855644e-05
11	0x376d4fa3	1.4144843e-05
12	0x37855403	1.5893957e-05
13	0x37ceb8da	2.4643192e-05
14	0x378eb667	1.7012657e-05
15	0x381bf665	3.7184353e-05
