lightning_logs/version_3/checkpoints/model-epoch=19-val_loss=0.43-1.ckpt (torch, 185102 bytes, 48 tensors)

classifier.1.weight f4 [16, 784]
0	0x3c85f145	0.016350398
1	0x3d72fa87	0.059320953
2	0x3d8d273e	0.068922505
3	0xbdb48dd1	-0.08816112
4	0x3d202a73	0.039102983
5	0x3da39660	0.07987666
6	0x3d81f110	0.06344807
7	0xbae53b81	-0.0017489047
8	0xbdbdcf9c	-0.09268114
9	0x3bbed636	0.005823876
10	0x3c7e07b2	0.015504764
11	0xbcef4147	-0.029205931
12	0x3cda5fdf	0.026657043
13	0xbdf52e71	-0.119717486
14	0xbdd12d83	-0.10213759
15	0xbd98245a	-0.074288085
16	0xbc8ae97b	-0.016957035
17	0x3d0e99f0	0.034814775
18	0x3ce41109	0.027840154
19	0x3d6d2fb7	0.057906833
20	0x3cd58c23	0.026067799
21	0x3cb50550	0.02209726
22	0x3d94d93c	0.07267997
23	0x3d711b6e	0.05886405
24	0x3d8be818	0.06831378
25	0xbd9549b4	-0.072894484
26	0x3d7b052a	0.06128422
27	0x3ce8e292	0.02842835
28	0x3d93d75b	0.0721881
29	0x3d5b880a	0.053596534
30	0x3a22a4b8	0.00062043546
31	0xbd8ace60	-0.06777644
32	0x3d5bf997	0.053704824
33	0xbc1eb618	-0.009686969
34	0x3d3248e3	0.04352654
35	0xbb8fe8fd	-0.004391788
36	0xbbe792b9	-0.0070670513
37	0x3c4f22e4	0.012642596
38	0xbbca70d6	-0.006178002
39	0x3c93023a	0.017945398
40	0x3c91abcb	0.017782113
41	0xbd24dc2d	-0.04024904
42	0xbd86433f	-0.06555795
43	0xbc8f9370	-0.017526358
44	0x3bdfce29	0.006829996
45	0x3d37e2ed	0.044894148
46	0xbc1e0a10	-0.009645954
47	0xbcd700bd	-0.02624547
48	0x3c31deaa	0.01085631
49	0x3d07d21f	0.03315937
50	0x3d2b2dac	0.041791603
51	0xbb12c99a	-0.0022397996
52	0x3d988c7c	0.0744867
53	0x3d483244	0.048876062
54	0xbba34c4e	-0.0049834615
55	0xbd1cd154	-0.03828557
56	0xbbd20f7d	-0.0064105378
57	0xbd566f4e	-0.052352242
58	0x3cfa0ef6	0.030524712
59	0xbda9f5bc	-0.08298823
60	0x3cb18736	0.021670919
61	0xbc3c2192	-0.011482613
62	0xbc12541e	-0.008931188
63	0x3d306ad9	0.043070648
64	0x3d4b47d2	0.04962904
65	0x3d4808e1	0.048836593
66	0x3c38701b	0.011257197
67	0x3d5a7392	0.053332873
68	0xbc66f7d8	-0.0140971765
69	0x3d00d29f	0.031450864
70	0xbbba39f7	-0.0056831795
71	0xbceb8bf2	-0.028753255
72	0xbcc5838f	-0.024110584
73	0x3cec6b36	0.028859716
74	0x3c8e34a1	0.01735908
75	0xbd40dde4	-0.04708661
76	0x3d57e0bc	0.052704558
77	0x3c11bfcd	0.0088958265
78	0xbc6e911b	-0.014560963
79	0x3cf24154	0.029572167
80	0x3d6ffd84	0.05859138
81	0xbbe4ea31	-0.0069859256
82	0xbc548bd2	-0.012972789
83	0xbd340499	-0.043949697
84	0xbbe8d8c6	-0.0071059195
85	0xbdb9ef6d	-0.0907887
86	0xbd9c1341	-0.0762086
87	0xbb097f25	-0.0020980325
88	0x3d528358	0.05139479
89	0x3cffc6f7	0.031222804
90	0xbce51b12	-0.02796701
91	0x3d805425	0.06266049
92	0x3d819a57	0.06328266
93	0x3d36a0b5	0.044586856
94	0x3cbb633f	0.022874473
95	0xbd1db327	-0.03850093
96	0xbbbfbaee	-0.005851141
97	0xbd29abbd	-0.041423548
98	0xbc3156cd	-0.010823918
99	0xbc91d7ea	-0.017803151
100	0xbd712a76	-0.058878385
101	0x3ce59a9b	0.028027823
102	0xbcfdf0fc	-0.0309987
103	0x398f4ef7	0.0002733392
104	0x3ba83029	0.0051326943
105	0x3cf5bc7c	0.029997103
106	0xbb1c0740	-0.0023808032
107	0xbc28bcfd	-0.010298965
108	0x3cd7f457	0.026361628
109	0xbc97d24e	-0.018532898
110	0x3acb193e	0.0015495194
111	0xbc3bfb3e	-0.011473475
112	0x3caef695	0.021357814
113	0xbd213da4	-0.039365426
114	0xbd1a396e	-0.037652425
115	0x3c096d30	0.008387849
116	0x3d982788	0.07429415
117	0x3d567707	0.052359607
118	0x3db97f04	0.090574294
119	0x3d407f75	0.046996552
120	0xbc3a47d9	-0.011369669
121	0xbc985234	-0.018593885
122	0x3cd38fb2	0.025825355
123	0x3a295cd7	0.00064606726
124	0x3cc0f6e9	0.023555236
125	0xbb17ac19	-0.002314335
126	0x3b2a073d	0.0025944256
127	0xbc230f40	-0.009952366
128	0xbb174777	-0.0023083368
129	0x3adb55cd	0.0016733945
130	0x3c4aaca5	0.012370263
131	0x3bb5d49a	0.0055490257
132	0x3d5dac12	0.054119177
133	0xb9f6542b	-0.00046983486
134	0xbbc2302a	-0.0059261518
135	0xbcb52a55	-0.022114912
136	0xbb340b32	-0.0027472493
137	0x3c4dae2f	0.012553736
138	0xbc9ba1f8	-0.018998131
139	0x3ce8716e	0.0283744
140	0xbdca35ca	-0.09873541
141	0xbd72d8f2	-0.059288926
142	0xbbf4a5e1	-0.0074660634
143	0xbb85de6c	-0.0040853526
144	0xbb44ac5c	-0.003000996
145	0x3d8040a8	0.06262332
146	0x3db5a029	0.08868439
147	0x3d50f5cb	0.051015656
148	0x3cd361b5	0.025803426
149	0x3cb0b567	0.021570874
150	0x3b9b3f24	0.0047377516
151	0x3c1f40bc	0.009720024
152	0xbcf39927	-0.029736115
153	0xbc420d44	-0.011843983
154	0xbc26e191	-0.010185615
155	0x3cdcc6e4	0.026950307
156	0xbcda1f5a	-0.026626278
157	0xbc51cc3a	-0.012805039
158	0x3b1088b2	0.0022054133
159	0x3cc1766e	0.023616042
160	0xbcb4116e	-0.021980967
161	0xbc95b3c7	-0.018274201
162	0x3cdadffa	0.026718128
163	0xbca324a9	-0.019914942
164	0x3d3c14e5	0.045918364
165	0x3bcdcf0f	0.006280787
166	0xbcc476be	-0.023982402
167	0xbc5b7bcc	-0.013396215
168	0xbd754271	-0.059877817
169	0xbc7ab551	-0.015302018
170	0xbdb8c1cd	-0.090213396
171	0xbd4ccaab	-0.049997967
172	0xbc60dadf	-0.013724058
173	0x3b8ffec7	0.0043943855
174	0x3d1aa89b	0.03775845
175	0x3c13feb8	0.009032898
176	0x3c8cf2ef	0.017205684
177	0x3d237f75	0.039916474
178	0x3cf3e260	0.02977103
179	0xbcad3301	-0.021142485
180	0xbc9fd853	-0.019512331
181	0x3b69faec	0.003570254
182	0xbc22a0fa	-0.009926075
183	0x3ba48d14	0.0050217006
184	0xbc3959cd	-0.011312914
185	0x3c833396	0.016015809
186	0x3bda50d2	0.0066624666
187	0x3d38f268	0.04515305
188	0xbc98dfd0	-0.01866141
189	0x3c568b3e	0.013094721
190	0xbc953d25	-0.018217633
191	0xba9b4ad6	-0.0011847864
192	0xbd20d5f7	-0.039266553
193	0xbd249e04	-0.040189758
194	0xbd117055	-0.03550752
195	0xbd4d0473	-0.05005307
196	0xbdb1ff9e	-0.08691333
197	0xbd82c33f	-0.063848965
198	0xbda69813	-0.081344746
199	0xbd2a293a	-0.041543223
200	0xbd34590a	-0.044030227
201	0x3c3ee9cc	0.011652421
202	0xbd2f7892	-0.042839594
203	0xbda04167	-0.078249745
204	0x3c0aafa3	0.008464727
205	0xbc8c771d	-0.017146641
206	0x3c182fe4	0.009288762
207	0xbcda8a4c	-0.026677273
208	0xbd993314	-0.074804455
209	0xbd02592e	-0.03182333
210	0xbd315a19	-0.043298814
211	0x3c1912af	0.009342833
212	0x3c201214	0.009769935
213	0xbbad9a76	-0.005297954
214	0x3d0c18a8	0.0342032
215	0x3d1215fe	0.035665505
216	0xbc038231	-0.0080266455
217	0x3bd184da	0.006394011
218	0xbc501afd	-0.012701747
219	0xbd39769c	-0.04527913
220	0xbc17595c	-0.0092376135
221	0xbc443466	-0.011975383
222	0x3cb084a1	0.021547617
223	0xbcca8159	-0.02471988
224	0xbd3774ab	-0.044788998
225	0xbbc773a4	-0.0060867835
226	0xbdb2445f	-0.08704447
227	0xbd384d34	-0.0449955
228	0x3b6fba5e	0.003657959
229	0xbc19c7b8	-0.009385996
230	0xbc81fdcc	-0.01586809
231	0xbd96f528	-0.073709786
232	0xbd5f65f0	-0.054540575
233	0xbc8a0122	-0.016846243
234	0xbd89bb01	-0.06725121
235	0xbd1a8e75	-0.037733514
236	0xbc65713c	-0.014004048
237	0xbba225ff	-0.004948377
238	0x3c8f6a7a	0.017506827
239	0x3a15cf6f	0.0005714809
240	0x3cdb2256	0.026749771
241	0x3bf1f2db	0.007383687
242	0x3d278f3b	0.04090808
243	0x3cffe8ee	0.031239
244	0xbc879a84	-0.016553171
245	0xbcaf377a	-0.021388758
246	0x3d3de1fa	0.046358086
247	0xbca083da	-0.019594122
248	0x3b838b78	0.0040144287
249	0x3bf057d3	0.007334688
250	0x3c51d16f	0.0128062805
251	0x3ccfe6f7	0.025378687
252	0xbd773534	-0.060353473
253	0xbd24f161	-0.04026926
254	0xbd85f4e2	-0.06540848
255	0xbd1c4089	-0.038147483

classifier.1.bias f4 [16]
0	0x3c00f1b1	0.007870124
1	0x3c20356d	0.009778363
2	0xbcf7a7dc	-0.030231409
3	0x3d188b00	0.037241936
4	0xbca5aad3	-0.020223057
5	0x3ca2db3f	0.019879935
6	0xbc8d581a	-0.017253924
7	0x3d06cf78	0.0329127
8	0x3d0f0230	0.034914196
9	0xbcc40fcb	-0.023933312
10	0xbd051d97	-0.032498922
11	0xbc8ef053	-0.01744858
12	0xbc5bbb00	-0.0134112835
13	0xbca400a5	-0.020019839
14	0x3d047b83	0.032344352
15	0x3c5001eb	0.01269577

classifier.2.weight f4 [16]
0	0x3f76cf47	0.9641003
1	0x3f809263	1.0044674
2	0x3f81ecef	1.0150431
3	0x3f914206	1.1348274
4	0x3f757a97	0.9589018
5	0x3f808b47	1.0042504
6	0x3f71797f	0.94326013
7	0x3f886dd4	1.0658517
8	0x3f6d49c6	0.92690694
9	0x3f70e767	0.9410309
10	0x3f8321a0	1.0244637
11	0x3f8046ea	1.0021641
12	0x3f74e90b	0.95668095
13	0x3f71a47a	0.94391596
14	0x3f87d230	1.0611019
15	0x3f72997b	0.9476544

classifier.2.bias f4 [16]
0	0xbdcdf688	-0.10056788
1	0xbe1b6ddf	-0.15178631
2	0xbd29de8d	-0.041472007
3	0xbca532bc	-0.020165794
4	0xbe2d6ab8	-0.16935241
5	0xbda10d77	-0.07863896
6	0xbe1d5f79	-0.15368451
7	0x3d86f49f	0.065896265
8	0xbe0dafc4	-0.1383658
9	0x3d6cf06e	0.05784648
10	0xbe0875db	-0.13326208
11	0x3caaa786	0.020831835
12	0xbda94d65	-0.08266715
13	0x3cd36eff	0.025809763
14	0xbe196af9	-0.14982213
15	0x3da3a6cb	0.079907976

classifier.2.running_mean f4 [16]
0	0x3fee46bf	1.861534
1	0x4080f31d	4.029677
2	0x3f8f6ecc	1.1205688
3	0x408d4ab6	4.41537
4	0xbff5cb0b	-1.9202589
5	0x3fc9bfef	1.5761698
6	0x402f83cf	2.74242
7	0x4016d733	2.3568847
8	0xbf3a9a36	-0.7289156
9	0x4089a00d	4.3007874
10	0x402ec708	2.730898
11	0xbf1506b3	-0.5821335
12	0x3d2fe3e4	0.042941943
13	0x401d39d3	2.4566543
14	0xbdeab40f	-0.11460125
15	0xbfb1de09	-1.3895885

classifier.2.running_var f4 [16]
0	0x3faf1dd4	1.3680978
1	0x3fe20caa	1.7660115
2	0x3f92eefd	1.1479183
3	0x3f7a8d20	0.9787159
4	0x3f987946	1.191201
5	0x408ae277	4.3401446
6	0x3fb68e3e	1.4262159
7	0x3fc31e4b	1.524362
8	0x3f15430b	0.58305424
9	0x3f8260ad	1.0185753
10	0x3f95b2f9	1.1695243
11	0x4014c996	2.3248038
12	0x3ef70b90	0.4825101
13	0x3f94f7dc	1.1638141
14	0x3f860d5d	1.0472828
15	0x3fb66006	1.4248054

classifier.4.weight f4 [16, 16]
0	0x3e0dca81	0.1384678
1	0x3c359bab	0.011084477
2	0xbe0ae72b	-0.13564746
3	0xbc839a79	-0.01606487
4	0xbd53a579	-0.05167148
5	0xbea2a40d	-0.31765786
6	0xbe23aa27	-0.15982877
7	0xbe8e3a24	-0.27778733
8	0xbd464bd1	-0.048412148
9	0x3e3f58d9	0.18686236
10	0xbd115838	-0.035484523
11	0xbe916284	-0.28395474
12	0x3e663f0c	0.22484988
13	0x3de59190	0.112094045
14	0xbd48ea8c	-0.049051806
15	0x3d057533	0.032582473
16	0x3e863ef5	0.26219907
17	0x3da25323	0.07926013
18	0x3d996c5b	0.0749137
19	0xbd90aea5	-0.07064561
20	0xbe0ba0f9	-0.13635625
21	0x3e436ec2	0.1908522
22	0x3cc88233	0.024476146
23	0x3e409d28	0.1880995
24	0x3e0a1f9f	0.13488625
25	0x3e130f08	0.14361203
26	0xbe442bc4	-0.1915732
27	0xbe1bbbf1	-0.15208413
28	0xbec291eb	-0.38001952
29	0x3e1865db	0.14882605
30	0x3c82b8ee	0.015957322
31	0x3d96c404	0.07361606
32	0x3dfc4e08	0.12319571
33	0x3dd1fede	0.1025369
34	0x3d4af586	0.049550556
35	0x3cf18366	0.029481601
36	0xbc65a7c8	-0.014017053
37	0x3d9b7af6	0.07591812
38	0xbe814b27	-0.2525265
39	0x3d8291a3	0.06375434
40	0xbe02376c	-0.12716454
41	0xbda7820f	-0.081791036
42	0xbe006f1c	-0.12542385
43	0xbe38492e	-0.17996666
44	0xbe1877bf	-0.1488943
45	0x3d8ff2e1	0.07028747
46	0xbd7a75f3	-0.06114764
47	0xbe8f1f8e	-0.27953762
48	0x3e5ed86e	0.21762249
49	0x3e5aa26a	0.21351019
50	0xbe063804	-0.13107306
51	0x3db34b37	0.087545805
52	0xbe05bc4b	-0.1306011
53	0x3b0b2c0d	0.0021235973
54	0xbe1c7cb0	-0.1528194
55	0xbd0cfed1	-0.0344227
56	0xbe231647	-0.15926467
57	0xbd81c93d	-0.06337211
58	0xbdf03ba6	-0.11730127
59	0x3d2e8e7e	0.04261636
60	0xbe049c85	-0.12950332
61	0xbe02f209	-0.12787642
62	0xbd3e413f	-0.046448942
63	0x3e4f3bea	0.20237699
64	0x3d2b47aa	0.04181639
65	0x3cd1c6ea	0.025607545
66	0x3e5416b5	0.20711787
67	0xbd9eaca0	-0.07747769
68	0xbc8275f3	-0.015925383
69	0x3e9fda57	0.31221268
70	0x3e05b81d	0.13058515
71	0xbd94a934	-0.072588354
72	0xbd1cca22	-0.038278706
73	0xbc9b9d3a	-0.01899587
74	0x3e2bbe53	0.16771822
75	0xbdacb920	-0.08433747
76	0x3da78c55	0.08181063
77	0xbe39575e	-0.18099734
78	0xbe8a9c40	-0.27072334
79	0x3da69115	0.08133141
80	0xbe0abf8d	-0.13549633
81	0xbdbffbfd	-0.09374235
82	0xbbc83fd1	-0.006111123
83	0xbe8c81ec	-0.27442873
84	0xbd70c474	-0.058781102
85	0x3ce47d65	0.027891824
86	0x3e8ef91c	0.2792443
87	0x3d60a0ae	0.054840736
88	0x3e06774f	0.1313145
89	0x3e26196d	0.16220637
90	0xbe4f1282	-0.20221904
91	0x3dc6a467	0.09699326
92	0xbe38a808	-0.18032849
93	0xbdcf1d7e	-0.10113047
94	0xbde27801	-0.11058045
95	0xbcd52bd0	-0.026021868
96	0x3dce8d30	0.10085523
97	0xbd5de32f	-0.054171737
98	0x3c15b498	0.009137295
99	0xbe5e9ecf	-0.21740268
100	0xbe2ab4a6	-0.16670474
101	0x3caf0314	0.021363772
102	0xbdf16191	-0.117861874
103	0xbde41486	-0.11136727
104	0xbe69c74c	-0.22829932
105	0xbcf24988	-0.029576078
106	0x3d5c12b9	0.053728793
107	0x3cb60c65	0.022222707
108	0x3e1cbc9d	0.15306325
109	0xbe835a3c	-0.2565478
110	0x3e86964f	0.2628655
111	0x3d6dfe70	0.05810398
112	0x3e92e9c9	0.2869399
113	0xbdcc62e0	-0.099797964
114	0x3d80061c	0.06251165
115	0xbd711a01	-0.05886269
116	0xbe328061	-0.17431785
117	0x3d8ec58a	0.06971271
118	0xbe6111b6	-0.21979412
119	0xbe1472c8	-0.1449691
120	0xbe060656	-0.13088354
121	0x3ce11d8c	0.02747991
122	0x3db585da	0.08863421
123	0x3cc223db	0.023698738
124	0x3e0b9d3c	0.13634199
125	0xbd9b5a42	-0.07585575
126	0x3e1a8c19	0.15092506
127	0xbe14ca19	-0.14530219
128	0x3dc1e022	0.09466578
129	0x3c86e214	0.016465224
130	0x3e1a9e2c	0.150994
131	0xbeebdf66	-0.46068877
132	0xbd608d0a	-0.054822005
133	0x3dc60a7a	0.09669967
134	0xbe165b18	-0.14683187
135	0xbce4bf65	-0.027923295
136	0xbe3d4de4	-0.18486744
137	0x3d1c36ff	0.038138386
138	0xbb396eff	-0.0028294919
139	0xbda61488	-0.08109385
140	0x3d03cb6a	0.032176413
141	0x3e32ba6e	0.1745393
142	0x3e1ea0c5	0.15491016
143	0xbe4046e7	-0.18777047
144	0x3bf39466	0.007433462
145	0x3e49114d	0.19635506
146	0x3d4b8ffb	0.049697857
147	0xbd75d733	-0.060019683
148	0x3e4df2a0	0.20112085
149	0x3e27f1c8	0.16400826
150	0xbe17fa19	-0.14841498
151	0xbeaab97b	-0.33344635
152	0xbd976ed3	-0.07394185
153	0x3e5bd9c3	0.21469788
154	0xbbe1b5e5	-0.0068881386
155	0xbd646fa0	-0.055770516
156	0x3cae62d2	0.021287356
157	0x3dd32974	0.10310641
158	0x3bc33080	0.0059567094
159	0xbdabe15a	-0.08392592
160	0xbda75f80	-0.08172512
161	0x3d80662a	0.06269486
162	0xbde4265d	-0.1114013
163	0xbd707d0e	-0.05871301
164	0xbd609aa9	-0.054834995
165	0x3e7ad2ac	0.24494427
166	0xbe92f5f1	-0.28703263
167	0xbe339920	-0.17538881
168	0x3e264341	0.16236593
169	0xbcadab44	-0.02119983
170	0xbe9a32a5	-0.30116764
171	0xbd82cdca	-0.063869074
172	0x3d509f13	0.050932955
173	0xbdaccf3e	-0.08437966
174	0xbe39351d	-0.18086667
175	0x3c3965e1	0.011315794
176	0x3dca7733	0.09886017
177	0x3e50bcf5	0.20384581
178	0xbe19a9e7	-0.15006219
179	0xbebddafd	-0.37081137
180	0x3e2a1677	0.16610132
181	0xbe4db1d9	-0.20087375
182	0x3e0b1630	0.13582683
183	0xbe1ed93a	-0.15512553
184	0xbdd0f533	-0.10203018
185	0xbe9ce4a4	-0.3064319
186	0x3dba13fa	0.090858415
187	0x3e264824	0.16238457
188	0x3d939bf9	0.07207484
189	0x3e10d6b6	0.14144406
190	0x3def2b8a	0.11678226
191	0xbe19623c	-0.1497888
192	0xbe0c66b3	-0.13711052
193	0xbb954875	-0.0045557567
194	0xbe948c63	-0.29013357
195	0xbdd8e72b	-0.10590967
196	0x3d99198e	0.07475577
197	0xbe1c558a	-0.15267006
198	0xbd9f3fa6	-0.07775812
199	0x3d7d7cd2	0.061886616
200	0x3d576031	0.05258197
201	0x3e3c6446	0.18397626
202	0xbcf73d7a	-0.030180681
203	0x3d2e03da	0.042484142
204	0xbd24d1ce	-0.040239148
205	0xbe6059ee	-0.21909305
206	0x3d5c7a16	0.053827368
207	0xbe0aa735	-0.13540347
208	0x3e6e6f97	0.23284756
209	0x3dd1a86a	0.102372006
210	0x3e2cd253	0.16877107
211	0xbe2e0f99	-0.16998138
212	0x3cd1b534	0.0255991
213	0xbe7b42f1	-0.24537255
214	0x3e8bc3ee	0.2729792
215	0x3dfdf631	0.12400473
216	0x3dad8f32	0.08474578
217	0x3d09134a	0.03346566
218	0xbddd1ada	-0.10796137
219	0xbd2b160f	-0.041769084
220	0x3de5604f	0.1120001
221	0x3de6c98f	0.11268913
222	0xbe83a81a	-0.2571419
223	0x3e2d40cd	0.16919251
224	0xbd366e99	-0.044539068
225	0xbe7b8699	-0.24563064
226	0xbe08034b	-0.13282506
227	0x3d8a90bc	0.06765887
228	0xbe319936	-0.17343602
229	0xbe87f093	-0.2655073
230	0x3dbeed5d	0.09322617
231	0x3cc3011a	0.023804236
232	0xbe07c89b	-0.13260119
233	0x3d8c77b9	0.06858773
234	0x3dd9007e	0.10595797
235	0xbeaf7a4a	-0.34272987
236	0xbe4aa033	-0.19787674
237	0x3d9bc755	0.07606379
238	0xbe892791	-0.26788
239	0x3e1bf82d	0.1523139
240	0xbd335949	-0.04378632
241	0x3e70b8a0	0.23507929
242	0x3d1e0be0	0.038585544
243	0x3ce3e495	0.027818957
244	0xbd8ca9c8	-0.06868321
245	0x3d9908e9	0.074724026
246	0x3e12bf75	0.14330848
247	0xbe1b052d	-0.15138693
248	0xbde6381e	-0.11241172
249	0xbe19f29e	-0.15033957
250	0xbe37b930	-0.17941737
251	0x3e073ffc	0.13208002
252	0x3c9943b4	0.018709041
253	0x3d3a3396	0.045459352
254	0x3e0155bf	0.12630366
255	0x3d057691	0.032583777

classifier.4.bias f4 [16]
0	0xbd84b83d	-0.06480453
1	0xbd9c2e39	-0.07626004
2	0xbe0122a2	-0.12610868
3	0x3c9928a1	0.018696131
4	0xbda740f9	-0.081666894
5	0xbe1a8a74	-0.15091878
6	0xbe1dc7a4	-0.15408188
7	0x3d111c53	0.035427403
8	0xbe126f42	-0.14300254
9	0x3e27056a	0.16310659
10	0x3d4d1f5a	0.050078727
11	0x3d4a63a1	0.04941142
12	0x3e64b1b9	0.22333421
13	0xbe743732	-0.2384918
14	0xbdb5a6e0	-0.088697195
15	0xbe7c3b77	-0.24632059

classifier.5.weight f4 [16]
0	0x3f71c123	0.9443533
1	0x3f68c3d9	0.9092384
2	0x3f81fc2e	1.0155084
3	0x3f8c453f	1.0958632
4	0x3f8720d3	1.0556892
5	0x3f871139	1.0552131
6	0x3f7ca85b	0.9869439
7	0x3f85f706	1.046601
8	0x3f5ebaf6	0.8700403
9	0x3f850d34	1.0394654
10	0x3f7895d5	0.97103626
11	0x3f886da2	1.0658457
12	0x3f7cbbe9	0.9872423
13	0x3f6e915d	0.93190557
14	0x3f81fc1c	1.0155063
15	0x3f6bd4e9	0.9212175

classifier.5.bias f4 [16]
0	0x3d20c1ba	0.039247252
1	0x3d4e4cb7	0.05036613
2	0xbd1fbf29	-0.039000664
3	0xbd54713f	-0.051865812
4	0xbe67279b	-0.22573702
5	0x3caefc23	0.021360463
6	0xbd166fd8	-0.036727756
7	0x3c6e4688	0.014543183
8	0x3d0c3501	0.034230236
9	0x3e217227	0.15766202
10	0xbd62ed52	-0.055402108
11	0x3da94201	0.08264542
12	0x3d3b7fea	0.045776285
13	0x3deb1398	0.114783466
14	0x3c18cda4	0.009326372
15	0xbde1630f	-0.11005222

classifier.5.running_mean f4 [16]
0	0xbeb254c4	-0.34830296
1	0x3de12047	0.109924845
2	0xbec4bd12	-0.384255
3	0xbd85fdc5	-0.06542543
4	0x3bf0551c	0.0073343646
5	0xbea497f5	-0.32147184
6	0xbeae5143	-0.34046373
7	0xbcc91eb9	-0.024550783
8	0xbe99d0c1	-0.3004208
9	0x3e584f46	0.2112399
10	0xbe90c859	-0.28277853
11	0xbe0666dd	-0.13125177
12	0xbd63e3e9	-0.055637274
13	0xbd44a286	-0.048006557
14	0xbf00be81	-0.50290686
15	0xbe48e2c2	-0.19617751

classifier.5.running_var f4 [16]
0	0x3e35c36f	0.17750333
1	0x3e11b2ab	0.14228313
2	0x3d723109	0.059128795
3	0x3d90616e	0.07049833
4	0x3d4ee4f3	0.05051131
5	0x3dbce0db	0.09222575
6	0x3e5f5c11	0.21812464
7	0x3e509d96	0.20372614
8	0x3e62b92c	0.2214095
9	0x3d982808	0.0742951
10	0x3e0b58e4	0.13608128
11	0x3e95be21	0.2924662
12	0x3d0ccf39	0.03437731
13	0x3e87d43a	0.26529104
14	0x3e8d3c4b	0.27585062
15	0x3dad591c	0.08464262

classifier.7.weight f4 [16, 16]
0	0x3c9b8f0c	0.018989109
1	0x3d6a2191	0.057160918
2	0x3e9b9b9f	0.30392167
3	0xbe056243	-0.13025765
4	0x3d58ed02	0.052960403
5	0xbd1b603d	-0.037933577
6	0xbdc29306	-0.09500699
7	0x3da67818	0.08128375
8	0xbd9b00e3	-0.075685285
9	0xbc8e99a2	-0.017407242
10	0xbd08f5d9	-0.033437584
11	0x3d830041	0.06396533
12	0xbdc06328	-0.093939126
13	0xbdeddeb3	-0.11614742
14	0xbdfdc667	-0.12391358
15	0xbdd2b4ac	-0.10288367
16	0xbd5e56f9	-0.054282162
17	0xbe1d897f	-0.15384482
18	0xbe2460d5	-0.16052563
19	0xbe266a58	-0.16251504
20	0x3e83ef95	0.25768724
21	0xbdbf2af2	-0.09334363
22	0xbc96afad	-0.018394316
23	0x3e8c6398	0.27419734
24	0x3d0a0659	0.03369746
25	0x3cc0457a	0.023470629
26	0xbd053d8e	-0.032529406
27	0x3da64392	0.08118357
28	0xbd9d2964	-0.0767391
29	0x3d2cb842	0.04216791
30	0xbe24c25e	-0.1608977
31	0xbe88b557	-0.2670085
32	0x3e86f0c4	0.26355565
33	0x3e1a090e	0.15042517
34	0x3ade7a70	0.0016973745
35	0x3e52c353	0.20582323
36	0xbdcdb4b1	-0.1004423
37	0xbd1635e2	-0.03667248
38	0x3e4f1132	0.20221403
39	0xbd114671	-0.03546757
40	0xbe517ed9	-0.20458545
41	0x3d295c43	0.041347753
42	0x3d3b1f79	0.04568431
43	0xbe15ac68	-0.14616549
44	0xbe0f19da	-0.13974705
45	0xbdb67232	-0.089085
46	0x3e144421	0.14479114
47	0xbcc831b0	-0.024437755
48	0x3dfa0d39	0.12209553
49	0x3de9a73f	0.11408853
50	0xbe2b6e9b	-0.16741411
51	0x3ddff626	0.10935621
52	0xbd4c1b68	-0.049830824
53	0xbe6e8cec	-0.23295945
54	0xbe346996	-0.17618403
55	0x3d98155d	0.0742595
56	0xbda6fea6	-0.08154039
57	0xbdf4b1ee	-0.11948
58	0xbe282098	-0.16418684
59	0xbe6c6055	-0.23083623
60	0x3e0d4264	0.13794857
61	0xbe0c2445	-0.1368571
62	0x3eaa596b	0.33271345
63	0x3e0f0e70	0.13970351
64	0xbddc68d6	-0.10762183
65	0xbd02e9b1	-0.031961147
66	0x3d7c8678	0.061651677
67	0xbe2a67e5	-0.16641195
68	0xbdb6f5ad	-0.08933578
69	0xbd274f89	-0.040847335
70	0xbe32d74f	-0.17464946
71	0x3d82af53	0.06381097
72	0xbe334525	-0.17506845
73	0x3e7b0eaa	0.24517313
74	0x3d9ddb24	0.077078134
75	0xbd150adc	-0.03638731
76	0x3e8ea36a	0.2785905
77	0xbd6914e1	-0.056904677
78	0x3c03f1c0	0.008053243
79	0x3d812b3d	0.06307075
80	0x3d136b20	0.035990834
81	0x3d96288e	0.07331954
82	0x3e523b5c	0.20530456
83	0x3c80e4f0	0.015734166
84	0xbdc8d28a	-0.09805782
85	0xbe6c612e	-0.23083946
86	0x3c106767	0.008813716
87	0x3bc75350	0.0060829297
88	0xbe75c18d	-0.23999615
89	0xbebd0fad	-0.36926022
90	0xbe2d7c88	-0.16942036
91	0xbe0b2362	-0.13587716
92	0x3dd2e851	0.10298217
93	0x3c8e407c	0.017364733
94	0x3dfbb702	0.12290765
95	0x3d34d0ee	0.044144563
96	0xbdc2e71c	-0.09516737
97	0xbdf27729	-0.11839134
98	0x3cec62aa	0.02885564
99	0x3e58c528	0.21168959
100	0x3edd78bc	0.43256176
101	0x3d0280a8	0.031860977
102	0x3af5d908	0.0018756697
103	0x3da749fc	0.08168408
104	0x3c450768	0.012025692
105	0x3db196a7	0.08671313
106	0x3bcad1d8	0.006189566
107	0xbc2e2d89	-0.010630974
108	0xbd2bbf12	-0.041930266
109	0x3d5daca1	0.05411971
110	0xbcf881b7	-0.03033529
111	0xbe4e5c66	-0.20152435
112	0x3e3cd577	0.18440805
113	0xbe02a9fb	-0.12760155
114	0xbbd91785	-0.006625118
115	0xbe1c7b3e	-0.15281388
116	0x3e22cc6e	0.15898296
117	0x3c8a6cfa	0.016897667
118	0xbdbd6183	-0.092471145
119	0xbd0da68a	-0.034582652
120	0xb8403955	-4.582976e-05
121	0x3e7f4d3e	0.2493181
122	0xbbff8f8c	-0.0077990945
123	0xbd9c311a	-0.07626553
124	0xbe3a35fc	-0.18184656
125	0xbcd3f915	-0.025875608
126	0xbdba36e7	-0.09092503
127	0x3d91b80c	0.07115182
128	0xbe0c9639	-0.1372918
129	0xbea3e476	-0.3201024
130	0xbcb5f41c	-0.022211127
131	0xbcd9a194	-0.026566304
132	0xbe146b2e	-0.14494011
133	0x3d0270a9	0.031845722
134	0xbd900fcb	-0.07034262
135	0xbeab49ad	-0.33454648
136	0x3e2e8289	0.17041983
137	0xbc18ebe1	-0.009333582
138	0x3debeea5	0.11520127
139	0x3d8a5983	0.06755354
140	0xbd9269f6	-0.07149117
141	0x3d0ab6a0	0.03386557
142	0xbe7a0036	-0.24414143
143	0x3da367d0	0.07978785
144	0x3de1462d	0.10999713
145	0xbe2fecb6	-0.17180142
146	0x3b6c583d	0.0036063336
147	0x3e3da9de	0.1852183
148	0xbe0d7a02	-0.13816074
149	0xbcd92736	-0.026507955
150	0xbe045738	-0.12923896
151	0xbdd30fca	-0.10305746
152	0xbdb07a3e	-0.08617066
153	0x3ceaa963	0.028645223
154	0xbc3d438f	-0.011551752
155	0x3e8b54c1	0.272131
156	0xbdb3ed55	-0.08785502
157	0x3e583e22	0.21117452
158	0xbe5acc22	-0.21366933
159	0x3e325d5e	0.1741843
160	0xbe2f79c2	-0.1713629
161	0x3e0ef2e8	0.13959849
162	0xbdb4028e	-0.0878955
163	0x3dd202dc	0.10254452
164	0xbe7cadd5	-0.24675687
165	0xbde7b6ae	-0.1131414
166	0x3e051db2	0.12999609
167	0x3e2de43a	0.16981593
168	0xbd6ea6fb	-0.058264714
169	0x3dc87296	0.097874805
170	0x3d9d7ef8	0.07690233
171	0x3e427640	0.18990421
172	0x3c44ca87	0.012011177
173	0xbd04a27c	-0.03238152
174	0x3cd20e52	0.025641594
175	0x3d8bee0a	0.06832512
176	0xbe2a3a67	-0.16623841
177	0xbe09f3ae	-0.13471863
178	0xbe65065f	-0.22365712
179	0x3e043fe1	0.12914993
180	0x3ccd4f83	0.025062328
181	0x3e865d20	0.26242924
182	0x3d57e0c5	0.05270459
183	0xbe5fe140	-0.2186327
184	0x3da9fc2e	0.083000526
185	0xbe24e30e	-0.1610224
186	0x3e613898	0.21994245
187	0xbe3df0c2	-0.18548873
188	0x3e35c434	0.17750627
189	0x3df74d30	0.12075269
190	0xbcce252d	-0.025164211
191	0x3d6e6f58	0.058211654
192	0x3db51910	0.08842671
193	0x3e8b14fd	0.2716445
194	0x39eee380	0.00045564398
195	0xbbedccc0	-0.007257074
196	0x3e00b31f	0.1256833
197	0x3dcecb5d	0.10097382
198	0x3c0e9bbd	0.008704123
199	0x3e0fcc89	0.14042868
200	0xbcaa112d	-0.020760143
201	0xbe0af8be	-0.1357145
202	0xbb2d39d0	-0.0026432164
203	0xbd8892d7	-0.066686325
204	0xbe0e5b03	-0.13901906
205	0x3ddf954e	0.109171495
206	0x3e5d2e57	0.21599708
207	0xbdb96b40	-0.090536594
208	0xbc7fd35c	-0.015614357
209	0x3dbc7a43	0.09203007
210	0xbe903b1d	-0.281701
211	0x3ddb5c82	0.10711004
212	0xbe3965df	-0.18105267
213	0x3ea19e32	0.31566006
214	0xbd79fde1	-0.061033133
215	0x3e444961	0.19168617
216	0x3e5224d5	0.20521863
217	0xbba4b3bf	-0.00502631
218	0xbe6f16b3	-0.23348503
219	0x3e006c61	0.12541343
220	0xbe47dcab	-0.19517772
221	0xbd71aa04	-0.05900003
222	0x3e439d16	0.19102892
223	0xbe039718	-0.12850606
224	0xbdde6f1f	-0.108610384
225	0x3d2d4546	0.042302392
226	0x3ea9a4ab	0.33133444
227	0x3d8ade8d	0.067807294
228	0x3c9491e9	0.018135982
229	0x3ddb48e9	0.10707266
230	0xbe37a75b	-0.17934935
231	0xbdfd1f92	-0.12359537
232	0x3e194104	0.14966208
233	0x3d51c9f2	0.05121798
234	0x3df24d2c	0.118311256
235	0x3d165d90	0.036710322
236	0xbc74c51d	-0.014939574
237	0xbe9bb3b7	-0.3041055
238	0xbe236544	-0.15956599
239	0x3da560a6	0.08075075
240	0xbe721b47	-0.23643218
241	0xbe4dd6ce	-0.20101473
242	0x3e5847e9	0.21121182
243	0xbe129d27	-0.14317761
244	0xbd9d5c56	-0.07683627
245	0xbdc8a3b1	-0.09796847
246	0x3e238377	0.15968119
247	0xbd1aa5c9	-0.03775576
248	0x3e230a6b	0.15921943
249	0xbc5f300b	-0.013622294
250	0xbe09dacb	-0.13462369
251	0xbcb0e2bb	-0.021592489
252	0x3e3891ae	0.18024322
253	0x3e1812bf	0.14850901
254	0x3e160849	0.14651598
255	0x3ceaf134	0.028679468

classifier.7.bias f4 [16]
0	0x3e73b89d	0.23800893
1	0xbe066922	-0.13126042
2	0xbd57db39	-0.0526993
3	0xbe8efe0e	-0.27928203
4	0xbe619c38	-0.22032249
5	0x3dbdc8af	0.09266793
6	0xbdea7278	-0.114476144
7	0xbe89f2ce	-0.26943058
8	0x3b817b4f	0.003951467
9	0xbe25182b	-0.161225
10	0x3d0af72e	0.033927135
11	0x3d55a49a	0.05215893
12	0x3df8766c	0.12131962
13	0xbe03888e	-0.1284506
14	0x3e20798e	0.1567137
15	0xbe1e3e7d	-0.15453525

classifier.8.weight f4 [16]
0	0x3fab3b2f	1.3377436
1	0x3fac6cd2	1.3470709
2	0x3fac470d	1.3459183
3	0x3faccdfa	1.3500359
4	0x3fafba1c	1.3728671
5	0x3fafbc5b	1.3729357
6	0x3fb157b6	1.3854892
7	0x3fb2f7d0	1.3981876
8	0x3fad8412	1.355593
9	0x3faaaed0	1.3334599
10	0x3fab3918	1.3376799
11	0x3fa86c6f	1.3158091
12	0x3fad55e7	1.354184
13	0x3fb449fe	1.4085081
14	0x3fade9b8	1.358695
15	0x3fac2452	1.3448584

classifier.8.bias f4 [16]
0	0x3ea54cf2	0.32285267
1	0x3ea80c92	0.3282209
2	0x3eb93453	0.36172733
3	0x3eabc025	0.33545032
4	0x3eb1c259	0.34718588
5	0x3eadee4c	0.3397087
6	0x3eb23c47	0.34811613
7	0x3ec70bbb	0.38876137
8	0x3ea9f7e4	0.33196938
9	0x3e988caf	0.29794833
10	0x3e96ad1b	0.29428944
11	0x3ea44d15	0.3209006
12	0x3ed0ecc4	0.40805638
13	0x3ec27c31	0.37985376
14	0x3ec435ba	0.3832224
15	0x3ec2cb01	0.38045505

classifier.8.running_mean f4 [16]
0	0x3e13fbc4	0.1445151
1	0xbe96b61b	-0.2943581
2	0x3d3ae561	0.04562891
3	0xbed9b13c	-0.42518032
4	0xbe5e77f2	-0.21725443
5	0xbe34a69b	-0.1764168
6	0x3d616821	0.055030946
7	0xbe9e1909	-0.30878475
8	0xbeb3a601	-0.35087588
9	0xbdf8418e	-0.121218786
10	0x3e3f400d	0.18676777
11	0x3c09a673	0.008401501
12	0x3eac98ba	0.3371027
13	0xbd2f2c61	-0.042766932
14	0x3e3e67a4	0.18594223
15	0xbde79e2a	-0.11309464

classifier.8.running_var f4 [16]
0	0x3d307646	0.043081544
1	0x3e026508	0.12733853
2	0x3d86b267	0.06576996
3	0x3e2e01e7	0.16992913
4	0x3db504c0	0.088387966
5	0x3db5d3c0	0.08878279
6	0x3e178010	0.14794946
7	0x3da16e13	0.07882323
8	0x3d8156b6	0.06315367
9	0x3e23adfb	0.15984337
10	0x3dfcc342	0.1234193
11	0x3e4cac1f	0.19987534
12	0x3daca46f	0.08429801
13	0x3dc33568	0.09531671
14	0x3e063527	0.13106214
15	0x3d6296d6	0.05531963

classifier.10.weight f4 [10, 16]
0	0xbe397c7e	-0.18113896
1	0xbee96414	-0.45584166
2	0xbe0864da	-0.13319722
3	0xbea1c5c6	-0.31596202
4	0xbebe0c74	-0.37118876
5	0xbe6b33c7	-0.2296897
6	0xbdaafe9c	-0.08349344
7	0xbe3191af	-0.1734073
8	0xbeee2122	-0.46509653
9	0xbea7b256	-0.32753247
10	0xbefe1dec	-0.49632204
11	0x3eb048f3	0.34430656
12	0x3f07a5ef	0.5298757
13	0x3f0f4da9	0.55977875
14	0xbe90e017	-0.28295967
15	0xbddcc096	-0.1077892
16	0xbe80f8f0	-0.25189924
17	0xbd19885c	-0.037483558
18	0xbef87e31	-0.48533776
19	0xbe10c10c	-0.14136142
20	0xbe25325f	-0.16132496
21	0xbeeeecbb	-0.46664986
22	0xbe9e656a	-0.30936748
23	0x3ee8a59a	0.45438844
24	0x3eec8c0d	0.462006
25	0x3f0d8ea7	0.55295795
26	0xbd983d5d	-0.07433579
27	0xbdde8656	-0.10865466
28	0xbd217cad	-0.03942554
29	0xbd59201d	-0.05300914
30	0xbee48f10	-0.44640398
31	0xbe989348	-0.29799867
32	0xbeaa0a0c	-0.3321079
33	0x3964fe43	0.00021838494
34	0x3d7e9a6e	0.062158994
35	0x3ebee223	0.37281904
36	0x3ef7228d	0.48268548
37	0x3ee3cf4a	0.44494087
38	0xbeaac463	-0.33352956
39	0xbe589be2	-0.21153215
40	0xbe896c2f	-0.2684035
41	0xbec1f04f	-0.37878653
42	0xbedb0d4c	-0.42783582
43	0xbde3ee2b	-0.11129411
44	0xbebc4dab	-0.36778006
45	0xbe5ff003	-0.21868901
46	0xbed6b7e0	-0.4193716
47	0x3e84f404	0.2596742
48	0x3ee99b37	0.45626232
49	0xbed94ed7	-0.42442963
50	0xbeba2ca2	-0.36362177
51	0xbef4306f	-0.47693202
52	0xbe39ba5b	-0.18137495
53	0x3e99adb6	0.30015343
54	0xbf105344	-0.56377053
55	0xbe12358a	-0.14278236
56	0x3e0eddfa	0.13951865
57	0xbe15a266	-0.14612731
58	0xbef92a45	-0.48665062
59	0xbefe9e6d	-0.49730244
60	0x3e226f89	0.1586286
61	0xbe9bd744	-0.30437672
62	0x3e69e194	0.22839957
63	0x3ebdb4af	0.37051913
64	0xbdbcfbb4	-0.09227696
65	0xbe05892c	-0.13040608
66	0x3efeb253	0.49745426
67	0x3ea7e152	0.32789093
68	0x3f05663b	0.52109116
69	0xbe3b5f3d	-0.1829805
70	0xbec75c6f	-0.3893771
71	0x3efc0925	0.49225727
72	0xbeebf57f	-0.46085736
73	0xbe4a8a32	-0.1977928
74	0xbe89ff03	-0.2695237
75	0xbf002200	-0.5005188
76	0xbe914db7	-0.28379604
77	0xbdf00ade	-0.11720823
78	0xbe3dc4ec	-0.18532151
79	0xbece60a6	-0.40308112
80	0x3e4547cd	0.19265671
81	0x3f164d3f	0.5871162
82	0xbec70ba1	-0.3887606
83	0xbee323bf	-0.4436321
84	0xbec4dbcc	-0.38448942
85	0xbe4c2702	-0.19936755
86	0x3ecfc360	0.40578747
87	0x3ea8c755	0.32964578
88	0xbf05b064	-0.52222276
89	0xbec855a8	-0.3912785
90	0xbec2a327	-0.380151
91	0xbe3c6b1a	-0.18400231
92	0x3da5fb05	0.08104519
93	0xbe86b847	-0.26312467
94	0xbde29396	-0.11063306
95	0xbc51ea2c	-0.012812179
96	0xbe0694f3	-0.13142757
97	0xbee470e2	-0.44617373
98	0x3ec259a0	0.37959003
99	0x3ede84b3	0.43460616
100	0xbf038a2b	-0.513827
101	0x3eb2c82b	0.3491834
102	0xbe8e3d71	-0.2778125
103	0xbd684f4f	-0.05671626
104	0xbb3fef9d	-0.0029287108
105	0xbee18e71	-0.44053987
106	0xbe7077e7	-0.23483239
107	0xbd9eb815	-0.077499546
108	0x3e962727	0.29326746
109	0x3e88eabc	0.26741588
110	0xbf026b00	-0.5094452
111	0xbedce172	-0.4314075
112	0x3e1d140b	0.15339677
113	0xbee12a55	-0.4397761
114	0x3ea80fbe	0.3282451
115	0xbe771f70	-0.24133086
116	0xbd80f38d	-0.062964536
117	0xbef811a5	-0.48450962
118	0x3e7562a5	0.23963411
119	0xbefc1019	-0.49231032
120	0xbe880276	-0.26564378
121	0x3eae8cee	0.34091896
122	0x3eefd2f4	0.46840632
123	0xbe71bec3	-0.23607926
124	0xbeaf97a5	-0.34295383
125	0xbe0039eb	-0.12522094
126	0x3e8b134b	0.27163157
127	0xbf004ac4	-0.50114083
128	0xbed4841a	-0.41507035
129	0xbebad082	-0.36487204
130	0xbe92a2b8	-0.2863977
131	0xbe9d25c5	-0.30692878
132	0x3edb90c1	0.42883876
133	0xbeb498df	-0.3527288
134	0xbea94339	-0.330591
135	0xbe9e3b78	-0.30904746
136	0x3ef679ad	0.48139706
137	0xbe1bcdc6	-0.15215215
138	0xbe541c31	-0.20713879
139	0x3ef940dd	0.486823
140	0xbe62c3d6	-0.22145018
141	0xbe9dfd78	-0.30857444
142	0x3cf8a387	0.030351413
143	0xbef7948a	-0.48355514
144	0xbe936dd6	-0.28794736
145	0x3ec56e49	0.38560703
146	0xbdd0efb0	-0.10201967
147	0xbeb9e8ef	-0.36310527
148	0x3d29e9b6	0.04148265
149	0xbf043bba	-0.51653636
150	0xbe1a8246	-0.15088758
151	0xbefac41f	-0.48977754
152	0xbedca1be	-0.4309215
153	0xbe29e20a	-0.16590133
154	0x3ee555df	0.44792077
155	0xbee39413	-0.4444891
156	0xbeadeb27	-0.3396847
157	0x3eb9aa6a	0.36262828
158	0xbee0b325	-0.43886676
159	0x3ed4f135	0.41590276

classifier.10.bias f4 [10]
0	0x3e82c4c8	0.25540757
1	0xbd3f3c86	-0.04668858
2	0xbda1bfc7	-0.07897907
3	0x3e50f19a	0.20404664
4	0xbd7402ea	-0.05957309
5	0xbdf11ce2	-0.11773087
6	0x3e4ad7a7	0.19808827
7	0xbd52fa94	-0.0515085
8	0x3e74c89f	0.23904656
9	0x3ce1c038	0.027557477

exp_avg f4 [16, 784]
0	0xb26e6272	-1.3875807e-08
1	0xb4a90b64	-3.148699e-07
2	0xb50b0d09	-5.1800504e-07
3	0xb6c0b7ad	-5.7434286e-06
4	0xb7486e5b	-1.1946623e-05
5	0xb6535b2a	-3.1494515e-06
6	0x38f522d5	0.00011688998
7	0x38b66aec	8.698352e-05
8	0xb94a5987	-0.00019297573
9	0x3883f31e	6.291851e-05
10	0xb871eeb0	-5.7681173e-05
11	0xb98127c2	-0.0002463442
12	0xb987c668	-0.0002589703
13	0x39f90cb1	0.00047502437
14	0x39acd6f4	0.0003296655
15	0xb95af278	-0.00020880427
16	0xb8d83521	-0.00010309579
17	0xb95df3b4	-0.00021166989
18	0x3958b89d	0.00020668139
19	0xb98749fb	-0.00025804326
20	0x36553214	3.1768623e-06
21	0xb6c052ad	-5.7316706e-06
22	0xb88a10f0	-6.583508e-05
23	0x3605e623	1.9952502e-06
24	0x37a88452	2.0088777e-05
25	0x371832e2	9.071753e-06
26	0xb6685c73	-3.4624506e-06
27	0x36389bc1	2.7508797e-06
28	0xb62e00d9	-2.5928514e-06
29	0xb6574f6d	-3.2083728e-06
30	0xb715c2a0	-8.926407e-06
31	0xb7817830	-1.5433965e-05
32	0x38a26e96	7.74536e-05
33	0x392c5a48	0.0001643683
34	0x38962b90	7.1606715e-05
35	0x39037c7f	0.00012539512
36	0xb77a9bb9	-1.4937418e-05
37	0xb9a71b6e	-0.0003187316
38	0xbac0c972	-0.0014708473
39	0xbaaadf35	-0.0013036492
40	0xbac5ee48	-0.001510092
41	0xba066c92	-0.00051278726
42	0xb98bc1da	-0.00026656577
43	0xba44e6dc	-0.00075112074
44	0xba3cd9ee	-0.0007204105
45	0xbacfb96e	-0.0015848109
46	0xba30d2f3	-0.0006745301
47	0xb6e2948b	-6.7526175e-06
48	0x3a07df2e	0.00051830977
49	0x39c58767	0.0003767565
50	0x3886a5d5	6.4205065e-05
51	0x391d55ac	0.00015004602
52	0x380f00b3	3.4094508e-05
53	0xb7c878b2	-2.3898061e-05
54	0x368a37be	4.1192097e-06
55	0x36fb0e64	7.482058e-06
56	0xb5fd817e	-1.8887656e-06
57	0xb666e3c9	-3.440526e-06
58	0xb815fe0e	-3.5760975e-05
59	0xb56c2d63	-8.79829e-07
60	0x395e18fb	0.00021180876
61	0xb88b8c23	-6.654139e-05
62	0x3a170196	0.0005760429
63	0x3845906c	4.7102963e-05
64	0xba377285	-0.0006997961
65	0xb9c4619a	-0.00037456752
66	0xb9f38bdf	-0.00046452784
67	0xba88a9b5	-0.0010426553
68	0xbacdd036	-0.001570231
69	0xba8c6960	-0.0010712557
70	0xba39b572	-0.00070842274
71	0xba8d00c3	-0.0010757673
72	0xbaa8fc72	-0.0012892617
73	0xba4b6995	-0.00077595684
74	0xb9f5aad4	-0.00046857318
75	0xb8e7b33c	-0.00011048323
76	0xb9f90faa	-0.00047504652
77	0x3939c177	0.00017715046
78	0x3a553877	0.0008133719
79	0x3965df23	0.00021922267
80	0xb7f1d5da	-2.8829021e-05
81	0xb75fafc0	-1.3332756e-05
82	0x37ac3ac3	2.053136e-05
83	0x379f7e4f	1.9013094e-05
84	0x35c39ca5	1.4574222e-06
85	0xb5c66e68	-1.4784282e-06
86	0xb7d9c67b	-2.596084e-05
87	0x3801597d	3.083934e-05
88	0x3930d524	0.00016864069
89	0x389e1a5b	7.538936e-05
90	0x3a28d9fc	0.00064411736
91	0xb9a78234	-0.0003194973
92	0xba4714ef	-0.0007594367
93	0xba3ec7a6	-0.0007277675
94	0xba31cff4	-0.00067830016
95	0xb9dc6cd5	-0.00042042756
96	0xba00ce5e	-0.00049135636
97	0xba8a55d2	-0.0010554141
98	0xba9d5aef	-0.001200525
99	0xba80e492	-0.0009833744
100	0xba375712	-0.00069938705
101	0xbaab5fb1	-0.0013074783
102	0xba2baa7e	-0.00065485376
103	0xb9df9ad2	-0.00042649225
104	0xba0031b4	-0.0004890219
105	0xb9b1fdb8	-0.00033949106
106	0x398f723d	0.000273602
107	0x39c84df3	0.0003820505
108	0x379a4a82	1.8392926e-05
109	0xb8a9218b	-8.064796e-05
110	0x380cfde3	3.361505e-05
111	0x36f9f3ee	7.4491754e-06
112	0x3644ae2f	2.9307664e-06
113	0xb6ef018f	-7.1229365e-06
114	0x37540cbc	1.263915e-05
115	0xb7e4a318	-2.7255664e-05
116	0xb8a49c82	-7.849281e-05
117	0xb81fe921	-3.8125672e-05
118	0x390b4ec7	0.0001328542
119	0xba08ff72	-0.00052260526
120	0xba74f35e	-0.0009344126
121	0xb9e27588	-0.00043193647
122	0xb9f45a0b	-0.00046606394
123	0xba8c76ad	-0.001071652
124	0xba980b73	-0.0011600092
125	0xba9f7eec	-0.0012168563
126	0xba92c560	-0.0011197738
127	0xba3732ce	-0.00069884665
128	0xba48d1f0	-0.00076606777
129	0xba9afb0b	-0.0011824084
130	0xba8859d5	-0.0010402749
131	0xb8cb3099	-9.688846e-05
132	0xba22dd60	-0.0006212797
133	0xb868aa05	-5.5471453e-05
134	0x3a065035	0.0005123646
135	0x3a1e6788	0.0006042649
136	0x399c4c67	0.00029811563
137	0x3905a083	0.00012743664
138	0x3925133f	0.00015742796
139	0xb734aab3	-1.076858e-05
140	0x3618aa96	2.274906e-06
141	0xb74f448a	-1.23541195e-05
142	0x379e17b0	1.8846098e-05
143	0xb8840338	-6.29485e-05
144	0xb8d60bf9	-0.00010206545
145	0x3988f009	0.00026118782
146	0xb991a76f	-0.00027781303
147	0xba73236e	-0.0009274994
148	0xba7053f4	-0.00091677834
149	0xb9e402f8	-0.0004348976
150	0xb9b2079b	-0.00033956472
151	0xba2cec4e	-0.00065964914
152	0xba360952	-0.0006944138
153	0xba68b027	-0.00088763464
154	0xb9e55454	-0.00043741113
155	0x385b5fcb	5.2302883e-05
156	0x38bab739	8.903299e-05
157	0xb955bf18	-0.00020384451
158	0xb9cc97f8	-0.00039023138
159	0x393a8a00	0.00017789751
160	0xb93d2911	-0.00018039743
161	0xb9540f42	-0.0002022358
162	0x39f7554e	0.00047175068
163	0x3a3ea783	0.0007272886
164	0x3a0a9035	0.0005285771
165	0x39caac7d	0.00038656956
166	0x39659667	0.00021895171
167	0x38a6566a	7.931593e-05
168	0x362e9329	2.601368e-06
169	0xb7ae14ed	-2.075216e-05
170	0x38dc17c0	0.00010494841
171	0x3933d8e3	0.00017151567
172	0xb542dd8f	-7.259304e-07
173	0x39d18976	0.00039966003
174	0xb9c609a5	-0.0003777269
175	0xba41d3f4	-0.0007393949
176	0xba5815aa	-0.0008242974
177	0xb9aaecaf	-0.0003260127
178	0xb93635fc	-0.00017376983
179	0xb968bd47	-0.00022195755
180	0x39520b63	0.00020031403
181	0xba3cdc3a	-0.0007204447
182	0xba85d32f	-0.0010210032
183	0xb8e97167	-0.000111314286
184	0x3a10605a	0.00055075216
185	0x38aea95b	8.3285115e-05
186	0xb96e5e76	-0.00022732638
187	0xb9f06c87	-0.00045857226
188	0xba1bbff5	-0.00059413846
189	0xb9d989fe	-0.00041492278
190	0x39915652	0.0002772087
191	0x3a6c53d2	0.0009015176
192	0x3a914a83	0.0011084828
193	0x3a38a593	0.00070437154
194	0x39a23298	0.00030936743
195	0x39000183	0.00012207594
196	0xb629dab3	-2.5310262e-06
197	0xb75e15d3	-1.32373125e-05
198	0x395c3fe5	0.00021004638
199	0x39da0bc3	0.00041588963
200	0x395929a0	0.00020710239
201	0xb8f10605	-0.00011492897
202	0xb9eab506	-0.0004476683
203	0xba136445	-0.00056225463
204	0xba9ddb5a	-0.0012043521
205	0xb99d36bc	-0.00029986154
206	0x38618730	5.3770083e-05
207	0xb9ca89f0	-0.00038631214
208	0xb9acdb1b	-0.00032969643
209	0xba4d3748	-0.0007828367
210	0xba989863	-0.0011642094
211	0xb973d857	-0.00023254879
212	0x396b941f	0.00022466526
213	0x3982b624	0.00024931238
214	0x39e6aa13	0.00043995734
215	0xb9fbacc1	-0.00048003162
216	0x389dafe1	7.5191034e-05
217	0xb99db6b2	-0.00030081492
218	0x386433e2	5.4407756e-05
219	0x3a791863	0.000950223
220	0x3a45ee21	0.00075504376
221	0x3a0477dc	0.0005053261
222	0x39ee7f47	0.00045489726
223	0x3954e4b4	0.00020303094
224	0x378d1d8c	1.6822269e-05
225	0x3814cd8a	3.5477373e-05
226	0x399e6c2c	0.00030216703
227	0x39dc887d	0.00042063362
228	0x39800992	0.00024421193
229	0xb9feeddd	-0.00048623877
230	0xba98b12b	-0.001164948
231	0xba1e39b9	-0.0006035823
232	0xba4acec2	-0.0007736498
233	0xb9f2817e	-0.00046254316
234	0xb9209004	-0.00015312439
235	0xba908973	-0.0011027291
236	0xba0379e7	-0.0005015418
237	0xba5aa489	-0.00083405577
238	0xbad932fc	-0.0016570981
239	0xba0e650c	-0.0005431927
240	0xb9ed6fb3	-0.00045287385
241	0xb96036fd	-0.0002138279
242	0xb8b2665b	-8.5067666e-05
243	0xba45e1eb	-0.0007548618
244	0x3a08b53b	0.0005214994
245	0xba09eeb0	-0.00052617025
246	0xba530796	-0.00080501416
247	0xb9715a56	-0.00023017204
248	0x395ae35b	0.00020874797
249	0xb8ddb8a7	-0.000105724954
250	0x39ff89c3	0.0004874003
251	0x39c542b5	0.0003762447
252	0x37e11897	2.683354e-05
253	0x3886f65b	6.435505e-05
254	0x39b0afcb	0.00033700312
255	0x3a119f45	0.0005555044

exp_avg_sq f4 [16, 784]
0	0x2bc58553	1.4034697e-12
1	0x2cc2f493	5.540965e-12
2	0x2f97bee4	2.7602376e-10
3	0x31f9c806	7.269594e-09
4	0x322ce8f8	1.0064689e-08
5	0x330a1ccb	3.2156816e-08
6	0x33a627c1	7.7372086e-08
7	0x3419b167	1.4313774e-07
8	0x34bf73ee	3.5660872e-07
9	0x355ae277	8.154088e-07
10	0x35dd8a01	1.6505948e-06
11	0x35d54bc8	1.5891792e-06
12	0x35b66de1	1.3592036e-06
13	0x35c01cf6	1.4313543e-06
14	0x35d00122	1.5497537e-06
15	0x35bdce43	1.4141627e-06
16	0x35c7872c	1.4865996e-06
17	0x35ed71e4	1.7691023e-06
18	0x35ae3ba0	1.2981363e-06
19	0x35147091	5.52981e-07
20	0x348634c7	2.4997846e-07
21	0x33ff066b	1.187553e-07
22	0x335f74f9	5.202762e-08
23	0x3307a6b4	3.1583753e-08
24	0x327ca7a5	1.47064485e-08
25	0x3218e25c	8.899033e-09
26	0x310b028a	2.0228605e-09
27	0x2fd05256	3.7893483e-10
28	0x2cbbe624	5.3404104e-12
29	0x2e349482	4.1059163e-11
30	0x31e67baa	6.70794e-09
31	0x32d4e12e	2.4782448e-08
32	0x33b6e33d	8.51637e-08
33	0x347e59a8	2.368821e-07
34	0x35358db4	6.763396e-07
35	0x35a3e3b9	1.2210722e-06
36	0x3616cab6	2.2469735e-06
37	0x366b8a93	3.509839e-06
38	0x3698a908	4.549631e-06
39	0x369d92fa	4.696075e-06
40	0x36a14538	4.806232e-06
41	0x369d31e4	4.6847726e-06
42	0x36a0a87d	4.787986e-06
43	0x369e6f92	4.7217554e-06
44	0x36968ec6	4.4869694e-06
45	0x3695c358	4.463287e-06
46	0x368e38f2	4.238559e-06
47	0x363819a4	2.7433061e-06
48	0x35f414fa	1.8185522e-06
49	0x358abb11	1.0336245e-06
50	0x35007b1f	4.786288e-07
51	0x3476df93	2.2991871e-07
52	0x33d02574	9.6925675e-08
53	0x33326171	4.1532477e-08
54	0x32340cfd	1.0480332e-08
55	0x2ff7b314	4.505628e-10
56	0x2e4083d8	4.3772846e-11
57	0x2f906dfa	2.627159e-10
58	0x323dedd3	1.1055323e-08
59	0x335e1786	5.1709797e-08
60	0x3418d569	1.4233741e-07
61	0x3510e5ad	5.39784e-07
62	0x35bc893d	1.4047033e-06
63	0x35ead7ce	1.7497166e-06
64	0x36229fbe	2.4232863e-06
65	0x3662d26b	3.3799104e-06
66	0x36964713	4.4786225e-06
67	0x36891d5d	4.0863365e-06
68	0x3690d448	4.316247e-06
69	0x36958419	4.455924e-06
70	0x36995a35	4.570257e-06
71	0x368ec0b2	4.2543625e-06
72	0x368d202e	4.2058737e-06
73	0x368e95d1	4.2493707e-06
74	0x368a180e	4.115521e-06
75	0x3649702d	3.001663e-06
76	0x36243927	2.4471171e-06
77	0x35f22024	1.8039759e-06
78	0x358aa7d4	1.0330646e-06
79	0x350ee7b5	5.32363e-07
80	0x347c28d8	2.3484188e-07
81	0x33a88e79	7.849025e-08
82	0x32fce2fb	2.943988e-08
83	0x31323f99	2.593856e-09
84	0x2f047c42	1.2049475e-10
85	0x316b9ab0	3.428493e-09
86	0x32cdd3d4	2.396147e-08
87	0x33ab7e06	7.9857315e-08
88	0x348b0710	2.5895906e-07
89	0x35573ec1	8.018506e-07
90	0x35ca764b	1.5084601e-06
91	0x3600dd7e	1.9202412e-06
92	0x362ad72c	2.545722e-06
93	0x3663523b	3.38735e-06
94	0x368edc6a	4.2575894e-06
95	0x368581d6	3.9788238e-06
96	0x3687d3c4	4.0479663e-06
97	0x368c3e1d	4.179556e-06
98	0x369dd3bd	4.703614e-06
99	0x36932c88	4.3861255e-06
100	0x368d9eed	4.220629e-06
101	0x3691e571	4.3480472e-06
102	0x368e30d3	4.2376137e-06
103	0x3657b62d	3.2143537e-06
104	0x3623c293	2.440215e-06
105	0x360a7af5	2.0635173e-06
106	0x35ca8379	1.5088436e-06
107	0x357038ec	8.94898e-07
108	0x3504f39b	4.9528325e-07
109	0x342f862b	1.6346955e-07
110	0x33454605	4.593132e-08
111	0x31d2a2f8	6.130332e-09
112	0x3064a765	8.31838e-10
113	0x310487aa	1.9285644e-09
114	0x32cea3bd	2.4056016e-08
115	0x33cda72a	9.5764634e-08
116	0x34c90bdd	3.74478e-07
117	0x357c11a9	9.3903014e-07
118	0x35e41950	1.6994691e-06
119	0x3601999f	1.9311917e-06
120	0x3623cacc	2.4406936e-06
121	0x366d0784	3.5320127e-06
122	0x36876f59	4.036276e-06
123	0x36829e06	3.8926983e-06
124	0x368bd345	4.167118e-06
125	0x36914ae3	4.3300547e-06
126	0x36a1e4f6	4.8248285e-06
127	0x369d0c37	4.6803866e-06
128	0x369c9d5b	4.667481e-06
129	0x36985800	4.5401976e-06
130	0x36944b0c	4.4194803e-06
131	0x366cd8cf	3.529294e-06
132	0x3635e96e	2.7106976e-06
133	0x362bd7af	2.560653e-06
134	0x35f42a5b	1.8191744e-06
135	0x35a75d4a	1.246962e-06
136	0x3546b480	7.402341e-07
137	0x34b79a47	3.4198658e-07
138	0x33df1a5a	1.038904e-07
139	0x328e722f	1.65829e-08
140	0x30fb1368	1.8268169e-09
141	0x31f62e89	7.1648327e-09
142	0x336d52e4	5.525625e-08
143	0x3409138f	1.2766235e-07
144	0x34fe4004	4.7357764e-07
145	0x35912a09	1.0815576e-06
146	0x35d52109	1.5879351e-06
147	0x35f39139	1.8147176e-06
148	0x361fa46a	2.3788548e-06
149	0x366a3b2c	3.490316e-06
150	0x36856f9e	3.976703e-06
151	0x367a00f6	3.7253462e-06
152	0x36808ac0	3.83085e-06
153	0x368dafab	4.222578e-06
154	0x369bd1c3	4.6437794e-06
155	0x36a41785	4.890319e-06
156	0x36af9b9f	5.233523e-06
157	0x36b76606	5.465702e-06
158	0x36ae552b	5.195519e-06
159	0x36900e13	4.293173e-06
160	0x3654b4c4	3.1695681e-06
161	0x3648a16a	2.9896278e-06
162	0x36123072	2.1783894e-06
163	0x35de2ca3	1.655328e-06
164	0x359fb7ff	1.1899973e-06
165	0x35234887	6.0827773e-07
166	0x34892413	2.5544486e-07
167	0x32ccca0f	2.3840611e-08
168	0x31cceece	5.9643304e-09
169	0x32cfeaa8	2.4204681e-08
170	0x33d54a1b	9.932065e-08
171	0x34927dff	2.7286293e-07
172	0x353a1da8	6.9333555e-07
173	0x359b821e	1.1586269e-06
174	0x35c765d7	1.4856295e-06
175	0x35d7be8e	1.6074207e-06
176	0x362e8f73	2.601152e-06
177	0x3680695a	3.826962e-06
178	0x3686e598	4.0202394e-06
179	0x367e96a4	3.7936634e-06
180	0x367cae23	3.7652287e-06
181	0x368a6da1	4.125483e-06
182	0x36991021	4.561633e-06
183	0x36a7de91	5.002898e-06
184	0x36c4b3a1	5.8621667e-06
185	0x36d35aff	6.2988834e-06
186	0x36d764db	6.4192404e-06
187	0x36c0e616	5.7488314e-06
188	0x3671ce84	3.6032006e-06
189	0x3660f319	3.3520103e-06
190	0x36306b29	2.628842e-06
191	0x360ebf22	2.1270903e-06
192	0x35faf39d	1.8697352e-06
193	0x35a34f2d	1.216749e-06
194	0x3512abc6	5.46392e-07
195	0x334a5490	4.71087e-08
196	0x3211417c	8.455e-09
197	0x3395c539	6.974228e-08
198	0x345fa8bd	2.082988e-07
199	0x34ecf814	4.4138926e-07
200	0x3584ca6b	9.893678e-07
201	0x35a2e7d0	1.2137407e-06
202	0x35c7b813	1.4880228e-06
203	0x35e58535	1.7100598e-06
204	0x3627e529	2.5018328e-06
205	0x3685072a	3.964543e-06
206	0x3686c63d	4.016589e-06
207	0x36858f49	3.9803895e-06
208	0x367f75cb	3.8066526e-06
209	0x3687599c	4.0337454e-06
210	0x3698186f	4.5327974e-06
211	0x36b1fb1e	5.304245e-06
212	0x36d55c36	6.3586294e-06
213	0x36fbb638	7.501596e-06
214	0x3707f11d	8.102766e-06
215	0x370035fb	7.641963e-06
216	0x36bcbc7f	5.6247804e-06
217	0x369b0f10	4.6211135e-06
218	0x367bb5a7	3.750765e-06
219	0x365e037e	3.308261e-06
220	0x364ecc6c	3.0815381e-06
221	0x3620044c	2.384436e-06
222	0x358b094e	1.0359015e-06
223	0x33df93cd	1.04111315e-07
224	0x32df3e66	2.5988992e-08
225	0x344972ea	1.8761389e-07
226	0x34c2c1f9	3.627645e-07
227	0x35402f6b	7.1594576e-07
228	0x35ca2477	1.5060785e-06
229	0x35d82d0e	1.6106367e-06
230	0x35e8e3cd	1.7351646e-06
231	0x360cfcc9	2.1008766e-06
232	0x363d8eec	2.8246386e-06
233	0x36936afe	4.393397e-06
234	0x368a7dc0	4.1273597e-06
235	0x3681ea70	3.8717917e-06
236	0x3685472c	3.9719944e-06
237	0x368b9683	4.1600447e-06
238	0x369c1634	4.651747e-06
239	0x36bca1aa	5.621657e-06
240	0x36e8d8b5	6.939367e-06
241	0x3707bf8e	8.091227e-06
242	0x3710093a	8.585217e-06
243	0x371d124e	9.362191e-06
244	0x37085f2c	8.128391e-06
245	0x36f4e9d2	7.298987e-06
246	0x36d1ccaf	6.2525137e-06
247	0x36bdb884	5.6541194e-06
248	0x36a94646	5.0447734e-06
249	0x368654a8	4.0033665e-06
250	0x35ebf13b	1.7579072e-06
251	0x3453de8c	1.9731868e-07
252	0x3354b0ae	4.9520786e-08
253	0x34a09634	2.991161e-07
254	0x352b589e	6.383142e-07
255	0x35a92429	1.2602005e-06

exp_avg f4 [16]
0	0x2f83c95b	2.3971833e-10
1	0x2fcbd0fb	3.7073974e-10
2	0xafa20c09	-2.947618e-10
3	0x2e7bbee1	5.7240327e-11
4	0xb0b7bc2b	-1.3368483e-09
5	0x2eff322f	1.1604972e-10
6	0xaed7f8fe	-9.821298e-11
7	0x2fdd565b	4.0261025e-10
8	0xb039b686	-6.756199e-10
9	0x2e670f74	5.2537044e-11
10	0xb0956748	-1.0870531e-09
11	0xae1a892e	-3.5137386e-11
12	0xafa2bf0f	-2.9603384e-10
13	0xb067636b	-8.417859e-10
14	0xafcfc1fd	-3.7790918e-10
15	0xb02e9f14	-6.3526895e-10

exp_avg_sq f4 [16]
0	0x211abd9c	5.2428175e-19
1	0x2155d459	7.2448247e-19
2	0x21506d3c	7.061771e-19
3	0x228bb8ed	3.7871823e-18
4	0x21709809	8.151638e-19
5	0x20614e2b	1.9084105e-19
6	0x2198d538	1.0356359e-18
7	0x221623da	2.034777e-18
8	0x20f3d18a	4.1304463e-19
9	0x22a3537c	4.426963e-18
10	0x21bb3944	1.2686771e-18
11	0x20456ec0	1.6723193e-19
12	0x21857986	9.044598e-19
13	0x218b9624	9.458748e-19
14	0x21081fb3	4.6120546e-19
15	0x21a4e025	1.1172403e-18

exp_avg f4 [16]
0	0xbaf23104	-0.0018477743
1	0xba3e6d11	-0.0007264177
2	0x3adcb027	0.0016837165
3	0xba10816b	-0.0005512449
4	0x3b43a416	0.0029852442
5	0xba729da9	-0.00092550606
6	0xbaefe72c	-0.0018303148
7	0xba781e22	-0.00094649394
8	0x3a9f2d08	0.0012144158
9	0xba63d3d6	-0.0008690929
10	0xbaab5c4f	-0.0013073775
11	0xba3056d7	-0.00067268073
12	0xba6b9c6a	-0.0008987846
13	0x3ae9fbcd	0.0017851532
14	0x3b0dcc3f	0.0021636633
15	0x3b115985	0.0022178602

exp_avg_sq f4 [16]
0	0x379414c2	1.7652641e-05
1	0x37111538	8.647614e-06
2	0x37293602	1.008576e-05
3	0x37822605	1.5514912e-05
4	0x38031e1b	3.126087e-05
5	0x37b72160	2.1830841e-05
6	0x3788fbd7	1.6329735e-05
7	0x3716d551	8.990363e-06
8	0x36f5bc77	7.323509e-06
9	0x3797a332	1.8076596e-05
10	0x36e24533	6.7433807e-06
11	0x37187234	9.086496e-06
12	0x36b34776	5.342935e-06
13	0x36e56386	6.836318e-06
14	0x37908582	1.7228307e-05
15	0x38013435	3.080462e-05

exp_avg f4 [16]
0	0xb98d60b6	-0.0002696567
1	0xb9265a77	-0.00015864694
2	0x3b40a879	0.0029397293
3	0x39df939b	0.0004264385
4	0x3b62c997	0.003460502
5	0x3a1e2dee	0.0006034066
6	0xb963a19e	-0.00021708614
7	0x393afabd	0.0001783175
8	0x3a9290a1	0.0011182019
9	0xb99157d6	-0.00027721998
10	0x39de624a	0.0004241637
11	0xb9849f16	-0.0002529553
12	0x3912b779	0.00013991994
13	0x3b7c957b	0.0038541246
14	0x3b4c2ee1	0.0031155872
15	0xbae268ce	-0.0017273666

exp_avg_sq f4 [16]
0	0x378d6d8f	1.6859527e-05
1	0x375239d6	1.2530441e-05
2	0x378bba8f	1.6656964e-05
3	0x37a57c29	1.972735e-05
4	0x3789487e	1.636543e-05
5	0x37850fb7	1.5862153e-05
6	0x37e638c3	2.7444568e-05
7	0x382ffcda	4.1958738e-05
8	0x36bf2a7d	5.69719e-06
9	0x379383a8	1.7585073e-05
10	0x3780f9d3	1.5375123e-05
11	0x373be00b	1.1198233e-05
12	0x3747a025	1.1898611e-05
13	0x3798cee5	1.8216155e-05
14	0x3759b41c	1.2976143e-05
15	0x37dda829	2.6423559e-05
