lightning_logs/Layers_64/fold_0/checkpoints/model-epoch=01-0.ckpt (torch, 739860 bytes, 48 tensors)

classifier.1.weight f4 [64, 784]
-0.013662934 -0.015609187 0.02171248 -0.004292933 -0.013792578 0.008808946 0.036618203 -0.014013732
0.015132245 -0.018866053 -0.04301254 -0.031460717 -0.025831584 -0.0026002 0.012557495 -0.0023935747
0.0043754526 -0.049546294 -0.054376926 -0.056065068 -0.039919816 -0.020047858 0.018220866 0.01620503
0.012011107 -0.0015754254 0.0061162724 -0.013535672 0.0066272547 -0.040155556 -0.027621208 -0.020521352
-0.02658717 -0.0015266321 -0.006851901 -0.03293312 -0.039521936 -0.040299628 -0.017422957 0.013922394
0.016251938 0.012384446 -0.006028578 -0.016245523 0.026508808 0.03326302 -0.023791134 0.0030119237
-0.033527583 0.021527668 -0.0053367144 0.037390072 -0.021960553 -0.02889731 0.030379687 0.016129833
-0.0033106904 -0.0015900098 -0.017460935 0.013569818 0.014504648 -0.023747396 0.0072496394 -0.01511021
-0.052280147 -0.012761471 -0.0346653 -0.02927833 -0.034842204 0.014783064 -0.027742472 -0.038037196
0.021522313 0.01550497 0.007027623 -0.00580128 -0.05355351 0.01416354 0.02956257 0.031781446
0.044528868 0.00555863 -0.0061681564 0.019114481 -0.01231142 0.025135364 -0.045630787 -0.0029619571
0.012309851 -0.022200862 -0.047020204 -0.056746405 -0.012769053 0.017986314 -0.0057635508 -0.016830742
0.0034185415 0.010494924 0.021482984 -0.013812108 -0.025237942 0.0127324825 -0.036265597 -0.023596011
0.0019886196 -0.01309783 -0.018906942 -0.012158127 -0.002725548 0.047641966 0.0055639935 -0.030614922
0.013704497 -0.004482971 0.0042496426 -0.029440664 -0.005960196 -0.019176355 -0.049829748 -0.008558533
0.009019733 0.019427177 0.004257386 0.017861186 0.037027713 0.025416605 -0.0065479903 -0.028145434
-0.008816763 0.0044393414 0.0029664533 -0.040807128 -0.001994225 0.012054473 0.012537395 0.030359607
-0.0123254275 4.9641192e-05 0.017662415 -0.043914475 -0.008241266 0.02793638 -0.006019143 0.009803925
-0.021648236 -0.013730164 -0.029268648 0.0017052098 -0.0021580923 -0.010403808 -0.0026573255 -0.0060170186
0.027895456 0.020436965 -0.013610334 -0.019041715 -0.02827446 -0.012543785 -0.0027778877 -0.032530315
-0.007963378 -0.043976862 -0.0018165946 0.017333562 0.017415615 -0.01948146 0.017038496 0.0011589567
-0.008253382 -0.0016301428 0.021917865 0.016538471 0.016971292 -0.030861326 -0.003310996 0.017946793
0.012423815 0.009619694 0.014173186 0.01291995 -0.01496295 -0.0077439807 -0.013655003 0.03047948
-0.019589238 -0.03548654 -0.004269943 -0.009907437 0.0050599836 -0.020503404 -0.024723541 0.009335384
-0.012105699 -0.017774096 -0.0014725467 0.01867787 0.011243128 -0.020079102 0.026690746 0.011068572
0.02437864 -0.032422543 -0.008814681 -0.026067682 -0.032492064 0.027969388 -0.0070331735 -0.006586335
0.0006467347 0.04020209 0.031625792 -0.0048614643 -0.038202442 -0.015866509 -0.019221295 -0.011903451
-0.014738859 0.004546655 -0.011470954 -0.027760612 -0.023754645 -0.014863933 -0.014093773 -0.033207092
-0.011977221 0.013548197 0.02944329 -0.023362128 0.022735199 -0.043142654 0.0095711155 -0.026151767
-0.029830461 -0.013255448 0.0060170405 -0.003266004 -0.022229305 -0.01780518 -0.022165932 0.029851103
-0.025824346 -0.034116518 0.009386898 -0.0022770816 -0.014048865 -0.028964553 0.016017484 -0.029965946
0.023743775 -0.009809312 -0.0033667798 0.030915048 -0.016466705 -0.020679206 -0.005122981 0.0077501005
00000000: 80da 5fbc adbd 7fbc 5fde b13c bbab 8cbb
00000010: 44fa 61bc 6653 103c f8fc 153d da99 65bc
00000020: 3ced 773c fb8c 9abc eb2d 30bd f4dc 00bd
00000030: c29c d3bc 1e68 2abb f4bd 4d3c 85dd 1cbb
00000040: f55f 8f3b 0ef1 4abd 57ba 5ebd 7ca4 65bd
00000050: f682 23bd 683b a4bc ed43 953c 69c0 843c
00000060: 3cca 443c 817e ceba 036b c83b b9c4 5dbc
00000070: 7129 d93b 277a 24bd df45 e2bc 651c a8bc
00000080: 56cd d9bc 4619 c8ba e985 e0bb e1e4 06bd
00000090: c1e1 21bd 3911 25bd 97ba 8ebc c11a 643c
000000a0: c922 853c 22e8 4a3c 618b c5bb 5515 85bc
000000b0: 0029 d93c ce3e 083d a0e5 c2bc b263 453b
000000c0: 3854 09bd cb5a b03c 9bdf aebb 5526 193d
000000d0: 9ee6 b3bc 0dba ecbc d2de f83c b622 843c
000000e0: 2bf8 58bb e067 d0ba 3c0a 8fbc f153 5e3c
000000f0: e7a4 6d3c e689 c2bc 628e ed3b d090 77bc
00000100: b523 56bd 7d15 51bc 34fd 0dbd 1cd9 efbc
00000110: b3b6 0ebd aa34 723c 2e44 e3bc e4cc 1bbd
00000120: 904f b03c 8f08 7e3c f947 e63b aa18 bebb
00000130: ed5a 5bbd 310e 683c 342d f23c 432d 023d
00000140: e763 363d 2b25 b63b 3f1e cabb f995 9c3c
00000150: d7b5 49bc aee8 cd3c 59e7 3abd 651d 42bb
00000160: 42af 493c 95de b5bc 4298 40bd eb6e 68bd
00000170: 4a35 51bc 0958 933c 2bdc bcbb a0e0 89bc
00000180: 9c09 603b e7f2 2b3c 15fd af3c 2e4c 62bc
00000190: cdbf cebc e79b 503c 3c8b 14bd 6c4c c1bc
000001a0: 8053 023b 4898 56bc bbe2 9abc e132 47bc
000001b0: 1c9f 32bb 3924 433d 2952 b63b 25cc fabc
000001c0: d488 603c e3e5 92bb 9640 8b3b 8c2d f1bc
000001d0: bf4d c3bb bb17 9dbc 471a 4cbd 1739 0cbc
000001e0: 81c7 133c be25 9f3c 8b81 8b3b 9f51 923c
000001f0: 5faa 173d 7c36 d03c 8690 d6bb 4191 e6bc
00000200: 2f74 10bc e577 913b d468 423b 6025 27bd
00000210: 8bb1 02bb 2080 453c a569 4d3c b6b4 f83c
00000220: 97f0 49bc d335 5038 c5b0 903c aadf 33bd
00000230: 6006 07bc d6da e43c 3b3c c5bb a4a0 203c
00000240: a457 b1bc 7bf4 60bc cec4 efbc 5981 df3a
00000250: c86e 0dbb bc74 2abc 8626 2ebb 692a c5bb
00000260: 0385 e43c 6c6b a73c e1fd 5ebc 5ffd 9bbc
00000270: d79f e7bc 7384 4dbc 390d 36bb 823e 05bd
00000280: d478 02bc 1521 34bd cd1a eeba 1dff 8d3c
00000290: 31ab 8e3c 9597 9fbc 5194 8b3c 22e8 973a
000002a0: 3139 07bc 84aa d5ba 188d b33c b07b 873c
000002b0: 6107 8b3c e4d0 fcbc 4cfd 58bb 2705 933c
000002c0: 428d 4b3c ec9b 1d3c a736 683c 33ae 533c
000002d0: 2927 75bc 38c1 fdbb 3cb9 5fbc 1ab0 f93c
000002e0: 9c79 a0bc 565a 11bd e1ea 8bbb cd52 22bc
000002f0: 38ce a53b c1f6 a7bc 0689 cabc 70f3 183c
00000300: fb56 46bc fb9a 91bc 7802 c1ba 5502 993c
00000310: 1935 383c ee7c a4bc 8da6 da3c f558 353c
00000320: b7b5 c73c 80cd 04bd 746b 10bc e48b d5bc
00000330: 6616 05bd 0f20 e53c 8976 e6bb 2fd2 d7bb
00000340: a289 293a f2aa 243d 0c8a 013d eb4c 9fbb
00000350: 2a7a 1cbd 7bfa 81bc fa75 9dbc b106 43bc
00000360: 417b 71bc 1bfc 943b abf0 3bbc 396a e3bc
00000370: 1a99 c2bc db87 73bc 92e9 66bc 2904 08bd
00000380: 1b3c 44bc 42f9 5d3c 0e33 f13c ef61 bfbc
00000390: 2b3f ba3c 5ab6 30bd 2bd0 1c3c 3b3c d6bc
000003a0: 035f f4bc 612d 59bc 982a c53b 740a 56bb
000003b0: 3b1a b6bc 2bdc 91bc 5495 b5bc 4d8a f43c
000003c0: 948d d3bc c3bd 0bbd 81cb 193c 173b 15bb
000003d0: 362d 66bc 1247 edbc 1937 833c 257b f5bc
000003e0: 4e82 c23c 3db7 20bc 31a5 5cbb 8e41 fd3c
000003f0: 2fe5 86bc 7067 a9bc aede a7bb 8ef4 fd3b

classifier.1.bias f4 [64]
-0.0147720575 -0.020619314 0.023979705 -0.026415655 0.0064535765 -0.028059341 0.030749232 -0.020517148
-0.026689555 -0.023406183 -0.015872104 0.032027125 0.029736694 0.021821791 -0.031630315 0.03408984
0.02650295 -0.0130075 -0.0008606939 0.012741195 0.00729657 0.013932598 -0.0339827 -0.017804887
0.03125082 -0.00048117587 0.03552117 0.0019636513 -0.032578025 -0.005155702 -0.022435606 -0.026156032
0.027642159 0.013654028 0.02705725 -0.012241119 0.032627225 0.004550882 0.0018419599 0.014905533
-0.009418456 -0.022096762 -0.02385444 -0.023011329 0.00353429 -0.019203203 0.029307391 -0.0028271992
0.011140018 0.028536709 0.029107396 0.028614951 -0.02370689 0.03431671 -0.0018845485 0.032380693
0.010864754 0.010601972 0.015495532 -0.01296355 -0.013695815 -0.000838398 -0.034292478 -0.035950962
00000000: 8006 72bc d6e9 a8bc 1671 c43c a565 d8bc
00000010: 8678 d33b b4dc e5bc d0e5 fb3c 9413 a8bc
00000020: 0ea4 dabc 53be bfbc 3706 82bc e02e 033d
00000030: 5e9a f33c 9dc3 b23c ca8e 01bd caa1 0b3d
00000040: b71c d93c 691d 55bc 31a0 61ba 72c0 503c
00000050: 1118 ef3b 8d45 643c 7231 0bbd 8edb 91bc
00000060: dc00 003d 5546 fcb9 a57e 113d 9ab0 003b
00000070: 8970 05bd 2af1 a8bb e0ca b7bc 2d45 d6bc
00000080: cf71 e23c 25b5 5f3c 2aa7 dd3c f98e 48bc
00000090: 20a4 053d 911f 953b eb6d f13a 5636 743c
000000a0: de4f 1abc 4504 b5bc 636a c3bc 4182 bcbc
000000b0: 8c9f 673b 0950 9dbc 0e16 f03c 8848 39bb
000000c0: 9f84 363c d1c5 e93c a272 ee3c e769 ea3c
000000d0: f434 c2bc ae8f 0c3d f402 f7ba 9ea1 043d
000000e0: 1502 323c e5b3 2d3c f9e0 7d3c 1265 54bc
000000f0: 6964 60bc f0c7 5bba 4576 0cbd 5141 13bd

classifier.2.weight f4 [64]
1.0202522 1.0102081 1.0151097 1.0027725 0.98694265 0.9896076 0.9967887 0.9746652
1.0096157 1.0379858 1.018969 1.004277 1.0052376 0.97850347 1.0169702 0.9771524
0.990432 0.98254985 0.999764 1.0177668 1.0261892 0.9944648 0.9897324 1.0240743
0.9951074 1.0038215 1.0064822 0.9833024 0.9880629 0.9899433 0.99520826 1.0377707
0.98036474 1.016593 0.9864263 0.9876698 0.9865915 0.97999996 1.0233681 1.021145
1.0030705 0.9900254 0.98275006 1.0106281 1.0011526 0.98855567 0.99902666 0.97679526
1.0120826 0.97217554 0.98088545 1.0195376 0.9810626 1.0068305 0.9858145 1.0050654
0.9806522 0.9780354 0.97928965 1.0258895 1.004933 0.9891695 1.013757 0.9804986
00000000: a097 823f 804e 813f 1def 813f d95a 803f
00000010: 46a8 7c3f ec56 7d3f 8b2d 7f3f a983 793f
00000020: 163b 813f b8dc 843f 946d 823f 268c 803f
00000030: a0ab 803f 347f 7a3f 142c 823f a926 7a3f
00000040: f48c 7d3f 6388 7b3f 89f0 7f3f 2f46 823f
00000050: 2b5a 833f 3f95 7e3f 1a5f 7d3f de14 833f
00000060: 5cbf 7e3f 397d 803f 69d4 803f b5b9 7b3f
00000070: b1f1 7c3f ed6c 7d3f f8c5 7e3f acd5 843f
00000080: 2ff9 7a3f b81f 823f 6f86 7c3f eed7 7c3f
00000090: 4391 7c3f 47e1 7a3f bafd 823f e1b4 823f
000000a0: 9d64 803f 4e72 7d3f 8295 7b3f 435c 813f
000000b0: c525 803f fc11 7d3f 36c0 7f3f 410f 7a3f
000000c0: ec8b 813f 7fe0 783f 4f1b 7b3f 3580 823f
000000d0: eb26 7b3f d2df 803f 575e 7c3f fca5 803f
000000e0: 060c 7b3f 8760 7a3f bab2 7a3f 5950 833f
000000f0: a5a1 803f 363a 7d3f cac2 813f f501 7b3f

classifier.2.bias f4 [64]
0.00863738 -0.017561816 -0.018134976 -0.00024786757 -0.022222338 0.0021142648 -0.024409898 -0.01705032
-0.011355267 0.0282133 0.008296352 -0.0064296145 -0.0014798236 -0.021746648 0.014075455 -0.013420037
-0.012000558 -0.02574384 0.023777222 0.009442892 0.015865143 0.001164331 -0.013285612 0.021913778
0.01224895 0.007877232 -0.007992047 -0.017527798 0.023105063 0.01885233 -0.024747467 0.017727196
0.0197269 -0.0065312046 -0.0044230944 -0.015862234 -0.01828478 0.009101493 0.018294409 0.026727416
0.032080807 0.0037745514 -0.02865204 3.182739e-05 -0.004378405 -0.0012996804 0.020869983 -0.008771476
0.024262212 -0.017710052 0.030835457 0.020021835 -0.010424752 0.008672239 -0.00831993 0.02212263
0.0067436923 0.01598619 0.008360371 0.009858536 0.022006357 0.0014376992 0.030525895 -0.0032500103
00000000: cc83 0d3c ccdd 8fbc cd8f 94bc 39f4 81b9
00000010: 9f0b b6bc 7a8f 0a3b 44f7 c7bc 1dad 8bbc
00000020: 710b 3abc 941f e73c 6ced 073c 84af d2bb
00000030: a4f6 c1ba 0726 b2bc bd9c 663c b7df 5bbc
00000040: fd9d 44bc bfe4 d2bc 73c8 c23c 5cb6 1a3c
00000050: 9ef7 813c 779c 983a e5ab 59bc 8684 b33c
00000060: d2af 483c 810f 013c 13f1 02bc 7596 8fbc
00000070: d446 bd3c 3470 9a3c 33bb cabc a038 913c
00000080: 4f9a a13c b703 d6bb 9bef 90bb 84f1 81bc
00000090: f7c9 95bc 6e1e 153c 28de 953c 74f3 da3c
000000a0: 2a67 033d 775e 773b afb7 eabc 667e 0538
000000b0: b978 8fbb 0a5a aaba 87f7 aa3c 3db6 0fbc
000000c0: 8cc1 c63c ac14 91bc a49a fc3c d504 a43c
000000d0: 94cc 2abc 0216 0e3c 5150 08bc 853a b53c
000000e0: 31fa dc3b 78f5 823c f0f9 083c b285 213c
000000f0: ad46 b43c 2e71 bc3a 7111 fa3c 20fe 54bb

classifier.2.running_mean f4 [64]
-0.41429323 0.9264167 0.4453437 1.0383396 1.2076367 3.052419 1.4937984 -0.19501688
1.7565519 0.31266087 1.1573592 -0.09073656 1.1721094 0.7705477 0.2032123 -1.6221645
0.737546 0.7151158 -1.6525954 1.0747513 0.66801286 0.32125902 -0.36500794 1.0572153
0.21071504 -0.78645414 0.94807345 0.42621526 1.4347926 0.68280184 1.2099952 0.95112735
-0.40552187 0.39013186 1.1692078 0.82967085 -0.09098517 -0.21715508 -0.15261602 1.8316933
2.370352 0.95458424 -0.6051261 0.32787502 0.9105172 -1.0983579 -1.268888 -1.2031684
0.040576745 -0.17828475 1.0950768 1.2516112 0.7339267 -1.0265067 0.5017574 0.6229991
2.3160982 1.8245802 0.7823391 1.1015021 -0.49925247 0.8102665 -0.6597158 -2.0106938
00000000: 3e1e d4be a529 6d3f 1704 e43e 50e8 843f
00000010: d793 9a3f d55a 4340 c934 bf3f 81b2 47be
00000020: b1d6 e03f 1615 a03e 5924 943f 17d4 b9bd
00000030: ae07 963f 9d42 453f e316 503e 16a3 cfbf
00000040: d1cf 3c3f d411 373f 3f88 d3bf 7391 893f
00000050: e402 2b3f 107c a43e 52e2 babe d552 873f
00000060: afc5 573e 0f55 49bf f1b4 723f e338 da3e
00000070: 49a7 b73f 1acc 2e3f 1fe1 9a3f 157d 733f
00000080: 90a0 cfbe 5dbf c73e 9aa8 953f 4f65 543f
00000090: 6f56 babd e75d 5ebe 6047 1cbe ed74 ea3f
000000a0: d9b3 1740 a25f 743f 8be9 1abf 3cdf a73e
000000b0: a817 693f fe96 8cbf ec6a a2bf 6c01 9abf
000000c0: cd33 263d 4790 36be 7a2b 8c3f cc34 a03f
000000d0: 9fe2 3b3f 9264 83bf 2c73 003f de7c 1f3f
000000e0: f43a 1440 d88b e93f 6047 483f 05fe 8c3f
000000f0: 059e ffbe a06d 4f3f 22e3 28bf 35af 00c0

classifier.2.running_var f4 [64]
0.6202159 2.5874598 0.28610075 0.58154804 1.9727678 1.150156 1.872918 1.0362089
1.3804326 0.23705873 0.818895 1.0141559 0.674384 0.59749025 0.77018833 0.5218809
2.452948 1.0307946 1.2624414 0.7353595 0.5294568 0.91298133 0.67771846 2.219479
2.2117217 0.6803472 1.2370467 0.6325371 0.50186604 1.6708953 0.5337052 0.39819643
0.38660046 0.23158456 0.69864935 0.78420526 1.167497 0.7699623 0.62442756 0.8666201
2.5552666 1.7859529 0.8417133 0.790569 0.43835017 1.1772357 0.7836516 0.94150996
0.56406206 0.6731019 0.888733 0.58022803 1.071169 0.5683911 1.9668416 0.69076437
1.3195969 1.0738895 1.5337651 0.34809723 2.332842 0.87772286 1.1098691 1.7431592
00000000: 78c6 1e3f f198 2540 cc7b 923e 55e0 143f
00000010: a883 fc3f 5038 933f c7bb ef3f 7ea2 843f
00000020: 04b2 b03f 86bf 723e 1aa3 513f dccf 813f
00000030: 6ea4 2c3f 1ff5 183f 102b 453f fd99 053f
00000040: 1afd 1c40 14f1 833f ae97 a13f 8540 3c3f
00000050: 7b8a 073f 25b9 693f f57e 2d3f f20b 0e40
00000060: d98c 0d40 3c2b 2e3f 8c57 9e3f f4ed 213f
00000070: 4b7a 003f e6df d53f e7a0 083f 67e0 cb3e
00000080: 7ff0 c53e 8124 6d3e afda 323f adc1 483f
00000090: 8b70 953f 401c 453f 7cda 1f3f d1da 5d3f
000000a0: 7d89 2340 1b9a e43f 867a 573f bb62 4a3f
000000b0: 6f6f e03e a9af 963f 649d 483f cc06 713f
000000c0: 5f66 103f 6850 2c3f 0284 633f d389 143f
000000d0: 111c 893f 1482 113f 77c1 fb3f efd5 303f
000000e0: 8de8 a83f 3675 893f 6a52 c43f cd39 b23e
000000f0: 494d 1540 72b2 603f 3110 8e3f d71f df3f

classifier.4.weight f4 [64, 64]
0.08951806 -0.118088074 -0.053500947 0.13105991 -0.123717725 0.0064011966 -0.079763345 -0.11862221
0.09391616 -0.063137814 0.02879133 -0.095774785 -0.09853832 -0.026923053 -0.052539717 0.074961185
-0.0010810328 -0.07969048 0.044862263 0.0346485 0.011539005 -0.11676566 0.02425704 -0.10132782
0.057165768 -0.03886459 -0.09900691 -0.015389607 0.05074398 0.016828299 0.002697275 0.10488562
-0.025603037 0.0033500951 -0.0463813 -0.014782898 -0.13039279 -0.008933728 -0.056915667 0.09706771
0.10432399 -0.07768347 -0.05448989 0.034545287 0.123216726 -0.015340602 -0.07338403 0.015396652
0.086552694 -0.079892926 0.11900201 0.07694562 0.07266324 0.023427268 -0.13098755 -0.107723676
0.09940159 -0.014519905 0.013517686 0.08066819 0.06667835 -0.10831579 0.07963342 0.053634707
-0.09867272 0.11950852 -0.108860955 0.116060816 0.035879906 -0.020833872 0.09226833 -0.060082383
-0.13662289 -0.024600793 -0.09358332 -0.0026115428 0.01134277 0.053449582 -0.018690998 -0.08080545
-0.0029691455 -0.08660053 -0.10703619 -0.13979134 -0.07692526 -0.01869186 0.0665979 -0.046818588
-0.023346098 0.06991267 0.028760541 0.088227235 -0.08666776 -0.040615935 0.073282056 0.00014653649
-0.124394946 -0.0065904446 -0.073133335 -0.06668801 -0.05661817 -0.024050089 -0.06917053 0.055063352
0.13118097 0.037081532 0.05739423 -0.083131336 -0.106116 0.08389277 0.033371825 0.032795966
0.0516971 0.14032349 0.020804081 0.028973332 0.092255265 -0.122871496 0.014934499 0.09414876
-0.06545787 0.06462704 0.07234889 -0.034148507 -0.0611506 -0.042315938 -0.09348384 0.04641542
0.03299578 -0.029923983 -0.10453801 -0.016996477 0.019045405 -0.051408615 -0.0005471103 -0.12331444
0.06999468 0.019885682 -0.08336675 -0.112264164 0.13346843 0.08684012 0.006198491 -0.052239463
0.09077326 -0.083416805 0.04017822 -0.032664876 0.020555183 0.023950508 -0.021022368 -0.018348264
0.049832124 0.066344365 -0.07835332 0.086766854 0.12429512 0.02442049 0.051467896 0.03914816
-0.08462831 -0.088237055 0.11656697 -0.102881454 -0.065836616 0.08948235 -0.046465192 -0.0400457
-0.088639095 -0.0031651226 0.042816978 -0.01821004 0.12884647 0.022862025 -0.024075434 -0.03932455
0.039514348 -0.020893345 0.07146595 0.12393644 -0.114468455 -0.11614464 -0.013765851 0.1152049
0.023139205 -0.002874166 0.08859828 0.010977594 -0.1267471 0.09118596 -0.069403365 -0.12510933
-0.11737919 0.009415996 -0.06604326 0.025636096 0.06812475 0.031324465 -0.082760125 0.035715014
-0.018730283 0.09975889 0.025501404 -0.055790216 0.08848957 -0.10875797 0.02627816 0.04273722
-0.07618489 -0.07480666 0.081287324 -0.099426694 0.114636645 0.0863037 -0.011392388 0.093459755
-0.083569564 0.075201415 0.046022598 -0.07480474 -0.07550281 -0.096030094 0.022352006 0.086658254
-0.13468613 -0.039748587 -0.05263477 -0.08381578 0.065219805 -0.11136861 -0.12150189 -0.10362382
0.025031358 -0.0142786065 0.10357286 -0.13277446 0.06606553 -0.07633671 -0.13364126 -0.110883646
-0.059677675 -0.08476449 0.017977465 -0.0029574565 0.051344264 0.08863986 -0.11167046 -0.06200285
-0.05222139 -0.1105692 0.0031730235 0.023054838 0.09682717 0.015687678 0.09531724 0.05273773
00000000: 3f55 b73d 29d8 f1bd cf23 5bbd 9234 063e
00000010: b85f fdbd 21c1 d13b f75a a3bd 34f0 f2bd
00000020: 1e57 c03d 664e 81bd ccdb eb3c 9225 c4bd
00000030: 75ce c9bd bc8d dcbc e333 57bd 4085 993d
00000040: 71b1 8dba c334 a3bd 7ec1 373d 96eb 0d3d
00000050: 180e 3d3c d622 efbd b3b6 c63c f684 cfbd
00000060: a726 6a3d 7a30 1fbd 23c4 cabd b124 7cbc
00000070: ebd8 4f3d 80db 893c c4c4 303b 46ce d63d
00000080: 76bd d1bc 458d 5b3b 51fa 3dbd f833 72bc
00000090: b085 05be c55e 12bc 6720 69bd 6fcb c63d
000000a0: d1a7 d53d 8318 9fbd ca30 5fbd 5c7f 0d3d
000000b0: 0d59 fc3d 2657 7bbc 5e4a 96bd 3d42 7c3c
000000c0: 8a42 b13d e79e a3bd 53b7 f33d aa95 9d3d
000000d0: 77d0 943d 8bea bf3c 9a21 06be 3b9e dcbd
000000e0: 1093 cb3d e5e4 6dbc 4979 5d3c 5d35 a53d
000000f0: a98e 883d abd4 ddbd d916 a33d 11b0 5b3d
00000100: ec14 cabd e2c0 f43d 7ef2 debd 4bb1 ed3d
00000110: cff6 123d ccab aabc 2ef7 bc3d f218 76bd
00000120: dfe6 0bbe 9a87 c9bc 9da8 bfbd 6b26 2bbb
00000130: 07d7 393c f3ed 5a3d dd1d 99bc 547d a5bd
00000140: ff95 42bb 9e5b b1bd ca35 dbbd 7625 0fbe
00000150: fe8a 9dbd ac1f 99bc 7b64 883d d9c4 3fbd
00000160: 5140 bfbc 602e 8f3d 3a9b eb3c 7bb0 b43d
00000170: de7e b1bd e55c 26bd e714 963d 97a7 1939
00000180: c7c2 febd a8f4 d7bb eec6 95bd b993 88bd
00000190: 74e8 67bd b104 c5bc 47a9 8dbd 1c8a 613d
000001a0: 4e54 063e cee2 173d 3616 6b3d c340 aabd
000001b0: 5853 d9bd f9cf ab3d e5b0 083d 1055 063d
000001c0: 57c0 533d f6b0 0f3e 526d aa3c 7b59 ed3c
000001d0: 54f0 bc3d 0da4 fbbd d4af 743c 11d1 c03d
000001e0: c70e 86bd 2e5b 843d a82b 943d 4edf 0bbd
000001f0: 0d79 7abd 7a53 2dbd 7574 bfbd 181e 3e3d
00000200: 9526 073d 2423 f5bc 0618 d6bd 323c 8bbc
00000210: 1c05 9c3c d791 52bd f36b 0fba 488c fcbd
00000220: 5f59 8f3d 4ce7 a23c 30bc aabd c1ea e5bd
00000230: f3ab 083e 3cd9 b13d b61c cb3b 0cf9 55bd
00000240: 55e7 b93d 6ed6 aabd eb91 243d 9bcb 05bd
00000250: 5863 a83c db33 c43c 1a37 acbc 194f 96bc
00000260: c51c 4c3d 8edf 873d b577 a0bd d2b2 b13d
00000270: 718e fe3d 7b0d c83c 00d0 523d d259 203d
00000280: 9b51 adbd a1b5 b4bd aaba ee3d 83b3 d2bd
00000290: 59d5 86bd 8642 b73d 4952 3ebd f606 24bd
000002a0: 6a88 b5bd f26d 4fbb db60 2f3d 392d 95bc
000002b0: 54f0 033e 2449 bb3c d839 c5bc c812 21bd
000002c0: ccd9 213d 8528 abbc bd5c 923d 63d2 fd3d
000002d0: 706e eabd 3edd edbd 2a8a 61bc 8cf0 eb3d
000002e0: 6e8e bd3c 815c 3cbb 0473 b53d 5edb 333c
000002f0: fec9 01be b4bf ba3d 5a23 8ebd a91c 00be
00000300: 8064 f0bd 8d45 1a3c b041 87bd ca02 d23c
00000310: fd84 8b3d 154e 003d 247e a9bd e849 123d
00000320: 4070 99bc 644e cc3d 52e8 d03c 4884 64bd
00000330: 053a b53d 80bc debd 4c45 d73c 390d 2f3d
00000340: d306 9cbd 3c34 99bd f879 a63d 39a0 cbbd
00000350: 9ec6 ea3d ffbf b03d 23a7 3abc d467 bf3d
00000360: 8526 abbd 3303 9a3d 3182 3c3d 3a33 99bd
00000370: 38a1 9abd 6dab c4bd 8e1b b73c e279 b13d
00000380: 29eb 09be 6acf 22bd 8e97 57bd 9ca7 abbd
00000390: f691 853d 3a15 e4bd fcd5 f8bd ba38 d4bd
000003a0: 900e cd3c d1f0 69bc 021e d43d 07f6 07be
000003b0: 5d4d 873d 6c56 9cbd 41d9 08be f716 e3bd
000003c0: 9470 74bd 0199 adbd 7a45 933c e3d1 41bb
000003d0: 5d4e 523d d188 b53d 7bb3 e4bd b3f6 7dbd
000003e0: 19e6 55bd 1b72 e2bd 80f2 4f3b 80dd bc3c
000003f0: 534d c63d 7283 803c af35 c33d 8503 583d

classifier.4.bias f4 [64]
0.04389217 -0.020299403 0.037767064 0.035736553 -0.10566419 -0.03650579 -0.11813975 -0.011003489
0.010318032 -0.055409927 0.07505469 -0.10678547 0.08348764 -0.10774846 0.109511234 -0.04809188
0.048648138 0.016265376 0.03803522 0.052209985 -0.09445264 -0.09321164 -0.021230638 0.06385092
-0.11705457 0.07563953 -0.069137834 -0.021062022 0.100103036 0.01918565 0.09561956 -0.11121957
-0.063218884 0.10606427 0.05960431 -0.09235245 0.09317291 -0.05968195 0.0022936054 0.06906165
-0.11107551 0.04229261 0.03190892 0.09677917 -0.036591828 -0.10661686 0.06538097 -0.01922035
-0.004193811 -0.081627265 -0.06945658 0.03558653 0.023258964 -0.0054101488 0.08093795 0.02528395
0.053198043 -0.0010031381 -0.07226943 -0.014282489 -0.10410487 -0.11060211 -0.026914913 -0.0821302
00000000: 47c8 333d ef4a a6bc a3b1 1a3d 7e60 123d
00000010: 7866 d8bd 1887 15bd 41f3 f1bd fa47 34bc
00000020: f60c 293c 85f5 62bd 46b6 993d 57b2 dabd
00000030: 91fb aa3d 39ab dcbd 6d47 e03d fefb 44bd
00000040: 4543 473d f73e 853c d2ca 1b3d 23da 553d
00000050: 6370 c1bd bfe5 bebd e0eb adbc 45c4 823d
00000060: 4eba efbd e6e8 9a3d 2398 8dbd 438a acbc
00000070: d202 cd3d 392b 9d3c 30d4 c33d 16c7 e3bd
00000080: e778 81bd 3938 d93d a623 743d 4823 bdbd
00000090: 70d1 be3d 0f75 74bd 5050 163b 3270 8d3d
000000a0: 8f7b e3bd 043b 2d3d edb2 023d 2834 c63d
000000b0: 50e1 15bd f159 dabd 75e6 853d ff73 9dbc
000000c0: 3d6c 89bb 322c a7bd 403f 8ebd 2ec3 113d
000000d0: 9589 be3c 9e47 b1bb ccc2 a53d 4920 cf3c
000000e0: 31e6 593d bb7b 83ba ff01 94bd 1a01 6abc
000000f0: ef34 d5bd 5c83 e2bd aa7c dcbc e133 a8bd

classifier.5.weight f4 [64]
0.9681738 1.0221498 0.97009075 1.0310035 1.0306394 0.97916687 0.9627119 1.0232812
1.0194321 0.973672 1.0035995 0.97251415 1.0233643 0.98264116 0.96609986 1.0169277
0.98379624 1.0290664 1.0241315 0.9749596 0.9961474 1.0064867 1.0321862 0.9754397
0.9783786 0.9748605 1.0023558 1.0046207 0.9918736 1.0102382 1.0029217 1.0241445
0.9834199 1.0032697 0.9832943 0.9859453 1.0331687 0.96417266 0.9881237 0.9818067
1.0289159 0.97368115 1.0090259 1.0100079 0.96040773 0.99022144 1.0248342 0.9685009
1.02934 0.9953979 1.012457 0.97027534 1.008634 1.0077662 0.9798709 1.0319
1.0123401 1.005287 1.0038244 0.9955847 1.0191938 1.0231024 0.98443365 1.0106168
00000000: 3dda 773f ced5 823f de57 783f ecf7 833f
00000010: feeb 833f aeaa 7a3f 4974 763f e1fa 823f
00000020: c07c 823f 9142 793f f375 803f b0f6 783f
00000030: 9afd 823f 5f8e 7b3f 5252 773f b02a 823f
00000040: 12da 7b3f 73b8 833f be16 833f f496 793f
00000050: 8403 7f3f 8ed4 803f ad1e 843f 6bb6 793f
00000060: 0577 7a3f 7590 793f 324d 803f 6997 803f
00000070: 6eeb 7d3f 7c4f 813f bd5f 803f 2b17 833f
00000080: 68c1 7b3f 246b 803f 2db9 7b3f e966 7c3f
00000090: df3e 843f 05d4 763f adf5 7c3f af57 7b3f
000000a0: 84b3 833f 2b43 793f c327 813f f047 813f
000000b0: 48dd 753f 277f 7d3f c42d 833f adef 773f
000000c0: 6ac1 833f 66d2 7e3f 3198 813f f763 783f
000000d0: eb1a 813f 7cfe 803f d2d8 7a3f 4d15 843f
000000e0: 5c94 813f 3fad 803f 517d 803f a4de 7e3f
000000f0: f174 823f 05f5 823f d803 7c3f e45b 813f

classifier.5.bias f4 [64]
-0.010677289 0.031811632 0.009063947 0.03213277 0.011072015 0.029242866 -0.03250211 0.032141857
0.042062324 -0.017782338 0.035878092 -0.035202913 0.023509733 -0.0010085477 -0.029527409 0.027097182
0.030343404 0.03017701 0.02531144 -0.025649926 0.014636466 0.019163057 0.032875113 0.008009178
-0.02798314 0.015738007 -0.022165883 0.01970361 0.029101608 0.039505534 0.005066853 0.034348935
-0.0028035892 -0.018527355 0.0043267366 -0.0033459105 0.03431366 -0.036051895 0.024923433 0.031686686
0.03680804 -0.025469905 -0.0027875078 0.014654791 -0.015643364 -0.0038933388 0.029834453 -0.028109731
0.03135951 0.010262194 0.034482397 -0.02529437 0.024339015 0.012976979 0.007290935 0.03547979
0.031653866 0.019949552 0.018125353 0.021250974 0.026967743 0.02054806 -0.010579849 -0.024495145
00000000: ccef 2ebc ea4c 023d f380 143c a79d 033d
00000010: 6667 353c bc8e ef3c ef20 05bd 2ea7 033d
00000020: 8b49 2c3d 44ac 91bc e8f4 123d ee30 10bd
00000030: 7c97 c03c 3f31 84ba 77e3 f1bc e9fa dd3c
00000040: bb92 f83c c735 f73c f059 cf3c cb1f d2bc
00000050: cacd 6f3c d8fb 9c3c 0ea8 063d ed38 033c
00000060: e63c e5bc feec 803c 3a95 b5bc 7769 a13c
00000070: 7f66 ee3c 8ed0 213d d807 a63b 78b1 0c3d
00000080: 6cbc 37bb aec6 97bc 4cc7 8d3b 1047 5bbb
00000090: 7b8c 0c3d 27ab 13bd 3a2c cc3c e6c9 013d
000000a0: 07c4 163d 43a6 d0bc 9fae 36bb a61a 703c
000000b0: 8326 80bc 6327 7fbb 6267 f43c 6146 e6bc
000000c0: d472 003d c322 283c 6a3d 0d3d 2336 cfbc
000000d0: 9d62 c73c 659d 543c cce8 ee3b 4253 113d
000000e0: 7ca7 013d 3e6d a33c 9f7b 943c 8616 ae3c
000000f0: 75eb dc3c 6854 a83c 1a57 2dbc 0baa c8bc

classifier.5.running_mean f4 [64]
-0.013978685 -0.17054865 0.029220661 -0.29469 -0.08080231 -0.2782851 -0.50311077 0.18039164
-0.28469986 0.22783965 0.15682764 -0.23469764 -0.18904959 -0.17565912 0.4555151 0.11963684
0.21807802 -0.003802172 0.093072295 -0.024756383 -0.35030106 -0.15527588 -0.091996536 -0.0064561227
-0.20898438 -0.055808965 -0.45767468 -0.16344987 0.14932436 -0.17973791 0.11708827 -0.28261143
-0.06162123 0.53057814 -0.023392417 -0.3272184 -0.061670594 -0.24039866 0.07531875 0.25270247
0.1791337 -0.060036153 0.55564624 0.11849796 0.40977257 0.019701451 0.043268315 0.25863525
0.09330446 -0.46971688 0.06944272 -0.13222548 -0.22614776 0.076708496 -0.32254362 -0.04061837
-0.032808 -0.394368 -0.032202397 -0.4001636 -0.12880008 -0.07730933 -0.3297792 -0.23757996
00000000: db06 65bc 4ea4 2ebe 2b60 ef3c 9ce1 96be
00000010: ae7b a5bd 627b 8ebe decb 00bf 96b8 383e
00000020: 2ec4 91be cc4e 693e 6d97 203e 9454 70be
00000030: 3796 41be fcdf 33be 4639 e93e 2904 f53d
00000040: d84f 5f3e dc2d 79bb b09c be3d e6cd cabc
00000050: a95a b3be a400 1fbe ae68 bcbd e28d d3bb
00000060: 0000 56be f197 64bd 5654 eabe 675f 27be
00000070: 7ce8 183e 370d 38be facb ef3d 72b2 90be
00000080: 8b66 7cbd f8d3 073f 74a1 bfbc 2c89 a7be
00000090: 4e9a 7cbd 112b 76be b840 9a3d 3862 813e
000000a0: d36e 373e 78e8 75bd d53e 0e3f 0faf f23d
000000b0: b6cd d13e f064 a13c 1e3a 313d d76b 843e
000000c0: 6916 bf3d bb7e f0be fc37 8e3d 1e66 07be
000000d0: 4793 67be 5819 9d3d 7024 a5be 735f 26bd
000000e0: ae61 06bd 9aea c9be a9e6 03bd 3ee2 ccbe
000000f0: 2be4 03be 5b54 9ebd d2d8 a8be 2948 73be

classifier.5.running_var f4 [64]
0.24823327 0.105943695 0.2135622 0.111114286 0.16906625 0.15169474 0.18274933 0.23705088
0.23609799 0.2742606 0.2754275 0.35444707 0.2912586 0.08787925 0.14394957 0.20262265
0.13113105 0.17297742 0.2081437 0.090061545 0.12780966 0.1779973 0.12023361 0.15198712
0.12058567 0.49150887 0.09906885 0.22566861 0.24497516 0.21568039 0.17183527 0.10882329
0.11873595 0.21080844 0.24536076 0.07577101 0.17209691 0.23239133 0.18756618 0.18052766
0.0974387 0.33987296 0.15419585 0.1212864 0.26087612 0.26853114 0.25300178 0.24452373
0.12065957 0.08958069 0.19900864 0.14192416 0.19554655 0.1131964 0.10894462 0.17625779
0.20317823 0.23363559 0.16051595 0.09324458 0.19949159 0.17999753 0.11295642 0.26969346
00000000: dd30 7e3e 02f9 d83d 0db0 5a3e e38f e33d
00000010: b41f 2d3e de55 1b3e a422 3b3e 77bd 723e
00000020: acc3 713e e36b 8c3e d504 8d3e 167a b53e
00000030: d91f 953e 09fa b33d 8467 133e 507c 4f3e
00000040: 3847 063e fe20 313e 9f23 553e 3072 b83d
00000050: 89e0 023e ed44 363e 0a3d f63d 83a2 1b3e
00000060: 9ff5 f63d 0da7 fb3e 9ce4 ca3d ac15 673e
00000070: c5da 7a3e 52db 5c3e 96f5 2f3e bfde de3d
00000080: d52b f33d 2bde 573e da3f 7b3e d52d 9b3d
00000090: 2c3a 303e fef7 6d3e 5911 403e 3edc 383e
000000a0: f18d c73d d403 ae3e 84e5 1d3e 0165 f83d
000000b0: 8e91 853e ea7c 893e 7389 813e 6e64 7a3e
000000c0: 5d1c f73d 1576 b73d ecc8 4b3e 9154 113e
000000d0: 5b3d 483e 84d3 e73d 5b1e df3d ec7c 343e
000000e0: f40d 503e 2b3e 6f3e 4b5e 243e 04f7 be3d
000000f0: 8647 4c3e 4651 383e b255 e73d 4315 8a3e

classifier.7.weight f4 [64, 64]
0.015222037 0.104122855 0.04656544 0.0053422516 0.04938244 0.03953566 -0.13018264 -0.025983213
-0.104276955 0.02536268 -0.10943148 -0.09269988 -0.10156425 -0.0009959851 -0.07776266 0.05214295
0.069842644 -0.06716685 -0.010113036 -0.016462266 -0.12150556 0.024774095 -0.09895524 -0.11115094
-0.09464603 -0.09744155 -0.0031423015 0.06724201 -0.02464364 0.022636332 0.14426284 0.091182254
-0.09962226 -0.026982598 -0.09035836 -0.059079774 -0.019939557 -0.044291746 0.07035937 0.04660375
-0.041745532 0.070878625 -0.10216174 0.054466963 -0.009983184 0.009693048 0.029457912 -0.0761935
-0.03383166 0.070362605 -0.11838901 0.013898429 -0.09446662 -0.009322697 -0.040317748 0.05954635
0.08715795 -0.04443957 0.058177132 0.0036144247 -0.053536065 0.02451406 0.1353963 0.0133053465
-0.12985033 0.03212798 -0.035254158 0.0738387 -0.06577538 0.04696265 0.011055862 -0.06985606
0.08729998 0.10697077 -0.084608056 -0.019143501 0.04595038 -0.020756435 -0.09022422 -0.059705544
-0.11381634 -0.06971469 -0.012519086 -0.13229232 0.08637051 0.121431895 0.058808345 -0.081144385
-0.10462731 0.12542295 -0.11829975 0.089976594 0.03976376 0.059722714 -0.08055313 0.063016646
0.1510776 -0.02734095 0.092478834 -0.01206726 -0.15976562 -0.1158296 -0.026664598 0.074909784
0.008803544 -0.0022846179 0.065117545 -0.04822715 0.088260286 0.018720703 0.07648747 0.107429326
0.00075188273 0.022090958 -0.04752637 0.045113225 -0.06603982 0.038907744 0.01891586 0.002112188
0.07706846 -0.061431002 -0.0893712 0.10848137 -0.081911445 0.026913546 -0.10434457 -0.04885121
-0.0049135326 -0.11660233 -0.06627118 -0.06981243 0.088610746 -0.028431447 0.037744828 0.04804129
0.01929234 -0.0074360324 -0.12577252 -0.013236681 0.012833339 0.06773677 0.0091780275 -0.05938208
0.0880151 -0.13700815 0.10325939 -0.040934302 -0.02122206 -0.072385356 0.14976439 0.101736195
-0.07170662 0.068124555 -0.1126833 -0.019412804 0.10765011 -0.039062187 0.029941514 0.06611456
0.0289199 -0.008211118 0.07638509 0.06587731 0.08166977 -0.105071194 0.028114866 -0.087308906
-0.03175263 -0.047589615 0.080655076 -0.13069311 0.08214615 -0.044761006 -0.09678126 0.032932825
-0.038577884 -0.047854654 0.06384162 0.10354252 0.06674995 -0.087988235 -0.030496912 -0.09503035
0.048365127 0.07551693 0.04891671 -0.014194945 0.120378256 0.050969556 0.023155598 0.00085233356
0.08585404 0.10043556 0.00409414 0.032908272 0.007912708 -0.03814816 0.011287557 -0.030941298
-0.104369454 -0.029334096 -0.10219441 0.07851608 0.13866992 0.11760204 -0.030472225 -0.094056256
0.08479685 -0.012721087 0.09502595 0.08561229 0.058020756 -0.11189188 -0.13542649 -0.030115278
-0.0065036286 -0.018859036 -0.08169724 -0.07601564 0.06314274 0.007429658 -0.04034744 -0.11316533
0.049724553 -0.021600861 -0.14282127 -0.011691117 -0.018083185 0.08274944 0.061124314 0.081758924
-0.04931751 -0.010306235 -0.061170574 -0.028324362 -0.0011735212 0.027842836 0.06065889 -0.05698876
0.0041428762 -0.051551986 -0.058958285 0.015586388 -0.019132223 -0.01049422 -0.054731622 -0.018582696
0.092326395 -0.09096206 -0.06849201 0.07999029 0.08966107 -0.009967108 -0.018122757 -0.0027500587
00000000: da65 793c 5d3e d53d 67bb 3e3d 0e0e af3b
00000010: 3e45 4a3d 25f0 213d 994e 05be bfda d4bc
00000020: 288f d5bd 65c5 cf3c 9d1d e0bd 6fd9 bdbd
00000030: eb00 d0bd b78b 82ba 0842 9fbd d993 553d
00000040: a909 8f3d c68e 89bd 26b1 25bc e0db 86bc
00000050: e8d7 f8bd 0bf3 ca3c 0ba9 cabd 1ba3 e3bd
00000060: c7d5 c1bd 6f8f c7bd 12ef 4dbb 2eb6 893d
00000070: 75e1 c9bc d46f b93c a3b9 133e c3bd ba3d
00000080: c106 ccbd 9c0a ddbc ce0d b9bd a2fd 71bd
00000090: 4858 a3bc 436b 35bd 9318 903d 93e3 3e3d
000000a0: 5dfd 2abd d028 913d 2d3a d1bd c018 5f3d
000000b0: 8290 23bc 97cf 1e3c b851 f13c 560b 9cbd
000000c0: 1193 0abd 451a 903d f075 f2bd 3db6 633c
000000d0: b777 c1bd 3abe 18bc 3924 25bd e0e6 733d
000000e0: de7f b23d 4406 36bd 254b 6e3d fcdf 6c3b
000000f0: a248 5bbd b6d1 c83c 54a5 0a3e abfe 593c
00000100: 7cf7 04be a198 033d aa66 10bd bf38 973d
00000110: 3eb5 86bd e85b 403d a523 353c b210 8fbd
00000120: 55ca b23d 7e13 db3d fd46 adbd d5d2 9cbc
00000130: 7736 3c3d 6609 aabc 7ac7 b8bd cd8d 74bd
00000140: 8b18 e9bd 93c6 8ebd da1c 4dbc a377 07be
00000150: 06e3 b03d 49b1 f83d 05e1 703d 072f a6bd
00000160: d846 d6bd e06e 003e 2447 f2bd a645 b83d
00000170: 53df 223d ce9f 743d 0af9 a4bd df0e 813d
00000180: 16b4 1a3e 21fa dfbc 8b65 bd3d c2b5 45bc
00000190: 9999 23be 1238 edbd b76f dabc 4d6a 993d
000001a0: bd3c 103c 87b9 15bb 595c 853d d589 45bd
000001b0: cfc1 b43d 295c 993c 76a5 9c3d e803 dc3d
000001c0: ff19 453a 19f8 b43c 03ab 42bd a5c8 383d
000001d0: e33f 87bd ba5d 1f3d 6ff5 9a3c a26c 0a3b
000001e0: 12d6 9d3d 139f 7bbd 3f08 b7bd 7b2b de3d
000001f0: 30c1 a7bd cc79 dc3c 9bb2 d5bd 3518 48bd
00000200: b301 a1bb 34cd eebd 2fb9 87bd d2f9 8ebd
00000210: 8d79 b53d 11e9 e8bc 529a 1a3d f2c6 443d
00000220: f80a 9e3c f6a9 f3bb 83ca 00be aade 58bc
00000230: ed42 523c 93b9 8a3d 705f 163c a03a 73bd
00000240: 4341 b43d dd4b 0cbe a979 d33d baaa 27bd
00000250: e3d9 adbc c63e 94bd d65b 193e 115b d03d
00000260: ecda 92bd e384 8b3d 81c6 e6bd 9a07 9fbc
00000270: a977 dc3d acff 1fbd e847 f53c 1267 873d
00000280: 6de9 ec3c ed87 06bc c96f 9c3d afea 863d
00000290: 7b42 a73d 912f d7bd 2651 e63c 03cf b2bd
000002a0: 0c0f 02bd 54ed 42bd 7d2e a53d 6ad4 05be
000002b0: 3e3c a83d 5157 37bd 4135 c6bd 92e4 063d
000002c0: d803 1ebd 3e03 44bd 65bf 823d 1a0e d43d
000002d0: 33b4 883d 2d33 b4bd a9d4 f9bc 469f c2bd
000002e0: 831a 463d 9fa8 9a3d e35c 483d ea91 68bc
000002f0: e088 f63d 74c5 503d cfb0 bd3c 236f 5f3a
00000300: 3ed4 af3d 29b1 cd3d 2328 863b d3ca 063d
00000310: 4ea4 013c 3f41 1cbd 72ef 383c 9b78 fdbc
00000320: a7bf d5bd 0f4e f0bc 4e4b d1bd 0acd a03d
00000330: 7dff 0d3e 57d9 f03d e3a0 f9bc 91a0 c0bd
00000340: f9a9 ad3d 1b6c 50bc f79c c23d 7f55 af3d
00000350: 2ca7 6d3d 9227 e5bd 3ead 0abe 51b4 f6bc
00000360: 641c d5bb 447e 9abc e250 a7bd 16ae 9bbd
00000370: fb50 813d 7d74 f33b 5b43 25bd 39c3 e7bd
00000380: f9ab 4b3d 4af4 b0bc bd3f 12be 198c 3fbc
00000390: 3023 94bc 8a78 a93d 7d5d 7a3d 3971 a73d
000003a0: 2801 4abd 7cdb 28bc ff8d 7abd 7e08 e8bc
000003b0: d6d0 99ba a916 e43c 7575 783d 0c6d 69bd
000003c0: f7c0 873b 2d28 53bd 3e7e 71bd 0d5e 7f3c
000003d0: 2ebb 9cbc f3ef 2bbc 442e 60bd bd3a 98bc
000003e0: 9f15 bd3d 514a babd 8a45 8cbd f3d1 a33d
000003f0: 39a0 b73d 154d 23bc 2d76 94bc 543a 34bb

classifier.7.bias f4 [64]
0.027676627 0.054594446 -0.09594564 -0.019460715 0.054144867 0.09051613 0.11963639 0.04409296
0.07988886 0.08918688 0.11967728 -0.041274343 0.06383608 0.016450547 -0.049298596 -0.108537406
0.024091445 -0.0077799344 -0.11639927 -0.023142893 0.012734559 -0.123442955 -0.034632325 0.022031492
0.02826545 0.033669636 0.09131158 -0.012924067 0.10913871 -0.08061852 0.08256688 0.09588706
-0.016319051 -0.008720388 -0.11602578 -0.06623728 -0.11915005 -0.118458495 -0.11302364 0.022202523
-0.109566204 -0.059756655 0.10918336 -0.11310718 -0.10330005 -0.11015126 -0.035101112 0.08842643
0.007829895 0.0021727583 -0.026219394 0.06138702 0.12449079 -0.033971876 -0.035623398 -0.018484129
-0.09331636 -0.10168588 -0.07071619 -0.0029900377 -0.034880225 0.03450688 0.033115514 0.071968846
00000000: 18ba e23c 6d9e 5f3d 267f c4bd 146c 9fbc
00000010: 02c7 5d3d 8560 b93d ec03 f53d d29a 343d
00000020: c59c a33d 9ca7 b63d 5d19 f53d 490f 29bd
00000030: 7ebc 823d 4cc3 863c 53ed 49bd dc48 debd
00000040: 6c5b c53c d2ee febb be62 eebd 2a96 bdbc
00000050: 9da4 503c a9cf fcbd a0da 0dbd 637b b43c
00000060: f28c e73c 2ce9 093d 9101 bb3d 77bf 53bc
00000070: 1e84 df3d 531b a5bd d318 a93d 6f60 c43d
00000080: 88af 85bc f5df 0ebc ed9e edbd 69a7 87bd
00000090: f104 f4bd 5e9a f2bd f078 e7bd 11e2 b53c
000000a0: 3f64 e0bd 65c3 74bd 879b df3d bda4 e7bd
000000b0: fa8e d3bd fc96 e1bd 2fc6 0fbd eb18 b53d
000000c0: f648 003c d664 0e3b 0eca d6bc f570 7b3d
000000d0: 07f5 fe3d 1826 0bbd d7e9 11bd 076c 97bc
000000e0: a61c bfbd b040 d0bd a6d3 90bd 82f4 43bb
000000f0: 91de 0ebd 1657 0d3d 22a4 073d 6764 933d

classifier.8.weight f4 [64]
1.0469985 1.0432142 1.0379902 1.040955 1.0434515 1.0472468 1.0387182 1.03991
1.0443915 1.0333129 1.0416678 1.0461237 1.0371183 1.0434046 1.0367798 1.0461265
1.0337365 1.0466655 1.0448649 1.0379153 1.0488861 1.0390466 1.0413438 1.0469439
1.0414195 1.0493841 1.0428993 1.0407741 1.0481609 1.0462344 1.0406263 1.0366343
1.0490358 1.0507925 1.0441028 1.0395974 1.040417 1.0464027 1.0460137 1.0413889
1.0478835 1.0452517 1.0400044 1.0377915 1.0500617 1.0234482 1.043025 1.0405679
1.0419756 1.0413435 1.0418646 1.044957 1.0291911 1.0406876 1.0444323 1.045078
1.0464877 1.0388428 1.0364786 1.0441506 1.0394475 1.0475117 1.0420071 1.0437745
00000000: 0c04 863f 0b88 853f dddc 843f 033e 853f
00000010: d28f 853f 2f0c 863f b8f4 843f c51b 853f
00000020: 9fae 853f 9943 843f 5f55 853f 62e7 853f
00000030: 4bc0 843f 488e 853f 33b5 843f 79e7 853f
00000040: 7a51 843f 23f9 853f 22be 853f 69da 843f
00000050: e641 863f 7bff 843f c14a 853f 4202 863f
00000060: 3c4d 853f 3852 863f b97d 853f 1638 853f
00000070: 232a 863f 02eb 853f 3e33 853f 6fb0 843f
00000080: ce46 863f 5e80 863f 29a5 853f 8711 853f
00000090: 622c 853f 86f0 853f c7e3 853f 3b4c 853f
000000a0: 0c21 863f cfca 853f dd1e 853f 5ad6 843f
000000b0: 6c68 863f 5a00 833f d881 853f 5431 853f
000000c0: 755f 853f be4a 853f d25b 853f 27c1 853f
000000d0: 89bc 833f 4035 853f f5af 853f 1ec5 853f
000000e0: 4ff3 853f cdf8 843f 55ab 843f baa6 853f
000000f0: 9e0c 853f dd14 863f 7d60 853f 679a 853f

classifier.8.bias f4 [64]
0.04566963 0.044070084 0.036487006 0.040085085 0.042289358 0.046457946 0.038567282 0.03891205
0.046748415 0.035456907 0.017920867 0.041222364 0.03932693 0.04488242 0.017274236 0.049868286
0.02462846 0.045268033 0.04404633 0.03564185 0.04806635 0.03796362 0.041896235 0.046959996
0.03935048 0.049349185 0.040512513 0.038537573 0.045895796 0.04517443 0.040286813 0.029695828
0.049026765 0.047460657 0.04274991 0.043533657 0.03920185 0.048270646 0.042728536 0.03981636
0.048766717 0.044802755 0.044171683 0.0234392 0.050233018 0.0100206295 0.04211043 0.0413888
0.04010038 0.035133235 0.040453326 0.03908589 0.027514206 0.034071278 0.044248417 0.045424864
0.045961555 0.038949896 0.0022935541 0.043016568 0.037693664 0.044705465 0.043568064 0.039091367
00000000: 1410 3b3d d582 343d 6673 153d 4230 243d
00000010: 9b37 2d3d b04a 3e3d baf8 1d3d 3e62 1f3d
00000020: 447b 3f3d 433b 113d c8ce 923c c8d8 283d
00000030: 4615 213d a1d6 373d b382 8d3c b042 4c3d
00000040: a0c1 c93c f96a 393d ed69 343d 30fd 113d
00000050: 39e1 443d be7f 1b3d 639b 2b3d 2059 403d
00000060: f82d 213d 5f22 4a3d 73f0 253d 93d9 1d3d
00000070: 3bfd 3b3d d308 393d c903 253d aa44 f33c
00000080: 4ad0 483d 1b66 423d 881a 2f3d 5950 323d
00000090: 1e92 203d 71b7 453d 1e04 2f3d 7b16 233d
000000a0: 9cbf 473d 1883 373d 5eed 343d 9103 c03c
000000b0: 23c1 4d3d 912d 243c fc7b 2c3d 4d87 293d
000000c0: 4c40 243d dee7 0f3d 63b2 253d 8718 203d
000000d0: 7965 e13c 538e 0b3d d43d 353d 6c0f 3a3d
000000e0: 2f42 3c3d ed89 1f3d 744f 163b 2432 303d
000000f0: ac64 1a3d 141d 373d 6d74 323d 451e 203d

classifier.8.running_mean f4 [64]
-0.22065079 0.042508934 0.025403792 -0.12217122 0.18694144 0.053683814 0.6591573 -0.38355356
-0.045521263 0.5228619 0.4863296 -0.10986234 0.22191451 -0.12919205 0.22624408 -0.067540266
-0.0074819718 -0.27056465 0.10856579 -0.21514511 0.1847503 -0.088687636 0.19907042 0.41811606
0.26398385 0.13307475 -0.45457795 -0.18800963 -0.40363315 0.129186 0.25920165 -0.0675838
-0.02613639 0.16874506 -0.18291266 -0.08333642 0.08426339 0.092272095 0.2200498 0.43521082
-0.21268715 0.26081732 -0.028877828 -0.12473547 0.015422538 -0.1309496 -0.4021648 0.25420815
0.1556033 -0.40272525 -0.037576526 -0.17526914 0.27037546 0.07277247 -0.36034754 0.13081703
0.14963262 -0.2300576 -0.23481832 -0.04680103 -0.16100556 0.057533357 -0.3557458 0.19076195
00000000: 48f2 61be d91d 2e3d 9d1b d03c e834 fabd
00000010: 946d 3f3e 8fe3 5b3d 88be 283f 2261 c4be
00000020: 8174 3abd 47da 053f 3100 f93e 82ff e0bd
00000030: 8f3d 633e ec4a 04be 87ac 673e 8d52 8abd
00000040: 542b f5bb 7387 8abe be57 de3d 004f 5cbe
00000050: 2f2f 3d3e dda1 b5bd 1ed9 4b3e 4f13 d63e
00000060: e428 873e bf44 083e 71be e8be 9985 40be
00000070: 01a9 cebe 5649 043e 14b6 843e 6069 8abd
00000080: fc1b d6bc 81cb 2c3e 754d 3bbe 49ac aabd
00000090: 4992 ac3d 27f9 bc3d bc54 613e f4d3 de3e
000000a0: a9ca 59be d989 853e 3291 ecbc 4f75 ffbd
000000b0: d0ae 7c3c a717 06be 8be8 cdbe 9227 823e
000000c0: 7956 1f3e 0132 cebe d8e9 19bd c179 33be
000000d0: a76e 8a3e bc09 953d 797f b8be e6f4 053e
000000e0: 4b39 193e 3894 6bbe 3774 70be 70b2 3fbd
000000f0: a4de 24be 19a8 6b3d 5024 b6be 1a57 433e

classifier.8.running_var f4 [64]
0.12855645 0.1408486 0.22081427 0.17565773 0.20051123 0.19518457 0.28041953 0.18852814
0.09289825 0.21485987 0.17114426 0.17322576 0.1285648 0.20663346 0.18077277 0.20205975
0.2154781 0.23098814 0.15760465 0.2656369 0.27562228 0.20377158 0.23728603 0.20435616
0.23219725 0.21740966 0.30168134 0.16583331 0.17175706 0.28891847 0.25732544 0.13354003
0.13708371 0.18217066 0.260164 0.17768133 0.24783084 0.11813246 0.2028326 0.27936554
0.1991055 0.18377605 0.19675589 0.12986754 0.24188699 0.111434795 0.20511663 0.26692468
0.19686183 0.17289113 0.17681098 0.1198201 0.11588265 0.3401248 0.14664482 0.16518597
0.36584428 0.0976153 0.16693138 0.33981556 0.18843003 0.16407964 0.15334322 0.16872606
00000000: 4da4 033e 9e3a 103e 231d 623e 9fdf 333e
00000010: d152 4d3e 77de 473e 2693 8f3e 850d 413e
00000020: 7041 be3d 3a04 5c3e 7140 2f3e 1862 313e
00000030: 7ea6 033e b997 533e 7f1c 393e c0e8 4e3e
00000040: 4ba6 5c3e 2888 6c3e 1d63 213e 8f01 883e
00000050: 5d1e 8d3e 7fa9 503e 1cfb 723e be42 513e
00000060: 1ec5 6d3e a3a0 5e3e fa75 9a3e 35d0 293e
00000070: 15e1 2f3e 1fed 933e 29c0 833e b8be 083e
00000080: ac5f 0c3e f28a 3a3e 3734 853e 18f2 353e
00000090: 5ec7 7d3e 6eef f13d 59b3 4f3e 0009 8f3e
000000a0: 50e2 4b3e ca2f 3c3e 607a 493e fffb 043e
000000b0: 39b1 773e ed37 e43d 180a 523e 5aaa 883e
000000c0: 2696 493e 5f0a 313e f00d 353e 3e64 f53d
000000d0: e253 ed3d d624 ae3e 0f2a 163e 8326 293e
000000e0: f14f bb3e 88ea c73d 0ff0 2a3e 4efc ad3e
000000f0: cdf3 403e 7e04 283e 0106 1d3e 86c6 2c3e

classifier.10.weight f4 [10, 64]
0.07122595 -0.045771454 -0.0035180906 -0.087106794 0.1668467 0.06252799 -0.092384286 -0.059733555
0.07368475 0.0140597215 -0.0027500817 -0.036702845 0.1344062 0.07152666 0.087110125 -0.14032254
-0.11376091 -0.084209524 -0.014964908 0.070634 0.024703769 -0.14447112 -0.15955749 0.07822723
-0.15870382 -0.06059145 0.09955588 -0.061169628 0.06921485 0.022309551 -0.061366737 -0.098910645
-0.050627317 -0.023696585 -0.124250114 0.09819781 -0.109635696 0.15252842 -0.01670586 -0.14447995
0.057432175 0.010325106 0.032021344 -0.06451107 -0.024602966 0.038386438 -0.1386034 0.06215469
0.011429095 0.09889564 -0.061256338 -0.06320853 0.13148665 -0.05972028 -0.12470735 0.14633863
-0.1100806 0.005950585 0.13682982 -0.09709671 0.074779205 -0.10888298 -0.08893072 -0.055064727
-0.032093145 0.1199698 0.14652976 -0.0076391636 -0.04337606 -0.027168466 -0.12621094 0.14086305
0.012153666 0.035190564 -0.09757911 -0.10375855 -0.10005255 0.12574552 -0.052187555 0.07829584
0.09395843 0.111952744 -0.09465071 -0.13719013 0.0104299355 -0.04758771 -0.12086978 -0.040922645
-0.038314357 -0.0979273 0.15261874 -0.11557337 -0.03997848 -0.10048801 0.025245767 -0.15941608
-0.14057365 -0.06528538 0.059515025 0.13525641 -0.092609875 -0.14844318 -0.10247989 -0.052211635
0.034931075 -0.043030716 -0.09274631 0.11264177 -0.0051713986 0.032640252 0.024724757 -0.027929308
-0.15270625 -0.15600139 -0.009746445 -0.07160641 0.06635865 -0.10353819 0.05574689 -0.06677381
-0.12606508 0.061835255 -0.11342012 0.08932113 -0.045754902 0.00042732348 0.16796187 -0.13237862
0.059875328 -0.016361162 -0.017221209 -0.15947917 -0.10992511 0.053436004 -0.05391105 -0.14202167
0.07990242 -0.0164929 -0.041474592 -0.09357093 0.024781657 -0.048606075 -0.08952926 0.0706097
0.12615183 0.028321795 -0.046660133 0.09444167 -0.16398428 -0.0328639 0.09922343 -0.029225403
-0.14868923 0.0072763343 -0.09264503 -0.09962594 -0.0099233445 0.02685314 -0.13689378 -0.052612264
0.10033566 0.022424182 -0.03151032 0.13293229 0.020073555 0.11299655 0.136367 -0.13946722
-0.017414086 -0.16151193 -0.00034296451 -0.1377063 0.15851006 0.015527984 -0.12903033 0.053085912
-0.0086260475 0.06110977 -0.10489994 0.114542 0.07157217 -0.008775811 -0.027354773 -0.13778801
0.021344451 -0.09671366 -0.0693969 -0.11520142 -0.12615535 0.10031284 -0.15116553 0.15026763
0.16365485 -0.03003587 -0.13772082 0.059854895 0.022792986 0.13500936 -0.06630878 0.044220567
-0.02946198 0.123777464 -0.12883627 0.11292819 0.16512692 -0.057550263 0.07229681 -0.15481047
-0.016017465 -0.043373194 0.07988348 -0.06876067 0.04327191 -0.13869615 0.019787876 -0.08228446
-0.05115268 0.118489824 0.02275701 0.10696366 0.1363751 0.04047917 0.105935365 -0.13058983
-0.11117407 -0.043161977 -0.113186926 -0.054349627 -0.09780563 -0.12005933 -0.1463299 -0.12141394
-0.14251927 -0.12672544 0.050332736 -0.1184651 -0.08134275 0.021297796 0.16672567 -0.0034277895
-0.0865387 -0.11159882 -0.05209473 -0.1485996 -0.11746692 -0.013405238 0.0905291 -0.11580334
-0.14947478 -0.043462437 -0.061767537 0.08845446 0.14576188 -0.10871152 -0.11909983 -0.1075407
00000000: e9de 913d d97a 3bbd c48f 66bb 0c65 b2bd
00000010: dcd9 2a3e ad0e 803d f933 bdbd 2cab 74bd
00000020: 08e8 963d bf5a 663c b73a 34bb b955 16bd
00000030: c7a1 093e 927c 923d cb66 b23d b6b0 0fbe
00000040: 7bfb e8bd 0b76 acbd 602f 75bc 8fa8 903d
00000050: 8f5f ca3c 3df0 13be 0a63 23be 9935 a03d
00000060: 4183 22be be2e 78bd f4e3 cb3d 018d 7abd
00000070: 84c0 8d3d 85c2 b63c b05b 7bbd aa91 cabd
00000080: 975e 4fbd 571f c2bc d876 febd ef1b c93d
00000090: ae88 e0bd 6930 1c3e bada 88bc 8df2 13be
000000a0: 003e 6b3d a22a 293c d028 033d 611e 84bd
000000b0: 298c c9bc 193b 1d3d 0dee 0dbe eb95 7e3d
000000c0: 1941 3b3c cc89 ca3d ede7 7abd 7973 81bd
000000d0: 70a4 063e 419d 74bd 9166 ffbd cbd9 153e
000000e0: f071 e1bd 20fd c23b 1e1d 0c3e a4da c6bd
000000f0: d725 993d 0afe debd 4f21 b6bd 8d8b 61bd
00000100: 1a74 03bd bab2 f53d e60b 163e f351 fabb
00000110: 18ab 31bd 6790 debc 713d 01be 673e 103e
00000120: 2b20 473c fb23 103d 8ed7 c7bd 5d7f d4bd
00000130: 5ae8 ccbd 6fc3 003e 9ec2 55bd 9259 a03d
00000140: 476d c03d 7b47 e53d 3bd8 c1bd 927b 0cbe
00000150: 52e2 2a3c 55eb 42bd 938a f7bd 819e 27bd
00000160: 84ef 1cbd 1c8e c8bd 1648 1c3e bbb1 ecbd
00000170: 7ac0 23bd a8cc cdbd 36d0 ce3c f83d 23be
00000180: 8af2 0fbe 57b4 85bd 07c6 733d a880 0a3e
00000190: 3faa bdbd 7d01 18be fae0 d1bd dedb 55bd
000001a0: e313 0f3d fa40 30bd c7f1 bdbd bab0 e63d
000001b0: d674 a9bb c9b1 053d 938b ca3c 01cc e4bc
000001c0: 075f 1cbe d4be 1fbe 8eaf 1fbc 62a6 92bd
000001d0: 0be7 873d d50b d4bd da56 643d b5c0 88bd
000001e0: 3417 01be f746 7d3d cf48 e8bd ffed b63d
000001f0: 7e69 3bbd 630a e039 32fe 2b3e 438e 07be
00000200: d53f 753d d807 86bc 7e13 8dbc 824e 23be
00000210: 6b20 e1bd b6df 5a3d d5d1 5cbd 216e 11be
00000220: e1a3 a33d 1e1c 87bc 43e1 29bd 1ea2 bfbd
00000230: e702 cb3c 2a17 47bd 1e5b b7bd d29b 903d
00000240: f22d 013e 1c03 e83c b21e 3fbd a26a c13d
00000250: 7feb 27be 4c9c 06bd a735 cb3d 1d6a efbc
00000260: fd41 18be 516e ee3b adbc bdbd af08 ccbd
00000270: 8695 22bc 1efb db3c e22d 0cbe f57f 57bd
00000280: c87c cd3d ebb2 b73c f710 01bd 671f 083e
00000290: 4c71 a43c bc6a e73d caa3 0b3e 7fd0 0ebe
000002a0: fca7 8ebc 6263 25be ebcf b3b9 e102 0dbe
000002b0: 7650 223e 1669 7e3c 8720 04be 9d70 593d
000002c0: 4454 0dbc 3d4e 7a3d c8d5 d6bd ff94 ea3d
000002d0: 6e94 923d 6bc8 0fbc 1e17 e0bc 4d18 0dbe
000002e0: 8fda ae3c d011 c6bd f61f 8ebd b9ee ebbd
000002f0: de2e 01be d170 cd3d 23cb 1abe c2df 193e
00000300: 2395 273e c90d f6bc b006 0dbe 682a 753d
00000310: 5bb8 ba3c e53f 0a3e e6cc 87bd a020 353d
00000320: 405a f1bc 0a7f fd3d a8ed 03be e546 e73d
00000330: 0817 293e d3b9 6bbd 5a10 943d a386 1ebe
00000340: 0f37 83bc 17a8 31bd f399 a33d 65d2 8cbd
00000350: e33d 313d 5d06 0ebe 2f1a a23c c184 a8bd
00000360: 7985 51bd cbaa f23d e96c ba3c c30f db3d
00000370: eaa5 0b3e 7ccd 253d a4f4 d83d 57b9 05be
00000380: 3baf e3bd 9dca 30bd 8cce e7bd b79d 5ebd
00000390: 514e c8bd aae1 f5bd 81d7 15be dfa7 f8bd
000003a0: 92f0 11be 50c4 01be b329 4e3d d59d f2bd
000003b0: 0797 a6bd b778 ae3c 22ba 2a3e c4a4 60bb
000003c0: 343b b1bd ec8d e4bd 4961 55bd 7e2a 18be
000003d0: 7f92 f0bd a5a1 5bbc 5267 b93d 4d2a edbd
000003e0: eb0f 19be ab05 32bd f5ff 7cbd 9d27 b53d
000003f0: 9a42 153e 25a4 debd 9dea f3bd 4c3e dcbd

classifier.10.bias f4 [10]
0.038520902 0.054761562 0.09842315 -0.07881358 -0.0965648 -0.13756828 -0.030005435 0.10860321
0.025543127 0.04978123
00000000: 18c8 1d3d a94d 603d 1492 c93d 0469 a1bd
00000010: c4c3 c5bd b3de 0cbe f5cd f5bc 5c6b de3d
00000020: d23f d13c 67e7 4b3d
