lightning_logs/Layers_16/fold_1/checkpoints/model-epoch=01-1.ckpt (torch, 184020 bytes, 48 tensors)

classifier.1.weight f4 [16, 784]
0	0x3a5e33fa	0.0008476373
1	0x3ba10fb0	0.0049152
2	0xbcc7efc4	-0.024406321
3	0xbcc61bfe	-0.02418327
4	0x3cdc8270	0.026917666
5	0xbd171eb5	-0.03689452
6	0x3c189dfd	0.009315011
7	0x3cc83be7	0.024442626
8	0xbc7454bd	-0.014912781
9	0xbc2cffb5	-0.010559012
10	0xbc96fa5e	-0.018429931
11	0x3c849068	0.01618214
12	0x3b0fb1f2	0.0021926132
13	0xbcdca904	-0.026936062
14	0xbbbcc9b7	-0.005761351
15	0x3c19c249	0.0093847
16	0xbce88416	-0.028383296
17	0x3cd96c7a	0.026540983
18	0xbc9d206f	-0.019180505
19	0xbc47c785	-0.012193565
20	0xbbec8c8d	-0.0072189034
21	0x3c242745	0.010019128
22	0xbc7d15c1	-0.015447081
23	0x3cb21d53	0.021742499
24	0xbc560f73	-0.013065207
25	0xb93f6a0e	-0.00018254688
26	0xbbee2cc8	-0.007268522
27	0xbcef9ac5	-0.029248605
28	0x3c803d84	0.015654333
29	0x3cce8641	0.025210502
30	0x3cc0e70f	0.023547677
31	0x3bfa372e	0.0076359725
32	0xbc3eb9a4	-0.01164094
33	0xba8267d6	-0.0009949158
34	0xbb8c2227	-0.004276532
35	0x3cef71c5	0.029229054
36	0xbc6d9af4	-0.014502276
37	0x3d2411be	0.040055983
38	0xbc35d38d	-0.011097801
39	0xbca07f9e	-0.019592103
40	0xbbc1df30	-0.0059164986
41	0xbbb7a6d1	-0.005604603
42	0xbc4ec78a	-0.012620816
43	0xbb9314da	-0.0044885697
44	0x3c8fba3a	0.017544854
45	0x3d04f9d1	0.032464806
46	0x3cb3dfd2	0.021957312
47	0x3c2a8620	0.010407954
48	0x3bcaa730	0.006184481
49	0x3ca6c3e9	0.02035709
50	0xbce7540c	-0.028238319
51	0xbc2c2e89	-0.010509142
52	0x3cba203b	0.022720447
53	0x38a8d4a0	8.050469e-05
54	0xbc2ede6b	-0.010673146
55	0xbb5d89b1	-0.0033803994
56	0xbce049ea	-0.027378995
57	0x3bc72ad4	0.0060781036
58	0x3c9d0bb9	0.019170629
59	0xbc580f8e	-0.013187302
60	0xbc6283ef	-0.013825401
61	0x3cd5a3bd	0.026079053
62	0x3b95d262	0.0045721987
63	0x3d0dcda9	0.03461996
64	0xbcceb600	-0.025233269
65	0xbc825f61	-0.01591462
66	0xbc350655	-0.011048873
67	0xbcf409bc	-0.029789798
68	0x3c6a98da	0.014318669
69	0xbbef9156	-0.0073110266
70	0xbc73d5f2	-0.0148825515
71	0x3b91e770	0.0044526383
72	0xbc840666	-0.016116332
73	0x3b86d9ef	0.004115335
74	0x3d01820d	0.031618167
75	0x3d0eb87c	0.034843907
76	0x3c874865	0.016514013
77	0x3c33e9b1	0.010981009
78	0x3b8bedf0	0.0042703077
79	0xbc9e17a6	-0.019298386
80	0x3cc4be39	0.024016486
81	0xbc87a3dc	-0.016557626
82	0x3ce36381	0.027757408
83	0x3c8076fa	0.015681732
84	0x3cf2746a	0.029596526
85	0x3ab08482	0.0013467225
86	0x3c5cf51d	0.013486174
87	0xbb77dee8	-0.0037822071
88	0x3c6737e0	0.014112443
89	0x398afff1	0.00026512102
90	0x398d4de9	0.00026951663
91	0x3d01e9d9	0.031717155
92	0xbbf69419	-0.007524979
93	0xbc2dc9a0	-0.010607153
94	0x3bdac329	0.006676097
95	0x3cb2e874	0.021839358
96	0xba8851f0	-0.0010400396
97	0xbcc9d009	-0.024635332
98	0xbcc69960	-0.024243057
99	0xbc87781d	-0.016536767
100	0x3ba8a706	0.005146864
101	0x3c213d08	0.009841211
102	0xbc6a0a47	-0.014284677
103	0xbc5931df	-0.013256519
104	0xbc6b02f5	-0.014343967
105	0xba53af14	-0.00080751
106	0xbc61dc67	-0.013785458
107	0xbcdc4b61	-0.026891412
108	0xbc0db80a	-0.008649835
109	0xbc98eb83	-0.018666988
110	0x3d0b3ca8	0.033993393
111	0xbbb9142a	-0.0056481557
112	0x3cf9515c	0.030434303
113	0x3d16dd48	0.036832124
114	0xbcc76065	-0.024337957
115	0xbc5da7d7	-0.013528786
116	0x3cb58d2e	0.022162046
117	0xbbacf5b7	-0.005278315
118	0x3cad880d	0.021183038
119	0x3ca04f67	0.019569112
120	0x3d539a88	0.051661044
121	0x3cc00047	0.023437632
122	0xba3d7a99	-0.00072280463
123	0xbbb5f135	-0.0055524358
124	0x3cffd5f4	0.03122995
125	0x3be23791	0.0069035967
126	0xbc8b7436	-0.017023187
127	0x3ce08ba7	0.027410341
128	0x3cec4728	0.028842524
129	0xbbbe25ce	-0.0058028465
130	0xbccd884a	-0.025089402
131	0xbca1bf08	-0.019744411
132	0x3d31138d	0.043231536
133	0xbc27f146	-0.010250395
134	0x3c04ad84	0.00809801
135	0xbc3bee82	-0.011470439
136	0xbb16db06	-0.0023018732
137	0x3ccbdff6	0.024887066
138	0x3ca16aa7	0.019704176
139	0x3d1f2bf2	0.03886027
140	0xbcf26569	-0.029589372
141	0xbc9f812a	-0.01947077
142	0xbcd36ff1	-0.025810214
143	0xbcbd0450	-0.023073345
144	0x3bf449fa	0.0074551078
145	0x3d06f1ba	0.032945372
146	0x3caceb81	0.02110839
147	0x3cea1547	0.028574599
148	0x3cb68228	0.02227886
149	0x3c827bfc	0.015928261
150	0xbc3744ba	-0.011185819
151	0xbcf3422b	-0.029694637
152	0x3be167ea	0.0068788426
153	0xbc06e1f8	-0.008232586
154	0x3ccc625f	0.02494925
155	0x3cf1af0b	0.029502412
156	0xbc81044a	-0.015749115
157	0x3c90b6f7	0.01766537
158	0xbbf473b5	-0.0074600824
159	0x3d3baf8c	0.04582171
160	0xbc0012c8	-0.007816978
161	0x3c6bcc02	0.014391901
162	0xbcbd64a2	-0.023119275
163	0x3bd5e1f1	0.0065271785
164	0xbc9b8fa0	-0.018989384
165	0xbc02abfc	-0.007975575
166	0x3d02d78a	0.031943835
167	0x3d15ef47	0.036605146
168	0x3cfc7b12	0.030820403
169	0x3b4e52f0	0.003148254
170	0xbca47793	-0.020076549
171	0xbd2b7ef1	-0.041869108
172	0xbc3337ef	-0.010938629
173	0xbccae783	-0.024768597
174	0x3c8ff266	0.01757164
175	0x3d0917bc	0.0334699
176	0xbcd69a3c	-0.026196592
177	0x3b01a6ca	0.0019783252
178	0xbb82a2ce	-0.003986693
179	0x3b9eaca1	0.0048423563
180	0x3c8aef70	0.016959876
181	0xbd054117	-0.032532778
182	0x3c131589	0.008977302
183	0x3ce8b254	0.028405346
184	0xbcd78479	-0.026308285
185	0x3c793aa8	0.015211739
186	0x3cdb89c3	0.026799088
187	0x3cdd5e18	0.027022406
188	0xbc360a78	-0.011110894
189	0xbb83e2bc	-0.0040248316
190	0x3c401f78	0.011726253
191	0x3c60aa96	0.013712546
192	0xbcf8316c	-0.030297004
193	0x3ce67f76	0.02813695
194	0x3b398799	0.0028309582
195	0xbbc8b97e	-0.006125628
196	0xbc064e7e	-0.008197425
197	0xbd47428e	-0.048647456
198	0xbcf38af7	-0.02972935
199	0x3c1a41c1	0.009415091
200	0xbc4e4c17	-0.012591383
201	0xbd4751dd	-0.048662055
202	0x3bcac555	0.0061880746
203	0x3c10f0b7	0.008846453
204	0x3c6d3766	0.01447854
205	0xbca71563	-0.02039594
206	0xbcbb37fd	-0.022853846
207	0xbcaefe8f	-0.021361617
208	0xbc1c965e	-0.009557335
209	0x3cab11c3	0.020882493
210	0xbc7510b4	-0.014957596
211	0x3cc206a1	0.023684802
212	0xbc4fe1b5	-0.01268809
213	0xbb878ed4	-0.0041368995
214	0xbc8f0519	-0.017458485
215	0x39439254	0.0001865116
216	0xbc8a5d90	-0.016890317
217	0x3b9ce21d	0.004787697
218	0xbc286e37	-0.0102801835
219	0x3c508a12	0.012728231
220	0xbca8bea4	-0.020598717
221	0x3ce5fad9	0.028073715
222	0x3a15a84c	0.0005708977
223	0x3cfdad4f	0.030966429
224	0x3c0685a8	0.008210577
225	0x3aa2439c	0.0012379768
226	0xbd59d7f1	-0.053184453
227	0xbbdf98f2	-0.0068236524
228	0xbcb09a8d	-0.02155807
229	0xbc5f85da	-0.013642753
230	0x3c375984	0.011190776
231	0xbd397d41	-0.045285467
232	0xbd2c6243	-0.042085897
233	0x3c63ec33	0.013911295
234	0xbbd3d43d	-0.0064645098
235	0x3c31ffb3	0.010864186
236	0x3672817e	3.6136184e-06
237	0xbd44f520	-0.048085332
238	0xbd14a929	-0.036294136
239	0x3c8bf2f0	0.017083615
240	0xbc8e4a1b	-0.01736932
241	0xbc9df624	-0.019282408
242	0xbc1d9c51	-0.009619788
243	0x3cccfe19	0.025023507
244	0xba848d9e	-0.0010113006
245	0xbc213e8e	-0.009841574
246	0x3c43a6af	0.011941596
247	0xbb240718	-0.0025028642
248	0xbcd89dee	-0.026442494
249	0x3cb42d42	0.021994237
250	0xbaaa3af1	-0.0012987537
251	0xbcddd9ca	-0.027081389
252	0xbd382258	-0.044954628
253	0x3c3f9054	0.011692125
254	0xbba23940	-0.0049506724
255	0xbd2d6134	-0.04232903

classifier.1.bias f4 [16]
0	0x3cf2c017	0.029632611
1	0xbc343e1f	-0.011001139
2	0xbc51adfc	-0.012797829
3	0xbcc9374e	-0.024562504
4	0xbd07d2ed	-0.03316014
5	0x3c25a38d	0.010109794
6	0xbd01c9dc	-0.03168665
7	0x3cc28a57	0.023747606
8	0x3c810e5e	0.015753921
9	0xbbe76688	-0.007061783
10	0x3ccdb8c6	0.02511252
11	0x3cf9c7fb	0.030490866
12	0xba304411	-0.000672401
13	0x3cd224af	0.025652258
14	0x3d0d318e	0.034471087
15	0x3cd6cd48	0.026220933

classifier.2.weight f4 [16]
0	0x3f8468dc	1.03445
1	0x3f7f7508	0.9978795
2	0x3f7c37f6	0.9852289
3	0x3f824856	1.0178325
4	0x3f77bd2d	0.96773034
5	0x3f79c2f8	0.97563124
6	0x3f84f887	1.0388345
7	0x3f79a92a	0.9752375
8	0x3f80d068	1.00636
9	0x3f8554b6	1.0416477
10	0x3f78cb9f	0.971857
11	0x3f805557	1.0026044
12	0x3f7eef08	0.9958348
13	0x3f7d41e7	0.98928684
14	0x3f79280e	0.97326744
15	0x3f7ec4c9	0.9951902

classifier.2.bias f4 [16]
0	0x3c9456fd	0.018107885
1	0x3ca46cee	0.020071473
2	0x3c7c66bc	0.015405353
3	0x3cc40afd	0.02393102
4	0xbc74748b	-0.014920364
5	0x3c75c669	0.015000918
6	0x3d3aec3e	0.045635454
7	0xbbe042e5	-0.006843912
8	0x3bd30462	0.0064397315
9	0x3d116f2c	0.035506412
10	0xbc155df5	-0.009116639
11	0x3b5e7248	0.0033942629
12	0x3a0e08ca	0.000541818
13	0x3ce1efb6	0.027580123
14	0xbc95028b	-0.01818969
15	0x3bcc2e72	0.0062311227

classifier.2.running_mean f4 [16]
0	0x3f589c09	0.8461309
1	0xbfc06f82	-1.503403
2	0x400e192f	2.220287
3	0xbfa1594c	-1.2605376
4	0xbf297676	-0.6619638
5	0x3f2228b3	0.6334335
6	0x3da368b3	0.07978954
7	0x4013c204	2.3087168
8	0x3fc4c513	1.5372642
9	0x3f90d629	1.1315356
10	0xc01b2134	-2.4239016
11	0x3f905728	1.1276598
12	0xbef6490d	-0.48102608
13	0xbfba131c	-1.4537082
14	0x3ef88516	0.48539037
15	0x400ddba6	2.2165313

classifier.2.running_var f4 [16]
0	0x3f367d91	0.7128535
1	0x3fe2efaf	1.7729396
2	0x4007f2d8	2.124197
3	0x3f5c0d53	0.8595783
4	0x3fa20d36	1.2660282
5	0x3f17f210	0.59353733
6	0x3f9835cc	1.1891418
7	0x40061ca3	2.0954978
8	0x3feb25e7	1.8370942
9	0x3f0cad96	0.5495237
10	0x3fa7755f	1.3082694
11	0x3f9fe764	1.249249
12	0x3f7d08a5	0.98841316
13	0x3f0cf841	0.55066305
14	0x40024246	2.035295
15	0x4057b8fd	3.3706658

classifier.4.weight f4 [16, 16]
0	0xbd0a280d	-0.0337296
1	0xbd150f57	-0.036391582
2	0xbe65a8ef	-0.22427724
3	0x3d57580a	0.052574195
4	0xbe2b3f14	-0.16723281
5	0x3e2edb71	0.17075898
6	0xbe0ff70a	-0.14059082
7	0x3e4b3a05	0.19846351
8	0x3e46d840	0.1941843
9	0x3cb5a625	0.02217395
10	0xbae8dcd1	-0.0017766004
11	0xbe49175f	-0.19637822
12	0x3d2e9caf	0.042629894
13	0x3dbccdb6	0.09218924
14	0xbe606113	-0.21912031
15	0xbc3304bf	-0.0109264245
16	0xbe58623e	-0.21131226
17	0xbe411662	-0.18856195
18	0xbd461124	-0.04835619
19	0xbe7c399d	-0.24631353
20	0xbe57d9a4	-0.21079117
21	0x3e2bda44	0.1678248
22	0xbd33957d	-0.043843735
23	0x3d9f3733	0.077742
24	0x3e3313a5	0.17487963
25	0xbc8b36e3	-0.016993945
26	0x3e6617ec	0.22470063
27	0xbdc222f6	-0.094793245
28	0xbd8121ce	-0.06305276
29	0xbe28ac29	-0.16471924
30	0xbe452fd6	-0.19256529
31	0x3e6ecb8e	0.23319837
32	0x3e03a3e9	0.12855496
33	0xbcec4fdf	-0.02884668
34	0x3e4a7cea	0.19774213
35	0xbddc9f25	-0.10772542
36	0xbc31dbf2	-0.010855662
37	0xbe498e5a	-0.19683209
38	0x3e2bac7d	0.16765018
39	0x3e664b30	0.2248962
40	0x3e1d152d	0.15340109
41	0xbe7a5f0f	-0.24450324
42	0x3e1278f2	0.1430395
43	0x3e58ed11	0.21184184
44	0xbe6f009c	-0.23340076
45	0xbe164e5c	-0.14678329
46	0x3da86fb6	0.08224432
47	0xbe148e22	-0.14507344
48	0x3e8d0c95	0.27548662
49	0xbb908fd5	-0.0044116774
50	0xbd8b4edf	-0.06802153
51	0xbcc3698f	-0.023854045
52	0xbe61ff4e	-0.22070047
53	0xbe5accf0	-0.2136724
54	0xbe2864e0	-0.16444731
55	0xbe6e5202	-0.23273471
56	0x3d842abc	0.064534634
57	0xbe1efb12	-0.15525463
58	0xbcbf4793	-0.023349559
59	0x3e5bbf1d	0.21459623
60	0xbe561a3d	-0.20908447
61	0xbd00537c	-0.031329617
62	0xbddb17e0	-0.10697913
63	0xbdae4c4a	-0.08510645
64	0x3e82a37a	0.25515348
65	0x3d479131	0.04872245
66	0x3d59be91	0.053160254
67	0xbd086fce	-0.03330975
68	0x3df41c8e	0.11919509
69	0x3d9a944c	0.07547817
70	0x3e86db35	0.26339117
71	0xbc670cb8	-0.0141021535
72	0x3d2866e4	0.04111375
73	0xbe0de19a	-0.13855591
74	0xbe5b7432	-0.21431044
75	0x3e0cbee7	0.13744698
76	0x3dd382cb	0.10327681
77	0xbda38f1f	-0.079862826
78	0x3e59495a	0.21219388
79	0xbdac30b1	-0.08407725
80	0xbe2d2ea1	-0.16912319
81	0xbdf8267d	-0.12116716
82	0x3df198fc	0.117967576
83	0x3e02bc2e	0.12767097
84	0x3d8a8fb3	0.0676569
85	0x3e51dbdc	0.20494026
86	0xbe26042e	-0.16212532
87	0xbdcd69e7	-0.10029965
88	0x3e278925	0.1636091
89	0x3d96a853	0.07356324
90	0x3c9c5bc5	0.019086728
91	0x3e4f7aeb	0.20261733
92	0x3e5b0cf8	0.21391666
93	0xbdebacb1	-0.11507548
94	0x3dca5b37	0.09880679
95	0xbe2aa8db	-0.16665976
96	0xbc92dee9	-0.017928557
97	0xbe2724b6	-0.16322598
98	0xbd6e3844	-0.058159128
99	0xbd908eee	-0.07058512
100	0x3d431c68	0.047634512
101	0x3e8949e6	0.26814193
102	0xbe5f963d	-0.21834655
103	0x3ddde7c9	0.10835225
104	0x3dc9af40	0.098478794
105	0xbe4e1364	-0.20124584
106	0xbe4ab713	-0.197964
107	0xbe262917	-0.16226612
108	0x3e5fd694	0.21859199
109	0xbe2472a1	-0.16059352
110	0x3cf2d840	0.029644132
111	0x3db4d016	0.08828752
112	0xbe00d73e	-0.12582108
113	0x3e227826	0.15866145
114	0xbe555a52	-0.20835236
115	0x3e5cc82b	0.21560733
116	0xbda7e0c4	-0.081971675
117	0x3d008e5a	0.031385757
118	0x3e854d35	0.26035467
119	0xbdc2a498	-0.0950405
120	0xbe65a13b	-0.22424786
121	0xbd696080	-0.056976795
122	0x3dbb4812	0.09144606
123	0x3e6b97b0	0.23007083
124	0xbe603528	-0.21895278
125	0x3e39e95a	0.18155423
126	0x3d976636	0.07392542
127	0xbdf41072	-0.11917199
128	0xbb2b2e93	-0.002612029
129	0x3e02ff3f	0.12792681
130	0xbe5db6e0	-0.21651793
131	0x3e212687	0.15737353
132	0xbd1eaaeb	-0.03873722
133	0x3db80623	0.089855455
134	0xbe222a8d	-0.15836544
135	0x3dd21bea	0.102592304
136	0xbe6c29ba	-0.23062792
137	0xbd8ef3d5	-0.06980101
138	0x3e4ec3e6	0.20191917
139	0xbe4d9992	-0.20078114
140	0x3e067c2f	0.1313331
141	0xbda98dd6	-0.08279006
142	0x3d5cdb14	0.053919867
143	0x3c7a09eb	0.015261154
144	0xbe07a585	-0.13246734
145	0xbd8505d1	-0.0649525
146	0xbdfb9a7f	-0.12285327
147	0xbe24e529	-0.16103043
148	0xbe6c8889	-0.23098959
149	0xbe460ef3	-0.1934164
150	0xbe243159	-0.1603445
151	0x3ceac982	0.02866054
152	0x3d98f5a9	0.07468731
153	0xbe632bcf	-0.2218468
154	0x3e6c016f	0.23047422
155	0x3e5de11e	0.21667907
156	0xbe6aa71b	-0.22915308
157	0x3e05c1ff	0.13062285
158	0xbd84fce3	-0.06493547
159	0x3e5055a5	0.20345171
160	0x3dc797a5	0.09745721
161	0xbb4f0c89	-0.0031593165
162	0xbe002c7a	-0.12516966
163	0x3e8a35a1	0.2699404
164	0x3e43799e	0.19089362
165	0xbddffcd2	-0.109368935
166	0xbde511dc	-0.11185047
167	0xbcb085ff	-0.02154827
168	0xbe786bfd	-0.24259944
169	0x3d2a6d23	0.041607987
170	0x3e02ef3b	0.12786572
171	0xbdc4d9cf	-0.09611856
172	0xbdc7ddbd	-0.0975909
173	0x3be14473	0.006874615
174	0xbe39de3f	-0.18151186
175	0xbd3d5df3	-0.046232175
176	0xbe622900	-0.22085953
177	0x3def4304	0.11682704
178	0xbe64d84a	-0.22348133
179	0x3d42508d	0.0474401
180	0x3e095621	0.13411762
181	0x3b6afd55	0.0035856564
182	0x3d065eb4	0.03280516
183	0xbe453a81	-0.19260599
184	0x3c931b34	0.017957307
185	0xbd899ab9	-0.06718964
186	0x3c97d082	0.018532041
187	0x3e17731a	0.14790002
188	0xbe279e2b	-0.1636893
189	0xbc73fcc8	-0.014891811
190	0x3cd25e3a	0.025679696
191	0x3e45c0dd	0.19311853
192	0x3b5dd2bc	0.0033847531
193	0xbe5f6a7b	-0.21817963
194	0xbd5c470b	-0.05377869
195	0xbda3fab5	-0.08006803
196	0xbe3bd0bf	-0.18341349
197	0x3d28d429	0.041217957
198	0x3e6bdd77	0.23033701
199	0x3dd71afe	0.10503195
200	0xbe3b35b7	-0.1828221
201	0xbdacf385	-0.08444885
202	0x3e2fc0f6	0.17163453
203	0xbe0511b0	-0.12995028
204	0xbe4f9b74	-0.20274144
205	0xbe1f49dc	-0.15555519
206	0x3cbdaf5b	0.023154905
207	0x3e6fe3d0	0.23426747
208	0xbdeaa331	-0.114569075
209	0xbd93c11b	-0.07214566
210	0x3ddffa7e	0.109364495
211	0xbe36db55	-0.17857106
212	0xbe08c70e	-0.13357183
213	0x3dbeda44	0.093189746
214	0xbe36ad58	-0.17839563
215	0x3db88cc2	0.090112224
216	0x3e3637e4	0.17794758
217	0x3d8d7db2	0.0690874
218	0x3b3d5fcf	0.0028896218
219	0xbe4ff162	-0.20306924
220	0x3e20619c	0.15662235
221	0x3e0ea5ed	0.13930483
222	0xbe158d2a	-0.14604631
223	0xbc976dd6	-0.018484991
224	0xbddd71a9	-0.108126946
225	0xbe60936e	-0.2193124
226	0x3e17bfae	0.14819214
227	0x3c9fffcd	0.019531155
228	0xbe599d49	-0.21251406
229	0xbe55a8f4	-0.20865232
230	0x3db6cb06	0.089254424
231	0xbbe75faa	-0.0070609646
232	0x3dceb9a5	0.10094003
233	0x3c3ba766	0.011453485
234	0xbbeb0043	-0.007171662
235	0x3dcc9b6e	0.09990583
236	0xbe59d28c	-0.21271724
237	0x3dd0ba7d	0.1019182
238	0x3e5f006a	0.21777502
239	0xbd63cb5b	-0.055613857
240	0xbe402344	-0.18763453
241	0xbe396acb	-0.18107145
242	0xbe6daaa7	-0.2320963
243	0xbe2cd6ca	-0.1687881
244	0xbd8f3331	-0.06992186
245	0xbdf2d729	-0.11857445
246	0x3cde0c30	0.02710542
247	0x3c996ad1	0.018727692
248	0xbe415c37	-0.18882833
249	0x3e80f978	0.2519033
250	0xbe54116a	-0.20709768
251	0xbe7334d7	-0.23750626
252	0xbd964fdc	-0.07339451
253	0x3e62415d	0.22095247
254	0x3e384582	0.17995265
255	0xbd3f4f7d	-0.046706665

classifier.4.bias f4 [16]
0	0xbd6257e6	-0.055259608
1	0xbe34591c	-0.17612118
2	0xbe51e4da	-0.20497456
3	0xbd12e280	-0.03586054
4	0x3db04e11	0.0860864
5	0x3e28556d	0.16438837
6	0x3d711f62	0.05886782
7	0x3dcbfceb	0.0996035
8	0xbe2876fd	-0.1645164
9	0x3e702842	0.23452857
10	0x3e1a6bc8	0.15080178
11	0x3d3c6b81	0.04600096
12	0x3d5b0ef4	0.053481057
13	0x3e3b700f	0.18304466
14	0xbe56be8d	-0.20971127
15	0x3d130678	0.03589484

classifier.5.weight f4 [16]
0	0x3f815476	1.01039
1	0x3f7ea8aa	0.9947611
2	0x3f840ddd	1.0316731
3	0x3f7b407c	0.9814527
4	0x3f7ed3ca	0.99541914
5	0x3f809302	1.0044863
6	0x3f820dec	1.0160499
7	0x3f85baaf	1.0447596
8	0x3f7747ae	0.9659375
9	0x3f778c45	0.9669841
10	0x3f7b1d47	0.9809155
11	0x3f7cafaf	0.9870557
12	0x3f830a0b	1.023744
13	0x3f76aaff	0.9635467
14	0x3f825baa	1.0184224
15	0x3f7d344d	0.9890793

classifier.5.bias f4 [16]
0	0x3cfb9e86	0.030715238
1	0x3b139cd6	0.0022523901
2	0x3d288476	0.04114195
3	0xbd1e8adc	-0.038706645
4	0x3d27c261	0.04095686
5	0x3d21cc05	0.03950121
6	0xbbe141c8	-0.006874297
7	0x3d40426d	0.04693835
8	0xbc766896	-0.015039584
9	0xbc3e9d91	-0.011634246
10	0xbcd0b665	-0.025477597
11	0x3c9c250e	0.019060638
12	0x3cf33559	0.029688524
13	0xbd124dca	-0.035718717
14	0x3c98347d	0.018579716
15	0x3ccacd9e	0.024756249

classifier.5.running_mean f4 [16]
0	0xbe15fe97	-0.146479
1	0xbedba60a	-0.42900115
2	0xbdfe7ee6	-0.12426548
3	0xbee79a55	-0.45234933
4	0x3ed21ecf	0.4103913
5	0x3eadf533	0.33976135
6	0xbddd168e	-0.107953176
7	0x3e111ad3	0.14170389
8	0xbe3908eb	-0.18069808
9	0xbd4a10e7	-0.049332526
10	0x3d429320	0.04750359
11	0xbc08342c	-0.00831322
12	0xbe1063c9	-0.14100565
13	0x3dc132f7	0.09433549
14	0xbe9cf093	-0.30652294
15	0xbeae47ff	-0.34039304

classifier.5.running_var f4 [16]
0	0x3da113ec	0.07865128
1	0x3e3e5eef	0.18590902
2	0x3ec0299c	0.37531745
3	0x3e68b022	0.2272344
4	0x3e456903	0.1927834
5	0x3e6f8744	0.23391443
6	0x3e5a1734	0.21297914
7	0x3e2619f2	0.16220835
8	0x3e73017c	0.23731035
9	0x3e885fc4	0.26635563
10	0x3ec1e26c	0.3786806
11	0x3d255844	0.04036738
12	0x3e0c1912	0.13681439
13	0x3d957b27	0.0729888
14	0x3e77f777	0.24215494
15	0x3e221274	0.15827352

classifier.7.weight f4 [16, 16]
0	0x3db863d3	0.09003415
1	0xbe07cf47	-0.13262664
2	0x3c1ebc8f	0.009688511
3	0x3e34681d	0.17617841
4	0x3d30ab72	0.043132253
5	0x3e7c837f	0.24659537
6	0x3d352625	0.04422583
7	0xbdc23d0d	-0.09484301
8	0xbd8a7831	-0.06761206
9	0xbdff43c4	-0.12464097
10	0x3e468e67	0.1939026
11	0x3d9ebe43	0.07751133
12	0xbdca95dc	-0.09891865
13	0x3dabbf51	0.083861
14	0xbdebb2c0	-0.11508703
15	0x3e3bb5ce	0.18331072
16	0x3e89c1cb	0.26905665
17	0x3e4b56cc	0.19857329
18	0x3d30fb35	0.04320832
19	0x3bac9a76	0.0052674366
20	0x3d77996f	0.06044906
21	0xbe1c72dd	-0.15278192
22	0xbe218132	-0.1577194
23	0x3d48e6a6	0.04904809
24	0x3db111d9	0.08645982
25	0xbe3e415b	-0.18579619
26	0x3e8749f0	0.26423597
27	0x3ddbcd09	0.10732467
28	0x3c92cf81	0.017921211
29	0xbce5c4f6	-0.02804802
30	0x3e62f4ca	0.22163692
31	0x3da86075	0.08221523
32	0xbce8a4c8	-0.028398886
33	0x3d6f3ea4	0.058409348
34	0x3de79aa7	0.113087945
35	0x3e945e1f	0.2897806
36	0x3d43c157	0.047791805
37	0x3d39db72	0.045375295
38	0xbe696a9a	-0.22794572
39	0x3df6dd65	0.120539464
40	0xbc87d742	-0.016582135
41	0xbe24a4da	-0.16078511
42	0xbe47b496	-0.19502482
43	0xbe850383	-0.25979242
44	0xbdaab1e1	-0.08334709
45	0x3e334428	0.17506468
46	0xbe18d7db	-0.14926092
47	0x3e1acd97	0.15117489
48	0x3e7f54da	0.24934712
49	0xbe14e7d3	-0.14541559
50	0x3cdeeeb1	0.027213426
51	0xbca2a730	-0.019855112
52	0xbdf64c92	-0.120263234
53	0x3da6865b	0.08131095
54	0x3d9a012f	0.07519757
55	0xbc1cb302	-0.009564163
56	0xbd46c752	-0.04852993
57	0xbe3d1a2d	-0.18467017
58	0xbe0b4907	-0.13602076
59	0xbe880d5d	-0.26572695
60	0xbd9532d2	-0.07285084
61	0xbe4dffdd	-0.20117135
62	0x3bd42987	0.006474677
63	0xbd8c87d6	-0.06861846
64	0xbdcdf48f	-0.100564115
65	0x3e4ade48	0.19811356
66	0x3e5b1728	0.21395552
67	0xbe49846a	-0.19679418
68	0x3e5ba539	0.21449746
69	0xbd83e688	-0.06440455
70	0xbdc94fc6	-0.09829669
71	0x3dfad496	0.12247579
72	0x3d3e0942	0.046395548
73	0xbcba2d41	-0.022726657
74	0xbd0ccbee	-0.03437417
75	0xbdb86bfb	-0.09004971
76	0xbcbffba9	-0.02343543
77	0xbd2d1f26	-0.042266034
78	0x3e610e66	0.21978149
79	0xbe4d9aed	-0.20078631
80	0x3e8c9572	0.27457768
81	0x3e541f5c	0.20715088
82	0x3cfcc040	0.03085339
83	0xbd835b4d	-0.064138986
84	0xbddd52c6	-0.108068034
85	0xbe1f15e6	-0.15535697
86	0xbe5a3058	-0.21307504
87	0x3e699063	0.22808985
88	0x3e1167d8	0.1419977
89	0x3d7bd7b5	0.06148501
90	0x3cdc5fb1	0.026901098
91	0xbe356071	-0.1771257
92	0xbe15636e	-0.1458871
93	0x3e304004	0.1721192
94	0x3ca305e9	0.01990028
95	0xbe1f4eda	-0.15557423
96	0x3d3f7c86	0.046749614
97	0x3e511f2c	0.20422047
98	0x3e3ab4e4	0.18233067
99	0xbe5543b2	-0.20826605
100	0x3e187c0d	0.14891072
101	0x3e3e95c8	0.18611825
102	0xbe68f0c1	-0.2274809
103	0x3e3bffe3	0.18359332
104	0x3ce1dbcf	0.027570633
105	0xbe1f7b49	-0.15574373
106	0x3c891208	0.01673223
107	0x3dfd6bc9	0.12374074
108	0xbe572ccd	-0.21013184
109	0x3d8c0f19	0.06838817
110	0x3e465bee	0.19371006
111	0xbc2ad739	-0.01042729
112	0xbe2f8e68	-0.17144167
113	0x3e3710b9	0.17877473
114	0x3da27714	0.079328686
115	0xbdbf2086	-0.09332375
116	0xbdee47f5	-0.116348185
117	0x3d32afae	0.043624572
118	0xbe5ddd4a	-0.21666446
119	0xbd1df7bd	-0.03856634
120	0xbd6ac132	-0.05731315
121	0x3d62ce79	0.05537269
122	0x3d991e8e	0.07476531
123	0x3e86204e	0.26196522
124	0x3dc0da32	0.094166175
125	0xbd31b9c6	-0.043390058
126	0x3e48f9df	0.19626568
127	0xbe386c3c	-0.18010038
128	0xbdd91df2	-0.10601415
129	0x3e429456	0.19001898
130	0x3e4589cc	0.19290847
131	0xbe155b60	-0.14585638
132	0x3e360386	0.17774782
133	0x3e431998	0.19052732
134	0x3da2be18	0.07946414
135	0x3dfb9e56	0.122860596
136	0x3e3badf6	0.1832808
137	0xbd842dfb	-0.064540826
138	0x3d20b1be	0.03923201
139	0xbde6c47d	-0.11267946
140	0xbba1daad	-0.0049393983
141	0xbc9b2782	-0.018939737
142	0xbe4f7d0e	-0.20262548
143	0xbe42be03	-0.19017796
144	0xbd2d51b2	-0.04231424
145	0xbe2a5386	-0.16633424
146	0xbe32b7d5	-0.17452939
147	0xbcc40fe3	-0.023933357
148	0x3e15e5ad	0.14638396
149	0xbe6e5b29	-0.23276962
150	0x3bce3a15	0.006293545
151	0x3d201430	0.039081752
152	0xbe350cab	-0.17680614
153	0x3cc701e1	0.024292888
154	0x3d87dd41	0.06633998
155	0xbe4a31b2	-0.1974552
156	0x3cd8f023	0.026481694
157	0x3d96e216	0.07367341
158	0xbe6ecbc9	-0.23319925
159	0xbc8c6684	-0.017138727
160	0xbd63aaf8	-0.05558297
161	0x3e6a9836	0.22909626
162	0x3dcf05b4	0.1010851
163	0xb988f14f	-0.0002611973
164	0xbb0404c7	-0.002014445
165	0xbe3d276d	-0.18472071
166	0x3c98bb9b	0.018644145
167	0x3e28a59c	0.16469425
168	0x3e0e3eff	0.13891219
169	0xbe5c8fd4	-0.21539241
170	0xbe7d4a8c	-0.24735469
171	0xbe6bd8b1	-0.2303188
172	0x3e5df34e	0.21674845
173	0x3d82a48e	0.063790426
174	0xbd8e3751	-0.069441445
175	0xbe70605c	-0.23474258
176	0xbcc10ab4	-0.023564674
177	0xbe41fcd8	-0.18944108
178	0x3e134c8a	0.14384666
179	0x3d15982b	0.03652207
180	0x3d92a8d7	0.0716111
181	0x3e0bbde8	0.13646662
182	0x3c7cd83a	0.015432412
183	0xbe5194c4	-0.20466906
184	0x3d777888	0.060417682
185	0xbcf2567d	-0.029582256
186	0xbe60c67a	-0.21950713
187	0x3d294f0c	0.04133515
188	0x3e056c11	0.13029505
189	0xbe52fe18	-0.20604742
190	0x3e05c3b0	0.1306293
191	0x3e71304b	0.23553579
192	0x3dc3c7f5	0.09559623
193	0x3e0c85fb	0.13722984
194	0x3e8138d8	0.2523868
195	0xbe23aa65	-0.15982969
196	0xbe017af0	-0.12644553
197	0x3e0eae2c	0.13933629
198	0x3e28c282	0.16480449
199	0xbdf3a7ba	-0.11897226
200	0xbe1b85cc	-0.15187758
201	0x3e53eea7	0.20696507
202	0x3dddc7d7	0.10829132
203	0x3dee3d8c	0.11632833
204	0xbe418445	-0.18898113
205	0xbceee0d7	-0.029159946
206	0x3e537965	0.20651777
207	0x3b8e068e	0.0043342775
208	0xbd801d88	-0.06255633
209	0x3e001aab	0.12510173
210	0x3de05356	0.10953395
211	0x3cd0dea4	0.025496788
212	0xbe4773b5	-0.19477732
213	0xbdbc52db	-0.09195491
214	0x3c9ac387	0.018892063
215	0x3e87f3be	0.26553148
216	0xbe2e98f4	-0.17050534
217	0xbda6fd49	-0.08153779
218	0xbe364f6c	-0.17803735
219	0xbd8fdd5a	-0.07024641
220	0xbe6ee759	-0.2333044
221	0x3da3e02f	0.08001744
222	0xbc2c35cc	-0.010510873
223	0x3e76292d	0.24039145
224	0xbd28bf0f	-0.041197833
225	0x3e6599bf	0.2242193
226	0x3ddd3dec	0.10802826
227	0xbdd54334	-0.104132086
228	0xbe690ac3	-0.22758012
229	0xbe347bd3	-0.1762536
230	0xbdb5d5e5	-0.08878688
231	0xbe77f2ab	-0.24213664
232	0x3dc97f6a	0.098387554
233	0xbcdf1886	-0.027233373
234	0x3dc486d1	0.09596027
235	0x3e2b57ae	0.16732666
236	0x3e4d8634	0.20070726
237	0xbe056b00	-0.13029099
238	0x3e44e39f	0.19227456
239	0xbd6c3640	-0.057668924
240	0x3dc643f0	0.09680927
241	0x3e1102be	0.14161202
242	0xbdbf8690	-0.09351838
243	0xbc2092f0	-0.009800658
244	0x3e0acdd4	0.1355508
245	0x3e1ff4f5	0.15620787
246	0xbdd9da66	-0.10637359
247	0xbe1a5c71	-0.15074326
248	0x3da92498	0.08258933
249	0x3e239b58	0.15977228
250	0x3e0501a4	0.12988907
251	0xbe7bef20	-0.24602938
252	0xbc80a956	-0.015705746
253	0x3e7c99a4	0.24667984
254	0x3e0c35c6	0.13692388
255	0x3e30d128	0.17267287

classifier.7.bias f4 [16]
0	0x3cf06cdf	0.029348789
1	0x3e759a80	0.23984718
2	0x3e1fd248	0.1560756
3	0x3e6c336c	0.23066491
4	0xbe7a9380	-0.2447033
5	0x3e3476d6	0.17623457
6	0x3dfb6cb2	0.12276591
7	0x3e589da5	0.21153887
8	0xbe70d459	-0.23518504
9	0x3e012e9c	0.12615436
10	0x3d406765	0.046973605
11	0xbdaf2a76	-0.08553021
12	0xbe3835cd	-0.17989273
13	0xbe7981c7	-0.24365912
14	0xbdfddcbf	-0.123956196
15	0xbe7442cd	-0.23853607

classifier.8.weight f4 [16]
0	0x3f85cd08	1.0453196
1	0x3f86b799	1.052478
2	0x3f86ec8d	1.054094
3	0x3f85a091	1.0439626
4	0x3f84f639	1.0387641
5	0x3f869feb	1.0517553
6	0x3f83de2b	1.0302175
7	0x3f853b96	1.0408809
8	0x3f86647d	1.0499417
9	0x3f77e095	0.9682706
10	0x3f863bc2	1.0486987
11	0x3f833245	1.0249716
12	0x3f846629	1.0343677
13	0x3f81cb7c	1.0140224
14	0x3f858945	1.0432516
15	0x3f85dbb7	1.0457677

classifier.8.bias f4 [16]
0	0x3d3f580e	0.046714835
1	0x3d34864c	0.044073388
2	0x3d4efdd5	0.05053504
3	0x3d38a0df	0.045075294
4	0x3d2ecc70	0.042675436
5	0x3d5b54c9	0.053547654
6	0xbcc91947	-0.024548186
7	0x3c92a372	0.017900202
8	0x3d4b35db	0.049611907
9	0xbd2725e1	-0.04080761
10	0x3d5a35a3	0.05327381
11	0x3c218129	0.009857454
12	0xbd2358b7	-0.039879527
13	0xbb1d0010	-0.0023956336
14	0x3d219dc7	0.03945711
15	0x3d3a6e31	0.045515243

classifier.8.running_mean f4 [16]
0	0x3e56c132	0.20972136
1	0x3f12debb	0.5737111
2	0x3db72cca	0.0894409
3	0xbdc3faa6	-0.09569292
4	0xbe1b58cb	-0.1517059
5	0x3e5cb06d	0.21551676
6	0x3eb4ea1b	0.35334858
7	0x3e701877	0.23446833
8	0xbdf3ff89	-0.11913974
9	0xbe75d987	-0.24008761
10	0xbd8f800b	-0.07006844
11	0xbc9b2350	-0.018937737
12	0x3dbd365f	0.09238886
13	0xbe9bfc16	-0.30465764
14	0xbe039afa	-0.12852088
15	0x3db56375	0.088568605

classifier.8.running_var f4 [16]
0	0x3db9bc18	0.09069079
1	0x3d4c1de2	0.049833186
2	0x3e0662db	0.13123648
3	0x3dab0324	0.083502084
4	0x3e6d15dd	0.23152871
5	0x3e04c309	0.12965025
6	0x3e1ffc7f	0.15623663
7	0x3e28bd30	0.1647842
8	0x3dfbb69d	0.1229069
9	0x3e378c7e	0.17924687
10	0x3decaf07	0.11556821
11	0x3e02db3a	0.12778941
12	0x3e97af31	0.29625848
13	0x3d83763c	0.06419036
14	0x3de6779f	0.11253285
15	0x3dd2feec	0.10302529

classifier.10.weight f4 [10, 16]
0	0xbd2f7ed0	-0.042845547
1	0xbe3797be	-0.17928979
2	0xbdd2573e	-0.102705464
3	0xbe45036d	-0.19239588
4	0x3e2b3dd1	0.167228
5	0x3dbbf0a4	0.09176758
6	0x3e344907	0.17605983
7	0x3c95895b	0.018253973
8	0xbe5f97e4	-0.21835285
9	0x3e2ea0bb	0.17053501
10	0xbe62a0ad	-0.22131605
11	0x3def51e2	0.1168554
12	0x3ca0afd1	0.019615086
13	0x3d82c4d1	0.06385196
14	0x3e744283	0.23853497
15	0x3c8b72c1	0.017022492
16	0xbddca744	-0.10774091
17	0x3e1bec93	0.15226965
18	0xbe204982	-0.15653041
19	0x3db90d74	0.09035769
20	0x3e41bfd8	0.18920839
21	0xbd9da295	-0.07697026
22	0x3e784f5b	0.24249022
23	0x3e82a99c	0.25520027
24	0x3e2efda6	0.17088947
25	0x3e20837c	0.15675157
26	0xbe516f07	-0.2045251
27	0x3e8df2ca	0.27724296
28	0x3e029bb4	0.12754709
29	0xbd6537c4	-0.055961385
30	0x3e477272	0.19477251
31	0x3e5e90af	0.2173488
32	0x3e8ce506	0.2751848
33	0xbe05cc27	-0.13066159
34	0xbc3132a7	-0.010815299
35	0x3e422cae	0.18962356
36	0xbe602973	-0.21890812
37	0xbe217581	-0.1576748
38	0xbe139da1	-0.144156
39	0xbd643037	-0.055710044
40	0x3e5192c7	0.20466147
41	0xbe312a1c	-0.1730122
42	0x3d255977	0.040368523
43	0xbe03f58a	-0.12886634
44	0xbdcd16e0	-0.10014129
45	0xbddab82c	-0.10679659
46	0xbe0b3b7d	-0.13596912
47	0x3ddefa16	0.10887544
48	0xbe851ce4	-0.25998604
49	0xbe90fbd3	-0.28317127
50	0xbe927a5a	-0.28608972
51	0xbca3666c	-0.0199463
52	0xbab837bd	-0.0014054697
53	0xbd1638e2	-0.03667534
54	0x3c3e3003	0.011608127
55	0xbd1d5493	-0.038410734
56	0x3e6f4e34	0.23369676
57	0xbcfd2f43	-0.030906325
58	0x3e4b6d19	0.19865836
59	0xbe8279c1	-0.25483516
60	0x3e354d6d	0.17705317
61	0xbe26b9b5	-0.16281779
62	0x3e230fe3	0.15924029
63	0x3e67d72d	0.22640677
64	0x3b51ed47	0.0032032297
65	0xbe0034a7	-0.12520085
66	0xbd10730f	-0.03526598
67	0x3e436bd5	0.19084103
68	0x3cb77c58	0.022398159
69	0x3d35dbac	0.04439895
70	0x3c49b474	0.01231109
71	0xbe268b79	-0.16264142
72	0xbd36ddbf	-0.044645067
73	0xbd5dd54a	-0.054158486
74	0xbe8a4a85	-0.2700998
75	0xbe7023a4	-0.23451096
76	0xbd884385	-0.06653503
77	0x3de8c649	0.11365945
78	0xbd13aacf	-0.036051568
79	0x3e75950b	0.23982637
80	0xbd94a8f8	-0.07258791
81	0xbd5a2dd5	-0.053266365
82	0xbd67b94d	-0.0565732
83	0x3dd82bb3	0.1055521
84	0xbe3daacf	-0.1852219
85	0xbe4ecb41	-0.20194723
86	0x3a71699c	0.00092091574
87	0xbe2e7ab0	-0.17038989
88	0xbe660140	-0.22461414
89	0x3e68e9cc	0.22745436
90	0xbe6149e3	-0.22000842
91	0x3c9146e7	0.017734004
92	0x3daa3207	0.08310323
93	0x3e6ea506	0.23305139
94	0xbd40c044	-0.04705836
95	0x3d854732	0.0650772
96	0x3e15ed6a	0.14641348
97	0x3e6eabcc	0.23307723
98	0x3e4c3486	0.19941911
99	0x3e8564bf	0.26053426
100	0x3b78d969	0.0037971383
101	0x3d6f2406	0.058383964
102	0xbe5db023	-0.21649222
103	0xbdc0574a	-0.09391649
104	0xbdb4ef28	-0.08834678
105	0xbe152a4e	-0.14566919
106	0xbe620302	-0.2207146
107	0x3e1d49a2	0.1536012
108	0xbe0ba494	-0.13637
109	0xbe04c87e	-0.12967107
110	0xbe3bbb9f	-0.1833329
111	0x3e6c886f	0.2309892
112	0x3d5d063d	0.053961027
113	0xbdcab619	-0.098980136
114	0x3e961377	0.29311725
115	0x3e5a1bb2	0.21299627
116	0xbe1019d6	-0.14072356
117	0xbe42d5b4	-0.19026834
118	0xbc4c978a	-0.012487302
119	0xbe197456	-0.14985785
120	0xbe96cc17	-0.29452583
121	0xbe0dbb8e	-0.13841078
122	0xbc3dde69	-0.011588671
123	0x3e0cbd37	0.13744055
124	0x3d51e674	0.051245168
125	0xbe83bed7	-0.25731537
126	0xbd43ebaf	-0.047832187
127	0xbe4d042f	-0.20021127
128	0xbe4c6eec	-0.19964188
129	0x3e6016b8	0.21883667
130	0x3da0cd82	0.078516975
131	0xbdc24513	-0.09485831
132	0xbe4266b6	-0.18984494
133	0x3e90d6ff	0.2828903
134	0x3e14c1d7	0.14527069
135	0x3e471478	0.19441402
136	0x3e368e38	0.1782769
137	0x3cfc0b92	0.030767236
138	0xbe119c40	-0.14219761
139	0xbe2a2058	-0.166139
140	0xbe685bc4	-0.22691256
141	0x3d426b25	0.047465462
142	0xbdd20ffe	-0.102569565
143	0x3d290ea0	0.041273713
144	0xbdebab5f	-0.11507296
145	0xbddc16cf	-0.10746538
146	0x3e74bedc	0.23900932
147	0x3c60d734	0.013723183
148	0x3e865961	0.26240066
149	0xbe20e024	-0.15710503
150	0xbdf321f0	-0.118717074
151	0xbe8af958	-0.2714336
152	0x3e4f7819	0.20260657
153	0x3df92e93	0.121670865
154	0x3e859002	0.26086432
155	0xbe06fed1	-0.13183142
156	0x3e1b8052	0.15185669
157	0xbe5bdb4e	-0.21470377
158	0xbcb23622	-0.021754328
159	0xbe814a67	-0.25252077

classifier.10.bias f4 [10]
0	0xbd904b11	-0.07045568
1	0xbe5d2232	-0.21595076
2	0xbddd2935	-0.10798875
3	0x3e20113f	0.15631579
4	0x3e334018	0.17504919
5	0x3e357a9e	0.17722556
6	0xbe44cf98	-0.19219816
7	0x3e0370d5	0.12836011
8	0xbd383a8e	-0.044977717
9	0xbe0b2079	-0.13586606

exp_avg f4 [16, 784]
0	0xb40971ea	-1.2800561e-07
1	0x34f226d8	4.5104275e-07
2	0xb275f2ac	-1.4316054e-08
3	0xb635e658	-2.710518e-06
4	0xb6424c12	-2.8952531e-06
5	0xb7217bab	-9.6251415e-06
6	0xb89469b7	-7.076881e-05
7	0xb77ead0e	-1.5179872e-05
8	0x371e7d0f	9.446651e-06
9	0xb76d1dcd	-1.4133239e-05
10	0xba24ea15	-0.00062909845
11	0xb9f8e72b	-0.0004747448
12	0xba908f1e	-0.001102898
13	0xbaa3e92f	-0.0012505407
14	0xba9fcf60	-0.001219254
15	0xbabe08c0	-0.0014498457
16	0xba7b236e	-0.00095801696
17	0xb99a3010	-0.00029408978
18	0xb99b5323	-0.00029625845
19	0x38db5033	0.00010457672
20	0xb8f635f6	-0.00011740245
21	0xb93012b5	-0.00016791637
22	0xb89daaf2	-7.5181844e-05
23	0x389a7b77	7.366289e-05
24	0x38af6295	8.3630126e-05
25	0x3567f24c	8.6406794e-07
26	0x349815fa	2.8328196e-07
27	0x37b082ed	2.1041802e-05
28	0xb483d326	-2.4554282e-07
29	0xb505c928	-4.983908e-07
30	0x35770714	9.202497e-07
31	0xb5b182b9	-1.3225573e-06
32	0xb75cb3bf	-1.3154872e-05
33	0xb9049013	-0.00012642173
34	0xb9be9daf	-0.00036357107
35	0xb980aa73	-0.00024541057
36	0x39d2f2bd	0.00040235175
37	0x3a61cd41	0.0008613654
38	0xb9ae8e81	-0.0003329404
39	0xb9ac3f08	-0.00032853358
40	0xba41a46e	-0.00073868677
41	0xba7610a6	-0.0009386636
42	0xbaac94ba	-0.0013166883
43	0xba764d38	-0.0009395662
44	0xb8c5697d	-9.413341e-05
45	0x39c4cbc6	0.00037535856
46	0x3a1fecf5	0.0006100678
47	0x3abd4edb	0.0014443056
48	0x3a253a48	0.0006302935
49	0x39812faf	0.00024640324
50	0x389c5ea6	7.456289e-05
51	0x39786a36	0.0002369069
52	0x38f645dc	0.000117432064
53	0xb4d1b9fb	-3.9064602e-07
54	0x38b8d34e	8.813162e-05
55	0x37231453	9.720289e-06
56	0x36769e01	3.6748827e-06
57	0x381c71a5	3.7299138e-05
58	0x3820d596	3.834589e-05
59	0x3861cdca	5.3835836e-05
60	0xb76e4662	-1.4202293e-05
61	0xb9b0c655	-0.00033717105
62	0xb9a08578	-0.0003061702
63	0x3962ee9d	0.0002164193
64	0x3a0acc8c	0.0005294762
65	0x388043ab	6.11612e-05
66	0xba9289ac	-0.0011179945
67	0xb983958e	-0.00025097694
68	0x356198f3	8.40416e-07
69	0xb9fd3de2	-0.00048302027
70	0xba785488	-0.00094730454
71	0xb9fc2f3d	-0.0004810038
72	0x39a77b0f	0.00031944408
73	0x3955ea97	0.00020400654
74	0x3898b238	7.2811206e-05
75	0x3a9ced9c	0.0011972669
76	0x3abd17c1	0.0014426635
77	0x3a5645ca	0.00081738515
78	0x39f536fa	0.00046771002
79	0x3a0627e4	0.00051176385
80	0x38f5c37c	0.00011718922
81	0xb8d0112b	-9.921411e-05
82	0x38e8aa2c	0.00011094319
83	0x38203b15	3.8201997e-05
84	0x36a0028b	4.7686676e-06
85	0x38040386	3.1474534e-05
86	0x3809f31e	3.2889766e-05
87	0x37335b99	1.0690558e-05
88	0xb988d271	-0.00026096732
89	0xb9c3c859	-0.0003734257
90	0xb9b9fdb8	-0.00035474985
91	0xb9937208	-0.00028122985
92	0x3947bfcb	0.00019049567
93	0xba07818e	-0.00051691465
94	0xba44e774	-0.0007511296
95	0x394695ba	0.00018938529
96	0x3963a8c8	0.00021711283
97	0xb93ac01f	-0.00017809913
98	0xb950be6d	-0.00019907365
99	0x37eb6297	2.8060093e-05
100	0x39a36ff2	0.00031173188
101	0x399696c2	0.00028722553
102	0xb9a96fe8	-0.0003231757
103	0x39870a1e	0.00025756744
104	0x3a6d082e	0.00090420514
105	0x39fa39dc	0.00047726824
106	0x39a2f66f	0.00031082655
107	0x39e5d70d	0.0004383851
108	0x391ab69c	0.00014754612
109	0xb9a028e7	-0.00030548053
110	0x38e0b5b1	0.00010714995
111	0x387e575d	6.0639682e-05
112	0xb58d2f7b	-1.0519137e-06
113	0xb688640b	-4.0647624e-06
114	0xb72586ba	-9.866135e-06
115	0xb8df64d2	-0.00010652248
116	0xb9d3f87b	-0.00040430189
117	0xb9f44c87	-0.00046596324
118	0xba1adcf2	-0.0005907557
119	0xb98b650a	-0.00026587426
120	0x39bc1c2b	0.0003587914
121	0xba16053f	-0.00057228276
122	0xb99ad7ec	-0.00029534043
123	0x39c1d74c	0.00036972237
124	0x3a70b7e5	0.0009182676
125	0x3a01e9ae	0.00049557805
126	0x3a4cb19a	0.0007808447
127	0x3a948eb0	0.0011334028
128	0x3ab02664	0.0013439176
129	0x3a44ebec	0.0007511962
130	0xb89a27a5	-7.3506766e-05
131	0x39189e8a	0.0001455491
132	0x3a883020	0.0010390319
133	0x3a5e5d13	0.0008482497
134	0x3a555ac1	0.00081388286
135	0x3a9d554f	0.0012003573
136	0x3a2d7ad2	0.0006617728
137	0x380b66aa	3.3235796e-05
138	0x3942319e	0.00018519766
139	0x3767ca5c	1.3815788e-05
140	0xb6e6929d	-6.871602e-06
141	0xb78440d9	-1.5765823e-05
142	0x350bf631	5.213979e-07
143	0xb8b58759	-8.655963e-05
144	0xb99f80b5	-0.00030422737
145	0xba21612f	-0.0006156144
146	0xba32f6b0	-0.00068269204
147	0xb9a64078	-0.0003171002
148	0x397aa27e	0.00023902391
149	0xba374501	-0.00069911784
150	0xb9479193	-0.0001903235
151	0x3a4d4125	0.00078298367
152	0x3a8a16fb	0.0010535413
153	0x39e525aa	0.00043706346
154	0x3a867355	0.001025776
155	0x3ae99a34	0.0017822445
156	0x3ae30634	0.0017320574
157	0x3ac84dd8	0.0015281988
158	0x3a2e35d4	0.0006645594
159	0x3a664afa	0.0008784976
160	0x3ae761ef	0.0017653088
161	0x3ad97784	0.0016591405
162	0x3ac7f476	0.001525535
163	0x3b0330cc	0.00200181
164	0x3ac0e099	0.0014715373
165	0x3a293de6	0.0006456062
166	0x38a3b8f8	7.806899e-05
167	0xb7ef9b31	-2.8563287e-05
168	0xb6a7daaa	-5.0024437e-06
169	0xb6b439a9	-5.3711306e-06
170	0x374a107e	1.2043978e-05
171	0xb911dc83	-0.00013910425
172	0xb95d30c9	-0.00021094376
173	0xba0d4192	-0.0005388494
174	0xba12e8e2	-0.000560416
175	0xb960b9d6	-0.00021431534
176	0x3997a27b	0.00028922022
177	0xba48908a	-0.00076509325
178	0xb8e6c77e	-0.00011004413
179	0x3a9a3bc6	0.0011767081
180	0x3a5d08fc	0.000843182
181	0x3a141b78	0.0005649845
182	0x3a70bba4	0.0009183234
183	0x3ad6947c	0.0016371156
184	0x3a969f9d	0.001149166
185	0x3a916548	0.0011092806
186	0x39c8c606	0.00038294512
187	0x3a409537	0.00073464535
188	0x3aefa663	0.001828384
189	0x3af69ae1	0.0018814468
190	0x3b1b634a	0.0023710304
191	0x3b423376	0.0029632724
192	0x3b11410f	0.0022164022
193	0x3a4cd16c	0.0007813189
194	0xb954d8da	-0.00020298679
195	0xb91240df	-0.00013947811
196	0x367561f8	3.656487e-06
197	0xb7857611	-1.5909814e-05
198	0x3795ba77	1.7849014e-05
199	0xb89d3ae1	-7.4973104e-05
200	0xb981e7ec	-0.00024777593
201	0xb9e50b40	-0.00043686666
202	0xb9ef9e38	-0.00045703514
203	0xb9975646	-0.00028865243
204	0x393fbfa9	0.00018286578
205	0xba34d0f2	-0.00068975904
206	0x382d6fb2	4.135044e-05
207	0x3aaeace2	0.001332667
208	0x3a895fbb	0.00104808
209	0x3a99bb0e	0.001172872
210	0x3b0bd672	0.0021337536
211	0x3af31664	0.0018546102
212	0x39b30614	0.0003414607
213	0xb9281de9	-0.00016032871
214	0xbaa13f04	-0.0012302105
215	0xb9fb50fc	-0.0004793479
216	0x3a42b4de	0.0007427464
217	0x3ab2b234	0.0013633431
218	0x3b0988a7	0.0020985992
219	0x3b2fcdd8	0.0026825573
220	0x3b003b48	0.0019566584
221	0x3a1ceeeb	0.0005986529
222	0xb99814d8	-0.0002900723
223	0xb8b378a4	-8.557856e-05
224	0x378208ee	1.5501366e-05
225	0x3876d74b	5.8851478e-05
226	0x3893d4ab	7.049119e-05
227	0xb8ad877b	-8.274518e-05
228	0xb98c49cb	-0.0002675786
229	0xb9a18a80	-0.00030811504
230	0xb959996a	-0.00020751884
231	0xb7fa12f8	-2.9811155e-05
232	0x39b6ad21	0.00034842736
233	0xb9ee4834	-0.00045448693
234	0x399fdf86	0.0003049338
235	0x3ac78109	0.0015220951
236	0x3aa7d849	0.0012805547
237	0x3af782dd	0.0018883605
238	0x3b318474	0.0027087005
239	0x3ac5111c	0.0015035006
240	0xba8a3b84	-0.0010546301
241	0xbae9404a	-0.0017795649
242	0xba969887	-0.0011489548
243	0x39608387	0.00021411302
244	0x3a776d9c	0.00094386353
245	0x3aa302f6	0.0012436796
246	0x3ad03b41	0.00158868
247	0x3a8f0f03	0.0010914508
248	0x3a0c03b2	0.0005341127
249	0x368a9cd9	4.13098e-06
250	0xb99a49ed	-0.00029428248
251	0xb8285a1f	-4.0138253e-05
252	0x380e1957	3.3879038e-05
253	0x38f14e35	0.00011506343
254	0x390fba6b	0.00013706989
255	0xb84d2e19	-4.891874e-05

exp_avg_sq f4 [16, 784]
0	0x288b4d67	1.5465668e-14
1	0x2b246ba6	5.8413897e-13
2	0x2b8a75d2	9.838191e-13
3	0x2d69ea33	1.3296519e-11
4	0x2f2eb4c7	1.5889433e-10
5	0x30014185	4.7023035e-10
6	0x30b6fd3f	1.331422e-09
7	0x31568dca	3.1221696e-09
8	0x322a4467	9.910855e-09
9	0x330ac448	3.2309146e-08
10	0x346cba94	2.204709e-07
11	0x34b1840d	3.30649e-07
12	0x350e028b	5.290282e-07
13	0x3512349d	5.44658e-07
14	0x352ed236	6.512595e-07
15	0x353a48c0	6.9396265e-07
16	0x34ee2880	4.4360422e-07
17	0x3485ad29	2.489917e-07
18	0x33b7c2c3	8.5570285e-08
19	0x33067200	3.130299e-08
20	0x32766321	1.4341624e-08
21	0x321bd82f	9.071342e-09
22	0x319e7986	4.612221e-09
23	0x316e2594	3.465492e-09
24	0x316ca52f	3.4436416e-09
25	0x30586e84	7.8737394e-10
26	0x30073eec	4.920213e-10
27	0x2f617361	2.0504622e-10
28	0x2caa4212	4.839026e-12
29	0x2e16d733	3.4297187e-11
30	0x2e46b89e	4.518396e-11
31	0x2f9a403f	2.8058086e-10
32	0x300dc81f	5.157989e-10
33	0x31250c99	2.401782e-09
34	0x328eeb5c	1.6638005e-08
35	0x33b9ae3b	8.646426e-08
36	0x3462ee41	2.1134566e-07
37	0x348fd27e	2.678898e-07
38	0x34e44802	4.2520702e-07
39	0x3533a606	6.692429e-07
40	0x3579bed2	9.303741e-07
41	0x35800350	9.537707e-07
42	0x3574efb4	9.12459e-07
43	0x35743a0a	9.098154e-07
44	0x3560195e	8.3483417e-07
45	0x3530a6dd	6.580793e-07
46	0x350ee1c8	5.322768e-07
47	0x34d82f71	4.0267653e-07
48	0x343e2bd3	1.7711072e-07
49	0x33a93df2	7.8809435e-08
50	0x330b6c83	3.246215e-08
51	0x32a71447	1.945058e-08
52	0x324ea811	1.2028992e-08
53	0x31edf3e6	6.925336e-09
54	0x313c79e4	2.7426887e-09
55	0x2f8e3c5f	2.5872546e-10
56	0x2e5ee648	5.0681487e-11
57	0x2fbf9a9c	3.4852554e-10
58	0x2ffa17f4	4.5491755e-10
59	0x30e973a7	1.6985852e-09
60	0x311a8c11	2.2489568e-09
61	0x32964e3f	1.749788e-08
62	0x33f735d7	1.1511627e-07
63	0x349f4dd4	2.9672685e-07
64	0x34b144a4	3.3018762e-07
65	0x34abeb13	3.202227e-07
66	0x352c97ea	6.429606e-07
67	0x35530325	7.86082e-07
68	0x35809918	9.581299e-07
69	0x35770587	9.2022714e-07
70	0x357cee24	9.4223856e-07
71	0x358b6f9c	1.038879e-06
72	0x3587f001	1.0128134e-06
73	0x35829b9b	9.731042e-07
74	0x353b79b8	6.984005e-07
75	0x350ab974	5.1678876e-07
76	0x34edd665	4.4300683e-07
77	0x3490deaf	2.6984114e-07
78	0x341ced75	1.4615019e-07
79	0x33b843e9	8.5805205e-08
80	0x33923fa2	6.8102295e-08
81	0x33161e19	3.495197e-08
82	0x32338637	1.0449688e-08
83	0x3018780c	5.5467875e-10
84	0x2eaa7685	7.751758e-11
85	0x302483dc	5.9850236e-10
86	0x3083c0a3	9.586255e-10
87	0x313dd7a2	2.7625693e-09
88	0x322fccc5	1.02329e-08
89	0x338a5fb4	6.443534e-08
90	0x347b38ea	2.3396902e-07
91	0x348a1ab8	2.5723944e-07
92	0x3499f64a	2.867767e-07
93	0x34f2e913	4.5245596e-07
94	0x35253bba	6.1554204e-07
95	0x354f2cba	7.7178595e-07
96	0x356260d2	8.4332453e-07
97	0x356184fc	8.401255e-07
98	0x35872336	1.0068532e-06
99	0x35a0f07c	1.1990919e-06
100	0x35a2f75d	1.2141933e-06
101	0x35ad7513	1.2923578e-06
102	0x358f6fc5	1.068686e-06
103	0x3540581f	7.1653807e-07
104	0x350f2fb2	5.3341057e-07
105	0x34d0ea17	3.8913342e-07
106	0x349ab61a	2.8817232e-07
107	0x3471821d	2.2492209e-07
108	0x3425ce90	1.544197e-07
109	0x33ee4cff	1.1096744e-07
110	0x3313b9d9	3.4395132e-08
111	0x31441e8a	2.8539113e-09
112	0x2f024033	1.1846239e-10
113	0x30808212	9.350194e-10
114	0x3125984e	2.4097235e-09
115	0x31c12757	5.6215117e-09
116	0x32b340e3	2.086785e-08
117	0x33e1092f	1.04790495e-07
118	0x34846cbe	2.4666036e-07
119	0x34962709	2.796808e-07
120	0x34b4a78e	3.3649525e-07
121	0x34f22338	4.5101638e-07
122	0x35232254	6.0772186e-07
123	0x353e85db	7.09753e-07
124	0x3560c2be	8.372989e-07
125	0x355508c3	7.9361433e-07
126	0x35907aa2	1.0764527e-06
127	0x35c27d40	1.4490579e-06
128	0x35d86391	1.6122232e-06
129	0x35de8ef0	1.6581889e-06
130	0x35d08f73	1.5538957e-06
131	0x35a3189a	1.2151606e-06
132	0x3576ff99	9.2014085e-07
133	0x353851bf	6.86643e-07
134	0x351dcdcd	5.878654e-07
135	0x34ff7ca8	4.758815e-07
136	0x34c8b478	3.738421e-07
137	0x346d1135	2.2078605e-07
138	0x33a20281	7.544168e-08
139	0x31b3a17a	5.2279434e-09
140	0x2f949f7f	2.7034372e-10
141	0x315fa8e6	3.2546779e-09
142	0x316ad64e	3.41733e-09
143	0x3201b159	7.5491124e-09
144	0x32faf36c	2.9214526e-08
145	0x3409332f	1.277774e-07
146	0x3492a940	2.7317765e-07
147	0x34b206da	3.316007e-07
148	0x34bb1cf2	3.4852525e-07
149	0x34e07dab	4.1814687e-07
150	0x35151500	5.5537384e-07
151	0x35190974	5.70107e-07
152	0x353935cd	6.899616e-07
153	0x355cea48	8.229731e-07
154	0x35a16711	1.2025431e-06
155	0x35dd08e1	1.6468367e-06
156	0x35fb5d39	1.8728089e-06
157	0x35fe87b1	1.8963966e-06
158	0x35ea6a4c	1.7465295e-06
159	0x35c90ed2	1.497998e-06
160	0x35a84e9b	1.2539853e-06
161	0x358e0de1	1.0583864e-06
162	0x358236d5	9.701713e-07
163	0x356c11f5	8.794298e-07
164	0x352b23dc	6.3754646e-07
165	0x34ec4663	4.400964e-07
166	0x343ab5ee	1.7388786e-07
167	0x32729d2c	1.4121991e-08
168	0x3000ba3b	4.683078e-10
169	0x3198776b	4.4373585e-09
170	0x32170e6d	8.792637e-09
171	0x32ab6cd5	1.9956511e-08
172	0x334f7c7b	4.8309158e-08
173	0x341264b7	1.363395e-07
174	0x348ae9c0	2.5874579e-07
175	0x34a52bf0	3.0765614e-07
176	0x349eecfd	2.9602225e-07
177	0x34f4d39f	4.5602516e-07
178	0x3521e364	6.030807e-07
179	0x353c11f0	7.006156e-07
180	0x355f814c	8.3262125e-07
181	0x3587cd7a	1.0118085e-06
182	0x35b209a0	1.3264835e-06
183	0x35d8ba24	1.6147428e-06
184	0x35fa215e	1.8636163e-06
185	0x3602ef3e	1.9510767e-06
186	0x360aecda	2.0701468e-06
187	0x35ffafa8	1.9050103e-06
188	0x35c944e1	1.4995713e-06
189	0x35bf058d	1.4232224e-06
190	0x35a9ae22	1.264216e-06
191	0x35b13634	1.3203303e-06
192	0x358ed16a	1.0640772e-06
193	0x35377983	6.8349635e-07
194	0x344e522a	1.9215136e-07
195	0x328acce3	1.6158486e-08
196	0x30b12ec4	1.2891737e-09
197	0x327579eb	1.4288598e-08
198	0x33808f44	5.986524e-08
199	0x33a7fcde	7.82254e-08
200	0x340f0088	1.3318106e-07
201	0x344b9237	1.8959041e-07
202	0x34967a9c	2.8028887e-07
203	0x34bb2e5d	3.4865198e-07
204	0x34aa98fe	3.1776284e-07
205	0x351f5e47	5.936931e-07
206	0x35724450	9.0251433e-07
207	0x358e637e	1.060878e-06
208	0x3592a3c4	1.092551e-06
209	0x35846807	9.865042e-07
210	0x35a000d9	1.1921176e-06
211	0x35c9110c	1.4980628e-06
212	0x35e727b3	1.7222395e-06
213	0x35fe7017	1.8957097e-06
214	0x360f63a3	2.1366657e-06
215	0x36080891	2.0270566e-06
216	0x35b7b3b2	1.3686861e-06
217	0x35c36f4c	1.4561024e-06
218	0x3595dfcb	1.1166497e-06
219	0x35994f02	1.1422383e-06
220	0x358619db	9.991303e-07
221	0x35327986	6.648701e-07
222	0x34379a05	1.7099235e-07
223	0x3290cce7	1.6856985e-08
224	0x312cd148	2.5148257e-09
225	0x3313566b	3.43047e-08
226	0x34173dde	1.4085478e-07
227	0x342f58d6	1.6330463e-07
228	0x34894181	2.55659e-07
229	0x34979746	2.8236008e-07
230	0x34d31645	3.9318016e-07
231	0x34da69f1	4.0682747e-07
232	0x34d27bee	3.920572e-07
233	0x352882e3	6.277534e-07
234	0x35811c0a	9.619409e-07
235	0x359ba25c	1.1595653e-06
236	0x359b27d4	1.1559991e-06
237	0x3569a0c1	8.703319e-07
238	0x35997088	1.1432139e-06
239	0x35b1779c	1.3222339e-06
240	0x35ca5408	1.5074629e-06
241	0x35f0c326	1.7938189e-06
242	0x360962b1	2.0472037e-06
243	0x3608f646	2.040893e-06
244	0x35e629c6	1.7148493e-06
245	0x35e13b4e	1.6781066e-06
246	0x35a0f704	1.199282e-06
247	0x35a0ff3b	1.1995211e-06
248	0x35986555	1.1354374e-06
249	0x353b9390	6.987766e-07
250	0x3430778b	1.6434767e-07
251	0x32b9a09e	2.1609875e-08
252	0x31b2644e	5.191885e-09
253	0x33be1868	8.852004e-08
254	0x341996db	1.4304116e-07
255	0x345a3107	2.0320668e-07

exp_avg f4 [16]
0	0xafa5da10	-3.0168268e-10
1	0x2d889d8f	1.553138e-11
2	0xaf8f169b	-2.602761e-10
3	0x2f9ceda1	2.854508e-10
4	0xae924daf	-6.653111e-11
5	0x2ee6c85e	1.04947814e-10
6	0xaf4b9a9a	-1.8517668e-10
7	0x2ef479b8	1.1117457e-10
8	0x2ecb0047	9.2314205e-11
9	0xb02d9ce5	-6.3159994e-10
10	0xb05f623e	-8.126654e-10
11	0xaf46bba9	-1.8074665e-10
12	0x2ed4a3b9	9.669727e-11
13	0xaf7f558c	-2.3222507e-10
14	0xae15a7dc	-3.4027767e-11
15	0xaf076a34	-1.231591e-10

exp_avg_sq f4 [16]
0	0x1f90d4c3	6.133836e-20
1	0x1f012a99	2.735205e-20
2	0x1f493379	4.2605983e-20
3	0x1f81d256	5.4981597e-20
4	0x1f5b325e	4.6416717e-20
5	0x1f9e7b2b	6.711937e-20
6	0x1fa28daa	6.884403e-20
7	0x1f4dd3d3	4.3585655e-20
8	0x1eefd635	2.5393703e-20
9	0x1f98a6fb	6.465075e-20
10	0x1fee70d9	1.0098361e-19
11	0x1efaba80	2.6546914e-20
12	0x1eb3d59f	1.9040714e-20
13	0x204231b5	1.6448886e-19
14	0x1eb7752b	1.9424338e-20
15	0x1eca7d55	2.1439418e-20

exp_avg f4 [16]
0	0xbbb7bca3	-0.005607204
1	0xb49b5263	-2.8930944e-07
2	0xbabd6414	-0.0014449381
3	0x3a539cc1	0.00080723694
4	0x3b7c6c57	0.0038516724
5	0x39d00848	0.00039679022
6	0xbc1fd523	-0.009755406
7	0x3ae69bed	0.0017594077
8	0x39a8b029	0.00032174707
9	0xbb18a996	-0.002329444
10	0x3b80925f	0.003923699
11	0x3763bb4b	1.3573862e-05
12	0xb9b06011	-0.0003364091
13	0x3b584613	0.0033000752
14	0x3b62cd6f	0.0034607311
15	0x3b3d8093	0.0028915748

exp_avg_sq f4 [16]
0	0x366bb75f	3.5124465e-06
1	0x34f3b571	4.5394293e-07
2	0x3556fe19	8.0090973e-07
3	0x35286746	6.273516e-07
4	0x35d4a7fc	1.5844121e-06
5	0x3623b9e5	2.4397098e-06
6	0x374a7997	1.2068448e-05
7	0x356c4978	8.802376e-07
8	0x368db130	4.222755e-06
9	0x3577bbf0	9.2288155e-07
10	0x362b76c6	2.555012e-06
11	0x3606ca9e	2.0085495e-06
12	0x35b4d3e3	1.3472712e-06
13	0x35b4c731	1.3469017e-06
14	0x369fa271	4.75748e-06
15	0x3638a929	2.75166e-06

exp_avg f4 [16]
0	0xb9aa4310	-0.00032474892
1	0xbac24399	-0.0014821171
2	0xbb0246e9	-0.0019878692
3	0xbac28867	-0.0014841676
4	0x357cdcee	9.419881e-07
5	0xbb46d78a	-0.0030340874
6	0xbc13bfff	-0.009017943
7	0x3b0a0243	0.0021058477
8	0x3a377b6c	0.0006999287
9	0xba413c7d	-0.0007371379
10	0xba30c644	-0.0006743411
11	0x39ba1f6e	0.00035500102
12	0xbaae1482	-0.0013281258
13	0xbb1907b1	-0.0023350532
14	0x3ad8880a	0.0016520035
15	0x3aa04299	0.0012226879

exp_avg_sq f4 [16]
0	0x3604e915	1.9805204e-06
1	0x350d9237	5.2739364e-07
2	0x351c159f	5.814599e-07
3	0x353cd0fe	7.033958e-07
4	0x350f5d64	5.340755e-07
5	0x350d5bbc	5.2660084e-07
6	0x36b5b548	5.4153243e-06
7	0x352ccdbc	6.4374376e-07
8	0x35a36837	1.2174777e-06
9	0x34f13167	4.4925693e-07
10	0x360dece5	2.1148528e-06
11	0x34f6d6f6	4.5977475e-07
12	0x351b14dd	5.777236e-07
13	0x3533069e	6.6692326e-07
14	0x35c29ad2	1.4499185e-06
15	0x35dc461f	1.6411685e-06
