lightning_logs/Models/Model_L2/checkpoints/model-epoch=00-.ckpt (torch, 367703 bytes, 48 tensors)

classifier.1.weight f4 [32, 784]
0	0xba13c254	-0.0005636562
1	0xbaca6f08	-0.0015444467
2	0xbbacbf40	-0.005271822
3	0x3b8e9d04	0.004352214
4	0x3c984eec	0.01859232
5	0xbc970db3	-0.01843915
6	0x3b4b8c61	0.0031059014
7	0x3d1ceb7f	0.038310524
8	0x3cdf6c44	0.027273305
9	0x3d08b93c	0.03337978
10	0xbcd52bf3	-0.026021933
11	0x3cba3ec5	0.022735009
12	0xbd0ba1ed	-0.03408997
13	0x3bfaec59	0.0076575694
14	0xbbf6573d	-0.007517724
15	0x3caae42c	0.020860754
16	0xbcb8db73	-0.022565579
17	0xbc8d6331	-0.017259212
18	0x3c4e07fa	0.012575144
19	0xbc12dee5	-0.008964275
20	0x3cf2a4bb	0.029619565
21	0x3cb902a5	0.022584269
22	0xbc51b74b	-0.012800048
23	0xbd05270e	-0.03250795
24	0xbc554e67	-0.013019181
25	0x3ca2ae99	0.019858645
26	0x3b1f6cff	0.0024326441
27	0xb9498fbb	-0.00019222398
28	0x3c1369e7	0.008997417
29	0xbbb32f4b	-0.0054682842
30	0x3ace87d9	0.0015757038
31	0x3c5ff798	0.013669871
32	0x3ccd9d7b	0.025099507
33	0x3cf70009	0.030151384
34	0xbb5d0bb5	-0.0033728902
35	0x3d447090	0.04795891
36	0x3d367995	0.044549543
37	0x3cb69082	0.022285704
38	0x3c72a842	0.014810624
39	0x3bfbb456	0.00768141
40	0xbcdaf5c6	-0.026728522
41	0x3c473192	0.012157815
42	0x3c1ada25	0.009451424
43	0x3c8fae51	0.017539175
44	0x3bc0acf3	0.005879992
45	0x3bce0d08	0.0062881745
46	0x3d1e086c	0.03858225
47	0xbc488685	-0.012239103
48	0x3cb4b48a	0.022058744
49	0x3cd42429	0.025896149
50	0x3c1d7bd4	0.009612042
51	0xbd01dc35	-0.031704146
52	0xba51411c	-0.00079824193
53	0xbc1b4f52	-0.009479361
54	0xbcc99d67	-0.024611188
55	0x3ba0630c	0.00489462
56	0xbbfb1064	-0.007661866
57	0x3c4db3c4	0.0125550665
58	0xbca906f1	-0.020633193
59	0x3be8aaee	0.0071004545
60	0x3c831ab3	0.016003942
61	0xbaa5a4df	-0.0012637636
62	0x3cc37bc6	0.02386273
63	0x3c4e8f97	0.012607477
64	0x3c2ed203	0.010670188
65	0xbc81fc91	-0.015867503
66	0x3d083248	0.033251077
67	0x3ccfcdc3	0.02536667
68	0x3b351161	0.0027628767
69	0x3cfe86f8	0.031070217
70	0x3c49d1e9	0.012318113
71	0x3cc0069e	0.023440655
72	0x3d18767c	0.03722237
73	0xbc9bd0be	-0.019020434
74	0x3d145dad	0.03622215
75	0xbc99f137	-0.018791778
76	0xbc9c9c4b	-0.019117495
77	0x3ccdffda	0.025146414
78	0xbc0c053d	-0.008546171
79	0x3c1ac441	0.009446205
80	0x3cac0452	0.020998154
81	0xbb8c002f	-0.004272483
82	0xbd09da20	-0.033655286
83	0xbc7653bb	-0.015034611
84	0x3b6f83c9	0.0036547056
85	0x3beb448b	0.007179802
86	0x3cf2f170	0.029656142
87	0x3ca9ea5e	0.020741638
88	0x3ce90d9b	0.02844887
89	0x3c2b5c4a	0.010459015
90	0x3cdc3bf0	0.02688405
91	0x3af3fc1f	0.0018614567
92	0x3d1679e8	0.036737353
93	0x3c22a9d2	0.009928184
94	0xbaf2bea0	-0.0018519945
95	0xba02e778	-0.0004993598
96	0x3c0bd4da	0.0085346345
97	0xbc5cb63a	-0.013471181
98	0xbcc17010	-0.023613006
99	0x3bf87be8	0.00758313
100	0xbcf5b193	-0.0299919
101	0xba4f5dbf	-0.00079103926
102	0x3c970085	0.018432865
103	0x3d0adc67	0.0339016
104	0x3d107713	0.035269808
105	0x3d41ea4d	0.047342587
106	0x3c176c09	0.009242066
107	0xbc0881a3	-0.008331689
108	0x3c1838f1	0.00929092
109	0x3c9d5edf	0.019210277
110	0x3c53c8ee	0.012926323
111	0x3c7e18a2	0.015508803
112	0x3c41ae3f	0.011821329
113	0xbc3041de	-0.010757891
114	0x3cf350d0	0.02970162
115	0x3d09095f	0.033456203
116	0xb9a22b1f	-0.00030931176
117	0x3cfafbf6	0.030637722
118	0xbbf9d88f	-0.0076246927
119	0x3bfdd73b	0.0077466047
120	0x3ce14086	0.027496587
121	0x3c222b4d	0.009898019
122	0x3cbcbd43	0.023039466
123	0x3d24c721	0.040228967
124	0xbcc6bbca	-0.024259467
125	0xbbd12794	-0.006382892
126	0xbbe98713	-0.007126698
127	0x3ce46431	0.027879806
128	0x3c8be11f	0.01707512
129	0xba5d661a	-0.0008445695
130	0xbc08b9a4	-0.008345041
131	0xbce5491d	-0.027988965
132	0x3cb0af02	0.021567825
133	0x3ca22b54	0.019796051
134	0xbb8be374	-0.004269058
135	0x3d260335	0.040530402
136	0x3cab5bb4	0.02091775
137	0xbc9afec0	-0.018920302
138	0xbca4b6b5	-0.020106653
139	0x3c9d2931	0.01918468
140	0xbcb33cac	-0.021879517
141	0x3cde3f53	0.027129805
142	0x3cd74796	0.026279252
143	0x3cd18d83	0.025580173
144	0x3d39dd27	0.045376923
145	0x3cec5521	0.028849186
146	0xbc1b77d3	-0.009489018
147	0x3cc76fe9	0.024345355
148	0xbb18267f	-0.0023216305
149	0xbbf00eb2	-0.0073259706
150	0x3cb9e10d	0.02269032
151	0x3b9c0949	0.004761849
152	0xbc46b814	-0.012128849
153	0xbbba5c94	-0.0056873057
154	0xbc8914cf	-0.016733555
155	0xbc6bb290	-0.014385834
156	0xbd0d6443	-0.034519445
157	0x3cfbd92e	0.030743208
158	0x3c01d4f4	0.007924307
159	0x3ce4b6a4	0.027919121
160	0x3c89085e	0.016727623
161	0xbbf97bb6	-0.0076136244
162	0xbc518ff6	-0.012790671
163	0x3d09ad13	0.033612322
164	0xbc47946f	-0.012181385
165	0xbcf9c55e	-0.03048962
166	0xbd072cc9	-0.033001695
167	0xbcb6185d	-0.022228414
168	0x3c7f9e43	0.015601697
169	0x3cd19065	0.025581548
170	0x389f42d4	7.5941585e-05
171	0x3c7f94f5	0.015599479
172	0x3a8c62eb	0.0010710632
173	0xbc9f5f6c	-0.01945468
174	0xbb61cda3	-0.0034454844
175	0xbc588689	-0.013215669
176	0xbbf9d9b6	-0.00762483
177	0xbc8206d4	-0.015872397
178	0xbb6772bd	-0.0035316192
179	0xbcc79d45	-0.024366984
180	0x3c7f8281	0.015595079
181	0x3d01e29d	0.031710256
182	0xbd0572e3	-0.032580268
183	0xbc92e56f	-0.017931668
184	0xbd1d3ad8	-0.038386196
185	0x3a64151d	0.0008700656
186	0x3c9fb9de	0.019497808
187	0x3c57ab22	0.01316336
188	0xbc70b55e	-0.014691679
189	0xbd0d1662	-0.034445174
190	0x3d2f12e6	0.042742632
191	0x3d0d5f32	0.034514613
192	0x3b3e3318	0.0029022153
193	0x3c969c34	0.01838503
194	0xbcba57a2	-0.022746865
195	0x3c8927ba	0.016742576
196	0xbc863a3a	-0.016385186
197	0xbc9c1f60	-0.01905793
198	0x3cb00fc9	0.021491902
199	0x3ccb6ac3	0.024831181
200	0x3c684897	0.014177463
201	0x3c071916	0.008245727
202	0x3c965a48	0.018353596
203	0x3aa77a77	0.0012777586
204	0x3bbf2ac6	0.0058339564
205	0xbbe83fb8	-0.007087674
206	0x3ba66b56	0.0050787134
207	0x3c4c7314	0.012478609
208	0xbb2406af	-0.0025028398
209	0xbc2717d0	-0.010198548
210	0xbcf956a7	-0.030436827
211	0xbca59ae9	-0.020215468
212	0xbc5b1bc3	-0.013373318
213	0x3c5e5705	0.013570552
214	0x3ca68940	0.020329118
215	0xbc773c23	-0.015090021
216	0x3b9f03e1	0.0048527573
217	0x3ca3a9dc	0.019978456
218	0x3cd601e1	0.026123943
219	0x3b51f0c8	0.0032034386
220	0xbc34dcc7	-0.011038966
221	0xba722113	-0.0009236496
222	0xbd1a3410	-0.037647307
223	0xbce13be8	-0.027494386
224	0xbad06fc7	-0.0015902453
225	0x3be7ef6d	0.0070781023
226	0xbb95d210	-0.0045721605
227	0xbc5d60a0	-0.013511807
228	0xbc7ba6f4	-0.015359629
229	0xbc4cab73	-0.012492049
230	0xbc85dfb4	-0.016342022
231	0xbbb46087	-0.005504671
232	0xbbeeb44f	-0.007284678
233	0x3c3389c9	0.0109581435
234	0xbc294e05	-0.010333543
235	0x3c41b663	0.01182327
236	0x3cc1be8b	0.023650428
237	0x3cb1726a	0.021661002
238	0x3b8c2d79	0.0042778817
239	0x3cc55144	0.024086602
240	0x3c182fe2	0.00928876
241	0xbcb0df2e	-0.021590795
242	0x3c903aaa	0.017606098
243	0x3c8275a4	0.015925236
244	0x3c9078ca	0.017635722
245	0x3a994d85	0.0011696076
246	0xbcaaa88e	-0.020832326
247	0xbcabfe1b	-0.02099519
248	0xbb21572a	-0.0024618604
249	0xbb96a051	-0.004596748
250	0xbd14cc57	-0.036327686
251	0xbc6cc1eb	-0.0144505305
252	0xbcd43653	-0.02590481
253	0xbc997944	-0.018734582
254	0xbca09c96	-0.019605916
255	0xbc93f836	-0.018062692

classifier.1.bias f4 [32]
0	0xbb040f32	-0.0020150659
1	0x3b7982c7	0.0038072334
2	0x3c3df87f	0.011594891
3	0xb9e222e8	-0.00043132086
4	0x394f6ce5	0.00019781625
5	0x3bb773e9	0.0055985344
6	0x3ad7c0ab	0.0016460618
7	0x3b397f5d	0.0028304674
8	0x3b39b87e	0.0028338726
9	0x3b3ff1de	0.0029288451
10	0xba9a8058	-0.0011787517
11	0x3b117b92	0.0022198898
12	0xbaefacc3	-0.001828574
13	0xb7e5cbf5	-2.7393902e-05
14	0x3acff7a3	0.0015866648
15	0xbb27752e	-0.0025552022
16	0x3adee53c	0.0017005573
17	0xbaa8599d	-0.001284409
18	0x3b162eae	0.0022916007
19	0x3c330600	0.0109267235
20	0xbb337573	-0.0027383238
21	0xbbec430f	-0.0072101424
22	0xbc098bce	-0.008395148
23	0x3b1be0b1	0.002378505
24	0x3c08d135	0.00835066
25	0xbc0656ed	-0.008199436
26	0x3b1a22ac	0.0023519201
27	0xbb24e44c	-0.002516049
28	0x3b3369e1	0.0027376341
29	0xba8144c8	-0.0009862417
30	0xba6e8eee	-0.00091002777
31	0x3a4c3918	0.000779049

classifier.2.weight f4 [32]
0	0x3f7a071c	0.976671
1	0x3f7b82fc	0.9824674
2	0x3f7b31b9	0.98122746
3	0x3f81849c	1.0118594
4	0x3f7abcda	0.97944415
5	0x3f7c2472	0.9849311
6	0x3f7bf27c	0.98416877
7	0x3f7ac87f	0.9796218
8	0x3f7c3735	0.9852174
9	0x3f7d6b61	0.9899197
10	0x3f7e970a	0.9944922
11	0x3f7d6c8a	0.9899374
12	0x3f7b1bdf	0.980894
13	0x3f8062f8	1.0030203
14	0x3f7a3124	0.9773123
15	0x3f80812a	1.0039418
16	0x3f7b1bf2	0.98089516
17	0x3f804941	1.0022355
18	0x3f7aee4d	0.9801987
19	0x3f7adb25	0.9799064
20	0x3f8092a5	1.0044752
21	0x3f7aa5ce	0.9790925
22	0x3f7b0f6d	0.9807041
23	0x3f81a39b	1.0128053
24	0x3f80e318	1.0069304
25	0x3f7e9e1c	0.99460006
26	0x3f7d3619	0.9891067
27	0x3f806041	1.0029374
28	0x3f7b6940	0.98207474
29	0x3f7a8520	0.9785938
30	0x3f7aecd2	0.9801761
31	0x3f7aed02	0.98017895

classifier.2.bias f4 [32]
0	0xbbd5cf00	-0.0065249205
1	0xbc1a0680	-0.009400964
2	0x3a988367	0.0011635841
3	0x3ca275e1	0.0198316
4	0xbc588630	-0.013215587
5	0x3ca5fb04	0.020261295
6	0xbbba3ffd	-0.0056838975
7	0x3c453c3e	0.012038289
8	0x3bb37418	0.005476486
9	0x3bb9fe46	0.0056760637
10	0xba5169a0	-0.00079884566
11	0x3c896f36	0.016776662
12	0xbbf699a9	-0.007525642
13	0x3c5990db	0.013279165
14	0x37f28454	2.8910268e-05
15	0x3c6e9801	0.014562608
16	0xbc0cb591	-0.008588211
17	0x3c60675e	0.01369652
18	0x3b6a3b39	0.0035740866
19	0x3aa089a3	0.001224805
20	0x3cad458b	0.021151325
21	0xb9de5cf2	-0.0004241239
22	0x3bcb77b9	0.0062093404
23	0x3c8ec6e2	0.01742882
24	0x3c7f752e	0.015591903
25	0x39ee5b62	0.00045462983
26	0xba854bce	-0.0010169686
27	0x3ca11c2e	0.019666757
28	0x3b1ed167	0.00242337
29	0x3bd78f07	0.0065783295
30	0xbc0b49dd	-0.008501497
31	0xbc98f8b5	-0.01867328

classifier.2.running_mean f4 [32]
0	0xbeda3493	-0.42618236
1	0x3eadef47	0.33971617
2	0x3f58e934	0.8473084
3	0x3f233155	0.6374715
4	0x3dc7d9ef	0.097583644
5	0x3ee78241	0.45216563
6	0x3f834b0f	1.0257281
7	0xbdfee546	-0.12446074
8	0x3fbc3849	1.4704677
9	0x3fae2ed7	1.3608044
10	0xbf5b479b	-0.85656136
11	0x3fb1dc8a	1.3895428
12	0xbe293233	-0.16523056
13	0xbebd2a14	-0.36946166
14	0x3f55468a	0.8331076
15	0x3f13e2e2	0.5776807
16	0x3f1d36f5	0.6141198
17	0xbf1b8aad	-0.6075848
18	0xbf2b4930	-0.6690855
19	0x3ee5ec1c	0.449067
20	0xbfd91e36	-1.6962345
21	0x3f17b887	0.5926594
22	0xbecc1e24	-0.39866745
23	0xbe4bab94	-0.1988967
24	0xbfb56807	-1.4172372
25	0x3f02b513	0.5105755
26	0x3d5977b6	0.05309268
27	0xbf424d0c	-0.75898814
28	0xbf4c0887	-0.7970051
29	0x3e597098	0.21234357
30	0x3eb16450	0.34646845
31	0x3f28bc0a	0.65911925

classifier.2.running_var f4 [32]
0	0x3f8f150e	1.11783
1	0x3f256421	0.6460591
2	0x3f5e74b7	0.8689684
3	0x3f0fcf39	0.5617557
4	0x3f6b81cc	0.9199493
5	0x3f5154f1	0.81770235
6	0x3f5dfed3	0.86716956
7	0x3f0c7f65	0.5488189
8	0x3f8b3d80	1.0878143
9	0x3f6cd446	0.92511404
10	0x3f9885b6	1.1915805
11	0x3f0dbe6a	0.55368674
12	0x3f342717	0.70372146
13	0x3f887a9c	1.0662417
14	0x3ed9c711	0.42534688
15	0x3f8b0fcc	1.0864196
16	0x3f4c1616	0.797212
17	0x3ec10bd3	0.37704334
18	0x3f4ed5d8	0.8079505
19	0x3f0bdada	0.54630816
20	0x3f0141a5	0.5049079
21	0x3ec0f103	0.37683877
22	0x3f1e9af2	0.6195518
23	0x3fa9cbd3	1.3265327
24	0x3f7e88f7	0.9942774
25	0x3f428ab6	0.75992906
26	0x3f00183a	0.50036967
27	0x3f3ccefc	0.73753333
28	0x3f95b8d4	1.169703
29	0x3f1b80b1	0.6074324
30	0x3ef8fd08	0.48630548
31	0x3f1a4bbb	0.60271806

classifier.4.weight f4 [64, 32]
0	0x3e0070eb	0.12543075
1	0x3e272a53	0.16324739
2	0x3bae56eb	0.00532042
3	0x3dd019a2	0.10161139
4	0xbe0d65b5	-0.1380833
5	0x3e0ef6e7	0.13961373
6	0x3dd32df6	0.10311501
7	0x3d91b173	0.07113924
8	0xbdc2040a	-0.09473427
9	0x3de4fe4d	0.111813165
10	0x3d8b19f5	0.0679206
11	0xbe3e6a0a	-0.18595138
12	0xbccd4c1b	-0.025060704
13	0xbe0fcae1	-0.14042236
14	0xbc297e45	-0.010345046
15	0x3dc46177	0.095889024
16	0x3e38e1ba	0.18054858
17	0xbdb15f36	-0.08660738
18	0xbdf0faae	-0.11766563
19	0xbe244716	-0.16042742
20	0xbd066f32	-0.032820888
21	0x3e2928a6	0.16519412
22	0x3e2b2e4f	0.16716884
23	0x3ac70bb9	0.0015185989
24	0xbddc8ef0	-0.10769451
25	0xbdfebcb5	-0.12438337
26	0x3e2a4711	0.16628672
27	0x3e2aca9e	0.16678855
28	0x3daae77d	0.08344934
29	0xbd372556	-0.04471334
30	0xbe13a0bf	-0.14416789
31	0x3ce339d3	0.027737534
32	0xbc97380f	-0.018459348
33	0x3e06a59c	0.13149112
34	0xbd064f88	-0.03279069
35	0x3e425d9f	0.18981026
36	0xbddefa0e	-0.10887538
37	0xbd53a957	-0.051675167
38	0xbdf05a4f	-0.11735975
39	0xbd8719c0	-0.06596708
40	0xbd32bad9	-0.043635223
41	0xbd72432f	-0.059146103
42	0x3e20ac48	0.1569072
43	0x3cd21497	0.025644584
44	0x3e1d0c97	0.15336834
45	0xbddcf7c9	-0.10789449
46	0xbe141ab9	-0.14463319
47	0x3d3f18f5	0.04665466
48	0xbdb8281f	-0.089920275
49	0x3dd0ec36	0.10201304
50	0xbe340994	-0.17581779
51	0x3ba22199	0.004947853
52	0xbd4c98ab	-0.049950283
53	0xbdffb519	-0.124857135
54	0xbd8c7013	-0.06857314
55	0x3d1b9d4e	0.037991814
56	0xbd9abc30	-0.07555425
57	0x3e0b2632	0.13588789
58	0x3dfe9087	0.1242991
59	0xbe19f74a	-0.1503574
60	0x3e01a2b8	0.12659729
61	0x3cca4dc2	0.024695281
62	0x3d7aa8c7	0.061196115
63	0x3d95346d	0.0728539
64	0xbd588553	-0.052861523
65	0x3e3514f4	0.17683774
66	0xbe05777f	-0.13033865
67	0x3cc1ec5f	0.02367228
68	0xbce51c73	-0.027967667
69	0x3db4709e	0.088105425
70	0xbd8a6ded	-0.06759248
71	0xbe30123b	-0.17194454
72	0xbda6f171	-0.0815152
73	0xbcf63de7	-0.030058814
74	0x3e2bbb78	0.16770732
75	0xbdbe4e3d	-0.092922665
76	0x3e046805	0.12930305
77	0xbe204a5a	-0.15653363
78	0xbdb16cdb	-0.08663341
79	0x3e28491c	0.16434139
80	0xbcfa2c82	-0.030538801
81	0xbd8f5db5	-0.07000295
82	0x3c9bab13	0.019002473
83	0x3e2d9c39	0.16954125
84	0x3e34c327	0.1765257
85	0xbdd09e2e	-0.101864204
86	0x3dfbb42a	0.12290223
87	0x3caa4c93	0.020788467
88	0xbd9d771c	-0.07688734
89	0x3d5a5a18	0.053308576
90	0x3d94fe6e	0.07275091
91	0xbcb67079	-0.022270428
92	0xbe17ac46	-0.14811811
93	0xbd750d08	-0.05982688
94	0xbe1054cf	-0.14094852
95	0x3d66b0b7	0.056320872
96	0xbd40de74	-0.047087148
97	0x3cd28661	0.025698842
98	0xbd5725e2	-0.052526362
99	0xbd8b779d	-0.06809924
100	0xbd8a9c6a	-0.06768115
101	0x3e1aa4e7	0.15101968
102	0x3e12e2c3	0.14344315
103	0xbd1fb16d	-0.038987566
104	0x3dd8573d	0.105635144
105	0x3e03c6a0	0.12868738
106	0x3da9a4e4	0.082834035
107	0x3d8ee057	0.06976383
108	0xba90e8d8	-0.0011055721
109	0xbd83f91c	-0.06443998
110	0xbd86107a	-0.065461114
111	0x3e049190	0.12946153
112	0xbdde8d49	-0.10866792
113	0xbd57e3ff	-0.05270767
114	0xbd2a5cc8	-0.04159239
115	0xbdd58565	-0.104258336
116	0xbd359e75	-0.04434057
117	0x3e0eeda0	0.13957834
118	0x3d02b5a5	0.03191151
119	0x3c3de21e	0.011589555
120	0x3db9da8c	0.09074888
121	0xbde7637e	-0.112982735
122	0xbdb2253e	-0.0869851
123	0x3ced9e0e	0.02900603
124	0x3e26722f	0.16254495
125	0x3c8da5a2	0.017290894
126	0xbe27fe5c	-0.16405624
127	0xbe36b970	-0.17844176
128	0xbdfdf4a3	-0.124001764
129	0x3defa42c	0.11701235
130	0xbe2b1ff7	-0.16711412
131	0x3dcfab6a	0.101401165
132	0xbe0371b2	-0.1283634
133	0xbe315e7c	-0.17321199
134	0x3e04eed7	0.12981735
135	0x3d1eb673	0.038748216
136	0x3bf770f3	0.0075513064
137	0x3d68d67b	0.05684517
138	0x3de26a66	0.1105545
139	0x3e060a1f	0.13089798
140	0x3d131e40	0.03591752
141	0x3da0e04d	0.07855282
142	0x3d523d8d	0.05132823
143	0x3e0b527e	0.13605687
144	0x3d5ad8a5	0.053429265
145	0x3d10ebce	0.03538113
146	0x3e1b98e9	0.1519505
147	0xbdde9181	-0.108675964
148	0x3d4b1dbb	0.0495889
149	0x3e256db6	0.16155133
150	0x3d93d5f7	0.07218545
151	0xbdc38180	-0.095461845
152	0x3e37d6ed	0.17953081
153	0x3d5f0a26	0.054453038
154	0x3d7f05db	0.062261444
155	0x3cacfbae	0.021116104
156	0xbd962391	-0.073310025
157	0xbdee836c	-0.116461605
158	0x3dd6175e	0.10453676
159	0x3e068e18	0.13140142
160	0xbdaf9e1d	-0.085750796
161	0xbd39a769	-0.04532567
162	0xbe2eca1c	-0.17069286
163	0xbcfab425	-0.030603478
164	0x3e1509bf	0.14554499
165	0x3e086662	0.13320306
166	0xbe209b16	-0.1568416
167	0x3dcb5677	0.09928601
168	0x3e08e1fa	0.13367453
169	0x3ddbe477	0.107369356
170	0x3da090fa	0.07840152
171	0xbe2e3023	-0.1701055
172	0x3e1a7b0f	0.15086006
173	0x3cd13fd8	0.025543138
174	0xbc8f8a1e	-0.017521914
175	0xbdba1fc9	-0.09088094
176	0x3d82997c	0.06376931
177	0x3da9a64e	0.08283673
178	0xbd451186	-0.048112415
179	0xbdbe7613	-0.092998646
180	0x3d5f6f63	0.054549586
181	0xbe1db496	-0.1540092
182	0x3c78b0c7	0.015178866
183	0xbdbe1d40	-0.09282923
184	0xbe1767ab	-0.1478564
185	0x3d8b94df	0.06815504
186	0xbd614df9	-0.055006
187	0x3e04c1b3	0.12964515
188	0x3ddf9ff4	0.109191805
189	0x3e1795a1	0.14803173
190	0x3da42698	0.08015174
191	0xbe0cac60	-0.13737631
192	0xbd25f28d	-0.040514518
193	0x3d12fcda	0.03588567
194	0xbbdd94e4	-0.006762134
195	0x3d7fcc74	0.06245084
196	0x3d541871	0.05178112
197	0xbb90b9cd	-0.0044166804
198	0x3b6db6b3	0.0036272227
199	0xbd2c8edf	-0.04212844
200	0x3d71735c	0.058947906
201	0xbe1ad291	-0.15119387
202	0xbd8f869d	-0.07008097
203	0xbdcb1ce4	-0.0991762
204	0xbcb60f0f	-0.022223977
205	0xbd12385a	-0.035698272
206	0xbdee7224	-0.11642864
207	0x3e0e9b2b	0.1392638
208	0xbcd15f4f	-0.025558142
209	0x3b414800	0.0029492378
210	0x3d95b45e	0.07309793
211	0x3daa22a0	0.083073854
212	0xbdb13e8b	-0.08654507
213	0x3ced7106	0.028984558
214	0x3e129404	0.14314276
215	0x3aacb2f6	0.0013175893
216	0x3dcd8a49	0.100361414
217	0x3e19af7d	0.1500835
218	0x39b44532	0.0003438383
219	0x3e2145bb	0.15749256
220	0x3ca66246	0.020310532
221	0xbe30d815	-0.17269929
222	0xb98707d0	-0.00025755027
223	0xbd2ca03b	-0.042144995
224	0x3d79287f	0.060829636
225	0xbded5f35	-0.11590425
226	0xbd4529a5	-0.04813542
227	0x3d853114	0.065035015
228	0xbe044f8f	-0.12920974
229	0xbe258bd1	-0.16166617
230	0x3e10a212	0.14124325
231	0xbc9b8bce	-0.018987563
232	0x3e1abc9c	0.15111011
233	0x3e058aaa	0.13041177
234	0x3ced6ad3	0.028981602
235	0x3d93fb9d	0.07225726
236	0xbcbebbed	-0.02328297
237	0xbd7e6a4f	-0.062113103
238	0x3e05522f	0.13019632
239	0xbd5ee457	-0.05441698
240	0x3dd0d2f9	0.1019649
241	0x3d869f55	0.06573359
242	0x3e0dfd37	0.13866125
243	0x3b222a27	0.0024744363
244	0xbc2ab6de	-0.0104195755
245	0xbdea9fba	-0.11456247
246	0x3debb3c8	0.115089
247	0xbdaa04e2	-0.083017126
248	0xbe0a9e84	-0.13537031
249	0x3dfa18d1	0.122117646
250	0xbe209cdc	-0.15684837
251	0x3de9bb4b	0.114126764
252	0xbe07a712	-0.13247326
253	0xbd91b161	-0.071139105
254	0xbd10957a	-0.035298802
255	0xbdeeab21	-0.11653734

classifier.4.bias f4 [64]
0	0x3d944cfd	0.07241247
1	0xbdabe7b5	-0.08393804
2	0xbdf47157	-0.1193568
3	0xbd7da072	-0.06192059
4	0xbd00bb30	-0.031428516
5	0x3e10be43	0.14135079
6	0x3de732a2	0.11288954
7	0xbc70e30d	-0.014702571
8	0x3e0a791c	0.13522762
9	0x3d638b21	0.055552606
10	0xbcd136a9	-0.02553876
11	0x3cfc088f	0.0307658
12	0xbd25b940	-0.04045987
13	0x3e121f0d	0.14269657
14	0x3df1dee6	0.11810093
15	0x3ca32ab7	0.019917829
16	0x3e0f62b2	0.14002493
17	0x3dca61d2	0.09881939
18	0xbd20bed0	-0.039244473
19	0x3b233702	0.0024904613
20	0x3dba206f	0.090882175
21	0x3cf6f438	0.03014575
22	0x3d5079cd	0.05089741
23	0xbbbcf7b4	-0.005766833
24	0xbcf2f12c	-0.029656015
25	0x3cceb5de	0.025233205
26	0x3cff27c0	0.031146884
27	0xbceb928c	-0.028756402
28	0x3d228581	0.0396781
29	0xbda1c719	-0.07899303
30	0x3d07ab71	0.033122484
31	0xbe06c70a	-0.13161865
32	0x3c631ba5	0.013861571
33	0xbc73c1ce	-0.01487775
34	0xbdac7348	-0.08420426
35	0x3ced4b9e	0.028966721
36	0x3813b08a	3.5211946e-05
37	0xbe027833	-0.12741165
38	0x3dc04142	0.09387447
39	0xbd8db0df	-0.06918501
40	0xbdcdf223	-0.100559495
41	0xbd7d1497	-0.061787214
42	0xbd0c4fc1	-0.034255747
43	0xbc8838e6	-0.016628694
44	0x3df40ded	0.11916719
45	0x3e09de56	0.1346372
46	0x3d9dde59	0.07708425
47	0xbc122deb	-0.0089220805
48	0x3ccb3e8d	0.0248101
49	0x3e1502e5	0.14551885
50	0xbd89ba94	-0.0672504
51	0xbcc6230c	-0.024186634
52	0xb85f00f4	-5.316823e-05
53	0xbdd50db4	-0.10403004
54	0x3dc173bd	0.094459035
55	0x3b24f1c3	0.0025168515
56	0x3dc98fd9	0.0984189
57	0xbe145398	-0.14485013
58	0xbd27386d	-0.040825296
59	0xbe11f715	-0.1425441
60	0xbdf639d8	-0.120227516
61	0xbd5c07b4	-0.053718284
62	0xbd1bbc90	-0.038021624
63	0x3db804fd	0.089853264

classifier.5.weight f4 [64]
0	0x3f7f110b	0.9963538
1	0x3f7b7a9a	0.9823395
2	0x3f7e6b40	0.993824
3	0x3f7b6cd8	0.9821296
4	0x3f7acb66	0.9796661
5	0x3f7a7ef8	0.9784999
6	0x3f80a10f	1.0049151
7	0x3f80e84c	1.0070891
8	0x3f8027bb	1.0012125
9	0x3f7a52c0	0.97782516
10	0x3f7b3eb5	0.9814256
11	0x3f7e5318	0.9934554
12	0x3f7b2ffc	0.98120093
13	0x3f7e4558	0.9932456
14	0x3f7b5b8f	0.9818658
15	0x3f8041b4	1.0020051
16	0x3f803096	1.0014827
17	0x3f7b149d	0.9807833
18	0x3f79cc0d	0.9757698
19	0x3f7fbf9d	0.99901754
20	0x3f7e949f	0.9944553
21	0x3f7b19ae	0.9808606
22	0x3f7a446f	0.9776067
23	0x3f7a274f	0.9771623
24	0x3f80e67c	1.0070338
25	0x3f7af64c	0.9803207
26	0x3f81dd60	1.0145683
27	0x3f7d3489	0.9890829
28	0x3f7b4763	0.981558
29	0x3f7afbc2	0.980404
30	0x3f7a9908	0.9788976
31	0x3f7cb250	0.98709583
32	0x3f7a29b4	0.97719884
33	0x3f7b448a	0.9815146
34	0x3f7b4ce9	0.9816423
35	0x3f7ab958	0.9793906
36	0x3f7dfb1e	0.992113
37	0x3f7e4dc7	0.9933743
38	0x3f822203	1.016663
39	0x3f79f77b	0.9764325
40	0x3f7af55d	0.98030645
41	0x3f7a7614	0.9783642
42	0x3f812566	1.0089538
43	0x3f7ab85d	0.97937566
44	0x3f7a67ad	0.97814447
45	0x3f79c966	0.97572935
46	0x3f81e9ee	1.0149515
47	0x3f7b22ca	0.9809996
48	0x3f7d61b0	0.98977184
49	0x3f7bfd82	0.984337
50	0x3f7ad56f	0.97981924
51	0x3f7e551a	0.99348605
52	0x3f7ef214	0.9958813
53	0x3f7ceaf8	0.98796034
54	0x3f7a7cb4	0.9784653
55	0x3f7a911b	0.97877663
56	0x3f7ca461	0.9868832
57	0x3f7af82d	0.98034936
58	0x3f7bc50f	0.9834756
59	0x3f8081e9	1.0039645
60	0x3f79e1d0	0.9761019
61	0x3f807012	1.0034201
62	0x3f7b6ad7	0.982099
63	0x3f7a730d	0.97831804

classifier.5.bias f4 [64]
0	0x3c8b9c19	0.017042207
1	0xbc7bf122	-0.015377315
2	0x3c76818c	0.015045535
3	0xbc24ebda	-0.010065997
4	0xbc7f5b7a	-0.015585775
5	0xbc80febf	-0.015746472
6	0x3c8d2d5e	0.017233547
7	0x3c9d92c7	0.019235028
8	0x3cb0a731	0.021564098
9	0xbac1505e	-0.0014748683
10	0xbc87e476	-0.01658843
11	0x3c38bdf7	0.01127576
12	0xba87d7d8	-0.0010364009
13	0x3c88fe80	0.016722918
14	0x3c65216c	0.013985019
15	0x3c8cf15c	0.017204933
16	0x3c20ccf8	0.009814493
17	0x3c4bcd6c	0.012439113
18	0x3b5ffc83	0.0034177608
19	0x3cb329b1	0.021870466
20	0x3c623d25	0.013808523
21	0x3cb3ef2b	0.02196463
22	0xbc5fac8f	-0.013651981
23	0xbc7dd1f2	-0.015491949
24	0x3c8fc7b9	0.01755129
25	0xbc26d29c	-0.010182049
26	0x3cb1db93	0.021711146
27	0x3c3fc743	0.011705223
28	0xbc9f2ac5	-0.019429574
29	0xbc09041d	-0.008362797
30	0xbc92e9d4	-0.017933764
31	0x3c220a0f	0.0098900935
32	0xbbf84350	-0.0075763837
33	0xbb4516dc	-0.003007344
34	0xbc34685a	-0.0110112075
35	0xbc8e97dd	-0.017406398
36	0x3b4921ad	0.0030690238
37	0x3c7f381a	0.0155773405
38	0x3ca5a05b	0.020218065
39	0xbc83a6c1	-0.016070725
40	0xbb8b13e3	-0.004244314
41	0xbc8dbf57	-0.017303152
42	0x3ca797c0	0.020458102
43	0xbc88e29b	-0.016709616
44	0xbc805096	-0.015663426
45	0xbcb8c01e	-0.022552546
46	0x3c9c4b0d	0.019078756
47	0x3c31646c	0.010827165
48	0x3c299976	0.010351529
49	0x3c8b8c20	0.01703459
50	0xbc8ca26a	-0.017167289
51	0x3bd02e08	0.0063531436
52	0x3cacd7c9	0.021098988
53	0xbca65880	-0.020305872
54	0xbc47a3c4	-0.012185041
55	0xbc599a3e	-0.013281403
56	0x3c479871	0.012182341
57	0x3ac8d738	0.0015322929
58	0xbbfbc95d	-0.0076839165
59	0x3c2a667e	0.010400413
60	0xbcb1283f	-0.021625636
61	0x3bf80203	0.007568599
62	0x3ca57317	0.02019648
63	0xbca1ba12	-0.019742046

classifier.5.running_mean f4 [64]
0	0x3e94102b	0.28918585
1	0xbe0f2aaf	-0.13981126
2	0xbe2927d6	-0.16519102
3	0xbca07768	-0.019588187
4	0x3ebf7061	0.37390426
5	0x3e4b776a	0.19869772
6	0x3e52aecd	0.20574494
7	0xbd485c8d	-0.04891639
8	0x3dfa4e20	0.122219324
9	0x3e123d32	0.14281157
10	0xbee862f7	-0.45388004
11	0x3e6a2d62	0.22868875
12	0xbefb77bc	-0.49114788
13	0x3e0e6cc3	0.13908677
14	0x3e25c36f	0.16187833
15	0xbd46eb99	-0.048564527
16	0x3c4f882b	0.012666742
17	0x3e95ad27	0.29233667
18	0x3da2a9b4	0.079425246
19	0x3dcbd45d	0.099526145
20	0x3d71ebaf	0.059062656
21	0x3e166e5a	0.14690533
22	0x3e346209	0.17615522
23	0x3e12ac31	0.14323498
24	0x3dfd7b5e	0.12377046
25	0xbdca8370	-0.09888351
26	0x3e7d3581	0.24727441
27	0x3dc86005	0.09783939
28	0xbebfb191	-0.3744016
29	0xbd12fe81	-0.035887245
30	0xbf07df53	-0.5307514
31	0x3dd556dd	0.104169585
32	0xbe231bdb	-0.15928595
33	0xbe953250	-0.29139948
34	0xbcb67a51	-0.022275122
35	0x3e8bef48	0.27330995
36	0x3d34115c	0.043961868
37	0x3dc5b99c	0.09654543
38	0xbcaaba5d	-0.020840818
39	0xbe6a7cad	-0.22899123
40	0xbec8fc86	-0.3925516
41	0xbd9d3202	-0.07675554
42	0xbe2f8fc3	-0.17144684
43	0xbdd49108	-0.10379225
44	0x3e9f5318	0.31118083
45	0x3ebbb100	0.36658478
46	0x3e45ec61	0.19328453
47	0xbdc84b9b	-0.097800456
48	0xbec92987	-0.39289495
49	0x3e4f1bd7	0.20225464
50	0x3e215033	0.1575325
51	0xbf08178f	-0.5316095
52	0xbe1ac41e	-0.15113875
53	0x3de65d41	0.112482555
54	0x3e6358b9	0.22201814
55	0x3e8681d3	0.26270923
56	0x3e69841c	0.22804302
57	0x3ccfafd8	0.025352404
58	0x3dcbd494	0.099526554
59	0xbe69eaea	-0.22843519
60	0xbe15d4e1	-0.14631988
61	0xbda3ba38	-0.07994503
62	0xbd2af713	-0.041739535
63	0x3f148a27	0.58023304

classifier.5.running_var f4 [64]
0	0x3e4e8e01	0.20171358
1	0x3e1fd296	0.15607676
2	0x3e2a8008	0.16650403
3	0x3e032888	0.1280843
4	0x3e89bd60	0.26902294
5	0x3e5097dc	0.2037043
6	0x3e1cab1c	0.15299648
7	0x3e4d9929	0.20077957
8	0x3e48ff26	0.19628581
9	0x3e87c1b0	0.2651496
10	0x3e7189bd	0.23587699
11	0x3e9be3e4	0.30447304
12	0x3e12f217	0.14350162
13	0x3e2d1b0b	0.16904847
14	0x3e1eed6b	0.15520255
15	0x3e3d8a81	0.18509866
16	0x3e1ef52e	0.15523216
17	0x3e91a207	0.2844393
18	0x3e93da48	0.28877473
19	0x3eab405e	0.33447546
20	0x3e8361a3	0.25660428
21	0x3e41519c	0.18878788
22	0x3e307163	0.17230754
23	0x3e531ae2	0.20615724
24	0x3eb659ce	0.3561539
25	0x3dfce7fa	0.123489335
26	0x3e90f241	0.28309825
27	0x3e2873d3	0.16450433
28	0x3e36a506	0.17836389
29	0x3e5fe7db	0.2186579
30	0x3ea8b993	0.32954082
31	0x3ec68c1d	0.38778773
32	0x3e0d5aaf	0.13804124
33	0x3e2ea977	0.17056833
34	0x3e3c3469	0.18379368
35	0x3e1758f1	0.14780022
36	0x3e1f1c14	0.15538055
37	0x3e46c7b4	0.19412118
38	0x3e2075b5	0.15669902
39	0x3df1e621	0.11811472
40	0x3ed4fe2f	0.41600177
41	0x3f1b0e8b	0.60569066
42	0x3e209466	0.1568161
43	0x3e6d632d	0.23182364
44	0x3e8609ac	0.26179254
45	0x3e81cddb	0.25352368
46	0x3e8b4ad1	0.27205518
47	0x3e317e7e	0.17333409
48	0x3e0d2a78	0.13785732
49	0x3e5adb58	0.21372736
50	0x3e491b3d	0.19639297
51	0x3ee2595d	0.44208804
52	0x3efbcf51	0.49181607
53	0x3e38f39b	0.18061678
54	0x3e236cda	0.15959492
55	0x3e43b925	0.19113596
56	0x3e0dedb3	0.13860206
57	0x3e54a7ba	0.20767108
58	0x3e37f464	0.17964321
59	0x3e73bfd4	0.23803645
60	0x3e6c4261	0.23072197
61	0x3eb6733a	0.35634786
62	0x3e236cd3	0.15959482
63	0x3e30a5ab	0.17250697

classifier.7.weight f4 [16, 64]
0	0x3e06846f	0.13136457
1	0x3d90f8c3	0.070786975
2	0x3dd0d099	0.10196037
3	0x3ce02adf	0.027364193
4	0xbdb5ae74	-0.08871165
5	0xbdbd7a37	-0.09251826
6	0x3d886466	0.066597745
7	0x3dc57a7e	0.09642504
8	0xbcc4c59d	-0.02402001
9	0x3cdfebef	0.027334182
10	0x3dc45539	0.095865674
11	0xbdaf9e56	-0.08575122
12	0xbc26dfd8	-0.010185204
13	0xbd48fbca	-0.04906825
14	0xbd8aee73	-0.06783762
15	0x3df4000e	0.11914073
16	0x3dec6238	0.11542171
17	0xbd5b2541	-0.053502325
18	0xbdc6c736	-0.09705965
19	0x3ddef532	0.10886611
20	0xbd909f68	-0.07061654
21	0xbd38b269	-0.04509202
22	0x3dfb0794	0.12257305
23	0xbca6d0c3	-0.020363217
24	0xbd8ecc8a	-0.069726065
25	0xbd5dbc2f	-0.054134544
26	0x3d25a447	0.04043987
27	0x3c855bed	0.016279185
28	0x3dd23823	0.102646135
29	0x3c2d55a3	0.010579499
30	0x3de75e77	0.112973146
31	0xbd806888	-0.06269938
32	0x3d834f21	0.06411577
33	0x3d9e3ef8	0.07726854
34	0x3c86b40c	0.016443275
35	0x3da60e4e	0.08108197
36	0xbd83288c	-0.06404218
37	0xbd53ef44	-0.051741853
38	0x3daadbd4	0.0834271
39	0xbd852b10	-0.06502354
40	0x3ccca4d1	0.024980934
41	0xbdf0a592	-0.1175033
42	0x3dcd9019	0.1003725
43	0x3babd5fa	0.005244014
44	0x3dae1da8	0.0850175
45	0xbdcb7bcd	-0.099357225
46	0x3dda077e	0.1064596
47	0x3cc6d4b1	0.024271341
48	0xbc64d7df	-0.013967483
49	0xbd8377bf	-0.06419324
50	0xbd4fe106	-0.05075171
51	0xbc546c2d	-0.012965244
52	0x3b6918a8	0.0035567675
53	0xbddc19d4	-0.10747114
54	0xbd2d2621	-0.04227269
55	0xbd0e5e56	-0.034757935
56	0x3ccd07fd	0.025028223
57	0x3deb92c8	0.11502606
58	0x3bbcfea9	0.0057676625
59	0x3d48405d	0.048889507
60	0xbdcea656	-0.1009032
61	0xbdbf148b	-0.0933009
62	0x3dce4b1c	0.1007292
63	0xbd28fd58	-0.041257232
64	0x3d993760	0.07481265
65	0x3da30af5	0.07961074
66	0x3c762a28	0.015024699
67	0xbd051cd1	-0.032498185
68	0xbc484dd9	-0.012225592
69	0xbd35275c	-0.04422699
70	0x3d6098d6	0.054833256
71	0x3dd45993	0.103686474
72	0x3d434ce5	0.047680754
73	0xbd69575c	-0.056968078
74	0x3d894edd	0.06704495
75	0xbd925e20	-0.07146859
76	0xbd9a7cf6	-0.07543366
77	0xbd1abcc9	-0.037777696
78	0x3dafdb08	0.08586699
79	0xbccb1d20	-0.024794161
80	0xbcaa3459	-0.020776914
81	0xbcfb27e9	-0.03065868
82	0x3d15d012	0.036575384
83	0xbd93f49f	-0.07224392
84	0xbda14cda	-0.078759864
85	0xbcdd73f9	-0.02703284
86	0x3cf87543	0.030329352
87	0x3b997da9	0.0046841693
88	0xbddc31e8	-0.10751706
89	0xbdb24275	-0.08704082
90	0x3d9be585	0.07612137
91	0x3d4d73c1	0.05015922
92	0x3d98753a	0.07444234
93	0xbdc8957d	-0.097941376
94	0x3ddd6469	0.10810167
95	0x3d9630be	0.073335156
96	0x3da5a292	0.080876485
97	0xbd53dfe9	-0.05172721
98	0xbd9ea3ee	-0.07746111
99	0xbd634092	-0.0554815
100	0x3ba2c020	0.0049667507
101	0xbd0b7c76	-0.034054242
102	0xbdbb17ca	-0.09135397
103	0xbc6b6626	-0.014367616
104	0x3dc99bbc	0.09844157
105	0x3c2bb676	0.010480514
106	0x3df1b46d	0.118019916
107	0xbdc2e287	-0.09515863
108	0xbdb0fd7a	-0.08642097
109	0xbc3c17b9	-0.011480265
110	0xbd4daf53	-0.05021603
111	0x3c552338	0.013008885
112	0x3c85bd8b	0.016325733
113	0xbcfc6db8	-0.030814037
114	0x3d91dfe7	0.07122784
115	0xbdefb9de	-0.11705373
116	0xbde63407	-0.11240392
117	0x3c30a96d	0.010782582
118	0xbdb2003d	-0.08691452
119	0xbd7d11aa	-0.061784424
120	0x3c1d6755	0.009607156
121	0x3daf4781	0.0855856
122	0x3d554126	0.052064084
123	0xbde942ba	-0.1138968
124	0xbde72000	-0.112854004
125	0x3e0e33ae	0.13886902
126	0xbddfb959	-0.10924024
127	0xbd210789	-0.039313827
128	0xbdc84d00	-0.097803116
129	0xbdd42d20	-0.103601694
130	0xbe05f60d	-0.13082142
131	0x3d30509e	0.043045633
132	0x3dbfab1b	0.09358808
133	0x3d84cb47	0.064840846
134	0xbd0580f7	-0.032593694
135	0xbdaaae52	-0.0833403
136	0x3cf5a3ae	0.029985275
137	0x3d359687	0.044333007
138	0x3d1da6aa	0.03848902
139	0x3d12c93f	0.035836454
140	0xbdc136c8	-0.09434277
141	0x3bdb55ed	0.0066935928
142	0xbd9d4c5e	-0.076805815
143	0xbe113a0a	-0.14182296
144	0xbd77d5b3	-0.060506534
145	0x3daba4fb	0.08381077
146	0xbd214c82	-0.039379604
147	0x3cede127	0.029038025
148	0x3db79ee2	0.08965851
149	0xbd3d9ed2	-0.04629404
150	0x3d7ce0c4	0.06173779
151	0xbd177ac0	-0.036982298
152	0xbcbea4e4	-0.023271985
153	0xbda194f1	-0.078897364
154	0xbd19e6cc	-0.03757362
155	0x3cca285f	0.024677454
156	0xbdf87b0d	-0.12132845
157	0x3df8fa22	0.12157084
158	0x3d3bf359	0.04588637
159	0x3dfe1e21	0.124080904
160	0xbd86ff3f	-0.06591653
161	0xbd66df92	-0.056365557
162	0xbd117837	-0.035515036
163	0xbd1bd2cf	-0.03804284
164	0xbd29dbb5	-0.041469295
165	0x3ce93626	0.028468203
166	0x3c94ded5	0.01817266
167	0xbddef7f6	-0.108871385
168	0xbdcfe61a	-0.1015131
169	0xbda7b5f7	-0.08189004
170	0xbb8a1ff4	-0.004215235
171	0xbd2f9b71	-0.04287285
172	0xbd98878b	-0.07447728
173	0xbbc0e79d	-0.0058869855
174	0x3d837119	0.06418056
175	0x3c127e74	0.008941282
176	0x3d2fd9d3	0.042932343
177	0x3dcdf3e2	0.100562826
178	0xbd20492a	-0.039132275
179	0x3d672e3c	0.056440577
180	0x3d96af7e	0.07357691
181	0x3d9aad46	0.075525805
182	0xbdc881d8	-0.09790391
183	0x3d81114c	0.06302127
184	0x3b9e2b54	0.0048269425
185	0x3d47f175	0.048814256
186	0xbd576c77	-0.052593675
187	0xbd434567	-0.04767361
188	0xbe0505ee	-0.12990543
189	0xbd686248	-0.056734353
190	0x3dca03e2	0.09864022
191	0x3cb89baf	0.022535173
192	0xbd8a5828	-0.06755096
193	0xbd34ed34	-0.044171527
194	0xbdccac48	-0.099937975
195	0xbd321c35	-0.04348393
196	0x3d96cffd	0.07363889
197	0x3d4ed859	0.050499294
198	0xbdae49b9	-0.08510155
199	0x3b4da46d	0.0031378523
200	0xbd904620	-0.07044625
201	0x3dd35c15	0.10320298
202	0x3dc9e797	0.098586254
203	0x3d40023f	0.046877142
204	0x3d43130c	0.047625586
205	0xbd19416a	-0.0374159
206	0xbde40aee	-0.11134897
207	0x3dbdba3a	0.092640355
208	0xbdfb3e7a	-0.12267776
209	0x3da02a61	0.07820583
210	0xbbd07e8c	-0.006362742
211	0xbd537b3c	-0.051631197
212	0xbd8c9655	-0.06864611
213	0x3db5a6ed	0.08869729
214	0xbd29ce4d	-0.04145651
215	0xbd546ad0	-0.051859677
216	0xbd511985	-0.051049728
217	0x3dd8d7bc	0.10588023
218	0xbdd7da5e	-0.10539697
219	0x3c227d6f	0.009917601
220	0xbc88c876	-0.01669715
221	0xbdb38d6c	-0.087672085
222	0x3c757067	0.014980412
223	0xbdbcf0ea	-0.09225638
224	0x3c9c423a	0.019074548
225	0xbdce1ee6	-0.10064487
226	0x3b3ac11a	0.0028496445
227	0xbd74e038	-0.059784144
228	0x3d86fd5c	0.06591293
229	0xbd306ae6	-0.043070696
230	0x3deb0bb6	0.11476843
231	0x3bda06cb	0.006653642
232	0x3cc21971	0.023693772
233	0xbda20a10	-0.079120755
234	0x3dc612d1	0.09671558
235	0x3d3736bb	0.04472993
236	0xbdcf35a3	-0.10117652
237	0x3d5b88ab	0.053597134
238	0x3e02a6f7	0.12759005
239	0xbe0e0d2b	-0.1387221
240	0xbda5dd9d	-0.0809891
241	0x3cfacdac	0.03061565
242	0x3d741f4e	0.059600167
243	0x3d9ab699	0.07554359
244	0x3e0476db	0.12935965
245	0xbdd412be	-0.10355137
246	0x3afd37b7	0.0019318972
247	0x3dfc2c3f	0.12313127
248	0x3b554d97	0.0032547468
249	0xbdf78ed4	-0.12087789
250	0x3d98385e	0.07432626
251	0x3d51bb31	0.05120391
252	0x3c37445f	0.0111857345
253	0x3d7d47f9	0.061836217
254	0x3d7779f0	0.060419023
255	0xbd947ef8	-0.0725078

classifier.7.bias f4 [16]
0	0x3ad348a3	0.001611967
1	0xbd7e70b4	-0.0621192
2	0x3d122c67	0.035686877
3	0xbd55acff	-0.052166935
4	0x3d228901	0.03968144
5	0xbd9ad330	-0.07559812
6	0x3c8b1f40	0.016982675
7	0x39da1b89	0.00041600715
8	0x3d088afd	0.033335675
9	0xbd8f34fa	-0.06992526
10	0x3d9c9070	0.07644737
11	0x3c49016f	0.012268408
12	0x3ab5d4af	0.0013872589
13	0x3b39894d	0.0028310597
14	0xbd9e46c6	-0.07728343
15	0xbd934a7e	-0.07191943

classifier.8.weight f4 [16]
0	0x3f808914	1.0041833
1	0x3f822eec	1.017057
2	0x3f81d59a	1.0143311
3	0x3f832f25	1.0248762
4	0x3f829c62	1.0203974
5	0x3f83197f	1.0242156
6	0x3f82c979	1.0217735
7	0x3f7e69c3	0.9938013
8	0x3f812f6b	1.0092596
9	0x3f82997a	1.0203087
10	0x3f821d53	1.0165199
11	0x3f8164c6	1.0108879
12	0x3f8255ee	1.0182474
13	0x3f82d09d	1.0219914
14	0x3f811720	1.0085182
15	0x3f7df5f6	0.9920343

classifier.8.bias f4 [16]
0	0x3b048966	0.0020223497
1	0x3c74d16e	0.01494251
2	0x3c880496	0.01660375
3	0x3ccd7c1e	0.025083598
4	0x3caa43b5	0.020784238
5	0x3cc542f2	0.024079774
6	0x3cc7f2b8	0.02440773
7	0xbc83a6bd	-0.016070718
8	0x3c1e4d2f	0.009661957
9	0x3cb8cb13	0.02255777
10	0x3c8e8031	0.01739511
11	0x3c0befe3	0.00854108
12	0x3ca10969	0.019657807
13	0x3cc98b20	0.024602473
14	0x3c175a09	0.009237775
15	0xbb4cf26c	-0.0031272424

classifier.8.running_mean f4 [16]
0	0x3e252dd3	0.16130762
1	0xbe93b7f2	-0.28851277
2	0xbe3a0ab1	-0.18168141
3	0xbd9511b7	-0.072787695
4	0x3cc5c855	0.024143377
5	0xbd082875	-0.033241708
6	0xbd742302	-0.0596037
7	0x3e5ba1f7	0.21448503
8	0x3e7d47f5	0.2473448
9	0xbe9077b0	-0.28216314
10	0x3d253665	0.040335078
11	0xbe840c92	-0.2579084
12	0x3e03959b	0.12850039
13	0xbdbadd1d	-0.09124205
14	0xbe90e1b2	-0.28297192
15	0xbdf7559f	-0.12076878

classifier.8.running_var f4 [16]
0	0x3e337e7b	0.17528717
1	0x3e571cd5	0.21007092
2	0x3e547981	0.20749475
3	0x3e761360	0.24030828
4	0x3e22baf8	0.15891635
5	0x3e759584	0.23982817
6	0x3eb0f76f	0.34563777
7	0x3e90ee01	0.28306583
8	0x3e625131	0.22101285
9	0x3e752d0f	0.2394297
10	0x3e910eff	0.28331754
11	0x3e90023d	0.28126708
12	0x3e4e8888	0.2016927
13	0x3e7e6352	0.24842575
14	0x3ef7ea4e	0.48420948
15	0x3e3d8398	0.1850723

classifier.10.weight f4 [10, 16]
0	0x3da94157	0.08264416
1	0x3e4248eb	0.18973128
2	0xbb338f9a	-0.0027398826
3	0xbd4fe9a6	-0.050759934
4	0x3e0ae9dc	0.13565773
5	0xbe6f9146	-0.23395261
6	0x3d10d16d	0.035355974
7	0xbe285960	-0.16440344
8	0x3dfb275c	0.122633666
9	0x3df63817	0.12022417
10	0x3defa8b8	0.117021024
11	0xbe7e710f	-0.24847816
12	0x3e808483	0.25101098
13	0xbe866a30	-0.2625289
14	0x3ce4bdbd	0.027922506
15	0xbdbbbad4	-0.09166494
16	0x3d243e49	0.040098462
17	0xbd44cafa	-0.048045136
18	0x3db4c825	0.08827237
19	0x3e5c273f	0.21499346
20	0xbe0d7777	-0.13815103
21	0xbe6befd1	-0.23040701
22	0x3e02233b	0.12708752
23	0xbca55731	-0.020183178
24	0xbe2209ea	-0.15824094
25	0xbe58c01d	-0.21167035
26	0x3dff8342	0.12476207
27	0xbdc788f1	-0.097429164
28	0xbe837952	-0.25678498
29	0x3e361702	0.17782214
30	0xbe38c1a6	-0.18042621
31	0xbe0ac5f6	-0.13552079
32	0x3e0525eb	0.13002746
33	0xbe1bc216	-0.15210757
34	0xbdc0beb0	-0.09411371
35	0x3dbc4059	0.09191961
36	0x3db01636	0.085979864
37	0xbdc38a15	-0.095478214
38	0x3dcbbdcd	0.09948311
39	0xbe219c13	-0.15782194
40	0xbdc414c2	-0.09574272
41	0xbdb506e7	-0.08839207
42	0x3e00546e	0.12532207
43	0x3de468f1	0.111528285
44	0xbe2aaa4b	-0.16666524
45	0xbdc0e698	-0.09418982
46	0xbdc1a521	-0.09455324
47	0xbe1245da	-0.14284459
48	0xbe2fbf60	-0.17162848
49	0xbe393ee5	-0.18090399
50	0x3e68bf56	0.22729239
51	0x3e20b7a9	0.15695061
52	0xbe70c903	-0.2351418
53	0xbca57220	-0.02019602
54	0xbe22b650	-0.15889859
55	0x3d5050d9	0.050858352
56	0x3d126187	0.03573754
57	0x3d300ddb	0.042981964
58	0x3d2dc60f	0.04242521
59	0xbe29fe51	-0.1660092
60	0x3df332fa	0.118749574
61	0xbc39f86c	-0.011350732
62	0xbdd5f7f3	-0.10447683
63	0xbe0b6985	-0.13614471
64	0xbe5e1f13	-0.21691541
65	0xbe82efa9	-0.2557347
66	0x3dbb1dec	0.091365665
67	0x3e5fe79e	0.21865699
68	0xbe5e5f00	-0.21715927
69	0xbc57d61b	-0.013173605
70	0x3e66ef5b	0.22552244
71	0xbe3d019a	-0.18457642
72	0xbe35772d	-0.17721243
73	0xbe36bec9	-0.17846216
74	0xbe4f24e5	-0.20228918
75	0xbe82b9e1	-0.2553244
76	0xbd1805b4	-0.037114814
77	0xbc44a04a	-0.0120011065
78	0xbdbd5048	-0.09243828
79	0xbe453307	-0.19257747
80	0x3e36ba5f	0.17844532
81	0x3e814c23	0.252534
82	0xbe75efe8	-0.24017298
83	0x3ca44fe5	0.020057628
84	0xbe3a5dd9	-0.18199863
85	0x3d652713	0.055945467
86	0xbdfc1ada	-0.12309809
87	0xbce2cb40	-0.027684808
88	0x3e23b182	0.15985683
89	0xbd4aaa22	-0.049478658
90	0x3d668b29	0.056285057
91	0xbd524954	-0.051339462
92	0x3d809020	0.0627749
93	0xbdde8e53	-0.1086699
94	0x3e55b666	0.2087036
95	0xbc4ce349	-0.012505361
96	0xbe268a86	-0.1626378
97	0xbe65b7e0	-0.22433424
98	0xbe6998ea	-0.22812238
99	0x3e54e5c9	0.20790781
100	0x3dc44fcd	0.09585533
101	0xbe67fc35	-0.22654803
102	0x3d4f1cfb	0.050564747
103	0xbdbed090	-0.09317124
104	0x3e219c09	0.15782179
105	0x3e5315f4	0.20613843
106	0xbe1a6cbc	-0.15080541
107	0xbe7aad4e	-0.24480173
108	0xbd34826e	-0.0440697
109	0xbd78361b	-0.060598474
110	0xbc7e2f4d	-0.015514207
111	0x3ce7dc7d	0.02830338
112	0xbe2e393a	-0.17014018
113	0xbd9c5855	-0.076340355
114	0x3e195c3a	0.14976588
115	0xbe031d4d	-0.12804146
116	0x3d96ff25	0.07372884
117	0xbe585a91	-0.21128298
118	0xbcf7de9c	-0.030257516
119	0xbe320d4f	-0.1738789
120	0xbc215294	-0.009846348
121	0xbe00da27	-0.12583219
122	0x3e6e9798	0.23300016
123	0x3cb9fdbe	0.022704002
124	0xbe85269f	-0.26006028
125	0xbe0dda48	-0.13852799
126	0x3e3f2d6e	0.18669674
127	0xbcc29f1b	-0.023757508
128	0xbdfd8dec	-0.12380585
129	0x3e6de302	0.23231128
130	0xbe60bfd5	-0.21948178
131	0xbe84b2c3	-0.25917634
132	0xbe1f6e03	-0.1556931
133	0xbe5cd553	-0.21565752
134	0xbca65c5d	-0.020307714
135	0x3c439901	0.011938334
136	0x3e8672f2	0.2625957
137	0x3ca2f754	0.019893326
138	0xbe2a3a31	-0.16623761
139	0xbe576ab3	-0.21036796
140	0xbe39b307	-0.181347
141	0xbe1dfbc4	-0.15428072
142	0xbe54a2f3	-0.20765285
143	0x3ce20801	0.027591707
144	0xbb109143	-0.002205924
145	0x3e8219e9	0.25410393
146	0x3e4d376d	0.20040675
147	0xbe16d7e3	-0.14730792
148	0xbe825cac	-0.25461328
149	0x3e55c5a8	0.20876181
150	0xbe773f46	-0.2414523
151	0x3e157bae	0.14597961
152	0xbe2714b6	-0.16316494
153	0xbd83e403	-0.06439974
154	0xbdc6ac53	-0.09700837
155	0x3e3e5bf3	0.18589763
156	0xbdd0f43b	-0.10202833
157	0xbdcfd1a1	-0.101474054
158	0xbd23c610	-0.03998381
159	0x3c3b325e	0.011425583

classifier.10.bias f4 [10]
0	0x3d9bcc25	0.07607297
1	0xbdee0805	-0.11622623
2	0x3d36b498	0.04460582
3	0xbd1b9a93	-0.03798921
4	0xbe054a19	-0.13016547
5	0xbdfc198b	-0.123095594
6	0x3df1aa51	0.118000634
7	0xbdf61373	-0.120154284
8	0x3e2d1347	0.16901885
9	0xbe4af812	-0.19821194

exp_avg f4 [32, 784]
0	0xb42b8c87	-1.597674e-07
1	0x3713da37	8.81269e-06
2	0xb80f81bd	-3.4214685e-05
3	0x35cb6cb3	1.5156314e-06
4	0x3883bc7f	6.281677e-05
5	0xb866dfc6	-5.504468e-05
6	0x3624ec47	2.4575436e-06
7	0xb693682a	-4.3930677e-06
8	0xb8b2e71b	-8.530748e-05
9	0x36c8ab7c	5.980428e-06
10	0x39ccdd9c	0.00039075024
11	0x3a7016a7	0.0009158649
12	0x3a34c359	0.0006895564
13	0x3a852856	0.0010159116
14	0x3a688bde	0.00088709395
15	0x3a7a52da	0.0009549089
16	0x3a2788bd	0.000639092
17	0x39d8cf9e	0.00041353417
18	0x38868ab8	6.415456e-05
19	0xb95761c1	-0.00020540414
20	0xb89cc6f7	-7.47572e-05
21	0x38ac0cd9	8.203992e-05
22	0xb708b764	-8.148931e-06
23	0xb8a7c495	-7.999797e-05
24	0xb76e2e69	-1.4196711e-05
25	0x38a1cb19	7.714908e-05
26	0x37aab90c	2.0351748e-05
27	0xb7676c99	-1.3793958e-05
28	0x38372f77	4.3674805e-05
29	0xb8027037	-3.1098924e-05
30	0xb75da668	-1.3211371e-05
31	0x378117c8	1.5389072e-05
32	0x37bf8edd	2.28355e-05
33	0xb90dda8c	-0.00013528223
34	0xba103f62	-0.0005502609
35	0xba8a806c	-0.0010566837
36	0xba449c4f	-0.00075000984
37	0xb964c093	-0.00021815514
38	0x3924d7bb	0.00015720625
39	0x39747d9d	0.00023316448
40	0xb9286bb7	-0.00016061855
41	0xb6a7f242	-5.0051904e-06
42	0x3910188c	0.00013742055
43	0xb3c48598	-9.151262e-08
44	0xb8f72cec	-0.00011786245
45	0x3706f0bc	8.043073e-06
46	0xb8289adb	-4.019854e-05
47	0xba44746d	-0.00074941554
48	0xba9c953b	-0.001194633
49	0xba4dd52e	-0.00078518956
50	0xb910fe0c	-0.0001382755
51	0x37ffb9ff	3.048498e-05
52	0x39145ffb	0.00014150135
53	0x38a61942	7.9202015e-05
54	0xb8425d59	-4.634014e-05
55	0x3809e5d2	3.2877382e-05
56	0xb7b2b586	-2.1303782e-05
57	0x384db453	4.904375e-05
58	0xb8a6475b	-7.928788e-05
59	0xb8185866	-3.632195e-05
60	0xb9289e6a	-0.00016080742
61	0xba236e76	-0.00062344165
62	0xbaaae580	-0.0013038367
63	0xbac30934	-0.0014880062
64	0xba816cbb	-0.0009874323
65	0xb9ee9baa	-0.00045510876
66	0x39724d42	0.00023107699
67	0xb7f4a9fa	-2.9166218e-05
68	0xba079127	-0.00051714707
69	0xb9bfe0b8	-0.00036597787
70	0xb98453f9	-0.00025239566
71	0xb9adbe41	-0.00033138882
72	0x38f1d32e	0.00011531111
73	0x3808ba54	3.259846e-05
74	0x38ce4784	9.836166e-05
75	0xba46653e	-0.0007568187
76	0xbaa37537	-0.0012470846
77	0xbab8b08e	-0.0014090703
78	0xba6beda3	-0.0008999949
79	0xb3a78337	-7.800411e-08
80	0x39a3f6fe	0.00031273806
81	0x392dc03f	0.00016570183
82	0xb81c4958	-3.7261605e-05
83	0xb8179237	-3.613738e-05
84	0x37ba4192	2.2203461e-05
85	0x37abd71a	2.0484953e-05
86	0x389d3f2a	7.4981086e-05
87	0xb83fed6b	-4.575906e-05
88	0xb9991e1c	-0.00029204867
89	0xba823faf	-0.0009937192
90	0xbad96436	-0.0016585651
91	0xba97d0b9	-0.001158259
92	0xba586bd8	-0.0008255816
93	0xb9fc2c04	-0.0004809798
94	0x39398abe	0.0001769466
95	0x39bbc842	0.00035816623
96	0xb7cb5dfd	-2.4243252e-05
97	0xb8e08035	-0.00010705033
98	0x36239cb7	2.4380113e-06
99	0x3933640b	0.00017108039
100	0x39c319f0	0.00037212623
101	0x3a0b943b	0.0005324517
102	0x390ef8fd	0.0001363493
103	0xb9ddd0ea	-0.00042308058
104	0xba26cfb6	-0.0006363349
105	0xbaa6ce94	-0.001272636
106	0xba9fa7f9	-0.0012180797
107	0xb9b024e5	-0.00033596825
108	0x39795d2c	0.000237812
109	0x3994fffd	0.00028419486
110	0x3920eef0	0.000153478
111	0x388b8c23	6.654139e-05
112	0x3839e6a1	4.4322227e-05
113	0xb87756d3	-5.897025e-05
114	0x384aa7c4	4.8316797e-05
115	0xb8ee1d03	-0.00011354128
116	0xba1ccf3a	-0.0005981807
117	0xbab5ab6d	-0.0013860293
118	0xbaedf206	-0.0018153794
119	0xba69a656	-0.00089130306
120	0xba3a8417	-0.000711502
121	0xb9b53330	-0.00034561148
122	0x39c12cc7	0.0003684519
123	0x3a011101	0.0004923493
124	0xb8cd1af6	-9.7801836e-05
125	0xb8e84807	-0.00011076038
126	0x38dc5e8d	0.00010508029
127	0x39bb9265	0.00035776492
128	0x3a2c04da	0.0006562002
129	0x3a1e1f29	0.0006031865
130	0x3906df7d	0.00012862492
131	0xb99f03c5	-0.00030329652
132	0xb972c65b	-0.00023152812
133	0xba82b92f	-0.0009973402
134	0xbac80046	-0.001525887
135	0xba016ef6	-0.0004937494
136	0x39405d8b	0.00018345394
137	0x3941dbbb	0.0001848777
138	0x389bdbf3	7.431945e-05
139	0x38b0f1e4	8.4373896e-05
140	0xb89a7f15	-7.366963e-05
141	0x38812d7c	6.1596715e-05
142	0x36d68474	6.3931166e-06
143	0xb987134e	-0.0002576359
144	0xba32cfae	-0.0006821108
145	0xbada40a9	-0.001665135
146	0xbadc067a	-0.0016786598
147	0xba505081	-0.00079465663
148	0xba539733	-0.00080715417
149	0xb9affbf6	-0.00033566327
150	0x3941cdb9	0.00018482552
151	0x398fbeb2	0.00027417165
152	0x39869b87	0.0002567435
153	0x393b6129	0.00017869905
154	0x39ae5e14	0.0003325796
155	0x3a27c5f1	0.000640004
156	0x3a2f1429	0.00066787243
157	0x3a3fe6fc	0.0007320491
158	0x39cc7aa6	0.00039001292
159	0x3881bbc9	6.186177e-05
160	0xb7e9aee8	-2.7857212e-05
161	0xba2a8a33	-0.00065055786
162	0xbaba18de	-0.0014198085
163	0xba2bc3ed	-0.00065523275
164	0x37632cf4	1.3540721e-05
165	0x3957051b	0.000205059
166	0x38df5224	0.000106487685
167	0xb7c6f2ee	-2.3716562e-05
168	0x384481f2	4.6851063e-05
169	0x38393dbb	4.4164928e-05
170	0xb902303f	-0.00012415739
171	0xb9b39e9e	-0.0003425972
172	0xba6c43d3	-0.0009012792
173	0xbb01e691	-0.0019821266
174	0xbacc3bac	-0.0015581748
175	0xba974462	-0.0011540765
176	0xba9ac9ae	-0.0011809373
177	0xb9f86a41	-0.0004738141
178	0x375f19f1	1.3297876e-05
179	0x36bf02c1	5.692564e-06
180	0x3920f08d	0.00015348401
181	0x39928df9	0.00027953068
182	0x3967160f	0.00022038094
183	0x3a100a04	0.00054946565
184	0x3a25eaf1	0.00063292595
185	0x3a3b4c02	0.000714481
186	0x3a1b42b9	0.0005922723
187	0x38b2e724	8.530755e-05
188	0xb955c1e4	-0.00020385493
189	0xba0ca037	-0.000536445
190	0xba84bce3	-0.0010127093
191	0xba26b23d	-0.0006358957
192	0x3863dbeb	5.4325832e-05
193	0x39e37d15	0.00043390007
194	0x394db4af	0.00019617633
195	0x38f1a643	0.00011522744
196	0xb86481af	-5.4480213e-05
197	0xb8f153d6	-0.00011507391
198	0xb8a83340	-8.02041e-05
199	0xb9d7997c	-0.0004112235
200	0xba86ad4c	-0.0010275035
201	0xbaf2665f	-0.0018493644
202	0xbab95dd6	-0.0014142345
203	0xbabfa66a	-0.0014621739
204	0xbad1e784	-0.0016014432
205	0xba2c0747	-0.00065623637
206	0x380e084f	3.3863176e-05
207	0xb823b79a	-3.903322e-05
208	0xb8b06ebd	-8.4129606e-05
209	0x3935bb83	0.00017331359
210	0x394de59e	0.00019635863
211	0x3a10f721	0.0005529989
212	0x3a2edd52	0.00066705525
213	0x3a628272	0.00086406537
214	0x3a17f9a0	0.000579739
215	0xb995a623	-0.00028543276
216	0xb9b93cfd	-0.0003533139
217	0xb972aaed	-0.00023142593
218	0xba382cf4	-0.00070257415
219	0xba24c79f	-0.00062858494
220	0x387f8cc5	6.092784e-05
221	0x39e6a864	0.0004399448
222	0x39221585	0.0001545754
223	0xb7311365	-1.0554538e-05
224	0xb5d084b9	-1.5535835e-06
225	0xb7d61f5f	-2.5525396e-05
226	0xb94acfd2	-0.0001934164
227	0xba16e530	-0.00057561975
228	0xba99a1cb	-0.0011721192
229	0xbae80e48	-0.0017704451
230	0xbabd7b88	-0.0014456371
231	0xbaf044d6	-0.0018331062
232	0xbb01bc22	-0.0019795974
233	0xba77be45	-0.00094506546
234	0xb9320c46	-0.00016979975
235	0xb95ddfc3	-0.0002115956
236	0xb9016b2e	-0.00012342326
237	0x39aa2778	0.00032454333
238	0x398033fc	0.00024452794
239	0x3a2cb7e6	0.00065886823
240	0x3a25db85	0.00063269614
241	0x3a1fdaaf	0.0006097955
242	0x3a01ab9c	0.0004946531
243	0xb9d6a46b	-0.00040939762
244	0xba17e98a	-0.0005794993
245	0xb9a5d654	-0.0003163094
246	0xba17123d	-0.00057629106
247	0xba2afa7f	-0.0006522312
248	0x38855579	6.357855e-05
249	0x39ec2ba2	0.00045045937
250	0x391e3576	0.0001508797
251	0x37faf1bb	2.9914887e-05
252	0xb89124f8	-6.921025e-05
253	0xb8a79c32	-7.992274e-05
254	0xb98d0b88	-0.00026902207
255	0xba1d4b08	-0.0006000255
