lightning_logs/Models/Model_L2/checkpoints/model-epoch=02--v1.ckpt (torch, 368404 bytes, 48 tensors)

classifier.1.weight f4 [32, 784]
000000 59 c4 3b 3a 36 df fc 39 0f 49 a3 3a 8e b1 e1 38
       0.0007162742 0.0004823149 0.0012457686 0.00010761908
000010 9d d4 11 3b e8 30 6f 3b a2 d1 84 3b ce 95 e4 3b
       0.0022251972 0.0036497656 0.0040533105 0.006975866
000020 41 98 a2 3c 8d b3 99 ba 66 3a 0f 3c 8b b4 9e bc
       0.019847991 -0.0011726484 0.008741951 -0.019373199
000030 4a 31 a7 bc 76 53 36 3a 76 17 9b bc 8b 8c 83 bc
       -0.020409245 0.00069551857 -0.018932085 -0.016058227
000040 bd 98 da bc 87 4f 2c bd a8 54 82 3c 7f d7 4e bc
       -0.02668416 -0.04206803 0.015909508 -0.01262462
000050 0f c9 6a 3c b5 0f 4e 3b f7 7b 9f 3c a7 3a 75 b9
       0.014330163 0.0031442468 0.01946829 -0.0002338687
000060 2e ca 93 3b 87 94 2d 3b 27 91 08 3b f7 6e 32 3a
       0.0045101857 0.0026486234 0.002083847 0.0006806696
000070 8c e2 1a 3a 4c 23 65 3a 75 5f 24 3a 52 d4 9a 3b
       0.0005908392 0.00087409164 0.0006270328 0.0047250176
000080 25 20 b1 3c 43 06 59 3c c6 b1 61 bb 78 31 53 b8
       0.021621773 0.013246122 -0.0034438237 -5.035239e-05
000090 fd 0e 9f bc 22 8a b9 3c 2b 72 8c 3a 50 c5 45 bd
       -0.019416327 0.022648875 0.0010715177 -0.048283875
0000a0 0a 69 32 bd ba 83 05 3c e1 ab c5 3b 78 66 1a bd
       -0.043557204 0.008149082 0.0060324525 -0.037695378
0000b0 0e ec b0 bb d9 16 2a bd 85 4f e9 bc 3a 32 1c 3c
       -0.0053992337 -0.041525695 -0.0284803 0.009533459
0000c0 a7 20 f7 3c fc 50 f6 3c 74 94 2b bc f2 47 a2 3c
       0.030166937 0.030067913 -0.010472406 0.019809697
0000d0 4d ec 84 3c 32 42 20 3c 5b a9 04 3c fd a0 2d ba
       0.016225958 0.009781407 0.008097018 -0.00066234154
0000e0 aa 9b 59 b9 a1 5c 08 3a 00 70 0a 3b 07 7c 80 3c
       -0.00020752722 0.0005201791 0.0021123886 0.01568414
0000f0 da f8 8d 3b c3 02 22 3c f9 4f 5f bc 8b 32 81 bb
       0.004332644 0.009888354 -0.013629907 -0.003942793
000100 dc cd ef 3b a9 1d 34 bc e7 38 b8 3c 69 14 92 bc
       0.0073182415 -0.0109934 0.02248807 -0.017831998
000110 3f 17 9b 3c 73 75 87 bc d7 0a 36 bc 47 b0 a2 3c
       0.018931983 -0.016535496 -0.011110983 0.019859446
000120 a4 ca 53 bc 5a 9c d3 ba d9 44 3a 3c 90 a3 6a 3c
       -0.012926731 -0.0016144619 0.011368954 0.014321223
000130 5b 3a b7 3b 35 1d a7 3c e6 40 76 3a 5c c8 22 3c
       0.0055916733 0.02039967 0.0009393826 0.009935465
000140 91 ba f2 3c 3d 08 90 3b 91 5a 2a 3c e1 bc 5e 3b
       0.029629977 0.0043955133 0.010397569 0.0033987092
000150 80 9e 01 3a e9 fa ea b9 1a 17 f0 3a 7f 7c 20 3c
       0.0004944578 -0.000448189 0.0018317432 0.009795307
000160 44 9a 88 3c a7 76 c8 bc c7 40 c7 3c ae 2d 74 bc
       0.016675122 -0.02447064 0.02432288 -0.014903469
000170 27 17 b0 3c 38 c7 c9 3c f7 af 84 bc 84 8e fe bc
       0.021495415 0.024631128 -0.016197188 -0.031073816
000180 4f 67 7b 3c 19 d8 a5 3b e3 6e 13 b9 b4 f8 f9 bc
       0.015344455 0.0050611612 -0.00014060321 -0.030514099
000190 3f 09 47 3c ef 51 cf ba 71 4c ae 3b 85 1e 36 3c
       0.0121482005 -0.0015817265 0.005319171 0.011115675
0001a0 e4 dd 1a 3d a4 09 8d 3c fa d1 ce 3c 04 4f 10 3d
       0.037809268 0.017216511 0.025246609 0.035231605
0001b0 db 95 1e bc 01 53 07 3c aa dc 3d 3c f8 7f 10 3c
       -0.009679283 0.008259536 0.011588255 0.008819573
0001c0 fe 54 9a 37 7d 67 60 bb 18 ff 9a bc f9 94 06 bc
       1.8397808e-05 -0.0034241371 -0.018920466 -0.008214229
0001d0 9a 4f a4 3c 3c 6d 2f bc 90 5a a4 bc 52 68 b3 3c
       0.020057488 -0.010707196 -0.020062715 0.02190033
0001e0 12 00 e1 3c b6 c5 53 3c 47 c6 c3 bc 9c c8 a2 3b
       0.027465854 0.012925556 -0.023898257 0.004967762
0001f0 40 88 f6 3a 1a 02 6f bc 81 91 b7 bc 6b b3 03 bd
       0.0018808916 -0.014587903 -0.022408249 -0.03215353
000200 0a cd d9 bb 79 bf 0a bd 60 e3 63 3c 19 c9 d3 bb
       -0.006646757 -0.03387401 0.013909191 -0.0064631817
000210 27 ed 83 3c 57 a7 0a bc 18 12 cd 3c 65 33 dc 3c
       0.016104294 -0.0084627485 0.025033042 0.026879976
000220 38 bf 11 3d 8c 78 2a 3a 47 7f a3 3a 4c 2a 1d 3b
       0.03558275 0.0006502948 0.0012473845 0.002398151
000230 46 c8 9e bb ae b5 08 bc 5a f4 4c bc 11 87 b7 ba
       -0.004845652 -0.008344097 -0.01250943 -0.0014002045
000240 d8 2b 91 bc da 65 d2 bc a9 79 9d 3c ce bd 8a bc
       -0.017721102 -0.025683332 0.019223051 -0.016936209
000250 99 2b 6f 3c d0 a4 f3 bb 23 81 3a 3b 2d 42 83 3c
       0.014597797 -0.0074354187 0.002845832 0.016022766
000260 a5 a8 7e 3c 68 84 d2 3c 6c 77 a4 bc 46 4d 18 3c
       0.015543138 0.025697902 -0.020076476 0.009295767
000270 2f 33 98 3c 4e 5c 99 bc 92 bb 28 3c cd a2 ed bc
       0.018579094 -0.018720772 0.0102986265 -0.029008294
000280 08 5e 08 bc bd e5 c3 3b a3 43 75 3c 5f f7 b5 3c
       -0.0083232 0.0059783147 0.014969739 0.022212682
000290 9a 82 0c bb 1e 3e d6 3c 65 94 7a 3b 49 b8 d8 3b
       -0.002144015 0.026152667 0.0038235423 0.0066137654
0002a0 1a 76 0d bb aa a2 b2 bc 8a b6 18 bd d6 3c 0e bd
       -0.0021585287 -0.02180608 -0.037283458 -0.034725986
0002b0 51 4f ec bc ff ee 19 3c 27 48 02 bd e1 5a 35 bc
       -0.028846415 0.00939536 -0.03180709 -0.0110690305
0002c0 54 98 35 bd cf d1 89 3c 77 60 de bc c8 bb cd bb
       -0.044334725 0.016823677 -0.027145607 -0.006278489
0002d0 62 a0 81 bc 1f b1 0e bd 46 11 a7 3c cf 45 c5 bc
       -0.015823547 -0.034836885 0.020393979 -0.024081139
0002e0 10 21 33 bd 3f d3 60 bc 4f 53 3a bd 5d 20 6e 3c
       -0.043732703 -0.01372224 -0.045489606 0.014534083
0002f0 56 c4 46 3b 01 40 58 bc 53 c2 6f bc 1e 31 e8 3c
       0.0030329428 -0.0131988535 -0.014633733 0.028343733
000300 e5 52 12 3d 49 8e c9 3c bf 72 87 3b 0d 56 4a 3b
       0.035723586 0.02460398 0.004133552 0.0030874044
000310 7c 22 92 ba cd d4 8b 3b 47 f9 0f bd 7f db 19 3c
       -0.0011149193 0.004267311 -0.03514984 0.009390711
000320 c5 55 1c bc cc f7 ca bb 43 de c2 39 81 c3 2e bd
       -0.009541933 -0.0061940905 0.0003716816 -0.042666916
000330 42 9a 5d 3c 94 c7 fb bc ce 13 39 bd be cd 67 3b
       0.013525547 -0.030734815 -0.045184903 0.0035370435
000340 73 a4 29 bd a4 7e 0e bd c1 9a be 3a ab f5 bc bc
       -0.041416597 -0.034788743 0.001454197 -0.023066362
000350 2e 5c cb 3c c9 c3 4c bc 64 4b 37 bd d1 92 78 3b
       0.024824228 -0.012497851 -0.044749632 0.0037929306
000360 7e 63 f6 bb cd 58 50 3c e0 b7 2a bc a2 39 0a 3d
       -0.0075191846 0.012716484 -0.010419816 0.03374637
000370 12 0c 0c bc 7e 89 6d 3c 42 51 a9 3c 51 87 d4 3b
       -0.0085478 0.014498113 0.02066863 0.0064858575
000380 fd ea 6e bc 74 89 1f bb ce cd ea bb f7 aa 16 bc
       -0.014582393 -0.0024343403 -0.007165647 -0.009196035
000390 cf 63 0e bd ca 09 67 bd d9 5d 9f bc 5a e0 cb bc
       -0.034763154 -0.05640582 -0.01945393 -0.024887253
0003a0 90 40 53 bd d9 f1 4c bc e6 75 1a bd 26 40 1f 3c
       -0.051575243 -0.012508833 -0.037710093 0.009719884
0003b0 e2 66 37 bc f0 2f ce bb 71 f7 0f 3d 91 a5 26 3d
       -0.011193963 -0.0062923357 0.035148088 0.04068524
0003c0 0c d9 a2 bc 2c 1c 38 bd ce a1 e7 bc 46 c4 f4 bc
       -0.019878887 -0.04494874 -0.028275397 -0.029878747
0003d0 ce 72 fc bc 8c 23 ed 3c ad 7d b4 3c a0 0b bc bb
       -0.030816462 0.028947614 0.022032583 -0.0057386905
0003e0 25 9f 8c 3c 27 eb 92 b9 09 64 49 ba 7b be dc bc
       0.01716573 -0.00028022492 -0.0007682448 -0.026946297
0003f0 70 54 0f 3b 5f e7 54 bb 8c 7c e6 3a 34 de 15 3b
       0.0021870397 -0.003248654 0.0017584725 0.002286804

classifier.1.bias f4 [32]
000000 28 2e 22 38 c9 a1 16 3a 14 03 d9 b8 f5 ca c2 b9
       3.8666796e-05 0.0005746154 -0.0001034794 -0.00037153778
000010 05 1b 87 b7 fe 9a d4 37 7a b6 e9 b8 fd 91 3e 38
       -1.6105836e-05 2.5344543e-05 -0.00011144295 4.5435492e-05
000020 fa 80 01 39 fd 32 3e 39 4b 53 8f 37 3d f8 ee 39
       0.00012350446 0.00018138807 1.7085715e-05 0.0004557985
000030 59 41 da b8 bb b5 89 ba 8c 11 c4 38 0c 1d 82 39
       -0.00010407222 -0.001050643 9.349277e-05 0.00024817174
000040 3d ea 69 b7 1e 12 22 b9 49 f9 98 38 8d cf 92 b9
       -1.394242e-05 -0.00015456273 7.294358e-05 -0.00028001927
000050 64 05 5f 39 11 85 8d b8 62 ce 88 38 c7 1c 39 b7
       0.00021268945 -6.7481895e-05 6.523427e-05 -1.10335595e-05
000060 5a 1b d2 b9 10 d8 1b b9 c1 53 ff b9 89 87 15 37
       -0.000400747 -0.00014862441 -0.00048699792 8.912649e-06
000070 69 c5 6a b8 d4 21 84 b9 39 c9 60 39 7d 08 0b 3a
       -5.59738e-05 -0.00025202206 0.00021437266 0.0005303694

classifier.2.weight f4 [32]
000000 95 10 74 3f a0 7f 74 3f f8 96 74 3f 84 31 6f 3f
       0.953378 0.9550724 0.9554286 0.9343493
000010 ea 14 7a 3f 08 eb 76 3f 4e 4e 70 3f 08 af 74 3f
       0.9768816 0.9645238 0.93869483 0.95579576
000020 22 a3 71 3f 22 cd 77 3f 50 85 76 3f 5f 01 71 3f
       0.94389546 0.9679738 0.9629717 0.9414272
000030 cd 74 70 3f 06 6e 72 3f 97 63 74 3f 7b 69 70 3f
       0.93928224 0.9469913 0.9546446 0.9391095
000040 1c 15 79 3f 0c 12 77 3f 94 b9 73 3f 68 f5 75 3f
       0.97297835 0.9651191 0.95205045 0.96077585
000050 14 c2 75 3f 5d aa 7c 3f f1 cb 73 3f 7a 96 71 3f
       0.95999265 0.98697454 0.95233065 0.94370234
000060 a7 d8 73 3f 58 62 75 3f a8 51 76 3f 14 62 7d 3f
       0.9525246 0.95853186 0.9621835 0.9897778
000070 5c 45 70 3f 78 a7 76 3f 81 03 78 3f ca 5e 72 3f
       0.93855834 0.9634929 0.96880347 0.94675887

classifier.2.bias f4 [32]
000000 4b 58 00 bd 09 04 c5 bb 6b a8 58 3c a2 4f 89 3c
       -0.031334203 -0.006012444 0.013223748 0.016761605
000010 a3 09 0c 3c be 13 ae 3c 86 ff f3 3c 22 0c 87 3c
       0.008547219 0.021249648 0.029784929 0.016485278
000020 72 23 04 3d 63 7b 86 3c 39 19 ba 3c 1e a5 0e bd
       0.032260366 0.016416257 0.022717105 -0.034825437
000030 2d 30 2c 3c 31 15 b4 ba 60 50 00 bd 13 12 f3 3c
       0.010509533 -0.0013739226 -0.03132665 0.029671704
000040 94 cf b6 3b 3d c9 01 3d 1e 53 a1 bc c0 2a 3a bb
       0.0055789445 0.031686056 -0.019692954 -0.0028406829
000050 5c fe cb 3c fe 79 7b bc bd 05 1b bd 82 41 e0 3c
       0.024901561 -0.015348909 -0.03784727 0.027374987
000060 1a 2b dc 3c 25 75 cf 3b 4e 08 3f 3c da ae 02 3d
       0.026876021 0.0063311034 0.011659695 0.031905033
000070 c5 2e d4 b9 81 93 c9 bc 8e 23 e7 bc b3 4b aa 3c
       -0.00040470637 -0.024606468 -0.028215196 0.02078805

classifier.2.running_mean f4 [32]
000000 65 07 22 3f d3 5c a6 3f 38 9b 2b 3f e8 0d f0 3f
       0.63292533 1.2997078 0.6703372 1.8754244
000010 aa 66 85 3e eb d9 41 3f 7e 38 94 3f d2 5d 99 bf
       0.2605489 0.7572314 1.157974 -1.1981757
000020 3a ab c8 3f a4 8c ba 3d dd ee b7 3f f9 dc 90 bd
       1.5677254 0.09108856 1.436977 -0.07073397
000030 b7 08 77 bf ae e5 01 3f 3a af 9e 3f 01 5d 89 3f
       -0.9649767 0.5074109 1.2397225 1.0731508
000040 e4 df d1 3f 01 d2 b3 bf e1 69 03 3f f1 93 b8 3f
       1.6396451 -1.4048463 0.51333433 1.4420148
000050 f6 31 2c 3f 06 e0 92 3f ae 0b ef 3f c6 15 0c c0
       0.67263734 1.1474617 1.8675439 -2.188829
000060 56 a3 83 3f 1d 88 4a 3f e1 6e 32 bf b3 f9 8a bf
       1.0284221 0.7911394 -0.6970044 -1.0857452
000070 d7 6d 65 3e dd c0 5e be e9 1a 92 be ce bb 85 3f
       0.22405182 -0.21753259 -0.28536156 1.0447938

classifier.2.running_var f4 [32]
000000 51 30 00 40 51 93 3a 3f 53 3b 8b 3f 6f a8 c9 3e
       2.002949 0.72881037 1.0877479 0.39386317
000010 78 e9 19 40 e8 32 59 3f 93 df 9d 3f 55 13 54 3f
       2.4048748 0.848433 1.2333854 0.82842
000020 7b d9 58 3f d6 43 0e 40 27 f4 97 3f 4a 07 e3 3e
       0.8470685 2.2228904 1.1871384 0.443415
000030 b8 5b 05 3f b1 c7 4a 3f da 97 23 3f 90 c9 be 3f
       0.52093077 0.79210955 0.6390358 1.4905262
000040 d7 51 04 40 96 4f 39 3f 72 65 d1 3f 64 2a bb 3e
       2.067495 0.72387064 1.6359084 0.3655578
000050 9e 63 88 3f ed a7 d8 3f 38 24 c0 3f 20 a5 e6 3f
       1.0655401 1.6926247 1.5011053 1.8019142
000060 e1 4a cc 3f 01 9d fd 3f 63 a4 b3 3f 56 23 d4 3f
       1.5960351 1.9813539 1.4034542 1.6573284
000070 98 68 ad 3f 85 2e 84 3f 00 6e b5 3f 9a 8c 68 3f
       1.3547544 1.0326697 1.4174194 0.9083954

classifier.4.weight f4 [64, 32]
000000 76 08 8b bc d0 cb 3d bd f2 13 ac bd 27 3b 04 3d
       -0.016971808 -0.04633695 -0.08402242 0.032282975
000010 b6 1d e1 bc c8 9e 1e 3d e3 c1 45 be 97 6d 95 bd
       -0.027479988 0.038725644 -0.19312243 -0.07296293
000020 8c 1a fc b7 a0 70 3f 3e d7 98 19 3e 7a 26 a1 bd
       -3.0053103e-05 0.18695307 0.1499971 -0.07868667
000030 b8 24 99 3d f0 bb 6c 3c e3 be af 3d 15 40 2e be
       0.07477707 0.014449105 0.085813306 -0.17016633
000040 2f 3f 24 3e 2b 3f 60 3d ed 78 33 3e 4f df 2d be
       0.16039728 0.05474774 0.17526598 -0.16979717
000050 3a 68 28 be 5e 82 20 bd 53 67 c7 3c 4c 16 35 3d
       -0.1644601 -0.039186828 0.024341261 0.044210717
000060 81 bb 40 3d a8 b6 a1 bc 54 6c 05 be 77 c3 e6 3d
       0.047053818 -0.019740418 -0.13029605 0.11267751
000070 07 4d 95 3d 78 74 02 bd 39 37 1d bd 0d 8d 84 3d
       0.072900824 -0.031849355 -0.038382743 0.06472216
000080 36 6a e5 bd f4 c3 e6 3c 35 1d 0a bc 93 dd 30 be
       -0.11201899 0.02816961 -0.008429815 -0.17272024
000090 34 6d 0b bd 21 60 80 3c 07 af 2f bd 73 28 f3 bd
       -0.03403969 0.015670838 -0.04289153 -0.118729495
0000a0 3d 82 0e be ae 76 31 3c 99 55 14 be 96 2a fd bc
       -0.1391687 0.010831518 -0.14485778 -0.030904096
0000b0 30 0e 84 bd 84 f5 d1 3d 81 c1 cf bd 09 d8 46 bc
       -0.064480186 0.102519065 -0.1014433 -0.012136468
0000c0 85 50 1c be c2 f1 93 bd fe 54 bb bd 80 c0 0b bd
       -0.15265091 -0.07223846 -0.0914707 -0.03411913
0000d0 fb 86 ae bd 28 6f 15 bd 2c 89 05 be 04 0a 19 3d
       -0.08521839 -0.03648296 -0.13040608 0.037363067
0000e0 54 45 20 be 56 75 04 3e 48 08 36 be 6b 7e f4 3d
       -0.15651447 0.12935385 -0.17776597 0.11938175
0000f0 ea 7c a4 3d b2 91 1a 3e 87 62 2c 3e e6 94 2c 3d
       0.08031638 0.15094641 0.1683446 0.042134188
000100 e6 18 55 3d b8 d3 29 3e 53 3e 93 bd 43 1c 3d be
       0.052025698 0.1658467 -0.07189622 -0.18467812
000110 fb 59 ea bd ba 65 15 3d ce db e3 bd 7d 28 aa bd
       -0.11442944 0.036473967 -0.11125909 -0.08308504
000120 57 c9 63 bd 1b 21 07 bc ba b6 8b bd 21 b2 d5 3d
       -0.055611935 -0.008247639 -0.06821962 0.10434366
000130 f2 54 bb 3d 13 be 26 be ed fb 0f 3d 5e 15 79 bc
       0.091470614 -0.16283445 0.035152365 -0.015202848
000140 fd bf cf 3a 8d e8 10 be a6 1d fd 3c 48 89 44 3c
       0.0015850064 -0.14151211 0.030897927 0.011995621
000150 85 40 d7 bd 63 99 85 bd b4 af ee bd ce 22 c0 3d
       -0.10510353 -0.06523397 -0.116546065 0.093816385
000160 83 7f f9 3d c0 7d 60 3d 49 51 02 3e 59 81 15 3e
       0.12182524 0.054807425 0.1272632 0.14600123
000170 6c 8c fb bd 34 9f a3 3d bd f9 30 3e a9 81 66 3d
       -0.12282643 0.0798935 0.17282768 0.056275997
000180 47 4e 56 bd c5 57 4c bd 33 d2 33 be 29 a9 31 be
       -0.052320745 -0.04988839 -0.17560653 -0.17349686
000190 10 2b 38 3d 91 54 7c bd fd 1c f9 3d b2 82 23 3e
       0.044962943 -0.061604086 0.12163732 0.15967825
0001a0 a8 93 cd 3d 49 45 08 bc 9b 09 1a 3d 61 5c 20 3e
       0.10037929 -0.0083173 0.037606817 0.1566024
0001b0 90 62 07 3e f5 6c 27 be bd 28 36 be 5e 54 06 3e
       0.13221192 -0.16350158 -0.17788978 0.13118121
0001c0 17 6f c6 bd b7 9d 19 3e ea 9d 90 bd 19 61 d8 bd
       -0.096891575 0.1500157 -0.0706137 -0.10565395
0001d0 6f 85 17 bd aa 61 01 be f3 c7 12 be 60 04 cb bd
       -0.036992487 -0.12634912 -0.14334087 -0.09912944
0001e0 14 d7 64 3d 51 90 d5 bd 2b ed 07 3e 15 ce d8 bd
       0.055869177 -0.10427917 0.13274066 -0.10586182
0001f0 58 26 46 be 32 81 e5 bc ae e8 fd 3d f6 ab e9 bd
       -0.19350564 -0.028015707 0.12397896 -0.11409752
000200 91 ba aa bc 95 38 1f be 2b 07 7f 3d 3b 4b 0c be
       -0.020840915 -0.15548928 0.062262695 -0.13700573
000210 b1 a3 8e bd db 8c 17 be 50 7c 23 3e e5 69 1a be
       -0.069648154 -0.14799826 0.1596539 -0.15079458
000220 81 ea fe 3d 95 0b 2f be 61 fd d4 3d e8 6c 85 3d
       0.12447072 -0.17094262 0.10399891 0.06514913
000230 61 4a 44 3b 8b 54 0c 3e 3c 21 99 3d a3 5a 8c 3d
       0.002995156 0.13704126 0.07477042 0.06853225
000240 b4 60 28 3e b5 57 17 3e 8f f9 fa bc 8f 67 17 bd
       0.1644314 0.14779551 -0.030636577 -0.036963996
000250 15 a2 b5 bd cb 20 6f bc 26 98 aa bd 31 91 bd bc
       -0.08868805 -0.014595221 -0.08329801 -0.023140522
000260 82 8d 1e be 12 37 6c 3d 81 b5 e7 bd f1 eb 4b be
       -0.15483668 0.057669707 -0.11313916 -0.19914223
000270 80 85 f8 3d f7 47 fe 3c 00 b4 34 be ee 18 1c bb
       0.12134838 0.031040175 -0.1764679 -0.002381857
000280 5f ee b8 3c 68 d0 38 3e 8e a9 da 3c 8f 3e 05 3e
       0.022574602 0.1804825 0.026692178 0.13012145
000290 3e c5 be bc d8 cd c3 bd 12 c8 af bd ea bc aa bd
       -0.023287412 -0.09560746 -0.08583082 -0.08336814
0002a0 87 10 dd bd c6 3c 6d bd 72 40 fc 3d 73 ec 44 bd
       -0.10794168 -0.057919286 0.123169795 -0.048077058
0002b0 24 c1 14 3e a0 11 f3 bd 75 88 00 3e 6f 5c e5 3d
       0.14526802 -0.11868596 0.12552054 0.11199271
0002c0 4b bc 0e bd 79 55 aa bd 5b ed d2 3d 00 30 2d 3d
       -0.03484754 -0.08317084 0.10299178 0.042282104
0002d0 5c 08 9e bd ec 8e 92 3d aa e5 f4 bd 3b a2 1e 3e
       -0.07716438 0.071561664 -0.119578674 0.15491574
0002e0 5e a9 98 3d 68 9e ce bc 97 79 49 b9 28 ba d6 3c
       0.07454179 -0.025222018 -0.0001921415 0.026211813
0002f0 32 cf 0d 3e b5 a7 57 3d b4 d2 dd bb e1 c2 e6 3d
       0.1384857 0.052650172 -0.0067695025 0.11267639
000300 29 48 09 3e 55 23 2c be f9 47 9c 3b bf 58 49 bc
       0.13406433 -0.16810353 0.004769322 -0.012289225
000310 7e d5 94 3d 03 3b cb 3c 12 d0 7a bd 74 27 23 be
       0.07267283 0.024808412 -0.061233588 -0.15933019
000320 7f 9a 6e 3c f1 98 d1 3c b9 8c 3d bc 50 76 7b 3d
       0.014563202 0.025585623 -0.011569195 0.06139213
000330 2c aa de bd c3 a6 23 bc 0d 0f e9 bd 73 d3 ee 3b
       -0.108723015 -0.00998849 -0.11379824 0.0072883903
000340 2b 80 c3 bd c7 36 47 be de d0 59 bd ce 1d 16 3e
       -0.095459305 -0.1945449 -0.053177707 0.14659807
000350 ca 92 db bd d0 61 ec 3d 61 f0 fd bc 89 5f c0 3d
       -0.10721357 0.11542094 -0.03099841 0.09393222
000360 ba 2c ac 3c 08 c3 1f bd 85 be f1 bb 9b af 30 be
       0.021017421 -0.039004356 -0.007377448 -0.17254488
000370 e1 98 f0 3c e8 52 a1 3d e8 ad 0a 3e d3 c8 d4 bd
       0.029369773 0.07877141 0.13542902 -0.10389867
000380 a2 b5 2f 3d 51 01 18 bd 73 30 bc bd bc f9 81 bd
       0.042897828 -0.03711063 -0.091889285 -0.06346461
000390 4b 88 7b 3d e1 34 e1 bd c6 e3 74 3c 6d 81 94 bd
       0.061409276 -0.10996414 0.014946884 -0.072512485
0003a0 82 2f 14 3d 84 6f 05 3e 3e 78 0e 3d 64 22 9b ba
       0.03617812 0.13030821 0.03478264 -0.0011835811
0003b0 ea d1 07 3c e7 80 e0 3c ed f3 22 3d 65 3c fb 3d
       0.0082897935 0.027405215 0.039783407 0.12267379
0003c0 99 3b 88 3d 65 ce 1e be 77 da 34 bd 23 8f 28 3e
       0.06651992 -0.15508421 -0.044153657 0.16460852
0003d0 dc e1 dc 3d d5 23 f0 bd 12 a5 00 bd 84 95 07 bd
       0.10785267 -0.117255844 -0.031407423 -0.033101574
0003e0 d2 1b ea ba b3 b0 67 3d 07 0d 1e 3e e4 47 25 be
       -0.0017861074 0.056564998 0.15434657 -0.16140705
0003f0 ec 45 b3 3c 3b ea f1 bd ef 6b 8b 3d 04 e7 b3 bd
       0.021883927 -0.11812254 0.06807696 -0.08784297

classifier.4.bias f4 [64]
000000 3f 7f 70 3c 7b bb d0 bd c4 94 0b 3c 60 b6 54 bd
       0.014678775 -0.10192009 0.008519355 -0.05193174
000010 82 10 a6 bd 14 ab e6 3c 8a ba 98 39 aa fb 44 3a
       -0.08108617 0.028157748 0.00029130682 0.00075143075
000020 83 2d 80 bb 17 c4 a6 3c 9f f5 0a 3b ef dd 8c bd
       -0.0039116754 0.020357175 0.002120353 -0.06878268
000030 97 1e 2d bd 69 82 9b 3d 8a b2 c3 bd 68 5e 42 ba
       -0.0422655 0.07593233 -0.09555538 -0.00074145803
000040 6a 0b c7 bd 39 8a 98 3a 23 1b 81 38 db 3e 11 b9
       -0.09718974 0.0011637873 6.156254e-05 -0.00013851693
000050 8c 87 92 3a 74 04 64 3c 44 21 7c 3d c3 8c 41 3d
       0.0011179312 0.013917077 0.061555162 0.04725338
000060 c3 a2 6c bd d6 04 49 3d 6b ec 09 39 3f f8 86 bc
       -0.05777241 0.049076878 0.0001315341 -0.016475795
000070 e6 d5 f9 39 68 41 8b bd 93 24 bc bd cd f9 b5 3d
       0.00047652348 -0.067995846 -0.091866635 0.08885536
000080 86 26 97 38 8f 2b 86 38 00 b4 b1 bd a0 59 b9 bd
       7.207417e-05 6.397731e-05 -0.086769104 -0.09050298
000090 11 0a 5f 3d 97 2e ae 3c 49 d7 80 bd f1 8f 64 bd
       0.05445296 0.02126245 -0.062910624 -0.055801336
0000a0 9c b5 f8 bc d1 fa 37 3d ef 23 75 3a 78 50 d7 37
       -0.030360036 0.04491693 0.0009351363 2.5667468e-05
0000b0 b8 c9 56 bd e1 f1 db 3d 84 5b 5f 3d a2 77 92 ba
       -0.052438468 0.10739494 0.054530635 -0.0011174569
0000c0 35 13 7e 3d a4 1a d2 bd 6d e4 c3 3d f7 e0 06 38
       0.062030036 -0.102589875 0.09565053 3.2157604e-05
0000d0 c3 6b 22 3d 09 f9 d5 3c 9c a8 29 3d 22 ac 91 bd
       0.03965355 0.026119726 0.041420564 -0.0711291
0000e0 9b 46 ac bd 5c 32 b6 bd c9 1f 38 3c a0 5c 8c 38
       -0.084119044 -0.08896324 0.011238047 6.692973e-05
0000f0 2a 98 7c bd 24 1e 92 bd ba be 5a bd 1d 85 5e ba
       -0.061668552 -0.07134655 -0.053404547 -0.00084884634

classifier.5.weight f4 [64]
000000 be 0b 71 3f 96 01 71 3f f2 01 71 3f e8 49 70 3f
       0.9415854 0.94143045 0.94143593 0.9386277
000010 c4 47 72 3f 08 c0 6f 3f bb 05 71 3f 65 55 73 3f
       0.94640756 0.9365239 0.9414937 0.95052177
000020 57 0f 72 3f ec 53 75 3f 10 4e 6e 3f 06 07 6f 3f
       0.94554657 0.9583118 0.93087864 0.9337009
000030 59 fe 71 3f a1 05 71 3f b9 a1 75 3f 89 16 75 3f
       0.9452873 0.94149214 0.95949894 0.9573751
000040 a2 fd 6e 3f 31 9d 73 3f ab 46 71 3f ff 26 79 3f
       0.9335576 0.9516173 0.94248456 0.9732513
000050 19 69 72 3f 1b 10 72 3f cc 45 77 3f 00 4f 77 3f
       0.94691616 0.94555825 0.96590877 0.9660492
000060 01 bb 6f 3f 17 ef 6e 3f 97 08 73 3f 00 9a 78 3f
       0.9364472 0.9333357 0.9493498 0.97109985
000070 90 f4 78 3f 83 f3 6e 3f c4 7b 70 3f 09 dc 72 3f
       0.9724817 0.9334032 0.9393885 0.94866997
000080 85 03 73 3f d2 8f 71 3f 4e 6e 73 3f 26 45 72 3f
       0.94927245 0.9436008 0.95090187 0.9463676
000090 d6 94 72 3f a3 b5 70 3f 75 98 73 3f 60 58 77 3f
       0.94758356 0.94027156 0.95154506 0.96619225
0000a0 1e 00 7a 3f 8b 97 70 3f 02 01 77 3f 9a 41 79 3f
       0.9765643 0.93981236 0.9648591 0.97365725
0000b0 6c bf 73 3f 67 ee 6f 3f 68 93 71 3f 28 08 7b 3f
       0.9521396 0.9372315 0.9436555 0.9805932
0000c0 52 2a 71 3f 21 e3 71 3f 91 57 71 3f 15 1b 74 3f
       0.942052 0.94487196 0.9427424 0.95353824
0000d0 0c 50 75 3f 1a f1 73 3f 08 0f 70 3f 2d 65 6f 3f
       0.95825267 0.95289767 0.93772936 0.93513757
0000e0 63 3c 70 3f d9 c2 6f 3f e1 15 6f 3f 5d d5 71 3f
       0.9384214 0.9365669 0.9339276 0.9446619
0000f0 7e fc 6f 3f 17 8b 71 3f b4 a7 6f 3f 09 9c 70 3f
       0.9374465 0.9435286 0.9361527 0.9398809

classifier.5.bias f4 [64]
000000 18 0f 01 3b c0 08 9c 3b aa 23 35 3d c3 34 20 bc
       0.0019692834 0.0047617853 0.044223465 -0.009778204
000010 ea a2 7e 3b 14 db 15 bc 27 34 04 bb d5 20 d7 3b
       0.0038854429 -0.009146471 -0.0020172687 0.006565193
000020 9b 92 38 3b ff d7 11 3c 07 e9 c0 bc 6a f1 66 3c
       0.0028163556 0.008901595 -0.023548616 0.014095644
000030 85 b7 ef 3c 45 e2 8b bc f8 8d 46 3c 4a 9e 9f bc
       0.029262314 -0.017075667 0.012118809 -0.019484658
000040 04 c9 9d 3c b8 28 a5 3b bf d7 73 bc c1 52 8c 3c
       0.01926089 0.0050402544 -0.014882981 0.017129304
000050 88 8a 06 bd b6 42 8d bc df ac 54 b9 90 1e fc 3c
       -0.032846957 -0.017243724 -0.00020282295 0.030776292
000060 ca 97 ee 3c f1 6b fd 3c b0 ea 0e bc 49 08 b7 3c
       0.029125113 0.03093526 -0.008722946 0.022342818
000070 6b d9 60 3c f8 5e 28 bc 73 59 c7 bc 65 b3 e8 3c
       0.0137237115 -0.010276549 -0.024334645 0.028405854
000080 7d c0 82 bc e7 ba e8 3c 81 2d 5c bc 3c 7d 26 bc
       -0.015960926 0.028409434 -0.013438583 -0.010161694
000090 c7 97 b8 3c 9e a4 3b bc 4b f2 ac bc 1c a7 51 bc
       0.02253331 -0.011452822 -0.021111628 -0.01279619
0000a0 73 a8 43 3d 94 da 8e 3b 02 0e bc bc 13 d4 c3 bb
       0.047768068 0.0043595526 -0.022955898 -0.005976209
0000b0 16 8e a7 3c 88 ab 1b 3b 1f 3d 2b 3d f7 9d 09 3d
       0.020453494 0.0023753364 0.041806336 0.033597913
0000c0 b6 72 e6 3c 48 64 10 3c cd 08 ac 3c 07 8d ab bc
       0.02813087 0.008812971 0.02100029 -0.02094127
0000d0 8e 1c f8 3c 3c 1e e9 bc 0c bf ac 3c c1 95 9c 3a
       0.030287053 -0.0284568 0.021087192 0.0011946486
0000e0 44 31 a5 bc ca 78 ad 3a 1a e0 0d 3d 68 3d db 3c
       -0.020165093 0.001323485 0.034637548 0.02676268
0000f0 62 f6 f3 3c 4a 0b 92 3c 45 fc ca bb ab 15 37 bc
       0.02978057 0.017827649 -0.0061946237 -0.0111746

classifier.5.running_mean f4 [64]
000000 de 38 57 3d ff 0d 04 bf 67 67 6e 3c 9b b5 ad be
       0.052544467 -0.51583856 0.01455102 -0.33927616
000010 d8 9b 93 be 37 7a 93 3e 7f f0 55 be 6e dd 7f 3c
       -0.28829837 0.2880418 -0.20892523 0.015616758
000020 bf 47 bb be 9d 87 4a be 9d eb ff bd e0 0f a9 be
       -0.36578175 -0.19778295 -0.124961115 -0.33019924
000030 c2 0e 2a 3e d7 26 df bd b9 e0 58 bd 68 43 51 3e
       0.16607192 -0.1089608 -0.052948687 0.2043587
000040 95 04 87 3e 93 56 ab 3e c2 df 72 bd a2 39 d9 bd
       0.26370683 0.33464488 -0.059295423 -0.10606696
000050 1e 49 3a bd b7 82 ab 3e d0 6f 6e bc e6 fe 3a 3d
       -0.045479886 0.33498165 -0.014553025 0.045653246
000060 64 ca 70 3e ee ef 3f be 56 3f b7 be 81 3d bc be
       0.23514706 -0.1874387 -0.3579051 -0.36765674
000070 c8 c3 79 be 8a b2 c3 be 75 68 0e 3e 85 ea 16 3f
       -0.24391091 -0.38222152 0.13907035 0.589516
000080 15 67 c2 3d 4f 46 88 3d 2b 00 a3 be 7d 79 a2 be
       0.094923176 0.06654035 -0.31836066 -0.31733313
000090 49 aa 9c 3d 92 80 dc bd 08 0e 66 be 21 49 c9 be
       0.07649667 -0.1076671 -0.2246629 -0.39313605
0000a0 08 b7 95 3d 70 84 3a 3e 0d af 50 bc 3d 40 e1 3d
       0.07310301 0.18214583 -0.012737048 0.109985806
0000b0 86 a1 47 3e 77 c1 12 3e 11 6e 97 bb 5f 8a 8c be
       0.1949521 0.14331613 -0.0046212752 -0.2744932
0000c0 63 8a 2a bd ec f0 44 be bf b3 40 be 5a 15 60 bd
       -0.041635882 -0.1923253 -0.18818568 -0.054707862
0000d0 46 97 6e 3e 0d cc e4 3d f3 c1 ed 3d 50 73 b5 be
       0.23299894 0.11171732 0.116092585 -0.3543954
0000e0 9f 27 67 bd 31 77 bf bd ab 75 03 bf 1a d4 48 3e
       -0.05643427 -0.09348906 -0.5135142 0.1961216
0000f0 57 b9 90 3e ea 14 d0 be a4 1f b3 bd 3a 44 f6 bd
       0.28266403 -0.40640956 -0.08746269 -0.12024732

classifier.5.running_var f4 [64]
000000 6e 8d d6 3d 56 c8 da 3d 92 2f fc 3d 4c cc 24 3e
       0.10476194 0.10682742 0.12313761 0.16093558
000010 b8 7a 8e 3e bc 60 f1 3d 8f aa bb 3d b8 12 42 3e
       0.27828002 0.11786029 0.09163391 0.18952453
000020 4e 85 2a 3e 5e f2 f9 3d 93 92 d7 3d 2b c2 5d 3e
       0.16652414 0.12204431 0.10526004 0.216561
000030 4f c2 36 3e 69 dc f2 3d 87 f1 85 3e 41 29 3a 3e
       0.1784756 0.11858446 0.26160833 0.181798
000040 43 e4 7b 3d a5 93 25 3e 5c 65 26 3e d2 e2 7b 3e
       0.061496984 0.16169603 0.16249603 0.24598244
000050 06 d5 95 3d b7 fb d4 3d bc 73 b8 3d cf 35 f4 3d
       0.073160216 0.10399573 0.090064496 0.11924326
000060 f1 e0 b1 3e 3a 03 81 3d 92 7a 89 3e dd 8e 84 3d
       0.3474193 0.062994435 0.26851326 0.064725615
000070 f9 09 79 3d 49 fd 1e 3e 14 26 2c 3e e1 4e ac 3d
       0.060800526 0.15526308 0.168114 0.084134825
000080 7d be 91 3d e6 94 cb 3d 95 44 4e 3e 86 ea 42 3e
       0.07116411 0.099405095 0.2014335 0.19034776
000090 b8 7f 9f 3d 14 0e a9 3d 1a 49 30 3e 90 d7 01 3d
       0.07788032 0.08254638 0.17215386 0.031699717
0000a0 88 08 54 3d ab a6 24 3e ba cf 62 3d 6a a6 1c 3e
       0.05176595 0.16079204 0.055373885 0.15297857
0000b0 d1 e3 22 3e 2f 01 86 3e 80 48 00 3e 72 ab b5 3e
       0.15907218 0.26172778 0.12527657 0.35482365
0000c0 02 e1 88 3d f5 a6 30 3e b9 e4 e1 3d c0 82 5e 3e
       0.06683542 0.17251189 0.110299535 0.21729565
0000d0 4a 87 10 3e 36 1b 7a 3e 04 a1 9b 3d 97 79 53 3d
       0.14114109 0.24424443 0.07599071 0.05162963
0000e0 49 cb de 3d 93 8b 00 3e 93 ca 37 3e 84 28 0d 3e
       0.10878617 0.12553243 0.1794837 0.13784987
0000f0 29 d1 61 3e 9b 52 ac 3d 94 b1 4f 3e 8f 6c ff 3d
       0.22052445 0.08414193 0.20282584 0.12471878

classifier.7.weight f4 [16, 64]
000000 c9 bf a6 3d 67 0c 27 b8 3d 5e a7 bd de 3d 8f 3d
       0.08142049 -3.9827453e-05 -0.081722714 0.06994222
000010 d1 76 00 3d 1a 0e 97 bd fd a3 87 bd 2c c5 f5 3d
       0.031363312 -0.073757365 -0.06623075 0.12000498
000020 db 3b 11 3e c3 57 ad bc 7a 8d e3 bc 45 63 ae bc
       0.1418299 -0.021160012 -0.027777422 -0.02128757
000030 03 95 a3 3d 2d 74 e6 3c d2 30 3f 3d d5 4d 7d bd
       0.07987406 0.028131569 0.046677418 -0.061841805
000040 ed 14 0d bd 7c c1 78 3d 1b bf f6 bc fa e2 ca 3d
       -0.034443785 0.060731396 -0.030120423 0.099065736
000050 6f 23 b5 bd 6c ac 91 3d 7f 41 05 be ef 31 4a 38
       -0.08844649 0.07112965 -0.13013266 4.8207057e-05
000060 0d 9f 01 bd 74 21 7d bd bc 15 0b 3e 0d 9f c0 3d
       -0.031645823 -0.06179948 0.1358251 0.094053365
000070 12 23 93 bd 28 cc af 3b 8a 49 93 3c 6c 35 1e 3c
       -0.071844235 0.0053649135 0.017979402 0.009656291
000080 d0 39 b0 bd 09 f0 7c bd ff 32 96 bd 21 71 9c bd
       -0.08604777 -0.061752353 -0.073339455 -0.07638765
000090 fd 53 a7 bd 73 95 a5 3d 38 86 b6 bd ac 02 38 3c
       -0.08170316 0.08085146 -0.08912319 0.011231106
0000a0 26 c1 ae bd 32 30 3b bd 0e 03 b3 bb 9f 9e c7 bd
       -0.08532934 -0.04570026 -0.0054630106 -0.097470514
0000b0 bc b1 3e 3d f4 a5 08 3e f8 68 00 bd d1 0e 09 3e
       0.04655622 0.13344556 -0.031350106 0.13384558
0000c0 97 20 10 bd 37 e7 ad bd ee 37 5a 3b 70 a9 5b bd
       -0.03518733 -0.08491366 0.0033297497 -0.053628385
0000d0 c1 6b 1a 3c a7 e1 9d 3d 54 6d ad bd 13 79 58 3d
       0.009425105 0.077090554 -0.08468118 0.05284984
0000e0 5c 8e 34 bd 9e e3 f6 3c 77 19 28 bd be 66 a9 3d
       -0.044081077 0.030137833 -0.04103991 0.0827155
0000f0 7a ec cb ba 75 0c ec bc 9b 9a 57 3d 12 a1 92 3d
       -0.0015558146 -0.028814534 0.052637678 0.07159628
000100 7c a6 0c bd 25 72 91 bc 0d b5 22 3c 8c 62 1c bd
       -0.03433846 -0.017754624 0.009930861 -0.03817992
000110 27 5d 41 3d 8e af a4 bd 94 99 02 3e 80 91 18 3d
       0.047207978 -0.08041297 0.12753898 0.037248135
000120 f2 9a c8 bb 7d 14 a1 3d c3 c0 94 bd c1 f0 9a 3d
       -0.0061219865 0.07865236 -0.07263329 0.075654514
000130 83 f1 81 3b e0 84 de 3d f5 05 22 bd 68 e9 1c bd
       0.003965558 0.10865188 -0.039556462 -0.03830853
000140 88 b0 04 bd 92 fd 85 bd fa 83 0b bd 4b 28 bc 3d
       -0.032394916 -0.06542505 -0.03406141 0.09187373
000150 54 7d 49 3d c2 b3 31 3b 7d b0 a5 bd 5d ba 8a bd
       0.049191788 0.00271152 -0.08090303 -0.06773827
000160 ea 5e aa bd 7e b8 ad bc 7f b2 1d bd 3e 8a ac bd
       -0.08318885 -0.021206137 -0.038500305 -0.08424805
000170 ed d0 12 be 33 a1 1a 3c 39 f9 9e bd 2c ae 1b 3d
       -0.14337511 0.009437847 -0.07762379 0.0380079
000180 28 f9 91 3c 02 80 9d 3d e0 b1 4e 3b 32 e6 ac bd
       0.017819002 0.07690431 0.0031539127 -0.08442344
000190 c2 e1 c5 3d 25 8a fd 3c b5 45 a1 3d b7 fa ea bd
       0.096622005 0.030949662 0.07874624 -0.11473601
0001a0 40 e1 0d 3d 4a 85 be 3d 75 9d 09 be 0d 41 10 bd
       0.034638643 0.093027666 -0.13438971 -0.035218287
0001b0 da 40 bf 3c bd 1e b8 bd f8 20 91 bd dc 73 aa 3d
       0.023346353 -0.08990238 -0.070863664 0.0832288
0001c0 39 bb af bd 03 c1 bd bd 7e 74 9c bc 7d 11 b2 3d
       -0.08580632 -0.0926533 -0.019098517 0.08694742
0001d0 82 58 14 3e a7 48 b7 3d b8 ac a4 3d e3 6b 3a bc
       0.14486888 0.08949404 0.08040756 -0.011378261
0001e0 d3 64 68 bd af 71 18 bc 23 04 4a bd b1 01 dc bd
       -0.05673678 -0.009304448 -0.04932035 -0.1074251
0001f0 b5 96 97 3d 92 56 ae bd e1 10 6d 3d 46 0d 3b 3c
       0.07401792 -0.08512606 0.057877425 0.011416739
000200 42 f1 db bd ec 62 b0 bd 4d 02 24 bd 03 c4 12 bd
       -0.10739376 -0.08612618 -0.040041257 -0.035831463
000210 43 b9 e7 bc 50 0e 76 bd 82 05 61 bd bf 9e f4 bc
       -0.028286582 -0.060072243 -0.054936893 -0.029860852
000220 69 9e b5 bd f9 af 14 3b 0c 06 ca 3b 07 1b 65 3c
       -0.08868105 0.0022687896 0.0061652716 0.013983495
000230 cb 3b e2 bd cd 82 09 bd 36 49 b8 bd 46 e3 c3 3c
       -0.11046561 -0.033572007 -0.08998339 0.023912083
000240 51 1e 57 bc 0a 28 f1 3d be e1 a2 bd 45 b1 f7 3d
       -0.013129787 0.11775215 -0.07953213 0.12094358
000250 bc 33 ea bd 53 c6 e8 3c 28 70 f5 bd 57 53 b0 bd
       -0.11435649 0.02841488 -0.11984283 -0.08609646
000260 24 8b 48 3d f1 bd 9c 3c 97 fd df 3d cb e0 21 bd
       0.04896082 0.01913354 0.1093704 -0.03952102
000270 67 47 f1 3b 76 d9 76 3d a8 ce af bc 90 83 07 3e
       0.007363248 0.06026598 -0.021460846 0.13233781
000280 d5 c5 ef 3d 50 ab 92 3d ce 3e b0 bc f9 59 c8 bd
       0.11707655 0.071615815 -0.021514323 -0.09782786
000290 2b 55 49 bd c4 de c2 3d c7 ae dd 3d 66 52 c4 3b
       -0.049153488 0.095151454 0.10824352 0.005991268
0002a0 02 ce 86 3d ab 5f 22 3d 2e ef c8 bd ca 29 5d 3d
       0.065822616 0.039642017 -0.09811245 0.05399493
0002b0 c3 e4 15 3d af cf e7 3c 97 4e 96 bd e0 c3 ad bc
       0.036595117 0.028297273 -0.073392086 -0.021211565
0002c0 3c 39 b1 bc 83 0d 02 3e aa 72 bd 3d 1b 05 71 3d
       -0.021633737 0.12700467 0.09250386 0.05884276
0002d0 8f a1 05 3e c1 75 4d 3d 84 56 04 bd c4 ae 65 bc
       0.13049911 0.050161127 -0.03230907 -0.014018718
0002e0 86 68 f3 3c f8 27 79 3d 07 d6 40 bd 35 50 ea bd
       0.029712927 0.060829133 -0.047079112 -0.114410795
0002f0 98 68 aa 3d 20 8d a1 3c a0 39 10 bc db f4 f3 bd
       0.08320731 0.019720614 -0.008802801 -0.11911937
000300 0f 62 81 3d 5f 26 a9 3c 39 35 50 3d f4 fe 63 bd
       0.06317531 0.02064818 0.050832007 -0.055663064
000310 b7 fc d2 bd 03 5e d3 bd 75 ad 1a bd 43 57 c5 3b
       -0.10302108 -0.10320666 -0.037763078 0.0060223653
000320 83 a1 c1 3d 90 97 8a bd 23 62 b7 3d f7 d8 c4 bd
       0.09454634 -0.067671895 0.08954265 -0.09611695
000330 c7 71 b1 3d 9e 79 39 bc ed ff 4e bd 75 f5 b0 3d
       0.086642794 -0.0113205 -0.05053704 0.08640567
000340 10 fe 1b bd 42 d3 c2 bc fa 9d 08 3e 35 e0 c9 bd
       -0.03808409 -0.023782376 0.13341513 -0.09857217
000350 76 42 dd 3d 0a 38 91 bd a1 40 cd 3d 62 20 66 bc
       0.10803692 -0.07090767 0.100220926 -0.014045807
000360 c8 c0 dc 3d 6f da c3 3d be 0c 06 bd da 8e bb bd
       0.107789576 0.09563147 -0.032726996 -0.09158106
000370 a4 53 4e 3b 35 ec 9d bd b6 b0 f3 3b 0c 85 e1 3d
       0.003148296 -0.077110685 0.007436837 0.11011705
000380 6d a6 cc 3d 85 fe 2c 3d 4f 1a 36 3c bc c8 8a 3d
       0.09992681 0.042234916 0.011114671 0.06776568
000390 18 d1 22 bd 07 d9 e4 3c 67 42 4b bd f0 50 8a bc
       -0.03975019 0.027935518 -0.049623873 -0.016884297
0003a0 aa c8 07 bc 15 3d b8 3d 24 34 ce bd 00 1a 73 bd
       -0.008287588 0.089960255 -0.10068539 -0.059350967
0003b0 dd d8 d5 3d 97 2f 0d 3d 47 35 38 bd d0 10 e4 bd
       0.10441754 0.034469213 -0.044972684 -0.11136019
0003c0 42 b6 86 bd b7 95 90 3d 38 18 9a 3b d0 25 65 bd
       -0.06577732 0.07059806 0.004702594 -0.055944264
0003d0 a3 d6 e1 3d a4 7f 1d 3d fd 86 c7 3d 71 c6 bf bc
       0.11027267 0.038451806 0.09742544 -0.023410054
0003e0 53 b6 ce 3d 45 a2 9a bd 6d 9c 27 bd ac a3 58 bc
       0.10093369 -0.07550482 -0.040920664 -0.013222616
0003f0 4d bf 84 3d 21 ad 99 3c ab c3 28 bd a7 c0 10 3d
       0.064818 0.018759312 -0.04120223 0.035339978

classifier.7.bias f4 [16]
000000 a7 1c 10 bd f5 03 83 bc 72 d5 ff 3b 58 3e 28 3c
       -0.035183575 -0.015993098 0.007807427 0.01026877
000010 29 d6 0f bd 31 d3 e6 38 a3 fe cc b9 66 2a 54 bb
       -0.03511635 0.00011006592 -0.0003909963 -0.0032373904
000020 df f2 1e bc 2f 66 40 b8 4f 6a a7 3c 86 47 87 3b
       -0.00970146 -4.5871533e-05 0.020436434 0.0041283993
000030 28 a2 6b 3c 4a 1a 0d 3d d6 3c dc bc ca f7 5f 3d
       0.014381923 0.0344489 -0.026884478 0.05467967

classifier.8.weight f4 [16]
000000 6d e4 88 3f 2e 05 89 3f 17 6a 89 3f 17 d1 89 3f
       1.069471 1.0704706 1.0735501 1.0766934
000010 7c c7 89 3f 65 1a 89 3f 06 0e 89 3f 57 b1 89 3f
       1.0764003 1.071118 1.0707405 1.0757245
000020 f5 5e 8a 3f 64 f5 88 3f 31 b5 89 3f f0 79 89 3f
       1.0810229 1.0699887 1.075842 1.0740337
000030 4b de 88 3f 86 6a 89 3f 50 db 88 3f 1b 86 85 3f
       1.0692838 1.0735633 1.0691929 1.0431551

classifier.8.bias f4 [16]
000000 9c 0c 8d 3d 06 d3 8d 3d 0c 4d 99 3d 3e 24 95 3d
       0.06887171 0.06925015 0.07485399 0.07282303
000010 fa 39 9e 3d fd 1b 8b 3d 92 56 83 3d 81 d1 9e 3d
       0.07725902 0.06792448 0.06412996 0.077548034
000020 f6 da a4 3d 92 db 8a 3d 4c c5 94 3d 43 19 97 3d
       0.08049576 0.06780161 0.07264194 0.07377865
000030 e7 1b 95 3d e1 e3 97 3d 07 38 8e 3d b0 e5 5e 3d
       0.072807126 0.07416511 0.0694428 0.054418266

classifier.8.running_mean f4 [16]
000000 9c ea 41 bd 31 e7 1f be 7b 85 d3 3c 82 0f 51 3e
       -0.04734288 -0.15615536 0.025820484 0.20416072
000010 04 d3 e5 3d 06 3a c8 bb 21 3f 7e 3e a6 a5 2f 3e
       0.11221889 -0.0061104326 0.2482877 0.17153034
000020 ce 7f 0d be e3 13 ea 3c 21 b1 d9 bb 89 11 f1 3d
       -0.13818285 0.028573936 -0.00664343 0.11770923
000030 d1 e1 04 3e e0 fd ba bd 51 88 e6 bd 07 9c 1d bc
       0.12976767 -0.09130454 -0.11256469 -0.009619719

classifier.8.running_var f4 [16]
000000 f4 bf c9 3e b4 22 1a 3e 87 fe d2 3d 80 eb ce 3e
       0.3940426 0.150523 0.103024535 0.40414047
000010 af 5e 4e 3e 86 45 9e 3e 72 f1 08 3e 36 28 2d 3e
       0.20153306 0.30912417 0.13373354 0.1690987
000020 6b c5 1a 3e 5f 30 00 3e 65 b7 2b 3e 5d 81 90 3e
       0.15114371 0.12518452 0.16769178 0.28223696
000030 b4 b6 6a 3e 6f 19 bc 3d 92 0e ae 3e 38 82 81 3e
       0.22921258 0.091845386 0.3399549 0.25294662

classifier.10.weight f4 [10, 16]
000000 0a a8 20 3e 10 84 59 3e 64 31 9d be 00 42 91 be
       0.15689102 0.21241784 -0.30701745 -0.28370667
000010 b2 33 58 be f2 ff ae 3d ea a2 b7 3d 9e ef 09 be
       -0.2111347 0.085449114 0.0896662 -0.13470313
000020 29 cc 52 3e 2b 44 7d be 3b 8b 42 3e 8e ca 76 be
       0.20585693 -0.24733035 0.18998425 -0.24100706
000030 3c 63 c4 3d 29 a9 52 3e 5a 8c 0e 3e bd a1 e4 bd
       0.0958924 0.20572342 0.13920727 -0.11163662
000040 58 4d 9e 3e e7 ff 20 3e 6d 19 32 3e 17 3d fd bc
       0.30918384 0.15722619 0.17392512 -0.030912919
000050 68 bf 3b be 77 9c a0 bc d8 4e 8b 3e ff d9 81 3e
       -0.18334734 -0.019605858 0.2720859 0.2536163
000060 1d ac b6 bd 19 33 1c be bc ef 57 3d 66 46 8c bd
       -0.08919547 -0.15253867 0.052718863 -0.06849365
000070 0b 47 3c bd 65 27 e4 3d 1a be 94 be c4 aa aa 3d
       -0.04596619 0.111403264 -0.29051286 0.08333352
000080 8d 17 78 bd 86 91 76 be ce f0 0c be 4f e7 e3 bb
       -0.060569335 -0.2407895 -0.13763735 -0.0069550644
000090 a0 a9 80 be 17 ed 88 bd 35 06 7f be 1d 6a 02 3e
       -0.25129414 -0.06685846 -0.24904712 0.12735792
0000a0 6a 06 aa bd 33 96 8a be 88 0f 5d be d6 87 35 3e
       -0.08302005 -0.27067718 -0.21587956 0.17727599
0000b0 e1 40 29 3e d8 f5 a1 3e 36 59 7b be b7 94 4f 3e
       0.16528656 0.31632876 -0.2454575 0.20271574
0000c0 b6 93 4f 3e 2b 59 0f bd cf 33 b4 bd 93 e9 1b 3c
       0.20271191 -0.034997147 -0.08798944 0.009516138
0000d0 d4 60 3f 3e 93 bb 38 be d3 c5 c3 3d d8 7a a1 3e
       0.18689281 -0.18040304 0.09559216 0.31539035
0000e0 46 1b 57 3e e3 18 c4 bd 32 2b 45 bd 11 e9 f6 3d
       0.21006498 -0.09575059 -0.048136897 0.12056173
0000f0 c3 27 3c be ea 90 05 be 9f 48 96 be d8 4d ed 3c
       -0.18374543 -0.13043562 -0.2935228 0.028967783
000100 46 ca 8c bd bc a5 91 be 9a 4f ed 3d 56 a9 0a be
       -0.06874518 -0.28446758 0.115874484 -0.13541159
000110 c4 56 09 3e 76 bc 8b be 34 51 8b 3e 18 f7 11 3d
       0.13412005 -0.27292222 0.2721039 0.035636038
000120 d7 fa aa 3d 45 4d 4b be c8 8e 5c be 32 77 8f 3e
       0.08348625 -0.19853695 -0.21538842 0.28020626
000130 aa 49 4e 3e 5d e7 f7 bd 61 86 45 be 38 e3 23 3e
       0.20145288 -0.12104676 -0.19289543 0.16004646
000140 d2 9d 73 be a1 2a 82 3e d1 66 a0 3e 12 6e 75 3e
       -0.23790672 0.25423148 0.31328443 0.2396777
000150 f7 fc 0c 3e f2 a9 5c 3e 7a d8 7d be 04 76 36 be
       0.13768373 0.21549204 -0.2478961 -0.17818457
000160 15 42 7a be a8 42 8a be 95 25 4c be 3f ae 15 be
       -0.24439271 -0.2700398 -0.19936211 -0.14617251
000170 7a f7 9f be f4 cc 8e ba 67 9b d2 3d 79 b8 c3 bd
       -0.31243497 -0.0010894821 0.10283547 -0.0955667
000180 df 2e ff 3d d2 1d 36 3a 1e 41 a8 3d 56 72 0e 3e
       0.12460112 0.00069471926 0.08215545 0.13910803
000190 e1 2e 87 be 45 a3 7e be ac e8 55 bd 5b 66 71 bd
       -0.26402953 -0.2486697 -0.052223846 -0.058935504
0001a0 f1 50 41 3d c3 0b 63 be db aa 2c be 98 ab 8f 3e
       0.047196332 -0.22172455 -0.16862051 0.28060603
0001b0 0d e3 66 3e 61 3c b9 3d ba d9 30 bd e5 a7 59 3e
       0.2254755 0.090447195 -0.04317639 0.21255453
0001c0 b2 7e 65 be 19 24 6b be de a2 a1 be bf 9b 99 3e
       -0.22411612 -0.22962989 -0.3156957 0.30001637
0001d0 b3 57 db ba 0c 35 54 3e 10 62 8e be a3 e9 78 be
       -0.001673451 0.20723361 -0.2780919 -0.24307875
0001e0 d3 9e 5b be d3 c3 14 3e 3b 80 6d 3d d9 6c 40 3d
       -0.21447305 0.14527826 0.05798362 0.046978805
0001f0 8b 8d ea 3c f6 8d 21 be a6 ad 90 3e 00 87 7e 3d
       0.028631946 -0.1577681 0.28257483 0.062140465
000200 04 78 7d be d7 f7 00 be 06 39 a1 be a5 3b 4e 3d
       -0.24752814 -0.12594543 -0.31488818 0.05034985
000210 2d 74 6b 3e b4 29 7e 3d b3 77 23 3d ff 17 b2 bc
       0.22993536 0.06205149 0.039909076 -0.021739958
000220 86 39 3d 3e 00 57 93 3e 13 62 96 3e 85 77 63 3d
       0.18478975 0.28777313 0.293717 0.055533905
000230 96 6e b5 bd 53 ec 85 be ce a4 4e be 61 fa 03 be
       -0.08858983 -0.26156864 -0.20180055 -0.1288848
000240 dd a5 14 be c8 e7 92 be 8e 08 48 be a1 27 94 3e
       -0.14516397 -0.2869246 -0.19534513 0.28936484
000250 16 de 58 bd 3b cf 81 3e e2 2b 0f be 18 03 82 3e
       -0.052946173 0.25353417 -0.13981584 0.25392985
000260 74 5c a3 be 89 0d 51 be 79 13 5b 3e 2e 36 81 bd
       -0.31906474 -0.2041532 0.21394147 -0.06309162
000270 f0 97 72 bd 9e bd f7 bd db 8e 39 3e 0e c3 ee 3c
       -0.05922693 -0.120967135 0.18120901 0.029145744

classifier.10.bias f4 [10]
000000 6d b3 01 3e a6 8b a3 bd 3d e5 7b 3e 7d 8e 96 3d
       0.12666102 -0.0798562 0.24599166 0.07351396
000010 45 22 80 3c 57 8a 10 3e 65 b9 31 be c1 7f e5 3d
       0.015641341 0.14115272 -0.17355879 0.11206008
000020 a8 93 19 3c fe 5e 3b 3e
       0.009373583 0.18297955

exp_avg f4 [32, 784]
000000 86 b7 38 36 88 02 82 34 15 53 4f b6 bd cc 0a b7
       2.7524961e-06 2.421623e-07 -3.0893764e-06 -8.27311e-06
000010 5b 16 97 b7 32 b9 71 b7 77 35 91 37 fc 8c d3 37
       -1.8011013e-05 -1.44078385e-05 1.7310243e-05 2.5218811e-05
000020 ba df 7b 38 bb b8 4a 38 ce 48 90 38 27 b5 a8 38
       6.0051425e-05 4.8332597e-05 6.880016e-05 8.0446065e-05
000030 0f c0 a5 b8 77 08 4b 39 a0 4b 9e 39 c7 71 d1 38
       -7.903587e-05 0.00019362742 0.00030192453 9.987089e-05
000040 30 c5 fe 38 6c 6b cc b7 27 07 d5 b6 4d d2 c3 b8
       0.00012148393 -2.4368717e-05 -6.3487273e-06 -9.337496e-05
000050 7d 41 26 37 7c f9 1d b8 5f 33 9a b6 c1 20 dd b6
       9.909619e-06 -3.7664067e-05 -4.595538e-06 -6.5901263e-06
000060 d4 25 0f b7 0c a0 00 b7 92 1e 90 36 e7 4e 92 35
       -8.532272e-06 -7.666658e-06 4.2950933e-06 1.0900811e-06
000070 10 17 de b4 6e 6f ba b6 ca 9b 85 b7 ed 3f b4 b7
       -4.1367502e-07 -5.556204e-06 -1.592738e-05 -2.148744e-05
000080 8d 7f a5 37 20 9b 8a b7 ec c9 0f b8 4c 0d 8a 38
       1.9728928e-05 -1.6523118e-05 -3.428191e-05 6.5828295e-05
000090 69 26 ba 37 6a 5f 48 39 b0 56 d3 b7 c6 33 61 b8
       2.2190814e-05 0.00019109031 -2.5193527e-05 -5.3692398e-05
0000a0 2a ac 26 39 01 76 e8 39 54 53 9c 39 56 61 28 39
       0.0001589513 0.00044338408 0.00029816723 0.00016057989
0000b0 ad f6 70 39 10 5b 55 38 19 73 8d b8 c9 1e 53 38
       0.00022980077 5.0867966e-05 -6.7448425e-05 5.033499e-05
0000c0 30 3c 8a 38 5a 05 cc 37 cc 08 d3 b8 fb a5 99 38
       6.5915636e-05 2.4321187e-05 -0.000100629026 7.326525e-05
0000d0 87 6d 03 38 7b e1 c8 b7 4c 9b 02 37 b8 8c f0 b5
       3.133484e-05 -2.3946855e-05 7.784762e-06 -1.7922348e-06
0000e0 48 d0 d1 b4 61 23 0f b7 5e 16 c8 b6 74 e2 af 35
       -3.9080828e-07 -8.5317015e-06 -5.9630684e-06 1.3104423e-06
0000f0 ae 5d 92 b8 4a 0a 34 b7 05 10 64 38 3d 53 4b 38
       -6.979272e-05 -1.0731232e-05 5.4374355e-05 4.8476493e-05
000100 8c 41 53 b8 90 d1 8a b9 18 a9 73 b9 6a 6d 6c b9
       -5.0367365e-05 -0.00026477547 -0.00023237278 -0.00022547474
000110 8a ed 0a 39 6f be a4 b9 8d 21 ce b9 05 88 af 37
       0.00013249196 -0.00031422402 -0.0003931638 2.0924965e-05
000120 1a 23 ad b8 5c c5 8b b9 3c d1 73 b9 d6 82 81 b8
       -8.255821e-05 -0.0002665919 -0.00023252232 -6.1755694e-05
000130 c9 fb c9 b7 36 05 2a 39 29 c2 22 38 54 85 4b b7
       -2.4078314e-05 0.00016214405 3.8804636e-05 -1.2130786e-05
000140 61 b7 df 37 72 04 f6 b7 91 e8 5a b5 b7 75 13 37
       2.6669064e-05 -2.9327555e-05 -8.154976e-07 8.78929e-06
000150 d3 7b 33 35 c8 b6 15 b7 77 ef da b6 e4 2c ee b7
       6.6862884e-07 -8.923649e-06 -6.5247837e-06 -2.8392715e-05
000160 5d 60 aa b7 df 67 0d b8 c1 e7 f3 38 5a 8f 6a b9
       -2.0310452e-05 -3.3713757e-05 0.000116303105 -0.00022369382
000170 52 31 68 b9 05 a4 64 b9 25 20 9c b9 fc ac e4 b8
       -0.00022143617 -0.00021804876 -0.00029778588 -0.00010904108
000180 93 fe a6 38 ad f1 c3 b9 47 56 05 ba 28 5d 9c b9
       7.962915e-05 -0.0003737336 -0.00050864037 -0.00029824045
000190 44 c1 33 38 23 4a 7e b9 04 57 a5 b9 82 58 6d b9
       4.285692e-05 -0.00024250946 -0.00031536084 -0.00022635053
0001a0 3d 99 60 b9 7e d6 2f b9 32 c0 96 b7 3c ac 9d 38
       -0.0002141939 -0.00016769205 -1.7970891e-05 7.5184245e-05
0001b0 a1 ca a2 b7 51 6f 9f b7 a8 5a cd b7 b7 e1 79 37
       -1.9406261e-05 -1.9006113e-05 -2.448012e-05 1.489411e-05
0001c0 57 28 f3 b4 e7 ff 3c b7 86 20 84 b8 a4 87 82 b8
       -4.5291628e-07 -1.1265255e-05 -6.3003085e-05 -6.224148e-05
0001d0 ad fa a4 38 eb 35 83 38 6b ca c9 b8 e7 21 10 b9
       7.8668214e-05 6.25661e-05 -9.62213e-05 -0.0001374554
0001e0 6e 0a 28 b9 0d c0 22 b9 8b 9d 3b b9 15 6a 05 39
       -0.00016025614 -0.00015521068 -0.00017892399 0.00012723387
0001f0 99 8b 40 38 f2 7c ab b9 bb 7f e7 b9 fb 98 83 b9
       4.5906378e-05 -0.00032708753 -0.0004415492 -0.00025100246
000200 4f ef 10 38 23 75 85 b9 bb 94 51 b9 4c a4 29 b9
       3.455515e-05 -0.0002545501 -0.000199872 -0.00016178301
000210 2c 08 70 b9 fb 81 ab b9 53 3a b2 b6 34 bc 6c 39
       -0.00022891228 -0.00032712505 -5.311603e-06 0.00022576825
000220 3f 43 c6 39 f6 37 86 36 93 64 b7 b8 e8 99 27 37
       0.00037815605 4.000026e-06 -8.7448534e-05 9.98981e-06
000230 63 94 09 36 f8 8f da 36 57 b1 d6 b6 9c e9 f7 37
       2.0500963e-06 6.5136664e-06 -6.398342e-06 2.9553477e-05
000240 f9 22 ce 38 f0 cc 81 38 6c 91 19 38 45 bb 7f b9
       9.8293596e-05 6.189372e-05 3.6613477e-05 -0.00024388458
000250 49 2c 54 b9 ee 7c e6 b8 06 8d 27 38 17 0d 2a 39
       -0.00020234393 -0.000109905246 3.994724e-05 0.0001621734
000260 32 5b 64 39 f9 62 67 38 14 ca 97 b9 c3 69 80 39
       0.00021777747 5.5166867e-05 -0.00028951524 0.0002449286
000270 5b d4 b1 39 c0 07 b1 38 7d 7c 9b 37 f0 81 ff b8
       0.00033918288 8.441461e-05 1.853541e-05 -0.0001218355
000280 fb 09 9b b9 71 03 8a b9 bb f7 dc 38 d8 90 cc 39
       -0.0002957134 -0.00026323975 0.00010536561 0.0003901783
000290 c1 a8 e5 39 4c 64 d5 39 9e 64 47 b8 c7 b9 37 38
       0.00043804015 0.00040701253 -4.7539004e-05 4.380362e-05
0002a0 0b 64 ab 37 cf ad 22 35 9f 52 a0 35 bf 97 74 38
       2.0431375e-05 6.060263e-07 1.1944975e-06 5.8315458e-05
0002b0 c7 27 27 39 e9 81 60 39 fc a5 80 b8 e6 08 b1 b8
       0.0001594118 0.000214107 -6.1344326e-05 -8.441675e-05
0002c0 2e f2 5b b9 bc a1 3d 39 44 c7 4a 39 f5 70 c8 39
       -0.00020975686 0.00018084695 0.00019338453 0.00038231132
0002d0 e1 5e b5 39 c5 83 c4 b8 79 32 15 b9 af 48 d2 b8
       0.000345937 -9.370552e-05 -0.0001422855 -0.00010027119
0002e0 6a ef 93 39 90 e5 01 3a cb 8d a6 39 68 7e a7 39
       0.00028216402 0.0004955167 0.0003176763 0.00031946902
0002f0 00 c6 3d b5 fa ca 18 b9 4e e8 13 39 40 bb 14 3a
       -7.0696115e-07 -0.00014571464 0.00014105553 0.00056736544
000300 9b 0d 20 3a 25 13 07 3a 08 32 05 38 76 cc 74 37
       0.0006105543 0.0005152694 3.1756266e-05 1.4591138e-05
000310 4c df 15 38 cb 6a 03 39 91 b8 cd 37 c8 12 80 39
       3.573233e-05 0.00012532917 2.452385e-05 0.00024428056
000320 1b 91 7d 39 14 9d 53 39 b8 73 79 39 89 37 1b 38
       0.00024182016 0.00020181044 0.00023789599 3.70066e-05
000330 29 a0 86 39 28 6e 90 39 ac a5 85 39 ed 49 29 3a
       0.000256778 0.00027547893 0.00025491172 0.0006457854
000340 45 5e 8d 39 be 5a 81 b9 32 59 d8 b9 7f cd 35 b9
       0.00026963852 -0.00024672406 -0.00041265186 -0.00017338058
000350 e8 9a ed 39 05 1a 0a 3a 61 3e be 39 8d 8f 1c 3a
       0.00045319577 0.00052681594 0.000362861 0.00059723185
000360 d6 ef c5 39 ba 96 c6 38 1b e7 49 39 d4 dc 3a 3a
       0.0003775346 9.469451e-05 0.00019254947 0.0007128243
000370 f4 40 fc 39 2c be b3 39 e9 10 38 b8 c2 d2 3b 36
       0.0004811358 0.0003428323 -4.3884767e-05 2.7987849e-06
000380 5e 71 11 38 7b ac 43 39 0a 0f 5b 39 75 16 9a 39
       3.4676275e-05 0.00018660903 0.0002089107 0.000293899
000390 5b 49 5c 39 94 63 3b 39 a2 50 b9 39 ae e9 11 39
       0.00021008162 0.00017870805 0.00035346026 0.0001391533
0003a0 0b 65 35 39 b4 1b e0 39 b6 82 c1 39 99 1d 16 3a
       0.00017299147 0.0004274525 0.00036909216 0.00057264563
0003b0 f1 7b f3 37 c2 8a c4 b9 68 80 79 b9 e1 2e 1b 38
       2.9025572e-05 -0.00037487416 -0.00023794326 3.699854e-05
0003c0 4d 52 d3 38 89 2f 1c 39 c8 ed be 37 ce 87 9b 39
       0.00010076594 0.00014895028 2.276049e-05 0.00029665086
0003d0 bb 0a 61 39 64 65 bc 39 e9 a5 c2 39 a1 e6 d6 39
       0.0002146167 0.00035933696 0.00037126176 0.00040989093
0003e0 8b 2d ca 39 e4 b2 6c 39 dc ae 21 37 d2 21 ea b7
       0.00038562375 0.00022573356 9.63706e-06 -2.7910723e-05
0003f0 83 98 f8 38 5f 47 86 39 65 ec bc 39 7d e5 c6 39
       0.00011853969 0.00025611647 0.00036034282 0.00037936485
