lightning_logs/Models/Model_L2/checkpoints/model-epoch=02-.ckpt (torch, 368148 bytes, 48 tensors)

classifier.1.weight f4 [32, 784]
0	0x390cd4bc	0.0001343069
1	0x3908bf9c	0.00013041351
2	0x3a65b44b	0.00087625225
3	0x3a484fec	0.0007641304
4	0xba9bfb5f	-0.0011900476
5	0xbba41d86	-0.0050084023
6	0xbba12624	-0.004917877
7	0x3c8d8936	0.017277341
8	0x3c9d8d9c	0.019232564
9	0x3cb794a1	0.022409739
10	0xbd1194d5	-0.035542328
11	0x3bba8a13	0.0056927293
12	0xbd04fabc	-0.03246568
13	0x3b3f5bf3	0.0029199093
14	0xbc36486a	-0.011125663
15	0x3c8a8c4b	0.0169126
16	0xbcfbcea0	-0.030738175
17	0xbce57644	-0.028010495
18	0x3bd3811f	0.0064546014
19	0xbc1c7f4b	-0.009551833
20	0x3ca58562	0.020205203
21	0x3b8c517b	0.004282174
22	0xbc30cadc	-0.010790553
23	0xbc3186a1	-0.010835321
24	0xba35e674	-0.0006938942
25	0x3b487d05	0.0030592096
26	0xba095ab8	-0.00052396534
27	0xb9a82392	-0.0003206996
28	0xba26630f	-0.00063471583
29	0xba17748d	-0.000577756
30	0x3b8ad1ab	0.00423642
31	0x3bb6b403	0.0055756583
32	0x3c3875a0	0.011258513
33	0x3cd2a28b	0.025712272
34	0xbb6b570c	-0.0035910038
35	0x3d3bb7e8	0.045829684
36	0x3d1f402e	0.038879566
37	0x3c5ee390	0.01360406
38	0x3bc4104e	0.005983389
39	0x39cefb87	0.00039478784
40	0xbcc0f970	-0.023556441
41	0x3c5fb4a3	0.013653907
42	0x3c30d87d	0.010793802
43	0x3c97f71e	0.018550452
44	0x3ba09a6b	0.0049012206
45	0xbadb8736	-0.001674867
46	0x3cf73e9b	0.03018122
47	0xbc909d5f	-0.017653165
48	0x3cad47e9	0.021152453
49	0x3cd32a20	0.025776923
50	0x3c1a4070	0.009414777
51	0xbcc9bca2	-0.02462608
52	0xba7cc7a0	-0.00096427836
53	0xbbfdde35	-0.0077474364
54	0xbc0fd661	-0.008779139
55	0xb9aad92b	-0.0003258673
56	0xb918be0b	-0.00014566646
57	0xb98a8143	-0.0002641772
58	0x3a5d0e98	0.00084326556
59	0x3c124321	0.008927138
60	0x3c8309de	0.015995916
61	0xbb3d2150	-0.0028858967
62	0x3cac54cf	0.021036534
63	0x3c150e0c	0.009097587
64	0x3bc1d5ee	0.005915395
65	0xbc9a99da	-0.01887219
66	0x3cfb52a8	0.030679062
67	0x3cd0f2dc	0.02550643
68	0x3be81d44	0.007083567
69	0x3d15e23a	0.0365927
70	0x3c8fb8f9	0.017544257
71	0x3ce410ee	0.027840104
72	0x3d19383e	0.037407152
73	0xbc90ce8d	-0.017676616
74	0x3d0345c0	0.03204894
75	0xbcbb376c	-0.022853576
76	0xbcb9fb20	-0.022702754
77	0x3cb5d964	0.022198386
78	0xbc0e1f3a	-0.008674437
79	0x3c26a86e	0.010171993
80	0x3c906f57	0.017631216
81	0xbb9d36c9	-0.0047977907
82	0xbcb122c7	-0.021623028
83	0xba36996d	-0.0006965611
84	0xbabaccf0	-0.001425175
85	0x3a88c952	0.0010435975
86	0x3c39a6ef	0.011331304
87	0x3c8d3932	0.017239187
88	0x3cc2da61	0.023785772
89	0x3bfbcd97	0.0076844203
90	0x3cd1cb9e	0.025609788
91	0x39f1e430	0.00046137115
92	0x3d168d9e	0.03675615
93	0x3c52353a	0.012830073
94	0xbb1350c2	-0.0022478555
95	0xbb43c40c	-0.0029871492
96	0x3c302af4	0.010752428
97	0xbc1ae7fe	-0.009454725
98	0xbcadfa31	-0.021237465
99	0x3c154cd8	0.009112559
100	0xbcefff73	-0.029296612
101	0xbae9e3c9	-0.0017844375
102	0x3ca1e89b	0.019764235
103	0x3d0c7f80	0.03430128
104	0x3d058213	0.03259475
105	0x3d3a1239	0.045427535
106	0x3bf8312e	0.007574222
107	0xbc1d732f	-0.009609981
108	0x3c0c7e0f	0.008574977
109	0x3c7cf59d	0.015439418
110	0x3bde2483	0.006779255
111	0x3b210917	0.0024572068
112	0xba839326	-0.001003836
113	0x3ae2e1cf	0.0017309728
114	0x3c88dd71	0.016707154
115	0x3ceaa75c	0.028644256
116	0xbb180ada	-0.0023199827
117	0x3cf1be11	0.029509576
118	0xbb8e0c62	-0.0043349722
119	0x3be58295	0.007004092
120	0x3ce14dce	0.02750292
121	0x3c3d9a43	0.011572423
122	0x3cabdecd	0.020980263
123	0x3d119fac	0.035552666
124	0xbcb3fa37	-0.021969898
125	0xbb65626e	-0.0035001296
126	0xbbccb2b1	-0.0062468876
127	0x3cdd2548	0.026995316
128	0x3c697fab	0.01425163
129	0xbb1c7842	-0.002387539
130	0xbbdee875	-0.0068026134
131	0xbcd56682	-0.026049856
132	0x3c942106	0.018082153
133	0x3cae056f	0.021242825
134	0xbac6a541	-0.0015155451
135	0x3d0ec4e1	0.034855727
136	0x3c93a4c8	0.01802291
137	0xbc906795	-0.017627517
138	0xbc8f45c8	-0.017489329
139	0x3b2c1b1a	0.002626127
140	0xbb5c803b	-0.0033645767
141	0x3bc55171	0.0060216715
142	0x3ca16229	0.019700127
143	0x3cbca7d0	0.023029238
144	0x3d2b342d	0.041797806
145	0x3cf6fa58	0.03014867
146	0xbbc66add	-0.0060552196
147	0x3cb4a59d	0.022051627
148	0xbaa3abb9	-0.001248709
149	0xbbd8a146	-0.006611022
150	0x3cadc755	0.021213213
151	0x3af0bfec	0.0018367744
152	0xbc5c6350	-0.013451412
153	0xbbb7517c	-0.0055944305
154	0xbc8f1a77	-0.017468674
155	0xbc88a114	-0.01667837
156	0xbd13a441	-0.036045317
157	0x3ce80475	0.028322438
158	0x3c094180	0.008377433
159	0x3cd864bb	0.02641522
160	0x3c34f36e	0.011044366
161	0xbbfb56f2	-0.007670277
162	0xbbea6368	-0.0071529634
163	0x3cf280e4	0.029602475
164	0xbc5da3ad	-0.013527793
165	0xbce92ff3	-0.028465247
166	0xbcf447c5	-0.029819379
167	0xbc1b1ffe	-0.009468077
168	0x3b7fb1d3	0.0039015904
169	0x3c211a81	0.009832979
170	0x3be7e44b	0.007076775
171	0x3c6555b6	0.013997486
172	0xb95a18c2	-0.00020799323
173	0xbc759895	-0.014989992
174	0xb98b9b6b	-0.0002662794
175	0xbc3c4296	-0.011490485
176	0xbb5b5adb	-0.0033470902
177	0xbc6b5e33	-0.014365721
178	0xbb5e207b	-0.0033893872
179	0xbcc22c3b	-0.023702731
180	0x3c79e393	0.015252012
181	0x3cffb451	0.031213911
182	0xbcfd2aaf	-0.030904142
183	0xbc8fe8c4	-0.017567046
184	0xbd17d689	-0.03706983
185	0x39779913	0.0002361278
186	0x3c9d9d9a	0.01924019
187	0x3c60457a	0.0136884395
188	0xbc848f19	-0.016181516
189	0xbd0312a2	-0.03200019
190	0x3d479ca1	0.048733357
191	0x3cf7f9df	0.030270515
192	0xbab01751	-0.0013434683
193	0x3c8886bf	0.016665814
194	0xbcb49428	-0.022043303
195	0x3c0ed3d0	0.008717492
196	0xb782edfb	-1.5608026e-05
197	0x3ad6c8e9	0.001638678
198	0x3cc2b05b	0.023765733
199	0x3cbfa644	0.023394711
200	0x3c5fc080	0.013656735
201	0x3c4ec91f	0.012621193
202	0x3ca9c854	0.020725407
203	0x3bac11eb	0.0052511594
204	0x3c4d0eec	0.012515765
205	0xbb94f058	-0.004545253
206	0x3bae4937	0.0053187865
207	0x3c5b2ebf	0.013377844
208	0xba21f2c5	-0.0006177838
209	0xbc03362e	-0.008008523
210	0xbcedfcdd	-0.029051239
211	0xbc968f9c	-0.018379025
212	0xbc458800	-0.012056351
213	0x3c4893a7	0.012242234
214	0x3ca5b5e0	0.020228326
215	0xbc05d2ee	-0.008167965
216	0x3ba64d64	0.0050751437
217	0x3c899227	0.016793324
218	0x3d0b60f2	0.034028
219	0x3b8839da	0.004157287
220	0xbc5dbabe	-0.013533292
221	0xbae8c4c2	-0.0017758834
222	0xbd11f362	-0.0356325
223	0xbca08851	-0.01959625
224	0xba4877e5	-0.000764726
225	0x3c37a08b	0.01120771
226	0x3ba11f25	0.004917043
227	0xbc4e4684	-0.012590054
228	0xbc61fb96	-0.013792893
229	0xbbe8a5ce	-0.0070998436
230	0xbc5f976c	-0.013646942
231	0x38dfc86a	0.00010670799
232	0x3a406710	0.0007339576
233	0x3c68aa76	0.014200797
234	0xbc13faa7	-0.009031928
235	0x3c57bfdf	0.013168304
236	0x3ccdbacc	0.025113486
237	0x3ca0fdfd	0.019652361
238	0x3b4c71ca	0.0031195753
239	0x3cba42d9	0.022736954
240	0x3c1fcf93	0.009754079
241	0xbc874ed7	-0.016517086
242	0x3ca1521f	0.019692479
243	0x3ccc08bc	0.024906509
244	0x3c95fe2e	0.018309679
245	0xbae98dab	-0.001781871
246	0xbc4f30d4	-0.012645919
247	0xbc8dd41b	-0.017313054
248	0xbbbb0793	-0.00570769
249	0xbbc90afb	-0.006135342
250	0xbd0e036c	-0.034671232
251	0xbc4a2585	-0.012338047
252	0xbc175a06	-0.009237772
253	0xbba761dd	-0.0051081018
254	0xbc4df2c6	-0.012570089
255	0xbc90b86c	-0.017666064

classifier.1.bias f4 [32]
0	0x3941f057	0.00018495448
1	0x3985cfef	0.0002552266
2	0xba84e0b4	-0.0010137768
3	0xb9f9e653	-0.00047664586
4	0xb68381be	-3.919208e-06
5	0xb88e0699	-6.7723166e-05
6	0xb93d7062	-0.0001806631
7	0x398b9df4	0.0002662983
8	0x398785ba	0.0002584884
9	0x39c78e56	0.00038062286
10	0x3958610b	0.00020635517
11	0x390e4cea	0.00013570828
12	0x36995fc0	4.570902e-06
13	0xb8154fdb	-3.559874e-05
14	0xb936e043	-0.00017440417
15	0xb983cfee	-0.00025141187
16	0xb849a717	-4.807775e-05
17	0x393988c2	0.00017693921
18	0x3929a803	0.00016179685
19	0xba78ff65	-0.0009498506
20	0xb998f108	-0.00029171281
21	0x39c6beec	0.0003790775
22	0x3a1b7c52	0.0005931306
23	0x394a3d75	0.00019287116
24	0xba197ddf	-0.0005855243
25	0x3a12a3c2	0.000559386
26	0xb8f9aeaa	-0.00011905779
27	0xb9dff735	-0.00042718058
28	0x38c70567	9.490066e-05
29	0xb8b23014	-8.496657e-05
30	0x372bc257	1.02376425e-05
31	0xb870e1a4	-5.7430603e-05

classifier.2.weight f4 [32]
0	0x3f6fa0f3	0.93604964
1	0x3f758dad	0.95919305
2	0x3f71a0c1	0.94385916
3	0x3f7ee2af	0.9956464
4	0x3f72b437	0.94806236
5	0x3f6fa1d7	0.93606323
6	0x3f732beb	0.9498889
7	0x3f7117fc	0.9417722
8	0x3f71c61c	0.94442916
9	0x3f748257	0.9551138
10	0x3f77dcd9	0.9682136
11	0x3f74fb6f	0.9569616
12	0x3f750a18	0.95718527
13	0x3f779f91	0.96727854
14	0x3f72ff6e	0.94921005
15	0x3f78c66e	0.9717778
16	0x3f70627a	0.93900263
17	0x3f7631d3	0.96169776
18	0x3f709eac	0.93992114
19	0x3f7047d7	0.9385962
20	0x3f751804	0.9573977
21	0x3f7346a3	0.9502966
22	0x3f700c87	0.93769115
23	0x3f7ac9d6	0.9796423
24	0x3f77d3f6	0.968078
25	0x3f784408	0.9697881
26	0x3f748f94	0.9553158
27	0x3f74acab	0.9557597
28	0x3f73f36f	0.95293325
29	0x3f71a4e2	0.94392216
30	0x3f72b469	0.94806534
31	0x3f74b3b6	0.9558672

classifier.2.bias f4 [32]
0	0x3c961326	0.018319678
1	0x3b5cb8a4	0.003367939
2	0xbca0f474	-0.019647814
3	0x3cc65b06	0.024213325
4	0xbc736911	-0.014856593
5	0x3c96f2d3	0.018426334
6	0xbc41ca26	-0.011827981
7	0x3b948c06	0.0045332937
8	0xbb8f6907	-0.004376534
9	0x3b709558	0.003671011
10	0xbbbad8c1	-0.0057021086
11	0x3b849782	0.0040463815
12	0x3ba8bde3	0.0051495894
13	0x3c5c3e32	0.013442563
14	0x3c6f7296	0.014614722
15	0x3c9764b4	0.018480636
16	0xbd0e610b	-0.034760516
17	0x3c802518	0.015642688
18	0xbb8e977e	-0.0043515554
19	0xbc5685a3	-0.013093385
20	0x3cef009b	0.029175093
21	0xbb7e0fde	-0.0038766782
22	0xbc234982	-0.009966256
23	0x3cc9c61a	0.024630595
24	0x3cf6632d	0.030076588
25	0x3c125ee3	0.008933756
26	0x3c882bc3	0.01662243
27	0x3ce32ced	0.027731383
28	0xbbdd9b41	-0.0067628925
29	0x3ba3e9b2	0.005002224
30	0xbc3ee70e	-0.011651767
31	0xbca9f161	-0.020744981

classifier.2.running_mean f4 [32]
0	0x3d2f6898	0.042824358
1	0x3f36d4b0	0.71418285
2	0x3e3484d5	0.17628796
3	0x3f3a43c1	0.72759634
4	0xbea7f2a8	-0.3280232
5	0x3f2478be	0.6424674
6	0x3f5f9bb6	0.8734697
7	0x3d5e351c	0.054249868
8	0x3fedf4db	1.8590349
9	0x3feacce1	1.8343774
10	0xbe1426f8	-0.1446799
11	0x3fdaf723	1.710667
12	0x3f5a3804	0.85241723
13	0xbeac0d9f	-0.33604142
14	0x40007bb6	2.0075507
15	0x3fb6a2be	1.4268415
16	0x3f9fae7c	1.2475123
17	0xbf9d18a2	-1.2273142
18	0xbf219ba5	-0.6312812
19	0x3ecf21cf	0.4045548
20	0xbf5b9716	-0.85777414
21	0x3fac687a	1.3469384
22	0xbe896259	-0.26832846
23	0xbe513287	-0.20429431
24	0xc0019739	-2.024855
25	0x3fd391b5	1.6528841
26	0x3f96853a	1.1759408
27	0xbf02b426	-0.51056135
28	0xbd96f256	-0.07370441
29	0x3ec79443	0.38980302
30	0x3f493e85	0.7861102
31	0x3fbbdd22	1.4676859

classifier.2.running_var f4 [32]
0	0x3fd8e1a8	1.6943865
1	0x3f8225ef	1.0167826
2	0x3f58becc	0.8466613
3	0x3ee3c79c	0.44488227
4	0x40076589	2.1155722
5	0x3f92b5b0	1.1461697
6	0x3f7919a4	0.9730475
7	0x3f81ae27	1.0131272
8	0x3ff9daf7	1.9519948
9	0x3ff7d47d	1.9361721
10	0x402613a0	2.5949478
11	0x3f828127	1.0195664
12	0x3f536fb7	0.8259234
13	0x3f898d98	1.0746336
14	0x3ee883b5	0.45412984
15	0x3fdb1977	1.7117146
16	0x3fcd25f2	1.6027205
17	0x3f3be885	0.7340167
18	0x3fe5987a	1.7937157
19	0x3f52b57a	0.8230816
20	0x3f324954	0.6964314
21	0x3ee1c632	0.44096524
22	0x3f6b2abb	0.91862077
23	0x4028d9e6	2.6382995
24	0x3f5c24f9	0.85993916
25	0x3f6b17ea	0.91833365
26	0x3f8068cf	1.0031985
27	0x3f8f4b24	1.1194806
28	0x4027d744	2.6225138
29	0x3f4aa107	0.7915196
30	0x3f64ba84	0.893471
31	0x3f83147e	1.0240629

classifier.4.weight f4 [64, 32]
0	0x3de65f79	0.11248679
1	0x3e148db8	0.14507186
2	0x3b16eb36	0.002302838
3	0x3da732ac	0.08163962
4	0xbe16766d	-0.14693613
5	0x3e016eae	0.12639877
6	0x3dc2a62d	0.09504352
7	0x3d6b977c	0.057517514
8	0xbdc8444f	-0.09778654
9	0x3e028599	0.12746276
10	0x3d9aeadc	0.07564327
11	0xbe32fce9	-0.1747929
12	0xbd2b15c7	-0.041768815
13	0xbe185728	-0.14876997
14	0xbbb5f1d8	-0.0055525117
15	0x3dc71b5b	0.097220145
16	0x3e4a031d	0.1972775
17	0xbda9c5f7	-0.08289712
18	0xbdf1a2ae	-0.11798607
19	0xbe1d5379	-0.15363874
20	0xbd3ca6be	-0.046057455
21	0x3e2495c9	0.16072764
22	0x3e20d1bd	0.15705009
23	0xba8406b1	-0.0010072795
24	0xbdf1d74e	-0.11808644
25	0xbddb86d2	-0.10719074
26	0x3e1b7c7c	0.15184206
27	0x3e18ff6c	0.14941186
28	0x3db8ad3c	0.09017417
29	0xbcf261d5	-0.029587666
30	0xbe123e05	-0.14281471
31	0x3d073884	0.033012882
32	0xbcab92ed	-0.020944083
33	0x3e09d816	0.13461336
34	0xbd2239e2	-0.039605983
35	0x3e41de70	0.1893251
36	0xbdae0990	-0.08497918
37	0xbd6c6d61	-0.0577215
38	0xbdc099c2	-0.09404327
39	0xbd32232d	-0.043490577
40	0xbd12e4a5	-0.035862584
41	0xbd1b0043	-0.037842046
42	0x3e2bc9c0	0.1677618
43	0x3ced0e54	0.028937496
44	0x3e0b3c88	0.1359731
45	0xbddaa001	-0.106750496
46	0xbddf9e56	-0.10918872
47	0x3d59f60a	0.053213157
48	0xbd98f939	-0.074694104
49	0x3dcdd547	0.10050445
50	0xbe324cf2	-0.17412165
51	0x3c75812e	0.014984412
52	0xbd960fb5	-0.07327215
53	0xbdd67fdb	-0.10473605
54	0xbd35528b	-0.044268172
55	0x3d3dde76	0.046354733
56	0xbda54599	-0.08069915
57	0x3e1b08a2	0.15140012
58	0x3ddee071	0.108826526
59	0xbe1fa63e	-0.1559076
60	0x3dfa8e61	0.12234188
61	0x3caa271e	0.020770606
62	0x3db39ef5	0.08770553
63	0x3da379aa	0.0798219
64	0xbd1ba431	-0.037998382
65	0x3e3d891a	0.18509331
66	0xbdf362c6	-0.11884074
67	0x3c53cb12	0.012926834
68	0xbcadd7f4	-0.021221139
69	0x3d88384c	0.06651363
70	0xbd4a5ca0	-0.04940474
71	0xbe2c818b	-0.16846292
72	0xbd892841	-0.06697131
73	0xbc354324	-0.011063371
74	0x3e321056	0.17389044
75	0xbdb12601	-0.08649827
76	0x3dea2993	0.11433711
77	0xbe255bbd	-0.16148277
78	0xbd94725c	-0.07248375
79	0x3e28e89b	0.16494982
80	0xbc983a61	-0.018582525
81	0xbd4b4676	-0.049627744
82	0x3c0a5a29	0.008444347
83	0x3e2e0581	0.16994287
84	0x3e2a6953	0.1664174
85	0xbdffce4f	-0.12490522
86	0x3defdb92	0.117118016
87	0x3cd42cd6	0.025900286
88	0xbd9d1ff1	-0.07672108
89	0x3d88bee8	0.066770375
90	0x3d99d66d	0.075116016
91	0xbd46d4c1	-0.04854274
92	0xbe14f408	-0.14546216
93	0xbd8ce00e	-0.068786725
94	0xbdf2879e	-0.11842273
95	0x3d8a9b54	0.06767908
96	0xbd517c03	-0.051143657
97	0x3c8a6832	0.016895387
98	0xbd83adec	-0.06429657
99	0xbda513b9	-0.080604024
100	0xbd921607	-0.07133108
101	0x3e0bccb6	0.1365231
102	0x3e03f6d1	0.12887122
103	0xbd5c5f5a	-0.05380187
104	0x3dbbaa05	0.09163288
105	0x3dfa0e4d	0.12209759
106	0x3db9a0a6	0.090638444
107	0x3d9f8f03	0.07790949
108	0xbc543a3a	-0.012953335
109	0xbd8b9009	-0.06814582
110	0xbd687253	-0.056749653
111	0x3e0c2dbb	0.1368932
112	0xbdbe5311	-0.092931874
113	0xbd4ffb79	-0.050776932
114	0xbd4661ab	-0.048432987
115	0xbddfbc8a	-0.10924633
116	0xbd56dd93	-0.052457403
117	0x3dddbbce	0.108268365
118	0x3c84c6c9	0.01620807
119	0x3cbb7e4c	0.022887371
120	0x3da58f01	0.080839165
121	0xbda9d5b0	-0.08292711
122	0xbdb87c56	-0.0900809
123	0x3c8e5cd9	0.017378258
124	0x3e2df831	0.16989209
125	0x3c2b35a6	0.0104498025
126	0xbe2ea702	-0.17055896
127	0xbe3214ee	-0.17390797
128	0xbdf2d072	-0.11856164
129	0x3dcd110c	0.10013017
130	0xbe2564cb	-0.1615173
131	0x3dbe0b72	0.09279527
132	0xbdffbbbc	-0.12486979
133	0xbe173ed5	-0.14770062
134	0x3df83161	0.12118793
135	0x3cf5188e	0.029918935
136	0x3b049ac5	0.0020233851
137	0x3d6793bd	0.05653738
138	0x3de3a6fc	0.11115834
139	0x3e0fb317	0.14033161
140	0x3d04331f	0.032275315
141	0x3daaddc4	0.0834308
142	0x3d4a61a9	0.049409542
143	0x3e0fd3ad	0.14045592
144	0x3d5d990f	0.054101046
145	0x3d03e929	0.03220478
146	0x3e172832	0.14761427
147	0xbdd1fcd9	-0.10253305
148	0x3d093dc8	0.033506185
149	0x3e1b5a51	0.15171172
150	0x3d8ed96d	0.069750644
151	0xbdb11db6	-0.08648245
152	0x3e338d77	0.17534433
153	0x3d529b89	0.05141786
154	0x3d622163	0.05520762
155	0x3c5f0a9b	0.013613368
156	0xbd7f9c17	-0.06240472
157	0xbde0f3c2	-0.10983993
158	0x3dcbc377	0.09949391
159	0x3e06948c	0.13142604
160	0xbdc6bc5e	-0.09703897
161	0xbd6e6cdb	-0.05820928
162	0xbe357965	-0.1772209
163	0xbc211649	-0.009831973
164	0x3e0d8bac	0.13822812
165	0x3df787e7	0.12086468
166	0xbe2980ac	-0.1655299
167	0x3dd9b487	0.10630136
168	0x3de9c0d4	0.11413732
169	0x3ddd05a9	0.10792095
170	0x3da66bb9	0.08126015
171	0xbe2770a7	-0.16351567
172	0x3e090de7	0.1338421
173	0x3cfb5d35	0.030684093
174	0xbc5184b6	-0.012787988
175	0xbda95b1d	-0.082693316
176	0x3d83adab	0.06429609
177	0x3da8f36e	0.082495555
178	0xbd2f2916	-0.042763792
179	0xbdab4f63	-0.08364751
180	0x3d44f356	0.048083626
181	0xbe061e20	-0.1309743
182	0x3ca86e1d	0.020560319
183	0xbda0a1e0	-0.07843375
184	0xbe10af47	-0.14129363
185	0x3d97ed6c	0.074183315
186	0xbd848ea9	-0.06472523
187	0x3e0177d4	0.12643367
188	0x3dde9405	0.10868076
189	0x3df1117e	0.117709145
190	0x3d97240c	0.07379922
191	0xbe115237	-0.14191519
192	0xbd261660	-0.040548682
193	0x3d0c4063	0.03424109
194	0xbc2e08c3	-0.010622206
195	0x3d58749d	0.052845586
196	0x3d30b05f	0.04313695
197	0xbb77671a	-0.0037750662
198	0x3a1aa1ec	0.0005898762
199	0xbd2cd23b	-0.04219268
200	0x3d525c3d	0.051357497
201	0xbe2175a5	-0.15767534
202	0xbd8c701a	-0.06857319
203	0xbddf4d04	-0.109033614
204	0xbc92777f	-0.017879246
205	0xbd0f998e	-0.03505855
206	0xbde9a00c	-0.1140748
207	0x3e0a837c	0.1352672
208	0xbcfd5e24	-0.030928679
209	0xbc98d043	-0.018653994
210	0x3d72dc2b	0.059292
211	0x3d9d7d73	0.07689943
212	0xbdb5bf8f	-0.088744275
213	0x3d048381	0.032351974
214	0x3e158e31	0.14605023
215	0x3b48ed7c	0.003065913
216	0x3dbfb946	0.0936151
217	0x3e1a4625	0.1506582
218	0xb7e142b4	-2.6853151e-05
219	0x3e1d6cf5	0.15373595
220	0x3c7fb577	0.015607229
221	0xbe274e83	-0.16338544
222	0x3b804975	0.0039150068
223	0xbd5c2561	-0.053746585
224	0x3d759f6b	0.059966486
225	0xbdab670a	-0.083692625
226	0xbcee7f4d	-0.029113436
227	0x3d844911	0.06459249
228	0xbde82b0e	-0.11336337
229	0xbe2881c7	-0.16455756
230	0x3e1be60e	0.15224478
231	0xbc2c5ffb	-0.01052093
232	0x3e29746f	0.16548322
233	0x3e0c1ff9	0.13684072
234	0x3d0fbebf	0.03509402
235	0x3da540f4	0.080690295
236	0xbd2236c1	-0.039603
237	0xbd83a76f	-0.0642842
238	0x3de9b4cd	0.11411438
239	0xbd4ba696	-0.049719416
240	0x3ddd3697	0.10801428
241	0x3d78a773	0.060706567
242	0x3e0c49cb	0.13700025
243	0x3c91f324	0.017816134
244	0xbbd584ee	-0.0065160906
245	0xbdc71db4	-0.09722462
246	0x3dd6e7c5	0.10493425
247	0xbd9de0a6	-0.07708864
248	0xbe03d803	-0.1287537
249	0x3e0868b2	0.13321188
250	0xbe08cdfc	-0.13359827
251	0x3dcb93b7	0.09940284
252	0xbdf1bfb7	-0.11804145
253	0xbd91d5fa	-0.07120891
254	0xbd010de4	-0.031507388
255	0xbdd3d0a2	-0.10342528

classifier.4.bias f4 [64]
0	0x3d0c4a3d	0.034250487
1	0xbd3630e1	-0.04448021
2	0xbd9e8bf6	-0.07741539
3	0xbccf61e0	-0.025315225
4	0xbb7653d0	-0.0037586577
5	0x3dc9ae02	0.098476425
6	0x3d920053	0.07128968
7	0x3a91f967	0.001113695
8	0x3dbd9c3f	0.09258317
9	0x3ca50080	0.02014184
10	0xba94ba27	-0.0011346982
11	0x3b607076	0.003424672
12	0xbc14b9ce	-0.009077502
13	0x3dcc5675	0.09977428
14	0x3d9c1ad3	0.07622304
15	0xba062c88	-0.000511833
16	0x3dc7101f	0.09719872
17	0x3d6e05b6	0.058110915
18	0xbc07d036	-0.008289387
19	0xb888079a	-6.486401e-05
20	0x3d500bd6	0.050792538
21	0x3b4c8018	0.003120428
22	0x3c87544e	0.016519692
23	0x38d24cc5	0.0001002788
24	0xbb3d225f	-0.0028859598
25	0x3a85e800	0.0010216236
26	0x3b6cf465	0.0036156413
27	0xbb21cea2	-0.0024689813
28	0x3c0c6230	0.008568332
29	0xbd2409a4	-0.040048257
30	0x3b986cee	0.0046516573
31	0xbdb6844e	-0.08911954
32	0xba92cf13	-0.0011200629
33	0x3a9162af	0.0011092032
34	0xbd372cb1	-0.044720355
35	0x3b2817dc	0.0025648987
36	0xb7887dee	-1.6271104e-05
37	0xbdae44c4	-0.0850921
38	0x3d5b4c99	0.053539846
39	0xbd00d885	-0.03145649
40	0xbd74a52f	-0.059727844
41	0xbcce79f6	-0.02520464
42	0xbbacf9c1	-0.0052787964
43	0x3a8385fd	0.0010034438
44	0x3d9e2d91	0.07723535
45	0x3dbc72ec	0.09201607
46	0x3d1d18e8	0.03835383
47	0x3a325cab	0.000680397
48	0x3a63e1e4	0.0008693023
49	0x3dd1eaec	0.10249886
50	0xbcf41e90	-0.02979973
51	0xba2b629b	-0.00065378257
52	0xb9e7816d	-0.00044156183
53	0xbd80f381	-0.06296445
54	0x3d5d812e	0.054078273
55	0xb85b3088	-5.2258867e-05
56	0x3d6c8020	0.057739377
57	0xbdd09840	-0.101852894
58	0xbc18ab24	-0.009318147
59	0xbdcc0954	-0.09962717
60	0xbda03dd0	-0.0782429
61	0xbc99297c	-0.01869654
62	0xbbf64f34	-0.007516766
63	0x3d4c310a	0.049851455

classifier.5.weight f4 [64]
0	0x3f73daad	0.9525555
1	0x3f71a1b0	0.9438734
2	0x3f719788	0.94371843
3	0x3f71bb9a	0.9442688
4	0x3f71f298	0.94510794
5	0x3f70bde1	0.9403973
6	0x3f786728	0.97032404
7	0x3f74806e	0.9550847
8	0x3f73862b	0.951266
9	0x3f7128de	0.94202983
10	0x3f73b92b	0.9520442
11	0x3f7214cf	0.94563
12	0x3f72edcc	0.948941
13	0x3f70a131	0.9399596
14	0x3f6fa797	0.93615097
15	0x3f76d483	0.9641802
16	0x3f79b216	0.9753736
17	0x3f6f9d4f	0.9359941
18	0x3f7104e2	0.94148076
19	0x3f731293	0.94950217
20	0x3f73e512	0.9527141
21	0x3f6ebbda	0.9325539
22	0x3f6f60ca	0.93507063
23	0x3f70abd9	0.9401222
24	0x3f769673	0.9632332
25	0x3f7399fb	0.9515683
26	0x3f79a78b	0.97521275
27	0x3f711412	0.9417125
28	0x3f71af35	0.9440797
29	0x3f71a43d	0.9439123
30	0x3f725406	0.9465946
31	0x3f729e77	0.9477305
32	0x3f702188	0.93801165
33	0x3f6f85de	0.9356364
34	0x3f743025	0.9538596
35	0x3f73dac0	0.9525566
36	0x3f763533	0.96174926
37	0x3f734994	0.95034146
38	0x3f7d49bf	0.9894065
39	0x3f6f7f41	0.9355355
40	0x3f6f5ec6	0.9350399
41	0x3f7206a0	0.9454136
42	0x3f77aa7b	0.9674451
43	0x3f746a77	0.9547495
44	0x3f7414ac	0.9534404
45	0x3f71de65	0.9447997
46	0x3f794fdd	0.97387487
47	0x3f71c73c	0.9444463
48	0x3f715678	0.94272566
49	0x3f72a57a	0.9478375
50	0x3f730279	0.9492565
51	0x3f73d8b3	0.9525253
52	0x3f7274cb	0.9470946
53	0x3f741a14	0.9535229
54	0x3f71a2c4	0.94388986
55	0x3f72ebc5	0.94891006
56	0x3f6f8be8	0.93572855
57	0x3f70ea8e	0.941079
58	0x3f72eff3	0.94897383
59	0x3f78048e	0.9688195
60	0x3f721738	0.9456668
61	0x3f74df1b	0.9565293
62	0x3f70f419	0.94122463
63	0x3f72dccf	0.9486818

classifier.5.bias f4 [64]
0	0x3cf55994	0.02994994
1	0xbc39baca	-0.011336038
2	0x3be3210f	0.006931431
3	0xbc4b0132	-0.012390422
4	0xbcc3d278	-0.02390407
5	0xbc5e175d	-0.013555375
6	0x3cc33af7	0.023831828
7	0x3c089e54	0.00833853
8	0x3d02e53e	0.031956904
9	0x3cfe198d	0.031018043
10	0xbc3e0c7d	-0.011599657
11	0x3c855d93	0.016279971
12	0xbc35136a	-0.011051992
13	0x3cf9756d	0.0304515
14	0x3cade02f	0.021225063
15	0x3c9c827b	0.019105187
16	0x3cd7963b	0.026316753
17	0x3c74210f	0.01490046
18	0x3cc14a04	0.023594864
19	0x3cf3e044	0.029770024
20	0x3ced03bf	0.02893245
21	0x3d547007	0.05186465
22	0xbcc9c7fb	-0.02463149
23	0xbb72976d	-0.0037016526
24	0x3c79bd30	0.01524286
25	0xbc0ecd40	-0.008715928
26	0x3d13d8ea	0.036095537
27	0x3c6f3639	0.01460033
28	0xbd2395c3	-0.039937746
29	0xbb826dae	-0.00398036
30	0xbcab2ace	-0.020894434
31	0x3ce7b052	0.028282318
32	0x3add7799	0.0016896605
33	0xbbed8cc7	-0.007249448
34	0xbb5ef8ac	-0.0034022732
35	0xbca89758	-0.020579979
36	0x3caf5287	0.021401657
37	0x3cf04e5b	0.029334238
38	0x3cf9d644	0.030497678
39	0x3a1ee326	0.00060610694
40	0x3c09a960	0.008402199
41	0xbc84cc63	-0.01621074
42	0x3cef5ee0	0.029220045
43	0xbca1e391	-0.019761832
44	0xbcab905b	-0.020942857
45	0xbca47d5a	-0.020079304
46	0x3ce9f125	0.02855737
47	0x3cb5a617	0.022173924
48	0x3cc169b4	0.023609973
49	0x3cb3204f	0.021865992
50	0xbc9fdb7a	-0.019513834
51	0x3c336c6a	0.010951141
52	0x3d242bd5	0.040080864
53	0xbd0fc8d5	-0.035103638
54	0xbc9cae46	-0.019126069
55	0xbc7d8ac3	-0.015474978
56	0x3c51b62e	0.012799783
57	0x3c7302dc	0.014832225
58	0xbc649c2f	-0.013953253
59	0x3ba60636	0.0050666584
60	0xbce40b09	-0.027837293
61	0x3cbdf4b2	0.023187969
62	0x3d2be60a	0.04196743
63	0xbce50c54	-0.02795998

classifier.5.running_mean f4 [64]
0	0x3e676290	0.22596192
1	0xbaee421a	-0.0018177659
2	0xbda1fef8	-0.079099596
3	0xbd2b9273	-0.04188771
4	0x3ed3801e	0.41308683
5	0x3e1859fd	0.14878078
6	0x3e01c748	0.12673676
7	0x3d1f9504	0.03896047
8	0x3d772e23	0.060346734
9	0x3d3e9c3f	0.046535727
10	0xbee118eb	-0.43964323
11	0x3e43de0f	0.19127677
12	0xbf089b36	-0.53361833
13	0x3d70a4c1	0.05875087
14	0x3e24227d	0.16028781
15	0xbdaaca04	-0.08339313
16	0xbc562c26	-0.013072049
17	0x3e986f56	0.29772443
18	0x3ca28625	0.019839356
19	0x3decfb16	0.11571328
20	0xbc3ed610	-0.011647716
21	0x3c2d946e	0.01059447
22	0x3e0490ed	0.1294591
23	0x3dbc69c7	0.09199863
24	0x3e25b8af	0.16183732
25	0xbe0df657	-0.13863502
26	0x3e2bfa10	0.1679461
27	0x3db82dd0	0.08993113
28	0xbec2d93b	-0.3805636
29	0xbd77a433	-0.060459327
30	0xbf12771f	-0.57213014
31	0x3e1e38b2	0.15451315
32	0xbe5d72ac	-0.21625775
33	0xbea98146	-0.3310644
34	0xbb964939	-0.0045863655
35	0x3e55ea76	0.20890221
36	0x3c180ef7	0.009280912
37	0x3db49724	0.0881789
38	0xbd3a76c2	-0.045523413
39	0xbe7b98ec	-0.24570054
40	0xbe9687c8	-0.29400468
41	0x3d0a4c58	0.033764213
42	0xbe08d035	-0.13360675
43	0xbdc311dc	-0.09524891
44	0x3e8f20a9	0.27954605
45	0x3e9b0dc4	0.3028394
46	0x3e197a53	0.14988069
47	0xbdfe99dc	-0.1243169
48	0xbf059881	-0.5218583
49	0x3e47e3bf	0.19520472
50	0x3e446df9	0.19182576
51	0xbf06f94a	-0.52724135
52	0xbe76a3a1	-0.24085857
53	0x3e33241b	0.17494242
54	0x3e218a16	0.15775332
55	0x3e8aca41	0.27107432
56	0x3e230d06	0.15922937
57	0x3cefd8f8	0.029278263
58	0x3e1fa7bc	0.1559133
59	0xbe225b82	-0.1585522
60	0xbde64ade	-0.112447485
61	0xbce03e5a	-0.027373482
62	0xbc0c8306	-0.00857616
63	0x3f0406cf	0.5157289

classifier.5.running_var f4 [64]
0	0x3dda1153	0.106478356
1	0x3d342a3b	0.043985587
2	0x3da5db8f	0.08098518
3	0x3d855189	0.06509692
4	0x3e7f507c	0.24933046
5	0x3e1fbada	0.15598622
6	0x3d881d85	0.066462554
7	0x3e04f23f	0.12983035
8	0x3de658e7	0.112474255
9	0x3e307147	0.17230712
10	0x3e2ded04	0.16984946
11	0x3e9b009f	0.3027391
12	0x3d64f8f5	0.055901486
13	0x3db33ee0	0.08752227
14	0x3d7955b0	0.060872734
15	0x3def1b37	0.11675113
16	0x3db92db2	0.09041919
17	0x3e707465	0.23481901
18	0x3e60401c	0.21899456
19	0x3e9284b1	0.2861686
20	0x3e3ac6a8	0.18239844
21	0x3dd4a9a3	0.10383918
22	0x3d63c881	0.055611137
23	0x3ddabed0	0.10680926
24	0x3eb715d8	0.35758853
25	0x3d0d4552	0.034489937
26	0x3e4f137d	0.20222278
27	0x3dc2886b	0.09498676
28	0x3d7b1825	0.061302323
29	0x3e1ac51d	0.15114255
30	0x3e3970e2	0.18109468
31	0x3e901750	0.28142786
32	0x3d4b4d55	0.049634296
33	0x3dd5c7d6	0.10438506
34	0x3e1da84c	0.15396231
35	0x3d891800	0.06694031
36	0x3dabec27	0.08394652
37	0x3dd488ef	0.103776805
38	0x3d878954	0.0661799
39	0x3d21997d	0.03945302
40	0x3ea5b62d	0.32365552
41	0x3ed7e12d	0.42163983
42	0x3dbe9313	0.09305396
43	0x3e41e18a	0.18933693
44	0x3de628b4	0.11238232
45	0x3e26a3ca	0.16273418
46	0x3e4433ea	0.19160429
47	0x3db10f62	0.08645512
48	0x3d597c5a	0.053097107
49	0x3e18b7c7	0.14913855
50	0x3e11d6e2	0.14242128
51	0x3ea9c1dd	0.33155718
52	0x3ec623a6	0.38699073
53	0x3e12a4ab	0.14320628
54	0x3d6f6df6	0.058454476
55	0x3dcedce5	0.10100726
56	0x3dc95371	0.09830368
57	0x3e09e0ff	0.13464735
58	0x3daba7a8	0.08381587
59	0x3e024455	0.12721379
60	0x3dfc98c4	0.12333825
61	0x3e870ba7	0.26376078
62	0x3da4ade0	0.080409765
63	0x3de22bbf	0.110435

classifier.7.weight f4 [16, 64]
0	0x3e11f11a	0.14252129
1	0x3d968d19	0.07351131
2	0x3decfd1f	0.115717165
3	0x3d4025d0	0.04691106
4	0xbdb0664b	-0.08613261
5	0xbdb408f0	-0.08790767
6	0x3d9c39e7	0.076282315
7	0x3dc4af7b	0.09603783
8	0xbd032a66	-0.032022856
9	0x3cfbd32d	0.030740345
10	0x3dc4962d	0.09598956
11	0xbda8aa43	-0.082356
12	0x3c50859b	0.0127271665
13	0xbd3a43ae	-0.0454747
14	0xbd5b2ac5	-0.053507585
15	0x3e062680	0.13100624
16	0x3df49651	0.11942733
17	0xbd464544	-0.0484059
18	0xbdc06563	-0.09394338
19	0x3de94d79	0.1139173
20	0xbd66d17f	-0.056352135
21	0xbd331572	-0.043721624
22	0x3e007b8a	0.12547126
23	0xbc2affd9	-0.010436975
24	0xbd8afa8f	-0.067860715
25	0xbd419c8b	-0.04726843
26	0x3d63ae84	0.055586353
27	0x3cbb645f	0.02287501
28	0x3dd047b6	0.10169928
29	0x3b981a1c	0.0046417844
30	0x3e014641	0.12624456
31	0xbd638734	-0.05554886
32	0x3da3423b	0.07971617
33	0x3d548710	0.05188662
34	0x3ca7040c	0.020387672
35	0x3d72067c	0.059088215
36	0xbd55c55a	-0.052190162
37	0xbd715ff1	-0.058929387
38	0x3d9e2628	0.077221215
39	0xbd9875ec	-0.07444367
40	0x3cc6ecaf	0.024282781
41	0xbdfc0106	-0.12304883
42	0x3dab709b	0.08371087
43	0xba86528c	-0.001024799
44	0x3da9288c	0.08259687
45	0xbdb67da0	-0.0891068
46	0x3dd85703	0.10563471
47	0x3c9347d0	0.017978579
48	0xbcfd6128	-0.030930117
49	0xbd67f8b3	-0.056633662
50	0xbd839b86	-0.06426148
51	0xbc3c0c92	-0.011477606
52	0x3c1ffe28	0.009765185
53	0xbdbeaf22	-0.09310748
54	0xbd1a3e18	-0.037656873
55	0xbd0928ec	-0.03348629
56	0x3cd29c73	0.025709366
57	0x3df3f5b3	0.11912098
58	0x3b051aca	0.0020310157
59	0x3d1a36e4	0.037650004
60	0xbdc906d0	-0.098157525
61	0xbdb24d3c	-0.087061375
62	0x3dcc831c	0.09985945
63	0xbd1509d8	-0.03638634
64	0x3db70ef3	0.08938398
65	0x3db4f656	0.08836047
66	0x3bdcf05a	0.0067425193
67	0xbd2aa52e	-0.041661434
68	0xbcab7848	-0.020931378
69	0xbd13ab9f	-0.036052343
70	0x3d7a0fe0	0.061050296
71	0x3de89ee7	0.11358433
72	0x3d677153	0.05650456
73	0xbd56d7f0	-0.052452028
74	0x3d81107f	0.063019745
75	0xbd988fa3	-0.074492715
76	0xbdb0d7f1	-0.086349376
77	0xbd14054d	-0.036137868
78	0x3d94f3b9	0.07273049
79	0xbb3396c2	-0.002740309
80	0xbd2b0b7b	-0.041758996
81	0xbd14a993	-0.03629453
82	0x3d15679e	0.03647577
83	0xbd89cd49	-0.06728608
84	0xbd6dd32d	-0.05806272
85	0xbd06edb5	-0.03294154
86	0x3d4a11ad	0.049333263
87	0x3c6b6b88	0.014368899
88	0xbdefbb8e	-0.11705695
89	0xbd9170d9	-0.07101602
90	0x3da05b12	0.0782987
91	0x3d6f772f	0.05846327
92	0x3db94066	0.09045486
93	0xbdb900db	-0.09033366
94	0x3dc90fc2	0.09817459
95	0x3db05a25	0.08610944
96	0x3d870c43	0.065941356
97	0xbd20bdd1	-0.039243523
98	0xbd4e473a	-0.050360896
99	0xbd36bb02	-0.04461194
100	0x3cbd5482	0.023111586
101	0xbcb08511	-0.021547826
102	0xbd9c1785	-0.076216735
103	0xbc4eb116	-0.012615463
104	0x3de1dbd0	0.11028254
105	0x3ca701f8	0.020386681
106	0x3e0365c4	0.1283179
107	0xbdb33659	-0.087506
108	0xbd8ead7a	-0.06966682
109	0xba245400	-0.00062686205
110	0xbcbe07e7	-0.023197128
111	0x3cbe6b40	0.0232445
112	0x3cbdf516	0.023188155
113	0x3998a099	0.00029111354
114	0x3dae36b1	0.08506525
115	0xbdf54c2d	-0.1197742
116	0xbded4ec5	-0.1158729
117	0x3b055194	0.0020342814
118	0xbd9d9acf	-0.07695543
119	0xbd613821	-0.05498517
120	0x3bd65288	0.0065406
121	0x3da72f53	0.08163323
122	0x3d7a3a9a	0.061091043
123	0xbdd7f4b4	-0.1054472
124	0xbdc29748	-0.09501511
125	0x3e0e9f8c	0.1392805
126	0xbde88dd2	-0.11355175
127	0xbd17c742	-0.03705526
128	0xbdca8a35	-0.09889642
129	0xbdf50756	-0.1196429
130	0xbe062f1a	-0.13103905
131	0x3d0ed755	0.034873325
132	0x3dbb55fc	0.091472596
133	0x3d85a4b7	0.065255575
134	0xbd04fddf	-0.032468673
135	0xbd94368a	-0.07236965
136	0x3d0ba9b6	0.034097396
137	0x3d46fa3d	0.04857849
138	0x3cae5e39	0.021285163
139	0x3d1319eb	0.03591339
140	0xbdce291a	-0.10066433
141	0x3c2cd9a9	0.010549941
142	0xbd9a76e9	-0.075422116
143	0xbe25b5e8	-0.16182673
144	0xbd95dc79	-0.073174424
145	0x3dba7a5e	0.09105371
146	0xbd126286	-0.03573849
147	0x3d023931	0.031792823
148	0x3dcf2f23	0.101164125
149	0xbd56e837	-0.05246755
150	0x3d4d9219	0.050188158
151	0xbd0c27cd	-0.034217644
152	0xbc94a9d2	-0.018147383
153	0xbd800647	-0.06251197
154	0xbd27a017	-0.040924158
155	0x3c9dcd91	0.01926306
156	0xbded06ea	-0.115735844
157	0x3de80f22	0.11331011
158	0x3d16606f	0.03671306
159	0x3e0818e1	0.1329074
160	0xbd9e135c	-0.07718536
161	0xbd822e9f	-0.063565485
162	0xbd2352c1	-0.039873842
163	0xbd630ae8	-0.055430323
164	0xbd38b42a	-0.045093693
165	0x3c5d4a4d	0.013506484
166	0x3ccd53ed	0.025064433
167	0xbdd1b10c	-0.10238847
168	0xbdb74d63	-0.08950307
169	0xbd84a27f	-0.06476306
170	0xbc58adb5	-0.013225009
171	0xbd099750	-0.03359157
172	0xbd81dd75	-0.06341068
173	0x3b3b5e57	0.0028590166
174	0x3d96ae3b	0.073574506
175	0x3c05a69f	0.008157401
176	0x3d16c0f1	0.036805097
177	0x3dcf1b66	0.10112648
178	0xbc9b3f0a	-0.018950958
179	0x3d4beb8e	0.04978519
180	0x3da42d36	0.08016436
181	0x3dab9002	0.08377077
182	0xbd8a815a	-0.06762953
183	0x3d586236	0.052828036
184	0x3ac82acd	0.0015271545
185	0x3d3926d8	0.04520306
186	0xbcf5c8c8	-0.030002967
187	0xbd59e38b	-0.053195518
188	0xbdf22495	-0.11823384
189	0xbd5a1eec	-0.053252146
190	0x3de46b7a	0.11153312
191	0x3c21fe38	0.009887271
192	0xbd65fa46	-0.056146882
193	0xbd3640c8	-0.044495374
194	0xbde14509	-0.109994955
195	0xbcb62318	-0.02223353
196	0x3d85ac77	0.06527036
197	0x3d66bb5c	0.056331024
198	0xbdc8b8db	-0.098008834
199	0x3b98a391	0.0046581705
200	0xbda12518	-0.07868403
201	0x3ddf8142	0.10913326
202	0x3dc2454e	0.09485875
203	0x3d2bbded	0.041929174
204	0x3d3612c8	0.044451505
205	0xbcc9b0b7	-0.024620397
206	0xbde6cb4a	-0.11269243
207	0x3da486e9	0.080335446
208	0xbe138dae	-0.14409515
209	0x3d91ce80	0.07119465
210	0x3c53a0f1	0.012916789
211	0xbd5684ff	-0.05237293
212	0xbd65ef24	-0.056136265
213	0x3da1d2b2	0.07901515
214	0xbd37d1ea	-0.044877924
215	0xbd27d1f5	-0.040971715
216	0xbd5df95d	-0.05419289
217	0x3e042684	0.12905318
218	0xbdd917cd	-0.10600243
219	0x3a85fe7e	0.0010222939
220	0xbc98f05e	-0.018669304
221	0xbde2db9a	-0.11077042
222	0x3c62437e	0.013810037
223	0xbdc21b1a	-0.094778255
224	0x3cea43d3	0.028596794
225	0xbdb76bff	-0.089561455
226	0x3b9f9c13	0.0048709004
227	0xbd7c0366	-0.06152668
228	0x3d91c022	0.071167246
229	0xbd8ac43b	-0.06775709
230	0x3dca5c36	0.09880869
231	0xbb4d50af	-0.0031328609
232	0x3ca9504d	0.020668173
233	0xbd90907f	-0.070588104
234	0x3d9a8d11	0.075464375
235	0x3d34b923	0.044121873
236	0xbdc86a8e	-0.09785949
237	0x3d5a0905	0.053231258
238	0x3dfabad5	0.12242667
239	0xbe0f477c	-0.13992113
240	0xbdb01f5f	-0.085997336
241	0x3d018aee	0.031626634
242	0x3d8afb42	0.06786205
243	0x3dad5cb9	0.08464951
244	0x3e0a6d9b	0.13518374
245	0xbdc6b9c8	-0.09703404
246	0x3c613124	0.013744626
247	0x3dca1427	0.09867125
248	0xbcfff65f	-0.031245409
249	0xbe03308f	-0.12811492
250	0x3d70babd	0.058771838
251	0x3d2bc347	0.041934278
252	0x3cbd6cef	0.023123233
253	0x3d546572	0.05185456
254	0x3d42b530	0.047536075
255	0xbd8f93b4	-0.07010594

classifier.7.bias f4 [16]
0	0xb939b5ac	-0.00017710653
1	0xbcd0bb81	-0.025480034
2	0x3bc7f63c	0.0061023515
3	0xbc8f4ba7	-0.017492129
4	0x3c0c6996	0.0085700955
5	0xbd17b8d9	-0.03704152
6	0xba7deb91	-0.0009686286
7	0x389c17e1	7.4431075e-05
8	0x3b9c3ae5	0.004767763
9	0xbd037530	-0.03209418
10	0x3d1aca75	0.037790734
11	0xba8b7c5a	-0.0010641918
12	0xb91a43c3	-0.00014711828
13	0x398ad72e	0.00026481732
14	0xbd1dd1ed	-0.03853028
15	0xbd0a8846	-0.033821367

classifier.8.weight f4 [16]
0	0x3f87c8de	1.0608175
1	0x3f88aad1	1.0677129
2	0x3f88a5a2	1.0675547
3	0x3f89d8ef	1.0769328
4	0x3f89d930	1.0769405
5	0x3f8961b0	1.0732937
6	0x3f89b633	1.0758728
7	0x3f871332	1.0552733
8	0x3f882b22	1.0638163
9	0x3f89f729	1.0778552
10	0x3f8937eb	1.072019
11	0x3f8860b5	1.0654513
12	0x3f89212c	1.0713248
13	0x3f8984d9	1.0743667
14	0x3f87b8e1	1.0603296
15	0x3f861b6c	1.0477118

classifier.8.bias f4 [16]
0	0x3d6de4ee	0.058079652
1	0x3d850295	0.06494633
2	0x3d8bf9dd	0.06834767
3	0x3d9ee3cb	0.07758292
4	0x3d9ff419	0.0781023
5	0x3d9b45ba	0.07581659
6	0x3d9b2106	0.07574658
7	0x3d132e87	0.035933044
8	0x3d7489b7	0.059701648
9	0x3da12890	0.07869065
10	0x3d8f4441	0.0699544
11	0x3d840f28	0.06448203
12	0x3d9511f1	0.07278813
13	0x3d9c9422	0.076454416
14	0x3d7dd1f5	0.06196781
15	0x3d59db7e	0.05318784

classifier.8.running_mean f4 [16]
0	0x3e79fffa	0.24414054
1	0xbdd93cd3	-0.106073044
2	0xbe4f1597	-0.2022308
3	0xbdb20317	-0.086919956
4	0xbd91845c	-0.07105324
5	0x3949d64a	0.00019248683
6	0xbd9c6acd	-0.07637558
7	0x3e9adac4	0.3024503
8	0x3e13e7b4	0.14443856
9	0xbe6de0f7	-0.23230349
10	0xbc3577af	-0.011075898
11	0xbe525dd8	-0.20543611
12	0x3da815a6	0.08207254
13	0xbd29c9c6	-0.04145219
14	0xbdd84000	-0.10559082
15	0xbdce3beb	-0.10070022

classifier.8.running_var f4 [16]
0	0x3e096104	0.13415915
1	0x3e128ee0	0.14312315
2	0x3e5d25b7	0.21596418
3	0x3e6f089a	0.23343125
4	0x3e045bee	0.12925693
5	0x3e0378dc	0.12839073
6	0x3eae81b9	0.34083346
7	0x3e96c6a6	0.29448432
8	0x3e56cfa7	0.2097765
9	0x3e10b2fc	0.14130777
10	0x3e8403e6	0.25784224
11	0x3e6a364d	0.22872277
12	0x3e5500e0	0.20801115
13	0x3e7014c7	0.23445426
14	0x3ed2f728	0.4120419
15	0x3e5fc4c9	0.21852411

classifier.10.weight f4 [10, 16]
0	0x3d6a5212	0.057207175
1	0x3e12b1c5	0.14325626
2	0xbd3e8934	-0.046517566
3	0xbdd06df3	-0.10177221
4	0x3e320057	0.17382942
5	0xbe8e2f20	-0.2777033
6	0xbc76e786	-0.015069848
7	0xbe59a28f	-0.21253417
8	0x3d925385	0.07144836
9	0x3e2d5885	0.16928299
10	0x3d8f8b1d	0.07008956
11	0xbe969123	-0.29407606
12	0x3e981b93	0.29708537
13	0xbe993e1b	-0.29930195
14	0xbc9169a7	-0.017750574
15	0xbe06c3b1	-0.13160588
16	0x3daf4c54	0.0855948
17	0xbdb39d9a	-0.087702945
18	0x3d87daf1	0.06633557
19	0x3e75e6f8	0.24013889
20	0xbe454535	-0.19264682
21	0xbe900d5c	-0.28135192
22	0x3e2b269f	0.16713952
23	0x3cc31858	0.023815319
24	0xbe4e4769	-0.20144428
25	0xbe8444d9	-0.25833777
26	0x3e2861e3	0.16443591
27	0xbe0c3ca7	-0.13695012
28	0xbea08b50	-0.31356287
29	0x3e690cb7	0.22758757
30	0xbe524b52	-0.20536545
31	0xbe407222	-0.18793538
32	0x3e2627a5	0.1622606
33	0xbe48728b	-0.19574945
34	0xbe0c0443	-0.136735
35	0x3e03c084	0.12866408
36	0x3e16e6be	0.14736459
37	0xbe0ed367	-0.13947831
38	0x3e0b7c44	0.13621622
39	0xbe54fb9a	-0.20799103
40	0xbe07ed48	-0.1327411
41	0xbe062919	-0.13101615
42	0x3da080b4	0.07837048
43	0x3dc59585	0.09647659
44	0xbe5df0dc	-0.21673912
45	0xbe1201a8	-0.14258444
46	0xbe0c4841	-0.13699438
47	0xbe403187	-0.18768893
48	0xbe5f54cc	-0.21809691
49	0xbe67d03c	-0.22638029
50	0x3e901879	0.2814367
51	0x3e380a25	0.1797262
52	0xbe94efbc	-0.29089153
53	0xbd837ab5	-0.06419889
54	0xbe548ca0	-0.20756769
55	0x3dce3fd4	0.10070768
56	0xbb300ee5	-0.0026864347
57	0x3db66a2f	0.08906972
58	0xbbba9064	-0.0056934822
59	0xbe5a6618	-0.21328008
60	0x3e326819	0.17422523
61	0x3b8ad859	0.0042372164
62	0xbe1407eb	-0.14456145
63	0xbe41e9c4	-0.18936831
64	0xbe83ea63	-0.2576476
65	0xbe988f57	-0.2979686
66	0x3d635128	0.05549732
67	0x3e8de112	0.27710778
68	0xbe7db067	-0.24774323
69	0x3d1728e4	0.03690423
70	0x3e8f242e	0.2795729
71	0xbe6a44c0	-0.22877789
72	0xbe4cf87d	-0.20016666
73	0xbe66c0a1	-0.2253442
74	0xbe8083cd	-0.25100556
75	0xbe98b986	-0.29829043
76	0xbd9a4a50	-0.07533705
77	0xbd752058	-0.0598453
78	0xbe083a6f	-0.1330354
79	0xbe712d48	-0.2355243
80	0x3e6b2f64	0.22967297
81	0x3e9869d1	0.29768232
82	0xbe93e61a	-0.2888649
83	0xbcd018b4	-0.025402404
84	0xbe713782	-0.23556331
85	0x3ddc95d4	0.10770765
86	0xbe2f5a93	-0.17124395
87	0xbd9140dd	-0.0709245
88	0x3e38267d	0.17983432
89	0xbdc6a6ac	-0.09699759
90	0x3dae34d4	0.0850617
91	0xbdc3202c	-0.09527621
92	0x3c274501	0.010209323
93	0xbe204c1e	-0.15654036
94	0x3e85800a	0.2607425
95	0xbd0edacf	-0.03487664
96	0xbe5ad673	-0.21370868
97	0xbe8b6f5b	-0.27233395
98	0xbe8cf65e	-0.27531713
99	0x3e64024f	0.22266506
100	0x3e17386c	0.14767617
101	0xbe8b46fb	-0.2720259
102	0x3d9ed8a3	0.07756164
103	0xbe146c0a	-0.14494339
104	0x3debef9f	0.115203135
105	0x3e7e5789	0.2483808
106	0xbe48c9aa	-0.19608179
107	0xbe905ea0	-0.28197193
108	0xbda13cec	-0.07872948
109	0xbdd51595	-0.10404507
110	0xbd65301e	-0.05595409
111	0xbcb6208d	-0.022232318
112	0xbe6334f5	-0.2218817
113	0xbdf67b50	-0.12035239
114	0x3e477232	0.19477156
115	0xbe36d721	-0.17855503
116	0x3ddb24a1	0.10700346
117	0xbe72f6e9	-0.23727001
118	0xbd9d8e15	-0.076931156
119	0xbe5b11e1	-0.21393539
120	0xbd601bc5	-0.054713983
121	0xbe2fc68b	-0.17165582
122	0x3e9210de	0.28528494
123	0x3d8a2d99	0.06746978
124	0xbe9c1283	-0.30482873
125	0xbe3e41c4	-0.18579775
126	0x3e6f44c1	0.23366071
127	0x3cfce1cf	0.030869393
128	0xbe35d9f8	-0.1775893
129	0x3e91bfb4	0.2846657
130	0xbe893adf	-0.26802728
131	0xbe9e7b91	-0.3095365
132	0xbe508210	-0.20362115
133	0xbe879478	-0.2648046
134	0xbd861206	-0.065464064
135	0xbcf294d6	-0.029611986
136	0x3ea19170	0.31556273
137	0xbd1fa218	-0.038972944
138	0xbe571afc	-0.21006387
139	0xbe875da4	-0.2643863
140	0xbe67ca20	-0.22635698
141	0xbe466ec2	-0.19378188
142	0xbe82ca8b	-0.25545153
143	0x3da37664	0.079815656
144	0xbd69dcff	-0.057095524
145	0x3e955e2d	0.29173413
146	0x3e79ef8e	0.24407789
147	0xbe46e175	-0.19421943
148	0xbe98f282	-0.2987252
149	0x3e7f7c71	0.24949814
150	0xbe90e9e1	-0.28303435
151	0x3e0744f5	0.13209899
152	0xbe5d642c	-0.21620244
153	0xbde2f0cc	-0.110810846
154	0xbe126c81	-0.14299203
155	0x3e709ed0	0.23498082
156	0xbe1ec3e1	-0.1550441
157	0xbe15732f	-0.1459472
158	0xbdcc83c5	-0.099860705
159	0x3d5441da	0.051820613

classifier.10.bias f4 [10]
0	0x3d0c6014	0.034271315
1	0xbdeb26b6	-0.11481993
2	0x3d93f260	0.07223964
3	0xbc643c32	-0.013930367
4	0xbdacf1a9	-0.084445305
5	0xbe2ac261	-0.16675712
6	0x3ddc248e	0.1074916
7	0xbdb3e4fa	-0.08783908
8	0x3e5c320f	0.21503471
9	0xbe7e4a2d	-0.24832983

exp_avg f4 [32, 784]
0	0xb2592416	-1.2639267e-08
1	0x357ea242	9.485849e-07
2	0x363d8d01	2.824527e-06
3	0xb5d54ff3	-1.5893005e-06
4	0x37c9f181	2.4073526e-05
5	0xb6377d89	-2.7342196e-06
6	0x36b886f0	5.499336e-06
7	0x384936a9	4.797304e-05
8	0x3910cf25	0.00013810078
9	0x39e2510e	0.0004316647
10	0x39fddefc	0.00048422057
11	0x3a03758a	0.0005014768
12	0xb9adb28f	-0.00033130168
13	0xb7885a31	-1.6254462e-05
14	0xb8a045aa	-7.6423705e-05
15	0xb8f28c70	-0.00011565618
16	0x392241c5	0.00015474025
17	0x3a096355	0.0005240937
18	0x39c67ac2	0.00037856965
19	0x38adcd69	8.2875435e-05
20	0x3859aab7	5.1895822e-05
21	0x38716de8	5.7561236e-05
22	0xb719ea58	-9.174073e-06
23	0xb7d03e19	-2.4824449e-05
24	0xb69ddf0b	-4.7049302e-06
25	0x37870d53	1.6099459e-05
26	0xb5b7a0d0	-1.3681365e-06
27	0xb5256533	-6.1614554e-07
28	0xb63a9c79	-2.780724e-06
29	0x36844443	3.9418533e-06
30	0xb6197fd6	-2.2873187e-06
31	0x376900b5	1.3888047e-05
32	0x387859dc	5.9211496e-05
33	0x384927e3	4.795928e-05
34	0x38f0a33c	0.000114744966
35	0x39e17a88	0.00043006637
36	0x3a57c082	0.0008230285
37	0x3a94ad32	0.001134312
38	0x3a81940f	0.0009886044
39	0x3a1a70ef	0.0005891462
40	0xb89dbd3a	-7.5215896e-05
41	0x37fad868	2.9903094e-05
42	0xb864f44f	-5.4586966e-05
43	0xb8483f4f	-4.7742677e-05
44	0x3983b85d	0.00025123628
45	0x3a5cd35d	0.00084238296
46	0x3a923c25	0.001115684
47	0x3a5be7cc	0.00083887274
48	0x39ca7568	0.00038615917
49	0x3904b103	0.00012654443
50	0x378c694a	1.673833e-05
51	0xb8831ee9	-6.252324e-05
52	0x37ac2256	2.0519987e-05
53	0xb6b1ca8b	-5.29859e-06
54	0xb812a2ba	-3.4960663e-05
55	0xb5bab1e7	-1.3909856e-06
56	0x36a88569	5.022321e-06
57	0x366bcd58	3.5137255e-06
58	0xb7d600f7	-2.5511237e-05
59	0x353fdeb3	7.1477115e-07
60	0x37c0378b	2.2914048e-05
61	0x39013d06	0.00012325132
62	0x3a0b1f5c	0.0005307102
63	0x3a5eaeb4	0.0008494661
64	0x3a59098a	0.00082793145
65	0x39c1dcd0	0.00036976347
66	0x3913113c	0.00014025433
67	0x38d4feec	0.00010156431
68	0xb89f4f77	-7.596512e-05
69	0xb92e1298	-0.0001660086
70	0xb924af5e	-0.00015705588
71	0xb8ea7fa2	-0.00011181763
72	0x38a686dc	7.940616e-05
73	0xb860869a	-5.353112e-05
74	0x39eab0ef	0.00044763784
75	0x3a32d914	0.00068225083
76	0x3a3cc652	0.0007201183
77	0x3a1a24d6	0.0005880123
78	0x39020440	0.0001239935
79	0x3701287f	7.698428e-06
80	0x383cd914	4.5024863e-05
81	0xb597147c	-1.1256338e-06
82	0xb89d72ed	-7.50775e-05
83	0xb6f7ae2e	-7.381451e-06
84	0x36170fcc	2.2509948e-06
85	0xb6c1d49e	-5.7766e-06
86	0x37595523	1.295403e-05
87	0x37504ac9	1.2415178e-05
88	0x38c106df	9.204237e-05
89	0x39c0615d	0.00036693635
90	0x3a165b45	0.0005735646
91	0x39f07ee1	0.000458709
92	0x389581d8	7.129059e-05
93	0xb9518e53	-0.00019984813
94	0x36b9204c	5.5171895e-06
95	0x3911845a	0.00013877582
96	0xb8732c6f	-5.7977097e-05
97	0xb95841b7	-0.00020623846
98	0xb7e967e1	-2.7824137e-05
99	0xb8794baa	-5.9436694e-05
100	0xb9041d3a	-0.00012599389
101	0x37cb45d6	2.4232006e-05
102	0xb9136d7b	-0.00014059797
103	0x37a53ec8	1.9698768e-05
104	0x39cde1cf	0.00039268887
105	0x3a134317	0.0005617602
106	0x39c3b4ce	0.00037328008
107	0x3839928e	4.4243927e-05
108	0x367883e7	3.7031657e-06
109	0x38398aa3	4.4236553e-05
110	0x380164a0	3.084971e-05
111	0x3722a483	9.694256e-06
112	0x3640c39a	2.8724085e-06
113	0xb7684c0d	-1.38459845e-05
114	0x37c3efe9	2.3357528e-05
115	0x38046e4c	3.1573974e-05
116	0x388d946d	6.7510504e-05
117	0x39a95157	0.00032294795
118	0x38a652e0	7.9309335e-05
119	0x39235f85	0.00015580475
120	0xb838865b	-4.3994147e-05
121	0xb92e2d3a	-0.00016610781
122	0x39103254	0.00013751659
123	0x39c99417	0.00038448043
124	0xb8c1bec8	-9.238493e-05
125	0xb95783f3	-0.00020553153
126	0x37892b65	1.635188e-05
127	0xb6fd2454	-7.5442167e-06
128	0x38f6165a	0.000117343574
129	0x38f29dad	0.000115688286
130	0xb9650d16	-0.00021844017
131	0xb9858420	-0.00025466178
132	0x391d5857	0.00015005596
133	0x391febda	0.00015251283
134	0x38571719	5.1281506e-05
135	0x3993ac37	0.00028166335
136	0x386856b6	5.5393866e-05
137	0xb89656df	-7.1687384e-05
138	0xb85e393c	-5.298223e-05
139	0x37809989	1.5330284e-05
140	0xb7a03caf	-1.9101744e-05
141	0x361e45ee	2.358454e-06
142	0x3795c795	1.7855122e-05
143	0x37b456f5	2.1498165e-05
144	0x39454351	0.00018812461
145	0x391c4416	0.00014902683
146	0xb81fa6c1	-3.8063856e-05
147	0x39a07f10	0.00030612247
148	0xb8805f78	-6.121298e-05
149	0xb8a63a73	-7.926384e-05
150	0x394edc4e	0.00019727761
151	0x39928209	0.00027944174
152	0x38d8efc0	0.000103443395
153	0xb824c820	-3.9287028e-05
154	0x377502f0	1.4603822e-05
155	0x38833929	6.257214e-05
156	0xb70f9854	-8.558931e-06
157	0x3836e02b	4.3600954e-05
158	0xb94d1407	-0.00019557784
159	0xb8b91c3f	-8.826749e-05
160	0x39195e7b	0.00014626414
161	0x389b3c07	7.402157e-05
162	0xb8c57cee	-9.416962e-05
163	0x395f23b3	0.00021280236
164	0xb76cc641	-1.4112856e-05
165	0xb8fcf57d	-0.00012062022
166	0xb8daa460	-0.00010425667
167	0xb81a694e	-3.6814534e-05
168	0x3735fffa	1.084804e-05
169	0xb5d4b81a	-1.5848811e-06
170	0xb83fc45e	-4.572083e-05
171	0xb7079bcb	-8.0829e-06
172	0x38ae4d98	8.3114195e-05
173	0xb91d5892	-0.00015005682
174	0x36e1531e	6.7151987e-06
175	0xb72b4895	-1.0209294e-05
176	0xb96bf3f4	-0.00022502226
177	0xb8369f51	-4.3540556e-05
178	0xb6e2f4eb	-6.763837e-06
179	0xb83d41eb	-4.5122502e-05
180	0x38b4555d	8.598969e-05
181	0x37e98ea6	2.784219e-05
182	0xb8ed384a	-0.00011311525
183	0xb8e116f1	-0.00010733109
184	0xb91bd5f3	-0.00014861654
185	0xb8f424f5	-0.000116417104
186	0xb936c58e	-0.00017430467
187	0xb950a1c4	-0.00019896688
188	0xb89c588d	-7.4551535e-05
189	0xb8dcd8ce	-0.000105308005
190	0x36f4d71f	7.29681e-06
191	0x3942b458	0.00018568465
192	0x37887c45	1.627033e-05
193	0x37b5dab2	2.167872e-05
194	0xb894775f	-7.0794245e-05
195	0x38096db6	3.276552e-05
196	0xb79731aa	-1.802373e-05
197	0xb8351c84	-4.318032e-05
198	0xb800c8aa	-3.070446e-05
199	0xb70fc357	-8.568945e-06
200	0x38d958e2	0.00010363922
201	0xb8fe5408	-0.00012127316
202	0x38b7dfd0	8.767808e-05
203	0xb9421e58	-0.00018512586
204	0xb9ddf2dd	-0.00042333352
205	0xb907abc2	-0.00012938588
206	0x37340ecf	1.0732284e-05
207	0xb92beb22	-0.00016395425
208	0xb90a3f0d	-0.00013184194
209	0xb933e629	-0.00017156512
210	0xb8b8fcb7	-8.8208755e-05
211	0xb985d191	-0.00025523876
212	0xb9800af5	-0.00024422226
213	0xb945d697	-0.00018867325
214	0xb91da1d5	-0.00015032974
215	0xb9eb39f2	-0.00044865865
216	0xb9239094	-0.00015598751
217	0x37ddcb9e	2.644007e-05
218	0xb88af3a9	-6.625738e-05
219	0x384c6a53	4.8736412e-05
220	0x369c2ce1	4.654387e-06
221	0xb8231362	-3.888028e-05
222	0xb8f0ddd4	-0.000114854105
223	0xb8762d56	-5.8693193e-05
224	0xb7155aa8	-8.9022e-06
225	0xb7afbc30	-2.0949257e-05
226	0xb909f11d	-0.0001315516
227	0xb8e866cd	-0.0001108177
228	0xb7e4addb	-2.7260676e-05
229	0xb948f5cf	-0.00019165057
230	0x3808b621	3.2594548e-05
231	0xb9903909	-0.00027508315
232	0xba15a3bf	-0.0005708299
233	0xb90be22b	-0.00013340327
234	0xb8ceb262	-9.856072e-05
235	0xb8f2a6f8	-0.000115705596
236	0xb92f2706	-0.00016703838
237	0x36610fec	3.353688e-06
238	0x380ed681	3.405521e-05
239	0xb9514abe	-0.00019959637
240	0xb9837a12	-0.00025077217
241	0xb9de9ce8	-0.00042460044
242	0xb98b4a50	-0.00026567513
243	0xb9dc3736	-0.00042002805
244	0xb923c0fc	-0.00015616784
245	0x388c410a	6.687835e-05
246	0xb91d7b75	-0.00015018678
247	0xb7f4116a	-2.9095176e-05
248	0x388c370f	6.685976e-05
249	0xb7beb8f7	-2.2735896e-05
250	0xb8e6d3ef	-0.0001100673
251	0xb8054733	-3.177598e-05
252	0xb84e9f39	-4.9262515e-05
253	0xb884b8e1	-6.328687e-05
254	0xb908af64	-0.00013035309
255	0xb8804821	-6.116951e-05
