lightning_logs/Layers_64/fold_4/checkpoints/model-epoch=00-4.ckpt (torch, 739479 bytes, 48 tensors)

classifier.1.weight f4 [64, 784]
00000000: 8360 16bc ee38 fe3c 3286 3c3b 2d0e 6fba
00000010: b9e1 973c b939 bb3b 5efc e33c 52f2 75bb
00000020: 2193 9e3b 4067 113d 74f9 52bc 2d90 14bc
00000030: 08d4 3a3d e867 373d 3ee1 0bbb 7fb4 923c
00000040: ddbb b23c 92a5 5537 9630 643c 9ce7 123d
00000050: ee10 eebc e593 dc3c 986f efbc f562 0cbd
00000060: a05c 7bbb 36a6 2cbd ba8e 0fbd dc98 2fbd
00000070: f52b efbc 860a af3c 534e 123d 6788 04bd
00000080: fefd ab3c f8d9 20bd 17a3 58bb 88c8 03bd
00000090: ec51 e1bc 6415 f0bc 3936 0f3c d3bc 863c
000000a0: cb48 f43c e105 9b3c 59ea 87bc 3a6d 253c
000000b0: d0ed 263d 61b0 3c3d d7f6 d8bc b71f 053d
000000c0: ad42 d7bc 379d a7bb 93ce d4bc 282f b93b
000000d0: 0be3 8dbc eecf 583b a8fa d53c 5272 bcbc
000000e0: f62c 2dbd 21ab 5d3c 0420 1bbd fda7 d2bc
000000f0: 39d9 cdba 6216 493c d8b7 083d 9221 f63c
00000100: 0c0f e4ba c910 f63c b476 8a3c f51a 29ba
00000110: 48ee a73c e42e d73b 5379 babc 48eb 6fbb
00000120: 478b f53a 8a93 b73b 9a38 053d c91b 043c
00000130: 4775 f53c 1f67 0ebd 4f70 5dbc 84bf 3fbd
00000140: d8ae c5bb b106 533c 666d 0fbd 1fe7 13bc
00000150: 23c4 4ebc 9996 9abc 62b6 0fbb 24dc 2cbd
00000160: 2546 c9bc b6e7 86bc 5650 9b3c 8e6c cd3a
00000170: 5d80 e73b 4bc4 463c b716 79bc 5615 b6bc
00000180: fe05 733c 6e6f 3b3a d3c2 103d b549 c23c
00000190: 6dbc 003c ff55 b3bc 4869 e23c 30d4 083d
000001a0: 3ca9 55bc e54f 203b 44a0 68bc c641 05bd
000001b0: d39a a7bb 0141 e8bc d0cd b6bc ae0b f6bc
000001c0: a005 b0bb 125d 2e3a c523 e2bc 6f58 5e3c
000001d0: 8423 033d 73a9 87bc 04ac a73c d73e 483c
000001e0: 20b2 cebc 4669 0039 6b3c f43c 494a a4bc
000001f0: 760d 0e3d 5e00 033d 0dce c43c 86b3 3e3b
00000200: 0968 343c 30bf ba3a ef65 cf3b 50ba 1b3d
00000210: a563 d73c 2817 723b 7ec0 e1bc 32f4 b4bc
00000220: 05df b3bc 81e2 dcbc 6814 33bd 33c7 663c
00000230: 0518 cebc 0396 f3bc 2694 63bb e7ef 0cbd
00000240: 8daa f23b 0035 273c 7f84 893c fe3c c53c
00000250: 66e4 833c d1d1 45bc 7008 d9bc f2ba afbc
00000260: ad04 34bb fd39 2139 1120 77bb e4f4 893c
00000270: 6220 5bbc e54f c23c d202 ea3b 6e52 9fbc
00000280: df31 f63c e86a 42bc ffc8 b03c 23a4 c3bc
00000290: f267 06bd e0ce 9d3b 4bc0 8e3a 5cb7 90bc
000002a0: aa25 05bd 45ee b1bc 5920 01bd e23c 213a
000002b0: af86 d63a 3145 b7bc 5bf9 d6bc f97c cabc
000002c0: a11e 02bc 47cb b83b f32a 803c 024c f63c
000002d0: 3166 c6bb 9f29 f2bb 9f48 0d3c 2ca6 313d
000002e0: dea7 c1bc e7ab 853c cc91 b33c 8c30 833c
000002f0: d9fe 573c facf 033b 47cf 16bd c951 5dbc
00000300: da0c 6e3c 20b7 c03c 187d 32bd a3eb d4bc
00000310: 2956 cdbc 53a7 863b dc10 02bd 05ef f6bc
00000320: cc53 273c ec98 a3bb f782 063d 3c80 d23c
00000330: be37 833c 5e39 c63c 8197 b73c a7f3 53bc
00000340: a216 b13c a719 f1b6 d2a7 a63c 0349 233d
00000350: 2872 3f3c aaee cfbc 8814 51bc 66c0 20b8
00000360: 4be6 a03c c2e7 9bbc c0eb d33c 8418 12bd
00000370: f87b e5bc 3ec3 a13b 9169 223c 0b14 13bd
00000380: b7d0 493b 0c89 a9bb 3cf4 583c 1ca6 ca3c
00000390: 05bb 993c 3541 92bc c70f b1bb 77b2 2fbc
000003a0: fa7d 34bc 414b a6bc 8ae1 e7bb cc2c 803c
000003b0: 2691 b3bc 5529 94bc 4e28 eb3c 19e5 fe3a
000003c0: d5f4 9e3c 03e8 023d 5b7f 2ebc 4cf2 a43c
000003d0: 3039 c6bb 68b8 b63b baaa f03c 4347 0fbd
000003e0: e6d1 f7bc fed7 abbc f35e dabc ef8b 473c
000003f0: 8e5a 7e3c 6a5a d83b 1506 12bd b741 14bd
-0.009178284 0.031033006 0.002876651 -0.0009119239 0.01854025 0.005713668 0.027830299 -0.0037528467
0.0048393165 0.035498857 -0.012876857 -0.009067577 0.045612365 0.044776827 -0.0021343972 0.017908333
0.021818096 1.2734339e-05 0.013927599 0.03586541 -0.029060807 0.02692599 -0.029228017 -0.03427406
-0.003835477 -0.0421507 -0.035048224 -0.042870387 -0.029195765 0.021367323 0.035719227 -0.032356646
0.020995136 -0.03927037 -0.0033056193 -0.032173663 -0.027504884 -0.029307075 0.008740955 0.01644746
0.029819867 0.018923702 -0.016591238 0.010096842 0.04075414 0.046066646 -0.02648489 0.03250095
-0.02627691 -0.005115177 -0.025977409 0.0056513734 -0.017320177 0.003308292 0.026120499 -0.02300373
-0.042279206 0.01352957 -0.03787233 -0.025714869 -0.0015704996 0.012273403 0.033378452 0.030045304
-0.0017399504 0.0300373 0.016902305 -0.0006450855 0.020499364 0.006566869 -0.02276293 -0.0036608744
0.0018733524 0.005602305 0.032524683 0.008063265 0.029963149 -0.034766313 -0.013515546 -0.046813503
-0.006032806 0.012880013 -0.03501644 -0.0090272715 -0.012620005 -0.018870639 -0.0021928777 -0.04220213
-0.02456958 -0.01646791 0.018959206 0.0015672611 0.0070648626 0.012131761 -0.01520317 -0.02222697
0.014832972 0.0007150088 0.03534205 0.023716787 0.007857424 -0.021891592 0.027638093 0.033405483
-0.013040837 0.0024461683 -0.014198367 -0.03253343 -0.005114892 -0.028351309 -0.022314936 -0.030034866
-0.0053717643 0.0006651442 -0.027604947 0.013570889 0.032016292 -0.016560292 0.020467766 0.012222013
-0.025231421 0.00012246249 0.029813966 -0.020054953 0.034680806 0.031982772 0.024024034 0.0029098704
0.011011132 0.0014247652 0.00632929 0.03801948 0.026292631 0.0036940072 -0.027557608 -0.022089098
-0.02195693 -0.026963474 -0.043720633 0.014085579 -0.025157938 -0.029734617 -0.0034725755 -0.034408476
0.007405585 0.010205507 0.016786812 0.024076935 0.01610012 -0.01207395 -0.026493281 -0.021451447
-0.0027468607 0.00015375759 -0.0037708322 0.016840406 -0.01337442 0.023719737 0.0071414495 -0.019448485
0.030053077 -0.011866309 0.021580217 -0.023881977 -0.032813974 0.004815921 0.0010891048 -0.017665558
-0.032506622 -0.021720061 -0.03152499 0.0006150735 0.0016367043 -0.02237186 -0.026241949 -0.024717795
-0.007941873 0.005639467 0.01564548 0.03006554 -0.0060546626 -0.0073902155 0.008623271 0.043371364
-0.023639616 0.016317321 0.021920107 0.01601436 0.013183319 0.0020112977 -0.03681877 -0.013508269
0.014529431 0.02352482 -0.04357633 -0.025991267 -0.025065498 0.004109302 -0.03175436 -0.03014327
0.01021285 -0.004992595 0.03283974 0.025695913 0.01601779 0.024197277 0.02241111 -0.012936509
0.021617237 -7.185346e-06 0.020343695 0.03986455 0.011684932 -0.025382359 -0.012761243 -3.8326158e-05
0.019641062 -0.01903141 0.02586925 -0.03566791 -0.028013214 0.0049366048 0.009912864 -0.035907786
0.003079457 -0.005173808 0.013241824 0.02473741 0.018765936 -0.017853359 -0.005403492 -0.010723702
-0.011016363 -0.020299556 -0.007076447 0.01564636 -0.021919798 -0.018086115 0.028705742 0.0019446939
0.019403854 0.031959545 -0.010650481 0.020135067 -0.0060492977 0.005576182 0.029378284 -0.03498007
-0.030251455 -0.020977017 -0.026656603 0.012179359 0.01552452 0.006602575 -0.03565033 -0.036195483

classifier.1.bias f4 [64]
00000000: 8c2d c73c c64d c4bc ce73 90bc 3d6f fdbc
00000010: ca62 043d 4103 e3bb 3af7 6abc 4f08 4f3c
00000020: e1a6 6fbb bf5f 043d 8a4c 86bc b06c ddbc
00000030: 6b76 76bc c1a4 ba3c 4a92 19bb fb7f 01bd
00000040: eb4c 50bc de19 35bb 5432 223b a967 553b
00000050: a565 75bc 28dd 9c3b d221 9fbc ba2d ca3c
00000060: b280 f739 3658 80bc ce82 65bc e7f3 a73c
00000070: 6974 c637 f2e3 e9bc 5388 04bd 188a a2bc
00000080: ed17 a4bc fccb a9bc dbf7 bdbc 68fa ef3c
00000090: 0594 20bc 6a97 96bb 8b57 63bc 10c5 a63c
000000a0: e163 aebc 90d5 24b9 c024 05bd fde5 a13c
000000b0: 34bd c43c c636 0a3d 98a6 8fbc 072b dcbc
000000c0: bf2e c53b 5070 35ba b981 0cbd 3b9f 0cbc
000000d0: df98 cc3b 2739 06bd e9d1 ce3c d64a aa3c
000000e0: 9878 8dbc baf8 8ebb eab5 06bd 6325 d5bb
000000f0: 3c90 933c 99fb 89bc 25b2 b03c ea22 d3bb
0.02431371 -0.023962867 -0.017633345 -0.030936832 0.032320775 -0.006927878 -0.01434117 0.012636258
-0.0036567973 0.032317873 -0.016393919 -0.027029365 -0.0150428815 0.022783639 -0.0023433142 -0.031616192
-0.012713651 -0.0027633826 0.0024749236 0.0032563007 -0.014977847 0.004787106 -0.019425306 0.024680007
0.00047207397 -0.015667062 -0.014008237 0.020502044 2.3657647e-05 -0.028551076 -0.03235657 -0.019841239
-0.02003094 -0.02072715 -0.023189476 0.029294208 -0.009800916 -0.0045956867 -0.013875852 0.020357639
-0.02128786 -0.00015719817 -0.03250575 0.019762987 0.024016 0.033743642 -0.017535493 -0.026875986
0.0060175355 -0.0006921338 -0.0343034 -0.008582885 0.0062438096 -0.03276935 0.025246577 0.020787638
-0.017269418 -0.0043631466 -0.03288833 -0.006504701 0.018013112 -0.016843604 0.021569321 -0.006443371

classifier.2.weight f4 [64]
00000000: 64ec 7a3f e823 7b3f 2d1a 823f dbd1 803f
00000010: c936 7c3f c709 7f3f 7fe0 7c3f cadb 823f
00000020: 53aa 7b3f 9850 803f 92b2 7c3f ae32 813f
00000030: bb3c 823f 337f 803f 1e52 823f dd55 7e3f
00000040: 6763 823f bf0e 7f3f 7265 813f 26e4 803f
00000050: 2ee7 803f e1cc 7a3f a431 7c3f 794a 7b3f
00000060: 7d8d 7b3f 137c 7c3f 44eb 813f 3d66 7f3f
00000070: 1f26 7d3f 82d0 813f aed2 7c3f 06ff 803f
00000080: 1d32 823f fb3c 7d3f cdc5 7b3f 259c 813f
00000090: 1236 813f 5421 7e3f 3320 7e3f d15d 7a3f
000000a0: c921 7e3f fa3f 813f 6619 7e3f 4364 803f
000000b0: 9e9b 803f 7335 7b3f 3ad2 823f abde 813f
000000c0: 1bc8 7b3f 49d4 7a3f 253a 813f b215 823f
000000d0: 8c0d 7f3f b484 7d3f 3c99 7d3f cfb6 803f
000000e0: 7c9d 803f 45db 813f 9e49 813f 2119 803f
000000f0: 7643 7e3f de2d 823f b42b 813f 9caf 813f
0.98016953 0.98101664 1.0164238 1.0064043 0.98521096 0.99624294 0.98780054 1.0223324
0.9830677 1.0024595 0.98709977 1.0093591 1.0174783 1.0038818 1.018131 0.99349767
1.0186585 0.99631876 1.0109084 1.0069625 1.007055 0.9796887 0.98513246 0.9816051
0.9826277 0.9862682 1.0149922 0.9976538 0.98886293 1.0141757 0.9875897 1.0077827
1.0171543 0.98921174 0.98348695 1.0125777 1.0094626 0.99269605 0.9926788 0.977994
0.992703 1.0097649 0.99257505 1.0030597 1.0047491 0.9812843 1.0220406 1.0146078
0.9835221 0.9798017 1.0095869 1.0162871 0.99630046 0.99030614 0.9906194 1.0055789
1.004806 1.0145041 1.0100591 1.0007669 0.9932169 1.0170248 1.0091462 1.0131717

classifier.2.bias f4 [64]
00000000: b785 5ebc 62fc 18bc 66a6 783c a44e 2c3b
00000010: 8017 a5bb b7db 803c d99e 4f3b e2b0 933c
00000020: b199 94bc aa11 0a3c efb7 f4ba ddb8 8e3c
00000030: 42ef 893c 7806 ce3b 10fe 8e3c c984 83bc
00000040: 28c1 a03a 5a27 1a3c 5896 de3b c3d5 0e3c
00000050: f195 663c 8efb 89bc 6c8f 16bc a3dc 90bc
00000060: 5a73 4cbc aed6 403a 4b6a 973c 3bcd d23b
00000070: 0aec 0d3c cebf 8d3c e317 30bc 064a f93b
00000080: 8d09 a73c b289 3f3c 023f d7bb 1558 98ba
00000090: f4fc 4cbb dd0c 803c 41e4 c93b 2aef f0bb
000000a0: 4944 75bb 56dd 953a d900 75bc fbf2 1e3c
000000b0: 59f3 6f3c 1152 0c3c 6551 433c 71fb 863c
000000c0: 5f17 5dbc dcfa 89bc d0e3 5d3c 2c90 a03c
000000d0: 92a9 54bb 1aa6 69ba 69d4 4ebb 23eb 3a3a
000000e0: 77e9 0f3c 738a ec3b cc03 113c dfed 143c
000000f0: 76ad d5ba fcb6 ad3c 6bb0 d03a 0f28 31bb
-0.013581685 -0.0093375165 0.015176391 0.002629199 -0.005038202 0.015729768 0.0031680374 0.01802868
-0.018139692 0.008427063 -0.0018670539 0.017422134 0.01683772 0.006287392 0.01745513 -0.016054528
0.0012264596 0.009408796 0.0067928247 0.008717957 0.014073835 -0.016843583 -0.009189468 -0.017683333
-0.012478674 0.00073562085 0.018483302 0.006433157 0.008662233 0.017303374 -0.010747883 0.0076077012
0.020390296 0.011690544 -0.0065687904 -0.001162293 -0.0031278701 0.015631134 0.006161243 -0.0073527293
-0.0037424734 0.0011433761 -0.014953815 0.009701486 0.014645421 0.008564488 0.011921261 0.016477318
-0.013494342 -0.016843252 0.013543084 0.019599997 -0.0032449705 -0.00089129957 -0.0031559712 0.0007130375
0.00878369 0.007218653 0.008851003 0.009089916 -0.0016302306 0.021205418 0.0015921717 -0.0027031933

classifier.2.running_mean f4 [64]
00000000: 2a4a 823f 37f0 c0be 6c35 17bd 77bf 243e
00000010: cf02 babc 6237 9abf c2d4 f33e 1efa 313f
00000020: 6bd9 4b3f 813c 46bf 5e9e 36be 220f 273f
00000030: 8cb5 1d3f db6f 393e 935e f1bd 27d2 283f
00000040: 1f97 663f 08f7 bb3f 4887 f33d ed82 e83e
00000050: 440f 2a3e a5f7 283f 0587 dabe c81a 3fbc
00000060: 305a 393f 3066 babe a7ac 483f 4350 193f
00000070: 140a 46bf a4a4 96bf 79ab babf 0650 1a3c
00000080: 8686 be3f 34d5 babf 67d3 59be d7c2 763f
00000090: ae03 13bf 883f 803f b723 ba3e e856 5c3f
000000a0: f658 503f 8c3d 743f f297 853f bf54 55be
000000b0: 386d fcbc b78d c0be 20a4 c6bd 3204 a0bf
000000c0: 7539 613e 0b4d 13bd afeb 813f 0a5c 4f3f
000000d0: 8fe0 083f cc53 f4be 927b fc3e 7ed7 3fbe
000000e0: c571 973e ed38 9ebe a5b6 46be a108 0ebf
000000f0: 5b1e 063f f8c8 e63e 4c3a 31bc 241e 153f
1.0178883 -0.3768327 -0.03691618 0.16088663 -0.022706417 -1.2048151 0.4762326 0.69522274
0.7962863 -0.7743607 -0.1783385 0.65257466 0.61605144 0.18109076 -0.11785617 0.6594567
0.9007434 1.4684763 0.11891037 0.45412388 0.16607386 0.66002876 -0.42681137 -0.0116641
0.7240324 -0.36406088 0.78388447 0.59888095 -0.7735913 -1.1768994 -1.4583579 0.009418493
1.4884803 -1.4596314 -0.2127205 0.9639105 -0.5742749 1.0019388 0.36355373 0.8607011
0.81385744 0.95406413 1.0436995 -0.2083311 -0.030813798 -0.3760812 -0.09699273 -1.250128
0.21994574 -0.035962146 1.015005 0.80999815 0.5346765 -0.47720182 0.49313027 -0.18734547
0.29578987 -0.30902806 -0.19405611 -0.55481917 0.5239007 0.45075202 -0.010817122 0.58249116

classifier.2.running_var f4 [64]
00000000: eef8 083f 2203 f83e b32a 753f 71dc e93e
00000010: 51e4 da3e ca93 493f fe3b 1b3f 2f99 263f
00000020: b93c 413f c823 173f b1e8 b03e 9555 843f
00000030: 2caa 5f3f 6756 c33f b8cf 223f b7be ed3f
00000040: 119c 993f 508a 4a3f 8505 3f3f bcc4 783f
00000050: b24d e73e 45fe 103f cf40 563f e10a 3d3f
00000060: 64da 4c3f 9f46 4f3f 008b 653f 5572 aa3e
00000070: 593c 963f 08db 043f d4b5 373f 65da 413f
00000080: d85a cc3e 60e7 d93e e90f 463f ac6d ce3f
00000090: 76db a73f 309a b23f 3a11 043f 254f 093f
000000a0: 6c94 a23f b764 a13e 72f0 db3e cf97 813f
000000b0: 0c35 f03e 2eec fe3e 15ce c93e a8ed 073f
000000c0: 68de 063f 3770 fc3f 2ab9 343f 7c1c 0d3f
000000d0: d8ee 903f b7e1 f53e 1c91 083f 77c9 c03f
000000e0: a64e 403f e575 733f e30a 1b3f 7782 273f
000000f0: a87c 033f 6bc1 153f 0ad2 083f e22b 8a3e
0.53504837 0.4843989 0.9576828 0.45675996 0.42752317 0.78741133 0.60638416 0.6507749
0.7548328 0.5903897 0.3455253 1.0338618 0.87369037 1.5260743 0.63598204 1.8573827
1.2000753 0.791173 0.746178 0.9717519 0.45176464 0.56637985 0.8369264 0.73844725
0.8002074 0.80967134 0.8966522 0.33290353 1.1737167 0.51896715 0.7176182 0.7572387
0.39913058 0.42559338 0.77368027 1.6127219 1.3113849 1.3953304 0.51588786 0.5363639
1.2701545 0.31522152 0.42956883 1.0124453 0.46915472 0.49789566 0.3941504 0.5309701
0.52683115 1.9721745 0.7059504 0.5512159 1.1322889 0.4802377 0.5334642 1.5061482
0.7512001 0.9510177 0.60563487 0.6543345 0.51362085 0.5849826 0.53445494 0.26986605

classifier.4.weight f4 [64, 64]
00000000: 3993 abbd e600 d33c f3fe b43c a89e 783d
00000010: e5ab c63d 1ef6 d9bd fca0 c53c 78d4 5abd
00000020: 0d10 bd3d d4e7 a03d f9bb febb 3f97 59bd
00000030: 31c9 853d ded7 a93d 03b7 a73b 44fa ed3d
00000040: f78f bf3d 6b2a 483d f9e8 44bd 111f 5cbd
00000050: 245d 00be fbec 5bbd 1e84 f93b 7634 abbd
00000060: 7b0d 983d 6079 76bd 572e d9bd 1258 e1bd
00000070: 59a7 93bc 6e54 43bd 2909 d23b 9b03 143b
00000080: 96ab cebc 05dc e6bd 21dc 5a3d fc7b 3cbd
00000090: 60fc af3b b3b8 21bd e5c2 513d becd e73c
000000a0: bbb0 53bd 67ca 003d 037d fbbd 52a9 8cbc
000000b0: d8b4 3bbb b4ae f1bd d6e3 f63d ecf2 ff3d
000000c0: 60fd 60bd 8df5 e1bd ad47 1e3d 4566 113d
000000d0: 3370 a23d 3016 d23d 689c 023d 3daf cdbd
000000e0: 5402 7c3d 1ada b13d 06f2 d2bd ec3e d33c
000000f0: 47d3 b4bd ea5f 243c 81d0 c43d 3f63 923d
00000100: cc0a 9f3d cea3 9e3d 429c dbbd 84ea a0bd
00000110: 73e2 f9bd 61f3 cfbc f883 bbbd 231f f83c
00000120: 1c4e b7bd a5e2 b9bd 4106 303d f12b bbbd
00000130: 24cd 543b b88f 873d 4271 e4bc 6051 cc3d
00000140: df44 8bbd 2c4f 87bd 3f87 dcbd ff9d e8bc
00000150: 4899 d1bb c6ab bebd e468 f3bd 05e7 f73d
00000160: c244 b53c 5ae5 263d 4c18 a93d 335d e8bc
00000170: 4ee3 2b3d 7bc2 213c db8d dcbc d20c 173c
00000180: 2ba8 af3d 6f18 c5bd d0ce a2bc eef4 2c3d
00000190: ebae 09be 9898 d13d b70d e5bd e79c 7e3d
000001a0: bec9 b43d afd6 0ebd b844 7ebd a67a 60bd
000001b0: 1550 f93c fda5 e3bd 3619 bc3d 1de5 c0bd
000001c0: 0a1c 93bd ae5a 8e3d 4367 c0bd da4f bb3d
000001d0: 1720 b03d ebd6 5e3d 0d8e ea3c bb47 b8bd
000001e0: 9374 01be d0b6 7c3b fd94 183d 793d cbbc
000001f0: 9a77 863d 4070 c03b 4f07 debd 6c08 85bd
00000200: c59f 3cbd abdc fe3d 212e 5b3c 95f4 94bd
00000210: c3fa 73bd 942e a13d c4ed 173d 4138 78bd
00000220: ab12 8fbc 4fcc 323d a468 1b3d b5de c03d
00000230: b7be b4bd 3050 a23c 7174 963c 611f ecbd
00000240: 6a9d 8ebd 35ca 3cbc f984 bcbd 3750 033e
00000250: bb65 fa3b 7a2f 95bc 0906 ef3c 808f 32bd
00000260: fe2e f7bd 6e31 aebd c59c ebbc d7df cabc
00000270: f629 09bd 73fe 883d 8c86 863d 3665 08bc
00000280: 5be7 503c 4d8e c03d 145d efbd 1f55 d2bd
00000290: 0743 95bd 4ad7 d33d d477 9cbd a88c 6ebd
000002a0: e698 353c 8066 c53d 4a0f cb3c d86d bf3c
000002b0: 1a2f bc3d 4edf a03d 6d8b 053e 0f15 8ebd
000002c0: 0fc2 563c 14b1 c73d a70b d4bb b454 aabd
000002d0: fd3d b1bd 3827 e5bd ebb8 d6bd 7b04 cbbc
000002e0: fa12 c03d 50ce 9cbd 4575 9e3d a3ca fe3d
000002f0: 9d07 b6bd 9cc1 963d b693 653d e446 dfbd
00000300: e457 3d3d 19d4 9d3b 4a1e e43c be52 cdbc
00000310: b801 e7bd 5643 b1bd 9dc4 713d 886f c23c
00000320: 8a29 a6bc 6ee0 a2bd 2e09 a7bc 030a f1bd
00000330: 3ff2 0a3d d633 263d bb9c af3d e029 663d
00000340: 0e98 d83d 3106 653d 3457 f03d a76a c53d
00000350: f5f9 633d b584 803d 6b01 ab3d e2d3 ea3d
00000360: 4d3d c4bd 16da 1bbd 39d8 4a3d 0883 63bd
00000370: 5ddb f73d 96e1 5abd dfac a2bb 5103 013d
00000380: 46cb 3abc fa6d 29bd 0688 cabd 38bf 6bbd
00000390: 8003 843d 76ae 663d 993a 903d c699 db3d
000003a0: 91fa e2bd 9a2c e23d 0882 edbd f0e9 12bd
000003b0: 5e68 ff3c 57e2 cfbc 68c8 8b3d 4946 0d3e
000003c0: 0a5f 983d 68d7 5abd 92d4 d73c 9cac 0abe
000003d0: d248 d8bd e436 49bd 5e0f 763d 70ed f13d
000003e0: d88d 9e3d c309 89bd 2977 a2bd b2b7 f5bd
000003f0: 63ee 813d 7f09 fa3d 423b 4b3c a5b4 84bd
-0.0837769 0.025757264 0.022094226 0.06069818 0.09700755 -0.10642646 0.024124615 -0.053425282
0.09231577 0.07856718 -0.007773873 -0.053122755 0.06532515 0.082931265 0.0051182522 0.1162
0.09353631 0.048868578 -0.048073743 -0.053740565 -0.1253553 -0.0536928 0.0076146265 -0.083596155
0.07424446 -0.060174346 -0.10604542 -0.11003126 -0.018024134 -0.04768794 0.0064097834 0.0022585157
-0.025228303 -0.11272434 0.053432588 -0.04601668 0.0053706616 -0.039482784 0.051211257 0.028296348
-0.051682215 0.031443026 -0.122797035 -0.017170582 -0.0028641727 -0.118009 0.12055175 0.124975055
-0.054929137 -0.11033163 0.038642574 0.035497922 0.079315566 0.10258138 0.031887442 -0.1004319
0.061525658 0.08684178 -0.103000686 0.02578684 -0.088293605 0.010032633 0.096100815 0.07147836
0.07765731 0.07746087 -0.10723163 -0.0785723 -0.12201395 -0.025384607 -0.091560304 0.030288285
-0.08950445 -0.09076432 0.042974714 -0.091392405 0.0032470906 0.06619209 -0.027886037 0.099764585
-0.068002455 -0.06606898 -0.10767984 -0.02839565 -0.0063964464 -0.09310107 -0.11885241 0.1210461
0.022127513 0.04074607 0.082565874 -0.028364753 0.04196482 0.009873028 -0.02692311 0.009219365
0.08576997 -0.09623801 -0.019874007 0.04222577 -0.13445632 0.10234183 -0.111842565 0.062161352
0.08827542 -0.034872707 -0.062077254 -0.054804467 0.030433694 -0.11115644 0.09184496 -0.094187
-0.071830824 0.069508895 -0.093946956 0.0914609 0.08599871 0.05440418 0.028632188 -0.089980565
-0.12642126 0.0038561113 0.03725146 -0.024809586 0.06565781 0.0058727562 -0.10841238 -0.06495747
-0.046050806 0.12444433 0.013377697 -0.07273213 -0.059565317 0.07870212 0.037091985 -0.060600523
-0.017464956 0.043651875 0.03794159 0.09417478 -0.088254385 0.019813627 0.01836607 -0.115294226
-0.06963618 -0.011522819 -0.0920505 0.12823568 0.0076415217 -0.018211115 0.029177682 -0.043593884
-0.1206951 -0.08505522 -0.028761277 -0.024764938 -0.033487283 0.06689157 0.065686315 -0.008324912
0.012750472 0.09402142 -0.11687675 -0.10270142 -0.07288175 0.103437975 -0.07640043 -0.05823961
0.011083817 0.09638691 0.024787564 0.023367807 0.091886714 0.07855092 0.13041468 -0.0693761
0.013107791 0.09750572 -0.0064711156 -0.08316937 -0.086544015 -0.11189121 -0.10484489 -0.02478241
0.093786195 -0.076565385 0.07737211 0.12440994 -0.08888171 0.07361147 0.05604907 -0.10902193
0.046226397 0.004816544 0.027846474 -0.025063869 -0.11279625 -0.086554214 0.059025396 0.023734823
-0.02028348 -0.07952963 -0.02039012 -0.11769488 0.03392243 0.04057678 0.08574816 0.05619228
0.10575877 0.055914108 0.11735383 0.09639483 0.0556583 0.06275312 0.0834988 0.11466195
-0.09582005 -0.03804978 0.049522612 -0.055544883 0.12102387 -0.05343779 -0.0049644555 0.031497303
-0.011401003 -0.041364647 -0.09889226 -0.057555407 0.0644598 0.056318723 0.070424266 0.10722689
-0.11082948 0.11043663 -0.11597067 -0.03586763 0.031177696 -0.025376482 0.06825334 0.13796343
0.07440002 -0.053428084 0.026346479 -0.13542408 -0.10560764 -0.049124613 0.06007325 0.11812866
0.07741898 -0.06691315 -0.07932884 -0.11997928 0.06344297 0.122088425 0.012404265 -0.06479768

classifier.4.bias f4 [64]
00000000: 86cb fc3d acc9 f2bd 7637 f03d 64cb 803d
00000010: d09d db3d 18c9 a3bc 6706 fb3d b957 d73d
00000020: 9e63 853d 9579 fe3d a0e7 803d bee8 f0bd
00000030: d9bc 0fbd 61b2 fa3d 6762 fbbd d4fb 51bd
00000040: 2c7b e9bd aa9a df3d 01c3 a0bd d4db 853c
00000050: 1bfd 9bbd 1658 20bd 2639 a5bd 5bf4 753d
00000060: 6621 37bc 91fd eb3d 530a 5dbd 8b58 933c
00000070: 5902 af3d 87a3 373d 1da0 e43d 4263 58bd
00000080: c182 67bb 0968 873d e053 d23d efb0 6f3d
00000090: 4d0a ef3d c0cf f43d 34a7 95bc daf6 cc3c
000000a0: 5efa 9dbd 6bef 893c 2502 c83d c332 8bbb
000000b0: 89e9 2a3d 1896 ed3d 25cc ca3d e867 19bc
000000c0: e380 b23b c9d8 efbd c0d5 03bd a8ff 643c
000000d0: 659c 7abd ad5f 7e3d 5df8 813d 8192 f43c
000000e0: 3624 873d 4b1c d9bc 132e 27bd a70a cb3d
000000f0: 4c67 e2bd 6d8b 963d 5e35 fbbc 2c32 a2bd
0.123435065 -0.11854872 0.11729328 0.06288794 0.1072346 -0.01999335 0.122570805 0.10514779
0.06513141 0.12425534 0.06294179 -0.11763142 -0.03509221 0.12241054 -0.12274628 -0.051265553
-0.11400446 0.10918172 -0.07849694 0.016340174 -0.076166354 -0.039146505 -0.08067541 0.06004749
-0.011177396 0.11522973 -0.053964924 0.017986557 0.0854537 0.044833686 0.11163352 -0.052829035
-0.0035325738 0.0661164 0.10269904 0.058518346 0.116718866 0.11953688 -0.018268205 0.025020052
-0.077137694 0.016837796 0.09766034 -0.0042479946 0.041726623 0.11600894 0.09902219 -0.009363152
0.0054474934 -0.1171127 -0.03218627 0.013976969 -0.061184306 0.062102962 0.063462 0.029855015
0.065987036 -0.026502749 -0.040815424 0.09914141 -0.110548586 0.07350812 -0.030665096 -0.07919726

classifier.5.weight f4 [64]
00000000: afec 813f 59d6 7f3f 6e35 813f 71a4 813f
00000010: 9dec 813f 3f17 7d3f c05e 813f 722d 7d3f
00000020: 67dc 7b3f af6d 7b3f 0ada 7e3f 3a32 823f
00000030: ca44 813f 1391 7f3f 7222 803f 0a60 813f
00000040: dbe5 813f b3ee 7e3f c0e8 813f 57c3 813f
00000050: b793 7a3f 6fe4 7c3f 84de 793f e5e3 7a3f
00000060: 17a8 7f3f 287f 803f 3937 803f 40d1 7b3f
00000070: aa3a 7a3f 2d1e 823f 5460 7b3f 218c 7d3f
00000080: f307 7a3f 6b5e 803f 4b41 7b3f 9948 823f
00000090: 15da 7d3f 372e 7f3f ab1f 7e3f c8ff 7f3f
000000a0: ea3c 7b3f fe90 823f 480d 823f 656e 7f3f
000000b0: 4015 803f ef34 803f bdc0 7f3f 8c45 7c3f
000000c0: f78f 803f aa7c 7d3f 2305 813f e88b 813f
000000d0: f4c9 7b3f ab50 823f 2e01 813f 528a 7a3f
000000e0: f7bb 7c3f d192 813f 8426 7e3f 5cea 7b3f
000000f0: e379 7f3f 8b8e 7c3f 5afa 7c3f aade 813f
1.0150355 0.99936444 1.009443 1.0128309 1.0150334 0.98863596 1.010704 0.9889747
0.9838318 0.9821424 0.9955145 1.0171578 1.0099118 0.9983074 1.0010512 1.0107434
1.0148271 0.99582976 1.0149155 1.0137738 0.97881645 0.9878606 0.97605157 0.9800399
0.9986586 1.0038805 1.0016853 0.98366165 0.97745764 1.0165459 0.9819386 0.99041945
0.9766838 1.0028814 0.98146504 1.0178405 0.9916089 0.99679893 0.9926707 0.99999666
0.9813982 1.0200498 1.0160303 0.99777824 1.0006485 1.0016154 0.9990347 0.9854362
1.0043935 0.9901835 1.0079693 1.0120821 0.9835503 1.0180868 1.0078485 0.9786731
0.9872431 1.012293 0.9927752 0.9840448 0.9979536 0.98655003 0.98819506 1.0146077

classifier.5.bias f4 [64]
00000000: 4140 b13c 82cd 363c a133 353c 970b 9e3c
00000010: 70b2 af3c f6be 9ebc 9462 2c3c dbb2 cebb
00000020: 2722 b13b ea54 4fbc e5f1 863b 007d 333c
00000030: cc39 503c af39 573b 3eb1 453c e695 543c
00000040: 1bc4 723c b9a1 ba39 c5b7 8c3c 9be7 433c
00000050: 06c5 973c 1cd2 50bb 9500 9ebc d28d 853c
00000060: 0de8 7c3c 7d91 9a3b c55f fdbb 3999 04ba
00000070: 47e4 a3bc 2061 a43c 9cd4 9cbc dabd 5bbb
00000080: 93df acbc 8276 863c 9b18 72bc 8c82 913c
00000090: 8971 63bc 1a99 8bbb 6131 503b 5cf2 0c3c
000000a0: 7a70 19bc 7495 a93c cab2 9c3c 70cb 9d3c
000000b0: 09d9 653b 2d7c c83b 854a 793c 27e1 c83a
000000c0: 98e7 893b 78d9 31bc cd09 883c 91ef 853c
000000d0: b4c4 4dbc 8380 7c3c b696 583c 4cd6 a0bc
000000e0: 8e65 54bc bc27 933c 6825 a53a 1805 59bc
000000f0: bb21 85bb 00dd c03b ff83 75bc 3efb 9b3c
0.021637084 0.011157395 0.011059673 0.019292636 0.02144739 -0.019378167 0.01052155 -0.0063079423
0.0054056826 -0.012654522 0.0041181915 0.010955095 0.012709092 0.0032840779 0.012066184 0.012975192
0.014817263 0.00035597177 0.017177472 0.0119570745 0.018526565 -0.0031863516 -0.019287387 0.016302977
0.015436185 0.0047170506 -0.007732364 -0.00050582323 -0.020006312 0.020065844 -0.019144349 -0.0033529908
-0.021102702 0.01641393 -0.014776374 0.017762445 -0.013882049 -0.0042601945 0.0031767713 0.008602705
-0.009365195 0.020701148 0.019128222 0.019262046 0.003507199 0.0061183185 0.015215521 0.001532589
0.0042085163 -0.010855071 0.016606236 0.016349586 -0.012559105 0.015411499 0.013219526 -0.019633435
-0.012963666 0.017963283 0.0012599649 -0.013245843 -0.004062859 0.0058857203 -0.014985084 0.0190407

classifier.5.running_mean f4 [64]
00000000: 90f3 c73d ca1b d8be 54e6 773d 2d49 993e
00000010: c954 8c3e 27a1 9cbe 247f 463d 4850 a23d
00000020: e067 a43c 980c 9dbe 52ed afbe 50b7 ddbe
00000030: 22ee b7be a04a 32bd 2b04 8b3d 83c5 50bd
00000040: c661 ea3d d26a 913e b0fe 53bd 3e98 94be
00000050: 8bf6 343e 3e11 33be 27f4 8abd 1dc5 303e
00000060: a462 33bb 2485 df3e e23c 0f3f 38bd 8ebc
00000070: be58 313f 9809 21be 3098 8abe dbb5 05bd
00000080: 3b44 823e bb88 0c3e 7fb8 363e cc9f 6a3e
00000090: f940 9f3e be2f 4dbe 1405 ef3d 624c a73d
000000a0: e327 673d 0795 75bd 2819 a63e b6a1 31be
000000b0: bda9 6bbc 0897 773e 55f4 e6bd 03c7 89bd
000000c0: 587e 8f3d b2e2 39be d328 34be 9183 dbbe
000000d0: 3592 84be 0261 853e 8906 0dbd 80e9 85bd
000000e0: 7fd8 023d aee8 f5bd 44a1 e23c 649b 97be
000000f0: 9b84 18be d0c0 1d3e 618e 1cbe 46fb 64be
0.09763253 -0.422087 0.060522392 0.2993864 0.27408436 -0.305917 0.048461094 0.07925469
0.020069063 -0.3067367 -0.3436075 -0.4330392 -0.35923868 -0.0435282 0.06787904 -0.05096961
0.1144443 0.2840181 -0.05175656 -0.29022402 0.17672174 -0.17487046 -0.067848496 0.17262693
-0.0027372027 0.43656266 0.55952275 -0.01742421 0.69276035 -0.15726316 -0.27069235 -0.032644134
0.2544268 0.13724034 0.17843817 0.2291252 0.31104258 -0.20037743 0.116708905 0.08168866
0.056434523 -0.059956577 0.32441068 -0.17346844 -0.0143837305 0.24178708 -0.112770714 -0.067274116
0.0700652 -0.18152884 -0.17593698 -0.42873815 -0.25892797 0.26050574 -0.03443006 -0.06538677
0.031944748 -0.12007271 0.027664788 -0.2961074 -0.14894335 0.15405583 -0.15288688 -0.22361478

classifier.5.running_var f4 [64]
00000000: 6b2d 973e a016 ad3e fde9 903e 3881 aa3e
00000010: 1602 633e 9c4f 833e 9337 c13e f80e 5f3e
00000020: c6dd 333e f96c 813e 5dea 3d3e 0c56 933e
00000030: e311 9b3e 8c52 463e 2fd7 483e f3ae 963e
00000040: 9d53 4a3e 5115 a33e 32cd 9b3e f90a 703e
00000050: eb6d 2a3e 1890 ad3e 3cbf 5a3e 1105 2f3e
00000060: 85ef 583e f4a4 5d3e 0466 823e 8b3c a93e
00000070: 5950 673e c285 5b3e b850 9b3e 0530 823e
00000080: a4d5 d33e 021f 893e 64ea 833e 4275 ac3e
00000090: b217 813e a4ca 793e 85b1 503e 85f4 953e
000000a0: aa85 893e fb17 753e dee5 413e 6c87 8b3e
000000b0: 772d 423e 80d0 893e c0b9 6e3e 8a62 393e
000000c0: 208b 5b3e 149e 5a3e d2dd 813e 130c 873e
000000d0: c167 5a3e 64f1 bf3e 63d7 8a3e 9208 473e
000000e0: 0f31 113e 7c03 083e d994 523e 8b11 5f3e
000000f0: 5695 5d3e f63f 253e c246 a93e e6f6 f73e
0.2952684 0.33806324 0.2830352 0.3330171 0.22168764 0.25646675 0.37737712 0.21783054
0.17565069 0.25278452 0.18546434 0.28776586 0.30287084 0.19367427 0.19613336 0.2943035
0.19758458 0.318522 0.3042999 0.23441686 0.16643493 0.33898997 0.21362013 0.17091776
0.2118512 0.21644956 0.25468457 0.33054003 0.22589244 0.21437743 0.3033502 0.2542726
0.41373932 0.2678147 0.25764763 0.3368321 0.2521339 0.24393708 0.20380218 0.29288116
0.2685979 0.23934929 0.18935344 0.27251756 0.18962656 0.26916885 0.23313046 0.18103996
0.2143979 0.21349365 0.25364548 0.263764 0.21328641 0.37488854 0.27117452 0.19436863
0.1417887 0.13282579 0.20564593 0.21784036 0.21638998 0.1613768 0.33061796 0.48430556

classifier.7.weight f4 [64, 64]
00000000: 736b 73bd 0ff9 303b aa4c 3ebd 85ec 293d
00000010: aa56 333d e9ee b8ba ff71 4ebd 8fe0 ce3d
00000020: da02 c4bd a9f4 323d 598b c73d 1557 a1bd
00000030: bc0e 91bc ede6 a83d e95c 223d 0b43 f7ba
00000040: a46b 6b3c eea9 01be 414f 0abd d063 a9bd
00000050: 46d9 d5bd 1439 99bd 0030 8c3d 9992 bcba
00000060: 69ac 653d 8284 9cbd b60a 22bd ac53 493b
00000070: 85a3 4e3d 27fe cd3d 0f54 dcbd 333f cd3c
00000080: aabf c13d 837c 38bd bd1e c53c 2ebe ab3c
00000090: 95bf 01be 14f8 d4bc 742e 00bd c8e7 ce3d
000000a0: 05b7 cd3d 9074 8c3d e2ec 8fbd f61b 103e
000000b0: eb48 11bc e052 203d 570c 1a3d 3e89 b3bc
000000c0: 6441 d6bd 4887 c43d 6e55 ea3d 9e61 e9ba
000000d0: 75f9 643d 0776 b5bc efc7 8cbc a11c cb3d
000000e0: 0d7f 943c c6a7 623d 44a6 e23d 9bd5 fd3d
000000f0: 8a55 9cbd 313c 33bd a599 4ebd 10d2 42bc
00000100: 5f21 003e 4907 56bc de18 f93c 1cff d83d
00000110: af9b 6fbd c014 85bd adc8 a03d cd06 54bd
00000120: 15e3 65bd e0f5 95bd 7ff1 2ebd 6380 cbbc
00000130: e877 81bb ad2b a33d 51fb a43d 7704 d33d
00000140: a2ce abbd 4d62 9b39 036a 33bd 496d b93d
00000150: 5a54 b23c cb7a bc3d 856c e13c bd74 a13c
00000160: a831 a93d 7d4f 973d cb1f 913d 7e72 aebd
00000170: b836 4c3d 667e c8bd 7a0d 1abd c77c 5a3d
00000180: 4bbf 233d 3131 a8bc d56f c63c 47d5 c83d
00000190: de55 a5bd cba7 81bd 8e76 b7bd 16e6 b7bd
000001a0: a4ce 893d 1f2c 8dbd eedc 6ebd 9958 b03a
000001b0: a7fc aa3d a369 a5bc c021 babd 09a8 a1bd
000001c0: 1ce0 0f3e b5bf f8bc 8df9 d9bd df9e 1dbd
000001d0: e505 08bd 6833 1dbd 38e0 993d 7238 853d
000001e0: be3e b1bc 95bb bb3b 836a 60bb 7e20 cebd
000001f0: 6162 d4bd 99ed c33c bb61 2b3d 04fd b1bc
00000200: 66c0 51bd e123 09be 34e6 b13d 8bef cebc
00000210: 7a27 bdbc 0578 cf3b f9ae 0fbd 63c2 f53c
00000220: 8f9a a53d 21b0 d4bd efeb b03c a10c 9fbd
00000230: c8ce 84ba 8ab2 ab3d 57c9 83bd 7bd8 00be
00000240: 9a7d b1bd a3a7 ba3d 9116 21bd e3ca b43d
00000250: d9e6 993b c7d0 bebb 08d7 d53d cdf7 89bb
00000260: 6e4d 9cbd 1dee 13bd a281 9bbd 7525 c2bd
00000270: b52d d83d afe0 143d e1f3 c9bd c5d0 ad3d
00000280: bc60 863c 844e 243c 7b38 5fbd 064f 9fbc
00000290: 662b 2fbd 3eae 10bc 8ede 2f3d bd47 e4bd
000002a0: 5c03 7f3d dbcf 80bc 805a 57bd 3e5a 013d
000002b0: b7fb bcbc b2b3 853c 3938 bbbd 8107 e4bd
000002c0: 9db8 fcbb 901d d9bd 321a 00be 7aae 47bd
000002d0: cb75 e5bd fe4b 1dbd a49d 6abd 34b8 1dbd
000002e0: 0691 c33d 2e4b d5bd bf79 963d c5cc 0ebd
000002f0: 0d90 403d 5bf8 acbc 97e7 253c 5e9a 5abd
00000300: 5066 93bd 339c 3bbd 9aef 04bd 1151 91bd
00000310: add1 03be 69bd 8a3d 4ac0 f4bd a7c6 52bd
00000320: f944 edbd 742b 9a3c 525d e3bd 30cc dbbd
00000330: 1e1a bd3d 9890 07bd b0f8 c03d 85cd c03b
00000340: 40b9 f1bc 55b1 c7bd 6ca2 d6bd 4071 8a3d
00000350: 02cd b5bc 9630 033e 35b8 cfbd f9cb a2bb
00000360: d15e c23c 9755 8fbd bc1f dc3d b487 5fbd
00000370: 0d0b 4fbb b909 193c 3fc0 d0bb 9820 053e
00000380: 981f 66bc a602 bcbd 51cf 863d b17a 85bd
00000390: 8b6e bfbc 6274 51bd 69a7 17bd 807f 2abd
000003a0: b71d 6d3b b13d d5bb c638 e23d cb7c 0bbe
000003b0: 0203 293d 574d afbd 7046 c93d d881 943d
000003c0: b446 a0bd 658f f0bb c187 ab3d aa1b d33d
000003d0: e99a 803d faed 233b ee29 073e 12c0 0ebd
000003e0: c0f0 b4bd 1075 a53d 6b70 9e3d aca8 f8bd
000003f0: 2c27 093d 9a18 f43d 5cb4 573d b58e 3b3d
-0.059428643 0.002700392 -0.04645983 0.04148533 0.04378382 -0.0014109287 -0.050401684 0.10101425
-0.095708564 0.043690357 0.09743375 -0.07877938 -0.017707221 0.082471706 0.039639387 -0.0018864585
0.014368925 -0.1266248 -0.03376699 -0.08270991 -0.10441832 -0.0748159 0.06845093 -0.0014386951
0.056072626 -0.07642461 -0.039560996 0.0030720038 0.050448913 0.10058241 -0.107582204 0.02505455
0.09460385 -0.04504062 0.024062509 0.020964708 -0.12670739 -0.0259972 -0.0312943 0.101028025
0.10044674 0.0685817 -0.07027604 0.14073166 -0.008867483 0.039141536 0.037609424 -0.021916028
-0.10461691 0.09596115 0.11442076 -0.0017805581 0.055901963 -0.022151006 -0.01718518 0.0991757
0.018126989 0.055335782 0.11066869 0.12394258 -0.07633503 -0.043758575 -0.050439496 -0.011890903
0.1251273 -0.01306326 0.030407365 0.10595533 -0.05849808 -0.064980984 0.07850776 -0.0517643
-0.056124765 -0.073222876 -0.042710777 -0.024841493 -0.0039510615 0.07967315 0.08055747 0.10303586
-0.083890215 0.00029637144 -0.043802273 0.090540476 0.021768738 0.092031084 0.027517566 0.019708985
0.08261424 0.07388208 0.07086142 -0.085179314 0.04985687 -0.097897336 -0.03761051 0.053341653
0.039977353 -0.020531269 0.024223248 0.098063044 -0.080730185 -0.06330832 -0.089581594 -0.08979432
0.06728867 -0.06893181 -0.058316164 0.0013454139 0.08348971 -0.020191973 -0.090884686 -0.07893378
0.14050335 -0.03036485 -0.10643301 -0.03848159 -0.033208746 -0.038379103 0.075134695 0.06504907
-0.021636363 0.0057291486 -0.0034243173 -0.10064791 -0.10370327 0.023917006 0.04184125 -0.021727093
-0.051208876 -0.13392593 0.08686486 -0.025260707 -0.023090113 0.006331446 -0.035078976 0.029999917
0.0808612 -0.103851564 0.021596877 -0.07766081 -0.0010132426 0.08383663 -0.06434887 -0.12582581
-0.08666535 0.091140054 -0.03932816 0.0882776 0.0046967086 -0.005823228 0.104414046 -0.0042104484
-0.07631956 -0.036115754 -0.07593085 -0.094798006 0.10555593 0.036347087 -0.09860969 0.08487085
0.016403548 0.010028485 -0.054497223 -0.019446861 -0.042765997 -0.008830605 0.042936854 -0.111464955
0.062259063 -0.015724113 -0.052576542 0.031580202 -0.023069246 0.016321037 -0.09141583 -0.11134244
-0.0077124373 -0.10601342 -0.12509993 -0.04875038 -0.11204108 -0.03840255 -0.057279244 -0.038505748
0.095491454 -0.1041473 0.0734744 -0.034863252 0.047012378 -0.021114519 0.010126016 -0.053369872
-0.07197249 -0.04580326 -0.032455064 -0.0709554 -0.12872954 0.06774408 -0.11950739 -0.05145898
-0.11585421 0.018819548 -0.11101784 -0.10732305 0.09233497 -0.03309688 0.094224334 0.005883875
-0.02950728 -0.0975062 -0.10480198 0.06759882 -0.022192482 0.12811503 -0.101425566 -0.004968163
0.023726853 -0.06998747 0.1074824 -0.054572776 -0.003159228 0.009340697 -0.006370574 0.13000715
-0.0140456185 -0.09180193 0.06582511 -0.06517542 -0.02336814 -0.051136382 -0.03702489 -0.0416255
0.0036181042 -0.0065075983 0.11045985 -0.13621823 0.041262634 -0.08559673 0.09827888 0.07251328
-0.078259856 -0.0073413127 0.083755024 0.10308011 0.06279547 0.0025013671 0.13199589 -0.03485114
-0.08834982 0.080789685 0.07736286 -0.121415466 0.033484623 0.11918755 0.05266224 0.045790393

classifier.7.bias f4 [64]
00000000: cf62 35bc ca0c b93c afdc d93d cfc4 4bbd
00000010: 4ce2 19bc 910c 0f3c 46f3 663d 0744 aabb
00000020: 2e0e e2bd a745 82bd 4cca f03d 856d 8bbd
00000030: 6c30 303d 196b a53c eee5 463c f34e eebd
00000040: 5f92 82bd 3753 b93b da38 fd3d 4e3c 1dbd
00000050: 86b8 0d3d f8fd e93d a343 63bc e01e d2bc
00000060: e9e5 aebc 1e27 f1bd 11ad ab3d af6b c2bd
00000070: f54a de3d eed7 6c3d a0c6 79bd 4205 53bd
00000080: f26e f6ba e836 acbd 696f f33d cdac b23d
00000090: e912 ab3d 5b09 8abd 0266 52bc 1977 6e3c
000000a0: 6980 a83d 95b4 fd3d 4252 a23d 3a06 d8bd
000000b0: dfa6 fabd 16b8 8a3d ded0 ab3d a348 e7bd
000000c0: d4e5 a7bc 54ae ae3c 57ec a8bd a479 b73c
000000d0: 2717 ccbd 3f74 a83d c145 923d f4c9 f53d
000000e0: c5c9 843a 7a9e 2e3d 2c64 15bd 377a 18bd
000000f0: 18fb c23c 3ce3 6cbc 5a70 abbd fdb2 e53d
-0.011070921 0.022589106 0.10637795 -0.04974824 -0.009392332 0.008731023 0.056384347 -0.005196098
-0.11037861 -0.063609414 0.11757335 -0.068079986 0.04301493 0.02019267 0.01213978 -0.11636152
-0.06375574 0.005655672 0.12364359 -0.03838759 0.034599803 0.11425394 -0.013871106 -0.025649488
-0.021349864 -0.11775039 0.08382619 -0.09493195 0.10854141 0.057823114 -0.06098044 -0.051518686
-0.0018801375 -0.0840891 0.11886484 0.087243654 0.08353216 -0.06740066 -0.012841703 0.014554762
0.08227617 0.12387959 0.07925846 -0.105480626 -0.122388594 0.06773393 0.08389448 -0.11293151
-0.020495333 0.02132336 -0.08248203 0.02239687 -0.099653535 0.08225297 0.07142211 0.1200141
0.0010130933 0.042631604 -0.036472484 -0.03722593 0.023801371 -0.014458474 -0.08371039 0.1121578

classifier.8.weight f4 [64]
00000000: 3e27 833f 3d1f 833f 2e21 833f 4b7a 813f
00000010: 1738 823f 521e 833f ee26 813f 2a65 813f
00000020: bfe4 823f 34a9 7f3f 482c 823f aabb 823f
00000030: a5d6 823f 2a8c 823f 1d5b 823f f7e3 813f
00000040: 914d 823f 2cff 813f ad57 823f 9bd4 813f
00000050: c6f8 813f d8cc 813f 55bf 803f fba1 823f
00000060: fa2d 833f e629 833f 4ec1 823f a21b 833f
00000070: 56cd 813f 2427 813f a6c0 813f 77af 823f
00000080: 1200 833f d45c 813f 640a 833f 2d21 833f
00000090: 4d3a 833f 9929 833f 7e37 833f 79e0 7f3f
000000a0: 9591 803f 5ed3 813f c36a 823f 8eac 813f
000000b0: 68db 823f 4727 833f b112 813f 7ff9 813f
000000c0: 2ace 823f 8fd7 823f ef4e 803f 67aa 813f
000000d0: 573f 823f ac7b 823f 2813 833f 96b1 823f
000000e0: a688 813f 12ad 823f 3617 833f 2e7d 7e3f
000000f0: 7428 833f 210c 833f e332 833f 7102 823f
1.0246351 1.0243908 1.0244501 1.0115446 1.0173367 1.0243628 1.0090005 1.0108998
1.0226058 0.9986756 1.0169764 1.021352 1.0221754 1.0199025 1.0184056 1.0147694
1.0179921 1.0155997 1.0183007 1.0143007 1.0154045 1.0140638 1.005839 1.0205683
1.0248406 1.0247161 1.0215242 1.0242808 1.0140789 1.009007 1.0136917 1.0209798
1.0234396 1.0106454 1.0237546 1.02445 1.0252167 1.024707 1.025131 0.99951893
1.0044428 1.0142629 1.0188831 1.0130785 1.0223207 1.0246361 1.0083829 1.0154265
1.0219166 1.0222033 1.0024089 1.0130128 1.017558 1.0193992 1.0240221 1.0210445
1.0119827 1.0209067 1.0241458 0.9940976 1.024672 1.0238076 1.0249904 1.0156995

classifier.8.bias f4 [64]
00000000: 3c46 c73c c126 ca3c 2ba6 c73c 19f7 c83b
00000010: 05d3 943c bf6a 933c 4ea1 303c 887b dc3b
00000020: f8f2 ab3c b397 32bc 8787 2e3c abba c13c
00000030: 08ba c33c d91e ac3c eb8f 843c b8f0 4f3c
00000040: a5fb 953c e857 ec3b 9b06 063c 2e0d 8a3c
00000050: b921 7b3b ff52 043c c9ef 2a3b 51fb c93c
00000060: b953 953c 492c cb3c 4c07 a83c 2c38 c83c
00000070: 14ca a03b a0a5 153a 4fde b83b bf73 9e3c
00000080: 06c4 ae3c fad7 363b 68dd c53c 3630 c83c
00000090: 2ed2 cc3c df63 c13c dc46 713c 4353 27bc
000000a0: 8e5e 4fbc 348c 883c 9069 583c 81df 503c
000000b0: 078f c73c f9f2 c93c ed60 303c 8feb b13b
000000c0: 1a2f a83c f136 c83c 6334 85ba 92d1 a33b
000000d0: 4581 ed3a 49ff ac3c 446c c23c 93e1 983c
000000e0: 1cc0 313c 15fa c03c e2f0 c23c 6de6 b0ba
000000f0: cf20 ca3c d2cb c03c 4504 7e3c 43fc 673c
0.024325483 0.024676682 0.024371227 0.006132972 0.018167028 0.017995236 0.010780646 0.0067285933
0.02098988 -0.010900426 0.010652429 0.02364858 0.023892418 0.021010803 0.016181907 0.012691669
0.01830847 0.0072126277 0.008180286 0.016851988 0.003831966 0.008076428 0.0026082864 0.02465597
0.018228399 0.02480139 0.020511292 0.024440847 0.004906902 0.0005708579 0.0056417356 0.019342301
0.021333706 0.0027899728 0.024153426 0.024437051 0.025002565 0.023607193 0.014726367 -0.010212722
-0.012656821 0.016668417 0.013208762 0.0127486 0.024360193 0.024651991 0.010765296 0.005429692
0.020530272 0.02444026 -0.0010162707 0.004999348 0.001812019 0.021117823 0.023733266 0.01866225
0.010849025 0.023556748 0.023796503 -0.0013496407 0.024673847 0.02353469 0.015503948 0.014159265

classifier.8.running_mean f4 [64]
00000000: a267 283e e681 90bc 3f81 b4be e386 1ebe
00000010: 73fe d83d 642e 073e 5e30 f2bd 6fb2 853d
00000020: 41bb cbbe e039 863d fbd4 5cbe 9f59 c2be
00000030: 1f05 203e ad6f 46be b9cf c23e bfef 873c
00000040: d604 b53d 2d5b a8be 4a4f af3e 6ccf 563e
00000050: 7fbd a23e 2746 093f 852f 4ebe 36dd 98be
00000060: efb6 ab3c 31e1 64bc 06ac 3f3e c37c a33e
00000070: b36d bdbd 9c1c f83d 0b5a b03d 370b 85be
00000080: 40fc 36be bf88 41be be43 e73d a39b c6bc
00000090: 92d4 01be 6e5a b8be cc3e e53d 4fb6 b6be
000000a0: 660f 11bd a0f7 173f 90f6 673e cbab 99bd
000000b0: 83b1 473e 24f9 9f3d 3d73 b23e 33e7 203e
000000c0: 359c 693d 5498 82bb 15f9 343e dfd8 693e
000000d0: 3ae9 94be 02b9 b2bd ef6e d1bd 79fe 16be
000000e0: 0c04 8c3d 871d a63d b0e2 933c 424a aabb
000000f0: fcea 603e 462e 51bd 0409 b2bc 7ab5 093e
0.16445783 -0.017640065 -0.35254857 -0.15481143 0.10595407 0.1320129 -0.118256316 0.06528174
-0.397913 0.065540075 -0.2156562 -0.37959 0.15626954 -0.19378538 0.38049105 0.016593812
0.08838813 -0.32882062 0.3424018 0.20977563 0.317852 0.5362267 -0.20135315 -0.2985627
0.020961253 -0.013969705 0.18717965 0.31931123 -0.09249439 0.12114832 0.08610924 -0.2598512
-0.17869663 -0.1889982 0.11292218 -0.024244135 -0.12678745 -0.36006492 0.11193618 -0.35685965
-0.035415076 0.5936222 0.2265265 -0.0750347 0.19501309 0.07811192 0.34853545 0.15713196
0.057033736 -0.003985444 0.17673142 0.22836636 -0.29084188 -0.08726694 -0.10226237 -0.14745511
0.068367094 0.08111101 0.018052429 -0.0051968405 0.2196464 -0.05106952 -0.021732815 0.13448134

classifier.8.running_var f4 [64]
00000000: fa03 9e3e 0174 e03e e93a 263e 081f 2d3e
00000010: 05d6 0d3f d010 8c3e 0ba4 4f3e 04fd 073e
00000020: 0833 823e 4725 5b3e a2a5 363e c055 8a3e
00000030: ebf0 533e f158 393e 7430 083f d744 273e
00000040: 6930 2e3e 8d81 503e 9c8e 653e 333f 7b3e
00000050: 4ae6 a13e 0e2a 813e f44c 333e d6c0 533e
00000060: bbc9 2f3e 868f 843e dc90 503e 6cdf c03e
00000070: 9fe4 343e d675 3b3e 28e3 533e 286a 953e
00000080: 6487 2b3e 0932 203e 46cf 943e eb41 463e
00000090: 3150 1b3e 2362 673e 4d01 4d3e 6ae4 4a3e
000000a0: 33ba 703e 658c 953e 38bd ab3e 0ac2 923e
000000b0: 4add 3d3e 1a61 453e 3ad6 893e 52a2 473e
000000c0: eafd 643e d3aa 263e 00b8 2f3e d189 503e
000000d0: 3cff 2d3e 09e4 243e bc9c 4f3e 474b 483e
000000e0: c2f9 2c3e 69ea a43e d309 693e 32ff 3c3e
000000f0: 71d2 863e e023 693e 9023 8b3e ae1f 163e
0.3086241 0.43838504 0.1623341 0.16906369 0.5540469 0.27356577 0.20277421 0.13280112
0.2542956 0.21400939 0.17836621 0.27018547 0.20697372 0.18100335 0.53198934 0.16334854
0.17010655 0.2036192 0.22417682 0.24535827 0.3162101 0.25227398 0.17509824 0.2067903
0.17166798 0.2589075 0.2036776 0.37670457 0.17665337 0.1830667 0.20692122 0.29182553
0.16750866 0.15644087 0.29064387 0.19361083 0.1516731 0.2259603 0.20020027 0.19813696
0.2350853 0.29208675 0.335428 0.28663665 0.18541446 0.19275323 0.26921254 0.19495514
0.22362486 0.16276102 0.17160034 0.20365073 0.16991895 0.16102614 0.20274633 0.19559966
0.1689215 0.3221009 0.22757654 0.18456724 0.2633243 0.22767591 0.2717557 0.14660522

classifier.10.weight f4 [10, 64]
00000000: 656e 223d 65ee 94bd 3882 d8bd 5526 0abe
00000010: 892a 673d cbfb 77bd 8ada 7cbd 2ece 49bd
00000020: d9e6 d53d a4e8 8abd b7f6 043e 5307 a7bd
00000030: 099c a83d 677a eabc 8041 c83d 224a 9ebc
00000040: 719e ec3d bc85 a03d 3194 5bbc 4def a2bd
00000050: 74b4 00be 40be 0e3e 23a1 933c 8fd7 bf3c
00000060: 344e f13d 17c2 08be c012 833d 5064 d8bd
00000070: e6c5 a23c e12a a43d 56f0 cabc 995d 6ebc
00000080: 05e7 e3bd ff95 f33d 04a3 f33c 02cf 13be
00000090: b4ab 38bd 57d8 e83d b473 83bd 8824 0cbe
000000a0: 2a00 32bd a0b4 5abd 8cdf 07be c52d 9a3d
000000b0: a642 ab3d 9560 ccbd d49c 9abd bc3e c8bd
000000c0: 1ece d6bd 6a60 e0bd ebc6 7dba b804 a53c
000000d0: 8175 8cbc fc1c 91bd a790 ac3d 365f 4ebd
000000e0: 767a f6bd 925e 073e 552c 11bd 734f 0cbe
000000f0: 128b de3c cefe d4bd 1b4e 0dbd b06f 033e
00000100: e52d 35bd 9b10 463d 8d30 7c3d 95b6 9ebd
00000110: 887c b53d e52d d83d cde7 573d dc61 61bd
00000120: 62e7 e9bc c88d 333d 2bd5 77bd dc03 eebd
00000130: e623 41bd 1db8 2dbd 6c5e 263c c1ea a7bd
00000140: 0ddc b93b b13e cebb 65b9 973d 0d77 4c3d
00000150: 2462 43bd 8de1 77bd 5c43 f73c a6f9 833d
00000160: 7486 b4bd 7645 fa3b 88bf b2bc 570a c93d
00000170: 3f5e e7ba b013 d3bd d04e a13d 17be 2e3d
00000180: 006f 0ebc b119 5abd 64aa adbc a973 56bd
00000190: 77a3 163a 11fe a13c 3586 5abc 5764 99bd
000001a0: 80c6 d3bd b6c6 f63c 11c0 02bd 7b13 023d
000001b0: e336 84bd 1716 17be abe3 de3d 673b 2ebd
000001c0: 69b4 bcbd 1575 89bd 1d5c 5abc 8241 b13d
000001d0: 9b8a edbd 33b2 873d f299 2fbd ff5d 73bd
000001e0: 14af fabd 1821 ee3d eb60 01be 7d88 50bd
000001f0: dfcf 18bd dd97 f2bc 0c1b ba39 4ef6 07be
00000200: 634a 2ebc 2b89 3d3d b38a f23d 95d2 c4bd
00000210: 37a7 403c 66b5 503d fefb 953c 8137 763d
00000220: 9279 9ebd 5ee5 7d3d 9e71 eabd e4dc e13c
00000230: e86b 063e f26c 95bd e6f5 bebd bf86 0cbe
00000240: ba5d 45bd ddbf b63d 184b 093a ea58 3fbd
00000250: 130c a53d 6676 273c 7dc4 76bd 53d4 b33c
00000260: 2501 b7bd 768b ba3d eafe 12bd 81b0 103e
00000270: ef1d 053d d575 acbd b0fb 08be 7972 863d
00000280: cf30 0ebc 6c10 ab3d d7d9 c53d 548a 39bd
00000290: 9675 f13d b967 01be db03 8bbd 9f24 e53d
000002a0: 127e 1bbd 4a08 be3d acda 993c 89fa 01be
000002b0: 5bfa db3d a1c5 0dbe 6e5c e5bd ad41 4a3d
000002c0: ce93 c23b 76e1 fdbc 27f9 be3d 653d 40bd
000002d0: 07c2 f3bc 2c75 bfbd a447 13bc fdd1 33bd
000002e0: 597a fc3d 3fd2 3c3d d44a 513d f151 883d
000002f0: 9bbe 5cbd dcc1 0ebe 17a6 b33c 9f0f e13d
00000300: 2bd9 0ebe fc26 08be 99fc 923d 6be6 25bd
00000310: 3a45 9f3d 215e fb3d fed1 a53d 97fc 0d3d
00000320: b1ea d7bd 4dc0 623d 83f8 c43d 12b5 5abd
00000330: 3c84 a2bd 9a0b edbd 2f5d bcbd b699 df3d
00000340: ffd7 41bd 5b4e a13c 8005 923d dae3 c2bd
00000350: 9979 d7bd 267c b03d 3be6 6e3c f91c 26bb
00000360: 7d37 423d 206a fe3c 73de 3d3d 0567 0cbe
00000370: 44db d03d 7f9a fe3c 2713 9d3d 1846 3dbc
00000380: 8247 77bb 1821 bb3c cf49 fdbd 57f8 0cbe
00000390: 3451 b2bc 064a 51bd 2454 883d 067b e63c
000003a0: eadc eb3d e7cc babd 919b a33d 84a7 d13d
000003b0: aa47 9a3d 66f6 07be 3ade 0a3d 3cd5 633d
000003c0: 51b1 06be 4179 11be 29cd 403d 2cba b83d
000003d0: 5c7b fb3d d3e1 c4bd 3d67 06bd 9e8b be3d
000003e0: 6c9c f93d 9594 14be 78bf 94bd 3677 893d
000003f0: 3b5d 583d eb4f f1bd de0f 4cbd c9ea d0bc
0.03965606 -0.07272033 -0.10571712 -0.13491185 0.05643705 -0.060542863 -0.061731853 -0.049268894
0.10444421 -0.06782654 0.12984739 -0.08155694 0.08232886 -0.02862282 0.09778118 -0.019322459
0.11553658 0.07838008 -0.013402031 -0.07955799 -0.12568837 0.13939762 0.018021172 0.023418216
0.11782494 -0.1335529 0.06400061 -0.10566008 0.019869756 0.08015991 -0.024772804 -0.014548683
-0.11128048 0.11893844 0.029740818 -0.14434436 -0.045085624 0.113693886 -0.06418553 -0.1368581
-0.043457188 -0.053394914 -0.1326887 0.07528261 0.083623216 -0.09979359 -0.07549444 -0.09777591
-0.104885325 -0.109558895 -0.0009680825 0.020143852 -0.017145874 -0.070856065 0.08426028 -0.05038377
-0.12035076 0.1321967 -0.03544267 -0.13702182 0.027165923 -0.10400163 -0.034498315 0.12835574
-0.04423322 0.04835568 0.06156974 -0.077496685 0.08861643 0.10555629 0.052711297 -0.055024967
-0.028552715 0.043836385 -0.060506027 -0.1162183 -0.047153376 -0.042411912 0.010154348 -0.08199073
0.005671984 -0.0062940945 0.07408408 0.049918223 -0.047701016 -0.060517836 0.030183487 0.06444101
-0.088147074 0.007637675 -0.021819845 0.09816425 -0.0017651989 -0.103064895 0.078763604 0.042661753
-0.008693457 -0.053247157 -0.021199413 -0.052356396 0.0005746404 0.019774469 -0.0133376615 -0.074898414
-0.10340595 0.03012405 -0.03192145 0.03175686 -0.06455781 -0.1475452 0.10883268 -0.04253712
-0.09214098 -0.06711785 -0.013327626 0.08655073 -0.115987025 0.06625786 -0.042871423 -0.059415814
-0.12240425 0.11627406 -0.12634628 -0.050911415 -0.037307616 -0.02961343 0.00035496836 -0.13277552
-0.010637852 0.04627339 0.11842861 -0.09610478 0.011758617 0.050954245 0.018308636 0.060111526
-0.077380314 0.06198632 -0.11447452 0.02757115 0.131271 -0.0729617 -0.09324245 -0.13723277
-0.048185088 0.08923314 0.0005237325 -0.046715654 0.080589436 0.0102210995 -0.06024598 0.02195183
-0.08935765 0.09108631 -0.035887636 0.14129831 0.03249925 -0.08420912 -0.13377261 0.06564803
-0.008678629 0.083527416 0.0966069 -0.045297936 0.11790006 -0.12637223 -0.06787845 0.111886255
-0.037962027 0.09278925 0.018781029 -0.12693228 0.10741111 -0.1384492 -0.1119927 0.04937904
0.00593803 -0.030991297 0.09324866 -0.04693355 -0.029755605 -0.09348521 -0.008989248 -0.043901432
0.123280235 0.046098944 0.051096752 0.06656254 -0.053892713 -0.13941139 0.021929784 0.109893076
-0.1395003 -0.13296121 0.071770854 -0.040502947 0.07776876 0.12273813 0.080966935 0.034664717
-0.10542811 0.055359174 0.09617712 -0.05339534 -0.07935378 -0.115744784 -0.09197461 0.1091799
-0.04732513 0.019690683 0.07129955 -0.095161155 -0.1052124 0.086174294 0.014581258 -0.002534686
0.0474162 0.031056464 0.046354722 -0.13711174 0.101980716 0.031079529 0.07669669 -0.011552356
-0.003773183 0.022842929 -0.123675935 -0.13766609 -0.021767236 -0.051095985 0.066566736 0.028134834
0.115167454 -0.09121113 0.07988656 0.10237029 0.075332 -0.13277587 0.033903338 0.055623278
-0.13153578 -0.14206411 0.047070656 0.090198845 0.12279388 -0.09613385 -0.0328133 0.093039736
0.12188038 -0.14509805 -0.07263082 0.06712191 0.052823287 -0.11782821 -0.04981982 -0.02550258

classifier.10.bias f4 [10]
00000000: 9d77 253d 38d6 14bd c2cc 05be 54c0 983d
00000010: 0b18 04be a94e 023c b033 7c3b 9357 db3d
00000020: 7977 c1bd 8b75 b1bd
0.040397275 -0.036337107 -0.1306639 0.07458559 -0.12899797 0.007953324 0.0038482957 0.10710063
-0.09446616 -0.08664998
