lightning_logs/Layers_16/fold_0/checkpoints/last.ckpt (torch, 184337 bytes, 48 tensors)

classifier.1.weight f4 [16, 784]
000000 12 f0 d6 3c 80 2d 81 3b 9f 1f ab bc a5 75 01 3d
       0.026237521 0.0039421916 -0.020889102 0.031606335
000010 7e 44 14 bd 18 16 56 bc 31 17 86 bc 3f de d0 bc
       -0.03619813 -0.013066791 -0.01636848 -0.0254966
000020 d0 70 17 bd 56 e2 e8 3c 10 8e 78 3c 7a 57 a1 3c
       -0.03697282 0.028428238 0.015170589 0.019695032
000030 23 dd 46 bc 6e 60 2b bd d6 75 60 bd b5 fd be bc
       -0.012137684 -0.04184001 -0.054799877 -0.023314336
000040 eb b9 12 bc d0 6c 2d 3d a3 62 e4 3c 1f ad ec 3c
       -0.008955459 0.0423401 0.027879065 0.028891144
000050 25 66 42 3c 3c 6e dd 3c d1 cb 41 3c 3c ca eb bc
       0.0118651735 0.027030103 0.011828379 -0.028782956
000060 a6 60 ee 3a 45 7d dd 3c 54 51 fd bc 0a 64 83 bb
       0.0018186762 0.027037272 -0.03092257 -0.0040097283
000070 36 2a de bb 90 5e 40 3a 34 db 87 3b e6 f4 15 bb
       -0.0067799343 0.00073383097 0.004146004 -0.0022881567
000080 2c 91 7e bc 9a 2a 19 bd f2 66 2f bd be 9e 31 bd
       -0.015537541 -0.037394144 -0.042822786 -0.04336428
000090 b1 5d e3 3a 9b 58 1b 3d ae 1a 1e bc 5a f6 89 3c
       0.0017346648 0.037926298 -0.009649916 0.016841102
0000a0 0d c7 4f bc dc 7e 6b 3b 8e c4 f2 bb 70 5b 8a bc
       -0.012681735 0.0035933768 -0.007408685 -0.016889304
0000b0 16 cf 83 3c 72 87 ea 3b 24 88 4d 3c 52 27 2c 3c
       0.016089957 0.0071572596 0.0125446655 0.010507422
0000c0 64 7b 7d bc 89 7d bf bc cf d8 1b bd b1 47 7e 3b
       -0.015471313 -0.02337529 -0.03804856 0.0038800056
0000d0 63 d2 9b 3c 1b 53 75 3c ac 3e 12 bd e6 49 3e 3c
       0.019021219 0.014973427 -0.0357043 0.011614298
0000e0 16 51 d3 ba 24 a7 f1 bb da ed 34 3c 2a b8 d7 ba
       -0.0016122188 -0.007374661 0.011043036 -0.0016458083
0000f0 b7 f4 05 bd 34 e8 9a 3a 17 c8 8b 3c ce b3 89 bc
       -0.03270408 0.001181847 0.017063184 -0.01680937
000100 30 33 26 3d 8e 3c 59 b8 88 df b9 bc 53 a0 31 3c
       0.04057616 -5.1793228e-05 -0.022689596 0.010841447
000110 1e e4 a1 3c 57 8c 4b bc fd 57 72 3b ce b1 da bb
       0.019762095 -0.012423596 0.0036978715 -0.006674028
000120 ab 25 c4 bc f3 aa df 3c e8 3a 1f bc 8d cc 0d 3d
       -0.023943743 0.027303195 -0.009718634 0.034618903
000130 54 dc 15 3d ea 3a 51 b9 d9 99 e0 bc 1e 13 e2 bc
       0.036587074 -0.0001995374 -0.02741711 -0.027597006
000140 e3 9d 5a bc f6 fe ff bc 81 83 c4 bc 81 c7 fc 3c
       -0.013343307 -0.031249505 -0.023988487 0.03085685
000150 c7 7c 3d 3c 3d b6 1e 3a 2f 73 62 bb d2 4b ad 3c
       0.011565394 0.00060543773 -0.0034553518 0.021154318
000160 72 d9 13 bd 47 16 3b 3c 0d db 00 bd 3a 78 b7 bb
       -0.036096044 0.011418886 -0.031458903 -0.005599049
000170 0b 33 7b bc 12 76 dc 3c 8b c5 dc bb db 87 70 3c
       -0.015331994 0.026911769 -0.006737416 0.014680828
000180 0f 84 cf bb 08 dc fe bc be b4 10 bd 4e 2b a4 bb
       -0.0063328813 -0.031110778 -0.03532862 -0.005010045
000190 90 1a f5 bb 86 2c de 3c f1 c0 aa bc 96 9a a3 3c
       -0.007479973 0.02712084 -0.020843955 0.019971173
0001a0 9e f0 b4 3c d6 c9 99 bb 6e f7 0e 3c e7 f5 08 3d
       0.022087391 -0.00469325 0.008725984 0.033437636
0001b0 fc 5b bb 3b ef 6a 26 bb b9 2c d0 bc 3a c4 b9 bc
       0.0057177525 -0.0025393327 -0.02541195 -0.022676576
0001c0 bb 95 a5 3c 84 f4 e4 3b da 6c 0b bd 06 8e a9 bc
       0.020212999 0.0069871563 -0.034039356 -0.020697605
0001d0 08 02 c9 b9 04 79 e6 3c 49 df 15 bd a4 ee 4d 3b
       -0.0003833922 0.028133877 -0.036589894 0.0031422758
0001e0 a9 9f 8d bc 8a 34 e6 3c d0 e4 92 bc 67 1d 8a 3c
       -0.017288046 0.028101224 -0.017931372 0.016859723
0001f0 54 39 e1 bc d7 57 a6 ba 3c 4f 1a 3c 7a 23 c9 3c
       -0.027493156 -0.0012690973 0.009418305 0.02455305
000200 88 54 ee 3c 67 88 e7 3c 33 b8 9c 3a 31 61 b5 bc
       0.029093042 0.028263284 0.0011956751 -0.022141071
000210 26 6e 60 bb ef 63 21 bd ee 03 f8 bc 8c 7c 0a bc
       -0.003424534 -0.039401945 -0.030275311 -0.008452546
000220 c8 9d 8a bc 50 29 1f bd 2a 3f d2 3b 23 a6 a3 3b
       -0.01692094 -0.038857758 0.006416221 0.0049941703
000230 e4 1f 02 bd 66 41 20 bc 87 24 01 bd bc 7e 09 bd
       -0.031768695 -0.009781217 -0.031528976 -0.03356813
000240 17 4d f2 3c ff cc 24 3b 98 75 6b bd 9a 33 99 bc
       0.029577775 0.0025146601 -0.057485193 -0.018701363
000250 03 28 8f 3b b6 15 ae 3c ea 07 17 3a 3b ed 2e bc
       0.0043687834 0.021250587 0.0005761372 -0.010676677
000260 23 27 01 3c 2b 3e c4 bc a0 a0 44 bb 36 be 0c 3d
       0.007882866 -0.023955425 -0.0030002967 0.034361087
000270 54 d5 dd bc 8f 80 30 bb f6 f2 c1 3b 9f ff 8d 3c
       -0.027079262 -0.0026932096 0.005918856 0.017333804
000280 81 81 5c 3c fa bc 90 bc d7 06 7f bc bd 82 b3 bc
       0.0134586105 -0.017668236 -0.015565596 -0.021912927
000290 a3 a5 0d bc 75 b5 1f 3b 3a 90 22 bd 26 86 80 bc
       -0.008645448 0.0024369631 -0.039688326 -0.015688967
0002a0 04 9d 2b bc 2d 5d 1a 3d 36 7a f7 bc d2 b2 33 3d
       -0.010474447 0.037686516 -0.030209642 0.04387171
0002b0 ff 57 53 3c b0 06 21 bd be 6e 69 bd 0c 8b 16 bd
       0.012899398 -0.03931302 -0.056990378 -0.0367537
0002c0 04 96 af 3c ce 15 ed bc 85 a2 5c 3c cb 6b 0c bc
       0.021433838 -0.028941061 0.013466482 -0.008570622
0002d0 77 aa ad ba 99 ac cd bc d2 a6 85 bc 7a 97 86 3c
       -0.0013249655 -0.025106715 -0.016314898 0.016429652
0002e0 db d4 3e bc b7 7b d3 3c 15 d1 76 bb f1 5b 68 bb
       -0.011647428 0.025815828 -0.0037661244 -0.0035455192
0002f0 22 1d 69 3c c8 0c 97 3b 43 24 30 bd bf 49 8d 3c
       0.014228137 0.004609678 -0.043003332 0.017247079
000300 53 3d 25 3c 41 4f 71 bc 50 59 6c 3c 29 10 ef 3b
       0.010085422 -0.014728368 0.014425591 0.0072956276
000310 5c 8c 9c bc e5 1a 25 bc b3 dd b7 bc af 06 1c bc
       -0.019109897 -0.010077213 -0.022444582 -0.009523078
000320 57 2d 07 3c d1 60 52 bd 1a b0 ec bc 00 bb 9c bb
       0.008250556 -0.051361863 -0.028892566 -0.0047830343
000330 98 5b 39 3c dc c9 a8 3b 2e f6 c5 bc 51 17 c9 3b
       0.011313342 0.0051510166 -0.02416524 0.0061368127
000340 99 51 10 3d 61 a4 11 3d f5 19 46 bc 09 0e 1b 3c
       0.035234068 0.035557155 -0.01209115 0.009463795
000350 09 ec bd bc 30 b5 b2 bb 29 bd 58 bc b8 2f be bb
       -0.02318384 -0.005453728 -0.013228693 -0.0058040284
000360 54 5f 94 bc 9d b8 80 bc 4b 80 14 bc a0 ae c0 bb
       -0.018111862 -0.01571303 -0.009063791 -0.005880192
000370 e4 51 0a 3d db 52 8b 3c 51 15 a8 3c ee 31 ac bc
       0.033769503 0.017007282 0.020517977 -0.021019902
000380 d2 76 01 3d 8d 0a e3 b9 53 ad a4 3b ed a9 32 3c
       0.031607457 -0.00043304675 0.0050255447 0.010904771
000390 89 75 f5 bc 6b 32 cd bc c6 4c a6 bc 47 be 03 3b
       -0.029963272 -0.025048455 -0.02030028 0.0020102428
0003a0 87 e2 b1 3b 5a dd d0 3b 6b 66 83 3b 61 77 43 bc
       0.0054286155 0.0063740434 0.004010012 -0.011930318
0003b0 37 89 fb 3c 88 65 d6 3c 30 5e ea 3c 2f ed c2 3c
       0.030705078 0.02617146 0.028609365 0.023794739
0003c0 10 ff 93 bc b6 72 02 bd c1 8f 94 bc 1b 30 56 bd
       -0.01806596 -0.031847678 -0.018134953 -0.05229197
0003d0 0d 19 ef bc 45 f1 16 3d c8 c3 8c 3c c0 46 90 bc
       -0.02918675 0.036851186 0.0171832 -0.017611861
0003e0 c7 dc 8c bb 17 2c 93 bc f9 24 7f 3c 75 e1 ac 3c
       -0.0042987796 -0.01796536 0.01557278 0.0211036
0003f0 db bd 1a 3c 7a 46 cd 3c 5a d4 5a bc 39 a5 04 bc
       0.009444679 0.02505802 -0.013356293 -0.008096033

classifier.1.bias f4 [16]
000000 96 54 10 3b a8 a7 ba 3a 66 ab c9 bc 39 0e 93 bc
       0.0022023073 0.0014240639 -0.024617862 -0.017951118
000010 ab 8d ee 3b 6a ab e3 bb ba 53 1e b8 8f f1 cb bc
       0.0072800717 -0.0069479244 -3.7748112e-05 -0.024895458
000020 6c 94 0f bd 1b 1c b0 3b 7e 31 15 3d 01 b9 81 bc
       -0.035053656 0.005374444 0.036424153 -0.015835287
000030 1a 93 a9 3b b0 ec ca 3c 03 33 07 bc e8 74 71 3a
       0.0051750066 0.024771065 -0.008251908 0.0009210841

classifier.2.weight f4 [16]
000000 40 e1 81 3f 84 38 7b 3f 73 c8 80 3f 15 1d 84 3f
       1.0146866 0.9813311 1.0061172 1.0321375
000010 05 13 76 3f d8 43 76 3f 63 0d 7e 3f 21 37 80 3f
       0.9612277 0.9619727 0.99239177 1.0016824
000020 65 68 80 3f 97 fb 80 3f 01 3d 82 3f be 9f 78 3f
       1.0031859 1.0076779 1.0174867 0.9711875
000030 ce b9 7e 3f 48 b8 84 3f 10 6f 83 3f ca b4 81 3f
       0.99502265 1.0368738 1.0268269 1.0133297

classifier.2.bias f4 [16]
000000 fc 30 88 bc ec 39 22 3d c8 d5 c5 3c c0 1f 56 3d
       -0.01662492 0.03960602 0.02414979 0.052276373
000010 62 e3 85 3a 25 c6 e1 3c db f4 30 3d 61 d2 18 bc
       0.001021486 0.027560303 0.043202262 -0.009327502
000020 d0 90 4a ba fc 7e 9c bc 48 0f 04 3d 1e c1 5d bd
       -0.0007727267 -0.01910352 0.032241136 -0.05413925
000030 3e 56 81 3b c9 6c b2 3c 2d 19 56 3d 44 44 20 ba
       0.0039470484 0.021780388 0.052270103 -0.0006113688

classifier.2.running_mean f4 [16]
000000 bc 95 8d 3f 8b f2 f5 3f 5d 0c ae 3f 1c 71 87 bf
       1.106132 1.9214643 1.3597523 -1.0581393
000010 74 8b fb 3e cd 7e 4f be 14 08 0f 3f a9 a0 e3 3f
       0.49129832 -0.20263214 0.558717 1.7783405
000020 18 b1 1f 3f 43 db 72 3f 48 5f 92 3f 7b 55 b4 3f
       0.623796 0.94865817 1.1435328 1.4088587
000030 6b 7d f0 3f ca e3 3c 3f 19 be 95 bf 60 22 22 3f
       1.8788275 0.7378508 -1.1698638 0.633337

classifier.2.running_var f4 [16]
000000 65 43 34 3f 2a e5 16 40 c6 7d ae 3f eb 87 fa 3f
       0.70415336 2.357737 1.3632133 1.9572729
000010 e3 89 fc 3f c7 3e 8c 3f 4b ac ed 3f c5 ae 8e 3f
       1.972958 1.0956658 1.8568205 1.1147085
000020 14 ee a2 3f 69 62 37 40 29 11 c4 3f 04 fc 85 3f
       1.2728906 2.8653815 1.5317737 1.0467534
000030 cb f6 27 40 7e 06 9f 3f f3 1c 2f 40 e1 64 23 40
       2.624438 1.2423856 2.736142 2.5530322

classifier.4.weight f4 [16, 16]
000000 d0 06 46 3e 7e 54 64 3d ba 3b f1 bd 27 92 fa bd
       0.19338536 0.05574464 -0.1177897 -0.122349076
000010 27 5f 8b bd c3 cb 32 be 1b 42 ab 3d 80 84 2a be
       -0.06805258 -0.17460541 0.08362218 -0.16652107
000020 f4 e1 1a ba 68 ac 7f bd d2 97 0e 3e 6b c0 3e be
       -0.00059083034 -0.06242028 0.13925102 -0.18628089
000030 bc 08 2a be 56 e0 25 3e 05 6c ac 3d 50 ca 41 3e
       -0.16604894 0.16198859 0.084190406 0.18924832
000040 77 57 86 3e 88 74 5c be d2 73 35 3e c7 08 9c 3c
       0.26238605 -0.21528828 0.17719963 0.019047154
000050 fb a6 96 bd 2e aa c2 3b fd 1a 78 3e ed fa 0b 3e
       -0.07356068 0.005940697 0.24229045 0.1366994
000060 19 7e fa bb db 9f 3a 3e 47 f5 25 3e 99 f2 06 be
       -0.0076444265 0.18225043 0.16206847 -0.13178481
000070 72 a7 46 3e 1c f2 53 be 7f 76 cb bc 33 2c 30 be
       0.19399813 -0.20697826 -0.024836777 -0.1720436
000080 da e2 0c be 8c 4e 5c 3e 92 f2 ed bc 47 d9 90 bd
       -0.13758412 0.21514338 -0.02904633 -0.07072692
000090 aa 44 6f 3c 4a 89 24 3e d6 81 39 3e 27 39 41 be
       0.014603773 0.16067997 0.18115935 -0.18869458
0000a0 57 6a 74 3d d5 15 90 be fd c9 31 be 56 dd 73 be
       0.059671726 -0.28141657 -0.17362209 -0.23814902
0000b0 0d 00 87 bd be 9d 2d be 71 fb 38 3e 19 85 70 bd
       -0.065918066 -0.16954705 0.18064667 -0.05872068
0000c0 43 31 49 3e 44 6c 12 3e 3b 50 15 bb 85 ea 29 bd
       0.19647698 0.14299113 -0.0022783417 -0.04148342
0000d0 5f 97 f7 bd c2 47 48 3c e7 2c d9 3b 83 e1 27 3d
       -0.120894186 0.01222414 0.006627667 0.04098655
0000e0 f9 a0 a6 bc 0a 42 19 3e 79 a1 4f 3e 84 75 bf 3d
       -0.02034043 0.14966598 0.2027644 0.09348586
0000f0 f4 9c 26 be 26 66 66 3e c4 1d 70 be 7f b1 29 3d
       -0.1627081 0.22499904 -0.23448855 0.04142904
000100 69 2f 60 be 1e c2 7d 3e 78 a9 68 be 7d f7 d8 bd
       -0.21893086 0.24781081 -0.22720897 -0.1059408
000110 67 4b 74 be 17 0c a7 3d 75 0c 72 3e de 54 0a be
       -0.23856889 0.08156603 0.23637564 -0.13508937
000120 2e c4 2c 3e 41 bc 0c bc 4e c4 a1 3d 1a 89 ae bd
       0.16871712 -0.008589805 0.0789877 -0.08522244
000130 fb dc a1 3d bb 53 80 be 50 b2 48 3d 96 a8 c2 bd
       0.07903477 -0.2506388 0.048998177 -0.095048115
000140 3a ff 29 bd 08 6f 50 be 46 e6 a0 bd 69 31 4a 3e
       -0.04150317 -0.20354855 -0.07856421 0.19745411
000150 e1 ac 31 bd 7d 9c 85 3d ef ee d6 bd ea 96 d0 bd
       -0.04337776 0.065239884 -0.10494792 -0.101850346
000160 29 83 5e be e5 28 30 bd 15 73 32 3e 2f 12 84 3d
       -0.21729721 -0.04300775 0.17426713 0.06448781
000170 71 64 78 3b df 9a 3f be 90 46 19 be 1d 37 55 3e
       0.0037901665 -0.18711422 -0.14968324 0.20821805
000180 6c 30 b4 3c 57 95 5a 3e fe 8e d0 3c d4 9a 3d bb
       0.021995746 0.21346031 0.025458809 -0.0028931396
000190 c2 7f d5 bd 91 60 a6 3d 06 42 f0 3d e3 d4 81 bd
       -0.104247585 0.08123887 0.11731343 -0.06339433
0001a0 56 91 55 3e fb 4a 06 bd 60 10 d0 bd a0 d1 4b 3e
       0.20856223 -0.03278635 -0.10159373 0.19904184
0001b0 50 3e 27 be 57 bc 80 3c a0 97 3f 3e 3d 54 81 3e
       -0.16332364 0.015714807 0.18710184 0.2525958
0001c0 66 56 72 3e 82 e4 40 be cf f0 68 be 4b 68 3c 3e
       0.23665771 -0.18837169 -0.22748111 0.1839916
0001d0 8d f1 17 3e fc 67 63 3c 0b 86 6a be 9b 64 da bd
       0.14838238 0.013879772 -0.22902696 -0.1066372
0001e0 84 7a 81 be 5e 16 05 3e 85 e4 00 be e9 74 2f be
       -0.25288785 0.12996814 -0.12587173 -0.17134441
0001f0 50 cf 0e be 37 cf 19 3e b0 86 0b 3e 0d e0 49 3d
       -0.13946271 0.15020452 0.13625598 0.049285937
000200 3b a5 96 3d e2 dc fb bd 8d 59 86 3d bd 84 03 be
       0.07355734 -0.122979894 0.06560049 -0.12843604
000210 c9 62 37 bd 09 e4 5c 3d df 45 22 bc 22 3a 84 bd
       -0.044771943 0.05392841 -0.009904354 -0.064564005
000220 98 47 b3 3d 73 90 21 3e f2 81 f2 bd 2a 7d 6c 3e
       0.0875389 0.15777759 -0.11841191 0.23094621
000230 d4 56 1b bc fd 05 fc bd 24 92 81 bc 2e 9a 89 3c
       -0.009481151 -0.1230583 -0.015816756 0.016797151
000240 10 a4 e1 bd 2b a8 08 3e 09 82 c2 bb 4f 6c 2c 3d
       -0.110176206 0.13345401 -0.0059359116 0.04209548
000250 19 3e 56 be df 1d 1b be 03 e4 6b be 72 e6 d6 3d
       -0.20922126 -0.15148114 -0.23036198 0.10493173
000260 5a 4c 39 3d 71 ff 53 3e f6 b5 a4 3d da 72 89 bc
       0.04523883 0.20702912 0.08042519 -0.016778398
000270 f5 f0 24 3e 3f 73 f1 bd 52 a9 3e 3e 4d 31 35 3e
       0.16107543 -0.117895596 0.18619278 0.17694588
000280 8c c0 25 3e 3e b5 3e be 49 12 4e bc 26 54 22 be
       0.16186732 -0.18623826 -0.012577602 -0.15852413
000290 c9 64 60 be 89 1c c3 bd 1d 31 6f 3e 74 3e 3a be
       -0.21913446 -0.09526927 0.23358579 -0.18187886
0002a0 82 06 33 3e 62 2f 8c be fe 0b 1b be b4 ac 4a 3e
       0.17482951 -0.273799 -0.15141293 0.19792444
0002b0 43 fd a1 3d 85 3e 5c be 16 02 2e be 74 c1 e8 bd
       0.07909634 -0.21508224 -0.16992983 -0.11365023
0002c0 c4 e1 dc 3c d2 44 35 3e c0 81 5b be aa 1e 80 3d
       0.026963122 0.17702034 -0.21436214 0.06255849
0002d0 ae 2f 4c 3e bd 6d 6a 3e f4 90 c1 bd 32 8f fc bd
       0.19940063 0.22893424 -0.09451476 -0.12332
0002e0 19 3d 6f be 24 eb b9 3d d0 f1 31 3e f3 c5 63 3e
       -0.2336315 0.09078053 0.173774 0.2224348
0002f0 9d 31 8b bd ea 11 96 bd f7 1e 8e be 88 a7 01 3e
       -0.06796572 -0.073276356 -0.27758 0.12661564
000300 b6 78 72 3d be ab 23 3d 89 b0 75 3e 9a 29 6c be
       0.05919715 0.039958708 0.23993124 -0.23062745
000310 60 bd 5c be 3e d3 10 3e ed ba 91 bc d5 36 20 be
       -0.21556616 0.14143082 -0.017789328 -0.15645917
000320 a2 2f cf 3b 81 ae 3f 3e 0f 1c ca 3c 4d f4 73 3d
       0.006322817 0.18718912 0.024671583 0.059559155
000330 03 53 5e be 00 6c 3b 3b 60 37 9a bd f1 88 f4 bc
       -0.21711354 0.0028598309 -0.07530093 -0.029850455
000340 98 33 33 be 1a 71 3c 3e e4 ad 49 3e c8 7d 04 3d
       -0.1750015 0.1840252 0.1969524 0.032346517
000350 cc ed 0e 3e ae 8a 30 bc 6a 80 51 be 09 17 96 3d
       0.139579 -0.010775251 -0.20459142 0.07328612
000360 fc fc 83 be 9a a1 4d be 4a 0c 60 3e 86 96 07 be
       -0.2577895 -0.20081177 0.21879688 -0.13241014
000370 12 5e 20 3e 9d 3e fb 3d 99 bf 4c be 81 2e 77 be
       0.15660885 0.12267802 -0.19994964 -0.24138834
000380 e2 88 1a 3e 95 85 21 be 0d 15 34 be 5e 66 a3 3d
       0.15091279 -0.15773614 -0.17586155 0.07978509
000390 52 9d 13 be 6c 03 3a 3e af bf 10 3d 85 c2 b1 3c
       -0.14415482 0.18165368 0.035339054 0.0216992
0003a0 17 a7 bd bd 5c 30 ec 3d f3 e8 10 3e 73 2d bb 3d
       -0.092603855 0.11532661 0.14151363 0.09139528
0003b0 d1 75 93 3e 8a af fd 3d c9 9e 09 3d 0d 8d 34 3e
       0.28800824 0.12386997 0.033598695 0.17631932
0003c0 f7 a4 69 bd 99 88 e9 3d 29 41 88 be ff 2b 89 be
       -0.05704209 0.11403007 -0.26612213 -0.2679138
0003d0 42 46 1c 3e 19 01 54 3e 53 54 20 be 4a 2c 2f 3e
       0.15261176 0.20703544 -0.15657167 0.17106739
0003e0 01 d8 1a be 53 d8 f6 bd a9 20 57 bd 83 0a 2c b8
       -0.15121461 -0.12052979 -0.05252138 -4.1017785e-05
0003f0 50 19 1e 3d 24 2d 52 3e f8 0d 79 bd be 54 04 bc
       0.03859836 0.20525032 -0.060804337 -0.008076845

classifier.4.bias f4 [16]
000000 8b 5e 73 3e 20 55 c8 bd b5 d6 64 be 2c 92 4d be
       0.23766534 -0.09781861 -0.22347529 -0.20075291
000010 66 df 16 be e5 cf 90 bd 81 2d 71 bd 1b 2c 7e be
       -0.14733657 -0.07070903 -0.058881287 -0.24821512
000020 a3 b6 ef bd 98 58 01 3e e6 f3 04 3c 06 24 2b 3e
       -0.11704757 0.12631452 0.008114791 0.1671296
000030 97 1f d2 bc a2 7f ba bd 97 93 3f be ee 6d e9 bc
       -0.025649829 -0.09106375 -0.18708645 -0.028494801

classifier.5.weight f4 [16]
000000 09 cc 86 3f eb 88 78 3f 26 07 84 3f c9 0b 7b 3f
       1.0531017 0.9708392 1.0314682 0.9806486
000010 91 c2 75 3f 70 93 78 3f f9 54 76 3f a2 66 86 3f
       0.9600001 0.9709997 0.9622341 1.0500071
000020 2d 22 84 3f 80 e6 79 3f d9 6d 7b 3f 6f 82 82 3f
       1.032293 0.9761734 0.9821449 1.0196055
000030 3d 75 75 3f 04 44 83 3f a0 65 79 3f d7 06 83 3f
       0.95882016 1.0255132 0.9742069 1.0236462

classifier.5.bias f4 [16]
000000 a6 4c 76 3d 95 14 ba bc 17 b5 80 3d 11 9a e1 bb
       0.06013169 -0.022714892 0.0628454 -0.006884821
000010 00 73 1d bd 8c 2f 38 3c 7f 7f 17 bd a0 32 77 3d
       -0.03843975 0.011241805 -0.036986824 0.060351014
000020 da b5 53 3d c6 6f 0e bd 7e 5d 21 bc af 5f 7d 3c
       0.0516871 -0.034774564 -0.00984895 0.015464707
000030 1e 22 ec bc a9 b4 2d 3d fe 7d 01 bd a5 e1 21 3d
       -0.028824862 0.04240862 -0.031614296 0.039521832

classifier.5.running_mean f4 [16]
000000 f3 21 34 3e 0c 86 0f 3e 30 6d df be 3d e6 b9 39
       0.17591076 0.14015979 -0.4363799 0.0003545749
000010 13 ee 97 be 6f 0c 75 be 4d 6d 9e 3e 82 da cb be
       -0.29673824 -0.23930524 0.30942765 -0.39815146
000020 fb 95 e0 bd e5 12 8b 3e b6 11 cc be 5e fe 8c 3e
       -0.109661065 0.27162853 -0.39857262 0.27537817
000030 6e b6 da bd c7 11 51 be 05 d5 39 3e a4 61 28 be
       -0.10679327 -0.20416938 0.18147667 -0.16443497

classifier.5.running_var f4 [16]
000000 c6 4e 90 3d e6 4c bc 3d 37 09 2a 3e c7 89 fe 3d
       0.07046275 0.09194355 0.16605078 0.12428623
000010 60 5a f0 3d fb 54 c8 3d 2f de 38 3e 27 90 06 3e
       0.11735988 0.09781834 0.18053506 0.13140927
000020 54 7b c4 3d 55 07 92 3e 5c ee b8 3d 6a 18 98 3d
       0.095938355 0.2852122 0.090298384 0.074265316
000030 c0 ea f0 3d 17 4e bf 3e 90 2c bb 3d cd 2a 6c 3e
       0.11763525 0.37364265 0.09139359 0.23063202

classifier.7.weight f4 [16, 16]
000000 c0 30 11 be 29 e3 01 3e 4e b0 a6 3b 58 49 f9 bd
       -0.14178753 0.12684311 0.005086935 -0.12172192
000010 0f 15 36 be 54 e4 4c be e3 29 e6 3d cd 48 30 be
       -0.1778147 -0.20008975 0.11238458 -0.17215271
000020 ff 29 87 be c8 79 99 bd 5d 54 65 3e 3d c8 b5 bd
       -0.26399228 -0.07493931 0.22395463 -0.08876083
000030 03 f3 1d 3d 02 93 2f 3e 0e ff 09 bd 36 d4 aa bd
       0.038561832 0.17145923 -0.033690505 -0.08341257
000040 30 6d 24 3e e1 0f 23 bd 44 ba a4 bd 11 ca 5f 3e
       0.16057277 -0.039810065 -0.0804334 0.21854426
000050 05 3f f6 bd 56 1d 3d be 6e 4f fb 3d 3c f9 2a 3e
       -0.12023739 -0.18468222 0.122710094 0.16696638
000060 be fe 12 be e8 a9 25 bd 5a b5 0b bd e4 07 79 bd
       -0.14354989 -0.04044524 -0.034108497 -0.06079854
000070 55 94 ff bc 08 1d 22 3e 25 88 c8 bd 14 68 73 3e
       -0.03119866 0.15831387 -0.097915925 0.23770171
000080 6c 6c 9a bc e8 21 14 be 77 e3 1a be 66 7d 4a 3e
       -0.018850528 -0.14466059 -0.15125833 0.19774398
000090 80 f3 27 be 55 56 86 3d 52 95 81 3e 70 8f 72 bd
       -0.16401482 0.06559435 0.25309235 -0.059218824
0000a0 b7 7b 3d be 44 0e 7a 3e a6 b0 ba 3d b4 e2 c9 3d
       -0.18504225 0.24419504 0.09115724 0.09857693
0000b0 ee 42 05 3d 1f 2f 24 be 1b 5f 89 3b 4e aa 2c be
       0.032534532 -0.160336 0.0041922457 -0.16861841
0000c0 55 5a e4 3d 55 c0 1c 3e 6d 85 39 bd fa e5 85 be
       0.11150042 0.15307744 -0.04529326 -0.2615202
0000d0 db f4 53 be d2 58 e0 bd 7c 99 66 3e 83 b5 c1 bc
       -0.20698874 -0.10954441 0.22519487 -0.023646122
0000e0 74 28 b9 bd d6 91 86 bc f1 34 d8 3d b1 f6 51 3e
       -0.09040919 -0.016426962 0.10556973 0.20504262
0000f0 17 e0 f2 bd 63 48 74 3e e7 3a 51 3e f3 6f a5 bd
       -0.11859148 0.23855738 0.20432626 -0.08077993
000100 b5 35 7d 3e 71 99 76 be 7e 64 69 3e 73 9b 86 bc
       0.24727519 -0.24081971 0.22792241 -0.016431546
000110 30 84 13 bd b3 e9 87 3d 35 ac 10 be 5e 65 c2 bd
       -0.036014736 0.066363715 -0.14128192 -0.094919905
000120 76 b3 1b bd b9 40 34 3e ee 08 4f bd f7 b2 09 3e
       -0.038012944 0.17602815 -0.050545625 0.13447176
000130 c3 32 75 3d 3d 2b 37 3e 9f 2a f5 3d 2e 81 6c 3e
       0.059862863 0.17887588 0.1197102 0.23096153
000140 41 40 15 3e 4b 53 95 bd 25 b1 63 be 82 07 9c 3d
       0.14575292 -0.072912775 -0.22235544 0.076186195
000150 29 dd 40 3c 95 12 bd bc b3 19 7c bd ba 11 19 be
       0.011771479 -0.02308015 -0.061547946 -0.14948168
000160 2b a8 09 be 28 2c 6b be 48 61 86 3d fd 9e 1b 3d
       -0.13443057 -0.22966063 0.06561524 0.03799342
000170 03 fa 28 be 0e f6 3a be 48 93 9c bc 9f 84 77 3e
       -0.16501622 -0.18257925 -0.019113198 0.24171685
000180 80 39 40 3d 20 b4 c3 bd 99 61 00 3e b6 01 ec 3c
       0.046929836 -0.095558405 0.1253723 0.02880941
000190 5a 62 c9 3d 6d ed 02 be b8 f8 b2 bd 7b bd 1f be
       0.09833212 -0.12785883 -0.087388456 -0.15599625
0001a0 64 4e b3 3d fc c3 46 3e 6a ee 64 3e 70 a9 12 be
       0.08755186 0.194107 0.22356573 -0.14322448
0001b0 fd a9 3a be d0 a9 ed 3c d0 0e d4 3d a9 d9 36 be
       -0.18228908 0.029011637 0.10354388 -0.17856468
0001c0 e1 6d 03 3c a5 b4 41 be fa 43 cc 3c 6d 69 97 bb
       0.008021803 -0.18916567 0.024934758 -0.004620722
0001d0 19 1f 1c be 9b ae 00 be 41 4e 2d bd 7a 12 77 3e
       -0.15246238 -0.12566607 -0.042310957 0.24128142
0001e0 23 3c 83 be ce 07 8e 3d 72 5f 8e bd ff e5 c1 3d
       -0.25631818 0.069350824 -0.069517985 0.094676964
0001f0 2d a6 30 3d ba 34 ce bd a6 1f 33 3e 6f b2 6d be
       0.043127228 -0.100686505 0.17492542 -0.23212598
000200 bb f4 6a be a7 d5 a3 3d 90 e6 b8 3d bb d7 04 3e
       -0.2294492 0.07999735 0.09028351 0.1297292
000210 53 c9 92 3c 0e fc 27 3e c3 ab c3 bd 49 56 5d 3e
       0.017918264 0.16404745 -0.09554245 0.21614946
000220 0b 55 3a be 5d b5 bc bd 6f 66 6b be 6b 94 7c bd
       -0.18196504 -0.0921428 -0.22988294 -0.06166498
000230 4e 7d c1 bb 9d 43 89 be b8 1d 34 3e d3 f6 d6 bd
       -0.00590483 -0.26809397 0.17589462 -0.10496297
000240 dc c1 e5 bd bb 9c 34 3e 9e b1 1a be a0 73 05 be
       -0.11218616 0.17637913 -0.15106818 -0.13032389
000250 05 27 84 ba e7 90 45 be c1 52 4d 3e 5f ab 10 be
       -0.001008243 -0.19293557 0.200511 -0.14127873
000260 b1 12 6c bd bd 51 a9 3d 75 38 15 bd cc a1 ff bd
       -0.057635013 0.082675435 -0.036430795 -0.12482032
000270 05 41 d3 bd 8a a8 28 3e a7 99 8a be 7a 79 c4 bc
       -0.10315136 0.16470543 -0.27070352 -0.023983706
000280 53 87 00 be 1c d8 5f be f1 24 8d be d9 e4 02 be
       -0.12551622 -0.21859783 -0.27567247 -0.12782611
000290 c1 ec 34 be f6 45 11 3c 03 26 f1 bc e7 7c 84 3e
       -0.1766844 0.008866778 -0.02943707 0.25876543
0002a0 e4 fc 32 3e 4e c1 2f 3e 18 a2 43 3d 60 00 cd bd
       0.17479283 0.17163584 0.047762007 -0.10009837
0002b0 37 94 b8 3d 4b cc 5d be 93 d8 14 3e e7 04 2f be
       0.09012645 -0.21659963 0.14535742 -0.17091714
0002c0 4a c2 0d be c7 2a 8e 3e 16 ec 0d be bc 3d 97 bd
       -0.13843647 0.27767012 -0.13859591 -0.07384822
0002d0 08 8f eb 3d ef aa 58 be ef 04 02 be a7 d7 fc 3d
       0.115018904 -0.21158956 -0.12697195 0.1234582
0002e0 df 75 19 3e e9 84 85 be e3 d8 00 be 45 15 00 bd
       0.1498637 -0.26077965 -0.12582736 -0.031270284
0002f0 65 69 e7 3d 4d 88 21 3e a7 91 09 3e 01 7d d1 bd
       0.11299399 0.15774651 0.13434468 -0.10228921
000300 ad 47 51 be 65 1f 19 3e 91 4a 9b 3d 3b b2 3f be
       -0.20437498 0.14953382 0.07582582 -0.18720333
000310 71 5f 14 3d fc 6c 27 bd 36 f0 1b be d5 b9 f0 3d
       0.036223833 -0.04087542 -0.15228352 0.11754195
000320 65 1d e1 bd 93 0d 3e be 54 92 84 be bf e8 0e 3e
       -0.10991935 -0.18559866 -0.2589289 0.13955973
000330 c3 a4 07 bd 42 fc 36 be 80 e2 f1 3c d5 0d eb 3d
       -0.033116113 -0.17869666 0.029526949 0.114772476
000340 86 82 5b 3c 82 c5 d6 3d b8 5e 7c be da 6a 6f be
       0.013397818 0.104868904 -0.24645507 -0.23380604
000350 1f 8e d2 bd 1d f7 56 be 87 b5 37 be 8f 7e dd 3d
       -0.10281014 -0.20992704 -0.17940341 0.10815155
000360 02 88 8e 3e cc 1d 3e 3b 97 cd 91 bd fe 97 a1 bd
       0.2783814 0.002900946 -0.07119291 -0.07890318
000370 b6 6b 7f be 0a 88 be 3d df f9 14 3d 21 7d d7 bd
       -0.24943432 0.09303291 0.03637111 -0.10521913
000380 cd 71 b6 bd f3 ca 3d 3d 73 de 09 3e 37 37 d5 bc
       -0.089084245 0.046336126 0.13463764 -0.026027305
000390 ad 2b 5a bd b1 03 9a 3d 4d af f5 bd 6c 9e 69 be
       -0.05326431 0.07520235 -0.119963266 -0.2281434
0003a0 5b ad 57 3d c8 96 99 3d 37 93 05 be 1c c0 e2 3d
       0.05265556 0.07499462 -0.1304444 0.11071798
0003b0 82 74 63 3e e7 f7 cf 3d 46 e6 24 be e1 93 8b 3c
       0.22212413 0.101547055 -0.16103467 0.017038288
0003c0 6f c8 fa 3d 49 2f d6 3d 70 7d ac bd 8a 4f 7c 3d
       0.12245261 0.10458238 -0.08422363 0.06159929
0003d0 86 cc 3d 3e f4 e5 b3 bc fe 9f eb bc 43 f8 59 3d
       0.18535051 -0.021960236 -0.028762814 0.053215276
0003e0 f8 d5 3c 3d 1f 9e 4f be 0d 25 ef bd d8 f2 7b 3e
       0.046102494 -0.20275162 -0.11676989 0.24604356
0003f0 0b 82 20 3d d1 5b b3 bd f6 25 59 bc db b3 f4 bd
       0.03918652 -0.08757747 -0.0132536795 -0.11948367

classifier.7.bias f4 [16]
000000 15 2b 93 bd 10 e3 4d 3c b2 e5 4a be ce 71 31 be
       -0.071859516 0.012566343 -0.19814184 -0.1732857
000010 5a 3c 01 3e 91 bf 83 3c 01 62 07 3e d3 75 41 be
       0.12620679 0.016082557 0.1322098 -0.18892603
000020 7f 47 47 3e 72 6e 2e 3e d7 3a 86 3d 70 e7 f5 bd
       0.19460867 0.17034319 0.065541916 -0.12007034
000030 8c 5b 6a 3e 7f 4c 88 be a7 02 9f 3d 50 4b 82 3e
       0.22886485 -0.26620862 0.07764178 0.25448084

classifier.8.weight f4 [16]
000000 df f5 87 3f 84 2d 84 3f 87 a9 89 3f ec 41 88 3f
       1.0621909 1.032639 1.0754861 1.0645118
000010 10 0f 89 3f 06 5c 8a 3f 1d af 89 3f 7d d8 89 3f
       1.0707722 1.0809333 1.0756565 1.0769192
000020 5d 54 8a 3f 89 ba 89 3f 4f 33 89 3f 29 0c 87 3f
       1.0806996 1.0760051 1.0718783 1.0550586
000030 a1 38 8a 3f ac 4b 8a 3f 55 90 89 3f 76 99 88 3f
       1.0798532 1.0804343 1.0747172 1.0671833

classifier.8.bias f4 [16]
000000 ba c9 4e 3d 2e 57 a5 b9 d7 b4 9e 3d 64 79 67 3d
       0.05048535 -0.00031536206 0.07749336 0.05651225
000010 5f c2 89 3d 43 64 9e 3d 85 83 ae 3d c6 a2 9e 3d
       0.067265265 0.07733967 0.08521179 0.0774589
000020 37 b2 9e 3d 51 86 90 3d ee d3 90 3d e3 06 e0 3c
       0.077488355 0.07056869 0.070716724 0.027347034
000030 59 31 9f 3d 57 1a a3 3d 5d 93 96 3d be a2 22 3d
       0.07773084 0.07964008 0.07352326 0.039705984

classifier.8.running_mean f4 [16]
000000 0b a8 b6 be 12 cd fe 3d 89 08 8b be 3a 45 a7 bc
       -0.35675082 0.12441458 -0.2715495 -0.020418752
000010 fb 79 03 3f 2e be 95 be a1 a7 d3 3d af 84 c9 be
       0.51358 -0.29246658 0.10334707 -0.39359042
000020 15 36 99 3c 01 75 02 be 9d f5 31 be 95 b4 34 be
       0.018702546 -0.12739946 -0.1737885 -0.17647012
000030 d9 45 4f bd c1 20 15 bf ca 5e ba 3d 05 5b 9e 3e
       -0.05060372 -0.58253103 0.09100111 0.30928817

classifier.8.running_var f4 [16]
000000 3a 4c 1d 3e 21 8c 96 3e d8 94 be 3d d0 b8 7c 3d
       0.1536111 0.29403785 0.093057334 0.06169969
000010 d9 06 08 3e ad a7 43 3e 7f 1e cb 3d 9d 60 81 3d
       0.13283862 0.19106932 0.09917926 0.06317256
000020 87 37 df 3d f8 16 8a 3d cc 74 d4 3e 2d 20 4b 3d
       0.10899263 0.06742662 0.4149536 0.049591232
000030 37 cf c9 3d 71 ca 87 3d 36 c1 d4 3d 4f d9 7e 3d
       0.09853976 0.066304095 0.103884146 0.06221896

classifier.10.weight f4 [10, 16]
000000 7e b2 c8 bc b8 f8 83 be a7 a0 f7 bd 5d f1 84 3e
       -0.024499174 -0.25775695 -0.12091189 0.25965396
000010 ff 9c 99 3e 4c 2f 38 3e 92 67 54 bd d3 d2 14 3e
       0.3000259 0.17986792 -0.051856585 0.14533548
000020 3f a0 e6 bd 97 bf 75 3d c9 49 01 be 19 ea 3a be
       -0.11261033 0.059997167 -0.12625803 -0.18253364
000030 e2 f8 20 3e c9 09 9f be 61 a2 57 3e 57 3f 96 3e
       0.15719941 -0.31062153 0.21058036 0.293452
000040 6b 13 dd bc b2 2d a8 3d 16 be e7 bd 96 36 83 be
       -0.026986798 0.08211841 -0.11315553 -0.25627583
000050 ce 60 98 3e cc 93 46 3e 79 0f 34 be 16 37 c2 3c
       0.29761356 0.19392318 -0.17584027 0.023707908
000060 f9 03 9c be 7e 8f e3 bd 0c bb 9e be f7 2b e5 3d
       -0.3047178 -0.11111353 -0.3100208 0.11190026
000070 00 db b6 bd ad f0 b3 bd 40 33 83 be 5b 9d 80 be
       -0.0892849 -0.0878614 -0.25625038 -0.25120053
000080 30 d3 5a 3e b4 87 17 3e 21 7a 2b be 3c 2b 85 bc
       0.21369624 0.1479786 -0.16745807 -0.016255967
000090 16 45 a4 3d fa 8d c2 3d 10 e6 33 3e 62 74 d9 3d
       0.080209896 0.09499736 0.1756823 0.106179014
0000a0 65 c5 b1 3d c0 b4 9b bd 97 39 9f bc 6a 1a 4c 3e
       0.08680228 -0.07602835 -0.01943664 0.19931951
0000b0 11 77 89 3b 74 7d 83 be ac 51 41 3e 24 b7 82 bd
       0.004195102 -0.2568165 0.18878812 -0.063825876
0000c0 ab 7f c7 3d 44 1f 4f 3e 5c 43 fe bd 4a e9 1a 3e
       0.097411476 0.2022677 -0.124151915 0.15128055
0000d0 8a 98 40 3d 5a ad 41 3e a2 a0 0f be 6c d0 96 3b
       0.047020473 0.18913785 -0.1402612 0.0046024825
0000e0 99 23 31 3d 6c 66 3f 3c b9 d5 62 be 95 a1 3e 3e
       0.04324684 0.011682134 -0.22151841 0.18616326
0000f0 7b 56 5a bc 63 d9 d6 3d 8d 48 ca bc 51 ad 85 3e
       -0.013326283 0.10490682 -0.024692798 0.26108792
000100 87 7d 9b 3d 7e a6 5e be 29 79 4a be c3 63 0e 3e
       0.07592302 -0.21743199 -0.19772781 0.13905244
000110 c7 f8 26 3e e5 02 73 bd ac c2 da bd 99 d6 61 bd
       0.16305839 -0.059328932 -0.10681662 -0.055136297
000120 ef 79 10 3e 79 bb 54 3e 16 5d 5b 3d fb 8e 88 3e
       0.14109014 0.2077464 0.05355557 0.26671585
000130 2a 85 a8 bd 6d cc 97 3c d1 11 d6 3d c0 19 43 be
       -0.08228524 0.018530095 0.10452617 -0.19052792
000140 cc f5 8c be 7f ee 23 be e8 f0 79 3e 10 2b 90 3e
       -0.27531278 -0.16008948 0.24408305 0.28157854
000150 5f 4a 82 be 10 94 06 be 06 61 de 3d 8b 0e 54 3e
       -0.25447366 -0.13142419 0.108583495 0.20708673
000160 71 3b 88 be 75 5e bb bd d5 b5 0a 3e 4e 13 e7 bd
       -0.2660785 -0.091488756 0.13545926 -0.11282979
000170 06 bd 8a be 87 bf 5e 3e 3e fb 3b be 63 89 77 bc
       -0.27097338 0.2175275 -0.1835756 -0.015108439
000180 d5 10 f5 3d ab 39 eb bd 17 e8 9c bc e0 34 e8 bd
       0.11966101 -0.11485609 -0.019153638 -0.1133821
000190 8b 70 c0 3d 30 be 75 bb 8b 45 09 3e 9a 16 07 be
       0.09396466 -0.0037497394 0.13405435 -0.13192216
0001a0 ce 9b 44 be 60 35 94 bc 92 32 7a be 69 3e ed bd
       -0.1920006 -0.018091857 -0.24433354 -0.115841694
0001b0 32 bb 46 3d 6d 02 51 bd 3a e4 cd 3d 4d 11 dc ba
       0.048518367 -0.051027704 0.100532964 -0.0016789824
0001c0 f4 cb 7d be c8 2c d4 3d 9e ff 19 3e ee 63 83 be
       -0.24784833 0.10360104 0.15038916 -0.25662178
0001d0 b4 ac 03 be f2 7c 2e be 9a 9d 2d 3e d1 9f 33 be
       -0.1285885 -0.1703985 0.16954651 -0.17541434
0001e0 07 be 0b bc 35 03 46 3e 2d b3 2a 3e f4 7f 3c bd
       -0.008529193 0.19337161 0.16669913 -0.046020463
0001f0 51 09 4a bd 41 d9 2c 3e ec a5 49 be f1 ee 69 be
       -0.04932529 0.16879751 -0.196922 -0.22845055
000200 9c 13 fa 3c ac 0e 66 be 1d 85 89 be bf 18 69 bd
       0.030526929 -0.22466534 -0.2685937 -0.056908365
000210 22 bd 03 be 35 f3 2d be f0 8e 6f be b9 d2 9a 3e
       -0.12865117 -0.16987307 -0.2339437 0.30238894
000220 fe ca a4 3e 13 08 34 be 53 d4 30 3e 02 fd f2 bd
       0.3218612 -0.17581205 0.17268495 -0.11864664
000230 eb c5 68 3e 95 8e fa bb 87 67 8c be ed 18 9b bc
       0.2273175 -0.0076463916 -0.27422735 -0.018932784
000240 23 47 51 be bb 34 d5 bd eb 17 1a 3e 0f fb 91 be
       -0.20437293 -0.10410448 0.15048186 -0.28511855
000250 23 bd 06 be 33 d8 eb bd 29 57 0a be d0 4c 85 3e
       -0.13158087 -0.11515846 -0.13509811 0.26035166
000260 7f 6a 8f 3e 58 50 86 be 96 82 8f 3e e4 7f 6e be
       0.28010938 -0.26233172 0.28029317 -0.23290974
000270 02 6b b0 bd 8f c7 95 3e 22 a2 18 be ac dd b9 3d
       -0.0861416 0.29253814 -0.14905599 0.09075484

classifier.10.bias f4 [10]
000000 78 46 e9 bd 43 73 42 3b 90 2f 83 be 21 43 cc 3d
       -0.11390394 0.0029670752 -0.25622225 0.09973741
000010 62 8d 1f be 05 83 25 3d cd e2 a1 bd b1 f0 fe bd
       -0.15581277 0.040408153 -0.07904587 -0.12448252
000020 be 51 42 3d f0 42 3b bd
       0.047441237 -0.045718133

exp_avg f4 [16, 784]
000000 46 c9 a5 35 90 41 af 35 f4 42 a7 35 29 b8 38 b6
       1.2352036e-06 1.3057597e-06 1.2461956e-06 -2.7525332e-06
000010 1b 6a e5 b6 2a fc 2c b7 3b f4 0a b8 ab 98 48 38
       -6.837084e-06 -1.031071e-05 -3.312922e-05 4.78259e-05
000020 95 7f 26 39 f0 03 90 39 0e 0d 13 39 6d 10 ce ba
       0.00015878522 0.00027468754 0.00014023876 -0.0015721448
000030 37 eb 83 ba 7a 97 9d 3a cd 94 08 3b 29 66 4d 3a
       -0.0010064606 0.0012023293 0.0020840645 0.00078353524
000040 a0 bd e1 ba 6a f6 4b ba 77 39 79 39 c1 93 cb 39
       -0.001722265 -0.0007780554 0.00023767898 0.00038829262
000050 85 d1 8b 39 1e f1 94 b8 f1 9c 49 b8 38 ff 96 37
       0.0002666825 -7.1021015e-05 -4.8068297e-05 1.8000239e-05
000060 6f 5a 1e b7 d6 0f 18 b7 da cc 3d b6 be bc 47 35
       -9.43859e-06 -9.063593e-06 -2.8282434e-06 7.4407933e-07
000070 ab b1 6b 36 08 e3 7d 36 f1 81 ae 36 f8 04 9f b6
       3.5121145e-06 3.7832087e-06 5.2007313e-06 -4.7391477e-06
000080 99 12 aa b6 3b 16 b5 b7 3f e8 d4 38 32 88 d2 39
       -5.06856e-06 -2.1587233e-05 0.00010152207 0.00040155795
000090 28 ce 71 ba 3a 64 13 bb ab dc ff ba b0 09 2e b8
       -0.000922414 -0.002249016 -0.001952072 -4.1493855e-05
0000a0 17 d4 c1 3a bf ab 08 3b 0f f8 00 3b 69 d2 36 3b
       0.0014787939 0.0020854322 0.0019679104 0.002789641
0000b0 c6 79 0c 3b a5 24 ad b7 e4 7e 1a bb 9b 64 a3 ba
       0.0021434887 -2.0640271e-05 -0.0023574168 -0.0012465896
0000c0 8b eb ee 39 30 8b 09 3a 90 c6 28 39 ba bb 89 38
       0.0004557039 0.0005246876 0.00016095699 6.567636e-05
0000d0 8b 66 2d 37 ed 8f fb b8 e2 17 1e b9 42 93 81 32
       1.0335479e-05 -0.00011995421 -0.00015076951 1.5084542e-08
0000e0 8e e1 81 36 72 05 d0 36 ca af 3f 36 f8 ab 58 b7
       3.8707576e-06 6.199517e-06 2.856354e-06 -1.2914643e-05
0000f0 41 1f b4 b7 f7 df 7e 39 a3 6b 90 39 e4 7a bc b9
       -2.1472226e-05 0.00024306761 0.00027546016 -0.00035949715
000100 70 87 17 bb b6 31 ec ba c7 97 90 b9 47 b2 de 3a
       -0.0023121499 -0.0018020186 -0.00027578903 0.0016990387
000110 a4 b9 3a 3b c1 62 47 3b c5 09 40 3b 66 39 6b 3b
       0.0028491998 0.0030423852 0.0029302698 0.0035892366
000120 5a 4e 1f 3b 90 34 a2 3a 69 41 e6 b9 39 f4 eb ba
       0.0024308176 0.0012375284 -0.00043917753 -0.0018001861
000130 93 a4 bd ba fd ad d8 38 ef 95 1e 3a c6 fb 3d b8
       -0.0014468603 0.000103320905 0.00060495635 -4.5295594e-05
000140 bb 03 bd b8 c9 27 83 b9 07 b4 89 b9 8e 3d bb b7
       -9.012917e-05 -0.0002501591 -0.00026264807 -2.23208e-05
000150 47 bc 68 36 a6 00 df b6 ac 6f 5c b7 8b b5 19 b6
       3.4680286e-06 -6.6459934e-06 -1.31390225e-05 -2.2904449e-06
000160 69 60 ef 38 cf 42 51 39 d5 28 84 39 51 1f b3 b9
       0.00011414366 0.00019956681 0.00025207424 -0.00034164873
000170 1b 53 8e ba a1 18 58 3a bb b1 07 b8 71 99 54 39
       -0.0010858508 0.0008243416 -3.2352033e-05 0.00020275057
000180 94 9e d9 3a e1 da c3 3a fb b6 85 3a d9 29 e3 3a
       0.0016603046 0.001494255 0.0010201627 0.0017331197
000190 df bc 9e 3a e6 5d 8e 3a 53 d4 3d 3a 17 a5 d3 39
       0.0012110731 0.0010861724 0.00072414166 0.00040368058
0001a0 46 f2 55 ba af 2d 38 ba 62 fb 72 b8 55 a4 89 38
       -0.0008161407 -0.00070258504 -5.7931415e-05 6.563278e-05
0001b0 c9 6a 09 b9 e7 d5 c3 b9 47 50 92 b9 6b b8 a2 b7
       -0.00013105119 -0.00037352668 -0.000279071 -1.9397781e-05
0001c0 ed 90 67 36 89 21 82 b7 67 4e 7a b6 cf 41 d6 37
       3.450604e-06 -1.5512824e-05 -3.729854e-06 2.5541432e-05
0001d0 1a 02 44 39 93 d6 51 39 fa 1f 3f 3a 5c 41 0c ba
       0.000186928 0.00020011728 0.00072908367 -0.00053503155
0001e0 ee 13 71 ba 29 8d 91 3a e1 be 30 ba fd 3d 38 b9
       -0.000919639 0.0011104691 -0.00067423104 -0.000175707
0001f0 c2 02 a3 3a 2e 64 a1 3a 84 60 ac 3a 7a c7 b6 3a
       0.0012436735 0.0012313181 0.0013151322 0.0013944947
000200 23 9f 2b 3a 5f d6 76 39 0b 3a f1 38 86 22 25 b9
       0.00065468455 0.00023540248 0.00011502587 -0.00015748487
000210 4c d9 c2 ba 6c b9 91 ba 4a 4f f0 37 15 c3 2c 37
       -0.0014865785 -0.0011117882 2.8647151e-05 1.029742e-05
000220 3d 14 81 b9 19 95 c1 b9 89 fa bc b9 3f 17 a7 b7
       -0.00024619876 -0.00036922915 -0.00036044818 -1.9918776e-05
000230 ae d4 7f 36 0d c5 05 38 d5 cf d1 38 a1 d7 07 39
       3.8121757e-06 3.189319e-05 0.00010004608 0.00012954931
000240 db 22 4f 39 13 51 f3 39 bd 55 4b 3a ac ea 41 ba
       0.00019754043 0.00046408977 0.00077566114 -0.00073973346
000250 0b da 9f b9 bc 01 28 3a af b0 11 ba 3e 92 81 b9
       -0.00030489298 0.000640895 -0.0005557639 -0.00024713756
000260 1d 55 1e 3a 5f a7 32 3a d6 3b 8a 3a 55 17 01 3a
       0.00060399045 0.00068151014 0.0010546397 0.0004924436
000270 db 09 d2 39 5e 4e 28 3a 4f 44 7b b9 72 2d ff 39
       0.00040061664 0.0006420369 -0.00023962672 0.0004867125
000280 54 bb 36 ba ab 2e ac ba c7 d4 70 39 2e c7 2a b9
       -0.0006970663 -0.0013136467 0.0002296745 -0.00016286664
000290 8a 7c b9 b9 05 0b d4 b9 a8 d3 b3 b9 9f 17 e9 37
       -0.00035378739 -0.00040444 -0.00034299237 2.7786764e-05
0002a0 e2 d9 8c 37 fd 7d f0 38 33 03 e6 38 5b f8 02 39
       1.679076e-05 0.00011467559 0.000109678505 0.00012490286
0002b0 8c 9c 06 39 d1 e6 41 3a 94 ea 0c 3a 95 5b 0a ba
       0.00012837554 0.000739676 0.0005375531 -0.0005277929
0002c0 b0 ab f4 39 1e 1b 5b 3a ee 48 1c 39 42 95 8b 39
       0.00046667224 0.0008358228 0.00014904488 0.00026623352
0002d0 5c b5 42 b8 97 ee 40 38 c2 72 0b 3a 4e 63 0a 39
       -4.642211e-05 4.599857e-05 0.00053195294 0.000131977
0002e0 b5 dc 0e 3a 8d 5f 10 3b c9 9a 70 39 5e ba 79 3a
       0.0005449758 0.002202961 0.00022945846 0.0009526367
0002f0 da e2 0e ba 30 d0 cb ba 10 2e 05 ba cc 7d f0 b9
       -0.00054506736 -0.0015549716 -0.0005080411 -0.00045870093
000300 37 6d dc b9 c5 db 06 ba 67 d9 43 b9 f4 6f 28 b6
       -0.0004204304 -0.00051444425 -0.00018677638 -2.5099116e-06
000310 0b ed 0a 38 d1 16 08 39 27 0b 45 b8 24 a9 00 38
       3.3122527e-05 0.0001297847 -4.6978847e-05 3.0675103e-05
000320 3c ae 2f 39 cc 82 8c 3a d6 9c 8e 39 ff ee 0b 39
       0.00016754208 0.0010720133 0.00027201202 0.00013345106
000330 c3 67 a9 3a 74 6d cc 3a d7 9e 48 3a c7 0f d2 38
       0.00129246 0.0015596584 0.00076530635 0.00010016519
000340 f1 e4 ae b8 ba 6d 4a b9 bf 27 e3 b9 1b 28 b2 b8
       -8.33961e-05 -0.00019305098 -0.00043326427 -8.495172e-05
000350 af f6 ac b8 ed 07 02 3b f5 11 08 39 b0 44 0f b9
       -8.2475475e-05 0.001984115 0.0001297666 -0.00013663131
000360 4a a0 4e ba a1 e3 cf ba 4e 03 47 ba 1b 0b ec b9
       -0.00078821613 -0.0015860685 -0.000759174 -0.00045021702
000370 98 28 f1 b9 8c 21 d2 b9 28 f3 97 37 97 fc 39 38
       -0.00045997347 -0.00040079316 1.8113831e-05 4.434268e-05
000380 73 29 21 38 b9 04 4f 39 a9 32 e1 38 f4 8e 51 38
       3.8423994e-05 0.00019742818 0.00010738272 4.996262e-05
000390 23 4c 44 39 35 4b 7a 3a f4 29 ea 39 43 0e 63 3a
       0.0001872038 0.000954795 0.00044663216 0.0008661488
0003a0 d1 1a e0 3a 1f ea 1c 3b 1b 73 e8 3a ee 4d d1 b8
       0.0017097836 0.0023943258 0.0017734499 -9.980412e-05
0003b0 bf 06 cf 38 b4 c9 d3 b9 dc 4f 70 ba b8 f9 98 39
       9.871786e-05 -0.00040395337 -0.00091671734 0.00029177754
0003c0 01 60 36 3a db 5f 34 3b 16 25 34 3a 2b f4 24 ba
       0.0006957055 0.0027522955 0.00068719813 -0.00062924874
0003d0 60 90 8b ba 49 01 fc ba 7f 66 93 ba 50 cf 5e ba
       -0.0010647886 -0.0019226457 -0.0011245756 -0.000849952
0003e0 43 42 31 ba 97 f7 0a ba f7 9a 65 38 fe 87 48 39
       -0.0006761888 -0.0005301176 5.4742177e-05 0.00019124147
0003f0 ab 04 9f 38 c9 24 6f 39 5a f7 f0 38 20 d0 77 39
       7.58258e-05 0.0002280652 0.000114901646 0.00023633288

exp_avg_sq f4 [16, 784]
000000 09 f9 de 2b fa c1 f7 2b 34 af 99 2c 7a c6 1d 2e
       1.584317e-12 1.7604245e-12 4.367973e-12 3.587395e-11
000010 48 63 3b 30 4f e7 94 30 c8 da 53 31 9a 42 8c 32
       6.817129e-10 1.0834159e-09 3.0828904e-09 1.6328432e-08
000020 7e 8b bc 33 6e a9 14 35 9b 49 c2 35 8a cb e4 35
       8.779806e-08 5.538085e-07 1.4475548e-06 1.7046561e-06
000030 e2 c2 f5 35 5b ab e4 35 3f 39 e2 35 6f ca f3 35
       1.8310641e-06 1.7037195e-06 1.6854973e-06 1.8163827e-06
000040 72 53 d0 35 98 66 b9 35 f3 ef 30 35 6f 40 49 34
       1.5521493e-06 1.3813433e-06 6.591428e-07 1.8743025e-07
000050 86 d6 0b 33 98 1b 04 32 6b 33 83 31 7b e0 29 31
       3.2558567e-08 7.689685e-09 3.8184473e-09 2.472034e-09
000060 6e 07 5f 30 aa 78 cf 2f 5d d7 03 2f 01 b6 cd 2b
       8.1137486e-10 3.7738818e-10 1.1990893e-10 1.4616642e-12
000070 cb ac 99 2c ce 13 e3 2c 9b 9f db 2e 99 e1 a9 2f
       4.3677054e-12 6.453927e-12 9.9873186e-11 3.0901218e-10
000080 f0 d2 e7 30 4c d5 c4 31 19 46 45 33 0d 24 8e 34
       1.6867414e-09 5.7286e-09 4.593139e-08 2.6475792e-07
000090 e6 1d 6f 35 4c d6 62 36 70 65 99 36 56 66 9f 36
       8.9077946e-07 3.3801361e-06 4.571564e-06 4.7504827e-06
0000a0 64 4a bd 36 6b bc bb 36 78 64 be 36 b4 f7 ba 36
       5.641299e-06 5.594969e-06 5.6741374e-06 5.5720684e-06
0000b0 9c c4 a0 36 be 0c 68 36 c7 f4 4f 36 67 77 a7 35
       4.79126e-06 3.457811e-06 3.0987883e-06 1.247722e-06
0000c0 b2 a2 88 34 ba 5a da 33 1a 14 07 33 7d c3 78 32
       2.545035e-07 1.0167919e-07 3.145042e-08 1.4479949e-08
0000d0 56 b8 5b 32 ee 56 98 31 52 1e 4d 31 c4 70 18 2e
       1.2789391e-08 4.433665e-09 2.9848661e-09 3.4660955e-11
0000e0 2b 70 8e 2c 1c 41 b6 2d 80 4f 91 2f ae eb 33 30
       4.048336e-12 2.0719919e-11 2.6431834e-10 6.545474e-10
0000f0 16 db a5 31 c2 df 15 33 18 4b 0f 34 bf e1 01 35
       4.827039e-09 3.4895272e-08 1.3345232e-07 4.838475e-07
000100 c3 88 ff 35 ba 32 67 36 0f c0 97 36 c2 fd 8d 36
       1.9038783e-06 3.445121e-06 4.5225092e-06 4.2316688e-06
000110 17 04 a0 36 11 e7 be 36 9b bd d2 36 8d ef ac 36
       4.7688477e-06 5.689341e-06 6.2805607e-06 5.153887e-06
000120 1d 1c 8e 36 a1 32 7a 36 b0 52 43 36 8b 4e f7 35
       4.2352026e-06 3.7282373e-06 2.9105395e-06 1.8425793e-06
000130 8c 76 51 35 1b 1c 92 34 74 7c 0f 34 64 da 5b 33
       7.8031076e-07 2.721507e-07 1.3363189e-07 5.1188536e-08
000140 8c 5e d0 32 6e 48 2a 32 63 af 01 32 d6 1a b6 2f
       2.4257382e-08 9.911771e-09 7.548667e-09 3.3124675e-10
000150 8c a2 3d 2d 34 d6 99 2e 2c a6 09 30 74 d2 35 31
       1.0779499e-11 6.9956846e-11 5.0076454e-10 2.6458595e-09
000160 3a 81 86 32 1c d8 cf 33 d7 24 b4 34 71 ab 9c 35
       1.5658419e-08 9.678499e-08 3.3554417e-07 1.1672802e-06
000170 65 c6 21 36 91 fe 9d 36 ec a9 88 36 62 9e 83 36
       2.410635e-06 4.7086e-06 4.0728974e-06 3.9225424e-06
000180 5a 6b 95 36 49 77 a0 36 4f 0d b2 36 45 99 91 36
       4.4530434e-06 4.782258e-06 5.3063627e-06 4.3391797e-06
000190 9d 99 73 36 22 1e 70 36 b9 cc 66 36 12 fa 12 36
       3.6299236e-06 3.5780326e-06 3.4391835e-06 2.1901255e-06
0001a0 fa 12 a8 35 e7 53 04 35 40 64 9c 34 4b 0f 01 34
       1.2522498e-06 4.9295926e-07 2.9130206e-07 1.2019625e-07
0001b0 4a 10 6d 33 10 32 b3 32 23 70 18 32 5a 18 70 30
       5.5195677e-08 2.0861108e-08 8.873061e-09 8.7346097e-10
0001c0 51 00 4d 2e 13 7e 98 2f 96 67 b6 30 92 1d 89 31
       4.6611884e-11 2.773822e-10 1.3271684e-09 3.9905865e-09
0001d0 f3 69 32 33 10 10 60 34 40 6a 90 35 da 44 ea 35
       4.1540215e-08 2.0867469e-07 1.0759759e-06 1.7454397e-06
0001e0 0c 3a 34 36 8d 92 a0 36 35 55 87 36 ea 65 85 36
       2.6855878e-06 4.7854323e-06 4.033233e-06 3.9755732e-06
0001f0 d3 41 8a 36 99 98 9b 36 20 c6 a3 36 9d a8 80 36
       4.1203834e-06 4.6371247e-06 4.8808433e-06 3.8343264e-06
000200 4a 1d 4d 36 26 3c 53 36 af e6 44 36 e5 fa 1a 36
       3.056443e-06 3.147646e-06 2.9340551e-06 2.3093828e-06
000210 c2 4b c7 35 a7 9c 7d 35 04 41 da 34 65 ce 62 34
       1.4848704e-06 9.4477804e-07 4.065297e-07 2.1122976e-07
000220 6b a2 f2 33 53 d5 5a 33 5c 38 9a 32 67 72 4e 31
       1.1298547e-07 5.0951098e-08 1.7953589e-08 3.0041976e-09
000230 db ef 8c 2f 38 fe a4 31 6e 1f ff 31 7c 1f 58 32
       2.563628e-10 4.8019295e-09 7.42505e-09 1.25800135e-08
000240 41 6f 5c 33 d1 a4 09 35 98 45 ba 35 76 e3 b7 35
       5.1323926e-08 5.1276317e-07 1.3878334e-06 1.3700762e-06
000250 1d 06 26 36 83 77 95 36 6b 1d 90 36 13 67 8b 36
       2.4739486e-06 4.454459e-06 4.294959e-06 4.1545222e-06
000260 d2 1c 8d 36 99 ac 93 36 cf 52 8d 36 b9 de 81 36
       4.2054826e-06 4.4010344e-06 4.2117676e-06 3.870428e-06
000270 69 38 57 36 65 29 39 36 33 fe 2d 36 1f b5 14 36
       3.2070332e-06 2.7591243e-06 2.5926972e-06 2.2159145e-06
000280 8b 23 bc 35 8a b5 86 35 04 80 38 35 54 b9 ba 34
       1.4017436e-06 1.0036613e-06 6.873163e-07 3.4780044e-07
000290 0f 2f 53 34 39 df 12 34 2d 8e a3 33 79 aa cb 31
       1.9668026e-07 1.3678518e-07 7.6161406e-08 5.927458e-09
0002a0 59 7c 9d 30 8b 32 87 32 21 04 c2 32 6d 1e 0e 33
       1.1458595e-09 1.5739053e-08 2.258645e-08 3.3089623e-08
0002b0 33 3f e9 33 af bf 31 35 ac 8e 91 35 59 ea 9c 35
       1.0861404e-07 6.6216575e-07 1.0844865e-06 1.169111e-06
0002c0 38 fd 19 36 c5 44 8d 36 d4 48 8d 36 aa 03 8d 36
       2.294617e-06 4.2101333e-06 4.2106058e-06 4.202554e-06
0002d0 42 d8 a3 36 1b 88 9b 36 77 56 93 36 ec 3d 6b 36
       4.8829543e-06 4.6352047e-06 4.391007e-06 3.5053772e-06
0002e0 f0 41 2e 36 22 44 0d 36 f7 24 f4 35 f3 49 da 35
       2.5966401e-06 2.1050296e-06 1.8190175e-06 1.6263788e-06
0002f0 08 36 90 35 a0 33 70 35 d0 ea 39 35 14 80 c5 34
       1.0744561e-06 8.948209e-07 6.925957e-07 3.6787299e-07
000300 e7 cc c0 34 a9 ba d4 34 75 1e 27 34 b5 0d 21 32
       3.5911873e-07 3.962389e-07 1.5564167e-07 9.37455e-09
000310 18 99 b9 31 e9 51 1b 33 1b d1 aa 33 6b 06 cb 33
       5.4016134e-09 3.6163247e-08 7.954278e-08 9.4540916e-08
000320 f9 06 49 34 d6 cb 20 35 ed b4 70 35 5b 2f a7 35
       1.872212e-07 5.9901265e-07 8.967025e-07 1.2456252e-06
000330 5b da 1f 36 f4 fe 82 36 35 a9 90 36 e4 23 9e 36
       2.3819946e-06 3.9039824e-06 4.3112327e-06 4.712945e-06
000340 ba ed ac 36 a8 ac 99 36 4f c0 80 36 4b 24 7a 36
       5.1536745e-06 4.579855e-06 3.837085e-06 3.7274028e-06
000350 a1 ec 31 36 51 da eb 35 d7 49 04 36 62 1e a6 35
       2.6512791e-06 1.7572403e-06 1.9712513e-06 1.2376806e-06
000360 7e de 42 35 81 f4 4f 35 19 02 35 35 01 1b e5 34
       7.25944e-07 7.746931e-07 6.7430807e-07 4.2674222e-07
000370 d6 98 27 35 d5 00 5e 35 ff 86 aa 34 0c b1 87 32
       6.2434754e-07 8.2702655e-07 3.176319e-07 1.579658e-08
000380 50 66 38 32 cd e7 c8 33 25 c5 1c 34 fb e9 1a 34
       1.0733473e-08 9.35539e-08 1.4600353e-07 1.4427489e-07
000390 41 3c 54 34 97 84 20 35 82 08 55 35 d6 b9 a1 35
       1.9765959e-07 5.979759e-07 7.9361064e-07 1.204952e-06
0003a0 cd 0a 1e 36 9a ba 81 36 84 50 91 36 a1 f7 ad 36
       2.3550122e-06 3.866223e-06 4.33071e-06 5.1846296e-06
0003b0 3d b1 be 36 8e c3 94 36 9c f9 79 36 37 52 63 36
       5.6830745e-06 4.4335093e-06 3.7249183e-06 3.3873491e-06
0003c0 37 68 f3 35 30 49 a4 35 47 6f 0a 36 ca c2 91 35
       1.8135241e-06 1.2240253e-06 2.0628374e-06 1.0860033e-06
0003d0 41 4c 5b 35 ab bb 2d 35 e9 87 11 35 02 05 33 35
       8.169482e-07 6.4720615e-07 5.4214485e-07 6.6689984e-07
0003e0 9c 11 82 35 b6 5a 83 35 1b ba 0e 35 ed 4e 41 33
       9.69088e-07 9.786661e-07 5.316994e-07 4.5008097e-08
0003f0 c8 9b 8f 32 a5 f5 11 34 2b 47 1c 34 ec 47 83 34
       1.6718232e-08 1.3593542e-07 1.4554523e-07 2.4452982e-07

exp_avg f4 [16]
000000 57 b4 c3 2f 75 79 8d ae 43 03 9a af 28 f4 21 af
       3.5598433e-10 -6.433513e-11 -2.8014754e-10 -1.4729606e-10
000010 63 1a f1 ac 00 9f 8e 2d 29 12 49 2f 90 2f 2d ae
       -6.8525615e-12 1.6214141e-11 1.8287295e-10 -3.937789e-11
000020 52 c7 a9 af e1 22 14 af 1f cf 9b 2f 86 18 20 af
       -3.0882547e-10 -1.3472913e-10 2.8341504e-10 -1.4560628e-10
000030 fd 06 87 2f 46 bb 41 2e 2e 7d 4d 2e c6 f9 d9 ac
       2.4561322e-10 4.404945e-11 4.6722785e-11 -6.1952414e-12

exp_avg_sq f4 [16]
000000 f4 f4 02 20 d4 43 7a 1f e6 07 d1 1f bd df 49 1f
       1.1092477e-19 5.2995665e-20 8.852801e-20 4.2748478e-20
000010 ea 90 2b 1f 5a 00 3b 1f 24 13 30 1f 0e 89 ea 1f
       3.633053e-20 3.959908e-20 3.7285282e-20 9.932959e-20
000020 a8 e8 df 1f 77 b0 25 1f 73 c7 47 20 ae 75 14 20
       9.482907e-20 3.5086077e-20 1.6921948e-19 1.2575025e-19
000030 cf 42 81 20 4e f1 09 1f 8b 8c 5d 1f 2f 7b d1 1f
       2.189766e-19 2.921048e-20 4.6914825e-20 8.871873e-20

exp_avg f4 [16]
000000 50 e9 05 bb ec 98 c5 3a dd 11 c5 ba 64 a6 de b9
       -0.0020433255 0.0015075481 -0.0015035231 -0.0004246711
000010 9b 29 fb 3a d7 d3 9f 3b a0 d9 74 3a 53 44 5c ba
       0.001916218 0.004877548 0.000934029 -0.0008402515
000020 1a 36 a6 3a 29 97 b7 3a 79 61 ef ba ff 24 1d 3a
       0.0012680918 0.0014006841 -0.0018263302 0.00059945876
000030 d5 49 8a 3a 70 77 af ba 0e bc 55 bb 3b 75 8b ba
       0.0010550568 -0.0013387036 -0.003261331 -0.0010639796

exp_avg_sq f4 [16]
000000 b3 39 c1 35 ca 4d 9c 35 14 43 08 37 00 e8 02 36
       1.4396413e-06 1.1645545e-06 8.1218495e-06 1.9506551e-06
000010 01 5f c0 35 e8 80 da 36 7f 3e 25 35 8e d6 8c 35
       1.4332765e-06 6.511913e-06 6.1558234e-07 1.0493256e-06
000020 24 ef b4 35 ab 73 19 36 25 5f 16 36 c0 ca c6 36
       1.3480644e-06 2.2866104e-06 2.2407123e-06 5.924463e-06
000030 97 3f 72 36 07 29 5a 36 af 35 4b 36 f8 4c bc 35
       3.6097824e-06 3.2508412e-06 3.0280605e-06 1.4029492e-06

exp_avg f4 [16]
000000 16 5a 2d 39 b6 a3 bd ba f9 57 7d ba 44 7e 6c bb
       0.00016532125 -0.0014468345 -0.0009664293 -0.0036086002
000010 52 21 b4 39 d3 cc dc ba c6 cf 11 ba 9c 16 9b ba
       0.000343571 -0.001684571 -0.00055622717 -0.00118323
000020 8f 3c 0b 3b cf c7 8e 3b b5 ae 76 bb 0e 0a ad 3b
       0.0021245813 0.004357315 -0.0037640755 0.0052807396
000030 04 c2 1f 3b 16 f3 ae ba 7e a9 92 bb 1b 27 79 ba
       0.0024377117 -0.0013347592 -0.0044757714 -0.00095044234

exp_avg_sq f4 [16]
000000 93 bb 66 35 60 84 30 36 d6 0f 81 36 d8 9d 39 36
       8.5954633e-07 2.6303096e-06 3.846343e-06 2.7659025e-06
000010 d1 48 86 35 4e 62 cf 35 6f 1e 92 35 68 d9 24 35
       1.000497e-06 1.5451312e-06 1.0886705e-06 6.141113e-07
000020 b4 74 a1 35 2e d3 4d 36 45 97 1c 36 71 b9 e9 36
       1.20294e-06 3.0670303e-06 2.3333862e-06 6.9655293e-06
000030 b8 77 ee 35 fb 95 68 35 4b de 84 36 f6 af 99 35
       1.7767225e-06 8.6644985e-07 3.959785e-06 1.14506e-06
