lightning_logs/Layers_16/fold_4/checkpoints/model-epoch=02-4.ckpt (torch, 184337 bytes, 48 tensors)

classifier.1.weight f4 [16, 784]
0.015763925 0.026850987 0.044887546 -0.030796507 0.025083547 -0.041994885 0.04115896 0.053117365
0.033549417 0.043998413 0.0029045886 0.002873353 0.020532254 0.026993308 0.014608363 -0.009641712
0.0034188377 -0.015179045 -0.022618568 0.009792372 0.061560504 0.030288476 -0.010850529 -0.028141083
0.0029256898 -0.02127647 0.004613196 0.0010984966 0.012483015 -0.023264574 0.030080462 0.0076533845
-0.008150287 -0.007952061 0.014895349 -0.0044229445 -0.036802847 0.0005952689 0.011187209 -0.025126394
-0.019528002 -0.0035200329 0.036282457 0.030487929 0.02607755 -0.004090701 0.014367641 0.0035497958
0.011302416 -0.01537059 0.0349567 -0.03459119 0.03167066 -0.0070828088 -0.0076080547 -0.041908324
0.03897929 0.039814174 0.040705036 -0.03613934 -0.031330913 -0.021111745 -0.038950294 -0.032478694
-0.009508624 0.012023608 -0.038640663 -0.025810717 -0.0047078356 0.023037741 -0.027657023 -0.010071517
0.027457917 -0.00262706 0.016427478 -0.014543775 -0.015613286 -0.013477598 -0.014698593 0.0020713613
-0.011013281 -0.014492535 0.022027569 -0.00939129 0.011566532 0.033636075 -0.028934477 -0.019066509
-0.039299473 -0.001278926 0.007497917 0.009103075 -0.029372811 -0.029202064 -0.032818817 -0.02293561
-0.005066394 0.007349083 -0.029853111 -0.008762442 0.022372456 -0.012079438 0.01529523 0.020836718
0.017848529 0.01857992 0.00212933 0.017573768 -0.039831683 -0.03516922 -0.031458013 0.0028610062
0.037082493 0.028619625 -0.02380634 -0.03119258 -0.02050618 -0.02565144 0.016009646 -0.02819855
-0.0010032535 0.0066484166 -0.0027461424 -0.037837733 -0.029952887 -0.030120702 -0.022481645 0.0184812
-0.015395588 -0.0059752106 0.028343031 0.00068246527 0.016053636 -0.0203326 0.022864921 -0.017284555
0.01769532 0.02979258 0.0073515414 -0.025370738 -0.0035676805 -0.029978938 0.018973116 -0.031934224
0.013412669 -0.03438094 -0.010871794 -0.04713552 -0.032643043 -0.0013872805 -0.022714827 -0.033114616
-0.027346306 0.016515836 0.016712181 0.02978526 -0.009424716 0.033869423 0.030110968 -0.014613839
-0.03247354 -0.02161015 0.020861275 -0.004533911 -0.02677973 0.002158425 0.018235693 0.021246806
-0.026511025 -0.023902189 -0.019406715 -0.025295088 0.008362832 0.017584076 -0.006307972 -0.0068980926
-0.013990534 0.01353124 0.0032715497 -0.011742685 0.0004512978 0.007611974 -0.015834123 0.024360966
0.006243552 0.021174613 -0.005930712 -0.018097987 0.018015983 0.020273881 -0.007089381 -0.019017063
0.02269151 0.0311325 0.039391007 -0.011839105 0.04116431 -0.025215777 0.002651803 -0.035295814
0.003040517 0.033490155 -0.028573722 -0.0156404 0.02662735 0.0025016894 0.026811702 -0.0030795406
0.004436875 0.008576627 0.0006342584 -0.0030971686 -0.021314824 -0.00055896275 0.015340658 -0.003771939
0.023311194 0.037764497 -0.014730225 -0.0010469941 0.018674962 0.02090412 0.028347893 0.034320664
0.01714097 0.025697794 0.020987445 -0.019372072 -0.0011189069 0.021748623 -0.0017558247 0.010243637
0.036997885 0.048877258 0.042152684 0.015151918 -0.0040969676 0.013770433 0.02302159 0.030636583
0.003261055 -0.026154852 0.03475417 0.0075080004 0.028765585 0.0041818204 -0.01854051 0.02127292
-0.009828267 -0.026171254 0.0057852915 0.005434892 0.026949575 0.0048927744 -0.020259874 0.017928753
00000000: 5923 813c 9af6 db3c 01dc 373d f548 fcbc
00000010: 037c cd3c d402 2cbd 4c96 283d 9891 593d
00000020: 1d6b 093d ae37 343d e95a 3e3b dd4e 3c3b
00000030: 4233 a83c 1221 dd3c ea57 6f3c 45f8 1dbc
00000040: 940e 603b 87b1 78bc 934a b9bc 2f70 203c
00000050: de26 7c3d 8a1f f83c 6bc6 31bc 2188 e6bc
00000060: eebc 3f3b fe4b aebc 4b2a 973b 6efb 8f3a
00000070: 8f85 4c3c 5995 bebc 4d6b f63c 3ec9 fa3b
00000080: c888 05bc 5c49 02bc 9f0b 743c 59ee 90bb
00000090: 95be 16bd d20b 1c3a 8e4a 373c ded5 cdbc
000000a0: 30f9 9fbc 5ab0 66bb ea9c 143d d2c1 f93c
000000b0: 96a0 d53c 4a0b 86bb 4166 6b3c b1a3 683b
000000c0: c52d 393c edd4 7bbc c22e 0f3d 7eaf 0dbd
000000d0: 18b9 013d e816 e8bb fd4c f9bb 10a8 2bbd
000000e0: bfa8 1f3d 3014 233d 53ba 263d d806 14bd
000000f0: d854 00bd 8af2 acbc 588a 1fbd 6108 05bd
00000100: 0fca 1bbc abfe 443c ac45 1ebd ff70 d3bc
00000110: 3044 9abb a5b9 bc3c fb90 e2bc 0103 25bc
00000120: 6def e03c c12a 2cbb eb92 863c 0349 6ebc
00000130: dece 7fbc 25d1 5cbc 5ed2 70bc adbf 073b
00000140: 0c71 34bc 1972 6dbc 2973 b43c eddd 19bc
00000150: 8d81 3d3c fbc5 093d ff07 edbc 5e31 9cbc
00000160: 7cf8 20bd a3a1 a7ba 16b1 f53b 1025 153c
00000170: 409f f0bc 2b39 efbc 066d 06bd 76e3 bbbc
00000180: fe03 a6bb 94d0 f03b 838e f4bc 5890 0fbc
00000190: 7146 b73c d6e8 45bc d898 7a3c c4b1 aa3c
000001a0: 1437 923c eb34 983c 3b8c 0b3b ddf6 8f3c
000001b0: 8c26 23bd 9a0d 10bd 1eda 00bd b87f 3b3b
000001c0: d0e3 173d b473 ea3c 8305 c3bc 9587 ffbc
000001d0: 94fc a7bc f822 d2bc a926 833c a500 e7bc
000001e0: 9a7f 83ba f6da d93b a0f8 33bb bdfb 1abd
000001f0: c25f f5bc b1bf f6bc 6d2b b8bc e365 973c
00000200: c73d 7cbc b3cb c3bb a52f e83c 78e7 323a
00000210: ea82 833c 8e90 a6bc 374f bb3c 5798 8dbc
00000220: c7f5 903c 920f f43c 33e5 f03b 4bd6 cfbc
00000230: bfcf 69bb 6496 f5bc 826d 9b3c 76cd 02bd
00000240: d0c0 5b3c 07d3 0cbd 9c1f 32bc 2d11 41bd
00000250: b6b4 05bd 69d5 b5ba 7214 babc 31a3 07bd
00000260: 5c05 e0bc 384c 873c fce7 883c 3800 f43c
00000270: 206a 1abc aaba 0a3d 47ab f63c e26e 6fbc
00000280: fa02 05bd c507 b1bc 44e5 aa3c 3491 94bb
00000290: 2a61 dbbc 5d74 0d3b 0563 953c c80d ae3c
000002a0: a62d d9bc 86ce c3bc d5fa 9ebc a537 cfbc
000002b0: 4204 093c 7b0c 903c 1bb3 cebb 6509 e2bb
000002c0: 8d38 65bc 22b2 5d3c 7f67 563b 6464 40bc
000002d0: 2a9c ec39 de6d f93b 90b6 81bc a690 c73c
000002e0: b696 cc3b 6276 ad3c 6b56 c2bb 3b42 94bc
000002f0: 4196 933c 6915 a63c 0a4e e8bb acc9 9bbc
00000300: 8ce3 b93c 9609 ff3c 7758 213d cef8 41bc
00000310: e89b 283d 5191 cebc dfc9 2d3b 5892 10bd
00000320: 6943 473b f92c 093d 7013 eabc 4c20 80bc
00000330: 9a21 da3c 62f3 233b 37a4 db3c 1ed2 49bb
00000340: 3563 913b fb84 0c3c 5c44 263a def9 4abb
00000350: 6d9c aebc 5b87 12ba 6257 7b3c a332 77bb
00000360: 1ef7 be3c f2ae 1a3d 0b57 71bc 4b3b 89ba
00000370: 3cfc 983c 1e3f ab3c d739 e83c d393 0c3d
00000380: 386b 8c3c 2e84 d23c dded ab3c 2eb2 9ebc
00000390: 49a8 92ba 2b2a b23c b323 e6ba edd4 273c
000003a0: 188b 173d 8533 483d 4ba8 2c3d c03f 783c
000003b0: db3f 86bb 629d 613c c697 bc3c 92f9 fa3c
000003c0: 6db7 553b b342 d6bc 635a 0e3d ac05 f63b
000003d0: cea5 eb3c a707 893b 45e2 97bc 8c44 ae3c
000003e0: bd06 21bc 1965 d6bc 8b92 bd3b 2e17 b23b
000003f0: 5bc5 dc3c 9153 a03b 09f8 a5bc 52df 923c

classifier.1.bias f4 [16]
0.025826583 0.030157195 0.014884392 -0.024701186 0.0009958019 -0.008999283 0.022185268 -0.007534163
0.026354786 0.009741609 0.022015847 0.017450223 0.0071309297 -0.0025191905 0.021345744 0.00602557
00000000: 4592 d33c 390c f73c aadd 733c 245a cabc
00000010: 9185 823a bb71 13bc e1bd b53c 24e1 f6bb
00000020: fee5 d73c 459b 1f3c 945a b43c c5f3 8e3c
00000030: 93aa e93b 0119 25bb 45dd ae3c 2572 c53b

classifier.2.weight f4 [16]
0.9396702 1.0010788 1.0253856 0.98705786 1.0586334 1.006519 1.0084985 1.0328075
0.96215934 1.0184304 1.0522717 0.9808629 0.9738045 1.0377976 0.9778015 1.0708249
00000000: 3a8e 703f 5a23 803f d63f 833f d3af 7c3f
00000010: 4d81 873f 9dd5 803f 7b16 813f 0933 843f
00000020: 1350 763f ed5b 823f d7b0 863f d519 7b3f
00000030: 404b 793f 8dd6 843f 3351 7a3f ca10 893f

classifier.2.bias f4 [16]
-0.052243337 -0.05503806 0.027167074 -0.013559288 0.058415502 0.01493538 -0.017652065 0.05456763
0.04499317 0.030236397 0.0030749443 0.020699978 -0.027009118 0.03772786 -0.036248956 0.043459233
00000000: 1cfd 55bd 976f 61bd 7c8d de3c c727 5ebc
00000010: 1845 6f3d 86b3 743c 109b 90bc 4f82 5f3d
00000020: c24a 383d 52b2 f73c 0185 493b 0093 a93c
00000030: 3a42 ddbc 8788 1a3d c979 14bd 4f02 323d

classifier.2.running_mean f4 [16]
-0.5479137 0.16894607 1.6519796 2.5721238 1.9829508 2.253564 1.4292512 2.2149355
-0.45769444 1.2234108 0.46702325 0.5930535 0.97636884 -0.47146654 1.4599774 0.996106
00000000: 1244 0cbf 3300 2d3e 1174 d33f ad9d 2440
00000010: 55d1 fd3f 643a 1040 b4f1 b63f 81c1 0d40
00000020: ed56 eabe ba98 9c3f ac1d ef3e 5bd2 173f
00000030: 4ff3 793f 1064 f1be 8ae0 ba3f ce00 7f3f

classifier.2.running_var f4 [16]
0.9895332 2.66844 1.39696 0.85758924 0.98224413 2.724205 0.86252713 1.0668403
0.93986064 1.6090096 0.3355825 0.8195193 1.1716028 2.086361 1.8572824 1.0053424
00000000: 0c52 7d3f b9c7 2a40 96cf b23f f88a 5b3f
00000010: 5a74 7b3f 6059 2e40 94ce 5c3f 398e 883f
00000020: b59a 703f 07f4 cd3f 78d1 ab3e 04cc 513f
00000030: 15f7 953f f086 0540 6ebb ed3f 0faf 803f

classifier.4.weight f4 [16, 16]
0.14214507 -0.11679984 -0.11756079 -0.108940974 0.08821309 0.113761656 0.2272683 -0.08301165
0.0049542813 0.039495118 -0.05438941 0.029330563 0.06525973 -0.020600906 -0.16842929 0.2304187
0.18129821 -0.086010985 0.14947908 -0.12040041 0.10744006 0.061777975 0.030846821 0.15994957
0.2075515 -0.0011203244 -0.11961295 0.044974722 0.23690577 -0.15909463 -0.17278558 0.17582747
0.11463382 -0.10912655 0.037858244 0.073348515 -0.2471288 -0.075996675 -0.17244068 -0.15195164
-0.0906621 -0.026784457 0.1664446 0.06390106 -0.21772559 0.15660842 0.049866043 -0.15800633
-0.0909629 -0.122652486 0.1365074 -0.19550951 -0.1654097 0.1386407 -0.0991581 0.10237382
-0.22813183 -0.15092565 -0.1884734 0.013048275 0.100814804 0.08481024 0.2954746 0.012133426
0.040405724 -0.038269844 -0.07312269 0.06367815 -0.2049839 -0.00638728 0.002020871 -0.14885487
-0.062152248 -0.042679187 0.050220236 -0.013200477 0.16284443 -0.10959072 -0.04971379 -0.029356726
-0.11899726 -0.20200686 0.18229681 -0.11039813 -0.011445964 -0.24402477 0.16155641 0.17471714
-0.06259979 -0.18262365 0.20747562 -0.19247045 -0.059505194 -0.01816696 -0.17254065 0.065059215
0.1452799 -0.09877186 -0.038524605 -0.1260391 -0.064135276 -0.040910423 -0.22253257 -0.19407162
-0.061014924 0.07069591 0.0458699 -0.09132372 0.025983734 -0.035648692 -0.017377887 -0.3092989
0.043101758 -0.1578021 -0.17883056 0.14800954 0.18564837 -0.11918584 -0.15198848 -0.07443976
0.11499952 0.22265404 -0.06313975 -0.240243 -0.08746537 0.20173295 0.08685521 0.09069414
0.17398822 -0.13202073 0.0071772654 0.08832887 0.14410026 0.050169308 0.11133092 0.0108131
-0.11129726 0.22705483 0.14569536 -0.084742025 -0.12257802 -0.2589849 -0.13260584 0.009738372
0.20707166 -0.123506606 0.029737286 0.2055312 0.04534141 -0.17358086 0.037767977 0.18158123
0.26296675 0.13931906 0.034144484 0.08240571 0.20078371 0.19694176 -0.15128717 0.15594986
0.06499831 -0.17100035 -0.11962552 -0.27099782 -0.14394578 0.0621225 0.0004095665 0.15634757
0.09451734 0.14046773 -0.15391009 0.08860395 -0.18918338 -0.1536451 0.034216233 -0.118958406
-0.11905309 -0.1887212 -0.1955178 0.04061471 -0.26690605 -0.058303405 -0.07023088 -0.03678585
-0.2162638 -0.15313865 0.03671055 0.18163244 -0.17715622 0.2038309 0.09514471 -0.22349083
-0.18201055 0.07993826 -0.20228086 0.22213596 -0.012660057 -0.03892978 0.16188014 -0.0135177355
0.11899782 0.2529495 -0.014100573 0.11812066 0.20508713 -0.24921188 0.054943837 -0.02361374
0.13985401 0.22595203 0.2801282 0.03105971 -0.096005164 0.10018415 -0.007650685 0.19019994
-0.21113202 0.07994306 -0.056606192 0.12821198 -0.02524926 0.07644245 0.15131782 0.1508461
0.16056426 -0.17552891 0.12303433 -0.12618768 0.19638611 0.27873245 0.16858134 0.09463593
-0.05594781 -0.041129958 -0.0013993396 -0.26708764 0.1521314 -0.1502441 0.16888924 -0.14650866
0.22556663 -0.23842764 -0.13452406 -0.22467369 -0.07522834 -0.16364245 0.16223554 0.20833719
0.08529567 0.035755873 -0.04024749 0.12848282 -0.20172003 0.09123936 0.1855866 0.1773879
00000000: 7a8e 113e c134 efbd b6c3 f0bd 721c dfbd
00000010: 11a9 b43d dffb e83d 05b9 683e 0302 aabd
00000020: 8657 a23b a2c5 213d 6ec7 5ebd a646 f03c
00000030: e5a6 853d 3bc3 a8bc ba78 2cbe e1f2 6b3e
00000040: 3da6 393e 8726 b0bd 0b11 193e 7d94 f6bd
00000050: 8909 dc3d e70a 7d3d 79b2 fc3c d2c9 233e
00000060: 6188 543e d9d7 92ba a2f7 f4bd 6a37 383d
00000070: 6d97 723e b4e9 22be b4ee 30be 1e0c 343e
00000080: 23c5 ea3d be7d dfbd 3f11 1b3d bf37 963d
00000090: 550f 7dbe 25a4 9bbd 4a94 30be 3699 1bbe
000000a0: 0dad b9bd 146b dbbc 7470 2a3e 8fde 823d
000000b0: 75f3 5ebe f55d 203e 5640 4c3d 69cc 21be
000000c0: c24a babd 3a31 fbbd 99c8 0b3e a533 48be
000000d0: 2961 29be d4f7 0d3e 6713 cbbd 5ea9 d13d
000000e0: 649b 69be 418c 1abe 2cff 40be 6fc8 553c
000000f0: fe77 ce3d feb0 ad3d 7248 973e 47cb 463c
00000100: 7980 253d d7c0 1cbd 59c1 95bd b169 823d
00000110: 4de7 51be 634c d1bb 9770 043b 696d 18be
00000120: 5b93 7ebd 5fd0 2ebd bcb3 4d3d d046 58bc
00000130: b1c0 263e 1971 e0bd b0a0 4bbd 847d f0bc
00000140: d6b4 f3bd e3da 4ebe 04ac 3a3e 6a18 e2bd
00000150: da87 3bbc a1e1 79be 0b6f 253e 0de9 323e
00000160: 5234 80bd b201 3bbe 7d74 543e f916 45be
00000170: b8bb 73bd e0d2 94bc 7fae 30be c43d 853d
00000180: 41c4 143e e748 cabd facb 1dbd 6510 01be
00000190: 5b59 83bd b091 27bd 94df 63be b6ba 46be
000001a0: c9ea 79bd 04c9 903d 14e2 3b3d ee07 bbbd
000001b0: d7db d43c 5d04 12bd 125c 8ebc 6d5c 9ebe
000001c0: 788b 303d e096 21be 5c1f 37be d08f 173e
000001d0: 9b1a 3e3e b517 f4bd dea2 1bbe df73 98bd
000001e0: de84 eb3d 6cff 633e 6a4f 81bd 4302 76be
000001f0: 0b21 b3bd 1593 4e3e 25e1 b13d d9bd b93d
00000200: f829 323e 7130 07be 442f eb3b c4e5 b43d
00000210: 058f 133e 557e 4d3d 7701 e43d 6e29 313c
00000220: d1ef e3bd 1081 683e 2a31 153e 3a8d adbd
00000230: 2f0a fbbd ab99 84be d3c9 07be b18d 1f3c
00000240: 980a 543e 08f1 fcbd 9c9b f33c c576 523e
00000250: eab7 393d 2ebf 31be 98b2 1a3d 6ef0 393e
00000260: 94a3 863e a8a9 0e3e 16db 0b3d 53c4 a83d
00000270: 3f9a 4d3e 1aab 493e 06eb 1abe 52b1 1f3e
00000280: d51d 853d b71a 2fbe 3afe f4bd 3ac0 8abe
00000290: 8666 13be 2a74 7e3d 16bb d639 9419 203e
000002a0: 4f92 c13d c6d6 0f3e 9b9a 1dbe fd75 b53d
000002b0: 4ab9 41be 2455 1dbe 5226 0c3d 77a0 f3bd
000002c0: 1bd2 f3bd 2140 41be d135 48be 9c5b 263d
000002d0: e9a7 88be 8dcf 6ebd 35d5 8fbd c2ac 16bd
000002e0: 4274 5dbe 61d0 1cbe cd5d 163d dbfd 393e
000002f0: 7168 35be 0cb9 503e 3bdb c23d c8da 64be
00000300: f960 3abe acb6 a33d b722 4fbe 9c77 633e
00000310: 216c 4fbc d574 1fbd e8c3 253e 7e79 5dbc
00000320: 21b5 f33d 9982 813e 1706 67bc 3fe9 f13d
00000330: 5c02 523e 6631 7fbe ca0c 613d 9a71 c1bc
00000340: e435 0f3e f85f 673e f76c 8f3e ef70 fe3c
00000350: 5b9e c4bd 592d cd3d 99b2 fabb c6c3 423e
00000360: fe32 58be 30b9 a33d e5db 67bd 004a 033e
00000370: 89d7 cebc dc8d 9c3d 0ff3 1a3e 6677 1a3e
00000380: f56a 243e dabd 33be 6cf9 fb3d 5837 01be
00000390: 7119 493e 05b6 8e3e 96a0 2c3e 7cd0 c13d
000003a0: 8829 65bd e377 28bd 0c6a b7ba b6bf 88be
000003b0: 55c8 1b3e 97d9 19be 4df1 2c3e 5e06 16be
000003c0: f0fa 663e 6026 74be adc0 09be dc10 66be
000003d0: 5111 9abd e391 27be 1321 263e 5856 553e
000003e0: 7faf ae3d c074 123d 8dda 24bd 0091 033e
000003f0: b28f 4ebe b4db ba3d 6a0a 3e3e 2ca5 353e

classifier.4.bias f4 [16]
-0.23436722 -0.22714297 0.098166175 -0.038191944 -0.059532247 -0.200951 -0.029985983 0.21310417
0.21496816 -0.09827754 -0.19088095 0.0023339943 -0.217489 -0.21727568 0.07738237 -0.24943562
00000000: f6fd 6fbe 2b98 68be 590b c93d 286f 1cbd
00000010: 16d8 73bd 19c6 4dbe 2aa5 f5bc fb37 5a3e
00000020: 9d20 5c3e bc45 c9bd 4c76 43be edf5 183b
00000030: 70b5 5ebe 847d 5ebe a67a 9e3d 0d6c 7fbe

classifier.5.weight f4 [16]
1.00763 0.9458813 0.9944961 1.0737857 1.0388556 1.0276581 1.010689 0.99714386
0.9839022 0.94546616 1.0281931 0.95956147 0.9955523 1.0096881 1.0279868 0.95425475
00000000: 05fa 803f 4725 723f 4c97 7e3f cf71 893f
00000010: 38f9 843f 4d8a 833f 425e 813f d244 7f3f
00000020: 04e1 7b3f 120a 723f d59b 833f d2a5 753f
00000030: 84dc 7e3f 763d 813f 1295 833f 0a4a 743f

classifier.5.bias f4 [16]
-0.05140806 -0.03995931 0.011097178 0.080021426 0.050672453 0.050242413 0.05100923 0.026298001
0.016507555 -0.043069843 0.06262887 0.0525913 -0.011721374 0.04361828 0.03865167 -0.011217827
00000000: 4291 52bd 60ac 23bd f0d0 353c 46e2 a33d
00000010: eb8d 4f3d fdca 4d3d 0eef 503d e86e d73c
00000020: da3a 873c 016a 30bd 9143 803d fa69 573d
00000030: 010b 40bc 15a9 323d 3751 1e3d faca 37bc

classifier.5.running_mean f4 [16]
-0.13291317 0.067997865 -0.15990801 -0.18036944 -0.27685025 -0.40852532 -0.43859714 0.22039907
0.26536685 0.45396194 -0.4400254 -0.4728259 -0.05386506 0.26803106 0.22929353 -0.1569433
00000000: 641a 08be 7742 8b3d edbe 23be c4b2 38be
00000010: 51bf 8dbe 3b2a d1be ce8f e0be 4bb0 613e
00000020: 2ade 873e b36d e83e 024b e1be 3d16 f2be
00000030: 9ca1 5cbd 5e3b 893e eccb 6a3e bfb5 20be

classifier.5.running_var f4 [16]
0.06732928 0.111196175 0.18486984 0.12489163 0.05596856 0.12643716 0.16620494 0.13036269
0.115599565 0.2318172 0.23676679 0.21639761 0.1763644 0.22533078 0.31974462 0.19237551
00000000: efe3 893d d2ba e33d 854e 3d3e 2fc7 ff3d
00000010: 4a3f 653d be78 013e a131 2a3e cc7d 053e
00000020: 77bf ec3d 7d61 6d3e fe72 723e 5697 5d3e
00000030: df98 343e 1dbd 663e 91b5 a33e 16fe 443e

classifier.7.weight f4 [16, 16]
-0.23609327 0.2337586 -0.08562647 0.105129644 -0.114622705 0.11837136 -0.032509815 0.19345318
0.1718125 -0.25488052 0.07799719 -0.024355944 -0.1232359 -0.17235528 0.06460903 -0.09020835
0.18953463 0.1470047 0.23642524 0.03140664 0.09700065 0.2477112 0.19887702 -0.045110237
0.15215233 -0.015890658 -0.29623607 0.20986955 -0.2270924 0.039318733 -0.134284 0.1186188
-0.1983848 0.116795115 -0.2028462 0.21617003 -0.2067828 -0.029638741 0.07799388 -0.0377399
0.121446155 -0.15751044 0.13351694 0.12468002 -0.1043756 -0.12154136 0.042351086 -0.23608348
-0.08568617 0.09940963 0.21183234 -0.013122651 -0.17906581 -0.19267938 -0.22036304 -0.22687374
0.18758245 -0.13547175 -0.06898692 -0.24737255 0.15224046 0.21693528 -0.17106234 -0.028045869
-0.18569598 0.16896881 -0.12623353 -0.14066209 -0.10075726 0.040063422 0.09141527 0.30291402
-0.089345045 -0.06978889 -0.09286206 -0.13017233 0.18651843 0.22459017 -0.11359942 -0.027197847
-0.24197336 0.059467837 0.009667684 0.13842458 0.01082072 0.15370582 -0.08356985 0.10712014
0.19869113 -0.15988247 0.06363236 0.09685989 0.1563544 -0.056393385 -0.026231721 0.009163426
0.01266156 -0.13446926 -0.08782667 -0.16321586 -0.03454025 -0.056908023 -0.2515177 -0.15422598
0.18662013 -0.06981626 -0.14008066 0.06554602 -0.16806069 0.07678997 -0.17413531 -0.071656935
0.14716141 -0.19746989 -0.1253306 -0.1066765 0.1741663 -0.034477122 0.054698713 -0.013364647
0.28243098 0.09742808 0.13528194 -0.06528121 0.18583788 0.04788611 0.27051875 0.0015271218
0.22645187 -0.017022539 -0.07265676 0.22948864 -0.04723183 0.009429892 -0.03775007 -0.14376295
0.07425757 -0.002234664 0.011043785 0.11037356 -0.1650882 0.23696955 -0.17829582 0.054120086
-0.18016262 -0.119466 -0.20603743 -0.22423401 0.06944271 0.26536003 0.015539139 -0.0774376
0.19399431 0.09660024 0.20582913 0.14544885 -0.03628462 0.12729496 0.10549891 0.11816259
0.26384994 -0.26706427 -0.14851134 -0.13894986 0.07813735 0.14221156 -0.06636592 0.09602253
-0.049284033 0.23498657 0.11204174 -0.18859491 0.18029223 0.13868847 -0.03841866 -0.085271694
-0.086045414 -0.05777651 -0.10154665 0.1557644 -0.24744706 0.11784802 -0.16069657 0.19331908
-0.028076043 -0.071765974 -0.20728078 -0.013212509 -0.059851967 0.04541674 -0.08584103 -0.09644419
-0.18641645 -0.10716076 0.055984057 0.23701186 0.14468545 -0.10890849 0.11110844 -0.055481233
0.11875584 -0.17076164 -0.10611321 -0.05163734 0.11022033 -0.1563433 0.126847 0.13865338
-0.008174974 0.15821138 -0.17550689 -0.07925388 -0.018180985 0.014003178 -0.054395977 -0.115119934
-0.06525579 0.122108534 -0.023139188 -0.14173917 0.038028218 -0.28524712 -0.22355464 -0.09206775
0.28079933 -0.022645125 -0.27473968 -0.07867859 -0.019512478 0.031891342 0.17439401 -0.1822859
0.11880783 0.15849237 0.1485004 -0.07419176 -0.18424186 -0.02858406 0.28649935 -0.2004431
0.12679747 0.00096862006 -0.12035665 0.09649053 0.15567008 0.08944612 -0.16677086 0.06013198
0.10133721 0.23832501 0.12820831 0.1381623 0.04178136 0.031463053 0.05990056 -0.06329638
00000000: 6fc2 71be 6a5e 6f3e ee5c afbd 364e d73d
00000010: 4fbf eabd af6c f23d 0329 05bd 9718 463e
00000020: 9eef 2f3e b37f 82be febc 9f3d 1e86 c7bc
00000030: 1b63 fcbd e77d 30be bd51 843d 28bf b8bd
00000040: 5e15 423e 6688 163e 7519 723e 40a4 003d
00000050: 47a8 c63d 01a8 7d3e 6ba6 4b3e 83c5 38bd
00000060: d2cd 1b3e 202d 82bc 41ac 97be 0be8 563e
00000070: e98a 68be ae0c 213d bf81 09be 6aee f23d
00000080: 6325 4bbe 4732 ef3d eab6 4fbe ad5b 5d3e
00000090: dfbe 53be f2cc f2bc 41bb 9f3d 2795 1abd
000000a0: c3b8 f83d 6b4a 21be aab8 083e 3d58 ff3d
000000b0: e0c2 d5bd adea f8bd 5578 2d3d debf 71be
000000c0: 3b7c afbd 4797 cb3d 94ea 583e 6300 57bc
000000d0: 075d 37be be4d 45be d9a6 61be 9751 68be
000000e0: 9d15 403e 1bb9 0abe 0449 8dbd 3b4f 7dbe
000000f0: ece4 1b3e 4824 5e3e f72a 2fbe 73c0 e5bc
00000100: 1627 3ebe 2906 2d3e 5d43 01be b909 10be
00000110: d359 cebd 8b19 243d ee37 bb3d 8c17 9b3e
00000120: 89fa b6bd 7aed 8ebd 772e bebd e54b 05be
00000130: b0fe 3e3e f7fa 653e d0a6 e8bd 05ce debc
00000140: ddc7 77be 8c94 733d 3565 1e3c 2cbf 0d3e
00000150: 6449 313c 0f65 1d3e ab26 abbd ce61 db3d
00000160: b075 4b3e 3bb8 23be af51 823d 7a5e c63d
00000170: 5e1b 203e c0fc 66bd e8e3 d6bc 3222 163c
00000180: 6f72 4f3c 4fb2 09be 78de b3bd 0f22 27be
00000190: 147a 0dbd 6318 69bd eec6 80be 6aed 1dbe
000001a0: 5919 3f3e d4fb 8ebd 4e71 0fbe fe3c 863d
000001b0: 1a18 2cbe 0f44 9d3d 8750 32be dfc0 92bd
000001c0: 7bb1 163e 8c35 4abe aa56 00be 3579 dabd
000001d0: a758 323e e237 0dbd c20b 603d 64f7 5abc
000001e0: cb9a 903e 6088 c73d 5987 0a3e 28b2 85bd
000001f0: 494c 3e3e 3a24 443d 6f81 8a3e b429 c83a
00000200: 00e3 673e da72 8bbc 11cd 94bd 12ff 6a3e
00000210: 2a76 41bd d57f 1a3c d19f 1abd 9836 13be
00000220: 5a14 983d 7173 12bb fef0 343c 880b e23d
00000230: e20c 29be 25a8 723e 2e93 36be 06ad 5d3d
00000240: 8d7c 38be 97aa f4bd 7afb 52be 9a9d 65be
00000250: fb37 8e3d 45dd 873e df97 7e3c 9b97 9ebd
00000260: 72a6 463e 59d6 c53d dfc4 523e 8bf0 143e
00000270: 2f9f 14bd 9c59 023e d00f d83d 3aff f13d
00000280: 5717 873e a6bc 88be 5b13 18be df48 0ebe
00000290: 7a06 a03d e89f 113e dbea 87bd 76a7 c43d
000002a0: 0ede 49bd 52a0 703e 2476 e53d 061f 41be
000002b0: 879e 383e 5a04 0e3e e35c 1dbd eda2 aebd
000002c0: 9438 b0bd 10a7 6cbd b1f7 cfbd b480 1f3e
000002d0: c362 7dbe 4d5a f13d a48d 24be 70f5 453e
000002e0: bbff e5bc 0afa 92bd 6a41 54be 4879 58bc
000002f0: 5627 75bd e706 3a3d 6ccd afbd 8884 c5bd
00000300: f4e3 3ebe 1a77 dbbd 8a4f 653d 3db3 723e
00000310: 6c28 143e 6a0b dfbd d28c e33d 4a40 63bd
00000320: 4336 f33d 24dc 2ebe e251 d9bd ad81 53bd
00000330: 32bb e13d 7518 20be 2ee4 013e 27fb 0d3e
00000340: 53f0 05bc 2a02 223e 14b8 33be dc4f a2bd
00000350: 4af0 94bc 966d 653c 51ce 5ebd 00c4 ebbd
00000360: d4a4 85bd 0a14 fa3d 658e bdbc 1324 11be
00000370: 7ac3 1b3d e90b 92be 82eb 64be 048e bcbd
00000380: eec4 8f3e 4582 b9bc aeaa 8cbe 3e22 a1bd
00000390: a2d8 9fbc 7fa0 023d 5894 323e 28a9 3abe
000003a0: 8551 f33d d34b 223e 7d10 183e d9f1 97bd
000003b0: e6a9 3cbe 1e29 eabc 0bb0 923e f540 4dbe
000003c0: 32d7 013e feea 7d3a 8c7d f6bd d49c c53d
000003d0: fa67 1f3e 872f b73d fbc5 2abe f34c 763d
000003e0: e289 cf3d 790b 743e 0a49 033e 6b7a 0d3e
000003f0: ee22 2b3d 67df 003d 4a5a 753d 88a1 81bd

classifier.7.bias f4 [16]
0.073231 -0.10417004 -0.14854985 -0.23945153 -0.15917975 -0.08881832 0.09560739 -0.22813508
0.117903404 -0.0969236 0.06426955 -0.08224463 0.113228954 0.20210353 -0.06427756 -0.15872985
00000000: 22fa 953d 1a57 d5bd 741d 18be c832 75be
00000010: 0400 23be 61e6 b5bd cfcd c33d 3e9c 69be
00000020: 5777 f13d e17f c6bd c19f 833d df6f a8bd
00000030: 95e4 e73d 3af4 4e3e f4a3 83bd 148a 22be

classifier.8.weight f4 [16]
1.0599405 1.0841353 1.070736 1.0710757 1.0733256 1.073021 1.0627044 1.0657582
1.0726368 1.0715806 1.0621264 1.0603745 1.0652311 1.0890819 1.0724405 1.0687786
00000000: 21ac 873f f2c4 8a3f e10d 893f 0219 893f
00000010: bc62 893f c158 893f b306 883f c46a 883f
00000020: 2a4c 893f 8e29 893f c2f3 873f 5aba 873f
00000030: 7e59 883f 0967 8b3f bb45 893f bdcd 883f

classifier.8.bias f4 [16]
0.029655198 0.07713394 0.06625855 0.065366186 0.07460208 0.04602003 0.05733483 0.06691332
0.06996692 0.07103681 0.05523215 0.05132843 0.0764149 0.088989295 0.050657086 0.06720374
00000000: 75ef f23c 66f8 9d3d 90b2 873d b5de 853d
00000010: fac8 983d 807f 3c3d edd7 6a3d da09 893d
00000020: d14a 8f3d bf7b 913d 1b3b 623d c33d 523d
00000030: 6a7f 9c3d 0540 b63d ce7d 4f3d 1da2 893d

classifier.8.running_mean f4 [16]
0.041926347 0.29505116 -0.29616344 -0.5266601 -0.1895178 0.118814886 -0.35903826 0.09122035
0.21118529 0.13235903 0.13487917 -0.3690089 0.14922465 -0.20367749 -0.028540451 0.21750665
00000000: f6ba 2b3d f210 973e bca2 97be 32d3 06bf
00000010: f410 42be 3855 f33d ddd3 b7be bcd1 ba3d
00000020: f540 583e 2089 073e c41d 0a3e bcee bcbe
00000030: 59ce 183e d590 50be aacd e9bc 10ba 5e3e

classifier.8.running_var f4 [16]
0.030613285 0.21905541 0.06490164 0.0871854 0.1743416 0.03941873 0.048269745 0.31578985
0.10428539 0.07575914 0.14108051 0.13844122 0.1806765 0.046740018 0.21925774 0.07304038
00000000: b6c8 fa3c 1050 603e 27eb 843d 428e b23d
00000010: 9b86 323e 8975 213d 7fb6 453d 35af a13e
00000020: 9493 d53d 9c27 9b3d 6977 103e 89c3 0d3e
00000030: 4303 393e 7672 3f3d 1a85 603e 3296 953d

classifier.10.weight f4 [10, 16]
-0.29388735 -0.078770526 0.037845667 -0.03720421 -0.2753398 0.24164493 -0.1795523 -0.04355092
0.12874968 -0.16595 0.1471236 -0.11116013 0.24128254 -0.15202282 -0.13389045 0.11152891
-0.02876006 -0.1972057 -0.078216255 0.2208179 -0.12787841 -0.18689725 -0.11038626 0.2985964
-0.2959438 -0.03338371 0.28202838 -0.31238157 0.082539454 -0.2077879 0.21480407 0.18538606
0.23311041 -0.10225817 0.0345542 0.18470676 -0.00084657833 0.039682716 -0.14495577 -0.05185598
0.016057003 0.2818039 -0.09244641 -0.12552868 -0.02520751 0.26118162 0.0021736699 0.04055871
0.28707254 0.0068991818 0.2880725 0.056235835 -0.16843972 0.0382832 -0.08023968 0.07328115
-0.24133614 -0.15594454 0.13983943 0.1862602 0.08594304 -0.15751724 0.010453059 -0.18836813
0.010679962 0.28081682 -0.26743785 -0.19106133 -0.021513501 0.25542971 0.1605746 0.062334467
-0.2669253 0.14979792 -0.22130975 -0.2825267 0.19017664 -0.19664544 -0.27634233 0.027524237
-0.096578434 0.04026683 -0.027691431 0.304694 0.09005151 -0.06864704 0.25561514 -0.2842913
-0.16761409 -0.20082293 0.014970317 0.07929383 -0.23317525 0.057551697 -0.13856387 -0.04750372
-0.24938273 0.073124595 0.15631597 -0.010474166 -0.29068944 -0.07483973 -0.14915888 -0.2881993
-0.1360877 0.06317653 -0.04141848 -0.052104224 -0.18102872 0.18204159 -0.116669536 -0.011249022
-0.20482501 -0.2535399 -0.24371906 -0.23007476 0.2748743 -0.1454681 0.0016278788 -0.27801514
-0.052745607 -0.031587247 0.24675521 0.24293266 -0.20393017 0.1452981 0.1230469 0.110486045
0.027012795 0.07915525 0.036844928 -0.24921924 -0.05058055 -0.1603108 0.058460694 -0.014273436
-0.24964415 -0.2775795 -0.21829922 -0.019557724 -0.035652664 -0.21305436 -0.2857713 -0.30050972
0.08529338 0.08776232 0.08530677 0.2715842 0.21564087 0.085250035 -0.17585616 -0.12599456
0.25008637 0.22450252 0.09402197 0.23617189 -0.0398291 -0.2468953 -0.08982613 0.10012387
00000000: 6778 96be 7152 a1bd 0f04 1b3d 7163 18bd
00000010: 57f9 8cbe c571 773e 8fdc 37be 7362 32bd
00000020: f5d6 033e ccee 29be 92a7 163e eca7 e3bd
00000030: c512 773e dfab 1bbe 941a 09be 4569 e43d
00000040: 389a ebbc 4bf0 49be d82f a0bd 161e 623e
00000050: 8ff2 02be fe61 3fbe 3112 e2bd a1e1 983e
00000060: f285 97be 5bbd 08bd 0666 903e 7af0 9fbe
00000070: 720a a93d 5ac6 54be 99f5 5b3e d8d5 3d3e
00000080: 7fb4 6e3e bb6c d1bd b488 0d3d c523 3d3e
00000090: e9ec 5dba 588a 223d 496f 14be f066 54bd
000000a0: fa89 833c 9a48 903e 8b54 bdbd 978a 00be
000000b0: fb7f cebc 99b9 853e 2174 0e3b e420 263d
000000c0: 2cfb 923e 8812 e23b 3d7e 933e 8c57 663d
000000d0: 767b 2cbe d8ce 1c3d b454 a4bd 6d14 963d
000000e0: d220 77be edaf 1fbe 1132 0f3e feba 3e3e
000000f0: e802 b03d 334c 21be 4f43 2b3c 93e3 40be
00000100: 02fb 2e3c 39c7 8f3e 9ded 88be 95a5 43be
00000110: 153d b0bc afc7 823e ab6d 243e 6d52 7f3d
00000120: 6faa 88be a064 193e 069f 62be 57a7 90be
00000130: aabd 423e 6c5d 49be be7c 8dbe 827a e13c
00000140: eaca c5bd d5ee 243d 24d9 e2bc da00 9c3e
00000150: ed6c b83d d296 8cbd fddf 823e a18e 91be
00000160: 07a3 2bbe 87a4 4dbe 0f46 753c ce64 a23d
00000170: 7ec5 6ebe 54bb 6b3d b0e3 0dbe 4393 42bd
00000180: 305e 7fbe 59c2 953d 4b11 203e d69b 2bbc
00000190: 3fd5 94be 9345 99bd 1bbd 18be dc8e 93be
000001a0: 935a 0bbe b262 813d 6da6 29bd 3d6b 55bd
000001b0: 985f 39be 1c69 3a3e 70f0 eebd d14d 38bc
000001c0: a6bd 51be fbcf 81be 7d91 79be b898 6bbe
000001d0: 53bc 8c3e 97f5 14be 8c5e d53a 0058 8ebe
000001e0: c70b 58bd a161 01bd 66ad 7c3e 57c3 783e
000001f0: 12d3 50be 06c9 143e 0300 fc3d 8246 e23d
00000200: f049 dd3c 261c a23d b5ea 163d 5433 7fbe
00000210: 8d2d 4fbd 8428 24be 7b74 6f3d 21db 69bc
00000220: b7a2 7fbe e61e 8ebe d589 5fbe 8537 a0bc
00000230: 8708 12bd ec2a 5abe 9e50 92be 69dc 99be
00000240: 4cae ae3d bbbc b33d 51b5 ae3d 160d 8b3e
00000250: f6d0 5c3e 9297 ae3d a313 34be b804 01be
00000260: 520b 803e fde3 653e 978e c03d 0bd7 713e
00000270: d723 23bd 1fd2 7cbe c3f6 b7bd be0d cd3d

classifier.10.bias f4 [10]
0.13288255 -0.10773654 -0.23491244 -0.09002106 -0.01857528 -0.03777824 0.29007366 -0.015818551
0.1566131 -0.17322938
00000000: 5d12 083e faa4 dcbd e38c 70be f65c b8bd
00000010: 302b 98bc 5bbd 1abd 8984 943e e895 81bc
00000020: 2f5f 203e 0b63 31be

exp_avg f4 [16, 784]
-1.34103e-08 -1.0201156e-06 -1.3398392e-06 -2.5052474e-05 -7.0767695e-05 -9.388174e-05 -0.00016228373 -0.0004200023
-0.0006055089 -0.00022618978 5.7209705e-05 0.00039974946 0.0005658313 8.798949e-05 -3.0349736e-05 0.0002796016
0.00043633336 -2.4290334e-06 -0.00030976633 -0.00073543534 -0.00058962114 -0.0002790009 -0.00022265207 -0.00017726264
-5.718248e-05 -3.1509575e-05 -1.7274995e-05 -8.933799e-07 -1.688639e-06 -1.0084564e-06 -1.4688456e-05 -0.00011041293
-0.00022332705 -0.00030234898 -0.00047459017 -0.0007958442 -0.0008977888 -0.00010491703 0.00073399127 0.0007080504
0.00094265194 0.00077926816 0.0009980618 0.0012973925 0.0010091076 0.00043787842 -0.00014845458 -0.0010373477
-0.0011533939 -0.0004765757 -0.00015409461 -0.00035837246 -0.00021370358 -0.0001585601 -7.524672e-05 -2.7656677e-05
-2.6935866e-06 -7.711181e-06 -3.4547393e-05 -0.00017509019 -0.000338338 -0.00037944134 -0.000455892 -0.00032244984
-0.00043398925 -8.969927e-06 0.0009428184 0.00094984035 0.0006465277 0.001303392 0.0013162431 0.0010515684
0.00092238566 0.0006713608 -8.6022475e-05 -0.0008147927 -0.00071087066 -0.0005966478 -0.0003774655 -0.00019692359
-0.00024670968 -0.0002381041 -0.00013749693 -1.8936336e-05 -9.129166e-06 -1.8906734e-05 -5.5810462e-05 -0.00026018196
-0.00021420524 -0.00013367173 -0.0001157422 0.000142966 0.00013450802 0.0005173741 0.0010778905 0.0009150812
0.0008542581 0.00059813174 0.00071244367 0.001104051 0.000964304 0.0011629682 0.0008358455 0.00017189799
-0.000229122 -0.0002948965 0.00011099557 0.0002658351 2.6786247e-05 -0.00023983436 -0.00015808293 -1.814289e-05
-3.5387357e-06 -1.792236e-05 -0.000112032416 -0.0001429812 4.797545e-05 0.00019076331 0.0007560157 0.0008090444
0.00051241246 0.0009499925 0.000892214 0.00078797113 0.00067136023 0.00037009444 0.0005305425 0.00087469077
0.000976593 0.0010797351 0.0009775965 0.000800631 0.0006972152 0.00053733774 0.00033939656 0.0006603788
0.00033289942 7.587129e-05 -4.1006468e-05 -4.126156e-05 -1.1223987e-05 -4.5611738e-05 -3.480675e-05 1.588583e-05
0.0005514318 0.0005494554 0.0010508718 0.0009656421 0.0007964821 0.0009838537 0.00074082846 0.00071463845
0.00048254084 0.00043146667 0.00046224994 0.0008062963 0.0006574258 0.00056241127 0.0004704053 0.0003245964
0.0006748573 0.00087499036 6.212397e-05 0.0007684936 0.00030612605 7.518499e-05 -2.6611388e-05 -0.000100411344
-3.4778783e-05 -0.00010935682 -0.00012006493 0.00010582293 0.00089171535 0.0006663479 0.0012826961 0.0012226605
0.001088813 0.0009862005 0.0009194462 0.0007537092 0.0008087784 0.00023722288 -1.329718e-05 0.0005886001
0.00015027668 0.0003343286 0.00031348274 0.00025468352 0.0006285381 0.0010626963 -5.908827e-05 0.00027032642
8.4758634e-05 -0.00030221927 -0.0003444134 -0.00018761988 -4.6945835e-05 -0.000105105755 -8.713887e-05 0.00021133435
0.0010597442 0.00055991975 0.0014814667 0.0012977629 0.00086237193 0.0007445771 0.00059533643 0.00014859447
0.00015885786 -1.6025868e-05 -0.00032386987 0.00016457203 -0.0002226873 -0.00016262554 -0.00023790632 2.0217689e-05
0.00022644832 0.00074274617 -0.0003508271 -0.00056925474 -0.00048239692 -0.00075113267 -0.00047808225 -0.00014174478
-6.2581246e-05 -0.000121648925 -1.7646862e-06 0.00019171873 0.0008856488 0.00050574564 0.0013378287 0.00083403423
0.0004785658 0.0005584152 0.0003100982 6.023911e-05 -5.150361e-06 -0.00011436699 -9.452028e-05 0.00032408067
-1.1752882e-05 7.4872274e-05 -0.00019192546 -0.00041025624 -0.00036185223 0.00031028563 -0.00057374453 -0.0010337554
-0.00074880803 -0.00099272 -0.00038508038 -8.8799665e-05 -9.006218e-05 -0.00013611835 -8.491614e-05 0.00025804018
00000000: 2063 66b2 e8ea 88b5 86d4 b3b5 c727 d2b7
00000010: 1e69 94b8 60e2 c4b8 b52a 2ab9 c133 dcb9
00000020: 04bb 1eba 5b2d 6db9 74f4 6f38 7795 d139
00000030: 4c54 143a ff86 b838 9097 feb7 7e97 9239
00000040: acc3 e439 7a02 23b6 2268 a2b9 3bca 40ba
00000050: ce90 1aba de46 92b9 b677 69b9 94df 39b9
00000060: 38d7 6fb8 2629 04b8 c5e9 90b7 99d0 6fb5
00000070: 32a5 e2b5 4c5a 87b5 706e 76b7 7e8d e7b8
00000080: e62c 6ab9 9884 9eb9 6ad2 f8b9 33a0 50ba
00000090: 9659 6bba e706 dcb8 5269 403a 759c 393a
000000a0: 4d1c 773a cd47 4c3a 66d1 823a 450d aa3a
000000b0: 0844 843a 0c93 e539 79aa 1bb9 9df7 87ba
000000c0: 7a2d 97ba e8dc f9b9 7594 21b9 f0e3 bbb9
000000d0: 9e15 60b9 2743 26b9 c6cd 9db8 4300 e8b7
000000e0: 77c3 34b6 455f 01b7 fbe6 10b8 6a98 37b9
000000f0: f562 b1b9 c1ef c6b9 ca04 efb9 7c0e a9b9
00000100: 0d89 e3b9 8b7d 16b7 7927 773a b5fe 783a
00000110: bd7b 293a 94d6 aa3a ca85 ac3a c8d4 893a
00000120: 41cc 713a 43fe 2f3a f766 b4b8 d097 55ba
00000130: b959 3aba 5b68 1cba 90e6 c5b9 467d 4eb9
00000140: d058 81b9 95ab 79b9 0d2d 10b9 79d9 9eb7
00000150: 7829 19b7 e799 9eb7 0716 6ab8 0869 88b9
00000160: 489c 60b9 3b2a 0cb9 9fba f2b8 25e9 1539
00000170: b90a 0d39 63a0 073a 0148 8d3a 0fe2 6f3a
00000180: 4af0 5f3a f1cb 1c3a 49c3 3a3a ceb5 903a
00000190: 59c9 7c3a bd6e 983a a41c 5b3a 843f 3439
000001a0: 7840 70b9 579c 9ab9 4bc6 e838 c85f 8b39
000001b0: 07b3 e037 0c7c 7bb9 10c3 25b9 8f31 98b7
000001c0: 047b 6db6 fa57 96b7 f2f2 eab8 39ed 15b9
000001d0: 3f39 4938 a307 4839 5b2f 463a 0d16 543a
000001e0: 6b53 063a eb08 793a 78e3 693a d98f 4e3a
000001f0: 39fe 2f3a 3c09 c239 1b14 0b3a 814b 653a
00000200: 0601 803a e685 8d3a b222 803a 70e1 513a
00000210: 52c5 363a 20dc 0c3a 09f1 b139 451d 2d3a
00000220: 0189 ae39 171d 9f38 5cfe 2bb8 4310 2db8
00000230: a84e 3cb7 3b4f 3fb8 77fd 11b8 8f42 8537
00000240: f68d 103a 5409 103a 68bd 893a 2523 7d3a
00000250: 02cb 503a a7f4 803a 2834 423a 9356 3b3a
00000260: 89fd fc39 7a36 e239 235a f239 a15d 533a
00000270: 1957 2c3a c86e 133a bba0 f639 972e aa39
00000280: e8e8 303a 9c5f 653a 8d48 8238 bc74 493a
00000290: 8b7f a039 a2ac 9d38 853b dfb7 ee93 d2b8
000002a0: 6fdf 11b8 7f56 e5b8 5ecb fbb8 41ed dd38
000002b0: 01c2 693a daad 2e3a 2420 a83a ae41 a03a
000002c0: 80b6 8e3a 6643 813a fd06 713a 9194 453a
000002d0: 3304 543a 08bf 7839 f416 5fb7 494c 1a3a
000002e0: 9793 1d39 d348 af39 f15a a439 0b87 8539
000002f0: 7ac4 243a 2c4a 8b3a 8cd5 77b8 99ba 8d39
00000300: 72c0 b138 2f73 9eb9 6292 b4b9 d4bb 44b9
00000310: b5e7 44b8 396c dcb8 53be b6b8 a299 5d39
00000320: 1de7 8a3a 94c7 123a c62d c23a b219 aa3a
00000330: cd10 623a b92f 433a 5a10 1c3a 06d0 1b39
00000340: 1593 2639 4a6f 86b7 14cd a9b9 f890 2c39
00000350: 2b81 69b9 7686 2ab9 7e76 79b9 2899 a937
00000360: c272 6d39 dab4 423a 37ef b7b9 0a3a 15ba
00000370: 38ea fcb9 a9e7 44ba 1da7 fab9 53a1 14b9
00000380: 0d3e 83b8 c51d ffb8 28da ecb5 1b08 4939
00000390: e32a 683a 0494 043a 155a af3a 17a3 5a3a
000003a0: 04e8 fa39 9c62 123a ad94 a239 40a9 7c38
000003b0: 44d1 acb6 4fd8 efb8 3039 c6b8 5fe9 a939
000003c0: 3e2e 45b7 bf04 9d38 993f 49b9 a917 d7b9
000003d0: fcb6 bdb9 d5ad a239 5867 16ba 137f 87ba
000003e0: a84b 44ba 281e 82ba 9de4 c9b9 f539 bab8
000003f0: c4df bcb8 feba 0eb9 0115 b2b8 9149 8739

exp_avg_sq f4 [16, 784]
8.6768144e-14 2.4395024e-12 2.5359725e-11 6.72984e-10 2.52315e-09 6.000634e-09 1.0049986e-08 3.686445e-08
1.1844636e-07 2.1357019e-07 8.2072614e-07 1.076221e-06 1.3796845e-06 1.9137492e-06 1.965088e-06 1.6016245e-06
9.1184216e-07 9.749858e-07 5.816767e-07 2.6907892e-07 1.04504835e-07 3.617511e-08 1.42383545e-08 1.0181175e-08
6.635395e-09 2.513875e-09 4.6983395e-10 6.856718e-11 1.294617e-11 6.137661e-11 6.5872385e-10 5.4910085e-09
1.7113074e-08 3.803292e-08 1.3935335e-07 3.888519e-07 1.0193221e-06 2.1103094e-06 2.5516306e-06 1.955794e-06
2.0169873e-06 2.14445e-06 2.4689898e-06 2.5747447e-06 2.0330504e-06 1.971959e-06 2.569836e-06 1.7874455e-06
6.187952e-07 2.9636013e-07 1.5156374e-07 7.770351e-08 6.800923e-08 4.1301647e-08 9.388625e-09 4.393206e-10
1.08304955e-10 4.701309e-10 3.0173015e-09 1.154699e-08 3.7078642e-08 2.6555483e-07 5.713852e-07 9.965976e-07
1.9571075e-06 1.8661467e-06 2.2391757e-06 1.983807e-06 1.8035735e-06 1.772035e-06 2.1136175e-06 2.6133453e-06
2.615462e-06 2.3405896e-06 2.0387488e-06 2.3713583e-06 1.2842878e-06 6.2146876e-07 4.9791004e-07 2.886116e-07
1.5739224e-07 1.05429976e-07 2.5883487e-08 1.4346173e-09 2.0835933e-10 1.4726534e-09 4.7855524e-09 2.376953e-08
1.5633329e-07 5.5299347e-07 7.118798e-07 1.0087714e-06 1.3298852e-06 1.4039535e-06 2.0547727e-06 1.6857065e-06
1.7731641e-06 2.1808519e-06 2.4229355e-06 3.0125589e-06 2.9664513e-06 2.74479e-06 2.4298406e-06 2.2277038e-06
1.5507056e-06 6.7316995e-07 7.859575e-07 8.230676e-07 4.4583396e-07 2.5905342e-07 7.2870904e-08 4.955566e-09
5.4941535e-10 5.7838143e-09 1.4489889e-08 4.629928e-08 3.6259462e-07 6.162648e-07 7.4970893e-07 7.395026e-07
8.3195573e-07 1.2883564e-06 1.6001339e-06 1.28619e-06 1.4813087e-06 1.9735382e-06 2.7277247e-06 3.6008291e-06
3.3650458e-06 3.1594582e-06 2.8675865e-06 2.214955e-06 1.4996721e-06 1.0148354e-06 1.225052e-06 1.5325103e-06
1.0335095e-06 5.746644e-07 1.7692763e-07 1.1279967e-08 1.7057236e-09 1.6142861e-08 4.4614833e-08 9.842476e-08
6.057777e-07 6.7587433e-07 6.9579767e-07 6.9615993e-07 8.8355796e-07 1.2569869e-06 1.2768486e-06 1.076769e-06
1.3458098e-06 1.5877484e-06 2.661415e-06 4.6639498e-06 5.080867e-06 4.888405e-06 4.624437e-06 3.897911e-06
2.6861953e-06 2.1919445e-06 2.4336132e-06 3.192167e-06 2.3734765e-06 1.3605523e-06 3.4728006e-07 1.029867e-08
3.461176e-09 3.9305057e-08 8.911653e-08 1.9711639e-07 7.6450004e-07 8.024428e-07 9.770139e-07 8.2799414e-07
8.4978115e-07 1.0836465e-06 9.0655067e-07 8.2718793e-07 9.755786e-07 1.5835401e-06 2.9010776e-06 5.6274343e-06
6.373234e-06 5.427023e-06 4.6568584e-06 5.0058147e-06 3.5918524e-06 3.2990586e-06 3.4225636e-06 4.3530044e-06
3.0636088e-06 1.6898823e-06 2.9701235e-07 1.3511324e-08 6.5774635e-09 6.9082056e-08 1.9322103e-07 3.5055368e-07
8.869038e-07 9.980723e-07 1.2914345e-06 1.0074637e-06 9.437254e-07 9.904813e-07 6.660735e-07 4.6974162e-07
6.611521e-07 1.3082656e-06 2.480976e-06 4.599814e-06 4.9811565e-06 3.5900578e-06 3.975336e-06 4.184255e-06
3.201398e-06 3.3231877e-06 3.5263163e-06 4.017473e-06 3.3917975e-06 1.909474e-06 2.9863855e-07 2.3135254e-08
1.1719456e-08 9.791927e-08 2.598899e-07 5.2840716e-07 9.598332e-07 1.0288622e-06 1.5511622e-06 1.5411006e-06
1.7215611e-06 1.5835443e-06 7.868609e-07 4.0204776e-07 6.1891296e-07 1.032157e-06 1.8856506e-06 3.697213e-06
2.941834e-06 2.229241e-06 2.9969644e-06 3.9515753e-06 2.3844993e-06 2.886403e-06 2.559689e-06 2.6566797e-06
2.5023414e-06 1.3176898e-06 2.5670482e-07 3.7646586e-08 1.6000307e-08 1.5557796e-07 2.823411e-07 7.063074e-07
00000000: 6e62 c329 2baa 2b2c 0611 df2d 0afd 3830
00000010: b963 2d31 232e ce31 4ea8 2c32 e454 1e33
00000020: 935c fe33 ba51 6534 df4f 5c35 ac72 9035
00000030: 992d b935 f66d 0036 f4df 0336 66f7 d635
00000040: 51c5 7435 42dc 8235 8524 1c35 ed75 9034
00000050: 246c e033 f45e 1b33 f29c 7432 48e9 2e32
00000060: 8dfd e331 8fc0 2c31 a025 0130 e4c7 962e
00000070: 5ec0 632d f6f7 862e 9211 3530 6cab bc31
00000080: 0c00 9332 a359 2333 28a1 1534 66c3 d034
00000090: a4cf 8835 d79e 0d36 ae3c 2b36 4940 0336
000000a0: 945b 0736 5fe9 0f36 ecb0 2536 c7c9 2c36
000000b0: 8a6f 0836 ff55 0436 7275 2c36 29e8 ef35
000000c0: 481b 2635 6d1b 9f34 86bd 2234 f5dd a633
000000d0: 780c 9233 a463 3133 9c4b 2132 e184 f12f
000000e0: 452a ee2e 853a 0130 ee58 4f31 3360 4632
000000f0: 6640 1f33 9491 8e34 4b61 1935 d5c2 8535
00000100: da56 0336 5078 fa35 bf44 1636 8b21 0536
00000110: 5012 f235 a9d6 ed35 acd7 0d36 ee60 2f36
00000120: 4c85 2f36 0613 1d36 70d1 0836 a023 1f36
00000130: cb5f ac35 02d3 2635 1ea8 0535 7af2 9a34
00000140: a6ff 2834 be68 e233 6456 de32 1c2c c530
00000150: f017 652f 6366 ca30 2a6e a431 c02d cc32
00000160: 91dc 2734 6c71 1435 0218 3f35 1f65 8735
00000170: 827e b235 7a6f bc35 bae4 0936 6f40 e235
00000180: 74fd ed35 c05a 1236 b799 2236 5e2b 4a36
00000190: 3f13 4736 2233 3836 5810 2336 a97f 1536
000001a0: d721 d035 e3b3 3435 97fa 5235 c6f0 5c35
000001b0: f45a ef34 0814 8b34 347d 9c33 9f45 aa31
000001c0: ab05 1730 f8ba c631 35ef 7832 99da 4633
000001d0: a0aa c234 656d 2535 9b3f 4935 3b82 4635
000001e0: 9053 5f35 97eb ac35 2fc4 d635 27a1 ac35
000001f0: 61d1 c635 2171 0436 f40d 3736 c6a5 7136
00000200: 0cd3 6136 1407 5436 c370 4036 a3a4 1436
00000210: 5748 c935 7b35 8835 776c a435 a7b0 cd35
00000220: 1eb7 8a35 a342 1a35 7ff9 3d34 d2c9 4132
00000230: d06e ea30 87aa 8a32 879e 3f33 965d d333
00000240: ba9c 2235 bb6d 3535 dac6 3a35 bfdf 3a35
00000250: a42d 6d35 beb5 a835 2f60 ab35 8085 9035
00000260: aca1 b435 9f1a d535 c39a 3236 067f 9c36
00000270: 517c aa36 1407 a436 9d2b 9b36 cdca 8236
00000280: 7c44 3436 5219 1336 2851 2336 0339 5636
00000290: 0448 1f36 399c b635 cf71 ba34 08ee 3032
000002a0: a7d9 6d31 5ed0 2833 5560 bf33 f1a6 5334
000002b0: 0b38 4d35 7367 5735 f121 8335 5343 5e35
000002c0: 841c 6435 cf71 9135 b059 7335 ec0b 5e35
000002d0: a0f0 8235 068a d435 22b0 4236 4bd3 bc36
000002e0: aad9 d536 c619 b636 1c42 9c36 9ff7 a736
000002f0: 8e0b 7136 6565 5d36 32af 6536 0610 9236
00000300: 6698 4d36 eacf e235 1175 9f34 6e1f 6832
00000310: fbff e131 435a 9433 3178 4f34 bb33 bc34
00000320: 9113 6e35 81f5 8535 5a55 ad35 3038 8735
00000330: 5154 7d35 aef0 8435 39cc 3235 cc30 fc34
00000340: 077a 3135 aa97 af35 d87e 2636 1a58 9a36
00000350: cf23 a736 b9ec 7036 e063 8536 7a66 8c36
00000360: 99d7 5636 ee03 5f36 a7a5 6c36 d5cd 8636
00000370: a39e 6336 8324 0036 9254 a034 f6ba c632
00000380: b656 4932 b047 d233 ff86 8b34 ddd7 0d35
00000390: 9ed3 8035 7017 8a35 8731 d035 d0d7 ce35
000003a0: 6410 e735 2b8a d435 ab38 5335 06d9 d734
000003b0: 6023 2635 a588 8a35 7616 fd35 a31d 7836
000003c0: 536c 4536 129a 1536 751f 4936 c697 8436
000003d0: 6305 2036 07b4 4136 1fc7 2b36 6949 3236
000003e0: e6ed 2736 7adb b035 3ed1 8934 dcb0 2133
000003f0: 0c71 8932 f20c 2734 aa94 9734 1399 3d35

exp_avg f4 [16]
-4.5141132e-10 1.6357533e-10 1.9161424e-10 -1.2652855e-10 2.5553167e-11 -3.769564e-11 1.7826128e-10 -6.453455e-10
-3.938461e-10 2.668012e-11 -2.6513855e-10 3.079714e-10 -6.785392e-11 2.6396e-11 -1.2792635e-10 -3.548935e-10
00000000: 7f2a f8af 5dda 332f 9dae 522f 9f1e 0baf
00000010: 9ec4 e02d 84c9 25ae 1700 442f 2764 31b0
00000020: e984 d8af 4aae ea2d efc2 91af 1f4f a92f
00000030: 5c36 95ae 822e e82d 11a8 0caf d21a c3af

exp_avg_sq f4 [16]
9.352125e-20 4.4282694e-20 8.040457e-20 2.99465e-19 7.656838e-20 2.6424243e-20 7.2693576e-20 9.118099e-20
8.7252795e-20 4.690823e-20 1.5102942e-19 2.3896361e-20 8.6560167e-20 2.5797304e-20 4.5821463e-20 4.7703554e-20
00000000: 20d2 dc1f 7e1e 511f 95d9 bd1f dfc5 b020
00000010: bfca b41f e691 f91e 92a4 ab1f 874b d71f
00000020: 1405 ce1f 9284 5d1f d74d 3220 dbb1 e11e
00000030: 6962 cc1f 0ea6 f31e c062 581f 0f46 611f

exp_avg f4 [16]
0.010125136 -0.00010958081 0.001288942 -0.0008569681 -0.0049089035 0.0006392879 0.0011059833 -0.00052113825
0.0019112749 -0.0001287326 -0.0017605193 0.0019911018 0.00086625054 -0.002819951 0.0005876611 -0.005247008
00000000: e6e3 253c c0ce e5b8 b7f1 a83a 28a6 60ba
00000010: deda a0bb e295 273a a4f6 903a ff9c 08ba
00000020: be83 fa3a 65fc 06b9 3ac1 e6ba 257d 023b
00000030: 1715 633a edce 38bb 450d 1a3a 18ef abbb

exp_avg_sq f4 [16]
1.4640279e-05 8.4163474e-07 2.1874812e-06 1.950221e-06 2.0311409e-06 3.108597e-07 9.772607e-07 2.7853698e-06
9.765631e-07 8.2163564e-07 1.5109455e-06 1.6092507e-06 5.321066e-07 1.6292876e-06 2.5542186e-06 1.5166593e-06
00000000: 859f 7537 b3ec 6135 a4cc 1236 8be0 0236
00000010: bc4e 0836 3be4 a634 6c2a 8335 4aec 3a36
00000020: 7412 8335 5f8e 5c35 b1cb ca35 6ffd d735
00000030: 16d6 0e35 e5ad da35 2469 2b36 0490 cb35

exp_avg f4 [16]
0.004557156 0.0047168033 0.002757701 0.00020553546 -0.0032690456 0.0018650632 0.0008680753 -0.0033958429
-0.0014155322 -0.0009464398 0.0017258002 0.000510277 0.00043625443 -0.0047759227 0.0010467959 -0.0015016701
00000000: 3254 953b 6a8f 9a3b 8cba 343b 0185 5739
00000010: 7c3d 56bb 2375 f43a 8c8f 633a ca8c 5ebb
00000020: 6189 b9ba 801a 78ba 3f34 e23a 1cc4 053a
00000030: 14b9 e439 587f 9cbb a434 893a b0d3 c4ba

exp_avg_sq f4 [16]
1.7806549e-06 1.4021116e-06 1.651383e-06 5.834373e-07 2.043346e-06 4.5152242e-07 5.5313865e-07 1.6525696e-06
4.8006933e-07 6.76894e-07 2.9568648e-07 9.0501294e-07 5.54821e-07 1.0743709e-06 1.2731426e-06 8.7543657e-07
00000000: d6fe ee35 3030 bc35 16a5 dd35 829d 1c35
00000010: 6b20 0936 c568 f234 667b 1435 dccd dd35
00000020: 1dde 0035 cdb3 3535 d7be 9e34 04f0 7235
00000030: 02ef 1435 1a33 9035 d9e0 aa35 8bff 6a35
