lightning_logs/version_1/checkpoints/epoch=14-step=705.ckpt (torch, 369102 bytes, 48 tensors)

classifier.1.weight f4 [32, 784]
0	0xbcd79425	-0.026315758
1	0xbbebe589	-0.0071989936
2	0xbd9584aa	-0.07300694
3	0xbd042813	-0.03226478
4	0x3d9371d6	0.07199447
5	0x3dc170fd	0.09445379
6	0x3db64add	0.08900998
7	0x3d61993d	0.05507778
8	0xbce402f8	-0.027833447
9	0xbd09245f	-0.03348195
10	0xbdb99520	-0.090616465
11	0xbc842dde	-0.016135152
12	0xbd5964b5	-0.053074557
13	0xbbd7c017	-0.006584178
14	0xbc078528	-0.008271493
15	0xbd2637b1	-0.040580455
16	0x3d1d9b09	0.03847793
17	0x3c651ded	0.013984186
18	0x3caba350	0.020951897
19	0xbd4e123f	-0.05031037
20	0x3c5c4fba	0.013446743
21	0x3d86845d	0.06568215
22	0x3d845c05	0.06462864
23	0x3ccf0963	0.02527303
24	0x3c97e9c5	0.018544087
25	0xbdbc7b4e	-0.09203206
26	0xbdb56c75	-0.08858577
27	0x3d1afba8	0.037837654
28	0x3ca5eb3c	0.02025377
29	0x3d7d55a1	0.06184924
30	0xbe2a7eba	-0.16649905
31	0x3b99b85d	0.0046911673
32	0x3b1e9976	0.0024200357
33	0xbb982b87	-0.0046438607
34	0x3d07d317	0.033160295
35	0x3c83bca8	0.01608117
36	0x3b0d54c4	0.0021565417
37	0xbc0fc2ce	-0.008774472
38	0xbc67078f	-0.014100923
39	0x3cf4e912	0.029896293
40	0xbdc65963	-0.09685018
41	0xbcc196a2	-0.023631398
42	0x3d2d92b5	0.04237624
43	0x3cc7c394	0.024385251
44	0x3c9ce135	0.019150356
45	0x3ccb4d92	0.024817262
46	0x3d0ef648	0.03490284
47	0x3d39e685	0.045385856
48	0x3db21ebe	0.0869727
49	0x3c9cfe31	0.019164177
50	0xbd090b73	-0.033458184
51	0x3d3d8df7	0.046277966
52	0xbcd3e0c8	-0.02586402
53	0xbd5c80ec	-0.053833887
54	0x3dd2b1e1	0.10287834
55	0x3ddd87a3	0.10816886
56	0x3e22e32e	0.15906975
57	0x3a82e07d	0.0009985116
58	0xbbb55ee4	-0.0055349935
59	0xbc2edd11	-0.0106728235
60	0x3c3ff44e	0.011715962
61	0x3d42ef94	0.04759176
62	0xbd0de2a9	-0.034639988
63	0x3d0acaee	0.033884935
64	0xbc450d4e	-0.012027098
65	0x3d0a29ee	0.033731394
66	0xbc872be8	-0.016500428
67	0xbdde0114	-0.108400494
68	0xbccb9be7	-0.024854613
69	0x3d46c365	0.048526186
70	0x3cdddd09	0.027082937
71	0x3c66af1a	0.014079833
72	0xbc7a48fd	-0.015276191
73	0x3d40af60	0.04704225
74	0x3d45d0df	0.048294898
75	0x3d4248a6	0.047432564
76	0x3c65ba5c	0.014021482
77	0x3d3d49b1	0.046212856
78	0x3cb4c668	0.022067264
79	0xbd3cfc96	-0.046139322
80	0x3d2601e4	0.040529147
81	0xbc3aaeac	-0.011394184
82	0xbcd1d61d	-0.025614792
83	0x3e10307f	0.14081
84	0x3d288bf4	0.041149095
85	0xbdba9bc7	-0.091117434
86	0xbd50d7b7	-0.05098697
87	0x3ce18dc9	0.027533429
88	0x3d4a5727	0.04939952
89	0x3ba9751a	0.0051714303
90	0xbd468774	-0.048469022
91	0xbcbaf6f3	-0.022822833
92	0x3cd81b1d	0.026380116
93	0x3ca8df08	0.020614162
94	0xbd1f02f9	-0.038821194
95	0xbd0df141	-0.034653906
96	0xbcc2efdd	-0.023796016
97	0xbc85ac57	-0.01631753
98	0xba96e024	-0.0011510891
99	0x3c21325c	0.009838667
100	0x3c8defa4	0.017326184
101	0x3bc592dc	0.00602947
102	0x3cf4fbde	0.029905256
103	0x3cac615b	0.021042516
104	0x3c7cec74	0.015437234
105	0x3cc2d1c7	0.02378167
106	0x3c5f4801	0.013628007
107	0xbdd1a2a8	-0.10236102
108	0xbc72f683	-0.014829281
109	0x3d783bf4	0.06060405
110	0xbcc0fbd7	-0.023557587
111	0xbd7f4186	-0.062318347
112	0xbcf317c7	-0.029674424
113	0xbdd06f99	-0.101775356
114	0x3cf90426	0.030397486
115	0x3cea6f9d	0.028617674
116	0x3cc21be2	0.023694936
117	0x3beefece	0.0072935587
118	0xbcd34853	-0.025791323
119	0x3b9ea67b	0.0048416234
120	0xbb01eacc	-0.0019823788
121	0xbd3bf03e	-0.04588341
122	0xbd294b18	-0.04133138
123	0x3c7e5852	0.015523987
124	0x3d1ea09a	0.03872738
125	0xbc408d64	-0.01175246
126	0x3d000f88	0.03126481
127	0xbcb1e2e1	-0.02171463
128	0x3cc421e7	0.023941947
129	0xbd947e80	-0.072506905
130	0xbce2eb33	-0.027700042
131	0x3d9e4a5a	0.07729025
132	0x3ca79be9	0.020460086
133	0x3c832f72	0.016013835
134	0x3d0e44b6	0.034733497
135	0x3bb297b2	0.0054502124
136	0x3b33024e	0.0027314606
137	0x3d487d24	0.04894747
138	0xbb212d07	-0.0024593489
139	0xbda61bb7	-0.08110755
140	0x3e3b4a8c	0.18290156
141	0xbcde18e9	-0.027111487
142	0xbc493804	-0.012281422
143	0x3c26886e	0.010164363
144	0x3d64116f	0.05568069
145	0x3d2d4fb8	0.042312354
146	0xbcdd3766	-0.027003955
147	0xbcd2a524	-0.02571351
148	0xbd13df86	-0.03610184
149	0xbd0f6887	-0.035011794
150	0x3d219d2a	0.039456524
151	0x3d0fb467	0.035084154
152	0xbd5b6dbe	-0.053571455
153	0x3d012fa3	0.03153957
154	0x3d3141c8	0.043275625
155	0xbc68aac8	-0.014200874
156	0x3ad3571c	0.0016123983
157	0x3d9a7a3c	0.075428456
158	0xbced3c77	-0.028959496
159	0xbd5bf687	-0.053701904
160	0xbd3e6fe3	-0.046493422
161	0xbc182e51	-0.009288386
162	0x3c4869b9	0.0122322375
163	0x3dc2e1d9	0.09515733
164	0x3d5f8ecc	0.05457954
165	0x3cdb7f77	0.026794178
166	0xbd6ba911	-0.05753428
167	0xbc3cd37a	-0.011525029
168	0x3d4060e8	0.046967417
169	0xbc884252	-0.016633186
170	0x3d1c30bb	0.03813241
171	0xbc1ba39f	-0.0094994595
172	0xbc0dff43	-0.008666816
173	0x3cd3c37b	0.025850048
174	0xbd518320	-0.05115044
175	0xbc675a8c	-0.014120709
176	0xbcf0a318	-0.029374644
177	0xbbd33490	-0.006445475
178	0xbc4eb487	-0.012616283
179	0x3db801b5	0.089847006
180	0x3d0e3532	0.0347187
181	0x3d2f8bbe	0.042857878
182	0xbba17da2	-0.0049283067
183	0xbc1543f4	-0.00911044
184	0xbc3b90fb	-0.01144814
185	0x3c55d8e8	0.013052203
186	0x3bbd6692	0.0057800496
187	0x3d0ffb29	0.035151634
188	0xbd169b5e	-0.036769263
189	0xbd0ef39d	-0.034900296
190	0xbd928737	-0.071546964
191	0x3c50e9d4	0.0127510615
192	0x3d33161f	0.04372227
193	0x3d7ecba6	0.062205933
194	0x3b160de3	0.002289646
195	0x3cac4620	0.021029532
196	0x3a8226ac	0.0009929738
197	0x3ce78baa	0.02826484
198	0x3d36d60f	0.044637736
199	0xbc9e069c	-0.019290261
200	0xbc8c65d8	-0.017138407
201	0xbcdbae39	-0.026816474
202	0xbd2df6b0	-0.042471588
203	0xbc4f5f83	-0.012657049
204	0xbbb167de	-0.0054139933
205	0xbc0533c3	-0.008130017
206	0xbce3744c	-0.027765416
207	0x3d5909bb	0.052987795
208	0xbc22440a	-0.009903917
209	0xbccd0216	-0.025025409
210	0x3c185b5a	0.009299124
211	0x3be3ac6a	0.0069480436
212	0xbca97a71	-0.020688267
213	0xbaac80a8	-0.0013160901
214	0xbbc9486a	-0.0061426656
215	0xbc8f6e6b	-0.017508706
216	0xbb87426a	-0.00412779
217	0xbc0208fa	-0.0079367105
218	0xbd39a097	-0.045319166
219	0xbd28dc3c	-0.041225657
220	0x3d3d0de3	0.04615582
221	0x3cbdceb4	0.023169853
222	0x3b8313fc	0.004000185
223	0x3d3ec0ec	0.046570703
224	0x3d43be2a	0.047788776
225	0x3d1425b7	0.03616878
226	0x3d319e90	0.043364108
227	0xbc910181	-0.017700912
228	0xbd481a38	-0.04885313
229	0x3c0dc9fb	0.008654113
230	0x3c38c466	0.011277294
231	0x3c95bb44	0.018277772
232	0xbb7abbb2	-0.0038258848
233	0xbb7b7280	-0.0038367808
234	0x3d07833f	0.03308415
235	0x39cb4f95	0.0003877847
236	0x3cead97f	0.028668163
237	0xbc26c100	-0.010177851
238	0xb9a20296	-0.00030900975
239	0x3b936073	0.0044975816
240	0xbc17dca6	-0.009268915
241	0x3af06d25	0.0018343074
242	0xbcebdcec	-0.028791867
243	0x3ce21b7a	0.027600992
244	0x3d110a00	0.035409927
245	0xba73014e	-0.0009269909
246	0x3cab0fa3	0.02088148
247	0xbca0c495	-0.019624988
248	0xbccf305d	-0.025291616
249	0xbccf70e7	-0.02532239
250	0xbc7442ca	-0.014908502
251	0xbc1888b3	-0.009309935
252	0x3dca2c1d	0.09871695
253	0xbad23f11	-0.0016040524
254	0x3d798c6f	0.060924944
255	0xbcb9992b	-0.022656044

classifier.1.bias f4 [32]
0	0xbcf58302	-0.029969696
1	0xbcc912cb	-0.024545094
2	0xbbf609c5	-0.007508489
3	0xbd158df5	-0.036512334
4	0x3ae8132a	0.0017705907
5	0xbba60830	-0.005066894
6	0x3c3923b2	0.011300014
7	0xbccdd265	-0.025124738
8	0xbcbde8f6	-0.023182373
9	0xbc3caf60	-0.011516422
10	0x3c9d1a31	0.019177528
11	0xbc709f19	-0.014686369
12	0x3c27fb2b	0.010252754
13	0x3c67f2aa	0.014156977
14	0x3c706b97	0.014674089
15	0xbc42b5b2	-0.01188414
16	0x3cc6ddde	0.024275716
17	0xbc6bcf9e	-0.0143927615
18	0x3c498953	0.012300807
19	0x3b88ccf2	0.004174822
20	0x3bdbe5e4	0.0067107547
21	0xbc99b903	-0.018764978
22	0x3c9d5a74	0.01920817
23	0x3c89ea84	0.016835459
24	0xbd1295c2	-0.03578735
25	0xbc0e1aa7	-0.008673347
26	0x3cda2189	0.026627319
27	0xbcaaa72e	-0.02083167
28	0xba8b18f2	-0.0010612293
29	0x3cd0f11e	0.025505599
30	0xbcf3b591	-0.029749664
31	0xbb901d39	-0.004398015

classifier.2.weight f4 [32]
0	0x3f7c832f	0.9863767
1	0x3f7da056	0.9907278
2	0x3f7481e5	0.95510703
3	0x3f7ea786	0.9947437
4	0x3f82a9c9	1.0208064
5	0x3f82af56	1.0209758
6	0x3f80c853	1.0061134
7	0x3f808c9a	1.0042908
8	0x3f82ea76	1.0227802
9	0x3f830b17	1.0237759
10	0x3f830a9a	1.023761
11	0x3f7bd919	0.9837814
12	0x3f7ce03d	0.9877966
13	0x3f836d8c	1.0267806
14	0x3f82cde9	1.0219089
15	0x3f724321	0.9463368
16	0x3f8434a6	1.0328567
17	0x3f7fb6dc	0.99888396
18	0x3f715b10	0.94279575
19	0x3f73e759	0.95274884
20	0x3f80a90c	1.0051589
21	0x3f73a767	0.9517731
22	0x3f824fe5	1.0180632
23	0x3f78db50	0.97209644
24	0x3f82ed65	1.0228697
25	0x3f726757	0.94688934
26	0x3f79758e	0.97445
27	0x3f861075	1.0473772
28	0x3f7da14d	0.9907425
29	0x3f802b47	1.0013207
30	0x3f84839e	1.0352666
31	0x3f86ea34	1.0540223

classifier.2.bias f4 [32]
0	0xbd3026b2	-0.043005653
1	0xbe10a023	-0.14123587
2	0xbdfe3b79	-0.12413687
3	0xbdfa7e9f	-0.12231182
4	0xbd62d9e6	-0.055383585
5	0xbd80ff39	-0.0629868
6	0x3d401a19	0.04689989
7	0xbd96f272	-0.073704615
8	0xbd15819a	-0.03650055
9	0xbdc3fe2f	-0.09569966
10	0xbd7670e1	-0.060166243
11	0x3d841b16	0.06450479
12	0xbe25add5	-0.16179593
13	0xbdf33f03	-0.11877253
14	0xbe4777ac	-0.19479245
15	0xbd203b67	-0.03911915
16	0xbdc1977d	-0.09452722
17	0xbdd5fbfa	-0.10448451
18	0xbc781d5f	-0.015143721
19	0xbd9d5c78	-0.07683653
20	0x3cc8c51e	0.024508055
21	0xbdc494eb	-0.09598716
22	0xbcb35377	-0.021890385
23	0xbd6e6dfd	-0.05821036
24	0xbd8df0e9	-0.069307156
25	0xbd08231a	-0.0332366
26	0xbbcbd0fd	-0.0062199817
27	0xbcba11b6	-0.022713523
28	0xbe0bb5f7	-0.13643633
29	0xbde4e814	-0.11177078
30	0x3d9c2fb5	0.07626287
31	0xbdd18dd1	-0.102321275

classifier.2.running_mean f4 [32]
0	0x3da50282	0.08057119
1	0x40060924	2.094308
2	0x3ff9e12d	1.9521843
3	0x3f3b721e	0.73221004
4	0x403b0f17	2.922796
5	0x3b387333	0.0028144836
6	0x40cb1fef	6.347648
7	0xbf95f989	-1.1716777
8	0xbdf93046	-0.121674106
9	0x404727e6	3.1118102
10	0x3f842476	1.0323627
11	0x40e779ac	7.2336025
12	0x3fa332b4	1.2749848
13	0x406581cd	3.5860474
14	0x3fe193a7	1.7623185
15	0x3f474390	0.7783747
16	0x4081aa44	4.0520344
17	0x3f9c714b	1.2222074
18	0xbf040fa7	-0.51586384
19	0xbe587edf	-0.21142147
20	0x40120521	2.281563
21	0x401898af	2.384319
22	0x3f7576ed	0.9588459
23	0xbdc3111f	-0.0952475
24	0x3f3d9e2f	0.74069494
25	0x3f87d1d1	1.0610906
26	0xbf8a515b	-1.0806078
27	0x40be65d7	5.9499316
28	0x407ee1b3	3.9825256
29	0x3f87fb95	1.0623652
30	0x40acca0f	5.3996654
31	0x3fff1829	1.9929248

classifier.2.running_var f4 [32]
0	0x3f691db8	0.9106097
1	0x3f6ef448	0.93341494
2	0x3fc8b1a1	1.5679208
3	0x3facf268	1.3511477
4	0x3fe3a65b	1.7785143
5	0x3ff577b7	1.9177159
6	0x40014cc7	2.020311
7	0x3f8db17f	1.1069793
8	0x401abd67	2.4178102
9	0x3f8f46f1	1.1193525
10	0x3febc6f6	1.8420093
11	0x400787e7	2.1176698
12	0x3f4377b9	0.7635456
13	0x3fab6bbd	1.3392254
14	0x3f04a24d	0.5181015
15	0x3fa4b1a7	1.2866715
16	0x3fb9d446	1.4517906
17	0x3f37cd5b	0.7179772
18	0x3f708f4a	0.9396864
19	0x3f027c7c	0.509712
20	0x400531f0	2.081173
21	0x3f77eb60	0.9684353
22	0x3f905141	1.1274797
23	0x3f77d32b	0.9680659
24	0x3fa6efd5	1.3041941
25	0x3f499265	0.78739005
26	0x3fa6413c	1.2988658
27	0x3ff2acd9	1.8958999
28	0x3f94121a	1.1568024
29	0x3f9600bf	1.1718978
30	0x3f60a302	0.8774873
31	0x4018e811	2.3891642

classifier.4.weight f4 [64, 32]
0	0x3d986458	0.07441014
1	0xbdfe3c12	-0.12413801
2	0x3e0d640e	0.13807699
3	0x3bcfb0b3	0.006338203
4	0x3da2e7d0	0.07954371
5	0xbe2a3639	-0.16622247
6	0xbcb35a76	-0.021893721
7	0x3cb62ce7	0.022238208
8	0xbd06c71a	-0.03290472
9	0xbdaea7c4	-0.085280925
10	0xbdf57856	-0.11985843
11	0xbe872f16	-0.2640311
12	0xbc9ec152	-0.019379292
13	0x3db18eff	0.086698525
14	0xbdc8da4e	-0.09807263
15	0x3d8408e9	0.06447012
16	0x3dd76387	0.1051703
17	0x3da96942	0.082720295
18	0x3cba906d	0.022773946
19	0xbdb63eda	-0.08898707
20	0xbd2da406	-0.042392753
21	0x3e0423f3	0.12904339
22	0xbdd0f360	-0.1020267
23	0x3da2b86e	0.079453334
24	0xbde825b5	-0.11335317
25	0x3df51e89	0.11968715
26	0x3d7f4272	0.062319227
27	0xbe9fd633	-0.3121811
28	0x3d32b749	0.043631826
29	0xbd93c4cf	-0.07215273
30	0x3dcfd40f	0.10147869
31	0xbdbdb73e	-0.09263466
32	0x3dab0321	0.08350206
33	0xbdb9609b	-0.09051629
34	0x3e1cc305	0.15308769
35	0x3e25a169	0.16174854
36	0x3d58c574	0.05292268
37	0xbe0259ab	-0.12729518
38	0xbe5be28a	-0.21473137
39	0xbc6100c4	-0.013733093
40	0xbc3c23fc	-0.011483189
41	0xbd290741	-0.041266683
42	0x3ddda6f7	0.10822862
43	0x3d39709e	0.045273416
44	0x3d2c4a15	0.042062838
45	0xbac25112	-0.0014825186
46	0x3d01673e	0.0315926
47	0xb9d7a7f3	-0.00041133128
48	0x3ac8b54e	0.0015312822
49	0x3d8e8991	0.069598325
50	0xbd549b33	-0.051905822
51	0x3d0270d5	0.031845886
52	0xbd7a4d0a	-0.061108626
53	0x3e114875	0.14187796
54	0x3dff5b94	0.12468639
55	0xbd8f1b08	-0.06987578
56	0xbdc67cd0	-0.09691775
57	0x3e02df4d	0.12780495
58	0xbd1720ae	-0.0368964
59	0xbe12e060	-0.14343405
60	0xbdba1f9b	-0.090880595
61	0x3e2d1e87	0.16906177
62	0xbd8dea08	-0.069294035
63	0x3e1d0e90	0.15337586
64	0x3c3e516b	0.011616091
65	0x3e0f2cfc	0.13982004
66	0x3c2ab536	0.010419181
67	0xbe0191cf	-0.12653278
68	0x3e4bf1fb	0.19916527
69	0xbe03ebbf	-0.12882899
70	0xbd8d0c29	-0.06887085
71	0x3dfd8410	0.123787045
72	0x3e0e3e73	0.1389101
73	0xbe126dc7	-0.14299689
74	0xbdea108d	-0.11428938
75	0xbcbaff8b	-0.02282693
76	0xbd391cfd	-0.04519366
77	0xbdae37f2	-0.085067645
78	0xbc6f5207	-0.014606959
79	0x3dcd2236	0.10016291
80	0xbe47b85b	-0.1950392
81	0xbdc92618	-0.09821719
82	0xbd76a16f	-0.06021255
83	0xbe5e5f5b	-0.21716063
84	0xbdbea691	-0.09309114
85	0x3e19f929	0.15036453
86	0xbe1168c1	-0.14200117
87	0x3d4b50b3	0.049637508
88	0xbddfdc14	-0.109306484
89	0x3d810eeb	0.063016735
90	0xbd1c21a3	-0.038118016
91	0xbe255134	-0.16144258
92	0x3e124229	0.1428305
93	0x3db5137d	0.08841608
94	0xbe10f46f	-0.14155744
95	0x3dc04d43	0.093897365
96	0xbcd680e0	-0.0261845
97	0x3c1a33d9	0.0094117755
98	0xbe2f1ae2	-0.17100099
99	0xbd42dc5f	-0.047573444
100	0x3e2ab848	0.1667186
101	0x3dcde4e9	0.10053427
102	0x3c9a7d4f	0.01885858
103	0xbdaac9c8	-0.08339268
104	0xbe5153f5	-0.20442183
105	0xbe62c9d2	-0.22147301
106	0x3d291d80	0.0412879
107	0xbe07f9bd	-0.13278861
108	0x3d9d97fd	0.07695005
109	0xbbffd804	-0.0078077335
110	0x3d4af027	0.049545433
111	0xbe182be9	-0.148605
112	0x3df827e9	0.12116987
113	0x3e29df9f	0.16589211
114	0xbe001536	-0.12508091
115	0x3e07a4ae	0.13246414
116	0x3d3a4d07	0.045483615
117	0x3e41ebda	0.18937626
118	0x3c185641	0.009297908
119	0xbe18c94e	-0.14920542
120	0xbe1e34c3	-0.15449814
121	0xbd95d297	-0.073155575
122	0xbe5e2444	-0.21693522
123	0x3d7e6ce9	0.062115584
124	0xbe38174a	-0.17977634
125	0x3d9d4401	0.07678986
126	0xbd32ac37	-0.043621268
127	0xbe2c1800	-0.1680603
128	0x3e14719d	0.14496465
129	0xbda84d1d	-0.08217833
130	0x3d734f51	0.059401814
131	0xbe380296	-0.17969736
132	0xbe0cede0	-0.13762617
133	0xbdb65c24	-0.08904293
134	0x3cae09f4	0.02124498
135	0x3dad600c	0.08465585
136	0xbe083706	-0.1330224
137	0xbbddfd3d	-0.006774573
138	0xbd663edd	-0.056212295
139	0xbd17d273	-0.037065934
140	0x3ddc8af5	0.107686915
141	0x3de21ee3	0.110410474
142	0x3ba77bd0	0.005111195
143	0xbdae3817	-0.08506792
144	0x3e2c5d96	0.16832575
145	0x3d99c0e4	0.07507494
146	0x3ce6eaf5	0.028188208
147	0x3e0ff0e0	0.1405673
148	0xbda28bf2	-0.07936849
149	0xbe121e54	-0.14269382
150	0x3cf76730	0.03020057
151	0x3e071d1b	0.13194697
152	0x3dc29da2	0.09502722
153	0x3dbba284	0.09161857
154	0xbdbf424a	-0.093388155
155	0x3cb77c1c	0.022398047
156	0x3ca0bedb	0.019622257
157	0xbcfd8c40	-0.030950665
158	0x3dcd4d84	0.100245506
159	0x3d36b9ce	0.04461079
160	0x3dd7b3fc	0.10532376
161	0xbe43e258	-0.19129312
162	0xbd2acfb8	-0.041702002
163	0x3ddf75d4	0.10911146
164	0x3e1397a5	0.14413317
165	0xbd9e4522	-0.0772803
166	0x3cadb99a	0.021206666
167	0xbe098e89	-0.13433279
168	0xbd8f3436	-0.0699238
169	0x3c527b72	0.0128468145
170	0xbdbda117	-0.09259241
171	0xbd3a0e2b	-0.045423668
172	0x3db9e661	0.090771444
173	0x3cd4ef94	0.025993146
174	0x3da40471	0.0800866
175	0xbda0fcf9	-0.07860751
176	0x3e30d595	0.17268975
177	0x3e2a86ac	0.16652936
178	0xbc8afe7f	-0.016967056
179	0x3db7b003	0.089691184
180	0xbe0aaef1	-0.13543297
181	0x3c372605	0.011178498
182	0x3e19ce2f	0.15020059
183	0xbd5224d1	-0.051304642
184	0xbdf8cf61	-0.121489294
185	0x3d984808	0.07435614
186	0x3c92df61	0.017928781
187	0xbd2ad357	-0.041705456
188	0xbd9832e4	-0.074315816
189	0xbd96697c	-0.07344338
190	0xbde52f40	-0.11190653
191	0xbcad6c43	-0.021169787
192	0xbd6f4520	-0.058415532
193	0xbb12cf49	-0.0022401384
194	0xbd0918a7	-0.033470776
195	0x3da60de6	0.0810812
196	0x3d1e7931	0.038689796
197	0xbe29dc2c	-0.16587895
198	0xbd7d231e	-0.06180107
199	0xbe054473	-0.13014393
200	0xbc2709dc	-0.010195222
201	0xbd332fa8	-0.04374662
202	0xbd32034d	-0.04346018
203	0x3c194755	0.009355386
204	0xbb210f87	-0.0024575905
205	0xbe43ee42	-0.19133857
206	0xbdff1830	-0.12455785
207	0x3d9cdacb	0.07658919
208	0xbddbe51a	-0.10737057
209	0xbd41e7ae	-0.047340088
210	0xbdb9c0cb	-0.090699755
211	0x3d2ee972	0.0427031
212	0x3d01ecf0	0.0317201
213	0x3bbb4862	0.005715416
214	0x3d6f1344	0.058367983
215	0x3dfadc6f	0.122490756
216	0xbde05198	-0.10953063
217	0xbe081a29	-0.1329123
218	0xbd360474	-0.04443784
219	0x3d7472a5	0.059679646
220	0xbde54bfd	-0.11196134
221	0xbe06d699	-0.131678
222	0x3ddb6bdd	0.10713933
223	0x3d47b4aa	0.04875628
224	0xbd32fc4c	-0.04369764
225	0xbcb07cae	-0.021543827
226	0x3c4064c3	0.0117427735
227	0xbc2b4f4c	-0.010455918
228	0x3df02e71	0.11727608
229	0x3e2c1094	0.16803199
230	0xbcd881e7	-0.02642913
231	0x3db19eaa	0.08672841
232	0xbe2b6818	-0.16738927
233	0xbd52082d	-0.05127733
234	0xbd71cceb	-0.059033316
235	0x3e111af3	0.14170437
236	0x3dce4a82	0.10072805
237	0xba393fc4	-0.0007066692
238	0x3c3a7039	0.011379295
239	0xbdf2d79b	-0.1185753
240	0x3e14c802	0.14529422
241	0x3dc0e051	0.09417785
242	0x3aa75546	0.0012766502
243	0xbe01c15b	-0.12671416
244	0x3e1986e1	0.14992858
245	0xbb9aaeae	-0.0047205305
246	0xbcc5332c	-0.024072252
247	0x3b853457	0.0040650773
248	0x3d58a6d1	0.052893464
249	0xbdc0acfa	-0.09407993
250	0x3da86434	0.08222237
251	0x3e075505	0.13216026
252	0x3e3a1227	0.18170987
253	0xbdc37ca0	-0.09545255
254	0x3c4d3277	0.012524239
255	0xbda83e7d	-0.08215044

classifier.4.bias f4 [64]
0	0xbca34360	-0.019929588
1	0xbe18d2ed	-0.14924212
2	0xbd41cc06	-0.047313713
3	0xbe0dd894	-0.13852149
4	0xbd30ae15	-0.043134768
5	0xbdcb26c8	-0.09919506
6	0x3d911e39	0.07085843
7	0x3d84536d	0.06461225
8	0x3d042b98	0.032268137
9	0xbd0572c1	-0.03258014
10	0xbe0e0122	-0.1386762
11	0x3dd17371	0.10227097
12	0x3e2c9f4c	0.16857642
13	0x3db74cfe	0.08950232
14	0xbda1ccd4	-0.07900396
15	0xbe22186a	-0.15829626
16	0xbe2acc70	-0.16679549
17	0x3d3753af	0.04475754
18	0x3e0afd63	0.13573222
19	0x3dba84ca	0.09107359
20	0xbddcdf2a	-0.10784753
21	0xbdea8088	-0.11450297
22	0x3e25b450	0.16182065
23	0xbc92354d	-0.017847681
24	0x3e17e086	0.14831743
25	0x3b973c18	0.004615318
26	0x3e24810c	0.16064852
27	0x3d63e900	0.055642128
28	0xbd41c4f1	-0.04730696
29	0x3c0067b9	0.007837229
30	0xba94b355	-0.0011344949
31	0x3e12a913	0.14322309
32	0x3e2211a8	0.15827048
33	0x3c0052d8	0.0078322515
34	0xbe21ccf6	-0.15800843
35	0xbe201f59	-0.15636958
36	0x3d9f5f94	0.07781902
37	0x3d6901d8	0.056886524
38	0x3d0fb9dd	0.035089362
39	0x3ddbc141	0.1073022
40	0x3dfffda9	0.12499554
41	0xbe0ea200	-0.13928986
42	0x3e309342	0.17243674
43	0xbc9434b3	-0.018091535
44	0x3e1dce64	0.15410763
45	0xbe141c1e	-0.14463851
46	0xbd2dcad1	-0.04242975
47	0x3e30a8af	0.17251848
48	0x3e01df7a	0.12682906
49	0xbd6f3c0a	-0.058406867
50	0xbe24a00a	-0.16076675
51	0xbde22156	-0.110415146
52	0x3e0771f6	0.13227066
53	0xbd99bd93	-0.075068615
54	0x3e15d719	0.14632834
55	0x3d4bf99c	0.049798593
56	0x3d6b6ecc	0.05747871
57	0x3bd0bd69	0.0063702357
58	0x3ccaa1e1	0.024735393
59	0x3de099ca	0.10966833
60	0xbe0923f4	-0.13392621
61	0x3c46027f	0.012085556
62	0xbc8bc6a3	-0.01706249
63	0xbe2839c9	-0.16428293

classifier.5.weight f4 [64]
0	0x3f830a17	1.0237454
1	0x3f7c2468	0.9849305
2	0x3f7ac85e	0.97961986
3	0x3f7e33e0	0.99297905
4	0x3f837ab4	1.0271821
5	0x3f74e004	0.9565432
6	0x3f81167a	1.0084984
7	0x3f7c8e44	0.9865458
8	0x3f77727a	0.9665905
9	0x3f8082a4	1.0039868
10	0x3f75722b	0.9587733
11	0x3f8319b2	1.0242217
12	0x3f86b134	1.0522828
13	0x3f7237a7	0.9461617
14	0x3f7b7291	0.9822169
15	0x3f7f4d2a	0.9972712
16	0x3f73ace7	0.95185703
17	0x3f80cc7d	1.0062405
18	0x3f780a4f	0.9689073
19	0x3f83dcde	1.0301778
20	0x3f814cc3	1.0101551
21	0x3f818d00	1.0121155
22	0x3f82021e	1.0156896
23	0x3f841731	1.0319577
24	0x3f738f7f	0.9514083
25	0x3f80dc34	1.0067201
26	0x3f7737b2	0.9656936
27	0x3f794114	0.97364926
28	0x3f81eaac	1.0149741
29	0x3f8039ed	1.0017678
30	0x3f788791	0.9708186
31	0x3f81caed	1.0140053
32	0x3f79a9d9	0.9752479
33	0x3f80f5a5	1.0074965
34	0x3f830f81	1.0239106
35	0x3f859315	1.0435511
36	0x3f88d468	1.0689821
37	0x3f878f18	1.0590544
38	0x3f7e86e6	0.9942459
39	0x3f7abbd3	0.97942847
40	0x3f8d5155	1.1040446
41	0x3f6dd0d2	0.9289676
42	0x3f77d0d5	0.9680303
43	0x3f6faf65	0.93627006
44	0x3f81d8df	1.0144309
45	0x3f808d05	1.0043036
46	0x3f76886f	0.9630193
47	0x3f7da5e9	0.99081284
48	0x3f82784c	1.0192962
49	0x3f7be016	0.98388803
50	0x3f83a5e6	1.0285003
51	0x3f8a25d8	1.0792799
52	0x3f6fbb43	0.93645114
53	0x3f745f76	0.9545816
54	0x3f79b31d	0.9753893
55	0x3f7dc771	0.9913245
56	0x3f87cbdc	1.0609088
57	0x3f824649	1.0177699
58	0x3f778107	0.96681255
59	0x3f834462	1.0255244
60	0x3f80c692	1.0060599
61	0x3f779673	0.9671394
62	0x3f753ac7	0.9579281
63	0x3f6a2626	0.9146446

classifier.5.bias f4 [64]
0	0xbe203dba	-0.15648547
1	0xbddf84d6	-0.10914008
2	0xbd455670	-0.048178136
3	0xbdb7d7d7	-0.08976715
4	0xbce71c97	-0.028211875
5	0x3d273510	0.04082209
6	0x3b90ee2c	0.0044229236
7	0xbd960c06	-0.07326512
8	0x3c7fe6f7	0.015619031
9	0x3dfc4a52	0.12318863
10	0x3cfe4d5b	0.031042745
11	0xbd348e6f	-0.044081148
12	0x3c9f3055	0.019432226
13	0xbb4b8689	-0.003105553
14	0xbdb31a1f	-0.087452166
15	0x3d0d2afe	0.03446483
16	0xbd6cc189	-0.057801757
17	0xbd316068	-0.04330483
18	0xbd93190a	-0.0718251
19	0xbd2d9517	-0.04237851
20	0x3d8382be	0.064214215
21	0xbd1a1bfe	-0.03762435
22	0x3d938276	0.07202618
23	0x3d0d3411	0.034473483
24	0x3cfd52d4	0.030923285
25	0x3c2f19f7	0.010687343
26	0xbd9be49e	-0.07611965
27	0xbe28ec2a	-0.1649634
28	0xbe0d6d78	-0.1381129
29	0x3c642206	0.013924127
30	0xbc6a74ec	-0.014310103
31	0xbe074542	-0.13210014
32	0x3c822627	0.015887333
33	0xbd4ecfdd	-0.050491203
34	0xbcd17993	-0.025570666
35	0xbdbb62c6	-0.09149699
36	0x3c95ab4e	0.018270161
37	0x3ce4014e	0.027832653
38	0xbd96a8ee	-0.073564395
39	0xbdd344a4	-0.103158265
40	0xbde66bc7	-0.11251026
41	0x3d142687	0.036169555
42	0xbdd26fa5	-0.10275201
43	0x3c9488d5	0.018131653
44	0xbd862814	-0.06550613
45	0x3bae3102	0.005315901
46	0xbc9bd906	-0.019024383
47	0xbd1ab86f	-0.037773546
48	0x3b0d0b6c	0.00215217
49	0xbd10b6d7	-0.03533062
50	0xbd2562f4	-0.040377572
51	0xbdeaf56f	-0.11472594
52	0xbbd6de5b	-0.0065572686
53	0xbd7ce18b	-0.061738532
54	0xbd0c24db	-0.034214836
55	0xbc1928cf	-0.009348108
56	0x3d4ce45f	0.05002248
57	0xbe0d9f83	-0.1383038
58	0xbcf7c121	-0.030243458
59	0x3d49f9b6	0.04931041
60	0x3d0e1577	0.03468844
61	0x3c5264f1	0.012841449
62	0xbc99a7b7	-0.01875673
63	0xbd97145b	-0.073769294

classifier.5.running_mean f4 [64]
0	0xbe813d0b	-0.25241885
1	0xbd73c56b	-0.059514444
2	0xbeb0b3e4	-0.34512246
3	0xbefbccf1	-0.49179795
4	0x3d871a75	0.06596843
5	0xbe2749b3	-0.16336708
6	0xbe8426b2	-0.25810772
7	0x3e942b83	0.28939447
8	0xbec29b74	-0.38009226
9	0xbed06b33	-0.40706787
10	0xbe1dd67f	-0.15413855
11	0xbbe62aa0	-0.0070241243
12	0xbe197ba3	-0.1498857
13	0x3dcc8f2d	0.09988246
14	0xbe657b6e	-0.22410366
15	0xbe8181a3	-0.25294217
16	0xbc8034da	-0.015650202
17	0xbdcd5dcd	-0.10027657
18	0x3e85a2ff	0.2610092
19	0x3c6a0e78	0.014285676
20	0xbe782560	-0.24233007
21	0xbe748c55	-0.23881657
22	0x3e6b318d	0.22968121
23	0xbd6e93b7	-0.05824634
24	0xbe57644c	-0.21034354
25	0xbe1db0dc	-0.15399498
26	0xbe1d89e7	-0.15384637
27	0x3a525e21	0.00080248906
28	0xbec4df3c	-0.38451564
29	0xbebe17d2	-0.37127548
30	0xbe6689f6	-0.22513565
31	0x3edcbf39	0.4311464
32	0xbe8c88e8	-0.274482
33	0x3e936717	0.2878959
34	0xbeb5ee5d	-0.3553342
35	0xbe718a28	-0.23587859
36	0x3eb4b4e5	0.35294262
37	0xbf0c65d2	-0.54842865
38	0x3d7a2886	0.061073802
39	0x3e66c499	0.22535934
40	0xbe9fdc52	-0.3122278
41	0xbe1fc57d	-0.1560268
42	0x3e8c945a	0.27456933
43	0x3d3025a0	0.043004632
44	0xbdb80e01	-0.08987046
45	0xbe9bfa12	-0.30464226
46	0xbe6ac3e7	-0.22926293
47	0xbd93ad55	-0.07210795
48	0x3d7b46d0	0.06134683
49	0x3b7c2a69	0.0038477427
50	0xbe28594a	-0.16440311
51	0xbeac5d0b	-0.33664736
52	0xbe31b8ef	-0.17355703
53	0x3e427d69	0.18993153
54	0x3ddcf5ed	0.10789094
55	0xbe2fb5b2	-0.17159155
56	0xbe8ebb33	-0.27877197
57	0xbe199785	-0.14999206
58	0x3dff7586	0.12473588
59	0xbd5067c1	-0.050880197
60	0xbe2e4156	-0.17017111
61	0xbe53da2c	-0.20688695
62	0xbe1c122a	-0.15241304
63	0x3dc78943	0.097429775

classifier.5.running_var f4 [64]
0	0x3d5f7c3d	0.054561842
1	0x3de6940b	0.11258706
2	0x3dd41026	0.103546426
3	0x3e067cd2	0.13133553
4	0x3d282b9a	0.041057207
5	0x3dc695b0	0.096965194
6	0x3dbee22c	0.093204826
7	0x3d81565e	0.06315301
8	0x3e83ecd6	0.2576663
9	0x3e7dcc5b	0.24784987
10	0x3e09973a	0.13436595
11	0x3dc56e8d	0.096402265
12	0x3e24ce5e	0.16094348
13	0x3e7a7a62	0.24460748
14	0x3d6cf81b	0.0578538
15	0x3dfec7fe	0.12440489
16	0x3e41383c	0.18869108
17	0x3d871328	0.06595451
18	0x3e4f11ed	0.20221682
19	0x3de5e8df	0.11226057
20	0x3d87091b	0.065935336
21	0x3dba587d	0.09098909
22	0x3e8cc12e	0.27491134
23	0x3de35033	0.11099281
24	0x3d91cf61	0.071196325
25	0x3e11a2a8	0.14222205
26	0x3d8b9514	0.06815544
27	0x3de87776	0.1135091
28	0x3e25fe0c	0.16210192
29	0x3e50c9f7	0.20389543
30	0x3dfec984	0.1244078
31	0x3e5cb13f	0.21551989
32	0x3dc3c78a	0.095595434
33	0x3e94538e	0.28969997
34	0x3dd815ec	0.10551056
35	0x3dfc5e12	0.1232263
36	0x3e0b1b14	0.13584548
37	0x3e5ab336	0.21357426
38	0x3e4e427d	0.20142551
39	0x3dc8a96f	0.09797942
40	0x3dfee664	0.12446287
41	0x3e231e63	0.1592956
42	0x3e0254b8	0.1272763
43	0x3e62e4c8	0.22157586
44	0x3dcdcb86	0.10048585
45	0x3d7745b2	0.0603692
46	0x3de25bc8	0.11052662
47	0x3dd61584	0.104533225
48	0x3e18350a	0.14863983
49	0x3e0032fa	0.12519446
50	0x3e0fafc5	0.14031895
51	0x3d4dd237	0.050249305
52	0x3ddfe017	0.109314136
53	0x3de6fdd4	0.112788826
54	0x3e49bdff	0.19701384
55	0x3e980ed7	0.29698822
56	0x3e92c9d6	0.28669614
57	0x3d82f35c	0.06394073
58	0x3e3d3693	0.1847785
59	0x3e571a66	0.21006164
60	0x3da92512	0.08259024
61	0x3e45ea42	0.19327644
62	0x3dbe4b88	0.0929175
63	0x3e270629	0.16310944

classifier.7.weight f4 [16, 64]
0	0x3a1fe066	0.00060988066
1	0xbe03f923	-0.12888007
2	0xbdad31d2	-0.08456768
3	0xbc85be29	-0.016326027
4	0xbe15836b	-0.14600913
5	0x3bdf1136	0.0068074716
6	0xbe174b8f	-0.14774917
7	0x3d8855bc	0.066569775
8	0x3df26079	0.11834807
9	0xbd97f1d6	-0.074191734
10	0x3d9554c0	0.072915554
11	0xbd029254	-0.03187783
12	0x3e2561e7	0.16150628
13	0x3d87d7ff	0.06632995
14	0xbcd9be81	-0.026580097
15	0xbd8dee8d	-0.069302656
16	0x3dade0b7	0.084901266
17	0xb8e68019	-0.00010991115
18	0xbd9ec496	-0.077523395
19	0xbe0742b0	-0.13209033
20	0xbd11684c	-0.035499856
21	0xbdff6c32	-0.124718085
22	0xbe46caef	-0.1941335
23	0x3c0e011b	0.008667256
24	0xbda19d46	-0.07891326
25	0xbd62c8db	-0.055367332
26	0x3d96d473	0.0736474
27	0x3ca57f98	0.020202443
28	0xbda164dc	-0.078805655
29	0xbd11e86e	-0.035622053
30	0x3dc12747	0.0943132
31	0x3da03b83	0.07823851
32	0x3b1d7cef	0.0024030765
33	0xbd199e7a	-0.03750465
34	0x3df9dca0	0.12200284
35	0x3c909321	0.017648282
36	0x3dbe7687	0.09299951
37	0xbdc2c8f0	-0.09510982
38	0x3d2c4b73	0.04206414
39	0x3dff9e85	0.12481407
40	0x3d566ffc	0.05235289
41	0xbd6d0d6d	-0.057874132
42	0xbd8c97d0	-0.068648934
43	0x3d74c91e	0.059762113
44	0xbe0cd876	-0.13754448
45	0x3d817493	0.06321063
46	0x3cc97d2f	0.024595825
47	0x3d726fcd	0.059188653
48	0xbd5cfe6f	-0.053953584
49	0xbd501f0d	-0.050810862
50	0x3a2a3051	0.0006492185
51	0xbbad78c2	-0.0052939365
52	0xbde76d09	-0.11300094
53	0x3da50886	0.08058266
54	0xbd8656c6	-0.065595195
55	0x3d40400e	0.046936087
56	0x3e023009	0.12713636
57	0x3d11de53	0.035612416
58	0x3d4fb939	0.05071375
59	0xbdb59d2c	-0.08867869
60	0xbc55f9ce	-0.013060046
61	0xbbfb51a5	-0.007669645
62	0xbdb7f580	-0.08982372
63	0xbdb38757	-0.087660484
64	0x3d4b4b2c	0.049632236
65	0xbdb1a3cb	-0.08673819
66	0xbc8b964e	-0.017039444
67	0xbcaabb63	-0.020841306
68	0x3d97f544	0.074198276
69	0xbdc5a309	-0.09650237
70	0x3cec8cf5	0.028875807
71	0x3c3069bd	0.0107673975
72	0xbcba6d20	-0.022757113
73	0xbaecb59c	-0.0018059495
74	0x3d549220	0.05189717
75	0xbcb61699	-0.022227572
76	0xbe2f1893	-0.17099218
77	0xbdec6ecc	-0.1154457
78	0xbc5134da	-0.012768948
79	0x3d2b44a1	0.041813497
80	0xbdb5b6d9	-0.08872766
81	0x3db78fc7	0.0896297
82	0xbde9977f	-0.11405849
83	0x3d974de7	0.073879056
84	0xbdd6843c	-0.104744405
85	0xbd308771	-0.043097917
86	0x3dd027f3	0.1016387
87	0x3c5d989f	0.013525157
88	0x3d6fbb09	0.05852798
89	0xbde2f6c1	-0.11082221
90	0xbce12934	-0.027485467
91	0x3d86a006	0.06573491
92	0x3d107193	0.035264563
93	0xbdb38ffd	-0.08767698
94	0xbde5b5f7	-0.11216348
95	0x3cadfa5d	0.021237547
96	0x3c9647fc	0.018344872
97	0xbd8d394c	-0.06895694
98	0x3c8cef6e	0.017204013
99	0xbe590f14	-0.21197158
100	0xbdb01742	-0.08598186
101	0xbdb34649	-0.0875364
102	0x3939263e	0.00017657221
103	0xbc319b2d	-0.010840219
104	0xbd624478	-0.05524108
105	0xbc29d014	-0.010364551
106	0x3c1ba690	0.009500161
107	0x39a320bb	0.0003111417
108	0x3cf31a08	0.029675499
109	0xbd566b0d	-0.052348185
110	0xbd062bb0	-0.032756507
111	0xbe00d693	-0.12581854
112	0x3ca32178	0.01991342
113	0x3ce32f0d	0.027732396
114	0x3daf9eb3	0.08575191
115	0x3db95653	0.09049668
116	0x3dcc2962	0.09968831
117	0x3d487230	0.048937023
118	0xbdddee3d	-0.10836456
119	0xbe0d9dce	-0.13829729
120	0x3d2904a7	0.041264202
121	0xbd33b7ba	-0.043876387
122	0x3ca29c9d	0.01985007
123	0x3e07ba9b	0.13254778
124	0xbc9422db	-0.018083027
125	0x3cf6804f	0.03009048
126	0xbdc869b2	-0.09785785
127	0xbda9a958	-0.08284253
128	0x3d926f89	0.0715018
129	0x3dc83f09	0.09777648
130	0xbd4bcd7c	-0.049756512
131	0x3e0a258d	0.13490887
132	0x3daf158a	0.0854903
133	0x3db39f72	0.08770646
134	0xbb7b47a0	-0.0038342252
135	0xbe1f0641	-0.1552973
136	0xbdcceae4	-0.10005739
137	0xbe1f4052	-0.1555188
138	0xbd19d730	-0.037558734
139	0xbce3b151	-0.027794512
140	0xbcd33273	-0.025780892
141	0xbd583548	-0.052785188
142	0x3d79f9f0	0.061029375
143	0xbd59df58	-0.053191513
144	0x3d72857f	0.059209343
145	0xba0997d9	-0.00052487623
146	0xbb46b212	-0.003031854
147	0xbd878cd1	-0.066186555
148	0xbca4629e	-0.020066556
149	0xbdbbf86e	-0.091782436
150	0x3dae7619	0.08518619
151	0x3c3be86e	0.01146899
152	0xbe23a1a7	-0.15979634
153	0x3d70b979	0.05877063
154	0xbc392e7c	-0.011302587
155	0xbce94804	-0.028476723
156	0xbd25eed8	-0.040510982
157	0x3cf0af67	0.029380513
158	0xbda9f66d	-0.08298955
159	0x3e024fb7	0.12725721
160	0x3d4f65bb	0.050634127
161	0x3dc38bb1	0.095481284
162	0xbccf4e80	-0.025305986
163	0xbd783ee5	-0.060606856
164	0xbc522ec8	-0.012828536
165	0x3e01434b	0.12623326
166	0xbe0eadd1	-0.13933493
167	0x3d63b983	0.05559684
168	0xbb5c48dd	-0.0033612766
169	0xbe0dd2a7	-0.13849889
170	0x3ca13bc0	0.019681811
171	0x3d83e762	0.06440617
172	0xbd9f8ccb	-0.07790526
173	0x3c837590	0.01604727
174	0x3d7e99f2	0.062158532
175	0x3e022e18	0.12712896
176	0x3d5bb374	0.053637937
177	0xbd9c4259	-0.07629842
178	0x3d832ebe	0.064054
179	0x3d561bd4	0.052272633
180	0xbc0b3375	-0.008496155
181	0xbe49dbbd	-0.1971273
182	0xbd96121a	-0.07327671
183	0xbdd86bf5	-0.10567466
184	0xbe448482	-0.19191173
185	0xbc9803b8	-0.01855646
186	0x3b178c56	0.0023124418
187	0xbd886b03	-0.06661036
188	0x3d1ff56f	0.039052423
189	0x3d3a64c0	0.04550624
190	0x3bc11842	0.0058927843
191	0xbc0a8460	-0.008454412
192	0xbda5d0ae	-0.08096443
193	0xbe08297a	-0.13297072
194	0x3c884a34	0.016636945
195	0x3dd0b4dc	0.10190746
196	0x3c844048	0.016143933
197	0x3ddfceab	0.10928091
198	0xbd5076cd	-0.050894547
199	0x3b3d645c	0.002889893
200	0xbe022465	-0.12709196
201	0xbe0a0722	-0.13479283
202	0xbcc06bfc	-0.023488991
203	0x3d32ad17	0.043622103
204	0xbd3b2966	-0.045693778
205	0xbd9960dc	-0.074891776
206	0xbd2fb51f	-0.04289734
207	0xbdbda7d0	-0.09260523
208	0xbcaab5a8	-0.020838574
209	0xbcfb1dc1	-0.030653836
210	0xbd9621da	-0.073306754
211	0xbdb7896f	-0.0896176
212	0xbd551e71	-0.052030984
213	0xbdc3fd41	-0.09569789
214	0xbe205c12	-0.15660122
215	0xbd2698c9	-0.04067305
216	0xbda3374a	-0.0796953
217	0x3dae007f	0.08496188
218	0xbcc21c06	-0.023695003
219	0x3ce7f584	0.028315313
220	0x3d4d7012	0.050155707
221	0x3ce76021	0.02824408
222	0xbb7e19dc	-0.0038772738
223	0xbb50b766	-0.0031847595
224	0x3cee707b	0.02910637
225	0xbcb65a4f	-0.02225986
226	0xbd770b29	-0.060313378
227	0x3e22a946	0.15884885
228	0x3d816b3c	0.063192815
229	0xbd465b18	-0.048426718
230	0xbd8e5d90	-0.069514394
231	0xbd6304a9	-0.055424366
232	0x3d95954c	0.07303867
233	0x3b882445	0.0041547143
234	0xbd45d260	-0.048296332
235	0xbd3d9e0f	-0.046293315
236	0xbd9fa33b	-0.077948056
237	0xbda3aa8d	-0.07991514
238	0x3dce7b38	0.10082096
239	0x3ca5e966	0.020252895
240	0x3d6b9e2a	0.057523884
241	0xbe097877	-0.1342486
242	0xbd636ab3	-0.05552168
243	0xbc185090	-0.009296551
244	0xbdbf3788	-0.093367636
245	0x3cb076c5	0.021541009
246	0xbcaf7b32	-0.021421049
247	0xbda373d1	-0.079810746
248	0x3e3e5efa	0.18590918
249	0x3e560861	0.20901634
250	0x3b188258	0.002327105
251	0x3ddf0a3a	0.108906224
252	0x3dba9497	0.091103725
253	0xbd8c98fd	-0.06865118
254	0xbd6e9341	-0.0582459
255	0xbd941acf	-0.07231676

classifier.7.bias f4 [16]
0	0xbd181df9	-0.03713796
1	0xbe15111d	-0.1455731
2	0x3ddbf09e	0.107392535
3	0xbc90e3f2	-0.017686818
4	0x3d29350f	0.041310366
5	0x3e1d0c03	0.15336613
6	0xbd9c4492	-0.07630266
7	0x3d68a64b	0.056799214
8	0xbd739bab	-0.05947463
9	0xbe15bea2	-0.14623502
10	0xbc4e77d5	-0.012601812
11	0x3dfd0716	0.12354867
12	0xbe10dd06	-0.14146814
13	0x3d8f5688	0.069989264
14	0x3e094d44	0.13408381
15	0x3d1eecc2	0.03880001

classifier.8.weight f4 [16]
0	0x3faf437f	1.3692473
1	0x3fb30a2e	1.3987482
2	0x3fb14d7f	1.3851775
3	0x3fb6822c	1.4258475
4	0x3fb0ed0d	1.3822342
5	0x3fae3788	1.3610697
6	0x3fb3a74d	1.4035431
7	0x3fae8307	1.3633736
8	0x3fabf117	1.343295
9	0x3fb3c1e9	1.4043552
10	0x3fb43f55	1.4081827
11	0x3fad4945	1.3537985
12	0x3fbad5d2	1.4596503
13	0x3fb0c26d	1.3809334
14	0x3fac4b72	1.3460524
15	0x3fb38004	1.4023442

classifier.8.bias f4 [16]
0	0x3eadd664	0.3395263
1	0x3ec08ac9	0.37605885
2	0x3ebe2ea6	0.37144965
3	0x3ecfdc7e	0.4059791
4	0x3eb2a211	0.34889272
5	0x3eb09b15	0.34493318
6	0x3ec36fd7	0.38171265
7	0x3ead5fd5	0.33862177
8	0x3ea11937	0.3146455
9	0x3ec55ce6	0.38547438
10	0x3ea05c83	0.3132058
11	0x3e9c9cc5	0.30588356
12	0x3eeefcb8	0.46677184
13	0x3ec07bc6	0.37594432
14	0x3eaa0f11	0.3321462
15	0x3ec7fe48	0.3906119

classifier.8.running_mean f4 [16]
0	0xbe93f3fe	-0.2889709
1	0xbf1191eb	-0.5686328
2	0xbe186037	-0.14880453
3	0xbec743e2	-0.38918978
4	0xbe8b22f3	-0.27175102
5	0x3e81a430	0.25320578
6	0xbe219144	-0.1577807
7	0xbdbe6999	-0.09297485
8	0xbd9bb7e1	-0.076034315
9	0xbe3bdae1	-0.18345214
10	0xbe9b85c5	-0.30375496
11	0x3d6b35cd	0.057424355
12	0xbe9bd1dc	-0.30433547
13	0x3e1c7f89	0.15283026
14	0x3e68c05e	0.22729632
15	0x3bb4883a	0.0055094035

classifier.8.running_var f4 [16]
0	0x3e8c9135	0.27454534
1	0x3dccd61b	0.10001775
2	0x3e250f38	0.16119087
3	0x3de53418	0.11191577
4	0x3e0ee060	0.1395278
5	0x3e59dec5	0.21276386
6	0x3e252d3b	0.16130535
7	0x3e1d651a	0.15370598
8	0x3f00cb5b	0.50310296
9	0x3e029e70	0.12755752
10	0x3e326a06	0.17423257
11	0x3dd42f51	0.103605874
12	0x3e1956db	0.14974539
13	0x3e26c95c	0.1628775
14	0x3ea2c186	0.31788272
15	0x3de1d23c	0.11026427

classifier.10.weight f4 [10, 16]
0	0xbed642d3	-0.41847858
1	0x3ef2109a	0.4727829
2	0xbe36e8c7	-0.17862235
3	0xbeda78a9	-0.4267018
4	0x3f0f283b	0.5592076
5	0xbe931f18	-0.2873466
6	0xbcde4cd6	-0.027136248
7	0xbeb3f1d1	-0.3514543
8	0xbef4d674	-0.47819865
9	0xbeb693b2	-0.35659558
10	0xbe3c847b	-0.18409912
11	0xbe88f08a	-0.26746017
12	0x3ea5e8a6	0.3240406
13	0xbeb19013	-0.34680232
14	0xbb82c040	-0.003990203
15	0x3b815187	0.0039464864
16	0xbed9b946	-0.42524165
17	0xbefe5855	-0.49676767
18	0x3ef1e479	0.47244623
19	0xbed85ecf	-0.42259833
20	0xbe3dcd00	-0.18535233
21	0x3ef5d338	0.4801271
22	0x3ee5bb05	0.44869247
23	0xbf001fbf	-0.5004844
24	0xbeb2d883	-0.3493081
25	0xbe95bee3	-0.29247198
26	0xbe52b292	-0.20575932
27	0xbee92fe3	-0.45544347
28	0xbed92bb7	-0.42416164
29	0x3ed4b05a	0.41540796
30	0xbda5065c	-0.080578536
31	0xbf0c0a68	-0.5470338
32	0x3ec08ac3	0.37605867
33	0xbf003824	-0.50085664
34	0xbe951181	-0.29114917
35	0xbe95a9e7	-0.29231188
36	0xbedca869	-0.43097237
37	0xbe921892	-0.2853437
38	0xbe8f40e1	-0.27979186
39	0xbeec750b	-0.46183047
40	0xbe1f193b	-0.15536968
41	0x3f12f1bd	0.57400113
42	0xbe4b9697	-0.19881664
43	0xbef090d8	-0.46985507
44	0x3eed5817	0.4635627
45	0x3f02945c	0.5100763
46	0xbee27f70	-0.44237852
47	0x3e9e0be1	0.30868438
48	0xbeda11dd	-0.42591754
49	0xbea9bfb6	-0.33154076
50	0x3f08bc59	0.53412396
51	0xbe381234	-0.17975694
52	0xbe96d805	-0.29461685
53	0xbe726fa2	-0.23675397
54	0xbecbcefe	-0.3980636
55	0xbeba2864	-0.3635894
56	0x3a15a9a2	0.0005709176
57	0xbef17ef7	-0.4716718
58	0xbe4a4824	-0.19754082
59	0x3f0e4a4f	0.55582136
60	0x3ea79fe8	0.32739186
61	0xbefbfe77	-0.4921758
62	0xbef009d0	-0.46882486
63	0xbe0b3c7d	-0.13597293
64	0x3f14d8ac	0.58143115
65	0xbed0d458	-0.40787005
66	0xbe7714f2	-0.24129084
67	0x3ee331b7	0.44373867
68	0xbea13779	-0.31487635
69	0xbedcdb89	-0.43136242
70	0xbe344a5d	-0.17606492
71	0x3d8cedc1	0.068812855
72	0xbebf040d	-0.37307778
73	0xbe876186	-0.26441592
74	0xbe2631b0	-0.16229892
75	0xbeaca8e2	-0.33722597
76	0x3e968315	0.29396883
77	0xbeb76471	-0.35818818
78	0xbd9bd06f	-0.07608115
79	0xbed242a0	-0.41066456
80	0xbe02bfc4	-0.12768465
81	0xbeccdd94	-0.400128
82	0xbe8d9ea2	-0.2766009
83	0xbf0e83d3	-0.556699
84	0xbeb96b01	-0.3621445
85	0x3edf16e6	0.43572158
86	0xbec01c81	-0.37521747
87	0xbf0c7106	-0.5485996
88	0x3ecd57be	0.40106004
89	0x3ec1d937	0.37861034
90	0xbe149d7f	-0.14513205
91	0x3edc6591	0.4304624
92	0xbf0aaf8b	-0.5417411
93	0xbf1455d6	-0.57943475
94	0x3f01b13e	0.50661075
95	0x3ec8554a	0.3912757
96	0x3eabfb3f	0.33590123
97	0x3f147b5b	0.58000726
98	0x3cbec0eb	0.02328535
99	0x3e5522f7	0.2081412
100	0xbe38e962	-0.18057778
101	0xbef6c3dd	-0.48196307
102	0xbec32ee8	-0.38121724
103	0xbf0d4217	-0.5517897
104	0xbd614d0a	-0.05500511
105	0xbe06def3	-0.13170986
106	0xbe8a1cbe	-0.26975054
107	0xbeced2da	-0.40395242
108	0xbefa54f8	-0.4889295
109	0x3e7f6ee0	0.24944639
110	0xbe588be8	-0.2114712
111	0x3f135e8b	0.57566136
112	0x3ee19c56	0.44064587
113	0xbe773994	-0.24143058
114	0xbe9b9bda	-0.30392343
115	0xbef6e02a	-0.482179
116	0x3eb7421f	0.35792634
117	0x3e89d820	0.26922703
118	0x3ea510b6	0.32239312
119	0x3eb6930b	0.3565906
120	0x3ee0aab4	0.43880236
121	0xbf1028f8	-0.56312513
122	0xbf069230	-0.52566814
123	0xbccd7d6e	-0.025084224
124	0xbeffb451	-0.49942258
125	0xbeb8a8e5	-0.36066356
126	0x3eb51397	0.35366508
127	0xbf0366e7	-0.5132889
128	0xbedb0b94	-0.4278227
129	0x3e348158	0.17627466
130	0xbe9b3fdd	-0.3032216
131	0xbe953bdb	-0.2914723
132	0xbecfdfa2	-0.40600306
133	0xbe01f8d1	-0.12692572
134	0x3f0e209f	0.55518526
135	0x3eec2536	0.4612214
136	0xbef41cea	-0.4767831
137	0x3ee8bbf4	0.45455897
138	0x3f092854	0.5357716
139	0xbed3164c	-0.4122795
140	0xbe8daf8f	-0.27673003
141	0xbf015d65	-0.50533134
142	0xbe757805	-0.23971565
143	0xbecff34f	-0.40615317
144	0xbe8cf500	-0.2753067
145	0xbeadfe24	-0.33982956
146	0xbf09e6aa	-0.5386759
147	0xbe737f66	-0.23779067
148	0xbef16c82	-0.47153097
149	0xbef0fd3f	-0.4706821
150	0xbeba6c0f	-0.36410567
151	0x3e7967df	0.2435603
152	0x3f0145c1	0.5049706
153	0xbed67c80	-0.4189186
154	0x3ef4e1a9	0.47828415
155	0x3d81dd86	0.0634108
156	0xbeac1f94	-0.33617842
157	0x3ecc028f	0.39845702
158	0x3eebe551	0.46073392
159	0xbe5a339b	-0.21308748

classifier.10.bias f4 [10]
0	0x3def7ff9	0.11694331
1	0x3da567a7	0.08076411
2	0x3d02a3bc	0.03189443
3	0x3edce10f	0.43140456
4	0x3ebbe3fd	0.3669738
5	0xbe908a5b	-0.28230557
6	0x3c7e0d7a	0.015506143
7	0xbe926c51	-0.28598264
8	0xbdf0cec0	-0.117581844
9	0xbd639bf2	-0.055568643

exp_avg f4 [32, 784]
0	0xb4c70f4c	-3.7077768e-07
1	0xb5d88c25	-1.6134042e-06
2	0xb6a5861a	-4.9329947e-06
3	0xb896c5f4	-7.189429e-05
4	0xb91b7b4e	-0.00014827886
5	0xb9136338	-0.00014055974
6	0x37c55ad1	2.352652e-05
7	0xb93de014	-0.0001810792
8	0xb987208b	-0.00025773453
9	0xb84724f3	-4.747971e-05
10	0x3a96a0c0	0.0011491999
11	0x3ab1e44f	0.001357207
12	0xbaa2dab8	-0.0012424802
13	0xbaec6996	-0.0018036838
14	0xbad4d89b	-0.001623887
15	0xbada80f1	-0.0016670508
16	0xba10b968	-0.0005520792
17	0x3ac38e84	0.0014919792
18	0x38a4bbfd	7.855145e-05
19	0xb8bda5b1	-9.043085e-05
20	0xb90a671a	-0.00013199114
21	0xb90644d6	-0.00012804879
22	0xb8cb2ef4	-9.68854e-05
23	0xb8d0c6c2	-9.9552344e-05
24	0xb83e5c0d	-4.538526e-05
25	0xb751bde4	-1.2501583e-05
26	0xb5fa9dc6	-1.867237e-06
27	0xb45daa0f	-2.0644096e-07
28	0x363e4480	2.8352079e-06
29	0x358ffc03	1.0727675e-06
30	0xb7b30f70	-2.1345651e-05
31	0xb8fc4bd3	-0.0001203042
32	0xb94990ea	-0.00019222838
33	0xb9b5e8c7	-0.00034696443
34	0x38beaf0b	9.09251e-05
35	0x39bc40b0	0.0003590635
36	0x3a626064	0.0008635579
37	0x3afb2aab	0.0019162496
38	0x3b539212	0.003228311
39	0x3a83c9fa	0.00100547
40	0xba920ab5	-0.0011142107
41	0xba8a6931	-0.0010559914
42	0xba451dbf	-0.0007519386
43	0xbab26183	-0.0013609383
44	0xba868fe6	-0.0010266274
45	0x3a49a080	0.0007691458
46	0x3b050f5e	0.002030335
47	0x3a98a034	0.0011644424
48	0x39a0dee8	0.00030683656
49	0xb89f8e46	-7.608211e-05
50	0xb9a793f3	-0.00031962953
51	0xb96a081c	-0.00022319
52	0xb8a17b45	-7.700039e-05
53	0xb88f15ad	-6.822809e-05
54	0xb68c48b1	-4.1807875e-06
55	0x364b4591	3.028985e-06
56	0x35e62119	1.7145968e-06
57	0xb55c159b	-8.1987827e-07
58	0xb879b0c8	-5.9530867e-05
59	0xb94e12b4	-0.00019652658
60	0xb937aba4	-0.00017516181
61	0x38b637b2	8.68881e-05
62	0x3a1dd852	0.0006021309
63	0x3ae54c2d	0.0017494016
64	0x3ac7053a	0.0015184053
65	0x3ae2ee68	0.0017313482
66	0x3a7c280e	0.0009619006
67	0xba341b59	-0.000687053
68	0xba158275	-0.00057033385
69	0xba2735ba	-0.00063785503
70	0xba1c92f3	-0.0005972825
71	0xba956a80	-0.0011399537
72	0xba4509eb	-0.00075164315
73	0xba990333	-0.0011673927
74	0x3a133694	0.0005615738
75	0x3a921176	0.001114412
76	0x3a992259	0.001168321
77	0x39dd8fb1	0.00042259463
78	0xb9d112bf	-0.00039877553
79	0xb97aa31c	-0.00023902621
80	0xb89917d4	-7.300047e-05
81	0xb8bf4b39	-9.121601e-05
82	0xb746692a	-1.1826205e-05
83	0xb63f7bf7	-2.8533375e-06
84	0x34b247f7	3.3207445e-07
85	0x37f133bd	2.8753531e-05
86	0xb8614b6e	-5.371443e-05
87	0xb9cac109	-0.00038672265
88	0x38e60907	0.00010968936
89	0x3a4965ee	0.000768273
90	0x3ae9942b	0.0017820647
91	0x3a612a07	0.00085893314
92	0xba7b11ff	-0.0009577572
93	0xba7b3585	-0.0009582865
94	0xba05e04c	-0.000510697
95	0xba72b36a	-0.0009258302
96	0xba961af7	-0.0011452128
97	0xba83833e	-0.001003362
98	0xbaac8993	-0.0013163559
99	0xba8d6e40	-0.0010790303
100	0xba838953	-0.0010035433
101	0xba48af42	-0.000765551
102	0xba887599	-0.0010411023
103	0xba80692e	-0.0009796971
104	0xbaa99d80	-0.0012940615
105	0x3a001461	0.0004885849
106	0x398c4f34	0.00026761892
107	0x39b100e5	0.00033760737
108	0xb7015110	-7.707873e-06
109	0xb7cf63d7	-2.4722814e-05
110	0xb834f198	-4.3140346e-05
111	0xb6166b4a	-2.2414192e-06
112	0x37ff851f	3.0460358e-05
113	0xb6832e79	-3.9095144e-06
114	0xb8cc4ac2	-9.741403e-05
115	0xb9644868	-0.00021770748
116	0x38f493b8	0.000116623414
117	0x3a6d519f	0.0009052995
118	0x3a93348b	0.0011230869
119	0xba07c63b	-0.000517938
120	0xbab6e55a	-0.001395385
121	0xbac76cba	-0.0015214898
122	0xb91e749a	-0.00015111492
123	0xba14b621	-0.0005672891
124	0xba84684f	-0.0010101887
125	0xba4972d9	-0.0007684655
126	0xba9ff51e	-0.0012203788
127	0xba4c043e	-0.00077826146
128	0xba89b206	-0.0010505326
129	0xba3f0c26	-0.0007287882
130	0xba96d4d2	-0.0011507517
131	0xba99fe25	-0.0011748715
132	0xbaf00c69	-0.0018314245
133	0xba7d1120	-0.0009653736
134	0xb8930e46	-7.012165e-05
135	0x389ffd97	7.6289456e-05
136	0x398dc13e	0.00027037592
137	0xb885584e	-6.358382e-05
138	0xb8b485a2	-8.60796e-05
139	0xb6a39ec2	-4.8762604e-06
140	0x35b75f38	1.3662275e-06
141	0xb846c751	-4.7392507e-05
142	0xb88423bb	-6.300906e-05
143	0x391ac80d	0.00014761109
144	0x394938d6	0.00019190027
145	0x3a77684e	0.0009437845
146	0x3a2573f5	0.00063115294
147	0xb9e5f21f	-0.00043858678
148	0xba4e4c97	-0.0007869689
149	0xba8d1848	-0.0010764683
150	0xba2fe347	-0.0006709587
151	0xb8b71005	-8.729104e-05
152	0xb8df0d0a	-0.00010635897
153	0x3997a487	0.00028923547
154	0xb99c568f	-0.0002981913
155	0xb93c634f	-0.00017966072
156	0xba2f8bd9	-0.0006696559
157	0xba86ff60	-0.0010299496
158	0xba9ee1ab	-0.0012121698
159	0xbab42d9c	-0.0013746503
160	0xba991026	-0.0011677786
161	0xb9ecc7f1	-0.00045162396
162	0x39a3e93d	0.0003126356
163	0x37354c10	1.080615e-05
164	0x397f8193	0.00024366965
165	0xb5459ec1	-7.3619236e-07
166	0xb88adb0d	-6.621154e-05
167	0x37b410bd	2.1465466e-05
168	0x3795634a	1.780842e-05
169	0x3761c4f1	1.3456899e-05
170	0xb8076615	-3.228158e-05
171	0x39bda7f9	0.00036174039
172	0x3a12a03b	0.0005593334
173	0x3a951955	0.0011375347
174	0xb74b02b1	-1.21003695e-05
175	0xba985183	-0.0011620972
176	0xb9a0d28b	-0.00030674445
177	0xba305dbe	-0.0006727836
178	0x3961f4d9	0.00021548885
179	0xb9cbddf2	-0.0003888454
180	0xb9b1f2b0	-0.00033940887
181	0x395fec5d	0.0002135499
182	0xb916ab68	-0.00014368969
183	0xb8e661fb	-0.00010985505
184	0xb9690350	-0.00022221846
185	0xb89820c9	-7.2540315e-05
186	0xb9c5a16f	-0.00037695045
187	0xba7cb34e	-0.00096397556
188	0xbabcaeea	-0.001439539
189	0xb9d6f053	-0.00040996316
190	0x3a094f06	0.00052379107
191	0x38f3fd6c	0.000116343464
192	0x399e78de	0.00030226161
193	0x380134e9	3.0805273e-05
194	0x37a913ff	2.0155681e-05
195	0x38a50d6f	7.870315e-05
196	0x381475f1	3.539579e-05
197	0x37c6cc50	2.369858e-05
198	0xb8dff3f1	-0.00010678906
199	0x39befef7	0.00036429588
200	0x3a8d4367	0.0010777534
201	0x3aae352f	0.0013290996
202	0x36a8e19a	5.0330536e-06
203	0xbacbf8ad	-0.0015561782
204	0xba5a0bea	-0.00083178154
205	0xba2e6842	-0.0006653109
206	0x3a0f46fc	0.00054655946
207	0xb9805e28	-0.00024484214
208	0xb8afdb18	-8.38546e-05
209	0x39c52aa5	0.0003760654
210	0x39a1268d	0.00030737036
211	0xb74be44c	-1.2152897e-05
212	0x39816914	0.00024683087
213	0x3a6a33de	0.00089341204
214	0x397ef4b4	0.00024314487
215	0xba2e78f2	-0.00066555955
216	0xba8afde5	-0.0010604231
217	0xba428a22	-0.0007421096
218	0x39accfc9	0.00032961208
219	0x39d57df6	0.00040720374
220	0x39ce22e0	0.00039317366
221	0x392e7120	0.00016636075
222	0x393aa66b	0.00017800338
223	0x39158e53	0.00014262767
224	0xb82f4a2c	-4.179233e-05
225	0xb81d44f3	-3.749593e-05
226	0xb88baeeb	-6.6606175e-05
227	0x3a04cf36	0.0005066277
228	0x3aaa27d2	0.0012981838
229	0x3ad8f35a	0.0016552017
230	0xb84a0e85	-4.8174075e-05
231	0xba8d5d1d	-0.0010785196
232	0xba5933d2	-0.0008285615
233	0xba8b1dbf	-0.0010613723
234	0xb951406e	-0.00019955795
235	0xba381ee5	-0.00070236466
236	0xb9ad9c75	-0.000331137
237	0xba1573a4	-0.0005701131
238	0x38f8734a	0.00011847036
239	0x39725b65	0.00023112966
240	0xb8adfc5e	-8.29629e-05
241	0x39d66c64	0.00040898018
242	0xba091e3e	-0.00052306417
243	0xba8fe8b5	-0.0010979386
244	0xba0d28ce	-0.00053848035
245	0xba60f518	-0.00085814437
246	0x39f5c5a6	0.000468773
247	0x3a046f36	0.0005051972
248	0x3a4d6829	0.00078356505
249	0x39f9e8a1	0.00047666303
250	0x38a9a2cb	8.0888705e-05
251	0x37a2ba9e	1.9398805e-05
252	0xb8a141b4	-7.6893164e-05
253	0xb84941a6	-4.7983274e-05
254	0xb8c368a5	-9.317816e-05
255	0x3a38c77c	0.00070487685
