lightning_logs/version_1/checkpoints/last.ckpt (torch, 185102 bytes, 48 tensors)

classifier.1.weight f4 [16, 784]
0	0x3cbafe60	0.022826374
1	0xbca42e9f	-0.020041762
2	0xbceabc1b	-0.028654149
3	0x3d226e3d	0.039655913
4	0x3c9f6779	0.01945852
5	0x3cd54d44	0.02603782
6	0xbb3727ff	-0.0027947424
7	0xbe2acd0c	-0.16679782
8	0xbcf75a43	-0.030194407
9	0x3c926e84	0.017874964
10	0xbd338d5b	-0.04383598
11	0xbcc954f0	-0.024576634
12	0x3cfe45df	0.031039177
13	0x3dcb532a	0.09927972
14	0x3df88f69	0.12136728
15	0x3d60f70b	0.0549231
16	0xbd06a30b	-0.032870334
17	0xbd7c2b9b	-0.061565023
18	0xbd444dad	-0.04792564
19	0xbdb4397b	-0.08800026
20	0xbe661496	-0.2246879
21	0xbe049d88	-0.12950718
22	0x3d3b4116	0.045716368
23	0x3cf429f1	0.029805155
24	0x3b5cc281	0.003368527
25	0x3d1dc237	0.038515296
26	0x3d26c939	0.040719245
27	0x3d55baee	0.052180223
28	0x3b46002f	0.0030212512
29	0x3b4d57a3	0.0031332753
30	0x3be94406	0.0071187047
31	0x3bfc1984	0.0076934714
32	0x3da0a906	0.07844739
33	0xbce0884b	-0.02740874
34	0x3d31b6f5	0.043387372
35	0xbd17c571	-0.03705353
36	0xbca98bb5	-0.0206965
37	0xbd1c2a95	-0.038126547
38	0xbd013938	-0.03154871
39	0xbcd6e938	-0.026234254
40	0xbc18b2a6	-0.009319937
41	0xbd149e46	-0.036283754
42	0x3cf82626	0.030291628
43	0x3d3c96e5	0.04604234
44	0xbc16c18c	-0.009201419
45	0xbcec6ecb	-0.028861424
46	0xbd65e828	-0.056129605
47	0xbd16c5e3	-0.036809813
48	0xbd90d067	-0.070709996
49	0xbcc56b24	-0.02409894
50	0x3d66b7ef	0.056327756
51	0x3d08ccfa	0.033398606
52	0x3cea86da	0.028628755
53	0x3ce84fbc	0.028358333
54	0x3c5dbe3c	0.013534125
55	0xbd984798	-0.074355304
56	0xbd08a917	-0.03336438
57	0xbcb5d4e3	-0.022196239
58	0xbce63003	-0.028099066
59	0x3c67383f	0.014112531
60	0xbc5046ff	-0.012712239
61	0xbc06ea7c	-0.008234616
62	0xbce31ed5	-0.027724663
63	0xbce47425	-0.027887413
64	0xbcde3b72	-0.027127955
65	0x3ba37551	0.0049883504
66	0x3c00f074	0.0078698285
67	0xbc9ef5aa	-0.019404251
68	0x3caf0c54	0.021368183
69	0x3c84e41f	0.016222058
70	0x3cf440db	0.029816082
71	0x3b4b79ea	0.0031048008
72	0x3cdfbebe	0.027312633
73	0xbba36a5c	-0.0049870443
74	0xba025ca8	-0.00049729133
75	0xbcc24376	-0.023713809
76	0xbd2911b4	-0.04127665
77	0xbd0e051d	-0.034672845
78	0x3ceed99f	0.029156504
79	0x3b5af8de	0.0033412497
80	0xbcd65b09	-0.026166456
81	0xbcf047b2	-0.029331062
82	0xbc3b2c7a	-0.011424178
83	0x3b94ab9e	0.00453706
84	0xbc25104a	-0.010074684
85	0x3cc8fbb6	0.024534088
86	0xbccfc69c	-0.025363259
87	0x3cc8a701	0.024493696
88	0xbc0de34d	-0.00866015
89	0xbc1d9623	-0.009618315
90	0xbd13dade	-0.0360974
91	0x3cad4a21	0.021153511
92	0xbd322562	-0.043492682
93	0xbcc9b872	-0.024624083
94	0x3d276849	0.04087094
95	0x3c5f8e9f	0.013644843
96	0xbce8ed1e	-0.028433379
97	0xbb6faa7d	-0.0036570125
98	0x3c19e23c	0.009392317
99	0x3c14e391	0.009087459
100	0xbb2e6c82	-0.0026614969
101	0x3baa0875	0.0051889964
102	0x3cc66e8d	0.024222637
103	0x3ba41c2d	0.0050082416
104	0x3d7a39c8	0.06109026
105	0xbc80a69b	-0.015704444
106	0x3c837335	0.016046146
107	0xbcba30b0	-0.022728294
108	0x3bd0e1cd	0.006374574
109	0xbcd7ac2c	-0.026327215
110	0x3bca8410	0.006180294
111	0x3d716966	0.058938406
112	0xbc9c0401	-0.019044878
113	0xbcfc6cfb	-0.030813685
114	0xbcc44384	-0.023957975
115	0xbd439fcd	-0.04775982
116	0xbd81783f	-0.06321763
117	0xbc9c0caa	-0.019049007
118	0xbccca692	-0.02498177
119	0xbb501cbb	-0.0031755406
120	0x3b5fb408	0.0034134407
121	0x3d13dc7f	0.036098953
122	0x3c536df3	0.012904632
123	0xbcedcd25	-0.029028485
124	0xbc8a9acf	-0.016919522
125	0x3ac14eb8	0.0014748191
126	0x3c9a9531	0.018869968
127	0x3ae5bc86	0.0017527498
128	0x3d37d4dd	0.044880737
129	0x3ba7dcde	0.005122765
130	0x3b07a163	0.002069556
131	0x3b37c0ee	0.002803858
132	0xbcc5f1d1	-0.024163159
133	0x3cc5831c	0.02411037
134	0x3cf9e321	0.030503811
135	0xbd1b96dc	-0.037985668
136	0xbd9267c3	-0.07148697
137	0xbcdfab21	-0.02730328
138	0x3cee5dd4	0.029097475
139	0xbcf1cb6d	-0.029515946
140	0xbd1185df	-0.03552806
141	0xbbbecd7f	-0.005822837
142	0x3c850506	0.016237747
143	0xbdd47e8d	-0.103757
144	0xbd1172cc	-0.03550987
145	0xb9d00bbc	-0.00039681594
146	0xbd1b7e7a	-0.037962414
147	0xbc7a7bb0	-0.015288278
148	0xbd01f3dc	-0.031726703
149	0x3c5b1818	0.013372444
150	0x3c2e2e66	0.010631179
151	0xbcb14352	-0.021638546
152	0xbc94810a	-0.018127937
153	0xbc5b7691	-0.013394968
154	0x3b92c2f6	0.0044788076
155	0xbd14fd27	-0.036374237
156	0x3c9237aa	0.017848808
157	0xbbd6fd41	-0.006560952
158	0xbd031a0b	-0.03200726
159	0x3d213962	0.039361365
160	0xbc1f4d69	-0.009723046
161	0x3d2488cf	0.040169533
162	0x3d0951d6	0.03352531
163	0xbc6b1ae5	-0.014349674
164	0xbca49c28	-0.020093992
165	0xbad8e3d5	-0.0016547391
166	0xbbf6dd5e	-0.0075337132
167	0xbd4ad868	-0.049522787
168	0x3cc060b0	0.023483604
169	0x3bce96b1	0.006304585
170	0xbd0d9a61	-0.034571055
171	0xbda348bb	-0.079728566
172	0xbbee37ad	-0.0072698207
173	0xbc73e121	-0.014885218
174	0xbb84777a	-0.004042563
175	0x3bfef18c	0.0077802595
176	0x3cab474f	0.020908026
177	0xbd357ea9	-0.044310246
178	0xbce60814	-0.028080024
179	0x3d321716	0.043479048
180	0x3ca0a73f	0.019611
181	0xbc7c3ef6	-0.01539587
182	0x3a0082f6	0.0004902327
183	0xbd0a45e4	-0.03375806
184	0xbc13de76	-0.009025207
185	0xbbc88cc2	-0.0061202953
186	0xbc3825de	-0.011239497
187	0xbb3eaaf3	-0.0029093593
188	0x3c07fd25	0.0083001
189	0x3d3e3dd3	0.04644568
190	0x3c41f35d	0.0118378075
191	0xbc00f283	-0.007870319
192	0x3c97f7c6	0.018550765
193	0xbd02d0e5	-0.0319375
194	0xbd69098c	-0.05689387
195	0xbd3f835d	-0.046756137
196	0xbd23d844	-0.04000117
197	0x3c11d0b9	0.008899861
198	0xbd341dc4	-0.0439737
199	0xbd262bca	-0.040569104
200	0x3d6460cd	0.05575638
201	0xbd4eb321	-0.0504638
202	0xbd42e975	-0.047585923
203	0xbd3d2144	-0.046174303
204	0xbcbfb7e8	-0.023403123
205	0xbbc68271	-0.0060580303
206	0xbc56f242	-0.013119282
207	0x3c69b0f4	0.01426338
208	0x3cfee415	0.031114617
209	0xbbfd56e1	-0.007731304
210	0xbc2f2d92	-0.010692017
211	0xbc188729	-0.009309568
212	0x3bb39af4	0.0054811183
213	0x3c8ba71e	0.017047461
214	0xbcc62ce2	-0.024191324
215	0xbcd88817	-0.02643208
216	0x3b2604c5	0.0025332433
217	0x3ceb9e0e	0.02876189
218	0xbcd28cec	-0.025701962
219	0xbc1ee2f9	-0.009697669
220	0xbc14b8b5	-0.009077241
221	0x3a39acde	0.0007082949
222	0xbc4628e4	-0.01209471
223	0x3b246c02	0.0025088792
224	0xbce66500	-0.028124332
225	0x3bd304b7	0.006439771
226	0xbd03ec26	-0.03220763
227	0xbc94d720	-0.018168986
228	0x3d825919	0.0636465
229	0xbbd8a015	-0.00661088
230	0xbd27e8fd	-0.04099368
231	0xbc803351	-0.01564947
232	0x3b82da83	0.003993334
233	0xbc2c1a21	-0.0105042765
234	0x3cbb1da9	0.022841292
235	0x3a2de2c6	0.0006633218
236	0xbc2afb4a	-0.010435889
237	0xbbefe29b	-0.0073207146
238	0x3cdc7524	0.026911326
239	0xbb82683f	-0.0039797123
240	0xbc4f1b3b	-0.01264077
241	0x3cae201c	0.021255545
242	0x3c568e2e	0.013095422
243	0xbba4f000	-0.005033493
244	0xbcaffc41	-0.021482589
245	0x3b251360	0.002518855
246	0x3c8b2ff5	0.016990641
247	0xbbff0f2d	-0.0077837915
248	0xbd367b01	-0.0445509
249	0xbd34d8ae	-0.044151954
250	0xbc5e9ec0	-0.013587654
251	0x3c47070e	0.012147678
252	0xba340a3c	-0.000686798
253	0x3b4de434	0.0031416537
254	0x3d03494e	0.03205233
255	0xbc9c81a6	-0.01910479

classifier.1.bias f4 [16]
0	0xbc6c421a	-0.014420057
1	0x3cf26842	0.02959073
2	0xbd0d23f5	-0.03445812
3	0xbb51795a	-0.00319632
4	0xba7c70ed	-0.00096298644
5	0xbbc558cd	-0.006022549
6	0xbcc4e251	-0.024033697
7	0xbbd6c429	-0.006554146
8	0xbcda0ded	-0.026617968
9	0x3cf02440	0.02931416
10	0x3bad3342	0.0052856514
11	0x3cf833c5	0.030298123
12	0x3cbb0dc0	0.022833705
13	0xbbcfb7d4	-0.0063390527
14	0xbd00d175	-0.031449754
15	0x3b1dae3a	0.0024060146

classifier.2.weight f4 [16]
0	0x3f6fbd95	0.93648654
1	0x3f7e569a	0.99350893
2	0x3f733ffb	0.950195
3	0x3f89d8fb	1.0769342
4	0x3f7da707	0.9908299
5	0x3f6c9d3b	0.92427415
6	0x3f7e7f9a	0.99413455
7	0x3f6f928e	0.93583
8	0x3f82d6fe	1.022186
9	0x3f803398	1.0015745
10	0x3f6cf823	0.92566127
11	0x3f8f2b9e	1.1185186
12	0x3f8387b6	1.0275791
13	0x3f8608cc	1.0471435
14	0x3f84c6b6	1.0373142
15	0x3f813c41	1.0096513

classifier.2.bias f4 [16]
0	0xbaf18394	-0.0018426054
1	0xbd9d78ce	-0.07689057
2	0xbc243f23	-0.010024819
3	0x399f8fa0	0.00030433852
4	0xbd9a9bc1	-0.07549239
5	0xbdd48780	-0.10377407
6	0x3d2a1324	0.04152216
7	0xbe19825c	-0.14991134
8	0xbcdaf8f5	-0.02673004
9	0x3ca0cb66	0.019628238
10	0x3d7c73f5	0.061634023
11	0x3dedf94d	0.11619816
12	0x3de16eee	0.11007486
13	0xbe578263	-0.21045832
14	0x3e03c4d0	0.12868047
15	0x3b418f98	0.0029535051

classifier.2.running_mean f4 [16]
0	0x3fe83d48	1.8143702
1	0xbf803071	-1.0014783
2	0xc030e2b4	-2.7638369
3	0x3f41e93b	0.75746506
4	0x3e9e1d66	0.30881804
5	0x406a9820	3.665535
6	0x3ecfbe9a	0.40575105
7	0x3feb9492	1.8404715
8	0x4087a2e2	4.238633
9	0x402f07bf	2.7348478
10	0x3f74afd5	0.955808
11	0x3f92b679	1.1461936
12	0xbfc786ad	-1.5587975
13	0x405fe10f	3.4981115
14	0x40866cf5	4.2008004
15	0x3f2926fc	0.6607511

classifier.2.running_var f4 [16]
0	0x3f203149	0.62575203
1	0x3f40bd47	0.75288814
2	0x3fa29717	1.2702359
3	0x3fc9087e	1.5705717
4	0x3ef2035b	0.47268185
5	0x3f67d9f9	0.90566975
6	0x3f934411	1.1505147
7	0x3f1a52d9	0.60282665
8	0x3fc1c830	1.5139217
9	0x3f3c77e7	0.73620456
10	0x3eec8e0c	0.46202123
11	0x3fa7aad9	1.3099014
12	0x3f991081	1.1958162
13	0x3fa77890	1.3083668
14	0x3fa621fe	1.2979124
15	0x3f8db8ca	1.1072018

classifier.4.weight f4 [16, 16]
0	0xbd61b3b3	-0.055103015
1	0xbe0aaadd	-0.13541742
2	0x3d8bcbc0	0.068259716
3	0xbe372034	-0.17883378
4	0xbccc3bfd	-0.024930948
5	0x3ea6eaf8	0.32601142
6	0x3ca9d5d1	0.020731838
7	0x3d4443a7	0.04791608
8	0x3db0cb51	0.086325295
9	0xbe528524	-0.20558602
10	0x3e05cc5e	0.13066241
11	0xbda81986	-0.08207993
12	0x3e564b74	0.2092722
13	0x3e321c6f	0.17393659
14	0xbdba0ed8	-0.090848625
15	0xbe62636c	-0.22108239
16	0xbe35d77f	-0.17757986
17	0xbd38df87	-0.045135047
18	0xbe914704	-0.28374493
19	0x3e724bc0	0.23661709
20	0x3d9702e8	0.07373601
21	0xbe2a33bf	-0.16621302
22	0x3d010af3	0.031504583
23	0x3dc06c0b	0.093956076
24	0xbdf7df3a	-0.12103124
25	0x3cffa0e3	0.031204646
26	0x3e432c96	0.19059977
27	0x3e96b5a5	0.2943546
28	0xbda596ef	-0.08085429
29	0x3e70c857	0.23513924
30	0x3da1d4aa	0.079018906
31	0xbe962f52	-0.29332978
32	0xbe3f95da	-0.18709508
33	0x3e182c74	0.14860708
34	0x3dbfcf70	0.093657374
35	0xbddd0879	-0.10792632
36	0x3dbc0916	0.091814205
37	0xbdda7a15	-0.106678165
38	0x3e458ba0	0.19291544
39	0xbe2dd782	-0.16976741
40	0xbe2fdade	-0.17173335
41	0xbddd0fc5	-0.107940234
42	0x3d8ee02a	0.0697635
43	0x3e78ddf5	0.2430342
44	0xbe4ac631	-0.19802167
45	0xbdf3ff92	-0.119139805
46	0x3e6665d6	0.22499785
47	0x3db2db3f	0.08733224
48	0x3d9c2f1a	0.076261714
49	0xbe63c07e	-0.22241399
50	0xbdd4623e	-0.10370301
51	0x3e39ec92	0.1815665
52	0xbda0b3a3	-0.07846763
53	0xbcca7334	-0.024713136
54	0xbe149518	-0.1451
55	0x3db6ca2f	0.08925282
56	0xbd188297	-0.037233915
57	0xbe96f295	-0.2948195
58	0xbde97223	-0.11398723
59	0xbd8e04c6	-0.06934504
60	0xbe87694a	-0.26447517
61	0xbe730f01	-0.23736192
62	0x3e48c333	0.19605713
63	0xbdbb476d	-0.09144483
64	0xbad83e25	-0.0016498013
65	0x3e066e28	0.13127959
66	0x3e3092fd	0.17243572
67	0xbd3a6e12	-0.045515127
68	0xbd6030dd	-0.0547341
69	0x3e7c757d	0.24654193
70	0xbe7b8e5c	-0.24566025
71	0xbd90d7d8	-0.07072419
72	0xbe1233f8	-0.14277637
73	0xbe54a1e3	-0.2076488
74	0x3e484673	0.19558124
75	0x3d89a4df	0.067209
76	0xbd8258cb	-0.06364592
77	0x3e5476dc	0.20748466
78	0xbe66465d	-0.22487779
79	0xbebb8cf4	-0.36630976
80	0xbe63c408	-0.22242749
81	0x3d5adb94	0.053432062
82	0xbd6b0602	-0.057378776
83	0x3e33577f	0.17513846
84	0xbdc15411	-0.094398625
85	0x3d12ee6c	0.035871908
86	0xbe071b1a	-0.13193932
87	0xbe36f430	-0.17866588
88	0x3e86f42a	0.26358157
89	0xbe74eecb	-0.23919217
90	0xbd64372c	-0.05571668
91	0xbd08cbcc	-0.03339748
92	0xbe4c46f6	-0.19948944
93	0xbbae7356	-0.0053238077
94	0xbdb73f97	-0.08947676
95	0x3d8e11d7	0.069369964
96	0x3e17ab82	0.14811519
97	0xbc91e848	-0.017810956
98	0x3d92b5e5	0.071636
99	0xbe8a3a4a	-0.26997596
100	0x3d499323	0.049212586
101	0xbea68738	-0.3252504
102	0xbdc73983	-0.09727766
103	0x3b50ca70	0.0031858943
104	0x3d9136ea	0.07090552
105	0x3d863326	0.065527245
106	0xbd854719	-0.065077014
107	0xbc907fdb	-0.017639091
108	0xbdde034a	-0.10840471
109	0xbd8a9ac8	-0.067678034
110	0x3e64f728	0.22359908
111	0x3d14130b	0.036150973
112	0x3dd2b7b8	0.10288948
113	0x3caec816	0.021335643
114	0xbe1fe47a	-0.156145
115	0xbe65f7f5	-0.2245787
116	0x3c0784c9	0.008271405
117	0x3e3dcbc7	0.18534766
118	0x3d44e314	0.04806812
119	0x3bc24880	0.005929053
120	0xbe4cfc06	-0.20018014
121	0xbdf4216d	-0.11920438
122	0x3e8b158a	0.2716487
123	0xbe71aa8a	-0.23600212
124	0x3e4c71c9	0.1996528
125	0xbd6d2db1	-0.057904903
126	0x3d5b9e3d	0.053617705
127	0x3e744126	0.23852977
128	0xbe05d707	-0.13070308
129	0xbe3f060b	-0.18654649
130	0xbe8453c8	-0.2584517
131	0xbe29b274	-0.1657198
132	0xbd97a4a0	-0.074044466
133	0x3e29173a	0.16512766
134	0xbcce9b31	-0.025220485
135	0xbc12b251	-0.008953647
136	0xbdca8d82	-0.09890272
137	0x3d517f51	0.05114681
138	0x3da050ba	0.07827897
139	0xbe2fa0d4	-0.17151195
140	0xbe7cabb3	-0.24674873
141	0x3e3c7333	0.1840332
142	0xbdc204e3	-0.09473588
143	0x3d97763e	0.073956
144	0xbdb5aa85	-0.08870415
145	0xbe3f44ba	-0.18678561
146	0xbd5a94f2	-0.0533647
147	0xbe232ba5	-0.15934618
148	0x3e333896	0.17502055
149	0x3c01f234	0.007931281
150	0xbdf2af40	-0.118498325
151	0x3e79b148	0.24384034
152	0xbc73f0b4	-0.014888931
153	0x3e019d5b	0.12657683
154	0x3ddfe0be	0.10931538
155	0xbdfba9f5	-0.12288276
156	0x3d1fad0a	0.038983382
157	0x3e80b170	0.25135374
158	0x3db41128	0.08792335
159	0x3d5f1a6a	0.05446855
160	0x393a89c3	0.00017789663
161	0xbe4b0cb4	-0.19829065
162	0xbe3a3534	-0.18184358
163	0xbe193fa2	-0.1496568
164	0xbd079129	-0.03309742
165	0x3c39dd44	0.011344258
166	0xbe58854e	-0.21144602
167	0xbcaab2fe	-0.020837303
168	0xbe986ad6	-0.2976901
169	0xbc91b416	-0.017786067
170	0xbd9bfe42	-0.07616855
171	0xbcc3e061	-0.023910703
172	0x3c262533	0.010140705
173	0x3d21c32c	0.03949277
174	0x3db030ed	0.08603082
175	0x3d49edf8	0.04929921
176	0x3d641647	0.055685308
177	0x3cbb2374	0.022844054
178	0xbd512ebe	-0.051069967
179	0xbe1d0028	-0.15332091
180	0x3dbd5088	0.09243876
181	0x3d9b4857	0.07582157
182	0xbd0dc62c	-0.03461282
183	0x3e7bd897	0.24594341
184	0x3dda8983	0.106707595
185	0x3d9f72a5	0.077855386
186	0x3de30204	0.11084369
187	0x3e83786e	0.25677818
188	0xbe020d44	-0.12700373
189	0xbe10d953	-0.14145403
190	0x3e429946	0.19003782
191	0x3e37db4c	0.17954749
192	0x3dcc80cb	0.09985503
193	0x3e1bb3e7	0.15205346
194	0xbcb6ab61	-0.022298517
195	0x3dbf89f7	0.093524866
196	0x3e669e92	0.22521427
197	0x3db8a82d	0.09016452
198	0x3d9ebe27	0.077511124
199	0xbe018857	-0.12649666
200	0x3d285878	0.041099995
201	0xbd0d8051	-0.0345462
202	0x3e170a3f	0.14750002
203	0xbdfbdd13	-0.12298026
204	0x3e35cc4d	0.17753716
205	0x3e490a54	0.19632846
206	0xbe16d4be	-0.14729592
207	0xbdc41818	-0.09574908
208	0xbd5e89ae	-0.05433052
209	0x3e055ee2	0.13024476
210	0xbe3c737e	-0.18403432
211	0x3c704809	0.014665612
212	0xbdd571ce	-0.10422097
213	0x3b435782	0.0029806797
214	0xbe276c3c	-0.16349882
215	0xbdcfc0ac	-0.10144171
216	0xbd316734	-0.043311313
217	0xbdd991b1	-0.106234916
218	0xbe2ed6b6	-0.17074093
219	0x3d88a0ed	0.06671319
220	0x3e039dc3	0.1285315
221	0x3ddb63b2	0.10712375
222	0xbe6d2b33	-0.2316101
223	0x3d96ac22	0.073570505
224	0xbdaf3888	-0.08555704
225	0xbe7adeb7	-0.24499021
226	0xbcc65d66	-0.024214458
227	0xbd7ec3b5	-0.06219836
228	0xbd375629	-0.044759903
229	0x3dae1c21	0.08501459
230	0x3d7642a4	0.060122147
231	0x3e281684	0.16414839
232	0x3c1cc348	0.009568043
233	0xbdc60b4e	-0.09670125
234	0x3d8fd01f	0.07022118
235	0xbbd8ba25	-0.006613987
236	0xbe663986	-0.22482881
237	0xbe43428d	-0.19068356
238	0xbeac7e18	-0.33689952
239	0xbdbfe697	-0.093701534
240	0xbe4157a6	-0.18881091
241	0xbe6ced85	-0.23137482
242	0x3d568bd0	0.05237943
243	0xbde960fe	-0.11395453
244	0x3d24adec	0.040204927
245	0x3c0d61e4	0.008629296
246	0xbe33a74a	-0.17544284
247	0xbdbbd43b	-0.09171339
248	0xbd403f4b	-0.04693536
249	0x3e12b65a	0.14327374
250	0xbd058f2b	-0.03260724
251	0x3de5084b	0.111832224
252	0xbe50aad8	-0.20377672
253	0xbe8200d6	-0.25391263
254	0xbe5ecbb4	-0.21757394
255	0xbe152fad	-0.14568968

classifier.4.bias f4 [16]
0	0xbbf8aebb	-0.007589189
1	0xbdd8acdf	-0.105798475
2	0x3dcff881	0.1015482
3	0x3d2beb4c	0.041972443
4	0xbe57ef95	-0.21087487
5	0xbe6e44ff	-0.23268507
6	0xbd6894a3	-0.056782376
7	0xbdbd02a8	-0.09229022
8	0x3e05aed3	0.13054971
9	0x3d91bcdf	0.071161024
10	0x3e716261	0.23572685
11	0xbdb4ac08	-0.08821875
12	0x3d76546a	0.060139097
13	0xbe17ddff	-0.14830779
14	0xbdad1c99	-0.0845272
15	0x3e1dd031	0.1541145

classifier.5.weight f4 [16]
0	0x3f79a0f0	0.97511196
1	0x3f8862a8	1.0655107
2	0x3f73cafa	0.9523159
3	0x3f72cd31	0.9484435
4	0x3f831693	1.0241264
5	0x3f840c21	1.0316201
6	0x3f8c198c	1.0945296
7	0x3f58a29a	0.8462311
8	0x3f9613b9	1.1724769
9	0x3f6971f6	0.91189516
10	0x3f73006f	0.94922537
11	0x3f6b1e66	0.9184326
12	0x3f7653d0	0.9622164
13	0x3f865886	1.0495765
14	0x3f8abcb3	1.0838836
15	0x3f7b7459	0.9822441

classifier.5.bias f4 [16]
0	0x3dc80d28	0.09768134
1	0x3e34ad8f	0.17644332
2	0xbd25798b	-0.040399116
3	0xbd857229	-0.06515915
4	0x3df988c4	0.12184289
5	0xbd40b624	-0.047048703
6	0x3de39225	0.11111859
7	0xbd15ac71	-0.036541406
8	0xbd3bfced	-0.045895506
9	0x3e559efc	0.20861429
10	0x3d3a766d	0.045523096
11	0xbd333e04	-0.043760315
12	0x3ce47613	0.027888333
13	0x3d74d0f4	0.059769586
14	0xbe4417a1	-0.19149639
15	0xbe392010	-0.18078637

classifier.5.running_mean f4 [16]
0	0xbd111957	-0.035424557
1	0xbce69d1a	-0.028151084
2	0x3e25be17	0.16185795
3	0xbec4d5f0	-0.3844447
4	0xbee7c1c6	-0.45265025
5	0xbf03afe9	-0.5144029
6	0xbe167c10	-0.14695764
7	0xbd7580d1	-0.059937302
8	0xbe8d9435	-0.27652135
9	0x3e2b00a4	0.16699463
10	0xbe1cc722	-0.15310338
11	0x3e915be4	0.2839042
12	0x3ea2af29	0.31774262
13	0xbed0da12	-0.40791374
14	0xbf0a4839	-0.54016453
15	0xbebfbf82	-0.37450796

classifier.5.running_var f4 [16]
0	0x3e18f2d1	0.14936377
1	0x3e96983d	0.29413024
2	0x3dc929a8	0.098223984
3	0x3dca74fa	0.09885593
4	0x3ec80223	0.3906413
5	0x3dac432d	0.0841125
6	0x3d99ed19	0.07515926
7	0x3dde34d0	0.10849917
8	0x3e18eb13	0.14933424
9	0x3d82b257	0.06381672
10	0x3ddc5757	0.10758846
11	0x3e018883	0.12649731
12	0x3e14a650	0.14516568
13	0x3ddb77aa	0.107161835
14	0x3dc04e04	0.0938988
15	0x3dbf0db8	0.093287885

classifier.7.weight f4 [16, 16]
0	0xbe470e32	-0.19439009
1	0xbe953e3b	-0.2914904
2	0xbe1da604	-0.15395361
3	0x3ca42a06	0.02003957
4	0x3db86cf5	0.09005157
5	0x3e064e5f	0.13115834
6	0x3d0fb2aa	0.035082497
7	0x3d959db8	0.07305473
8	0xbd8b8fd1	-0.0681454
9	0x3e14ca5d	0.1453032
10	0xbd1dfbe5	-0.038570303
11	0x3e4bde4d	0.1990902
12	0xbe6ca96b	-0.23111503
13	0xbe28f3a4	-0.16499192
14	0xbe67f308	-0.22651303
15	0x3d5bb4cc	0.05363922
16	0xbda1486f	-0.07875144
17	0xbd64386b	-0.055717867
18	0x3c1b0304	0.009461168
19	0x3d181d6e	0.03713744
20	0x3daa8ca0	0.08327603
21	0x3e8ce126	0.27515525
22	0x3dcc6203	0.09979632
23	0xbdb7f4b9	-0.08982224
24	0x3e2ebd39	0.1706437
25	0xbd2cf4c6	-0.04222562
26	0x3cfc1c28	0.030775145
27	0x3d1fb570	0.03899139
28	0xbd5cd6db	-0.05391584
29	0x3e17743c	0.14790434
30	0x3d5d1f74	0.053985074
31	0x3e072373	0.13197117
32	0xbc274490	-0.010209218
33	0x3ea985f2	0.33110005
34	0x3d9bacdd	0.076013304
35	0x3e24684d	0.16055413
36	0xbe140f35	-0.14458926
37	0x3dfa3445	0.12217001
38	0xbe33d4e8	-0.17561686
39	0xbd83de86	-0.06438927
40	0xbe8ecdab	-0.27891287
41	0xbd94e526	-0.07270269
42	0x3daabaf4	0.0833644
43	0x3d919930	0.07109296
44	0x3d10f5b6	0.03539058
45	0xbca7cf02	-0.020484451
46	0x3e21aafd	0.15787883
47	0xbe37ecfc	-0.17961496
48	0x3d50c73b	0.05097125
49	0x3cef219a	0.029190827
50	0xbd0487d2	-0.03235609
51	0xbdab5450	-0.08365691
52	0x3ea7b370	0.32754087
53	0xbde193ce	-0.1101452
54	0xbe3eefc0	-0.18646145
55	0x3e1feae2	0.15616944
56	0xbd97d1a5	-0.074130334
57	0x3e27abee	0.1637418
58	0xbba676f8	-0.0050801
59	0xbd8d438a	-0.06897648
60	0xbc8f620b	-0.017502805
61	0x3e10545f	0.14094685
62	0xbe273e3e	-0.16332337
63	0xbd5fcfa6	-0.05464139
64	0xbd873924	-0.066026956
65	0x3d5a09d1	0.053232018
66	0x3e24721a	0.16059151
67	0x3cd5dcf9	0.026106345
68	0x3df05550	0.11735022
69	0xbe67272c	-0.22573537
70	0xbdfb1f5d	-0.122618414
71	0xbd9701b1	-0.073733695
72	0x3dc2c7fa	0.09510799
73	0x3dd888ce	0.105729684
74	0x3e7e3525	0.2482496
75	0xbdea5796	-0.11442487
76	0x3d98a6bc	0.07453677
77	0xbe3696ed	-0.17831011
78	0xbdb0004a	-0.08593805
79	0x3e8c1c1c	0.27365196
80	0xbd8ac6fa	-0.06776233
81	0x3d7f0d8d	0.062268782
82	0xbad2332c	-0.0016036979
83	0xbe5be217	-0.21472965
84	0xbdceaf9b	-0.10092088
85	0xbbad2dae	-0.0052849865
86	0xbd599bde	-0.053127162
87	0xbddccb8f	-0.10781013
88	0x3e95d498	0.2926376
89	0x3d6c623e	0.05771088
90	0xbcc966df	-0.024585186
91	0xbd8892bd	-0.06668613
92	0x3dda0e8b	0.10647305
93	0x3c0201d9	0.007935011
94	0x3d1e98f9	0.038720105
95	0xbe45453d	-0.19264694
96	0x3e03def7	0.12878023
97	0xbdce97f4	-0.100875765
98	0xbe03a942	-0.12857535
99	0x3b8bd8bc	0.00426778
100	0xbda1c0ef	-0.07898127
101	0xbdb11136	-0.08645861
102	0x3e57efe7	0.21087609
103	0xbe9599c9	-0.2921889
104	0x3e183d3e	0.14867112
105	0xbce6ef31	-0.028190227
106	0xbe5c56a0	-0.2151742
107	0x3e1723fb	0.14759819
108	0x3b8a3be5	0.0042185658
109	0xbdca9a85	-0.098927535
110	0xbd8f1795	-0.0698692
111	0x3d9f0941	0.07765437
112	0xbe085934	-0.13315278
113	0x3d0acc3a	0.033886172
114	0xbe1894a8	-0.14900458
115	0x3dc86681	0.09785176
116	0x3d7ed661	0.062216166
117	0x3eab80a2	0.33496577
118	0xbdb32c99	-0.08748741
119	0xbcdd34fc	-0.027002804
120	0x3d7560ff	0.059906956
121	0xbcdede77	-0.027205689
122	0xbc0f2b72	-0.0087383855
123	0x3dbc454e	0.09192906
124	0xbd1d5dec	-0.03841965
125	0xbda7b542	-0.08188869
126	0xbe715351	-0.23566939
127	0xbdd685e7	-0.104747586
128	0x3e310fb4	0.17291147
129	0xbe42b0d9	-0.19012775
130	0xbd2f2f1a	-0.04276953
131	0xbda167b1	-0.07881106
132	0x3eada410	0.33914232
133	0x3e0925d2	0.13393334
134	0xbdbd8415	-0.09253708
135	0xbd614e6b	-0.055006426
136	0xbdfdb5d0	-0.123881936
137	0xbde68518	-0.11255854
138	0x3d164025	0.036682267
139	0x3e368436	0.17823872
140	0xbdf8d3ab	-0.121497475
141	0x3d03c8bf	0.03217387
142	0x3d14cfaf	0.036330875
143	0x3e03ce6b	0.12871711
144	0xbdad90bc	-0.084748715
145	0x3de37475	0.11106197
146	0x3d8e66a9	0.069531746
147	0xbd95ae77	-0.07308667
148	0xbdf5e85c	-0.1200721
149	0x3ca20576	0.019777995
150	0x3e1735b7	0.14766584
151	0x3dc4febd	0.096189
152	0xbc03f7d5	-0.008054693
153	0x3ce59987	0.02802731
154	0x3e245725	0.16048868
155	0xbe6b0cc7	-0.22954093
156	0xbdc5abcf	-0.096519105
157	0x3e7a2f52	0.24432114
158	0x3d5ed8b5	0.054405887
159	0xbe427d94	-0.18993217
160	0xbd41cd27	-0.04731479
161	0x3e295995	0.16538079
162	0xbe17b51f	-0.14815186
163	0xbdf9a325	-0.121893205
164	0x3e07f3e5	0.13276632
165	0xbe4f03ab	-0.20216243
166	0xbdab1b0d	-0.08354769
167	0xbccadbf1	-0.02476308
168	0x3dc62930	0.09675825
169	0x3e23ad22	0.15984014
170	0x3d8de4b0	0.06928384
171	0x3d4c3ff9	0.049865697
172	0x3e2ee239	0.17078485
173	0xbe77c8a2	-0.24197629
174	0x3e93c13e	0.2885837
175	0xbe8d2d56	-0.2757365
176	0x3e3cc31a	0.184338
177	0xbe3b0da0	-0.18266916
178	0xbe06617a	-0.13123122
179	0xbea6c620	-0.32573032
180	0xbd4a5a6e	-0.049402647
181	0xbddb561d	-0.10709784
182	0xbd762025	-0.06008925
183	0xbe0acf9d	-0.1355576
184	0xbe11bc49	-0.14231981
185	0xbe9307aa	-0.28716785
186	0xbde8bf03	-0.113645576
187	0xbda44e6a	-0.08022769
188	0x3d3c3255	0.045946438
189	0xbe5978c3	-0.21237473
190	0x3dce16f0	0.10062969
191	0xbd85a743	-0.06526043
192	0xbe6e68d2	-0.23282173
193	0xbe03ab7f	-0.1285839
194	0x3e85cb98	0.26131892
195	0x3bc0e2d4	0.005886415
196	0x3e12e2ae	0.14344284
197	0xbd2f6655	-0.0428222
198	0xbd708352	-0.058718987
199	0x3e293ea8	0.16527808
200	0xbe87eede	-0.2654943
201	0x3d65f58d	0.05614238
202	0x3e8284ff	0.25492093
203	0x3d93a030	0.07208288
204	0xbd856d4d	-0.06514988
205	0x3dff5fca	0.12469442
206	0xbde05a82	-0.10954763
207	0x3dc0e398	0.0941841
208	0xbdcf262b	-0.10114702
209	0xbe4e5925	-0.20151193
210	0x3da1a395	0.07892529
211	0xbba07681	-0.0048969393
212	0xbe1d2309	-0.15345396
213	0x3dfa47c9	0.12220723
214	0xbd87b283	-0.06625845
215	0xbd1a1486	-0.03761723
216	0xbc6163f3	-0.01375674
217	0xbd817573	-0.0632123
218	0xbb87ad8b	-0.004140561
219	0x3dc60e38	0.09670681
220	0x3e46ab7e	0.19401357
221	0xbc17e654	-0.009271223
222	0x3ec8f3d9	0.3924854
223	0x3ca269fd	0.01982593
224	0xbe67c98b	-0.22635476
225	0x3b44b23c	0.0030013463
226	0xbe0a097a	-0.13480178
227	0x3e6be577	0.23036753
228	0x3973f41a	0.00023265221
229	0xbdae79e4	-0.085193425
230	0x3dbc98eb	0.09208854
231	0x3c7c8c36	0.015414288
232	0xbd00b984	-0.03142692
233	0xbb443a70	-0.0029942058
234	0xbc6a90f6	-0.014316788
235	0xbe659366	-0.2241951
236	0xbe25ee84	-0.16204268
237	0xbd8b9a74	-0.06816569
238	0xbe48d990	-0.19614244
239	0xbdac876b	-0.084242664
240	0x3d2129c5	0.039346475
241	0x3d0ae573	0.033910226
242	0xbda08319	-0.07837505
243	0x3b4f68ad	0.0031648085
244	0x3e44c5ed	0.19216128
245	0xba258958	-0.00063147163
246	0xbe4f0f3b	-0.20220654
247	0x3db82258	0.089909256
248	0xbe7a72df	-0.24457882
249	0xbd6f7946	-0.058465265
250	0xbd8a79a7	-0.067614846
251	0x3deded62	0.11617543
252	0xbdf6d4d8	-0.120523155
253	0xbd8db2a4	-0.069188386
254	0xbe3408d3	-0.17581491
255	0x3e38fe18	0.18065679

classifier.7.bias f4 [16]
0	0x3d9c704d	0.07638607
1	0x3e6bf15c	0.2304129
2	0xbdc83353	-0.09775414
3	0x3e54be17	0.20775639
4	0x3dddd7f8	0.108322084
5	0x3dc4fee2	0.096189275
6	0xbd8222cf	-0.063542955
7	0x3e600dda	0.21880284
8	0x3d85bda5	0.065303124
9	0x3e0b8ce6	0.13627967
10	0xbe1ef091	-0.15521456
11	0x3d1e10af	0.03859013
12	0x3e52d7ca	0.2059013
13	0x3e721e5d	0.23644395
14	0x3c978c36	0.018499475
15	0xbe24dd25	-0.16099985

classifier.8.weight f4 [16]
0	0x3fac4703	1.3459171
1	0x3fa70727	1.3049058
2	0x3fb2c4cd	1.3966309
3	0x3fae11f9	1.3599235
4	0x3faf40b2	1.3691618
5	0x3fac0eb6	1.344199
6	0x3faf5a63	1.3699459
7	0x3faf0e63	1.3676265
8	0x3fb039e4	1.3767667
9	0x3faf3dcf	1.3690737
10	0x3fa867f8	1.3156729
11	0x3fb9278d	1.4465195
12	0x3fb84b10	1.4397907
13	0x3fad083c	1.3518138
14	0x3faee272	1.3662856
15	0x3fb023b8	1.37609

classifier.8.bias f4 [16]
0	0x3ea3243a	0.31863576
1	0x3e85e4f5	0.26151243
2	0x3ebfdb5c	0.37472045
3	0x3ebe0214	0.3711096
4	0x3ebfc1e8	0.37452626
5	0x3e9dd90f	0.30829665
6	0x3ea9245d	0.33035555
7	0x3eabd8af	0.33563754
8	0x3ec4b8e5	0.38422313
9	0x3eba627d	0.36403266
10	0x3ea31eed	0.31859532
11	0x3ed9ffaa	0.4257787
12	0x3ed887d5	0.42291132
13	0x3ea7dddd	0.32786456
14	0x3eb380f5	0.35059324
15	0x3eba8a33	0.36433563

classifier.8.running_mean f4 [16]
0	0xbe5dcb53	-0.21659593
1	0x3f0d56a2	0.55210316
2	0xbda0abbc	-0.07845256
3	0x3e910058	0.28320575
4	0x3e4e87af	0.20168947
5	0x3d223903	0.03960515
6	0xbe357b6a	-0.1772286
7	0x3e19725f	0.14985035
8	0x3e21cb84	0.15800291
9	0x3e72bd49	0.23705019
10	0xbde4c557	-0.11170452
11	0xbf19a24d	-0.60013276
12	0x3e819e68	0.25316167
13	0x3e8140b1	0.25244668
14	0xbea97638	-0.33098006
15	0xbeaf61b0	-0.34254217

classifier.8.running_var f4 [16]
0	0x3dfe600d	0.12420664
1	0x3dd836f4	0.105573565
2	0x3e4b3bb0	0.19846988
3	0x3e34e8ed	0.17666979
4	0x3dba170b	0.09086426
5	0x3d66c95a	0.056344368
6	0x3d86a9d2	0.065753594
7	0x3d81ab84	0.06331542
8	0x3df1c98b	0.118060194
9	0x3cda7b6e	0.026670184
10	0x3df05d9a	0.11736603
11	0x3dd3fd57	0.10351055
12	0x3d947387	0.072485976
13	0x3db40247	0.08789497
14	0x3dc8171e	0.09770034
15	0x3d2adcd3	0.0417145

classifier.10.weight f4 [10, 16]
0	0xbef1ce97	-0.47227928
1	0xbe47509d	-0.19464345
2	0x3eb515d2	0.3536821
3	0xbecb5315	-0.39711824
4	0x3ebc4804	0.36773694
5	0xbeac0c53	-0.33603153
6	0xbe37882c	-0.17923039
7	0xbeb81fef	-0.35961863
8	0xbd92eb8e	-0.07173835
9	0xbe86508c	-0.26233327
10	0xbee9514d	-0.4556984
11	0xbf06c0d5	-0.5263799
12	0x3ee78d6b	0.4522508
13	0xbec659cd	-0.38740388
14	0xbe3dc0af	-0.18530534
15	0x3eeb4242	0.45948988
16	0xbe9ea5b6	-0.30985802
17	0xbea38cf4	-0.31943476
18	0x3e743a5d	0.23850389
19	0xbea6cec1	-0.32579616
20	0xbf032819	-0.5123306
21	0x3de6368e	0.11240874
22	0xbecd58c9	-0.401068
23	0xbd9a467a	-0.075329736
24	0xbe6e0f3d	-0.23248
25	0xbe9c633e	-0.30544466
26	0x3ea3b5b7	0.31974575
27	0x3e9b0488	0.30276895
28	0xbea8e726	-0.32988852
29	0x3ee99de8	0.45628285
30	0xbf02a231	-0.51028734
31	0xbde56d9f	-0.11202549
32	0x3efc6f9a	0.49303895
33	0xbed52262	-0.41627795
34	0xbee9b477	-0.45645496
35	0xbe5886f1	-0.21145226
36	0xbdc06c3c	-0.09395644
37	0xbee150dc	-0.44007003
38	0x3f103e89	0.5634542
39	0xbe555217	-0.20832096
40	0x3d0abd11	0.033871714
41	0xbebe4e6c	-0.37169206
42	0xbdca4489	-0.09876353
43	0xbee2ddd1	-0.44309857
44	0x3e6d0832	0.23147658
45	0xbe205d68	-0.15660632
46	0x3e9f8bea	0.31161433
47	0xbe16785a	-0.14694348
48	0x3ca214c1	0.019785287
49	0x3aaaedb1	0.0013040808
50	0x3ee6951b	0.45035633
51	0xbea0ffed	-0.31445256
52	0xbeb73340	-0.35781288
53	0xbebd79bd	-0.3700694
54	0xbdc92f57	-0.098234825
55	0x3efa53c3	0.4889203
56	0xbe921265	-0.2852966
57	0xbe9b6c6e	-0.30356163
58	0xbe702430	-0.23451304
59	0xbea2bbf3	-0.3178402
60	0xbeff2c2a	-0.49838382
61	0xbe6ea9b7	-0.23306929
62	0x3ec3166a	0.38103038
63	0x3eeea080	0.46606827
64	0x3e422e20	0.18962908
65	0xbede89ac	-0.4346441
66	0xbedc42ae	-0.43019623
67	0xbec9fa78	-0.39448905
68	0xbeb48cb1	-0.3526359
69	0xbed178ac	-0.40912378
70	0x3e9ccbf1	0.30624345
71	0xbec99f0c	-0.39379156
72	0xbe3fac20	-0.18718004
73	0x3e441d2d	0.19151755
74	0xbeddafaa	-0.43298084
75	0x3efab378	0.4896505
76	0xbf0c70ec	-0.54859805
77	0xbeaebe2a	-0.3412946
78	0x3ec9a342	0.39382368
79	0xbe3cc7da	-0.18435612
80	0xbed61324	-0.41811478
81	0xbec4f52c	-0.384683
82	0xbe9413fd	-0.289215
83	0x3ec02677	0.37529346
84	0x3ef0e775	0.47051588
85	0x3e611f88	0.21984684
86	0xbe8f57b1	-0.2799659
87	0xbec51c9d	-0.38498393
88	0x3c614204	0.0137486495
89	0xbe146fbf	-0.14495753
90	0x3f01440e	0.5049447
91	0xbee61ee1	-0.44945434
92	0xbeed1e85	-0.46312347
93	0xbed07dc2	-0.40720946
94	0xbe91282f	-0.2835097
95	0xbef260fc	-0.47339618
96	0x3e154d2f	0.14580224
97	0xbed0a531	-0.4075103
98	0x3e0dbd50	0.13841748
99	0xbda8cc5c	-0.082421035
100	0x3dda969c	0.10673258
101	0xbefedecc	-0.49779356
102	0xbe886621	-0.26640418
103	0xbea7bb68	-0.32760167
104	0xbed0dc48	-0.4079306
105	0x3f141d80	0.57857513
106	0xbe96eaf7	-0.2947614
107	0xbe48165c	-0.1953978
108	0x3ee11722	0.4396296
109	0xbebdfb39	-0.3710573
110	0x3ec68c29	0.3877881
111	0xbeb481d1	-0.35255292
112	0xbe889682	-0.26677328
113	0x3ef19aaf	0.47188327
114	0xbe76c05c	-0.24096817
115	0x3e9490c2	0.2901669
116	0xbf0a8f3a	-0.54124796
117	0x3e975ef3	0.29564628
118	0xbeb30b75	-0.3496968
119	0x3ea57616	0.32316655
120	0x3ed1ce0e	0.4097752
121	0x3e487860	0.1957717
122	0xbec9234b	-0.3928474
123	0xbeab6593	-0.33475932
124	0xbda592a4	-0.0808461
125	0xbe8c8fa4	-0.2745334
126	0xbd4cc49a	-0.04999218
127	0xbea5b18b	-0.32362017
128	0xbe04fe7b	-0.12987702
129	0xbeb3e32d	-0.3513426
130	0xbda20e60	-0.07912898
131	0x3ee43571	0.44572023
132	0xbef7db7c	-0.4840964
133	0xbee9bfda	-0.45654184
134	0xbec3ec3e	-0.38266176
135	0xbebdd1f5	-0.37074247
136	0x3ef9afb1	0.48766854
137	0xbec783eb	-0.38967833
138	0xbd8c788e	-0.068589315
139	0x3eb15d54	0.34641516
140	0x3e30ed0e	0.17277929
141	0xbebf0403	-0.37307748
142	0xbec9bac6	-0.3940031
143	0x3eff0e9c	0.49815834
144	0xbee049cc	-0.43806303
145	0x3ef6f832	0.48236233
146	0xbef9fd04	-0.48825848
147	0xbe8eaec9	-0.27867725
148	0x3ee48ac4	0.4463712
149	0xbefeca62	-0.4976378
150	0xbecae547	-0.3962805
151	0xbed1cb81	-0.40975574
152	0x3ef70bf6	0.48251313
153	0xbe8227d1	-0.25421003
154	0xbeb62c11	-0.35580495
155	0xbeca8e78	-0.3956182
156	0xbe8c35a0	-0.27384663
157	0x3f004ad6	0.5011419
158	0xbeab185b	-0.3341702
159	0xbef15ac8	-0.47139573

classifier.10.bias f4 [10]
0	0x3ec50122	0.38477427
1	0x3e076447	0.13221847
2	0x3cf2ee43	0.029654628
3	0xbbdcd1c5	-0.0067388737
4	0x3ecea629	0.40361145
5	0x3e58238b	0.21107309
6	0x3d3e22cd	0.046419907
7	0xbed007c9	-0.4063094
8	0xbe6fe6aa	-0.23427835
9	0x3e322c04	0.17399603

exp_avg f4 [16, 784]
0	0xb3084b67	-3.1733546e-08
1	0xb57e5a3e	-9.4753693e-07
2	0xb6a9fa5a	-5.0657372e-06
3	0xb7692a98	-1.3897799e-05
4	0x3807080b	3.2194e-05
5	0x37c4838f	2.3426282e-05
6	0x38ab4dc4	8.1684004e-05
7	0x39863d42	0.00025604112
8	0x39ba1585	0.00035492718
9	0xb8d5aa6d	-0.00010188376
10	0x3a8574c6	0.0010181896
11	0x3a4566b5	0.0007530258
12	0x38816bf8	6.17131e-05
13	0xba29e9ac	-0.0006481658
14	0x38caeff0	9.6768024e-05
15	0xb8ced099	-9.8617e-05
16	0x3a84aef0	0.0010122936
17	0x3a487112	0.00076462433
18	0x3a1395a9	0.0005629906
19	0xb875296c	-5.845113e-05
20	0xb8970743	-7.201594e-05
21	0x38d79363	0.00010279452
22	0xb8ea5458	-0.000111737
23	0xb58d1470	-1.0511267e-06
24	0x37e249f1	2.6975731e-05
25	0xb7f967d7	-2.9731467e-05
26	0xb6b4cf7e	-5.3885733e-06
27	0xb6eecde0	-7.1169197e-06
28	0x3654e5ca	3.1724217e-06
29	0x36b3e65c	5.361433e-06
30	0xb716dbee	-8.991903e-06
31	0x3736b109	1.0889265e-05
32	0x38828ef3	6.2255094e-05
33	0x39983cb8	0.00029036938
34	0x393d82f8	0.00018073234
35	0x398c6f03	0.0002678559
36	0x39b674fc	0.00034800905
37	0x3a23c094	0.0006246653
38	0x3a84032b	0.0010071745
39	0xb9a5d54d	-0.00031630174
40	0xba57277d	-0.00082074833
41	0xb8d90ff2	-0.000103503364
42	0xb94c42f6	-0.00019479901
43	0xbab4be64	-0.0013789651
44	0xba2d38e2	-0.00066079025
45	0x3ac2111d	0.0014806126
46	0x3ad70918	0.0016405908
47	0x39908333	0.0002756357
48	0x38d8d515	0.00010339372
49	0x39907662	0.00027554022
50	0xb95a44a6	-0.00020815674
51	0xb81ae3ee	-3.6928737e-05
52	0x38013e20	3.0813855e-05
53	0xb8560cc5	-5.103347e-05
54	0xb6faca86	-7.4741574e-06
55	0x36e88435	6.9295297e-06
56	0x36b24370	5.312664e-06
57	0x3616f4a4	2.2494141e-06
58	0xb61c0623	-2.3249384e-06
59	0xb7a9139d	-2.0155503e-05
60	0x38bf41a4	9.119816e-05
61	0x38fcd9f4	0.00012056893
62	0x3938fea8	0.00017642474
63	0x3a43dd03	0.0007471593
64	0x3a8fea50	0.0010979865
65	0xb93a1371	-0.00017745585
66	0xba1025fe	-0.00054988253
67	0xba2c0ee7	-0.00065635
68	0xbaa49b14	-0.0012558424
69	0xbaaa2de2	-0.0012983645
70	0xbab3281d	-0.0013668571
71	0xbaa1039c	-0.0012284401
72	0xbaa734bb	-0.0012756804
73	0x384566a3	4.7064048e-05
74	0x3a3f534f	0.0007298486
75	0x3a07bcf3	0.0005177997
76	0x3a3819e8	0.00070229033
77	0x3a489ae6	0.0007652476
78	0xb7029003	-7.782134e-06
79	0x38ad7350	8.2707615e-05
80	0x399e3cfe	0.0003018155
81	0x36f51b84	7.304772e-06
82	0x37395e8a	1.1048871e-05
83	0xb518202f	-5.6671246e-07
84	0x3680669e	3.8266435e-06
85	0x36e5eae3	6.8520762e-06
86	0xb6afc7fa	-5.2386868e-06
87	0xb8055adc	-3.179429e-05
88	0x38ef7b2a	0.00011419349
89	0x39bd3a3e	0.00036092283
90	0x39920d33	0.00027857124
91	0x3a3ad136	0.0007126512
92	0x39b57a2f	0.00034614044
93	0xba865cc9	-0.0010251041
94	0xba21bba9	-0.0006169626
95	0x388d80db	6.747405e-05
96	0xb7e1eec3	-2.6933272e-05
97	0xba5c2bf1	-0.0008398882
98	0xb91c8d79	-0.00014930022
99	0xb9af531a	-0.00033440517
100	0x381ac9fe	3.690458e-05
101	0x3a2172be	0.00061587605
102	0x3974285d	0.0002328469
103	0xb98dd128	-0.0002704945
104	0xb8317681	-4.2310454e-05
105	0x3a139c72	0.0005630917
106	0x39ec142c	0.00045028457
107	0x37ce4f95	2.4594172e-05
108	0x38f9311e	0.00011882394
109	0xb6de28e9	-6.620878e-06
110	0xb80ace39	-3.3093824e-05
111	0xb75b1136	-1.3057424e-05
112	0x368997e8	4.1006024e-06
113	0x37505994	1.2418623e-05
114	0xb75b0956	-1.3055591e-05
115	0x382f2f42	4.1767264e-05
116	0x39ae3d24	0.0003323342
117	0x395bbb26	0.00020955186
118	0xb9c5ff3c	-0.00037764932
119	0xb8a26d44	-7.745114e-05
120	0xba04bad6	-0.0005063241
121	0xbaaed854	-0.0013339617
122	0xb9df4263	-0.00042583336
123	0xb9cb0a8d	-0.00038727038
124	0xb9943737	-0.00028269898
125	0xb965800e	-0.00021886846
126	0x38ab851b	8.178708e-05
127	0x397f5d61	0.00024353481
128	0x38e65203	0.000109825305
129	0xb8859cea	-6.371162e-05
130	0xb979f2a4	-0.00023836881
131	0xba20db69	-0.000613621
132	0xb9c2c4a8	-0.00037149084
133	0xb989fc8a	-0.00026318833
134	0x37e6c587	2.7510117e-05
135	0x3957cf2d	0.00020581177
136	0x39181bff	0.00014506279
137	0xb97c995a	-0.0002408972
138	0xb8cc7c7e	-9.7506665e-05
139	0x34e8d571	4.3368667e-07
140	0x3615d8f0	2.2329004e-06
141	0xb6d53caa	-6.354957e-06
142	0xb75866fd	-1.2898582e-05
143	0x362aadbd	2.5433103e-06
144	0x37a0f689	1.9188288e-05
145	0xb989c517	-0.0002627752
146	0xba3688de	-0.0006963144
147	0xb9d22e60	-0.00040088873
148	0xba827baf	-0.0009955073
149	0xbac7a8bf	-0.0015232785
150	0xb9f8fc9b	-0.00047490452
151	0xb992a106	-0.00027967262
152	0x3917a507	0.0001446196
153	0x3a0515f7	0.00050768204
154	0x39d1361c	0.000399039
155	0xb8979346	-7.227673e-05
156	0xb932a51b	-0.0001703691
157	0xb9807c32	-0.00024506595
158	0xb9b8496e	-0.00035149924
159	0xba5a857c	-0.0008335931
160	0xba16f9c5	-0.00057592645
161	0xba58155e	-0.000824293
162	0xba441f9f	-0.00074815186
163	0x39280871	0.00016024873
164	0x38b72e16	8.734704e-05
165	0xb98a94c1	-0.0002643224
166	0xb9645496	-0.00021775285
167	0xb7f2f956	-2.8964754e-05
168	0xb75319a6	-1.2582552e-05
169	0xb8be9a2a	-9.088621e-05
170	0xb7df034f	-2.6585212e-05
171	0x3882257f	6.205867e-05
172	0xb9e6af60	-0.00043999683
173	0xb9dc23ef	-0.00041988443
174	0xba46d917	-0.00075854495
175	0xb9e52f68	-0.00043713604
176	0xb9e4f3b5	-0.00043669125
177	0xba5fc28a	-0.00085357635
178	0xb9f4afa7	-0.00046670178
179	0x391a8f41	0.0001473995
180	0x3a344cb1	0.0006877883
181	0x39e9aa07	0.00044567903
182	0xb8ce0dc7	-9.825412e-05
183	0x39928ca2	0.0002795207
184	0xb8cef5bc	-9.868617e-05
185	0xb8a71879	-7.967739e-05
186	0x38cae31c	9.674413e-05
187	0xba01a648	-0.00049457373
188	0xba240ec7	-0.00062583055
189	0xba434f9c	-0.00074505224
190	0xba0aa3f9	-0.0005288716
191	0x3a2ca79a	0.0006586254
192	0xb88a6e04	-6.600845e-05
193	0xb80df7e4	-3.3847886e-05
194	0xb94229f8	-0.00018516916
195	0xb83b2b31	-4.46245e-05
196	0xb5af5af4	-1.3064987e-06
197	0xb8ad989f	-8.277711e-05
198	0xb88e27b5	-6.778484e-05
199	0x38a61889	7.920067e-05
200	0xba541344	-0.0008090029
201	0xba1fea4c	-0.00061002816
202	0xba8ec2ac	-0.0010891757
203	0xb9cd025b	-0.00039102402
204	0xb97df0f4	-0.00024217722
205	0xba5bbcac	-0.00083823013
206	0xba192869	-0.00058425084
207	0x3a0fa97c	0.0005480272
208	0x392cb33c	0.00016469968
209	0x3a8cac3c	0.0010732482
210	0x3925e198	0.00015819666
211	0x398405d2	0.00025181338
212	0x398c08eb	0.00026709525
213	0xb79a6a47	-1.840772e-05
214	0x38c8203f	9.5427495e-05
215	0xb86eca69	-5.693213e-05
216	0xba18d21c	-0.00058296486
217	0xba4f04b5	-0.0007897125
218	0xba0a2e87	-0.00052712153
219	0x3a2deb39	0.0006634477
220	0x39250eef	0.0001574119
221	0x3808475f	3.2491396e-05
222	0xb8ad8ad3	-8.275141e-05
223	0xb8d5c228	-0.00010192796
224	0x37407ff1	1.14738805e-05
225	0xb914ff21	-0.00014209423
226	0xb7df66ce	-2.6631544e-05
227	0x37eac787	2.7987886e-05
228	0xba8612c4	-0.0010228981
229	0xba9fcf2f	-0.0012192483
230	0xba41c36a	-0.00073914847
231	0xba343d4e	-0.000687559
232	0xb86a5986	-5.5873323e-05
233	0xba480362	-0.00076298986
234	0xb9fcf57d	-0.0004824809
235	0x3a1568a1	0.000569949
236	0x398caa21	0.00026829637
237	0x3a2986a1	0.00064668996
238	0x39fb761e	0.00047962455
239	0x3a242a84	0.0006262439
240	0xb9bcf5b0	-0.00036041206
241	0xba30bd7b	-0.0006742102
242	0xb6c0da4c	-5.747459e-06
243	0xb9028183	-0.00012446013
244	0xba090fdf	-0.00052285
245	0xb6b33141	-5.3403496e-06
246	0xb9cdeb58	-0.00039275992
247	0x3996415f	0.00028658935
248	0x39708610	0.00022938126
249	0xb97d1290	-0.00024134875
250	0xb9200afb	-0.0001526288
251	0xb8903147	-6.875634e-05
252	0x37e5ae27	2.7380023e-05
253	0xb80ea19b	-3.4005945e-05
254	0x3884d639	6.3341526e-05
255	0xb9263bfc	-0.0001585334

exp_avg_sq f4 [16, 784]
0	0x2d5357b7	1.2013438e-11
1	0x2e6bd26e	5.3619713e-11
2	0x2fd7a8f0	3.922831e-10
3	0x314d2061	2.9849831e-09
4	0x32342f90	1.0488193e-08
5	0x322f2b94	1.0196249e-08
6	0x328a96cf	1.6133894e-08
7	0x338c84b5	6.543397e-08
8	0x3470b416	2.2417257e-07
9	0x3545ec8e	7.373245e-07
10	0x363b8d46	2.7947403e-06
11	0x36a6f748	4.975973e-06
12	0x36e9d828	6.969105e-06
13	0x370f25a8	8.532232e-06
14	0x370ee32d	8.516753e-06
15	0x371014b8	8.587893e-06
16	0x36c4832d	5.856526e-06
17	0x36745a14	3.6411266e-06
18	0x3600abb7	1.9173438e-06
19	0x3510d05a	5.394737e-07
20	0x34499962	1.8775384e-07
21	0x339427e1	6.899041e-08
22	0x334f49f2	4.8263196e-08
23	0x32fbb36b	2.9301836e-08
24	0x322613e6	9.666996e-09
25	0x3170b960	3.502997e-09
26	0x30dfb522	1.6276867e-09
27	0x304f4a0c	7.541139e-10
28	0x2e9bbca5	7.082094e-11
29	0x2fa16996	2.9360753e-10
30	0x313ba262	2.7304385e-09
31	0x3202deae	7.617627e-09
32	0x32b5fb96	2.1185581e-08
33	0x33585d15	5.0376077e-08
34	0x3489fe83	2.570342e-07
35	0x358b4acd	1.0378077e-06
36	0x3650761a	3.106316e-06
37	0x36e92657	6.9484045e-06
38	0x3764c5d9	1.3635924e-05
39	0x37a21e8d	1.9326131e-05
40	0x37bf9797	2.2839564e-05
41	0x37b2980c	2.1290056e-05
42	0x37adf623	2.0737823e-05
43	0x37bfbd29	2.2857059e-05
44	0x37aae7b5	2.0373476e-05
45	0x3780c706	1.5351467e-05
46	0x372df0e2	1.0367688e-05
47	0x3691b0fc	4.3419404e-06
48	0x35eb39b3	1.7525657e-06
49	0x35382b5b	6.860843e-07
50	0x34884a42	2.5386004e-07
51	0x340f9d61	1.3375167e-07
52	0x33c498cf	9.154757e-08
53	0x32e52dc0	2.6679913e-08
54	0x323ee896	1.11123395e-08
55	0x31548df8	3.093076e-09
56	0x2f83d4ad	2.3979876e-10
57	0x3036cf4d	6.6505806e-10
58	0x31869109	3.916402e-09
59	0x32345b32	1.0498114e-08
60	0x33244ae3	3.8252335e-08
61	0x34c8096b	3.7259755e-07
62	0x35e98a78	1.7400153e-06
63	0x367d98ae	3.778881e-06
64	0x36ef9153	7.139673e-06
65	0x375ecf5a	1.3280509e-05
66	0x37ad755c	2.0677857e-05
67	0x37c1d8d4	2.3108361e-05
68	0x37bc5729	2.2451934e-05
69	0x37add6b8	2.0723193e-05
70	0x37abca9f	2.0479141e-05
71	0x37afb4e8	2.0945867e-05
72	0x37b8c046	2.2024044e-05
73	0x37b586de	2.1639684e-05
74	0x37923ec7	1.743379e-05
75	0x371a7185	9.205546e-06
76	0x36984be8	4.5387897e-06
77	0x364728fd	2.967717e-06
78	0x35a20bbc	1.2073356e-06
79	0x34e4b3f7	4.259925e-07
80	0x34a255fa	3.0237408e-07
81	0x33df7611	1.0405723e-07
82	0x32ead794	2.7339219e-08
83	0x31588d9e	3.1512637e-09
84	0x30193aa7	5.5744426e-10
85	0x310d0765	2.0522404e-09
86	0x31a3498d	4.752286e-09
87	0x32545b46	1.2360777e-08
88	0x34107d3a	1.3456602e-07
89	0x35b24020	1.3280696e-06
90	0x36772bf5	3.6831455e-06
91	0x36cac893	6.043419e-06
92	0x372d6f75	1.0337554e-05
93	0x37975913	1.8042081e-05
94	0x37bd8910	2.259438e-05
95	0x37be9a66	2.2721662e-05
96	0x37be6c04	2.2700064e-05
97	0x37c2f063	2.3238541e-05
98	0x37bdf42d	2.2644259e-05
99	0x37befebb	2.2768383e-05
100	0x37c3e992	2.3354576e-05
101	0x37bf37e6	2.2795004e-05
102	0x37b2b521	2.1303598e-05
103	0x376c9527	1.4101423e-05
104	0x37096f11	8.191696e-06
105	0x36ae0930	5.1866737e-06
106	0x3657eccf	3.2175337e-06
107	0x35a6b004	1.2419191e-06
108	0x352f5831	6.5320916e-07
109	0x34ba8173	3.4739386e-07
110	0x33d23f32	9.790382e-08
111	0x320780c1	7.8873095e-09
112	0x30844d14	9.626171e-10
113	0x31e4dc1c	6.660697e-09
114	0x324085f3	1.1206327e-08
115	0x333bb6be	4.3705533e-08
116	0x34ea53c0	4.3646833e-07
117	0x362ff2fa	2.6218463e-06
118	0x36b874d2	5.497227e-06
119	0x370ccc09	8.392156e-06
120	0x375ecf93	1.3280561e-05
121	0x37abaf28	2.0466352e-05
122	0x37cfa86c	2.475475e-05
123	0x37d2a38b	2.5110106e-05
124	0x37d57c4d	2.544946e-05
125	0x37d426bb	2.5290405e-05
126	0x37cfca11	2.4770417e-05
127	0x37d341db	2.5183826e-05
128	0x37cdfec3	2.4556537e-05
129	0x37c99085	2.4028364e-05
130	0x37bb5af3	2.2334489e-05
131	0x378b56a7	1.6610442e-05
132	0x373bdd1c	1.119755e-05
133	0x3700b4f9	7.6715305e-06
134	0x36ad2be6	5.160912e-06
135	0x3614447a	2.2093577e-06
136	0x359bad31	1.1598805e-06
137	0x3537a7f9	6.8417245e-07
138	0x342b13f2	1.5932872e-07
139	0x3232cc9b	1.04074855e-08
140	0x3135c653	2.64517e-09
141	0x32de5eec	2.5887367e-08
142	0x33420a18	4.5178325e-08
143	0x33c22854	9.0411646e-08
144	0x354b7dac	7.580627e-07
145	0x366dbed7	3.5426835e-06
146	0x36e06fef	6.688751e-06
147	0x37235bd1	9.736935e-06
148	0x37879349	1.6161839e-05
149	0x37c67e92	2.3662378e-05
150	0x37dd484d	2.637892e-05
151	0x37d6a42e	2.558724e-05
152	0x37d8b809	2.5834905e-05
153	0x37d0e24e	2.4900914e-05
154	0x37d0e0f9	2.4900293e-05
155	0x37d05493	2.4834915e-05
156	0x37c94d37	2.3997023e-05
157	0x37c096f5	2.2958478e-05
158	0x37b92d23	2.2074737e-05
159	0x37a07b2a	1.9130839e-05
160	0x37602409	1.33598305e-05
161	0x3721e2aa	9.649122e-06
162	0x36e9b686	6.9651896e-06
163	0x3663a855	3.3923618e-06
164	0x35e0c7a6	1.6747406e-06
165	0x358c9274	1.0473436e-06
166	0x3486165c	2.4975714e-07
167	0x32829695	1.5202469e-08
168	0x32071308	7.862361e-09
169	0x3391a9c0	6.782966e-08
170	0x340c5a98	1.3071474e-07
171	0x34842c09	2.4618956e-07
172	0x35995747	1.1424789e-06
173	0x3686f1a0	4.02164e-06
174	0x36fbdca2	7.506068e-06
175	0x3734b322	1.0770544e-05
176	0x37966f46	1.793321e-05
177	0x37d0b9b9	2.4882016e-05
178	0x37d924f0	2.5885616e-05
179	0x37d53ca7	2.5419822e-05
180	0x37d2292f	2.5053128e-05
181	0x37cd98ad	2.4509e-05
182	0x37c8e6f8	2.3949411e-05
183	0x37c9360b	2.3986233e-05
184	0x37bccbeb	2.2506303e-05
185	0x37b54ca7	2.1612575e-05
186	0x37b539a1	2.1603717e-05
187	0x379e07e2	1.8838738e-05
188	0x376d08c1	1.4128339e-05
189	0x372fbcd8	1.0474781e-05
190	0x370a45c1	8.241682e-06
191	0x36a029e9	4.7732506e-06
192	0x36190e51	2.280711e-06
193	0x35b11cf0	1.319595e-06
194	0x34d5ee30	3.9847646e-07
195	0x33382076	4.287036e-08
196	0x32a78e3f	1.9506045e-08
197	0x3418341d	1.4175062e-07
198	0x348fd775	2.679259e-07
199	0x34cfabf6	3.8681873e-07
200	0x35bea605	1.4204421e-06
201	0x36972a3b	4.505067e-06
202	0x370f5d78	8.545227e-06
203	0x374258a4	1.1583939e-05
204	0x379c8b72	1.8661583e-05
205	0x37d68408	2.557227e-05
206	0x37dbf21c	2.6219575e-05
207	0x37d70c4e	2.5635727e-05
208	0x37d8b5e0	2.5833899e-05
209	0x37d00da7	2.480189e-05
210	0x37c40583	2.3367587e-05
211	0x37c56247	2.3529994e-05
212	0x37b611c5	2.1704365e-05
213	0x37ad8615	2.0685644e-05
214	0x37af4dee	2.0897915e-05
215	0x379a5612	1.839831e-05
216	0x3766a0c8	1.3746503e-05
217	0x3733e43b	1.07223705e-05
218	0x371e7060	9.443698e-06
219	0x36be62a8	5.6739264e-06
220	0x3653afc1	3.1543752e-06
221	0x35f2edc0	1.8099599e-06
222	0x3522947d	6.056578e-07
223	0x33c118d0	8.991776e-08
224	0x32dfc4a9	2.6050047e-08
225	0x34544909	1.9770609e-07
226	0x34d1d48a	3.9083926e-07
227	0x351536b8	5.558645e-07
228	0x35d39591	1.5764255e-06
229	0x36aa754e	5.080051e-06
230	0x371b7008	9.264804e-06
231	0x37530f25	1.2580106e-05
232	0x37a18d8b	1.9258607e-05
233	0x37d50205	2.539252e-05
234	0x37da0231	2.5988646e-05
235	0x37d95556	2.5908153e-05
236	0x37d766de	2.5677899e-05
237	0x37cec6bb	2.4649655e-05
238	0x37b40c2f	2.1463346e-05
239	0x37bbe014	2.2396482e-05
240	0x37b09b2c	2.1053092e-05
241	0x37a0547c	1.9112827e-05
242	0x379aff70	1.8477178e-05
243	0x379586e6	1.7825001e-05
244	0x376685c9	1.3740218e-05
245	0x3736718e	1.0874484e-05
246	0x3733b383	1.0711027e-05
247	0x36dda672	6.60569e-06
248	0x36715a00	3.5964185e-06
249	0x36170ee4	2.250942e-06
250	0x3597a8c2	1.1299492e-06
251	0x342d51d0	1.6141644e-07
252	0x332aa3ad	3.973007e-08
253	0x34bb80ff	3.492532e-07
254	0x35050912	4.955956e-07
255	0x353ba833	6.990769e-07

exp_avg f4 [16]
0	0x2f9bd0e8	2.8342773e-10
1	0xad4cb53a	-1.1636298e-11
2	0xaeab92ed	-7.802279e-11
3	0xafa862d2	-3.0629238e-10
4	0xaf2a49fe	-1.5487697e-10
5	0x302a0a1d	6.186001e-10
6	0x2fe4b1ce	4.1599296e-10
7	0x30e4a5d5	1.6636316e-09
8	0x30254370	6.0122485e-10
9	0x304b9fd2	7.407809e-10
10	0xaf89c305	-2.5058725e-10
11	0xaf854ffb	-2.4249389e-10
12	0x2f92d44b	2.6708089e-10
13	0xaf988a69	-2.7746985e-10
14	0xb0950155	-1.0841555e-09
15	0xaeabf75f	-7.8201216e-11

exp_avg_sq f4 [16]
0	0x214989a9	6.828364e-19
1	0x21853c15	9.028334e-19
2	0x2196dbc8	1.0222571e-18
3	0x218fc4b2	9.742122e-19
4	0x217b690c	8.5181136e-19
5	0x219ba3eb	1.0546597e-18
6	0x20ed5a5c	4.0209157e-19
7	0x222b41f6	2.320974e-18
8	0x2260987e	3.043839e-18
9	0x21e9e191	1.5848401e-18
10	0x2188a7f3	9.260174e-19
11	0x218d833f	9.589272e-19
12	0x219a326d	1.0448794e-18
13	0x2200a2bc	1.7433386e-18
14	0x2247942d	2.7047973e-18
15	0x2118edde	5.181442e-19

exp_avg f4 [16]
0	0x3a3ceab1	0.00072066026
1	0xb99cbd4f	-0.00029895685
2	0xba361781	-0.00069462514
3	0xbaaf7867	-0.0013387323
4	0xba7c246a	-0.0009618463
5	0xba39e703	-0.00070916134
6	0x3af6378b	0.0018784864
7	0x3af75687	0.0018870392
8	0xba59b6c9	-0.000830513
9	0x3abddb00	0.0014484823
10	0x3a005be4	0.0004896505
11	0xbab62165	-0.001389545
12	0xba4dd10c	-0.000785128
13	0xba7db3da	-0.0009677984
14	0x3a875220	0.0010324158
15	0x3a7197b5	0.00092160265

exp_avg_sq f4 [16]
0	0x36d784ef	6.422975e-06
1	0x37828ca4	1.5562699e-05
2	0x3780ae51	1.5339961e-05
3	0x37b19295	2.1168302e-05
4	0x370ad222	8.274366e-06
5	0x36fe7bfc	7.5842236e-06
6	0x3705fd80	7.98644e-06
7	0x377d81cf	1.5110199e-05
8	0x3791673b	1.7333417e-05
9	0x378d129a	1.6817172e-05
10	0x3734d8b8	1.0779295e-05
11	0x37a116b2	1.9203264e-05
12	0x3747dfe2	1.1913451e-05
13	0x37ee2c6d	2.8392498e-05
14	0x37db19de	2.611888e-05
15	0x37818e21	1.5444182e-05

exp_avg f4 [16]
0	0x3af88a14	0.0018962049
1	0xba6cc6f6	-0.0009032333
2	0x3a7bb7be	0.000960227
3	0x3919fcb5	0.00014685358
4	0xbab482f3	-0.0013771936
5	0xbb06518b	-0.002049538
6	0xb7b07bd3	-2.1038495e-05
7	0x3b0a082d	0.0021062002
8	0x38dfd3b5	0.00010672902
9	0x3a160cd6	0.00057239586
10	0x3a2e9d67	0.0006661028
11	0xbb234734	-0.0024914267
12	0xba2e1875	-0.00066412176
13	0xb9fb6175	-0.00047947062
14	0x3a235402	0.00062304747
15	0x3a88b23b	0.0010429093

exp_avg_sq f4 [16]
0	0x37204749	9.5533405e-06
1	0x38003d94	3.0574927e-05
2	0x37976b38	1.805053e-05
3	0x37a86ca4	2.007775e-05
4	0x374f3ca0	1.2352277e-05
5	0x373145d2	1.0566278e-05
6	0x37149ffc	8.858737e-06
7	0x378d3772	1.6834329e-05
8	0x380ee925	3.407257e-05
9	0x3795a6bb	1.7839824e-05
10	0x37104b15	8.60055e-06
11	0x36d8346d	6.443405e-06
12	0x37d41116	2.5280326e-05
13	0x381f244e	3.7942365e-05
14	0x37cbbb95	2.4286835e-05
15	0x376d6400	1.4149584e-05
