lightning_logs/version_1/checkpoints/last.ckpt (torch, 369102 bytes, 48 tensors)

classifier.1.weight f4 [32, 784]
-0.014654686 0.037181426 -0.0576857 0.00013683118 0.10627201 0.10496193 0.048573375 0.039562546
-0.020367809 -0.028485259 -0.078540295 0.00067976216 -0.0634235 -0.0032611198 -0.0023990911 -0.05689661
0.039938524 0.0015916537 0.028935779 -0.06322961 -0.009572996 0.045553774 0.057162926 0.034006298
0.028543217 -0.103234105 -0.07755866 0.06809839 0.038472462 0.097299576 -0.18508053 0.03440963
0.019088268 -0.019016225 0.039415903 0.020108579 -0.018641124 -0.021756317 -0.036462463 0.018172776
-0.11364099 -0.02586402 0.040594812 0.031929947 0.03968585 0.013702728 0.021386975 0.045838233
0.0841257 0.0055276947 -0.02164761 0.0687564 -0.030367538 -0.07410412 0.12870234 0.14091459
0.23292057 0.011406959 0.008392005 0.009453844 -0.00078999903 0.058283754 -0.028611656 0.032311007
-0.01315367 0.027715249 -0.029287051 -0.10915705 -0.025591211 0.061760936 0.021600947 0.016030997
-0.0069538048 0.054656763 0.06087565 0.056791678 0.004754751 0.0622107 0.05647994 -0.062917046
0.043395773 -0.03204536 -0.02050512 0.19606537 0.048161276 -0.10218853 -0.0709194 0.041089933
0.04737994 0.002276786 -0.051657546 -0.0259181 0.02362275 0.027289571 -0.047979776 -0.03329791
8.7811575e-05 -0.003095744 0.012195866 0.009954033 0.022754144 0.021259747 0.045411725 0.013299288
0.03351752 0.037490714 0.034510765 -0.120084725 -0.02687029 0.061572097 -0.027725669 -0.053734224
-0.04261809 -0.12968461 0.025880069 0.023356704 0.015410099 0.016291132 -0.014659315 0.0025313187
0.00055931497 -0.042620126 -0.05584142 0.026731439 0.05359441 -0.007120132 0.041543458 -0.0122022545
0.03788491 -0.08573236 -0.0284753 0.0777178 0.0311802 0.03363646 0.06563555 0.027606985
-0.011226918 0.061547242 -0.030871818 -0.08417625 0.20418166 -0.047375835 -0.044817433 -0.007643692
0.062485993 0.059857804 -0.03204216 -0.03410006 -0.035532057 -0.029637476 0.047173165 0.045063328
-0.06720509 0.014218044 0.04592133 -0.021793317 0.01622805 0.0955013 -0.028294213 -0.064434394
-0.047587328 -0.020493712 0.010958532 0.12780128 0.04716025 0.04211661 -0.09937462 -0.007878211
0.0454278 -0.03926833 0.046037715 -0.03816464 -0.007003385 0.037209243 -0.040714476 -0.007664712
-0.05181953 -0.024970934 -0.029193884 0.11062751 0.029017402 0.035241988 -0.0033833873 -0.0037434883
0.0019354143 0.008262664 0.0026317383 0.037604637 -0.044126227 -0.034593545 -0.08071004 0.020063015
0.04830577 0.074560404 -0.03584866 -0.007779138 -0.005767245 0.015758434 0.05740544 -0.036422424
-0.0181643 -0.019007863 -0.036464017 0.0023658038 -0.002077385 -0.008862891 -0.047900632 0.069581546
-0.007260074 -0.04200505 -0.0049617332 -0.0004918996 -0.02653458 -0.015610296 -0.014944615 -0.017887732
-0.0009792654 0.007555607 -0.051078662 -0.03204435 0.0579395 0.043157298 -0.032624494 0.009258088
0.08052107 0.025733555 0.059294555 -0.010149145 -0.051157042 0.0067976844 0.016935365 0.026623502
-0.0009636951 -0.0028728433 0.03792493 0.008847096 0.029366272 -0.008667805 0.0041085025 0.0018336812
-0.002228629 -0.0052060215 -0.02526216 0.016108362 0.037300423 0.009424284 0.019413944 -0.017796127
-0.033560447 -0.019546086 -0.014855823 -0.0034591442 0.11715162 -0.0061076316 0.086311944 -0.013136589
00000000: 351a 70bc 8d4b 183d d747 6cbd 577a 0f39
00000010: 24a5 d93d 48f6 d63d e0f4 463d 560c 223d
00000020: 64da a6bc eb59 e9bc bcd9 a0bd 1132 323a
00000030: 2ee4 81bd 83b8 55bb 123a 1dbb 6b0c 69bd
00000040: 9496 233d 099f d03a ba0a ed3c 877e 81bd
00000050: 0ed8 1cbc 9896 3a3d ac23 6a3d 304a 0b3d
00000060: 77d3 e93c 676c d3bd 13d7 9ebd 2b77 8b3d
00000070: 4d95 1d3d 0045 c73d c085 3dbe 1df1 0c3d
00000080: 005f 9c3c eac7 9bbc 9272 213d bfba a43c
00000090: 45b5 98bc 4e3a b2bc aa59 15bd 13df 943c
000000a0: 9bbc e8bd c8e0 d3bc bf46 263d fac8 023d
000000b0: a18d 223d 6881 603c bd33 af3c dfc0 3b3d
000000c0: 184a ac3d aa21 b53b 5456 b1bc 28d0 8c3d
000000d0: 58c5 f8bc e7c3 97bd 8cca 033e ea4b 103e
000000e0: bb82 6e3e 41e4 3a3c 9f7e 093c 4ce4 1a3c
000000f0: f017 4fba f2ba 6e3d fe62 eabc 8c58 043d
00000100: 7e82 57bc 170b e33c 66eb efbc bb8d dfbd
00000110: a9a4 d1bc 09f9 7c3d 78f4 b03c 7053 833c
00000120: bedc e3bb c5df 5f3d bf58 793d 649e 683d
00000130: becd 9b3b a6d0 7e3d 8257 673d a7da 80bd
00000140: c4bf 313d ff41 03bd 5afa a7bc 5cc5 483e
00000150: c244 453d 3848 d1bd 313e 91bd eb4d 283d
00000160: 7811 423d 2136 153b dd96 53bd 3252 d4bc
00000170: 7f84 c13c 618e df3c 7186 44bd 6463 08bd
00000180: 7b27 b838 f7e1 4abb 2bd1 473c 3e16 233c
00000190: e666 ba3c ec28 ae3c a501 3a3d 42e5 593c
000001a0: ab49 093d dd8f 193d 295b 0d3d fbee f5bd
000001b0: 151f dcbc 0633 7c3d f120 e3bc 6b18 5cbd
000001c0: 4e90 2ebd 0bcc 04be 7002 d43c 8f56 bf3c
000001d0: a47a 7c3c fb74 853c a02d 70bc 7be4 253b
000001e0: fe9e 123a 7192 2ebd f9b9 64bd e4fb da3c
000001f0: d085 5b3d ff4f e9bb 7929 2a3d f7eb 47bc
00000200: 352d 1b3d 7394 afbd 0845 e9bc 832a 9f3d
00000210: 9e6d ff3c 62c6 093d ee6b 863d 0b28 e23c
00000220: 1bf1 37bc f618 7c3d e5e6 fcbc 9964 acbd
00000230: ff14 513e 2a0d 42bd 7c92 37bd f077 fabb
00000240: 50f1 7f3d 752d 753d a43e 03bd 81ac 0bbd
00000250: 108a 11bd 4bca f2bc a638 413d 5394 383d
00000260: d2a2 89bd ccf2 683c 0118 3c3d e687 b2bc
00000270: b0f0 843c 3096 c33d 44c9 e7bc 2ef6 83bd
00000280: eeea 42bd 6ee2 a7bc 6a8b 333c 57de 023e
00000290: 1b2b 413d 7782 2c3d ec84 cbbd 9d13 01bc
000002a0: 8012 3a3d d4d7 20bd 0b92 3c3d 8752 1cbd
000002b0: a77c e5bb b868 183d 39c4 26bd 4428 fbbb
000002c0: b740 54bd d88f ccbc 0328 efbc ad90 e23d
000002d0: e7b5 ed3c e759 103d d2bb 5dbb 5055 75bb
000002e0: baad fd3a 2060 073c 3e79 2c3b 5207 1a3d
000002f0: b4bd 34bd f6b1 0dbd 4e4b a5bd 315b a43c
00000300: 45dc 453d 20b3 983d 0bd6 12bd 24e8 febb
00000310: 28fb bcbb d517 813c f721 6b3d ae2f 15bd
00000320: 4ccd 94bc 61b6 9bbc 4b5b 15bd 9a0b 1b3b
00000330: bd24 08bb a935 11bc 7433 44bd c580 8e3d
00000340: eae5 edbb 7d0d 2cbd 0996 a2bb d3f2 00ba
00000350: 0c5f d9bc 54c2 7fbc 42da 74bc 4b89 92bc
00000360: b25a 80ba 0695 f73b dc37 51bd f040 03bd
00000370: f851 6d3d b5c5 303d 43a1 05bd 3caf 173c
00000380: 3be8 a43d 2dcf d23c d9de 723d 9948 26bc
00000390: 0c8a 51bd 1cbf de3b 09bc 8a3c 8819 da3c
000003a0: 7ca0 7cba 5046 3cbb 2c57 1b3d 69f3 103c
000003b0: 8991 f03c 6903 0ebc 9ea0 863b 2258 f03a
000003c0: 310e 12bb 4697 aabb 97f2 cebc aff5 833c
000003d0: 54c8 183d 5068 1a3c fe09 9f3c 2fc9 91bc
000003e0: ae76 09bd 1d1f a0bc d665 73bc cfb2 62bb
000003f0: 30ed ef3d 8722 c8bb 51c4 b03d d93a 57bc

classifier.1.bias f4 [32]
-0.029431803 -0.024739027 -0.007062838 -0.036182538 0.0008581501 -0.0054680323 0.010195944 -0.025303824
-0.023425842 -0.010471211 0.020813351 -0.017233055 0.010058744 0.013406658 0.01753977 -0.007582452
0.028325358 -0.017121814 0.01259731 0.0057255686 0.0064803935 -0.01825095 0.016052518 0.018062435
-0.037294354 -0.0077807717 0.022241822 -0.020455584 -0.0033697132 0.025733672 -0.034788016 -0.0054543708
00000000: f71a f1bc 80a9 cabc 616f e7bb 2434 14bd
00000010: 7af5 603a 2e2d b3bb e40c 273c f749 cfbc
00000020: 8de7 bfbc 718f 2bbc c380 aa3c 562c 8dbc
00000030: 6ecd 243c 99a7 5b3c 90af 8f3c 3876 f8bb
00000040: 950a e83c 0c43 8cbc f364 4e3c 8d9d bb3b
00000050: 7b59 d43b 0483 95bc 9280 833c acf7 933c
00000060: f7c1 18bd d8f5 febb 7b34 b63c 7892 a7bc
00000070: 68d6 5cbb 6ccf d23c e17d 0ebd 94ba b2bb

classifier.2.weight f4 [32]
0.9836779 0.97728276 0.9508152 0.9929119 1.0272464 1.0330179 1.0090618 1.0018374
1.0301028 1.0276601 1.022875 0.9915752 0.98823833 1.0220443 1.0115162 0.94698596
1.0372248 1.0044712 0.9296056 0.94961506 0.9967232 0.9473153 0.9997739 0.964307
1.016297 0.94046843 0.96842176 1.0492046 0.9915401 1.0099518 1.0451998 1.0536257
00000000: 51d2 7b3f 342f 7a3f a068 733f 792f 7e3f
00000010: cf7c 833f ee39 843f f028 813f 353c 803f
00000020: 69da 833f 5e8a 833f 91ed 823f dfd7 7d3f
00000030: 30fd 7c3f 59d2 823f 5d79 813f ac6d 723f
00000040: c8c3 843f 8392 803f a2fa 6d3f f919 733f
00000050: 4029 7f3f 4183 723f 2ff1 7f3f d3dc 763f
00000060: 0516 823f 8ac2 703f 7dea 773f 564c 863f
00000070: 92d5 7d3f 1a46 813f 1bc9 853f 35dd 863f

classifier.2.bias f4 [32]
-0.057708375 -0.15927185 -0.15643705 -0.14724949 -0.07403827 -0.074893 0.048399866 -0.097274855
-0.04723498 -0.09556371 -0.08143546 0.0664827 -0.18826899 -0.16602008 -0.21175931 -0.04147519
-0.103445575 -0.1303061 -0.01886645 -0.08357736 0.013392672 -0.108015224 -0.041473098 -0.0899012
-0.10115472 -0.031592906 -0.010979364 -0.024579851 -0.158583 -0.14487965 0.075055376 -0.13218279
00000000: 9e5f 6cbd 2918 23be 0931 20be 92c8 16be
00000010: 60a1 97bd 8061 99bd f03e 463d 0a38 c7bd
00000020: 7779 41bd e8b6 c3bd a2c7 a6bd 1528 883d
00000030: 96c9 40be 2b01 2abe 6fd7 58be e4e1 29bd
00000040: 46db d3bd f66e 05be d08d 9abc 9b2a abbd
00000050: f06c 5b3c 1637 ddbd b2df 29bd 1f1e b8bd
00000060: 352a cfbd 9067 01bd cae2 33bc af5b c9bc
00000070: 9563 22be 555b 14be a2b6 993d ed5a 07be

classifier.2.running_mean f4 [32]
0.001790848 2.6130002 2.0227945 1.3722324 3.3046212 -0.70191145 6.5726743 -1.106381
1.1982502 3.2069807 1.614847 7.4042945 0.861847 4.1693735 2.062105 0.4918319
4.641968 1.8212224 -0.3486957 -0.71883947 2.5021613 2.373642 0.9269886 -0.9952603
1.3609321 1.3198457 -0.5381976 6.262629 4.6666217 1.1978242 6.377796 2.3039236
00000000: e3ba ea3a 653b 2740 7775 0140 50a5 af3f
00000010: ea7e 5340 78b0 33bf 5953 d240 e59d 8dbf
00000020: 4360 993f 2c3f 4d40 4eb3 ce3f fbef ec40
00000030: 01a2 5c3f 826b 8540 87f9 0340 64d1 fb3e
00000040: 008b 9440 d11d e93f 3e88 b2be dd05 38bf
00000050: 6923 2040 c0e9 1740 204f 6d3f 61c9 7ebf
00000060: 0633 ae3f b4f0 a83f 51c7 09bf 7567 c840
00000070: f754 9540 4e52 993f e816 cc40 7c73 1340

classifier.2.running_var f4 [32]
0.9701055 0.8492455 1.4479473 1.2950116 1.8129071 1.8624703 1.8331673 1.152275
2.4363194 1.0640106 1.735506 2.0910454 0.9122306 1.2893842 0.5601703 1.3625112
1.432727 0.9038051 0.90785617 0.5093599 2.0617528 1.1323996 1.0100659 1.0887965
1.3348333 0.87308383 1.3662229 2.3045244 1.3545643 1.2850349 0.9053742 2.7410202
00000000: d658 783f 2768 593f 5656 b93f f1c2 a53f
00000010: 570d e83f 6d65 ee3f 3aa5 ea3f bf7d 933f
00000020: a8ec 1b40 8031 883f 1025 de3f b0d3 0540
00000030: f287 693f 8b0a a53f 5267 0f3f c466 ae3f
00000040: 9963 b73f c55f 673f 4369 683f 6965 023f
00000050: c2f3 0340 78f2 903f d749 813f af5d 8b3f
00000060: d1db aa3f 6c82 5f3f 64e0 ae3f 547d 1340
00000070: 5d62 ad3f 067c a43f 9bc6 673f e06c 2f40

classifier.4.weight f4 [64, 32]
0.06473443 -0.1165267 0.14380129 0.028287612 0.08595484 -0.14012094 -0.03612909 0.03176774
-0.034075223 -0.06508621 -0.1089456 -0.2842329 -0.01776885 0.089280255 -0.09278844 0.05553598
0.10999676 0.08334423 0.024318852 -0.08293555 -0.031733904 0.13870478 -0.10352197 0.07890646
-0.13732503 0.10315267 0.061291255 -0.33386043 0.03903221 -0.05463775 0.0964863 -0.10033419
0.08564145 -0.054690905 0.15851638 0.17496209 0.07310221 -0.11781896 -0.22076331 -0.040811397
0.015808089 -0.05596991 0.10383357 0.05197915 0.034346674 -0.0055050873 0.004065554 0.019876715
-0.0046571824 0.054338925 -0.07098035 0.01651183 -0.0618726 0.13734427 0.11777765 -0.063026644
-0.09300068 0.12759846 -0.043037698 -0.17924029 -0.127663 0.17384705 -0.07703666 0.13715173
0.034449488 0.15579829 0.03654555 -0.14066169 0.21090879 -0.12866798 -0.06917546 0.1206789
0.13933079 -0.11735285 -0.12371912 -0.026733601 -0.07402312 -0.07513657 -0.012141533 0.12266797
-0.17892525 -0.111721866 -0.073061466 -0.21873483 -0.07129254 0.14189424 -0.12552829 0.03171776
-0.121686205 0.07379992 -0.042613 -0.15753582 0.15575762 0.07640476 -0.12314189 0.10763327
-0.017562892 0.007096694 -0.18364553 -0.060553186 0.17519912 0.08464737 0.010132381 -0.072986536
-0.20663147 -0.22684567 0.015237228 -0.11410754 0.0746643 -0.022475481 0.061022926 -0.16856441
0.11743687 0.17203276 -0.12928835 0.14992242 0.05177767 0.18091533 0.011039316 -0.14333549
-0.13916834 -0.067373306 -0.2288817 0.07349232 -0.2032599 0.07429158 -0.03404718 -0.16648813
0.14735216 -0.08165332 0.07418309 -0.1868076 -0.1314682 -0.084384814 0.03617834 0.09050159
-0.1290234 0.001721028 -0.057206735 -0.040988468 0.12405156 0.10774399 -0.001059428 -0.07707898
0.17448485 0.07619793 0.02985126 0.14091994 -0.07841793 -0.14455374 0.02835854 0.11843521
0.0871254 0.08475637 -0.10840733 0.019650329 0.020778809 -0.025413841 0.114322014 0.045422655
0.09273041 -0.20370357 -0.02649037 0.10181393 0.14895433 -0.067530565 0.011245674 -0.1401679
-0.057451256 0.009081282 -0.09075983 -0.03967409 0.10971882 0.011654327 0.08288296 -0.08376339
0.18031752 0.16584496 -0.0061666067 0.088955276 -0.13589694 -0.0072330874 0.14999175 -0.059291486
-0.1355497 0.07773263 0.020850686 -0.047257148 -0.07761465 -0.07520976 -0.116422646 -0.017211812
-0.059933215 0.0016739473 -0.03936672 0.08612041 0.046213653 -0.16813114 -0.061027694 -0.112561785
0.0034153212 -0.04497014 -0.049647413 0.019246766 0.00079911435 -0.18997663 -0.114098005 0.07589778
-0.121338844 -0.05189154 -0.101739414 0.041645855 0.022615785 0.013893754 0.06029293 0.12616982
-0.1239554 -0.12837502 -0.049297642 0.06563408 -0.11236695 -0.15392305 0.09153731 0.048365906
-0.039918657 -0.022106918 0.0153010525 -0.017490257 0.10688301 0.18181762 -0.041211426 0.09483661
-0.17486553 -0.048463427 -0.06442625 0.14164713 0.10119718 -0.014632666 0.013732833 -0.121372834
0.14986274 0.10362109 -0.0060160924 -0.10466423 0.15052713 0.010755297 -0.0058691646 -0.0027984257
0.06426252 -0.11167955 0.06758723 0.124225825 0.17771359 -0.10451619 0.030914335 -0.08586468
00000000: 7c93 843d 8da5 eebd a540 133e 6cbb e73c
00000010: 1709 b03d dd7b 0fbe 19fc 13bd e41e 023d
00000020: 7692 0bbd eb4b 85bd df1e dfbd fa86 91be
00000030: fb8f 91bc 91d8 b63d de07 bebd b279 633d
00000040: fb45 e13d 61b0 aa3d 5438 c73c 1dda a9bd
00000050: 69fb 01bd a008 0e3e 5403 d4bd b699 a13d
00000060: ef9e 0cbe b541 d33d 8a0c 7b3d c1ef aabe
00000070: 3de0 1f3d d5cb 5fbd 9c9a c53d 037c cdbd
00000080: c964 af3d 9203 60bd 1e52 223e 4329 333e
00000090: 9db6 953d 114b f1bd c70f 62be da29 27bd
000000a0: f77f 813c b440 65bd b2a6 d43d 17e8 543d
000000b0: 19af 0c3d 0564 b4bb 5738 853b 7ed4 a23c
000000c0: 479b 98bb 7e92 5e3d 255e 91bd d143 873c
000000d0: 206e 7dbd faa3 0c3e 6935 f13d 1d14 81bd
000000e0: 2477 bebd 2ca9 023e 4c48 30bd c48a 37be
000000f0: 17ba 02be f604 323e 65c5 9dbd 8171 0c3e
00000100: e81a 0d3d 9689 1f3e c9b0 153d 9e09 10be
00000110: 79f8 573e 8ac1 03be ddab 8dbd 8026 f73d
00000120: bbac 0e3e b156 f0bd 7360 fdbd 6d00 dbbc
00000130: 6f99 97bd 34e1 99bd 48ed 46bc 5839 fb3d
00000140: 2e38 37be 6fce e4bd 40a1 95bd 06fc 5fbe
00000150: d301 92bd b94c 113e 7d8a 00be 7bea 013d
00000160: 9e36 f9bd 6a24 973d f88a 2ebd 1251 21be
00000170: ed7e 1f3e 197a 9c3d d131 fcbd d56e dc3d
00000180: 0ee0 8fbc 628b e83b 930d 3cbe 9e06 78bd
00000190: 6667 333e 9a5b ad3d 4902 263c f779 95bd
000001a0: 3397 53be 3b4a 68be 91a5 793c 37b1 e9bd
000001b0: 99e9 983d 801e b8bc 2df3 793d 269c 2cbe
000001c0: be82 f03d 5b29 303e 2a64 04be 4385 193e
000001d0: d214 543d de41 393e 3fde 343c 8ac6 12be
000001e0: 2582 0ebe 04fb 89bd f75f 6abe 2483 963d
000001f0: 5d23 50be 2f26 983d 0e75 0bbd dd7b 2abe
00000200: 7ce3 163e db39 a7bd 4eed 973d 7e4a 3fbe
00000210: 9a9f 06be f2d1 acbd bd2f 143d e658 b93d
00000220: b61e 04be 1e94 e13a 9c51 6abd 86e3 27bd
00000230: bf0e fe3d e2a8 dc3d 81dc 8aba 96db 9dbd
00000240: 28ac 323e a90d 9c3d a18a f43c 514d 103e
00000250: 9499 a0bd e505 14be 2b50 e83c 298e f23d
00000260: cd6e b23d bf94 ad3d aa04 debd baf9 a03c
00000270: 5238 aa3c b030 d0bc a921 ea3d 1b0d 3a3d
00000280: 71e9 bd3d ab97 50be 5502 d9bc d283 d03d
00000290: 7c87 183e 774d 8abd c73f 383c 2d88 0fbe
000002a0: 0252 6bbd a8c9 143c 4ae0 b9bd 4c81 22bd
000002b0: 43b4 e03d caf1 3e3c 8bbe a93d 248c abbd
000002c0: 28a5 383e 43d3 293e 3f11 cabb 2f2e b63d
000002d0: 9128 0bbe 8903 edbb 7097 193e a1db 72bd
000002e0: 8acd 0abe 4932 9f3d 0fcf aa3c b690 41bd
000002f0: 6ef4 9ebd 9307 9abd ff6e eebd c9ff 8cbc
00000300: 887c 75bd 5a68 db3a ff3e 21bd e65f b03d
00000310: 874a 3d3d 922a 2cbe 2df8 79bd cb86 e6bd
00000320: 95d3 5f3b 9c32 38bd 165b 4bbd 65ab 9d3c
00000330: a87b 513a 3c89 42be 37ac e9bd 4c70 9b3d
00000340: 8080 f8bd 398c 54bd c15c d0bd d894 2a3d
00000350: bd44 b93c a1a2 633c b8f5 763d a932 013e
00000360: 54dc fdbd be74 03be 53ec 49bd 296b 863d
00000370: a520 e6bd 019e 1dbe ea77 bb3d 541b 463d
00000380: bf81 23bd 9119 b5bc 44b1 7a3c ba47 8fbc
00000390: 7be5 da3d 662e 3a3e 50cd 28bd b239 c23d
000003a0: f30f 33be 9681 46bd e9f1 83bd f20b 113e
000003b0: 7840 cf3d d9bd 6fbc adff 603c 5292 f8bd
000003c0: 9e75 193e 4b37 d43d a422 c5bb 335a d6bd
000003d0: c923 1a3e fc36 303c 1f52 c0bb cb65 37bb
000003e0: 119c 833d 3fb8 e4bd 2c6b 8a3d 1c6a fe3d
000003f0: 8dfa 353e 960c d6bd 0f40 fd3c d2d9 afbd

classifier.4.bias f4 [64]
-0.017537287 -0.14916001 -0.05042985 -0.13481157 -0.03888523 -0.1010098 0.066904426 0.06518284
0.03390583 -0.030546114 -0.13714162 0.097968586 0.16342579 0.09032289 -0.08278941 -0.15603702
-0.16469845 0.052762847 0.13520718 0.096205674 -0.10364573 -0.11110597 0.16410093 -0.021753473
0.14666049 0.0037699118 0.16283712 0.057308067 -0.0514413 0.008512522 -0.0024674004 0.14614806
0.15361552 0.0058649224 -0.15780358 -0.1661834 0.08130297 0.058455683 0.03540534 0.10665966
0.13108552 -0.1393914 0.17177002 -0.017795466 0.15647823 -0.1451338 -0.0390062 0.17448343
0.123091765 -0.056373235 -0.16142398 -0.1124189 0.12808253 -0.074689366 0.14559697 0.051639758
0.062436253 0.01192692 0.024791991 0.1100502 -0.13296488 0.0128273005 -0.01982683 -0.1640005
00000000: 5baa 8fbc 67bd 18be 888f 4ebd 0b0c 0abe
00000010: 1e46 1fbd 3ade cebd 3005 893d 957e 853d
00000020: d7e0 0a3d d83b fabc da6e 0cbe c1a3 c83d
00000030: 1759 273e 35fb b83d 7f8d a9bd 2bc8 1fbe
00000040: b6a6 28be db1d 583d c073 0a3e 7b07 c53d
00000050: 3644 d4bd 878b e3bd 130a 283e 5734 b2bc
00000060: 2b2e 163e a010 773b c6be 263e ddbb 6a3d
00000070: 1db4 52bd 1b78 0b3c 1cb4 21bb d6a7 153e
00000080: 634d 1d3e 892e c03b 4397 21be fb2b 2abe
00000090: 2c82 a63d 3a6f 6f3d 3105 113d 6170 da3d
000000a0: 483b 063e 9fbc 0ebe 7be4 2f3e ccc7 91bc
000000b0: d43b 203e f49d 14be f7c4 1fbd c9ab 323e
000000c0: 8917 fc3d 9fe7 66bd 544c 25be e13b e6bd
000000d0: 1128 033e bdf6 98bd 5f17 153e 3684 533d
000000e0: 28bd 7f3d 2169 433c 9318 cb3c 0062 e13d
000000f0: f227 08be 9929 523c e06b a2bc bfef 27be

classifier.5.weight f4 [64]
1.032084 0.97968364 0.9867132 0.9915923 1.0284728 0.96381474 1.0079618 0.97750884
0.9603679 0.9907317 0.95491594 1.0186328 1.0501459 0.9408654 0.9943099 0.98575884
0.9467136 1.0083368 0.97057915 1.0289468 0.9991174 1.0253549 1.0105618 1.0378051
0.9543646 0.99871606 0.956687 0.96525794 1.0098064 0.9998608 0.9819466 1.0124344
0.9726869 1.0058256 1.0289029 1.0419781 1.0832373 1.0588869 0.981739 0.97341704
1.1127846 0.9293797 0.964566 0.93345714 1.0108844 0.99954367 0.9647405 0.9997427
1.0302011 0.9884258 1.0293754 1.0746228 0.93554497 0.9595096 0.9895566 0.99009764
1.0688554 1.0157058 0.9586037 1.032593 1.0062238 0.968699 0.9594182 0.89837414
00000000: 541b 843f 8ccc 7a3f 3c99 7c3f fed8 7d3f
00000010: ffa4 833f 90bc 763f e404 813f 053e 7a3f
00000020: acda 753f 98a0 7d3f 5f75 743f 8f62 823f
00000030: 2e6b 863f 8edc 703f 188b 7e3f b15a 7c3f
00000040: d35b 723f 2e11 813f e077 783f 87b4 833f
00000050: 28c6 7f3f d43e 833f 175a 813f ccd6 843f
00000060: 3d51 743f dbab 7f3f 70e9 743f 251b 773f
00000070: 5641 813f e1f6 7f3f da60 7b3f 7397 813f
00000080: 0202 793f e5be 803f 17b3 833f 8a5f 853f
00000090: 85a7 8a3f 9b89 873f 3f53 7b3f dc31 793f
000000a0: ba6f 8e3f d4eb 6d3f cced 763f 0cf7 6e3f
000000b0: a964 813f 18e2 7f3f 3cf9 763f 23ef 7f3f
000000c0: a1dd 833f 7909 7d3f 93c2 833f 3d8d 893f
000000d0: e07f 6f3f 6ca2 753f 9553 7d3f 0a77 7d3f
000000e0: 41d0 883f a602 823f 0d67 753f 022c 843f
000000f0: f1cb 803f a8fc 773f 6e9c 753f d9fb 653f

classifier.5.bias f4 [64]
-0.19053683 -0.123494625 -0.06591712 -0.095100105 0.011517128 0.031773847 -0.0049934043 -0.094811946
0.009223583 0.15142553 0.04267868 -0.070913814 0.014358165 -0.002805304 -0.118061125 0.023150971
-0.07731211 -0.03185922 -0.08547052 -0.05893914 0.063057266 -0.07802638 0.05779219 0.03385049
0.0046273 -0.009636134 -0.1210427 -0.1829332 -0.15477802 0.0017734017 -0.026177501 -0.13023914
-0.0047214553 -0.04512459 -0.035663053 -0.10414901 0.026215266 0.013224639 -0.07423827 -0.1343637
-0.13957182 0.024647161 -0.13141266 0.015659543 -0.099860005 -0.005425315 -0.0678903 -0.05809549
-0.005771574 -0.06274774 -0.058298953 -0.14196523 -0.03333345 -0.07120047 -0.049143896 -0.024204507
0.038956854 -0.16918774 -0.060744375 0.039668053 0.037155215 0.012003466 -0.05377631 -0.08442715
00000000: 161c 43be c0ea fcbd 8eff 86bd d8c3 c2bd
00000010: 56b2 3c3c 4b25 023d b69f a3bb c42c c2bd
00000020: 831e 173c 4b0f 1b3e d7cf 2e3d 433b 91bd
00000030: 823e 6b3c 31d9 37bb 08ca f1bd 1ba7 bd3c
00000040: d055 9ebd d07e 02bd 2b0b afbd 2b6a 71bd
00000050: 2b24 813d 4bcc 9fbd 81b7 6c3d d0a6 0a3d
00000060: 9ba0 973b e0e0 1dbc 3ce5 f7bd d752 3bbe
00000070: 217e 1ebe 7d71 e83a 3372 d6bc 695d 05be
00000080: 70b6 9abb 90d4 38bd 6c13 12bd 134c d5bd
00000090: 66c1 d63c 28ac 583c 3c0a 98bd a396 09be
000000a0: eaeb 0ebe d8e8 c93c 0a91 06be 7148 803c
000000b0: 6783 ccbd d7c6 b1bb 120a 8bbd 89f5 6dbd
000000c0: 791f bdbb e381 80bd e2ca 6ebd 555f 11be
000000d0: a888 08bd 8dd1 91bd 1c4b 49bd 8848 c6bc
000000e0: 3991 1f3d 8d3f 2dbe 18cf 78bd f87a 223d
000000f0: 1130 183d 2faa 443c 8c44 5cbd 24e8 acbd

classifier.5.running_mean f4 [64]
-0.24298452 -0.10366614 -0.30044824 -0.49224466 0.08283115 -0.18076706 -0.24913508 0.28404745
-0.3754201 -0.39042136 -0.19017515 -0.054520197 -0.12359244 0.09944749 -0.1607025 -0.27205825
0.00631368 -0.098004945 0.22995582 0.036743123 -0.27113625 -0.2297481 0.32168397 -0.054797962
-0.22338971 -0.1378258 -0.16107479 0.0169725 -0.374756 -0.36893252 -0.25607985 0.46758208
-0.25305346 0.27679563 -0.33727565 -0.22608133 0.3507189 -0.5106773 0.0017139869 0.20688859
-0.3004626 -0.23033112 0.2628672 0.030151311 -0.062077075 -0.27954513 -0.19504966 -0.11531645
0.060584348 0.004712461 -0.14713714 -0.330126 -0.16262376 0.17912255 0.11207623 -0.14169328
-0.27589932 -0.12979992 0.18648316 -0.0020575381 -0.15146223 -0.22706136 -0.12933101 0.0669512
00000000: efd0 78be ea4e d4bd 5ad4 99be 7e07 fcbe
00000010: 61a3 a93d 001b 39be 441d 7fbe ab6e 913e
00000020: 1037 c0be 4fe5 c7be 46bd 42be 9250 5fbd
00000030: 081e fdbd 20ab cb3d 328f 24be 384b 8bbe
00000040: fde2 ce3b d1b6 c8bd 8a79 6b3e f57f 163d
00000050: 5fd2 8abe 1643 6bbe c3b3 a43e d473 60bd
00000060: 46c0 64be 3522 0dbe caf0 24be ea09 8b3c
00000070: 05e0 bfbe b9e4 bcbe e61c 83be eb66 ef3e
00000080: 3990 81be 28b8 8d3e 65af acbe dd81 67be
00000090: 6d91 b33e bfbb 02bf dba7 e03a 9ada 533e
000000a0: 3cd6 99be ecdb 6bbe 8896 863e e2ff f63c
000000b0: 8844 7ebd 8a20 8fbe 19bb 47be 082b ecbd
000000c0: 4b27 783d fd6a 9a3b 1eab 16be 4606 a9be
000000d0: d886 26be e76b 373e 3988 e53d 0b18 11be
000000e0: ad42 8dbe 45ea 04be 71f5 3e3e c3d7 06bb
000000f0: ea18 1bbe c682 68be 596f 04be b61d 893d

classifier.5.running_var f4 [64]
0.052086953 0.10973887 0.10751944 0.13775438 0.04412396 0.09544212 0.08199178 0.070076704
0.22996037 0.26597205 0.15417124 0.088329665 0.15178047 0.2606632 0.05376089 0.13023582
0.13610372 0.06442427 0.21809928 0.093929425 0.06263866 0.08096112 0.24116184 0.11265673
0.06938109 0.14065753 0.06622717 0.104860954 0.14851643 0.20150141 0.12667702 0.18126968
0.07923513 0.27213842 0.099557325 0.12180141 0.12535505 0.21867193 0.19345431 0.10054012
0.11033335 0.18789716 0.11321778 0.22686143 0.09012512 0.06108369 0.110545605 0.10354189
0.16528013 0.10644832 0.14249474 0.046110146 0.0880417 0.10574592 0.19176276 0.2763074
0.26610604 0.06741456 0.17077552 0.19863954 0.074936494 0.20334078 0.09079073 0.17302841
00000000: 2159 553d c6be e03d 2733 dc3d 7c0f 0d3e
00000010: 53bb 343d 2977 c33d 4eeb a73d 6084 8f3d
00000020: bb7a 6b3e 7d2d 883e 11df 1d3e 2fe6 b43d
00000030: 576c 1b3e a675 853e 6134 5c3d 8a5c 053e
00000040: c65e 0b3e dff0 833d 6b55 5f3e 125e c03d
00000050: b348 803d f2ce a53d 21f3 763e 92b8 e63d
00000060: ac17 8e3d 8708 103e 1ca2 873d 57c1 d63d
00000070: b114 183e 6356 4e3e 9fb7 013e c29e 393e
00000080: 0746 a23d ba55 8b3e b6e4 cb3d 0573 f93d
00000090: 135d 003e 89eb 5f3e e318 463e fae7 cd3d
000000a0: 74f6 e13d 1d68 403e b9de e73d 5d4e 683e
000000b0: 8593 b83d e432 7a3d bc65 e23d c50d d43d
000000c0: 323f 293e 9401 da3d 24ea 113e fedd 3c3d
000000d0: 354f b43d 5191 d83d 755d 443e 2a78 8d3e
000000e0: 0d3f 883e a510 8a3d c7df 2e3e 2a68 4b3e
000000f0: 4e78 993d 9138 503e 7ef0 b93d 5c2e 313e

classifier.7.weight f4 [16, 64]
-0.00785803 -0.14545889 -0.058099125 -0.0019568375 -0.13545537 0.012806406 -0.15048987 0.059775908
0.12489426 -0.07987224 0.0898925 -0.0467664 0.16100807 0.0630839 -0.049600344 -0.0681978
0.083162636 0.009446603 -0.070607506 -0.13277848 -0.03530985 -0.12803726 -0.18865538 0.023219619
-0.078221366 -0.034159966 0.08047132 0.014064421 -0.098841764 -0.030945942 0.10879124 0.07373496
-0.0025788783 -0.037737884 0.121296786 0.033252932 0.10279864 -0.08866696 0.041298464 0.12961113
0.05012823 -0.04442904 -0.077665865 0.04654066 -0.1417048 0.06488023 0.035467148 0.06240509
-0.053405754 -0.04635411 -0.013976093 -0.021977037 -0.13080579 0.08231386 -0.056745023 0.057300713
0.13697948 0.04752246 0.03862065 -0.08687669 0.01590219 -0.019395763 -0.08439214 -0.08449123
0.042626876 -0.07612249 -0.013616948 -0.021230718 0.081591934 -0.08891485 0.018790321 0.017716506
-0.022224877 -0.009141939 0.050370835 -0.03573078 -0.17349681 -0.108196296 -0.010128697 0.038732223
-0.08956259 0.10514892 -0.123171434 0.071704656 -0.104334794 -0.05398585 0.10307934 0.014536278
0.06222318 -0.11266721 -0.02918801 0.06438833 0.020022338 -0.089935295 -0.12597713 0.028431294
0.01971491 -0.06558713 0.003280928 -0.21888515 -0.08335123 -0.08738389 0.00061829766 -0.019673849
-0.043335296 -0.0074790856 0.008072623 -0.004736149 0.03380927 -0.04191312 -0.042106926 -0.1364436
0.012597226 0.029888816 0.087509155 0.09140055 0.10034462 0.05839351 -0.11493077 -0.13623813
0.04506401 -0.040086903 0.014288294 0.14242925 -0.016496405 0.024973411 -0.10681227 -0.07997991
0.07352036 0.09459359 -0.0663488 0.123297706 0.08591341 0.08442612 -0.007161301 -0.1484546
-0.07489001 -0.14408714 -0.02669628 -0.03261124 -0.017082643 -0.058717173 0.07430307 -0.029237552
0.04358303 -0.0015851543 0.0013340847 -0.078337856 -0.010210964 -0.101394504 0.08437986 0.0047816695
-0.17458734 0.055197638 -0.006868012 -0.016029833 -0.019400058 0.032899965 -0.10003521 0.15398905
0.04394898 0.09902421 -0.017537717 -0.06445328 -0.007308619 0.10480554 -0.1513321 0.048294853
0.013066252 -0.14783181 0.019730976 0.05930077 -0.0709387 0.012386594 0.06521876 0.14881232
0.073966265 -0.08299173 0.07037055 0.06175266 0.0031529595 -0.21338041 -0.086942784 -0.11936569
-0.17698628 -0.014103412 -0.012715127 -0.057728875 0.03603479 0.015120069 0.008717133 -0.012927061
-0.08565239 -0.12544078 0.03788398 0.12829669 0.024849016 0.12526761 -0.043579902 0.023413714
-0.118052974 -0.1333824 -0.020239444 0.046168502 -0.04901048 -0.085370004 -0.043132875 -0.100414485
-0.022122165 -0.019650336 -0.07215825 -0.092672765 -0.052266166 -0.10284529 -0.15543847 -0.012156033
-0.071731575 0.08659597 -0.009875072 0.026421312 0.047906037 0.031592987 0.017547572 0.020280967
0.021131106 -0.011407282 -0.062632784 0.14916986 0.0825106 -0.045371808 -0.058347605 -0.05402669
0.09608318 0.008544492 -0.042975385 -0.05713 -0.075485535 -0.07546228 0.105687924 0.025911555
0.067135185 -0.13378759 -0.046902206 -0.0037855604 -0.08066897 0.015473744 -0.0109864045 -0.07221923
0.18965535 0.2136662 -0.0053767506 0.12212622 0.11415329 -0.07085373 -0.074645914 -0.068994574
00000000: f7be 00bc 2df3 14be 59f9 6dbd 493e 00bb
00000010: d0b4 0abe f6d1 513c 041a 1abe 95d7 743d
00000020: 90c8 ff3d 0f94 a3bd 8f19 b83d 208e 3fbd
00000030: 4ddf 243e 2232 813d bb29 4bbd 4aab 8bbd
00000040: 2c51 aa3d edc5 1a3c ab9a 90bd 15f7 07be
00000050: 10a1 10bd 331c 03be e02e 41be 1237 be3c
00000060: 8632 a0bd 52eb 0bbd 26ce a43d 756e 663c
00000070: 8d6d cabd 5882 fdbc f1cd de3d 5b02 973d
00000080: 6602 29bb 0a93 1abd 736a f83d 3a34 083d
00000090: 1888 d23d 0697 b5bd 9428 293d c8b8 043e
000000a0: 4253 4d3d 3afb 35bd 480f 9fbd 6ba1 3e3d
000000b0: 101b 11be eddf 843d 0046 113d 7b9c 7f3d
000000c0: febf 5abd cfdd 3dbd fcfb 64bc 3009 b4bc
000000d0: f4f1 05be 2b94 a83d 786d 68bd 27b4 6a3d
000000e0: 5944 0c3e e9a6 423d b030 1e3d 68ec b1bd
000000f0: 4f45 823c dde3 9ebc c9d5 acbd bd09 adbd
00000100: 8599 2e3d 1ce6 9bbd 9f19 5fbc 0bec adbc
00000110: ac19 a73d fd18 b6bd 29ee 993c 3522 913c
00000120: f210 b6bc 12c8 15bc a651 4e3d 705a 12bd
00000130: 26a9 31be 0596 ddbd d6f2 25bc aea5 1e3d
00000140: 976c b7bd 5158 d73d 4e41 fcbd e4d9 923d
00000150: 7bad d5bd 4420 5dbd 431b d33d 9229 6e3c
00000160: bcdd 7e3d 11be e6bd b21b efbc 07de 833d
00000170: e305 a43c ff2f b8bd 2600 01be bfe8 e83c
00000180: 2a81 a13c 8c52 86bd d604 573b 6e23 60be
00000190: 0db4 aabd 53f6 b2bd 4115 223a 0d2b a1bc
000001a0: 5a80 31bd 1e13 f5bb 0943 043c b331 9bbb
000001b0: 977b 0a3d 17ad 2bbd 5078 2cbd dfb7 0bbe
000001c0: 9864 4e3c 64d9 f43c 0038 b33d 3630 bb3d
000001d0: 7b81 cd3d 082e 6f3d d360 ebbd 0282 0bbe
000001e0: 0a95 383d 2a32 24bd 7319 6a3c f9d8 113e
000001f0: 7823 87bc 0a95 cc3c 64c0 dabd 82cc a3bd
00000200: d891 963d 49ba c13d e1e1 87bd 8283 fc3d
00000210: 5ff3 af3d 9ae7 ac3d 59a9 eabb 7c04 18be
00000220: ef5f 99bd 948b 13be 28b2 dabc 5d93 05bd
00000230: e6f0 8bbc 6b81 70bd 352c 983d 9783 efbc
00000240: 1f84 323d f4c4 cfba 74dc ae3a 996f a0bd
00000250: e34b 27bc eca7 cfbd 59cf ac3d 8daf 9c3b
00000260: 06c7 32be eb16 623d 0f0d e1bb ff50 83bc
00000270: dfec 9ebc 1dc2 063d 43df ccbd 4eaf 1d3e
00000280: d803 343d 34cd ca3d 42ab 8fbc 1500 84bd
00000290: 247d efbb 49a4 d63d cdf6 1abe d3d0 453d
000002a0: d513 563c 3961 17be dba2 a13c 5de5 723d
000002b0: 4f48 91bd 24f1 4a3c 6a91 853d 4262 183e
000002c0: a07b 973d 91f7 a9bd 6f1e 903d 5bf0 7c3d
000002d0: e2a1 4e3b 6580 5abe 0f0f b2bd 0076 f4bd
000002e0: e43b 35be ff11 67bc 1c53 50bc 1d75 6cbd
000002f0: 3799 133d 2aba 773c 4ed2 0e3c 06cc 53bc
00000300: 856a afbd 8c73 00be 3b2c 1b3d 3560 033e
00000310: 2a90 cb3c 2746 003e d780 32bd 1ece bf3c
00000320: c2c5 f1bd 6595 08be 31cd a5bc 2f1b 3d3d
00000330: 37bf 48bd 78d6 aebd 19ac 30bd 1ca6 cdbd
00000340: 8b39 b5bc bef9 a0bc b4c7 93bd 38cb bdbd
00000350: 0c15 56bd 8da0 d2bd 432b 1fbe 192a 47bc
00000360: 01e8 92bd 3a59 b13d 0ecb 21bc 8271 d83c
00000370: 1f39 443d a667 013d edbf 8f3c 4524 a63c
00000380: 241b ad3c 9ce5 3abc 9e45 80bd fcbf 183e
00000390: 51fb a83d cad7 39bd e6fd 6ebd 174b 5dbd
000003a0: 42c7 c43d 32fe 0b3c f506 30bd 2601 6abd
000003b0: 2998 9abd f88b 9abd e972 d83d 7844 d43c
000003c0: 2c7e 893d 9dff 08be 871c 40bd 2a17 78bb
000003d0: c635 a5bd 9685 7d3c 5200 34bc ade7 93bd
000003e0: 0335 423e 50cb 5a3e 742f b0bb 501d fa3d
000003f0: 33c9 e93d c31b 91bd f5df 98bd 074d 8dbd

classifier.7.bias f4 [16]
-0.03876381 -0.1631593 0.104390316 -0.020703059 0.02925766 0.15760694 -0.079907075 0.052733216
-0.059020802 -0.1456717 -0.018277634 0.12355256 -0.14800842 0.07148249 0.13485502 0.033010244
00000000: cdc6 1ebd 3b13 27be 97ca d53d 7699 a9bc
00000010: c3ad ef3c b763 213e 52a6 a3bd c9fe 573d
00000020: ccbf 71bd f62a 15be faba 95bc 2009 fd3d
00000030: 858f 17be 6965 923d 6f17 0a3e c035 073d

classifier.8.weight f4 [16]
1.4266002 1.4534433 1.4436573 1.4934345 1.4358274 1.4137012 1.468629 1.4200795
1.3922523 1.4736989 1.4757628 1.4119904 1.5394299 1.439064 1.3992864 1.4673545
00000000: d69a b63f 6e0a ba3f c3c9 b83f dd28 bf3f
00000010: 31c9 b73f 29f4 b43f 09fc bb3f 2ac5 b53f
00000020: 5335 b23f 2aa2 bc3f cce5 bc3f 1abc b43f
00000030: 0a0c c53f 4033 b83f d11b b33f 46d2 bb3f

classifier.8.bias f4 [16]
0.37901497 0.4172952 0.42106918 0.45062718 0.3819008 0.3840215 0.4287505 0.37518898
0.3523917 0.43625727 0.34430867 0.33500057 0.5367076 0.42537266 0.3763482 0.4420675
00000000: 400e c23e b7a7 d53e 6196 d73e 9bb8 e63e
00000010: 8088 c33e 779e c43e 2f85 db3e c518 c03e
00000020: af6c b43e 1d5d df3e 3a49 b03e 3285 ab3e
00000030: ab65 093f 72ca d93e b6b0 c03e ac56 e23e

classifier.8.running_mean f4 [16]
-0.24108964 -0.6006315 -0.14075184 -0.2653169 -0.23666868 0.24457157 -0.21559148 -0.069307074
-0.049856726 -0.12652163 -0.29460546 0.04271681 -0.26613694 0.12453061 0.26369256 -0.06263583
00000000: 34e0 76be fcc2 19bf 4021 10be 9ed7 87be
00000010: 4659 72be f870 7a3e 03c4 5cbe def0 8dbd
00000020: 9136 4cbd e38e 01be 87d6 96be d2f7 2e3d
00000030: 1a43 88be e809 ff3d b602 873e 3747 80bd

classifier.8.running_var f4 [16]
0.25660056 0.08311966 0.12960398 0.089129336 0.10665775 0.19233872 0.1382128 0.12729275
0.46600154 0.098117985 0.17057113 0.086106606 0.111886084 0.14336456 0.30158266 0.09618792
00000000: 2661 833e a43a aa3d e8b6 043e 7189 b63d
00000010: 616f da3d 71f4 443e a887 0d3e 0859 023e
00000020: c197 ee3e 15f2 c83d 33aa 2e3e a958 b03d
00000030: 8824 e53d 29ce 123e 0b69 9a3e 2cfe c43d

classifier.10.weight f4 [10, 16]
-0.4582308 0.5016913 -0.21331081 -0.49709958 0.59878844 -0.3089151 -0.04595767 -0.38279277
-0.5013416 -0.39227992 -0.20251 -0.30803943 0.39504543 -0.38129637 -0.018488774 0.01593734
-0.46089327 -0.5230418 0.50877535 -0.43604302 -0.20415209 0.50935495 0.48373014 -0.5417698
-0.38354 -0.33627504 -0.23425627 -0.5027091 -0.46503216 0.4471317 -0.11420128 -0.5887415
0.39682695 -0.53146124 -0.3214859 -0.33129188 -0.4556931 -0.32202798 -0.3156275 -0.49595758
-0.18363312 0.6290425 -0.23067473 -0.50572103 0.49686927 0.5505202 -0.47884127 0.3343731
-0.4638223 -0.35435724 0.570329 -0.17221193 -0.33487353 -0.2681002 -0.42919204 -0.38241383
-0.016452128 -0.50851774 -0.20083128 0.613084 0.35214078 -0.52773446 -0.4915557 -0.15115795
0.6275941 -0.4521307 -0.28040844 0.4819015 -0.34885022 -0.45563868 -0.20351905 0.08960378
-0.4007067 -0.29479533 -0.19055302 -0.3600334 0.33272323 -0.38144732 -0.10137111 -0.46883902
-0.17131713 -0.44216913 -0.32495952 -0.5943002 -0.40247667 0.4768516 -0.41402075 -0.5982502
0.41238275 0.43356442 -0.17769228 0.45291048 -0.5883225 -0.6230886 0.54028606 0.4128201
0.34561932 0.6191399 0.03322777 0.24145994 -0.19061984 -0.51887506 -0.4282026 -0.60970926
-0.08172682 -0.14910384 -0.31515622 -0.40816015 -0.544539 0.27064455 -0.24713294 0.62199384
0.45615464 -0.2720072 -0.34625632 -0.5234305 0.3766419 0.27687868 0.33605984 0.38653174
0.4681778 -0.61951494 -0.5863233 -0.05117492 -0.55048233 -0.4042139 0.37708312 -0.56151384
-0.46477684 0.18704067 -0.32794592 -0.3192724 -0.43892354 -0.15517317 0.6059602 0.4886301
-0.52329797 0.48245567 0.5773156 -0.42785928 -0.31401306 -0.548012 -0.28654587 -0.44629505
-0.3059256 -0.37522605 -0.5751498 -0.2689025 -0.5017738 -0.5118351 -0.40987498 0.26180717
0.5344894 -0.45792258 0.5114742 0.026254918 -0.38551998 0.44061893 0.48165286 -0.24577634
00000000: 3a9d eabe d76e 003f 266e 5abe d683 febe
00000010: 334a 193f 1f2a 9ebe 1c3e 3cbd 6afd c3be
00000020: ec57 00bf ead8 c8be c85e 4fbe 58b7 9dbe
00000030: 6543 ca3e 4739 c3be c575 97bc 068f 823c
00000040: 34fa ebbe 11e6 05bf 1a3f 023f 0841 dfbe
00000050: 3f0d 51be 1665 023f 7aab f73e 6db1 0abf
00000060: 5b5f c4be 3e2c acbe e0e0 6fbe 8bb1 00bf
00000070: b218 eebe 72ee e43e 5ce2 e9bd c3b7 16bf
00000080: e72c cb3e d80d 08bf cd99 a4be 179f a9be
00000090: 9b50 e9be dae0 a4be ed99 a1be 27ee fdbe
000000a0: 520a 3cbe ee08 213f ff35 6cbe ef76 01bf
000000b0: a665 fe3e e4ee 0c3f af2a f5be f332 ab3e
000000c0: 1e7a edbe 506e b5be 1501 123f 5358 30be
000000d0: 8b74 abbe 6e44 89be 0fbf dbbe bfcb c3be
000000e0: 9dc6 86bc 382e 02bf b7a6 4dbe 13f3 1c3f
000000f0: cc4b b43e 9b19 07bf 30ad fbbe 26c9 1abe
00000100: 02aa 203f ad7d e7be b291 8fbe cbbb f63e
00000110: 7f9c b2be 7949 e9be 4c67 50be 3082 b73d
00000120: 6e29 cdbe 6aef 96be 5520 43be 4c56 b8be
00000130: b35a aa3e 104d c3be a89b cfbd ab0b f0be
00000140: c26d 2fbe fe63 e2be 1861 a6be 0f24 18bf
00000150: 6c11 cebe e525 f43e 87fa d3be ed26 19bf
00000160: d523 d33e 28fc dd3e f7f4 35be e2e3 e73e
00000170: 4e9c 16bf bc82 1fbf 3050 0a3f 285d d33e
00000180: 04f5 b03e f47f 1e3f d819 083d 4641 773e
00000190: d931 43be ffd4 04bf 5f3d dbbe e815 1cbf
000001a0: 6460 a7bd adae 18be 285c a1be 5efa d0be
000001b0: e866 0bbf ec91 8a3e 6b10 7dbe fd3a 1f3f
000001c0: 1a8d e93e 8744 8bbe 8248 b1be 8bff 05bf
000001d0: 35d7 c03e 0bc3 8d3e 0910 ac3e 7de7 c53e
000001e0: 00b5 ef3e 8898 1ebf 4919 16bf cb9c 51bd
000001f0: 69ec 0cbf 20f5 cebe 0a11 c13e 5fbf 0fbf
00000200: 3bf7 edbe 9787 3f3e 87e8 a7be ac77 a3be
00000210: 96ba e0be b7e5 1ebe 3520 1b3f b92d fa3e
00000220: dbf6 05bf 6e04 f73e f5ca 133f 5f10 dbbe
00000230: 52c6 a0be 844a 0cbf 24b6 92be c980 e4be
00000240: 48a2 9cbe a11d c0be 043d 13bf 97ad 89be
00000250: 3f74 00bf a007 03bf 22db d1be 970b 863e
00000260: 4cd4 083f d474 eabe f9ef 023f 8e14 d73c
00000270: e062 c5be ce98 e13e 349b f63e cbac 7bbe

classifier.10.bias f4 [10]
0.13301395 0.112272196 0.03155527 0.44930097 0.37821063 -0.31026873 0.02806221 -0.31699377
-0.12724544 -0.07637622
00000000: cf34 083e f7ee e53d 1940 013d c70a e63e
00000010: d3a4 c13e 8bdb 9ebe b8e2 e53c 024d a2be
00000020: a14c 02be 236b 9cbd

exp_avg f4 [32, 784]
3.6578232e-08 -1.269346e-06 1.5652108e-06 2.1644576e-06 -2.3735058e-05 -5.92873e-06 -0.0001368556 -0.00045974783
-0.00027620682 -0.00030779175 -0.0003907908 -0.00032779755 -0.0012816071 -0.0017838532 -0.0016059204 -0.0014308518
-0.0007527291 0.0007888232 0.0005546701 0.00012354793 -0.0004503895 -0.00035583758 -9.360352e-05 -7.767308e-06
1.6856402e-05 7.86427e-06 5.481454e-06 -1.6712288e-07 -2.5359468e-06 -5.97302e-06 -1.5689842e-05 -6.847472e-05
-0.00017090379 -0.00065267715 -0.0009121025 -0.0002831923 0.0010771245 0.00021838347 0.0006471737 -0.00039300052
7.3902345e-05 0.0011344013 0.0013481603 0.0003636991 -0.0013484923 0.001269259 -0.0005639457 0.00035712565
0.00037486778 0.00010854636 -0.0006869601 -0.00026686306 -4.197722e-07 -1.657621e-05 -1.8106508e-05 -1.0727329e-05
-2.1479846e-06 -1.2343321e-05 -3.9711173e-05 -0.00021612657 -0.0006629727 -0.0007645128 0.00014373849 0.00090752717
0.00082582945 0.0001661309 0.00024153382 -0.00077613577 -0.0013070537 -0.00052751147 -0.0005927315 -0.00089856
-0.0007852846 0.00049094635 0.00012340416 -0.00023851701 0.00071387494 0.0006293798 -0.0002635348 -0.0003656765
-0.0002145357 5.4710632e-05 -2.1195145e-05 -1.41714045e-05 7.342384e-06 -1.3142128e-05 -9.155784e-05 -0.00037506988
-0.00058966066 2.0539232e-05 0.00040922523 0.00080385 0.00023247524 -0.0007787186 -0.00038119958 -0.00061075704
-0.0015663025 -0.0009202753 -0.0008137667 -0.0014407377 -0.0007654153 -0.00083192857 -0.00032638904 -0.0002515409
-9.227144e-05 0.0013008205 2.7910692e-05 -0.00045185458 -0.00029924538 7.00172e-05 1.1428728e-05 1.0199028e-06
2.5052473e-06 1.9763103e-05 -0.00014630458 -0.00050299213 -0.00040553452 0.00014651517 -5.931398e-05 -0.0012539965
-0.0010005792 -0.0005529923 -0.00032931767 -0.00067806407 -0.0007079961 -0.0007140189 -0.00082052057 -0.0012886154
-0.0014839132 -0.0010869806 -0.0004914956 -0.0006100302 -0.0017348576 6.3647756e-05 0.00047726376 -0.00061505224
-0.000612168 -3.270931e-05 2.9953317e-05 1.3814637e-05 -1.18770295e-05 -7.2965777e-06 -0.00023214385 -0.0006646356
-0.00041733615 0.00029936514 0.00025820872 -0.0014843801 -0.0010528906 -0.00038115552 0.00010232623 -9.170495e-06
9.1812566e-05 4.5952314e-05 -0.00024533452 -0.00035558117 -0.00022849652 -1.2005718e-05 -4.0799196e-06 -0.00020191232
-0.0012757417 -0.0005821153 0.0013671943 -0.0005074599 -0.0009890342 -0.0002821781 0.00012175872 1.0933931e-07
8.859995e-06 -7.535992e-05 -0.0005029698 -0.0005594866 -0.00017923207 0.00012580902 0.00024238319 -0.0009959443
-0.0004716703 -0.00041764957 0.0013670038 -8.271454e-05 0.0006571884 0.00073939166 0.00017378136 -0.00025497278
0.00076840114 0.00045137282 0.00013744184 0.00045241366 -0.00051277597 -0.0014179046 0.000901236 0.00017599821
-0.0006939478 -0.00065190176 -8.026397e-06 3.4097306e-05 8.881978e-06 -0.00018596415 -0.00069590367 -0.00040093446
-0.00019956741 -0.0002994011 -0.00024631043 -0.0004806386 -0.0005858398 -0.0005598185 0.0011047565 -0.00016709231
5.7102665e-05 0.0007165173 0.00026509902 0.00044976833 0.0005676072 0.00069477496 0.0003435424 0.00060475443
-0.00043931397 -0.0014259375 -0.000106238775 3.5908826e-05 -0.0006995736 -0.00095379824 -0.00027977026 2.3850007e-05
-9.4987256e-05 -0.00034381982 -0.0008283299 -0.00013526845 -0.00025036556 0.00015525514 -0.0007629004 -0.00042996605
-0.0005059446 -0.0010401058 -0.0004791553 -0.00056544796 -0.00026884957 2.0737269e-05 -0.000177621 -0.001112849
-0.0011150176 -8.283264e-05 -0.0003740593 8.823204e-05 -0.00084658066 -0.0014953006 -0.0008034244 0.00049240753
-0.00041604278 -0.0005677616 -0.0004526595 -9.2818074e-05 1.298291e-06 -0.00051761843 -0.00095683266 2.1601461e-05
00000000: 311a 1d33 655e aab5 3c14 d235 1941 1136
00000010: a61a c7b7 67ef c6b6 e580 0fb9 4f0a f1b9
00000020: dacf 90b9 1c5f a1b9 0ee3 ccb9 3edc abb9
00000030: 99fb a7ba 2ed0 e9ba bf7d d2ba 6b8b bbba
00000040: cb52 45ba 07c9 4e3a 4867 113a a58c 0139
00000050: 4122 ecb9 b68f bab9 024d c4b8 5550 02b7
00000060: d966 8d37 c8f0 0337 55ed b736 6372 33b4
00000070: 3c2f 2ab6 da6b c8b6 ae9d 83b7 169a 8fb8
00000080: a334 33b9 6c18 2bba 2a1a 6fba 6d79 94b9
00000090: 4d2e 8d3a defd 6439 18a7 293a a30b ceb9
000000a0: 05fc 9a38 31b0 943a c1b4 b03a deae be39
000000b0: e5bf b0ba 445d a63a c1d5 13ba 983c bb39
000000c0: e789 c439 62a3 e338 1d15 34ba c1e9 8bb9
000000d0: 0d5d e1b4 240d 8bb7 6ee3 97b7 87f9 33b7
000000e0: 1826 10b6 2916 4fb7 8c8f 26b8 09a0 62b9
000000f0: 58cb 2dba 9669 48ba 82b8 1639 1ee7 6d3a
00000100: 7a7c 583a 6d33 2e39 3e44 7d39 9775 4bba
00000110: 7251 abba b248 0aba 8a61 1bba 578d 6bba
00000120: 8fdb 4dba dab2 003a 0d66 0139 6c1a 7ab9
00000130: 5623 3b3a f7fc 243a 0b2b 8ab9 45b8 bfb9
00000140: fdf4 60b9 1879 6538 3acc b1b7 b8c1 6db7
00000150: 995e f636 037d 5cb7 be02 c0b8 07a5 c4b9
00000160: 7593 1aba aa4b ac37 488d d639 76b9 523a
00000170: 99c4 7339 ec22 4cba bedb c7b9 361b 20ba
00000180: 644c cdba a13e 71ba f552 55ba 23d7 bcba
00000190: 27a6 48ba c815 5aba 321f abb9 40e1 83b9
000001a0: da81 c1b8 4b80 aa3a c121 ea37 e5e6 ecb9
000001b0: 09e4 9cb9 33d6 9238 03be 3f37 98e3 8835
000001c0: d21f 2836 f1c8 a537 5669 19b9 3bdb 03ba
000001d0: ec9d d4b9 dea1 1939 e7c7 78b8 245d a4ba
000001e0: de25 83ba aff6 10ba 45a8 acb9 1cc0 31ba
000001f0: d098 39ba ff2c 3bba 3418 57ba c2e6 a8ba
00000200: dd7f c2ba 0479 8eba b6d7 00ba 6fea 1fba
00000210: 2964 e3ba a17a 8538 4239 fa39 753b 21ba
00000220: e679 20ba 5b31 09b8 4244 fb37 6ac5 6737
00000230: 7443 47b7 20d5 f4b6 a46b 73b9 f13a 2eba
00000240: e9cd dab9 1cf4 9c39 3060 8739 888f c2ba
00000250: 2501 8aba d4d5 c7b9 fa97 d638 fada 19b7
00000260: 7f8b c038 ecbc 4038 3ea0 80b9 4c6d bab9
00000270: 9198 6fb9 2b6c 49b7 3ee6 88b6 6db8 53b9
00000280: ca36 a7ba 1999 18ba 6e33 b33a 0f07 05ba
00000290: 7ba2 81ba 4ef1 93b9 b758 ff38 eccd ea33
000002a0: 64a5 1437 8d0a 9eb8 bbd9 03ba 83aa 12ba
000002b0: 3ef0 3bb9 9aeb 0339 3e28 7e39 588a 82ba
000002c0: 844a f7b9 faf7 dab9 092d b33a 0877 adb8
000002d0: 2b47 2c3a bcd3 413a 1439 3639 dead 85b9
000002e0: 876e 493a 3ca6 ec39 431e 1039 ef31 ed39
000002f0: d06b 06ba fcd8 b9ba ed40 6c3a 298c 3839
00000300: 0cea 35ba 63e4 2aba 1da9 06b7 b403 0f38
00000310: ce03 1537 5fff 42b9 4e6d 36ba 8334 d2b9
00000320: f842 51b9 eff8 9cb9 3a23 81b9 39fe fbb9
00000330: 0b93 19ba c9c0 12ba 7acd 903a 8035 2fb9
00000340: 8581 6f38 a9d4 3b3a fdfc 8a39 e2ce eb39
00000350: 79cb 143a 8f21 363a 7b1d b439 6288 1e3a
00000360: b953 e6b9 86e6 baba 82cc deb8 cf9c 1638
00000370: 9763 37ba 5108 7aba 21ae 92b9 8011 c837
00000380: e533 c7b8 b742 b4b9 4724 59ba d9d6 0db9
00000390: 7f43 83b9 fccb 2239 61fd 47ba 116d e1b9
000003a0: 5ea1 04ba 2954 88ba 2337 fbb9 923a 14ba
000003b0: 61f4 8cb9 f2f4 ad37 c63f 3ab9 04dd 91ba
000003c0: c825 92ba 6fb6 adb8 641d c4b9 3709 b938
000003d0: 11ed 5dba f6fd c3ba e69c 52ba e914 013a
000003e0: 5120 dab9 d6d5 14ba ee52 edb9 53a7 c2b8
000003f0: f040 ae35 c9b0 07ba f4d3 7aba c934 b537

exp_avg_sq f4 [32, 784]
1.3530177e-11 2.2468664e-11 3.526505e-10 7.237316e-09 3.409752e-08 7.534678e-08 2.177811e-07 4.997102e-07
1.2889459e-06 2.8606644e-06 5.0644285e-06 5.5983833e-06 7.2402618e-06 9.8105975e-06 9.654673e-06 8.848373e-06
6.3215434e-06 6.2136096e-06 4.296994e-06 1.944235e-06 7.3310514e-07 2.962065e-07 1.2556058e-07 5.1636526e-08
1.1277733e-08 3.5192373e-09 1.7983076e-10 1.4470065e-11 4.9497892e-11 1.4874893e-10 1.2922612e-08 7.7573404e-08
1.8997467e-07 9.3806375e-07 2.4973372e-06 5.166009e-06 9.972264e-06 1.3521381e-05 1.4412139e-05 1.2808138e-05
1.2042455e-05 1.2129089e-05 1.2050189e-05 1.2459344e-05 1.2993466e-05 1.4347446e-05 1.4485868e-05 1.2072379e-05
7.455556e-06 3.4623033e-06 1.4154124e-06 4.0837224e-07 1.7003056e-07 3.9629395e-08 1.17160335e-08 7.419797e-10
1.5226244e-10 3.184475e-09 6.87688e-08 1.9187395e-07 1.0567355e-06 2.9919042e-06 6.1334426e-06 9.801667e-06
1.1244401e-05 1.1303817e-05 1.2251397e-05 1.3645594e-05 1.3556951e-05 1.1912733e-05 1.1865198e-05 1.2170203e-05
1.4136676e-05 1.196218e-05 1.13962615e-05 1.201665e-05 1.1148163e-05 8.503658e-06 4.362444e-06 1.587129e-06
4.3447378e-07 1.3916939e-07 2.3614454e-08 1.980926e-09 1.2227858e-09 2.1478304e-08 1.5089165e-07 5.834507e-07
1.939917e-06 5.4365732e-06 8.2601955e-06 1.1490663e-05 1.4365972e-05 1.2022739e-05 1.225711e-05 1.2244628e-05
1.2699253e-05 1.2340219e-05 1.3128409e-05 1.2628464e-05 1.1855306e-05 1.1339092e-05 1.1914012e-05 1.2302598e-05
1.2946461e-05 1.0144485e-05 7.156252e-06 3.263025e-06 9.401455e-07 3.0876072e-07 5.1153364e-08 3.4593504e-09
8.540925e-09 7.634498e-08 2.6980726e-07 9.640298e-07 3.1197699e-06 6.6470916e-06 1.1097801e-05 1.5844094e-05
1.526588e-05 1.2708103e-05 1.2139781e-05 1.1677727e-05 1.1623696e-05 1.1940672e-05 1.2110386e-05 1.15934145e-05
1.11099835e-05 1.181495e-05 1.1895529e-05 1.2837024e-05 1.5983149e-05 1.4208955e-05 8.921304e-06 4.962316e-06
1.6524114e-06 5.5512623e-07 1.2757704e-07 1.1589667e-08 5.5237908e-09 1.4561425e-07 4.983223e-07 1.3009858e-06
4.1665176e-06 8.54057e-06 1.354859e-05 1.7823088e-05 1.6393553e-05 1.2889385e-05 1.1951227e-05 1.2096172e-05
1.2090424e-05 1.18891985e-05 1.1028597e-05 1.1540558e-05 1.1137374e-05 1.0843146e-05 1.1110555e-05 1.3090912e-05
1.5981606e-05 1.6272623e-05 1.124094e-05 6.765148e-06 2.597215e-06 9.43183e-07 2.2968915e-07 1.7194253e-08
1.6226789e-08 2.2374768e-07 6.9628845e-07 1.8061362e-06 4.98624e-06 9.778536e-06 1.5545533e-05 1.9581548e-05
1.6865506e-05 1.3243872e-05 1.1799622e-05 1.1328766e-05 1.1000028e-05 1.1021871e-05 1.1336184e-05 1.0147631e-05
1.0162696e-05 1.0927902e-05 1.1272068e-05 1.2776218e-05 1.6164131e-05 1.799974e-05 1.1857988e-05 7.73168e-06
3.744921e-06 1.3319565e-06 3.18739e-07 2.9044717e-08 3.8596273e-08 3.151558e-07 8.8661704e-07 2.448751e-06
6.084798e-06 1.0750287e-05 1.7954135e-05 1.9350366e-05 1.5920274e-05 1.2642297e-05 1.1458504e-05 1.0926267e-05
1.0589906e-05 1.0339494e-05 1.0208683e-05 9.603951e-06 9.908234e-06 1.0663267e-05 1.1106853e-05 1.22399e-05
1.543293e-05 1.7886223e-05 1.3097605e-05 8.777345e-06 4.7434696e-06 1.802219e-06 5.263511e-07 5.4026188e-08
2.8142622e-08 3.1470537e-07 1.0400732e-06 3.288013e-06 6.8509535e-06 1.1763074e-05 2.0637968e-05 1.9779955e-05
1.6112026e-05 1.24969065e-05 1.0973223e-05 1.0315446e-05 9.849132e-06 1.0420451e-05 1.0321546e-05 9.592879e-06
9.496011e-06 9.739543e-06 1.0687902e-05 1.202484e-05 1.4656057e-05 1.858295e-05 1.502826e-05 9.765419e-06
5.4771463e-06 2.283693e-06 6.9743646e-07 5.3118036e-08 3.2908194e-08 3.4951478e-07 1.4520791e-06 3.7792793e-06
00000000: 8006 6e2d efa2 c52d 25df c12f 1bac f831
00000010: 9f72 1233 55ce a133 37d7 6934 d323 0635
00000020: d8ff ac35 d7f9 3f36 1cef a936 bfd9 bb36
00000030: 60f1 f236 3298 2437 81fa 2137 7973 1437
00000040: a51d d436 807e d036 e62e 9036 b479 0236
00000050: 9aca 4435 5006 9f34 d4d1 0634 f6c6 5d33
00000060: ffbf 4132 14d7 7131 dcb9 452f 618f 7e2d
00000070: acb1 592e 1a8d 232f 4002 5e32 6e96 a633
00000080: d7fb 4b34 40cf 7b35 ed97 2736 ae57 ad36
00000090: 8c4e 2737 e4d9 6237 aacb 7137 89e2 5637
000000a0: f309 4a37 0a7e 4b37 2b2b 4a37 7a08 5137
000000b0: 83fe 5937 d0b5 7037 5408 7337 798a 4a37
000000c0: bd2a fa36 eb59 6836 33f9 bd35 413e db34
000000d0: a591 3634 fb34 2a33 a947 4932 2ef4 4b30
000000e0: 116a 272f e0d5 5a31 0cae 9333 e905 4e34
000000f0: 28d5 8d35 86c8 4836 dfcd cd36 d771 2437
00000100: 56a6 3c37 86a5 3d37 598b 4d37 61ef 6437
00000110: a972 6337 ccdc 4737 a310 4737 a02e 4c37
00000120: 902c 6d37 2cb1 4837 9232 3f37 1e9b 4937
00000130: ff08 3b37 efaa 0e37 1c61 9236 5605 d535
00000140: 9f41 e934 976e 1534 bcd8 ca32 d220 0831
00000150: f30e a830 4a7f b832 c804 2234 6d9e 1c35
00000160: 852f 0236 cf6b b636 4595 0a37 06c8 4037
00000170: 6105 7137 45b5 4937 e3a3 4d37 476e 4d37
00000180: e00e 5537 d608 4f37 1642 5c37 d7de 5337
00000190: 27e6 4637 083d 3e37 4be2 4737 4267 4e37
000001a0: a034 5937 3b32 2a37 bd1f f036 58fa 5a36
000001b0: 4f5e 7c35 c0c3 a534 b8b3 5b33 89b9 6d31
000001c0: 63bb 1232 19f3 a333 07da 9034 d063 8135
000001d0: 3d5d 5136 150a df36 b130 3a37 efe8 8437
000001e0: 3a0f 8037 e334 5537 f6ab 4b37 75eb 4337
000001f0: 6503 4337 cc54 4837 b62d 4b37 5681 4237
00000200: 0465 3a37 d338 4637 e892 4737 995e 5737
00000210: 8d13 8637 ff62 6e37 b5ac 1537 f881 a636
00000220: 6cc8 dd35 fc03 1535 1cfc 0834 e51b 4732
00000230: c7cb bd31 245a 1c34 73c4 0535 889d ae35
00000240: 1dce 8b36 7849 0f37 c04e 6337 ca82 9537
00000250: e384 8937 7d3f 5837 2182 4837 aaf0 4a37
00000260: fad7 4a37 b877 4737 7707 3937 529e 4137
00000270: a8da 3a37 f5ea 3537 7867 3a37 0aa1 5b37
00000280: 3d10 8637 3181 8837 7897 3c37 2e00 e336
00000290: d04b 2e36 0b2f 7d35 79a0 7634 90b2 9332
000002a0: 1663 8b32 4b3f 7034 94e8 3a35 5e6a f235
000002b0: 7a4f a736 7e0e 2437 c767 8237 0e43 a437
000002c0: 667a 8d37 ff31 5e37 fef6 4537 ae10 3e37
000002d0: c38c 3837 93ea 3837 8a30 3e37 be3f 2a37
000002e0: 7280 2a37 fb56 3737 2a1d 3d37 7059 5637
000002f0: 3598 8737 26fe 9637 acf1 4637 50b7 0137
00000300: 4151 7b36 adc5 b235 281f ab34 027e f932
00000310: 0dc5 2533 af32 a934 dcff 6d35 3955 2436
00000320: 042c cc36 225c 3437 369c 9637 9852 a237
00000330: 878c 8537 411a 5437 e63d 4037 f64f 3737
00000340: 4dab 3137 ca77 2d37 f645 2b37 a820 2137
00000350: 8a3b 2637 62e6 3237 9257 3a37 f859 4d37
00000360: f775 8137 5f0a 9637 c9bd 5b37 6942 1337
00000370: 182a 9f36 c6e3 f135 924a 0d35 6c0a 6833
00000380: 48be f132 c7f4 a834 a598 8b35 a2a7 5c36
00000390: 3ee1 e536 055a 4537 b31f ad37 21ed a537
000003a0: 5028 8737 cea9 5137 a219 3837 8110 2d37
000003b0: b33d 2537 7fd3 2e37 b42a 2d37 1af1 2037
000003c0: 0f51 1f37 0567 2337 3150 3337 4bbe 4937
000003d0: 49e3 7537 95e2 9b37 e321 7c37 28d6 2337
000003e0: 54c8 b736 8c41 1936 7837 3b35 e623 6433
000003f0: f156 0d33 f2a4 bb34 0fe5 c235 869f 7d36
