lightning_logs/version_1/checkpoints/model-epoch=18-val_loss=0.40-0.ckpt (torch, 185102 bytes, 48 tensors)

classifier.1.weight f4 [16, 784]
0	0x3cc31ba9	0.0238169
1	0xbc01d329	-0.00792388
2	0xbcd5c837	-0.026096446
3	0x3cde8cf1	0.027166815
4	0x3cb36315	0.021897832
5	0x3cf29cf0	0.02961585
6	0xba9b5c0d	-0.0011852995
7	0xbe1a2fe2	-0.15057328
8	0xbca79093	-0.02045468
9	0x3c4d4e51	0.012530879
10	0xbd0e9137	-0.034806456
11	0xbcce1619	-0.025157021
12	0x3ce15f6c	0.027511321
13	0x3dc02947	0.09382873
14	0x3df1929b	0.11795541
15	0x3d4bf232	0.049791522
16	0xbcfa6997	-0.030567927
17	0xbd6f1617	-0.058370676
18	0xbd26c4a1	-0.040714864
19	0xbda2b6be	-0.079450116
20	0xbe513130	-0.2042892
21	0xbdf23844	-0.11827138
22	0x3d562454	0.05228074
23	0x3d14f849	0.036369596
24	0x3c8f3efb	0.017486086
25	0x3cdea518	0.027178332
26	0x3d20ad18	0.039227575
27	0x3d3ebdec	0.046567842
28	0x3bcc0af3	0.006226891
29	0x3c97bcce	0.018522646
30	0x3c2f899a	0.010713959
31	0x3c61423f	0.013748704
32	0x3da04439	0.078255124
33	0xbcfbaa36	-0.030720811
34	0x3cbff33f	0.023431418
35	0xbd17ded6	-0.037077747
36	0xbd0aa112	-0.033845015
37	0xbd4a494e	-0.049386315
38	0xbd001848	-0.031273156
39	0xbccc2080	-0.024917841
40	0xbc07d754	-0.008291084
41	0xbd0de7ed	-0.03464501
42	0x3ce3fe13	0.027831113
43	0x3d2a1b92	0.0415302
44	0xbbacacd0	-0.0052696243
45	0xbccdd16f	-0.02512428
46	0xbd59d400	-0.053180695
47	0xbd0dbda8	-0.0346047
48	0xbd92358a	-0.07139118
49	0xbd315200	-0.043291092
50	0x3d28fe8b	0.041258376
51	0x3d107cdd	0.03527533
52	0x3d182e8c	0.037153766
53	0x3d056668	0.032568365
54	0x3cd74617	0.026278539
55	0xbd53fa59	-0.051752422
56	0xbcd03ace	-0.025418665
57	0xbca8af44	-0.020591386
58	0xbcb2f0a1	-0.021843256
59	0x390a09a3	0.00013164296
60	0xbc983da6	-0.018584084
61	0xbc5fb08b	-0.013652931
62	0xbd0b25cb	-0.03397159
63	0xbcfe2b03	-0.031026369
64	0xbd136bf1	-0.035991613
65	0xbb710ab1	-0.0036780054
66	0x3bba5d03	0.0056873574
67	0xbca74af8	-0.02042149
68	0x3c97c229	0.0185252
69	0x3c6bfd66	0.014403677
70	0x3cec8ba8	0.028875187
71	0x37be2c37	2.2670354e-05
72	0x3cb1be3c	0.021697156
73	0xbb41a0e0	-0.0029545352
74	0xbb29025f	-0.0025788767
75	0xbccd1dee	-0.025038686
76	0xbd232a2c	-0.03983514
77	0xbd11cac0	-0.035593748
78	0x3ca4eded	0.020132983
79	0x3a17dd25	0.0005793146
80	0xbc596c7a	-0.013270492
81	0xbcbd23c1	-0.023088338
82	0xbb57d441	-0.003293291
83	0x3c49ebe1	0.012324304
84	0xbb2254da	-0.0024769814
85	0x3d066910	0.03281504
86	0xbc8e975d	-0.01740616
87	0x3c63727a	0.013882274
88	0xbc81cb0a	-0.015843887
89	0xbc45590b	-0.012045155
90	0xbd1a7f67	-0.037719157
91	0x3c843506	0.016138565
92	0xbd2e0b16	-0.04249104
93	0xbcc6d49b	-0.0242713
94	0x3d230a78	0.039804906
95	0x3c5a4f41	0.01332456
96	0xbce3cc39	-0.027807342
97	0xbb88f7dc	-0.0041799378
98	0x3c51afa8	0.012798227
99	0x3bdb3c94	0.006690571
100	0xbb821246	-0.0039694635
101	0x3be284e6	0.0069128154
102	0x3ccc1caf	0.024916021
103	0x3c06b1b6	0.0082210805
104	0x3d6f2a1a	0.05838976
105	0xbcb006db	-0.021487644
106	0x3c8dd090	0.017311364
107	0xbcc84fda	-0.024452139
108	0x3b712505	0.0036795747
109	0xbcaf4eee	-0.021399941
110	0x3c3e1791	0.011602298
111	0x3d6d0c81	0.057873253
112	0xbc0f1078	-0.008731954
113	0xbc91fff6	-0.017822247
114	0xbcc65ce7	-0.024214221
115	0xbd3195c8	-0.043355733
116	0xbd84957a	-0.06473823
117	0xbcd4712a	-0.025932867
118	0xbcd619f0	-0.026135415
119	0xbb90b600	-0.0044162273
120	0x39cdd13e	0.00039256545
121	0x3d075aa3	0.033045422
122	0x3c411ecb	0.011787127
123	0xbcfb85c8	-0.03070344
124	0xbc9503ff	-0.018190382
125	0x3b6c2a0e	0.0036035809
126	0x3ca330d2	0.01992074
127	0x3b76d6a6	0.0037664562
128	0x3d321abb	0.043482523
129	0x3b3c00bd	0.0028686963
130	0xbb15402a	-0.002277384
131	0x3a6f7e49	0.00091359444
132	0xbcb971a3	-0.022637194
133	0x3cb40b1d	0.021977955
134	0x3ceb844e	0.028749611
135	0xbd1724a4	-0.036900178
136	0xbd8efaad	-0.06981406
137	0xbcef9890	-0.029247552
138	0x3ceed54d	0.029154444
139	0xbcd11ada	-0.0255255
140	0xbd04bb0d	-0.032404948
141	0xbadafb73	-0.0016707018
142	0x3c8c02cf	0.017091183
143	0xbdccb883	-0.0999613
144	0xbd1604fd	-0.03662585
145	0xbc0bc379	-0.008530491
146	0xbd1e38d1	-0.038628403
147	0xbc840194	-0.016114034
148	0xbd1703e4	-0.036868945
149	0x3c32f74d	0.010923219
150	0x3c374d01	0.011187793
151	0xbcb9d9a6	-0.02268679
152	0xbc9a02f9	-0.018800246
153	0xbc18e6f9	-0.009332412
154	0x3c274134	0.010208417
155	0xbd13a43d	-0.0360453
156	0x3c8fcc03	0.017553335
157	0xbb8c899c	-0.0042888653
158	0xbd0791d9	-0.033098076
159	0x3d07eed1	0.033186737
160	0xbc3977fb	-0.0113201095
161	0x3d239878	0.039940327
162	0x3d0484e4	0.032353297
163	0xbc278ea8	-0.010226883
164	0xbc9016f1	-0.017589064
165	0xbb68f1ac	-0.0035544438
166	0xbbeed18e	-0.0072881645
167	0xbd42a0b2	-0.047516532
168	0x3ca58be1	0.020208301
169	0xb9945874	-0.00028294662
170	0xbd101077	-0.035171952
171	0xbd9d2eb4	-0.076749235
172	0xbccd5336	-0.025064092
173	0xbc91e57f	-0.017809628
174	0xbb1bf07d	-0.0023794465
175	0x3be9d1d5	0.0071356096
176	0x3c94b6ba	0.018153537
177	0xbd3233fd	-0.04350661
178	0xbcf03875	-0.029323796
179	0x3d260703	0.04053403
180	0x3ca309b2	0.019902084
181	0xbc47eb12	-0.012202041
182	0xba32948c	-0.00068122963
183	0xbd10d32d	-0.035357643
184	0xbc346ea2	-0.011012705
185	0xbba6401d	-0.005073561
186	0xbc2017c9	-0.009771296
187	0xbbcadff7	-0.0061912495
188	0x3c228ecb	0.00992174
189	0x3d341ca6	0.043972634
190	0x3c89c49b	0.016817382
191	0x3aadbdd9	0.0013255432
192	0x3c87d2a2	0.01657993
193	0xbd06d242	-0.03291536
194	0xbd762f50	-0.060103714
195	0xbd37adf6	-0.044843636
196	0xbd1929e0	-0.03739345
197	0x3b90e294	0.0044215415
198	0xbd299384	-0.041400447
199	0xbd01c38c	-0.03168063
200	0x3d210992	0.039315768
201	0xbd4723b2	-0.048618026
202	0xbd42d2ac	-0.047564194
203	0xbd3995b0	-0.04530877
204	0xbcc08039	-0.023498641
205	0xbbf135b2	-0.0073611373
206	0xbc93e6d1	-0.018054398
207	0x3c576e73	0.013148892
208	0x3cf40e3a	0.02979194
209	0xbaea31f1	-0.0017867667
210	0xbbfdf5b9	-0.0077502397
211	0xbc191294	-0.009342808
212	0x3bcbbd1f	0.0062176134
213	0x3c8b60cd	0.017013932
214	0xbcc2cd18	-0.023779437
215	0xbcde5fbf	-0.027145265
216	0x3bd95023	0.0066318675
217	0x3cdecce5	0.02719731
218	0xbca9e748	-0.020740166
219	0xbb2583a8	-0.0025255475
220	0xbbb317ae	-0.0054654693
221	0x3baff99a	0.005370331
222	0xbc3ddd66	-0.01158843
223	0xbbd97bbd	-0.006637065
224	0xbce2c88e	-0.027683523
225	0x3c18b02f	0.009319349
226	0xbcebe295	-0.028794566
227	0xbc83450d	-0.016024137
228	0x3d328a1f	0.043588754
229	0xbc0a1a32	-0.008429097
230	0xbd213e16	-0.03936585
231	0xbc7225e9	-0.014779546
232	0x3c07d024	0.008289371
233	0xbc462453	-0.012093621
234	0x3cacfe84	0.021117456
235	0xbaa9e0b4	-0.0012960644
236	0xbc7351ba	-0.014851028
237	0xbc14db4a	-0.009085486
238	0x3cd8bdf1	0.026457759
239	0xbbb9499a	-0.005654526
240	0xbc8b7574	-0.01702378
241	0x3ca93a5d	0.020657713
242	0x3c148bcf	0.009066536
243	0xbc002b52	-0.007822828
244	0xbcaefd84	-0.02136112
245	0x3b5ef99c	0.003402329
246	0x3c67cb66	0.014147615
247	0xbbe6bdab	-0.007041653
248	0xbd39430e	-0.045229964
249	0xbd3ae764	-0.045630828
250	0xbbf80efd	-0.007570146
251	0x3c686912	0.014185207
252	0x3bab367b	0.0052250004
253	0x3bdc653d	0.0067259357
254	0x3d0f189b	0.034935575
255	0xbca3b56d	-0.019983971

classifier.1.bias f4 [16]
0	0xbc821e9e	-0.01588374
1	0x3cfe4a50	0.031041294
2	0xbd137cf9	-0.036007855
3	0xbb7dc698	-0.0038723107
4	0x390bdac7	0.00013337574
5	0xbbd2800b	-0.0064239553
6	0xbcca094f	-0.024662642
7	0xbc1ac97d	-0.009447453
8	0xbccea6c8	-0.025226012
9	0x3cfd4d84	0.030920751
10	0x3bac9a1c	0.0052673947
11	0x3cfe34e1	0.031031074
12	0x3cc2a464	0.023760028
13	0xbbc9501f	-0.0061435844
14	0xbce775b4	-0.028254367
15	0x3a0924fd	0.0005231647

classifier.2.weight f4 [16]
0	0x3f6f3c84	0.93451715
1	0x3f7e6c51	0.9938403
2	0x3f72f8c9	0.94910866
3	0x3f892cb7	1.0716771
4	0x3f7f0aed	0.99626046
5	0x3f6ba4bf	0.9204826
6	0x3f7d54b4	0.9895737
7	0x3f6e97ab	0.93200177
8	0x3f8352e5	1.0259672
9	0x3f808eab	1.0043539
10	0x3f6cf9ad	0.92568475
11	0x3f8ea713	1.1144737
12	0x3f83c755	1.0295206
13	0x3f865c52	1.0496924
14	0x3f857ef2	1.0429366
15	0x3f81a6ac	1.0128989

classifier.2.bias f4 [16]
0	0x3bc78e5a	0.0060899677
1	0xbd8a0db7	-0.06740897
2	0xbb919d98	-0.0044438355
3	0x3c1bde4e	0.009513451
4	0xbd88ecad	-0.06685767
5	0xbdccc854	-0.09999147
6	0x3d3061ba	0.04306195
7	0xbe163359	-0.14668025
8	0xbcc9d3d4	-0.02463714
9	0x3cbfa0a1	0.023392024
10	0x3d8504d1	0.06495059
11	0x3df47486	0.119362876
12	0x3de887e2	0.113540426
13	0xbe48f614	-0.19625121
14	0x3e04d97b	0.12973587
15	0x3c15f082	0.00915158

classifier.2.running_mean f4 [16]
0	0x3fdbc9fb	1.7171015
1	0xbf51aae6	-0.81901395
2	0xc02a9114	-2.6651049
3	0x3f871ecb	1.0556272
4	0x3e62278b	0.22085397
5	0x406633c7	3.5969102
6	0x3ea1f34d	0.31630936
7	0x4008f88b	2.1401699
8	0x4084d638	4.1511497
9	0x402a8a9e	2.6647105
10	0x3f4aff90	0.7929621
11	0x3f9f9133	1.2466186
12	0xbff39d5f	-1.9032401
13	0x405d41f7	3.4571512
14	0x40808daa	4.017293
15	0x3efbc56d	0.4917406

classifier.2.running_var f4 [16]
0	0x3f28d081	0.6594315
1	0x3f3fa16f	0.74855703
2	0x3f9db519	1.2320892
3	0x3fd4bbba	1.661979
4	0x3ef3c42d	0.47610608
5	0x3f684dd4	0.90743756
6	0x3f8ff017	1.1245145
7	0x3f1d25e5	0.6138595
8	0x3fbe665e	1.487499
9	0x3f5a9c00	0.8539429
10	0x3ef1fc05	0.47262588
11	0x3fa11836	1.2585514
12	0x3f9a24d9	1.2042495
13	0x3faf31bb	1.3687052
14	0x3faaeb97	1.3353146
15	0x3f9015fe	1.1256711

classifier.4.weight f4 [16, 16]
0	0xbd6edc59	-0.05831561
1	0xbe0c6f5d	-0.13714357
2	0x3d6aa2fc	0.05728434
3	0xbe3cbf83	-0.18432431
4	0xbc8ebc8d	-0.017423892
5	0x3ea3d8cb	0.32001337
6	0x3bf4ac9e	0.0074668666
7	0x3d437719	0.047721002
8	0x3dac300b	0.08407601
9	0xbe4fd7fc	-0.20297235
10	0x3e0fb1d3	0.14032678
11	0xbd931727	-0.0718215
12	0x3e5adb9c	0.21372837
13	0x3e2f47f8	0.17117298
14	0xbdc5f2cf	-0.09665453
15	0xbe63ddf0	-0.22252631
16	0xbe30f507	-0.1728097
17	0xbd5cbc1a	-0.053890325
18	0xbe96506d	-0.29358235
19	0x3e702fd8	0.23455751
20	0x3d93d022	0.072174326
21	0xbe2962d5	-0.16541608
22	0x3cef91af	0.029244272
23	0x3dbdd42c	0.09268984
24	0xbdfd1c8e	-0.12358962
25	0x3d06602f	0.03280657
26	0x3e3f3bbb	0.18675129
27	0x3e95bc63	0.2924529
28	0xbdac9506	-0.084268615
29	0x3e759681	0.23983194
30	0x3d97f58e	0.07419883
31	0xbe940855	-0.28912607
32	0xbe3a57f5	-0.18197615
33	0x3e1af0c1	0.15130903
34	0x3db97c27	0.09056883
35	0xbdce44e5	-0.10071734
36	0x3dbb1765	0.091353215
37	0xbdb7cc97	-0.08974569
38	0x3e464ecb	0.19365995
39	0xbe29ed31	-0.16594388
40	0xbe3998d0	-0.181247
41	0xbde1cd6e	-0.11025511
42	0x3da133b0	0.07871187
43	0x3e797091	0.24359347
44	0xbe478011	-0.19482447
45	0xbe022bee	-0.1271207
46	0x3e658716	0.22414812
47	0x3dbdeeb4	0.09274045
48	0x3d896351	0.06708396
49	0xbe6101e8	-0.21973383
50	0xbdd5e39f	-0.10443806
51	0x3e3928bc	0.18081945
52	0xbda38514	-0.07984367
53	0xbcf2f425	-0.029657433
54	0xbe106d6a	-0.14104238
55	0x3dc7ea0c	0.09761438
56	0xbd199f71	-0.03750557
57	0xbe964bb4	-0.29354632
58	0xbdf0ce99	-0.117581554
59	0xbd85fd98	-0.0654251
60	0xbe897cd8	-0.2685306
61	0xbe6b5c03	-0.22984318
62	0x3e4f3e84	0.20238692
63	0xbdac9116	-0.084261104
64	0x3b73ba91	0.003719006
65	0x3e09f21c	0.13471264
66	0x3e2ea8f1	0.17056634
67	0xbd6294b0	-0.05531758
68	0xbd73cf4b	-0.05952386
69	0x3e762ef3	0.24041347
70	0xbe781959	-0.2422842
71	0xbd89f8dd	-0.0673692
72	0xbe0bde6c	-0.13659066
73	0xbe5a4971	-0.21317078
74	0x3e4a6a9a	0.19767228
75	0x3d94dff5	0.07269279
76	0xbd88a703	-0.0667248
77	0x3e578a92	0.21048954
78	0xbe6e0129	-0.2324263
79	0xbeb4ca2f	-0.35310504
80	0xbe5cdb75	-0.21568091
81	0x3d6d5674	0.057943776
82	0xbd692ee5	-0.056929488
83	0x3e346056	0.17614874
84	0xbdc2150c	-0.094766706
85	0x3d37b075	0.044846017
86	0xbe070cc8	-0.1318847
87	0xbe357905	-0.17721947
88	0x3e85f84c	0.26165998
89	0xbe79a52d	-0.24379416
90	0xbd4dbda6	-0.05022969
91	0xbd17b5ed	-0.037038732
92	0xbe477a8a	-0.19480339
93	0xbb0534e8	-0.0020325724
94	0xbdb94fae	-0.09048401
95	0x3d831a53	0.06401505
96	0x3e1aea31	0.151284
97	0xbb826f88	-0.0039805807
98	0x3d915b40	0.07097483
99	0xbe8893a5	-0.26675144
100	0x3d5108ad	0.051033664
101	0xbea2b07b	-0.3177527
102	0xbdd3b5c3	-0.10337403
103	0x3be52575	0.0069929906
104	0x3d957871	0.07298363
105	0x3d74a863	0.0597309
106	0xbd7b7dc8	-0.06139925
107	0xbcbe2edd	-0.023215706
108	0xbdd2e854	-0.10298219
109	0xbd917b43	-0.071035884
110	0x3e66518f	0.2249205
111	0x3d205e8a	0.03915266
112	0x3dd884ef	0.1057223
113	0x3c9d3128	0.019188479
114	0xbe233306	-0.15937433
115	0xbe6d8ab1	-0.23197438
116	0xb852ee10	-5.0289615e-05
117	0x3e3bbc11	0.1833346
118	0x3d51990c	0.051171347
119	0x3baffda6	0.0053708134
120	0xbe4f282f	-0.20230173
121	0xbdf37ed7	-0.11889427
122	0x3e8ade89	0.27122906
123	0xbe5ead0a	-0.21745697
124	0x3e4e47eb	0.20144622
125	0xbd7d1428	-0.0617868
126	0x3d567ec4	0.052366987
127	0x3e744c00	0.23857117
128	0xbe07db54	-0.13267261
129	0xbe3ae646	-0.18251905
130	0xbe819e07	-0.25315878
131	0xbe2b894f	-0.16751598
132	0xbd950d58	-0.07277936
133	0x3e2ccff8	0.16876209
134	0xbd15e50e	-0.036595397
135	0x3baa4caa	0.0051971273
136	0xbdd22cb0	-0.1026243
137	0x3d458d54	0.048230484
138	0x3da1e6db	0.0790536
139	0xbe29da8d	-0.16587277
140	0xbe807f57	-0.25097153
141	0x3e39b425	0.18135126
142	0xbdbc5d1d	-0.091974474
143	0x3d9d5358	0.07681912
144	0xbdb37d51	-0.087641366
145	0xbe3c4805	-0.18386848
146	0xbd570baa	-0.052501358
147	0xbe0ceab2	-0.13761404
148	0x3e392e8d	0.18084164
149	0x3c0d1bb7	0.008612565
150	0xbdf6371a	-0.120222285
151	0x3e761717	0.24032246
152	0xbc98c268	-0.018647388
153	0x3e0081e5	0.12549551
154	0x3de1ce70	0.11025703
155	0xbe007805	-0.12545784
156	0x3d3e9dab	0.046537083
157	0x3e82cb4a	0.25545722
158	0x3dab8406	0.08374791
159	0x3d8063b6	0.06269018
160	0xbc32367b	-0.010877247
161	0xbe4ad0f7	-0.19806276
162	0xbe3abddb	-0.18236487
163	0xbe17810b	-0.1479532
164	0xbd07f279	-0.033190224
165	0x3c4e8fbd	0.012607512
166	0xbe4b7892	-0.19870213
167	0xbca797dd	-0.020458156
168	0xbe9aad78	-0.3021047
169	0xbc83c76f	-0.016086308
170	0xbd8ddb53	-0.069265984
171	0xbcbf35ea	-0.023341138
172	0x3c85df59	0.016341852
173	0x3d39edf4	0.045392945
174	0x3dbeaa8a	0.093098715
175	0x3d441b9b	0.04787789
176	0x3d7dbe7d	0.061949242
177	0x3d2d2dc9	0.042279992
178	0xbd252f68	-0.040328413
179	0xbe11774c	-0.14205664
180	0x3dc3da3a	0.09563108
181	0x3dc42b7c	0.095786065
182	0xbce969d2	-0.028492842
183	0x3e79a415	0.24378999
184	0x3dd3f865	0.10350112
185	0x3daf0468	0.08545762
186	0x3dd79403	0.10526278
187	0x3e839604	0.2570039
188	0xbe00961d	-0.12557264
189	0xbe06f2a8	-0.13178504
190	0x3e4688cd	0.19388123
191	0x3e38e1e3	0.18054919
192	0x3de5ce1f	0.11220955
193	0x3e195c55	0.14976628
194	0xbcf05ce5	-0.02934117
195	0x3db8e0d2	0.09027256
196	0x3e658c12	0.22416714
197	0x3db16571	0.086619265
198	0x3db1a0b7	0.08673232
199	0xbe053120	-0.13007021
200	0x3d4df9c5	0.050287027
201	0xbd0ecf14	-0.034865454
202	0x3e175171	0.14777161
203	0xbdf02620	-0.11726022
204	0x3e312e10	0.17302728
205	0x3e4a71b5	0.19769938
206	0xbe0f11b9	-0.13971604
207	0xbdc579ff	-0.096424095
208	0xbd65e793	-0.05612905
209	0x3e060a60	0.13089895
210	0xbe376a68	-0.17911685
211	0x3c1fcdf8	0.009753697
212	0xbddbbcd7	-0.10729378
213	0x3b1d446a	0.0023997077
214	0xbe214a5d	-0.15751024
215	0xbdc30d8a	-0.09524067
216	0xbd391268	-0.04518357
217	0xbdd3535c	-0.10318634
218	0xbe2ffdce	-0.17186663
219	0x3d793293	0.060839247
220	0x3e064e59	0.13115825
221	0x3de59029	0.11209137
222	0xbe6bad67	-0.23015366
223	0x3da0bb7d	0.078482606
224	0xbdabfc37	-0.083977155
225	0xbe7b439a	-0.24537507
226	0xbcb7f3f4	-0.022455193
227	0xbd80d6fa	-0.062910035
228	0xbd2d50ca	-0.042313375
229	0x3db4b0f4	0.08822814
230	0x3d7790b4	0.060440734
231	0x3e284440	0.16432285
232	0x3bd52ffb	0.006505964
233	0xbdc1c8dd	-0.0946214
234	0x3d94ed01	0.072717674
235	0xbbedaf43	-0.007253559
236	0xbe63e58f	-0.22255538
237	0xbe3f008c	-0.18652552
238	0xbeace73a	-0.33770162
239	0xbdc6fe88	-0.09716517
240	0xbe37548e	-0.17903349
241	0xbe68f4f3	-0.2274969
242	0x3d67f270	0.05662769
243	0xbdf35b4f	-0.1188265
244	0x3d2c20a1	0.042023305
245	0x3c283d5c	0.010268535
246	0xbe33c7db	-0.17556708
247	0xbda91a95	-0.08257023
248	0xbd5dbc02	-0.054134376
249	0x3e12d337	0.14338385
250	0xbcc88e46	-0.024481904
251	0x3de84096	0.11340444
252	0xbe4ff5e7	-0.20308648
253	0xbe7c7c17	-0.24656712
254	0xbe60f53a	-0.21968547
255	0xbe1c8c64	-0.1528793

classifier.4.bias f4 [16]
0	0xbc0efd97	-0.008727453
1	0xbdd63c40	-0.104607105
2	0x3dcfc1f7	0.10144418
3	0x3d24872a	0.040167965
4	0xbe58f121	-0.21185733
5	0xbe6ad27c	-0.22931856
6	0xbd7b4104	-0.0613413
7	0xbdbd3c0b	-0.09239968
8	0x3e0674fa	0.1313056
9	0x3d989ef5	0.07452194
10	0x3e6b8ccb	0.23002927
11	0xbdb2b472	-0.087258235
12	0x3d7c70f6	0.061631165
13	0xbe163c19	-0.14671363
14	0xbdabf64c	-0.08396587
15	0x3e2004d0	0.15626836

classifier.5.weight f4 [16]
0	0x3f7823d6	0.9692968
1	0x3f88a955	1.0676676
2	0x3f7563c4	0.95855355
3	0x3f72a851	0.9478808
4	0x3f82b283	1.0210727
5	0x3f835977	1.0261678
6	0x3f8c2a27	1.0950364
7	0x3f5a3947	0.8524365
8	0x3f955e53	1.166941
9	0x3f6c9e92	0.9242946
10	0x3f7535f8	0.95785475
11	0x3f6aee8d	0.9177025
12	0x3f77db7d	0.9681929
13	0x3f86505f	1.0493277
14	0x3f8aebac	1.0853171
15	0x3f79e80e	0.9761971

classifier.5.bias f4 [16]
0	0x3dbbe6d4	0.09174886
1	0x3e36a57e	0.17836568
2	0xbd129fa7	-0.035796788
3	0xbd528fc1	-0.051406626
4	0x3df18a5f	0.1179397
5	0xbcc23716	-0.023707908
6	0x3de569dd	0.112018324
7	0xbd0bda67	-0.03414383
8	0xbcc1f7b2	-0.02367768
9	0x3e595227	0.21222745
10	0x3d37079a	0.044684984
11	0xbd3f3ad0	-0.046686947
12	0x3d15f7e8	0.036613375
13	0x3d80073a	0.06251378
14	0xbe2ee8af	-0.17080949
15	0xbe2fc38c	-0.17164439

classifier.5.running_mean f4 [16]
0	0xbd37c81c	-0.044868574
1	0xbd28c217	-0.041200723
2	0x3e2f14c6	0.17097768
3	0xbec3cdda	-0.3824299
4	0xbee77499	-0.45206144
5	0xbf01685e	-0.50549877
6	0xbe10a7f2	-0.14126566
7	0xbd74d019	-0.05976877
8	0xbe8d8dc0	-0.2764721
9	0x3e412027	0.18859921
10	0xbe147aed	-0.14500017
11	0x3ea46dd5	0.32115045
12	0x3eaae25c	0.33375823
13	0xbecd4032	-0.4008804
14	0xbf0a2b54	-0.53972363
15	0xbebc9e56	-0.3683955

classifier.5.running_var f4 [16]
0	0x3e200c62	0.15629724
1	0x3e99a597	0.30009148
2	0x3dcfb3f5	0.10141746
3	0x3dd3349d	0.103127696
4	0x3ecc0826	0.39849967
5	0x3dbd6764	0.09248236
6	0x3d9c1a73	0.07622232
7	0x3dd23482	0.10263921
8	0x3e14ad37	0.14519201
9	0x3d8c5c04	0.06853488
10	0x3dd5f1c9	0.104465075
11	0x3e0106e8	0.12600291
12	0x3e13e7af	0.14443849
13	0x3ddd1e58	0.10796803
14	0x3dbb4d1b	0.09145566
15	0x3daa475f	0.08314394

classifier.7.weight f4 [16, 16]
0	0xbe43fd7e	-0.19139668
1	0xbe91f604	-0.28508008
2	0xbe23de0b	-0.16002671
3	0x3cae9780	0.021312475
4	0x3dacb0be	0.084321484
5	0x3e017736	0.12643132
6	0x3d1802ec	0.03711216
7	0x3dade651	0.08491195
8	0xbd867457	-0.06565159
9	0x3e11c4d1	0.14235236
10	0xbd171ba3	-0.03689159
11	0x3e482d75	0.1954859
12	0xbe6e16cd	-0.23250885
13	0xbe313113	-0.17303877
14	0xbe6a162d	-0.22860022
15	0x3d69b7a7	0.05705991
16	0xbd9842e2	-0.07434632
17	0xbd7658e5	-0.06014337
18	0x3bf4e16c	0.0074731614
19	0x3d304481	0.04303408
20	0x3db48b95	0.08815686
21	0x3e85c9d5	0.26130548
22	0x3dce1164	0.10061911
23	0xbdc38134	-0.09546128
24	0x3e29bb05	0.16575249
25	0xbd33f33d	-0.043933142
26	0x3d0893cc	0.033344075
27	0x3d122ab1	0.035685245
28	0xbd659959	-0.056054447
29	0x3e1c667d	0.15273471
30	0x3d63df47	0.055632856
31	0x3e0e3166	0.13886032
32	0x3b832376	0.00400203
33	0x3ea8eb9c	0.32992256
34	0x3d88e599	0.06684417
35	0x3e2e6f87	0.17034732
36	0xbe0d2f7a	-0.13787642
37	0x3e058833	0.13040237
38	0xbe249a44	-0.16074473
39	0xbd80cc47	-0.06288963
40	0xbe8e7a6d	-0.27827778
41	0xbd9c405f	-0.07629465
42	0x3db9525a	0.090489104
43	0x3d9faaf1	0.07796276
44	0x3d0b9044	0.03407313
45	0xbca430f7	-0.02004288
46	0x3e241ae7	0.16025887
47	0xbe3ec0a2	-0.18628171
48	0x3d42538c	0.047442958
49	0x3d06d463	0.03291739
50	0xbce5c0dd	-0.028046066
51	0xbd93f97b	-0.07225319
52	0x3ea5fedc	0.32421005
53	0xbdcbc115	-0.09948937
54	0xbe3e926f	-0.18610547
55	0x3e277b4e	0.16355631
56	0xbd8d1bd2	-0.06890072
57	0x3e3447b5	0.17605479
58	0x3bf275f8	0.007399317
59	0xbd9c8831	-0.07643164
60	0xbc67ca69	-0.014147379
61	0x3e1d3d7c	0.15355486
62	0xbe2745a4	-0.1633516
63	0xbd46a234	-0.048494533
64	0xbd9cfc71	-0.07665337
65	0x3d3d5b46	0.046229623
66	0x3e2951d5	0.16535123
67	0x3d10e7ce	0.035377316
68	0x3decae37	0.11556666
69	0xbe5e96a7	-0.21737157
70	0xbe04fc7d	-0.12986942
71	0xbdacf97f	-0.08446025
72	0x3dab632c	0.08368525
73	0x3de2d09b	0.110749446
74	0x3e811fab	0.25219473
75	0xbdeaeaed	-0.1147059
76	0x3da6a6f5	0.08137313
77	0xbe3700ee	-0.17871448
78	0xbdb23e0c	-0.08703241
79	0x3e8a93c7	0.2706587
80	0xbd85efbf	-0.065398686
81	0x3d7f14a1	0.062275533
82	0x3ba37cc8	0.0049892403
83	0xbe5c4f7b	-0.21514694
84	0xbdc2e512	-0.09516348
85	0xbc249348	-0.01004488
86	0xbd7f23a7	-0.06228986
87	0xbde49e5f	-0.111630194
88	0x3e94fc56	0.29098767
89	0x3d7b03bf	0.06128287
90	0xbcf30e71	-0.029669972
91	0xbd9d62d0	-0.076848626
92	0x3ddda646	0.1082273
93	0x3b4ae3f7	0.0030958632
94	0x3d08c54d	0.033391286
95	0xbe40d9f3	-0.18833141
96	0x3e0665ff	0.13124846
97	0xbdb8e825	-0.09028653
98	0xbe03c4e2	-0.12868074
99	0x3c34a21f	0.011024981
100	0xbda4f68f	-0.0805484
101	0xbdba7c7a	-0.09105773
102	0x3e5db9ab	0.21652858
103	0xbe93ed99	-0.2889221
104	0x3e10ade2	0.14128831
105	0xbd03d684	-0.032187
106	0xbe64411d	-0.22290464
107	0x3e1f3825	0.15548761
108	0x3b11652d	0.002218555
109	0xbdaf64ab	-0.08564123
110	0xbd735148	-0.059403688
111	0x3d8351f6	0.06412117
112	0xbe046dee	-0.1293256
113	0x3d03e923	0.03220476
114	0xbe187918	-0.14889944
115	0x3dcadf46	0.09905867
116	0x3d8a3fa1	0.067504175
117	0x3eabe92e	0.3357634
118	0xbda93c52	-0.08263458
119	0xbd19a938	-0.037514895
120	0x3d776d25	0.060406823
121	0xbce2f96e	-0.027706828
122	0xbaeae8ef	-0.0017922203
123	0x3db9a943	0.09065487
124	0xbd1d7f4a	-0.03845147
125	0xbda76b48	-0.08174759
126	0xbe744976	-0.23856148
127	0xbdbfbe48	-0.09362465
128	0x3e35166d	0.17684336
129	0xbe4186e3	-0.18899111
130	0xbd095c52	-0.03353531
131	0xbdb1fd68	-0.086909115
132	0x3eaca928	0.33722806
133	0x3e050b1e	0.12992522
134	0xbdbe0960	-0.09279132
135	0xbd648ac6	-0.055796407
136	0xbdefe2fb	-0.11713215
137	0xbdf7a691	-0.12092317
138	0x3d2f4b9e	0.042796724
139	0x3e306419	0.17225684
140	0xbdf638b8	-0.12022537
141	0x3d2ccefe	0.04218959
142	0x3d424d8a	0.04743723
143	0x3dfdb945	0.12388853
144	0xbda932b2	-0.082616225
145	0x3dd54f9e	0.104155764
146	0x3d88a573	0.06672182
147	0xbd8ebc8a	-0.06969555
148	0xbdf65f58	-0.12029904
149	0x3cc8c01a	0.024505664
150	0x3e189fbb	0.14904682
151	0x3dc53c47	0.096306376
152	0xbc4bf64b	-0.012448858
153	0x3cffda63	0.031232065
154	0x3e2b8a59	0.16751994
155	0xbe6a2133	-0.22864227
156	0xbdcc4fd9	-0.09976167
157	0x3e7928f3	0.24332027
158	0x3d498176	0.04919573
159	0xbe4337fe	-0.19064328
160	0xbd4c9efa	-0.0499563
161	0x3e30febb	0.17284672
162	0xbe1bbc8c	-0.15208644
163	0xbdeca2d2	-0.11554493
164	0x3e0b623a	0.13611689
165	0xbe44b698	-0.19210279
166	0xbda568a5	-0.080766
167	0xbc8fc69c	-0.017550759
168	0x3dd1f67c	0.10252091
169	0x3e28479f	0.16433571
170	0x3d843286	0.06454949
171	0x3d55e9fa	0.05222509
172	0x3e2a13b6	0.16609082
173	0xbe74ecff	-0.23918532
174	0x3e954105	0.29151168
175	0xbe8adb35	-0.27120367
176	0x3e32ef0a	0.17473999
177	0xbe45fb98	-0.19334257
178	0xbdfedf1b	-0.12444898
179	0xbea5caa6	-0.3238117
180	0xbd2f745c	-0.04283558
181	0xbdd00775	-0.10157672
182	0xbd6e6ea3	-0.05821098
183	0xbe072389	-0.1319715
184	0xbe1fd072	-0.1560686
185	0xbe958eb7	-0.29210445
186	0xbdfb0601	-0.122570045
187	0xbd8cce08	-0.06875235
188	0x3d833585	0.064066924
189	0xbe5837e5	-0.21115072
190	0x3db8d09f	0.09024166
191	0xbd663594	-0.05620344
192	0xbe6903bb	-0.2275533
193	0xbe0a1d10	-0.13487649
194	0x3e8aadc4	0.27085698
195	0x3c5a2da5	0.013316547
196	0x3e15526d	0.14582224
197	0xbd39bcf0	-0.0453462
198	0xbd628b94	-0.055308893
199	0x3e337a0b	0.17527024
200	0xbe85a573	-0.2610279
201	0x3d6aacac	0.05729358
202	0x3e7cf084	0.24701124
203	0x3d8deb61	0.069296606
204	0xbd7bf00c	-0.061508223
205	0x3dd88e53	0.10574021
206	0xbdd835a4	-0.10557106
207	0x3dae9173	0.08523836
208	0xbdd8d32f	-0.10587155
209	0xbe532d8a	-0.2062284
210	0x3db047d0	0.08607447
211	0xbb6cb20a	-0.0036116862
212	0xbe1894f3	-0.1490057
213	0x3dffbe41	0.1248746
214	0xbd80650f	-0.062692754
215	0xbcfa2776	-0.030536395
216	0xbc4024c4	-0.011727516
217	0xbd84445f	-0.06458353
218	0xbc0600b8	-0.008178882
219	0x3dbe99d4	0.09306684
220	0x3e4ac858	0.19802988
221	0xbbb77a13	-0.005599269
222	0x3ec67176	0.3875844
223	0x3c6f9181	0.014622093
224	0xbe60e0d2	-0.21960762
225	0xbbdc0afa	-0.0067151757
226	0xbe0d8bd4	-0.13822871
227	0x3e630411	0.2216952
228	0x3bb8c96b	0.0056392453
229	0xbdaee420	-0.08539605
230	0x3de2dd62	0.11077382
231	0x3c8fc07c	0.017547838
232	0xbd21fba5	-0.039546628
233	0xbb97fd96	-0.004638384
234	0xbc9fcd15	-0.01950697
235	0xbe5f2922	-0.21793035
236	0xbe1e5dc6	-0.15465459
237	0xbd8e8210	-0.06958401
238	0xbe52862e	-0.20558998
239	0xbd8e8295	-0.069585
240	0x3d0fa195	0.035066206
241	0x3d28db45	0.041224737
242	0xbda04f4d	-0.078276254
243	0x3baf51e2	0.0053503374
244	0x3e448944	0.19192988
245	0xbb1456bd	-0.0022634708
246	0xbe48cb7a	-0.1960887
247	0x3dbb7907	0.091539435
248	0xbe7af0d6	-0.24505934
249	0xbd6d67ec	-0.057960436
250	0xbd95ff90	-0.07324135
251	0x3df2cf04	0.11855891
252	0xbdfa1960	-0.12211871
253	0xbd9567dc	-0.072952
254	0xbe313b71	-0.17307831
255	0x3e37255a	0.17885342

classifier.7.bias f4 [16]
0	0x3da2c1a4	0.0794709
1	0x3e65ac61	0.22429039
2	0xbdc5b184	-0.09652999
3	0x3e519632	0.20467451
4	0x3dd1eebb	0.10250612
5	0x3dc49dde	0.09600423
6	0xbd6b2622	-0.057409413
7	0x3e5eee1d	0.2177052
8	0x3d847354	0.064673096
9	0x3e05540f	0.13020347
10	0xbe1c0d95	-0.15239556
11	0x3d46be2f	0.048521217
12	0x3e4e9c6f	0.20176862
13	0x3e6e2a69	0.23258366
14	0x3cb268a8	0.02177842
15	0xbe179ae2	-0.14805177

classifier.8.weight f4 [16]
0	0x3fa9691c	1.3235202
1	0x3fa4b1fc	1.2866817
2	0x3faf90fe	1.3716123
3	0x3faaf77c	1.3356776
4	0x3fac34d7	1.3453625
5	0x3fa92dc4	1.3217092
6	0x3fac5ee5	1.346646
7	0x3fac484f	1.3459567
8	0x3facfa60	1.3513908
9	0x3fac241b	1.3448519
10	0x3fa61310	1.2974567
11	0x3fb4e461	1.4132196
12	0x3fb44dac	1.4086204
13	0x3faa7c97	1.3319272
14	0x3fabb58b	1.3414778
15	0x3facffc9	1.351556

classifier.8.bias f4 [16]
0	0x3e9a4583	0.30131158
1	0x3e7fbf12	0.24975231
2	0x3eb313cb	0.34976038
3	0x3eb288a8	0.34869885
4	0x3eb4e212	0.35328728
5	0x3e95c4a5	0.2925159
6	0x3ea04eeb	0.3131021
7	0x3ea2f3a1	0.318265
8	0x3eb83c5b	0.35983548
9	0x3eafeb98	0.3435943
10	0x3e9a6e8c	0.30162466
11	0x3ecd5813	0.40106258
12	0x3ec8f9e2	0.39253145
13	0x3e9e5da5	0.3093082
14	0x3ea8a321	0.32936957
15	0x3eaf09bb	0.3418711

classifier.8.running_mean f4 [16]
0	0xbe5ff98d	-0.2187254
1	0x3f0c4450	0.54791737
2	0xbd4a5e69	-0.049406443
3	0x3e9d8585	0.3076593
4	0x3e41d55e	0.1892905
5	0x3d08f645	0.033437986
6	0xbe28a799	-0.16470183
7	0x3e23f26a	0.16010442
8	0x3e23fea8	0.16015112
9	0x3e6c516d	0.23077936
10	0xbdb94695	-0.090466656
11	0xbf18ffd5	-0.5976537
12	0x3e809a0a	0.25117522
13	0x3e83c819	0.257386
14	0xbea45dda	-0.32102853
15	0xbea9eebb	-0.3318995

classifier.8.running_var f4 [16]
0	0x3e07cda7	0.13262044
1	0x3ddfe8cf	0.109330766
2	0x3e4acd23	0.19804816
3	0x3e3edcc0	0.18638897
4	0x3dc7c9e1	0.09755302
5	0x3d75daf6	0.06002327
6	0x3d8f7db9	0.070064016
7	0x3d89444b	0.06702479
8	0x3e009ebf	0.12560557
9	0x3ce30c48	0.027715817
10	0x3dfdac82	0.12386419
11	0x3de146bf	0.10999822
12	0x3da36fef	0.07980334
13	0x3db44bf0	0.088035464
14	0x3dd7d8d5	0.10539404
15	0x3d2eff62	0.04272402

classifier.10.weight f4 [10, 16]
0	0xbeebfe3f	-0.46092412
1	0xbe3cb8c3	-0.18429856
2	0x3eabf9ba	0.33588964
3	0xbec29320	-0.38002872
4	0x3eb3a7c4	0.35088933
5	0xbea2286c	-0.31671464
6	0xbe3891e0	-0.18024397
7	0xbeafdf99	-0.3435028
8	0xbd5ad23d	-0.053423155
9	0xbe84b4b5	-0.2591912
10	0xbee2a7d4	-0.44268668
11	0xbf018df9	-0.5060726
12	0x3ee11f8b	0.43969378
13	0xbebeed34	-0.37290347
14	0xbe329789	-0.17440619
15	0x3edf4133	0.4360443
16	0xbe982beb	-0.29721007
17	0xbe9b077e	-0.30279154
18	0x3e680824	0.22659355
19	0xbe9d9df8	-0.30784583
20	0xbefd01a2	-0.49415308
21	0x3dd66ff3	0.10470571
22	0xbec68ec0	-0.38780785
23	0xbd99cb19	-0.07509441
24	0xbe5a7b5c	-0.2133612
25	0xbe96e764	-0.29473412
26	0x3e9da96b	0.30793318
27	0x3e931556	0.28727216
28	0xbea1e9c0	-0.3162365
29	0x3ee35dc0	0.44407463
30	0xbefe4481	-0.4966164
31	0xbdce05ba	-0.10059686
32	0x3ef23eef	0.4731364
33	0xbed2001b	-0.41015705
34	0xbee0d5ea	-0.43913203
35	0xbe4fb7f7	-0.20285021
36	0xbdbf9e60	-0.093563795
37	0xbedc56f7	-0.430351
38	0x3f0bf21e	0.54666317
39	0xbe49857e	-0.1967983
40	0x3d252299	0.040316198
41	0xbeb47ad4	-0.3524996
42	0xbdc461c6	-0.09588961
43	0xbed28609	-0.41117886
44	0x3e478bb8	0.19486892
45	0xbe1b3d9e	-0.15160224
46	0x3ea081e1	0.3134909
47	0xbe09e460	-0.13466024
48	0x3cd244d5	0.025667587
49	0x3c6894ae	0.014195604
50	0x3ee0a375	0.43874708
51	0xbe9a5888	-0.3014567
52	0xbeaefe5d	-0.3417844
53	0xbeb73b49	-0.35787418
54	0xbdac56dd	-0.08415005
55	0x3ef195a6	0.47184485
56	0xbe8b5d1e	-0.2721948
57	0xbe955e41	-0.29173473
58	0xbe668136	-0.22510228
59	0xbe9fda49	-0.31221226
60	0xbef416a1	-0.47673514
61	0xbe612888	-0.21988118
62	0x3eafcab0	0.34334326
63	0x3ee97105	0.4559404
64	0x3e43f5a3	0.19136672
65	0xbed9f351	-0.42568448
66	0xbed684c4	-0.41898167
67	0xbec19d9a	-0.37815553
68	0xbead1ed5	-0.33812585
69	0xbece05b0	-0.40238714
70	0x3e962acf	0.29329535
71	0xbec789bf	-0.3897228
72	0xbe307d0e	-0.17235205
73	0x3e36c3cf	0.17848133
74	0xbed6d977	-0.41962788
75	0x3ee7be26	0.4526226
76	0xbf047a50	-0.51749134
77	0xbea6db8b	-0.32589373
78	0x3ec2c237	0.380388
79	0xbe2e5721	-0.17025425
80	0xbed03ec9	-0.406729
81	0xbeba31f1	-0.36366227
82	0xbe8b8b2a	-0.2725461
83	0x3eb50aae	0.3535971
84	0x3ee39086	0.444462
85	0x3e56f558	0.20992029
86	0xbe8b4a20	-0.2720499
87	0xbebad81d	-0.36493006
88	0x3c907fa6	0.017638993
89	0xbe0c31c5	-0.1369086
90	0x3efb781d	0.49115077
91	0xbedcc1f0	-0.43116713
92	0xbee3a91f	-0.44464967
93	0xbec7ed79	-0.39048365
94	0xbe8c023d	-0.27345458
95	0xbee7add5	-0.4524981
96	0x3e124fa7	0.14288197
97	0xbeccbc05	-0.39987198
98	0x3e03a9a0	0.12857676
99	0xbda19895	-0.07890431
100	0x3dee0a3e	0.11623047
101	0xbef7e86b	-0.48419508
102	0xbe75e28d	-0.24012204
103	0xbea0fc3e	-0.31442446
104	0xbecda478	-0.40164542
105	0x3f0ea96b	0.5572726
106	0xbe90e538	-0.2829988
107	0xbe323fe5	-0.17407186
108	0x3ed0eb88	0.40804696
109	0xbeb882b9	-0.36037233
110	0x3ebdedf1	0.37095597
111	0xbeabe974	-0.33576548
112	0xbe81db6f	-0.25362727
113	0x3ee92b12	0.45540673
114	0xbe66a1d4	-0.2252267
115	0x3e9365f7	0.2878873
116	0xbf0512dd	-0.5198191
117	0x3e8aa60c	0.2707981
118	0xbeae142d	-0.33999768
119	0x3ea0464a	0.31303626
120	0x3ecf6871	0.4050937
121	0x3e459d5f	0.19298314
122	0xbec1aa22	-0.37825114
123	0xbea13fd4	-0.3149401
124	0xbd77e2d4	-0.060519055
125	0xbe84d246	-0.25941676
126	0xbd073d7b	-0.033017617
127	0xbe9be5ec	-0.30448854
128	0xbdf6292d	-0.120195724
129	0xbeadeafa	-0.33968335
130	0xbd79d30d	-0.06099229
131	0x3ed9f3c7	0.425688
132	0xbeedb42d	-0.46426526
133	0xbee1dd2a	-0.44114047
134	0xbebbf4dc	-0.3671025
135	0xbeb73110	-0.3577962
136	0x3ef19008	0.471802
137	0xbebef458	-0.37295794
138	0xbd7e0a24	-0.06202139
139	0x3eac5da9	0.33665207
140	0x3e31516c	0.17316216
141	0xbeb8622c	-0.360124
142	0xbebf1c17	-0.37326118
143	0x3ef77e3a	0.4833849
144	0xbeda9a3e	-0.42695802
145	0x3ef0f489	0.47061566
146	0xbef2f386	-0.4745142
147	0xbe87387f	-0.2641029
148	0x3ee0cda1	0.43906882
149	0xbef73bea	-0.48287898
150	0xbec6b1bf	-0.38807485
151	0xbeca35d6	-0.394942
152	0x3ee677cf	0.45013282
153	0xbe75473b	-0.23952954
154	0xbeaf7e5e	-0.34276098
155	0xbec268c0	-0.37970543
156	0xbe8487d5	-0.25884882
157	0x3ef751b7	0.4830453
158	0xbea6ad70	-0.32554197
159	0xbee91b38	-0.4552858

classifier.10.bias f4 [10]
0	0x3ec057d5	0.3756701
1	0x3e0a7152	0.13519791
2	0x3cd9d0b2	0.026588771
3	0xbb50e1f1	-0.0031872953
4	0x3ecc8209	0.3994296
5	0x3e513828	0.20431578
6	0x3d2693ef	0.040668424
7	0xbec764f1	-0.389442
8	0xbe69f004	-0.22845465
9	0x3e2f4479	0.17115964

exp_avg f4 [16, 784]
0	0x34f62cc4	4.5853642e-07
1	0x3536e225	6.8129367e-07
2	0xb5e9123c	-1.736516e-06
3	0xb5750008	-9.126966e-07
4	0x379ca7c5	1.8674773e-05
5	0x36d79cc0	6.4257474e-06
6	0xb79d6e7c	-1.8767307e-05
7	0x38bfde37	9.1489805e-05
8	0xb70e2d0d	-8.474349e-06
9	0xb74516d5	-1.1747431e-05
10	0x39861875	0.00025576694
11	0xba0896d1	-0.00052104617
12	0xba8ed6de	-0.0010897776
13	0xba91f996	-0.0011137004
14	0xba942b7f	-0.0011304467
15	0xba724cdc	-0.00092430203
16	0x385c08c3	5.2460247e-05
17	0x392c71d2	0.000164456
18	0xb6934146	-4.38854e-06
19	0xb9a038d4	-0.00030559918
20	0x37f7e6c5	2.9552155e-05
21	0x37c20264	2.3127715e-05
22	0xb7e64836	-2.7451762e-05
23	0xb7210612	-9.597761e-06
24	0x3756d11a	1.2804079e-05
25	0xb61b9cb5	-2.3188015e-06
26	0x33e64a37	1.0723709e-07
27	0x34985734	2.8375655e-07
28	0xb3f41623	-1.1366162e-07
29	0xb553a084	-7.8837206e-07
30	0x371ed15a	9.466277e-06
31	0x380e8fcb	3.3989356e-05
32	0xb72523ef	-9.843133e-06
33	0xb7674f75	-1.3787173e-05
34	0xb96c7593	-0.00022550514
35	0xb99e72df	-0.00030221694
36	0xba9112e1	-0.0011068248
37	0xba80a8a1	-0.000981588
38	0xba9036f9	-0.0011002711
39	0xbab4e5d9	-0.001380141
40	0xb81ba751	-3.7110705e-05
41	0xb950d7ee	-0.00019916866
42	0xba043269	-0.0005042912
43	0xba835c7a	-0.0010022067
44	0xba9877a2	-0.0011632333
45	0xba751993	-0.0009349819
46	0xba11a69e	-0.0005556139
47	0xb8852fee	-6.350862e-05
48	0xba078288	-0.0005169292
49	0xba05ca4e	-0.0005103693
50	0xb99663d5	-0.0002868461
51	0xb8a0ee73	-7.673809e-05
52	0x385c882d	5.257891e-05
53	0x389248d1	6.9753856e-05
54	0x37a22871	1.9330737e-05
55	0x36b3368f	5.340967e-06
56	0x35f56e6f	1.8286063e-06
57	0xb593aa00	-1.100183e-06
58	0x37eda550	2.8329581e-05
59	0xb7315ce1	-1.0571647e-05
60	0xb88b24bb	-6.634878e-05
61	0xb91fd4d3	-0.00015242705
62	0xb9cdbd3c	-0.00039241638
63	0xb9a27226	-0.00030984095
64	0xbaa5f461	-0.0012661332
65	0xbaf05e8a	-0.0018338722
66	0xba7988f7	-0.00095190055
67	0xba13f2dc	-0.0005643794
68	0xb851c13a	-5.000944e-05
69	0x3a2a4183	0.00064947474
70	0x3a660c78	0.00087756617
71	0xb94e477e	-0.00019672324
72	0xbaa3f69e	-0.0012509411
73	0xb9c3c7a9	-0.00037342057
74	0xbab66cda	-0.0013917938
75	0xba7d4ba7	-0.0009662457
76	0xb9fd6de6	-0.000483378
77	0xb9e2bc3f	-0.00043246333
78	0xba04771e	-0.000505315
79	0xb8b8aa6c	-8.805547e-05
80	0x391f8181	0.00015211666
81	0x38f84833	0.0001183901
82	0x3800148e	3.053672e-05
83	0xb707f91b	-8.104626e-06
84	0x3617b1d1	2.2604256e-06
85	0x3771f56e	1.4421863e-05
86	0xb6ee3a7e	-7.099762e-06
87	0xb86123ba	-5.3677453e-05
88	0xb9267af7	-0.00015876802
89	0xb92d91a8	-0.00016552827
90	0xba0cbc8f	-0.00053686736
91	0xb973b2c7	-0.00023240886
92	0xba11a720	-0.00055562146
93	0xba6e8c53	-0.00090998894
94	0xba22077e	-0.0006180926
95	0xba0bc8dc	-0.00053323596
96	0x392dc1ab	0.00016570713
97	0x386d07cd	5.651247e-05
98	0x39fde075	0.00048423154
99	0xb9a328b0	-0.00031120097
100	0xba089f0b	-0.00052116875
101	0xb9c54d51	-0.00037632373
102	0xb9f1fd98	-0.00046156044
103	0xba743a95	-0.0009316591
104	0xba566bd3	-0.0008179519
105	0xba0d306e	-0.000538594
106	0x386c1f0e	5.6295707e-05
107	0xb8ce175a	-9.827195e-05
108	0xb96d967b	-0.0002265814
109	0xb786da2c	-1.6075639e-05
110	0xb80417c8	-3.14934e-05
111	0xb836fb2f	-4.3626114e-05
112	0x3623980f	2.4377402e-06
113	0x37ba9646	2.2242904e-05
114	0xb79c4c73	-1.8632249e-05
115	0xb785ac1a	-1.5934977e-05
116	0xb8848ad1	-6.320107e-05
117	0xba252ad8	-0.00063006347
118	0xb940731c	-0.00018353428
119	0xb9c7484d	-0.00038010106
120	0xba5e1e74	-0.0008473166
121	0xb9f72600	-0.00047139823
122	0xb995dade	-0.00028582563
123	0xba02a3b1	-0.00049834984
124	0xb93daaa5	-0.00018088015
125	0xb947ea0c	-0.00019065308
126	0xb8a02142	-7.635589e-05
127	0xb87e4e4b	-6.0631235e-05
128	0xb789c8e3	-1.6425218e-05
129	0xb9910b21	-0.00027664847
130	0xba442b85	-0.00074832916
131	0xba3e3928	-0.0007256442
132	0xba1802eb	-0.00057987747
133	0xb8c94921	-9.598048e-05
134	0x3a0a32a5	0.0005271829
135	0x398e8655	0.00027184436
136	0x38a5cc0b	7.905819e-05
137	0xb8851025	-6.344941e-05
138	0xb89dd267	-7.525534e-05
139	0xb77da96e	-1.5119424e-05
140	0x36add868	5.180995e-06
141	0x37815a36	1.5420006e-05
142	0x373c711a	1.1232007e-05
143	0x35db271e	1.6328156e-06
144	0xb9aff32b	-0.00033559775
145	0xb9780236	-0.00023651947
146	0x3977246a	0.00023569321
147	0xba93fb06	-0.0011290021
148	0xba4ffcfe	-0.0007934122
149	0xba01d2c6	-0.0004952367
150	0x3940bebc	0.00018381601
151	0x37a40fb1	1.955763e-05
152	0xb97a9ea4	-0.00023900956
153	0x3a329c7a	0.0006813478
154	0x3aa97adf	0.0012930295
155	0x3a14ef9c	0.00056814565
156	0x39cb24bc	0.00038746546
157	0x390ae554	0.00013246137
158	0xba1a76d0	-0.0005892338
159	0xbab40d71	-0.0013736916
160	0xbaa22b07	-0.0012372442
161	0xb961b19b	-0.00021523835
162	0x3a0cafe4	0.0005366786
163	0x39c8f8f5	0.0003833246
164	0x38a7c3ff	7.999688e-05
165	0xb85b3441	-5.2262334e-05
166	0xb81a274f	-3.675307e-05
167	0x37586935	1.2899099e-05
168	0xb78b9fc3	-1.6644486e-05
169	0xb84b9f84	-4.8547532e-05
170	0xb7e4055e	-2.7182217e-05
171	0xb8c9aa30	-9.616127e-05
172	0xba4c6bb3	-0.0007798031
173	0x39da80aa	0.00041676062
174	0x38a886ac	8.035949e-05
175	0xba93a777	-0.0011265118
176	0xba39c89e	-0.0007087084
177	0xb9d31e71	-0.00040267737
178	0xb9ecbc64	-0.0004515379
179	0xb8e80e65	-0.00011065303
180	0x3898132a	7.2514944e-05
181	0x399cb34c	0.00029888225
182	0x383f9f05	4.5686047e-05
183	0x3a6a088d	0.0008927666
184	0x39290358	0.00016118342
185	0x389af41b	7.3887604e-05
186	0xb8ff3911	-0.00012169977
187	0xba930453	-0.0011216499
188	0xba9c99a3	-0.0011947643
189	0xba8bc30a	-0.0010662985
190	0x3a22e274	0.0006213554
191	0x3a1fa18d	0.00060894416
192	0xb991e1f4	-0.00027824903
193	0xb86e6e9e	-5.6846642e-05
194	0xb81c1b1e	-3.7218553e-05
195	0xb6e9278c	-6.948545e-06
196	0x37298c13	1.01057985e-05
197	0xb74dac37	-1.2259049e-05
198	0xb8189684	-3.6379803e-05
199	0xb38cf50d	-6.5638325e-08
200	0xb9f94b21	-0.00047548956
201	0x3a1e0bbd	0.0006028971
202	0xba08423c	-0.0005197858
203	0xba85d63f	-0.0010210945
204	0xba449cec	-0.000750019
205	0xba2d05fe	-0.0006600319
206	0xbaa3a426	-0.0012484833
207	0xb9d92868	-0.0004141957
208	0xba02343b	-0.00049668894
209	0x39bd3bda	0.00036093482
210	0x3911c2f6	0.00013900906
211	0x392d7a20	0.00016544061
212	0xb98c03be	-0.0002670567
213	0xba7ce490	-0.00096470956
214	0xba2e118d	-0.00066401885
215	0xba8033b8	-0.0009781038
216	0xba76b131	-0.0009410559
217	0xbac6ebf9	-0.0015176527
218	0x3a032412	0.00050026283
219	0x3a7ae82f	0.0009571341
220	0x389f1e84	7.587395e-05
221	0x37acf711	2.0619047e-05
222	0x391d2b5e	0.00014988842
223	0xb8a198b6	-7.705523e-05
224	0x3796fb80	1.7998507e-05
225	0x3814f0c0	3.5510166e-05
226	0xb7e70c21	-2.7542994e-05
227	0xb7abc196	-2.0474934e-05
228	0xb98d54d8	-0.0002695683
229	0x3991ea35	0.00027831053
230	0xba212653	-0.00061473734
231	0xba4f372d	-0.0007904645
232	0x3833b29c	4.284327e-05
233	0xb9fc6bd7	-0.00048145532
234	0xba72fe8b	-0.0009269497
235	0xba19cf0f	-0.0005867341
236	0xba6ac4cc	-0.00089557166
237	0xb9cb26a9	-0.0003874798
238	0xb992b1c2	-0.0002797973
239	0xb9be7c32	-0.00036332157
240	0xb9cc01f4	-0.00038911367
241	0xba80db2b	-0.0009830942
242	0xbaf86c9a	-0.0018953264
243	0xbac96087	-0.001536385
244	0xbac5bafa	-0.0015085631
245	0xbaba6ab9	-0.001422248
246	0x389799ed	7.228912e-05
247	0x3ab1199a	0.0013511658
248	0x39e63401	0.00043907764
249	0xb8fc63aa	-0.0001203486
250	0x38ff764a	0.000121813806
251	0x3880268c	6.1106955e-05
252	0x3803535f	3.131048e-05
253	0x3822014d	3.862502e-05
254	0x38c4a7ab	9.377239e-05
255	0xb909ac7a	-0.0001312959

exp_avg_sq f4 [16, 784]
0	0x2d3e476b	1.08161076e-11
1	0x2df94670	2.8339303e-11
2	0x2fa645aa	3.0244723e-10
3	0x3101de98	1.88985e-09
4	0x321198bd	8.4748395e-09
5	0x321388b6	8.587611e-09
6	0x32641de3	1.3278142e-08
7	0x337c330e	5.8719756e-08
8	0x344f8f68	1.9330548e-07
9	0x352cab07	6.432387e-07
10	0x361e4bbd	2.358792e-06
11	0x3682de5f	3.9001893e-06
12	0x36cc3415	6.085737e-06
13	0x370006b0	7.630952e-06
14	0x37026f0d	7.77446e-06
15	0x36ff4286	7.6073366e-06
16	0x36a5f0b9	4.945407e-06
17	0x3653a470	3.1537165e-06
18	0x35d913ce	1.6173524e-06
19	0x34f8c476	4.6336544e-07
20	0x3436f5d6	1.7039505e-07
21	0x3383b3cf	6.13287e-08
22	0x33332138	4.1706897e-08
23	0x32db81d1	2.555399e-08
24	0x3206200a	7.807111e-09
25	0x312c0d5e	2.5036893e-09
26	0x30e70ce5	1.6811127e-09
27	0x3032dca6	6.5069583e-10
28	0x2e5d4f09	5.031978e-11
29	0x2f27c46a	1.5258342e-10
30	0x30fba5f3	1.8309819e-09
31	0x31cd24da	5.970475e-09
32	0x32780d04	1.4438459e-08
33	0x33113305	3.3806845e-08
34	0x345fc02f	2.083841e-07
35	0x3577d1d4	9.232001e-07
36	0x36281f96	2.5052336e-06
37	0x36cbcac3	6.073476e-06
38	0x3746949d	1.1836321e-05
39	0x37889849	1.6283377e-05
40	0x37a9a21e	2.0221862e-05
41	0x379a54c6	1.8397706e-05
42	0x3794c9ab	1.7736884e-05
43	0x37a44058	1.9580286e-05
44	0x3799048d	1.824114e-05
45	0x3767755a	1.3795996e-05
46	0x371938df	9.132752e-06
47	0x368307da	3.9050183e-06
48	0x35cd01f5	1.527426e-06
49	0x3519a7ee	5.724131e-07
50	0x3468512b	2.1636212e-07
51	0x3401fe01	1.2106467e-07
52	0x33a7482f	7.7896736e-08
53	0x32c39b09	2.277149e-08
54	0x32184637	8.8635295e-09
55	0x30edfe45	1.7316287e-09
56	0x2f7956a8	2.2677205e-10
57	0x303a0924	6.7679395e-10
58	0x31788d33	3.6169012e-09
59	0x320d781d	8.234591e-09
60	0x32eeabaf	2.778492e-08
61	0x34b2d27b	3.3308228e-07
62	0x35de4236	1.6559559e-06
63	0x365ba42b	3.2729101e-06
64	0x36ca0a59	6.0212737e-06
65	0x37478591	1.1892423e-05
66	0x379ae595	1.8465138e-05
67	0x37a656a8	1.9829095e-05
68	0x37a304ac	1.943329e-05
69	0x37994c61	1.8274588e-05
70	0x3796b098	1.7963626e-05
71	0x379ccc5f	1.8691817e-05
72	0x37a148c5	1.9226582e-05
73	0x379c3add	1.862406e-05
74	0x377f1542	1.5204134e-05
75	0x3707edec	8.102023e-06
76	0x3681bc65	3.8664316e-06
77	0x36335af1	2.6726013e-06
78	0x35948ccb	1.1067835e-06
79	0x34c4343c	3.654585e-07
80	0x348a25c0	2.573197e-07
81	0x33cf830f	9.663028e-08
82	0x32cafbd1	2.3630408e-08
83	0x312d4d32	2.5218694e-09
84	0x3018ebde	5.5632465e-10
85	0x31101549	2.0966857e-09
86	0x3194f75c	4.3354884e-09
87	0x322f863d	1.0216863e-08
88	0x3406d59c	1.2557433e-07
89	0x35ab0fdf	1.2745112e-06
90	0x366748ba	3.4464015e-06
91	0x36ae1171	5.1876345e-06
92	0x37173096	9.011614e-06
93	0x3787841e	1.6154776e-05
94	0x37a694c5	1.9858018e-05
95	0x37a55c55	1.9712528e-05
96	0x37a7b4db	1.9992169e-05
97	0x37a5b555	1.9753972e-05
98	0x37a6cf6a	1.9885327e-05
99	0x37a8765a	2.0082272e-05
100	0x37a8caee	2.0121657e-05
101	0x37a5b3f5	1.9753332e-05
102	0x379b8928	1.8541308e-05
103	0x374d27f3	1.2228254e-05
104	0x36e8fa19	6.943254e-06
105	0x369c0d3d	4.6507034e-06
106	0x364a94a1	3.018686e-06
107	0x3594636c	1.1055795e-06
108	0x351e5f52	5.8998296e-07
109	0x34b13a8c	3.3011418e-07
110	0x33bac875	8.697763e-08
111	0x31e5debd	6.6900996e-09
112	0x306d16de	8.6252594e-10
113	0x31d98b1b	6.3313457e-09
114	0x3234562c	1.0496972e-08
115	0x3328d229	3.9306688e-08
116	0x34e25be2	4.2162634e-07
117	0x36296eb8	2.524741e-06
118	0x36acd5d8	5.150894e-06
119	0x36fa7e02	7.46525e-06
120	0x37436430	1.1646232e-05
121	0x3797ed18	1.8111008e-05
122	0x37b31105	2.1346388e-05
123	0x37b49ee0	2.1531654e-05
124	0x37b681cc	2.1756532e-05
125	0x37b2e48b	2.1325677e-05
126	0x37b4bd9e	2.154597e-05
127	0x37b30a66	2.1343305e-05
128	0x37b07068	2.1033178e-05
129	0x37a94392	2.0177835e-05
130	0x37a244dd	1.9343972e-05
131	0x377802fc	1.4782647e-05
132	0x37235c14	9.736996e-06
133	0x36de0843	6.6170774e-06
134	0x36a232da	4.833896e-06
135	0x36060325	1.9969386e-06
136	0x358d4651	1.0525783e-06
137	0x3530313f	6.563677e-07
138	0x3419b49e	1.4314944e-07
139	0x322b96f1	9.98783e-09
140	0x313f1a03	2.7808944e-09
141	0x32df7684	2.6014511e-08
142	0x334223ae	4.5201595e-08
143	0x33b32b28	8.343187e-08
144	0x353ad31f	6.959762e-07
145	0x365eb89a	3.318803e-06
146	0x36cc227c	6.0836883e-06
147	0x3711efa0	8.6984655e-06
148	0x376dcc9a	1.4173938e-05
149	0x37ad2fd4	2.0645479e-05
150	0x37c04919	2.2922222e-05
151	0x37b5ccfb	2.1672333e-05
152	0x37b7076c	2.1818756e-05
153	0x37b6e7e9	2.1804082e-05
154	0x37b15082	2.1137534e-05
155	0x37adfabd	2.0739966e-05
156	0x37aa0b63	2.0270882e-05
157	0x37a0ef49	1.9184912e-05
158	0x379eb313	1.8918456e-05
159	0x37898717	1.6394579e-05
160	0x3741ce94	1.1551794e-05
161	0x3709d020	8.214294e-06
162	0x36d631eb	6.383508e-06
163	0x364f7f4a	3.0919496e-06
164	0x35cb393b	1.5141335e-06
165	0x3582ac6b	9.735935e-07
166	0x34744fef	2.275335e-07
167	0x32813002	1.5039408e-08
168	0x320b28a8	8.100109e-09
169	0x3393b9a1	6.8789866e-08
170	0x340f2338	1.3330725e-07
171	0x34773444	2.3022682e-07
172	0x3581bae8	9.665646e-07
173	0x367b05ac	3.7405216e-06
174	0x36e1ae79	6.725834e-06
175	0x37217933	9.624567e-06
176	0x378444d8	1.5767684e-05
177	0x37b6c4b4	2.1787688e-05
178	0x37bbb1a6	2.2374861e-05
179	0x37b71d6e	2.1829004e-05
180	0x37b68fd5	2.1763068e-05
181	0x37b1c34f	2.1190992e-05
182	0x37ae23e2	2.0759126e-05
183	0x37ad06b5	2.062633e-05
184	0x37a211ac	1.9320134e-05
185	0x379a60e7	1.8403354e-05
186	0x379de965	1.8824541e-05
187	0x37873623	1.6118463e-05
188	0x3747f394	1.1918037e-05
189	0x37156de8	8.906682e-06
190	0x36f9994e	7.4386253e-06
191	0x3690454a	4.2996007e-06
192	0x360ba3bd	2.0807922e-06
193	0x35a40d13	1.2222757e-06
194	0x34c762b0	3.7138443e-07
195	0x333adb88	4.3506162e-08
196	0x32b18ddf	2.0670027e-08
197	0x341ce1da	1.4610796e-07
198	0x34915659	2.707118e-07
199	0x34bdc534	3.5347477e-07
200	0x35a17005	1.2028037e-06
201	0x368c54d6	4.1822013e-06
202	0x36ffeec9	7.6273905e-06
203	0x372d41a6	1.03268885e-05
204	0x3789fce1	1.6449429e-05
205	0x37bd6d59	2.2581475e-05
206	0x37c1bf6e	2.3096534e-05
207	0x37bc0e8c	2.241812e-05
208	0x37be4a1b	2.2684273e-05
209	0x37b5d3e6	2.1675554e-05
210	0x37a9fbd8	2.0263644e-05
211	0x37ab1662	2.0395211e-05
212	0x379d5056	1.8753268e-05
213	0x3794bf8d	1.7732173e-05
214	0x379725ea	1.8018258e-05
215	0x3785506d	1.5892287e-05
216	0x37452b04	1.175213e-05
217	0x371a7465	9.2062155e-06
218	0x370d74f6	8.431487e-06
219	0x36b1625d	5.286462e-06
220	0x3641dc98	2.8887644e-06
221	0x35df1186	1.6619895e-06
222	0x35118c6b	5.4221044e-07
223	0x33c04e0e	8.954895e-08
224	0x32ea3085	2.726325e-08
225	0x3459e858	2.0294226e-07
226	0x34d56ebf	3.975492e-07
227	0x3505dad4	4.98648e-07
228	0x35ada5f5	1.2937804e-06
229	0x369ba1f5	4.6382143e-06
230	0x37098dee	8.198882e-06
231	0x373c3b51	1.1219484e-05
232	0x37905a65	1.7208231e-05
233	0x37baf067	2.2284874e-05
234	0x37be8101	2.2709837e-05
235	0x37beb5d1	2.273443e-05
236	0x37bd8ba7	2.2595586e-05
237	0x37b16a86	2.1149648e-05
238	0x3799814c	1.829923e-05
239	0x379dfdee	1.8834104e-05
240	0x37992e44	1.8260565e-05
241	0x37894444	1.6363461e-05
242	0x3781ab81	1.5457861e-05
243	0x37808b32	1.5323607e-05
244	0x3747f88b	1.1919193e-05
245	0x371e47b9	9.434233e-06
246	0x371eb0ee	9.4587285e-06
247	0x36c99c22	6.008443e-06
248	0x365f3205	3.3258705e-06
249	0x360b2c0f	2.073826e-06
250	0x3585ba18	9.963433e-07
251	0x341f32a5	1.4826453e-07
252	0x332a074f	3.9587857e-08
253	0x34c13831	3.5989936e-07
254	0x350748bb	5.0397256e-07
255	0x35289b4d	6.281087e-07

exp_avg f4 [16]
0	0xb00a9044	-5.040912e-10
1	0x3050bd54	7.593901e-10
2	0x306f3462	8.7022134e-10
3	0x2eb936ef	8.422584e-11
4	0x300d1d5f	5.133724e-10
5	0x30de08cb	1.6155125e-09
6	0xae5d893d	-5.0371474e-11
7	0xb0e6ddda	-1.6797757e-09
8	0xafee0ae3	-4.3299683e-10
9	0x306e0517	8.659113e-10
10	0x2d3eb330	1.0840037e-11
11	0x2fef91b2	4.357737e-10
12	0xb01bf561	-5.6737376e-10
13	0xac344b8d	-2.5621478e-12
14	0xb09c6cc1	-1.1381404e-09
15	0xaf164e60	-1.3670265e-10

exp_avg_sq f4 [16]
0	0x21256a83	5.604514e-19
1	0x215e1fa1	7.5258386e-19
2	0x218849a6	9.235213e-19
3	0x216b03ad	7.962596e-19
4	0x214f203b	7.0176985e-19
5	0x2168741c	7.8758327e-19
6	0x20ba4e9d	3.1561648e-19
7	0x2209ad30	1.8658647e-18
8	0x2202fa37	1.7750748e-18
9	0x219e5b81	1.0730717e-18
10	0x2181dcd8	8.799837e-19
11	0x21504551	7.056488e-19
12	0x2180473d	8.692474e-19
13	0x21ef40d6	1.6212432e-18
14	0x21d1ee04	1.4225393e-18
15	0x20cf9fb3	3.5172844e-19

exp_avg f4 [16]
0	0xba9dd582	-0.001204178
1	0xba37501c	-0.0006992833
2	0xb93feed0	-0.00018304144
3	0xbb289f27	-0.0025729628
4	0x3a2d3aa7	0.0006608166
5	0x3ae0f9a4	0.0017164242
6	0x3a0d46c0	0.0005389266
7	0xb91c3838	-0.00014898262
8	0xbaf39522	-0.0018583874
9	0x3afa9939	0.001911915
10	0xb8dff8ed	-0.00010679835
11	0xbb0ea932	-0.0021768329
12	0x3b046ff8	0.002020834
13	0xba5a1aa0	-0.00083200075
14	0x3b424e77	0.002964882
15	0x398456cb	0.00025241668

exp_avg_sq f4 [16]
0	0x36b2f57f	5.333393e-06
1	0x3750958e	1.2432587e-05
2	0x373e45c3	1.1341125e-05
3	0x378e48b6	1.6961578e-05
4	0x36ed9c6e	7.081361e-06
5	0x36de9c9c	6.6343473e-06
6	0x36d93f69	6.474486e-06
7	0x374cb963	1.2202511e-05
8	0x37721e80	1.4431425e-05
9	0x376c8081	1.4096616e-05
10	0x3712254e	8.710964e-06
11	0x376a54c3	1.3967222e-05
12	0x371813d1	9.06452e-06
13	0x37c0679b	2.2936429e-05
14	0x37a9bdf9	2.0234833e-05
15	0x3733ef4a	1.0724945e-05

exp_avg f4 [16]
0	0xba52520f	-0.0008023092
1	0x3957a1bf	0.00020564253
2	0x3aa08813	0.0012247585
3	0xbac5f840	-0.0015103891
4	0x3aacf8a5	0.001319666
5	0x3b15325b	0.002276561
6	0x3a486099	0.00076437887
7	0xba428361	-0.00074200897
8	0xba1072d9	-0.00055102777
9	0x3ad73205	0.0016418105
10	0x3a1bbc66	0.00059408543
11	0xba39de43	-0.00070903095
12	0x3b061eac	0.002046506
13	0x3a9fde1b	0.001219693
14	0x3ac0ab83	0.0014699552
15	0xb82dee67	-4.1468444e-05

exp_avg_sq f4 [16]
0	0x370276aa	7.776232e-06
1	0x37ca42a2	2.4111305e-05
2	0x375b4678	1.30698245e-05
3	0x37871cd5	1.610668e-05
4	0x3731a46e	1.0588306e-05
5	0x370b0770	8.286777e-06
6	0x36e9829f	6.9591474e-06
7	0x376e88c9	1.4217753e-05
8	0x37ea41f0	2.7925678e-05
9	0x377bbd09	1.5004779e-05
10	0x36e89641	6.9316307e-06
11	0x36a856f1	5.0169115e-06
12	0x37bc84a9	2.2473121e-05
13	0x37f981f9	2.9743636e-05
14	0x37a611f1	1.9797097e-05
15	0x372e7647	1.0398747e-05
