lightning_logs/version_5/checkpoints/model-epoch=20-val_loss=0.40-3.ckpt (torch, 185102 bytes, 48 tensors)

classifier.1.weight f4 [16, 784]
0.06873397 0.10213546 0.089283854 0.027372006 0.067425035 0.05153222 -0.07568098 -0.060471546
-0.031738475 0.010441327 -0.04269834 -0.005585411 -0.020721873 -0.05670927 0.022034101 -0.008570891
-0.031321675 -0.014076817 0.013765944 0.06717677 -0.006961282 -0.01660512 0.12455368 -0.026824443
0.044446494 0.018617978 -0.06074174 0.06615469 0.05486375 -0.018824818 0.12052049 0.04824983
0.117256746 -0.023122814 -0.015474059 -0.057580322 -0.016330719 -0.0045989943 -0.04248342 -0.0083574215
0.009200496 -0.022288201 0.012016733 -0.01653838 -0.0056496747 -0.030337654 0.012356299 -0.042312555
-0.045028623 -0.017562287 0.008612978 -0.023456976 -0.004910123 -0.0010698858 -0.013922138 -0.025744628
-0.018640554 0.020705275 0.016111413 0.12423985 0.009795514 0.02894931 -0.014265906 -0.043071803
-0.03737842 -0.015501278 -0.0310929 -0.0050908513 -0.02332758 -0.010976559 0.034502737 -0.03166554
-0.029812401 0.013060858 0.006842106 -0.024051806 -0.010762761 -0.020943351 -0.008662404 0.028688658
1.4731773e-05 0.0041534184 -0.010837273 -0.11725275 -0.098804876 -0.021057587 0.028463367 0.07283638
-0.017956872 0.027282871 -0.012925844 -0.011297957 0.028723774 -0.010135719 -0.044278204 -0.029022356
-0.014019457 0.005489074 0.023355767 0.0027921593 -0.009754102 0.027872967 -0.00473018 -0.015397442
0.012541008 0.029293114 0.00442116 0.026479136 0.0026859269 0.010776719 -0.06454891 0.0031481693
0.027056579 0.023792155 0.018797886 -0.0016698674 0.0027127159 0.054179993 0.005169528 0.024927655
0.026830437 -0.028941995 -0.0017985111 0.0037341907 -0.027174994 -0.011904664 0.00017384153 -0.03277441
0.013811737 -0.027941044 -0.0012491875 -0.009378114 0.017168086 0.016378526 0.006895361 -0.012803822
-0.002998826 0.0019474329 -0.0043266243 -0.015843587 -0.048048396 0.033548545 -0.013678892 -0.07657746
0.06618009 -0.012960542 -0.004429194 -0.014940222 -0.020067675 -0.017611139 0.011333865 0.009645011
-0.041270304 -0.03965643 0.026324965 0.016393917 -0.0044439663 -0.022031115 -0.00386547 -0.041342307
0.0016277436 0.0006250499 0.0128869945 0.017222192 -0.0126660755 -0.0006641923 -0.016655097 -0.007244236
0.0087930495 -0.017313069 -0.0043504974 -0.00011694123 0.025406245 0.023927314 -0.007211358 0.019188272
0.013737451 -0.041447133 -0.013245051 -0.027823254 -0.0024549682 -0.01098803 -0.025107548 -0.016591385
0.015378229 -0.00084582274 -0.018710794 -0.015500043 0.0471958 0.040021338 0.02045532 -0.015018129
0.0012344001 -0.027228557 -0.0049111377 -0.038408875 -0.019708248 0.037800696 -0.039336424 -0.0070039025
0.026728412 0.03170348 0.0093980655 -0.037457675 -0.03319213 -0.04820323 -0.03288809 -0.050532416
-0.041364037 -0.0032967275 0.03435422 0.02138725 0.0025961879 -0.024927627 -0.036217093 -0.020251852
0.019403225 -0.023579607 -0.018068599 0.0066393944 0.0289562 0.028817488 0.03419202 0.028912824
-0.04080898 0.014084477 -0.043383267 -0.020949597 -0.008099078 -0.023650806 0.037921317 -0.026535403
-0.0546224 -0.01517396 -0.008745378 -0.019214818 0.01777044 -0.015776308 0.020584462 -0.0095964605
-0.023394197 -0.02131291 0.0017154145 -0.02171228 0.00090940273 0.031564865 0.041857906 -0.015874302
0.019827643 -0.018452276 0.010695903 -0.044774815 -0.02837409 -0.04906407 -0.021445198 -0.041205615
00000000: 65c4 8c3d 652c d13d 74da b63d 423b e03c
00000010: 2316 8a3d 7313 533d a1fe 9abd 03b1 77bd
00000020: 3400 02bd 1912 2b3c 74e4 2ebd d305 b7bb
00000030: ebc0 a9bc fb47 68bd dc80 b43c ec6c 0cbc
00000040: 284b 00bd 73a2 66bc 8e8a 613c f993 893d
00000050: 771b e4bb 7607 88bc 0016 ff3d efbe dbbc
00000060: 870d 363d bb84 983c 55cc 78bd 1c7c 873d
00000070: d0b8 603d 8136 9abc 72d3 f63d 9da1 453d
00000080: 4e24 f03d 0e6c bdbc e886 7dbc 58d9 6bbd
00000090: 00c8 85bc 29b3 96bb 1803 2ebd 91ed 08bc
000000a0: adbd 163c bf95 b6bc d5e1 443c 7f7b 87bc
000000b0: e820 b9bb ac86 f8bc 1372 4a3c ee4f 2dbd
000000c0: ef6f 38bd c9de 8fbc 731d 0d3c d828 c0bc
000000d0: 19e5 a0bb 693b 8cba ae19 64bc 66e6 d2bc
000000e0: 13b4 98bc 1c9e a93c 15fc 833c 7671 fe3d
000000f0: 5d7d 203c 1a27 ed3c 8cbb 69bc 0f6c 30bd
00000100: 1d1a 19bd 13f9 7dbc 8ab6 febc 28d1 a6bb
00000110: 7b19 bfbc 06d7 33bc be52 0d3d bab3 01bd
00000120: 2339 f4bc 35fd 553c bf33 e03b 4b08 c5bc
00000130: 4b56 30bc 6491 abbc c1ec 0dbc 7a04 eb3c
00000140: 7c28 7737 6619 883b d18e 31bc 3622 f0bd
00000150: 365a cabd f680 acbc 022c e93c 3d2b 953d
00000160: 4a1a 93bc 5480 df3c ebc6 53bc 111b 39bc
00000170: 1f4e eb3c 4910 26bc 105d 35bd 4bc0 edbc
00000180: ddb1 65bc b1dd b33b 9854 bf3c a9fc 363b
00000190: abcf 1fbc d955 e43c a0ff 9abb 8d45 7cbc
000001a0: cd78 4d3c 1df8 ef3c 61df 903b c6ea d83c
000001b0: 6006 303b d690 303c 3832 84bd 8451 4e3b
000001c0: c2a5 dd3c c4e7 c23c 06fe 993c 74df daba
000001d0: d2c7 313b d7eb 5d3d 2565 a93b 1535 cc3c
000001e0: 81cb db3c c317 edbc 05bc ebba 53b9 743b
000001f0: 189e debc c80b 43bc 3b49 3639 763e 06bd
00000200: a04a 623c 9ee4 e4bc c7bb a3ba a9a6 19bc
00000210: 16a4 8c3c 422c 863c 7bf2 e13b 1fc7 51bc
00000220: f487 44bb 0141 ff3a 5bc6 8dbb 69ca 81bc
00000230: 65ce 44bd 336a 093d 6e1d 60bc a5d4 9cbd
00000240: 6d89 873d 7458 54bc c622 91bb d5c7 74bc
00000250: f764 a4bc 3c45 90bc adb1 393c 1c06 1e3c
00000260: 0d0b 29bd c86e 22bd 74a7 d73c 894c 863c
00000270: b19e 91bb 997a b4bc d353 7dbb 8d56 29bd
00000280: 035a d53a 64da 233a f923 533c 8e15 8d3c
00000290: 5f85 4fbc 311d 2eba 4570 88bc 0e61 edbb
000002a0: b910 103c 23d4 8dbc 9e8e 8ebb 583e f5b8
000002b0: c220 d03c 3703 c43c 414d ecbb b930 9d3c
000002c0: 0c13 613c 78c4 29bd c501 59bc 98ed e3bc
000002d0: 88e3 20bb 2307 34bc 58ae cdbc a8ea 87bc
000002e0: f8f4 7b3c 34ba 5dba 6147 99bc e4f3 7dbc
000002f0: 6250 413d 6aed 233d ea91 a73c 990e 76bc
00000300: 98cb a13a 6c0e dfbc 9ced a0bb a052 1dbd
00000310: 3173 a1bc e7d4 1a3d 3b1f 21bd fe80 e5bb
00000320: 8bf5 da3c 82db 013d 58fa 193c 386d 19bd
00000330: 79f4 07bd c070 45bd a9b5 06bd 14fb 4ebd
00000340: 566d 29bd e90d 58bb 03b7 0c3d 5034 af3c
00000350: ce24 2a3b 0635 ccbc 6058 14bd 36e7 a5bc
00000360: 83f3 9e3c 052a c1bc 9904 94bc 478f d93b
00000370: 8e35 ed3c a712 ec3c ee0c 0c3d 96da ec3c
00000380: 5127 27bd 94c2 663c a7b2 31bd 7d9e abbc
00000390: ffb1 04bc 56bf c1bc 6253 1b3d c660 d9bc
000003a0: bdbb 5fbd 339c 78bc c648 0fbc 6568 9dbc
000003b0: 5093 913c 513d 81bc bfa0 a83c 793a 1dbc
000003c0: 30a5 bfbc 6998 aebc c2d7 e03a f4dd b1bc
000003d0: fc64 6e3a 294a 013d 3273 2b3d d30a 82bc
000003e0: 956d a23c 3a29 97bc de3d 2f3c cc65 37bd
000003f0: c870 e8bc 68f7 48bd d7ad afbc 38c7 28bd

classifier.1.bias f4 [16]
-0.0030533588 -0.0133375535 0.0044477275 0.030372716 -0.027195448 0.0014616519 -0.0043237414 0.004188655
0.0208537 0.008211023 0.024420884 -0.021659633 -0.009421077 0.023716204 0.03388297 0.016276535
00000000: dc1a 48bb c185 5abc 3ebe 913b 34d0 f83c
00000010: fdc8 debc e694 bf3a 2cae 8dbb fc40 893b
00000020: 61d5 aa3c 8787 063c 4e0e c83c 8b6f b1bc
00000030: dc5a 1abc 7c48 c23c dfc8 0a3d 5e56 853c

classifier.2.weight f4 [16]
0.95345867 0.9461166 0.97541827 1.0383486 0.9965661 1.0244497 0.95135975 1.0157473
1.071873 0.97295237 1.0733827 0.9944243 1.0682867 1.0210406 0.98587567 0.906547
00000000: de15 743f b334 723f 03b5 793f 9be8 843f
00000010: f51e 7f3f 2b21 833f 508c 733f 0204 823f
00000020: 2233 893f 6813 793f 9b64 893f 9792 7e3f
00000030: 9ebd 883f 75b1 823f 5962 7c3f 7713 683f

classifier.2.bias f4 [16]
-0.014901341 -0.11270908 -0.03453153 -0.019060919 0.0033678864 -0.012976616 0.1497585 -0.050573763
-0.056789856 -0.12169784 -0.100015 0.014093973 -0.08928642 0.070453964 -0.08355186 -0.21156335
00000000: c124 74bc 05d4 e6bd ef70 0dbd a525 9cbc
00000010: c2b7 5c3b df9b 54bc 4b5a 193e 6f26 4fbd
00000020: 7b9c 68bd b83c f9bd aad4 ccbd 68ea 663c
00000030: ccdb b6bd 2b4a 903d 3d1d abbd 10a4 58be

classifier.2.running_mean f4 [16]
-0.038470518 -0.12890787 -1.3911011 1.3320282 -0.2214738 5.345201 -1.5372807 4.2374525
1.4688106 0.6382667 2.0933402 2.3151999 2.1282208 -0.15573555 3.0394952 1.9716412
00000000: 4393 1dbd 6d00 04be 9a0f b2bf e67f aa3f
00000010: 07ca 62be e30b ab40 9dc5 c4bf 3699 8740
00000020: fc01 bc3f 7265 233f 49f9 0540 3c2c 1440
00000030: c534 0840 2479 1fbe 1787 4240 bd5e fc3f

classifier.2.running_var f4 [16]
1.6438102 1.375749 1.0592021 1.5265515 0.46596214 1.175252 1.5947056 0.9702515
2.3237715 1.01625 2.2105734 0.78722835 1.6112092 0.9345665 1.1759295 0.5135046
00000000: 5f68 d23f 8b18 b03f ef93 873f 0a66 c33f
00000010: 9792 ee3e a86e 963f 501f cc3f 6762 783f
00000020: acb8 1440 7b14 823f 097a 0d40 cc87 493f
00000030: 1a3c ce3f c03f 6f3f dc84 963f 0a75 033f

classifier.4.weight f4 [16, 16]
0.022552775 0.18428344 0.044831596 0.12629756 0.09101755 -0.16325295 -0.004270826 -0.10680277
-0.0744143 0.20101401 -0.015376624 -0.18517013 -0.061808534 0.03543086 -0.08563543 0.0880593
0.18911393 -0.18479446 -0.12316157 0.16091518 -0.07210392 0.019287443 -0.014361347 0.06844513
-0.29743072 -0.01164695 -0.043335125 -0.3072908 0.25011745 -0.042497337 0.027482234 -0.1293404
0.09289553 -0.018188844 0.18116622 0.25504446 -0.16876772 -0.14957277 0.10154842 0.062312875
0.040541522 -0.07753414 0.15813991 -0.15903915 -0.18060113 0.048620116 0.025794784 -0.29588348
-0.12520011 -0.11380644 -0.03311259 0.019183254 -0.04870522 0.11571751 0.043682676 -0.26949146
-0.30848375 0.093347505 -0.063003145 -0.00018661411 -0.22381628 -0.039921716 0.13975453 0.044081416
0.14927551 0.17551412 0.106476076 -0.07930405 -0.0032899035 -0.13065763 -0.11391318 0.093771264
-0.21767613 -0.082996525 0.14671068 0.03590474 0.14782389 -0.15009739 0.16973083 -0.03829012
0.03225171 0.04728668 0.22522946 0.023535315 -0.0010173554 0.110291004 -0.25310007 0.055758037
0.094690844 0.15921193 -0.062127575 -0.22605754 0.08643301 0.12882338 -0.26045033 -0.085025266
0.14985666 -0.04952104 -0.1718751 0.12948772 -0.12620156 0.039422907 -0.13807252 -0.07920296
-0.40736288 -0.1255247 0.01585834 0.062831625 0.093745716 -0.07940244 -0.0064961715 0.13974696
0.14735997 -0.1467891 -0.2549892 0.10081013 -0.07378261 0.18263252 0.061853223 0.03157081
-0.113644876 0.019864243 -0.30722395 0.1635167 -0.016455749 -0.13702592 -0.3303947 -0.028224649
-0.15194553 0.1718107 -0.18414736 0.23002724 0.17085046 0.066697806 -0.24810688 -0.1498226
-0.041465655 0.16984704 -0.04722653 0.009630841 -0.13520238 -0.007108085 -0.018753 0.07676253
-0.1458673 0.06277396 0.09655456 -0.019943062 -0.16759922 -0.16265443 -0.058164768 0.03753129
0.034233842 0.13270752 0.13926001 -0.19467586 0.011587333 -0.3370434 0.18032148 -0.23436059
0.099338725 -0.19585256 -0.025327671 -0.24988355 0.084344044 -0.074260555 -0.053366642 0.11429633
-0.122132696 -0.07031088 -0.3211926 -0.005331264 -0.35493016 -0.14913908 -0.0536801 0.12404995
0.1005502 0.22281623 0.014689161 -0.20695488 -0.38297164 -0.11458077 -0.12637167 0.11974875
-0.02260319 0.062372446 0.16785556 0.105067 0.1604264 -0.19587244 -0.03412228 0.041603073
0.052143283 -0.006474227 0.17840044 -0.21932097 -0.061276376 -0.18842389 0.104848206 -0.24224819
0.18888809 0.19112614 -0.31153947 0.15805966 -0.15738292 0.15740485 -0.044377573 0.076905295
0.15015297 -0.19898164 -0.1702974 -0.11528809 0.14262778 -0.022130143 0.251457 -0.022830402
-0.05050623 -0.02181357 -0.26173687 0.12763593 0.08089107 0.12245444 0.1370434 -0.21895207
-0.03698171 -0.10895694 -0.26351893 0.17191154 0.017657036 -0.1079619 -0.1860167 -0.16589352
0.13644405 0.07879738 0.03478967 -0.1534809 -0.012800003 0.011735056 0.027493939 -0.13673836
0.18109596 -0.07898525 0.08298454 -0.23382087 -0.16846602 -0.18507695 0.016442122 0.099068746
0.24230427 -0.020132288 0.2670074 -0.17161766 -0.23950537 -0.028290896 0.0133276265 -0.13993888
00000000: 99c0 b83c ccb4 3c3e 56a1 373d 2654 013e
00000010: 6967 ba3d c82b 27be 49f2 8bbb 69bb dabd
00000020: 8666 98bd 9ed6 4d3e 3cee 7bbc 3d9d 3dbe
00000030: f22a 7dbd f31f 113d a161 afbd 6f58 b43d
00000040: 15a7 413e c23a 3dbe 223c fcbd f3c6 243e
00000050: 38ab 93bd b300 9e3c db4b 6bbc f62c 8c3d
00000060: d748 98be d9d2 3ebc 2c80 31bd 3855 9dbe
00000070: 650f 803e b011 2ebd 6c22 e13c cf71 04be
00000080: 0340 be3d c500 95bc a383 393e 3095 823e
00000090: 72d1 2cbe 9b29 19be 9ef8 cf3d c93b 7f3d
000000a0: de0e 263d 38ca 9ebd 6eef 213e 29db 22be
000000b0: 81ef 38be e325 473d 954f d33c 0a7e 97be
000000c0: 7534 00be 5a13 e9bd 11a1 07bd 3326 9d3c
000000d0: 207f 47bd 4dfd ec3d 9bec 323d c9fa 89be
000000e0: 95f1 9dbe fa2c bf3d cb07 81bd d8ad 43b9
000000f0: 1830 65be f484 23bd d01b 0f3e b78e 343d
00000100: aedb 183e f9b9 333e 2110 da3d 296a a2bd
00000110: 6c9b 57bb 1dcb 05be 504b e9bd 260b c03d
00000120: 7ee6 5ebe 15fa a9bd 533b 163e d910 133d
00000130: 255f 173e 21b3 19be ebcd 2d3e 1ad6 1cbd
00000140: 5e1a 043d aeaf 413d 8da2 663e 22cd c03c
00000150: c858 85ba 40e0 e13d 5596 81be 8a62 643d
00000160: 46ed c13d 7408 233e 7c79 7ebd a17b 67be
00000170: ca03 b13d 47ea 033e bf59 85be ba21 aebd
00000180: 0674 193e 93d6 4abd 0700 30be 6e98 043e
00000190: fb3a 01be ea79 213d e262 0dbe 2935 a2bd
000001a0: de91 d0be 8c89 00be 59e9 813c dead 803d
000001b0: c1fd bf3d bf9d a2bd d6dd d4bb d419 0f3e
000001c0: 88e5 163e e24f 16be f28d 82be 8b75 ce3d
000001d0: 561b 97bd 0504 3b3e ce59 7d3d 6550 013d
000001e0: a5be e8bd 56ba a23c 754c 9dbe ec70 273e
000001f0: 35ce 86bc 8650 0cbe 7e29 a9be 6137 e7bc
00000200: 9c97 1bbe 25ef 2f3e 2091 3cbe 438c 6b3e
00000210: 6cf3 2e3e dc98 883d bb0f 7ebe 186b 19be
00000220: e4d7 29bd 62ec 2d3e 9b70 41bd adca 1d3c
00000230: 7e72 0abe f0ea e8bb e49f 99bc ac35 9d3d
00000240: 3d5e 15be a28f 803d 66be c53d a25f a3bc
00000250: 219f 2bbe e28e 26be 2e3e 6ebd 69ba 193d
00000260: c938 0c3d 7be4 073e 2d9a 0e3e 1c59 47be
00000270: ccd8 3d3c f490 acbe 32a6 383e 39fc 6fbe
00000280: 1a72 cb3d 938d 48be fa7b cfbc 79e1 7fbe
00000290: 92bc ac3d eb15 98bd fb96 5abd 3214 ea3d
000002a0: b520 fabd 27ff 8fbd 5b73 a4be e2b1 aebb
000002b0: 68b9 b5be eab7 18be aadf 5bbd e60d fe3d
000002c0: 43ed cd3d f029 643e cfaa 703c fbeb 53be
000002d0: dc14 c4be 53a9 eabd 9367 01be d53e f53d
000002e0: 532a b9bc 407a 7f3d 54e2 2b3e 5e2d d73d
000002f0: d146 243e c992 48be cec3 0bbd fc67 2a3d
00000300: 3294 553d c125 d4bb 9bae 363e ad95 60be
00000310: f0fc 7abd 31f2 40be a8ba d63d e90f 78be
00000320: e16b 413e 92b6 433e 1a82 9fbe 64da 213e
00000330: fd28 21be bd2e 213e 42c5 35bd 8680 9d3d
00000340: b3c1 193e d8c1 4bbe 7162 2ebe 2a1c ecbd
00000350: 040d 123e 464a b5bc f9be 803e d306 bbbc
00000360: 9fdf 4ebd 5fb2 b2bc 6002 86be feb2 023e
00000370: 38aa a53d 65c9 fa3d 1b55 0c3e f934 60be
00000380: 227a 17bd d124 dfbd f4eb 86be 9409 303e
00000390: 7da5 903c 211b ddbd 297b 3ebe fedf 29be
000003a0: fdb7 0b3e 8560 a13d 9d7f 0e3d 192a 1dbe
000003b0: 1bb7 51bc 6444 403c f83a e13c 2405 0cbe
000003c0: 3871 393e 05c3 a1bd ccf3 a93d bd6e 6fbe
000003d0: 5b82 2cbe d084 3dbe a1b1 863c 8ee4 ca3d
000003e0: 9c1e 783e 78ec a4bc 32b5 883e 8abc 2fbe
000003f0: e540 75be 4fc2 e7bc 1e5c 5a3c 234c 0fbe

classifier.4.bias f4 [16]
0.12817197 0.04126553 0.24763663 0.015327805 -0.16546455 -0.03448959 0.07652483 0.051068105
-0.108958334 0.21801364 0.10739406 -0.13828306 -0.09747792 -0.2487949 -0.15945894 0.01302219
00000000: 833f 033e 0b06 293d 7594 7d3e 7921 7b3c
00000010: 8a6f 29be f544 0dbd 0db9 9c3d ca2c 513d
00000020: 8c25 dfbd f83e 5f3e 6bf1 db3d 139a 0dbe
00000030: 81a2 c7bd 17c4 7ebe 3449 23be 065b 553c

classifier.5.weight f4 [16]
0.89962703 0.99129885 0.99179244 0.9876587 1.0614243 0.9484924 1.025472 1.0504274
0.9306494 1.1279509 1.084284 0.8993715 0.95538837 0.99009013 1.0119411 0.9981424
00000000: f54d 663f c3c5 7d3f 1ce6 7d3f 33d7 7c3f
00000010: c0dc 873f 66d0 723f ab42 833f 6874 863f
00000020: 0a3f 6e3f b260 903f d1c9 8a3f 363d 663f
00000030: 5594 743f 8c76 7d3f 4987 813f 4386 7f3f

classifier.5.bias f4 [16]
-0.0014362538 0.102552034 0.068250656 -0.025106722 -0.0519368 -0.036705576 0.096589185 0.040902678
-0.115503915 0.0075634615 0.17422421 -0.11922814 0.13372444 0.024317006 0.012962712 -0.09245184
00000000: ae40 bcba cd06 d23d 00c7 8b3d 9dac cdbc
00000010: afbb 54bd 9658 16bd 8dd0 c53d 9189 273d
00000020: 518d ecbd ead6 f73b d567 323e e22d f4bd
00000030: 0fef 083e 7534 c73c 8e61 543c 6457 bdbd

classifier.5.running_mean f4 [16]
0.13632695 -0.12583728 0.27906334 -0.2939126 -0.11252368 -0.020767039 -0.1609948 -0.21115541
-0.17285624 -0.031492803 -0.42043647 -0.22081806 -0.15637256 -0.21074331 -0.40506977 -0.110722736
00000000: 4b99 0b3e 7ddb 00be 64e1 8e3e b67b 96be
00000010: d172 e6bd a31f aabc d2db 24be 2039 58be
00000020: 3a01 31be 99fe 00bd 7343 d7be 211e 62be
00000030: 2120 20be 18cd 57be 4e65 cfbe 9ac2 e2bd

classifier.5.running_var f4 [16]
0.05265248 0.34515965 0.16268806 0.040896554 0.08638102 0.060316596 0.14036499 0.15990447
0.12429951 0.1197863 0.30795118 0.101677395 0.22564675 0.08207031 0.087723896 0.04376898
00000000: 20aa 573d c4b8 b03e b397 263e 2583 273d
00000010: 88e8 b03d 890e 773d d7bb 0f3e ffbd 233e
00000020: be90 fe3d 8552 f53d c7ab 9d3e 3d3c d03d
00000030: f10f 673e 7b14 a83d 96a8 b33d 1a47 333d

classifier.7.weight f4 [16, 16]
-0.19782233 -0.051628992 -0.04539349 -0.0028351853 0.11594021 0.11213852 0.09850009 -0.15018341
0.06789652 0.385962 0.14880858 0.18148448 -0.019309511 0.093519226 -0.028944615 0.111997046
-0.05706859 0.15233666 0.22998367 0.26128054 -0.065773785 0.072483815 -0.09609907 -0.16703671
-0.15044972 0.008855632 0.043765165 0.08048823 0.068175554 0.18235163 0.27098614 -0.12951131
0.07525438 -0.010804289 -0.17132169 -0.16950718 -0.044180397 -0.22610424 -0.1421687 0.036899682
-0.24235936 0.18628219 0.12993656 -0.0139853405 0.24844599 0.26644692 -0.07143404 0.21526407
0.17482482 -0.13474709 0.10625272 0.3737507 -0.049152616 0.03519175 0.008024684 -0.19865038
0.1983249 -0.04588509 0.0992839 -0.23672718 0.036360033 -0.06670322 -0.0545072 0.00097169616
0.04673826 0.11930371 -0.13414963 0.114591494 0.115963005 -0.073960744 0.028435186 -0.23285577
0.044458687 -0.2880339 -0.21129306 -0.07648424 -0.033022314 0.023649726 -0.30773747 0.213881
0.10588314 -0.17911802 -0.00066271686 -0.055161282 0.05878671 0.32058346 -0.18642227 -0.01508404
-0.0054539745 -0.19442336 -0.31663075 -0.1583335 -0.21452402 -0.17364013 -0.13855435 -0.18542588
0.062115915 0.061386704 -0.21569778 -0.15809798 -0.180757 0.22323292 0.24290188 -0.1644091
-0.1322378 -0.053548582 -0.24801537 0.1523127 -0.21793674 0.098037645 -0.06675729 0.22952878
-0.21497625 0.32721326 0.034825865 0.07857791 0.34169734 0.0010542544 0.23038954 -0.10630919
0.11020174 -0.0016918364 -0.30517107 -0.05800349 -0.04649088 -0.059505638 0.06190379 -0.0825977
0.17031436 0.024426542 0.06620973 0.007954861 0.0027750935 0.06539901 -0.036105145 0.025235344
0.23198868 0.3723426 0.15794449 0.017182145 -0.057894982 0.010996733 0.18253198 0.09846127
-0.06451249 0.10739402 -0.14613493 -0.20182136 0.027154127 -0.0042285393 -0.11405085 0.2854127
-0.04863336 0.010195168 0.14880104 -0.18819982 -0.09031987 0.08426512 -0.12836626 0.07576661
0.2765502 0.15568018 -0.0005607824 -0.052789755 0.23630315 -0.120409645 0.07787585 0.0015217332
-0.25166845 -0.26161373 -0.32451785 -0.08801189 -0.053109877 -0.11752871 -0.01386672 0.058654305
-0.16849704 0.2666867 0.17563426 0.106025875 -0.16416056 -0.04167968 -0.14882492 -0.0077037606
-0.008226058 -0.09900849 -0.10601106 0.30869994 0.10168655 0.04458284 0.25796834 -0.19127965
-0.052419513 -0.08004286 0.06434947 -0.28332195 -0.13956021 -0.22749205 -0.016458461 0.03244827
0.009469296 -0.0109157115 0.124176815 -0.12660055 0.01747114 0.05414201 0.27577677 -0.10296484
0.11923747 -0.100882925 -0.06998875 0.17362423 0.12684676 -0.07436882 0.29712746 0.2658821
0.019877695 -0.01624489 -0.047575627 -0.05123924 -0.02772033 -0.1516595 -0.1120158 0.12821953
-0.12787484 0.005348384 -0.06573046 -0.1415954 0.05638879 -0.14995264 -0.13988261 -0.11638841
0.13323016 0.07776428 0.08154984 0.03516257 0.24833931 -0.14496714 0.01836004 -0.24807325
-0.11889949 0.23848698 -0.08693644 0.1194646 -0.003971746 -0.030911753 -0.09063569 0.34363675
-0.09042174 -0.0724474 0.21647862 0.06575957 0.15232866 -0.27958438 0.08626428 -0.008427189
00000000: f091 4abe ec78 53bd 86ee 39bd 84ce 39bb
00000010: 1072 ed3d e1a8 e53d 6aba c93d aec9 19be
00000020: 550d 8b3d d09c c53e 4761 183e 11d7 393e
00000030: fb2e 9ebc 0287 bf3d 421d edbc b55e e53d
00000040: c1c0 69bd 24fe 1b3e d780 6b3e 90c6 853e
00000050: 68b4 86bd 6572 943d 97cf c4bd ac0b 2bbe
00000060: 7e0f 1abe 3617 113c 1a43 333d 03d7 a43d
00000070: a09f 8b3d 63ba 3a3e b2be 8a3e 9d9e 04be
00000080: f81e 9a3d 7904 31bc f46e 2fbe 4a93 2dbe
00000090: 81f6 34bd df87 67be ac94 11be 1f24 173d
000000a0: 0d2d 78be c2c0 3e3e 170e 053e c522 65bc
000000b0: a068 7e3e bb6b 883e 034c 92bd 2f6e 5c3e
000000c0: 4705 333e 24fb 09be 079b d93d 405c bf3e
000000d0: 4154 49bd 3925 103d f779 033c 016b 4bbe
000000e0: af15 4b3e 01f2 3bbd 5b55 cb3d 9c68 72be
000000f0: 42ee 143d b39b 88bd f142 5fbd 6db9 7e3a
00000100: 9e70 3f3d 8155 f43d 855e 09be f2ae ea3d
00000110: 037e ed3d bb78 97bd e8f0 e83c be71 6ebe
00000120: 501a 363d 2e79 93be 355d 58be c5a3 9cbd
00000130: 6842 07bd 12bd c13c c48f 9dbe 9f03 5b3e
00000140: 42d9 d83d b76a 37be 2dba 2dba ccf0 61bd
00000150: 55ca 703d 8423 a43e 7be5 3ebe 0d23 77bc
00000160: 41b7 b2bb eb16 47be 6d1d a2be 2d22 22be
00000170: 2fac 5bbe b8ce 31be 31e1 0dbe 48e0 3dbe
00000180: 426d 7e3d a070 7b3d e1df 5cbe 70e4 21be
00000190: 5d18 39be 2c97 643e 45bb 783e dc5a 28be
000001a0: 5969 07be c255 5bbd bef7 7dbe dcf7 1b3e
000001b0: cf2a 5fbe f6c7 c83d 0cb8 88bd 9809 6b3e
000001c0: bc22 5cbe 7f88 a73e 91a5 0e3d 75ed a03d
000001d0: f4f2 ae3e e82e 8a3a 3ceb 6b3e a2b8 d9bd
000001e0: 73b1 e13d 9cc0 ddba 623f 9cbe 1195 6dbd
000001f0: 396d 3ebd 2fbc 73bd d48e 7d3d fc28 a9bd
00000200: e366 2e3e 2c1a c83c f898 873d 1b55 023c
00000210: 58de 353b ebef 853d fde2 13bd 5aba ce3c
00000220: 718e 6d3e b0a3 be3e 33bc 213e 92c1 8c3c
00000230: 4a23 6dbd a42b 343c aae9 3a3e 10a6 c93d
00000240: 201f 84bd 65f1 db3d 65a4 15be 42aa 4ebe
00000250: 5572 de3c 8f8f 8abb 7e93 e9bd 9d21 923e
00000260: c633 47bd a209 273c 4d5f 183e 74b7 40be
00000270: a0f9 b8bd 3193 ac3d 7272 03be 862b 9b3d
00000280: fd97 8d3e a06a 1f3e 7801 13ba 123a 58bd
00000290: 74f9 713e 5599 f6bd 607d 9f3d e574 c73a
000002a0: b0da 80be 3cf2 85be 3427 a6be 943f b4bd
000002b0: be89 59bd e4b2 f0bd 3d31 63bc 7f3f 703d
000002c0: 7d8a 2cbe 298b 883e 78d9 333e 1824 d93d
000002d0: b519 28be 50b8 2abd 8f65 18be d46f fcbb
000002e0: 97c6 06bc f7c4 cabd 541c d9bd eb0d 9e3e
000002f0: 0a41 d03d 7f9c 363d 6d14 843e d0de 43be
00000300: d8b5 56bd 83ed a3bd a8c9 833d 930f 91be
00000310: dfe8 0ebe adf3 68be e5d3 86bc 7ae8 043d
00000320: 1b25 1b3c d0d7 32bc 6a50 fe3d 93a3 01be
00000330: a31f 8f3c 03c4 5d3d 9d32 8d3e 3bdf d2bd
00000340: c632 f43d b59b cebd 4356 8fbd 8dca 313e
00000350: 1ee4 013e ae4e 98bd 1721 983e b321 883e
00000360: 8cd6 a23c 0114 85bc a9de 42bd 3de0 51bd
00000370: bf15 e3bc a14c 1bbe 8a68 e5bd fb4b 033e
00000380: 9ff1 02be 7f41 af3b b19d 86bd 62fe 10be
00000390: eff7 663d 2f8d 19be 633d 0fbe 0c5d eebd
000003a0: 7d6d 083e e142 9f3d 9a03 a73d a106 103d
000003b0: a94c 7e3e 4472 14be cb67 963c ea06 7ebe
000003c0: 9381 f3bd ee35 743e bb0b b2bd dba9 f43d
000003d0: 6c25 82bb a53a fdbc 349f b9bd 28f1 af3e
000003e0: 092f b9bd 4d5f 94bd 92ac 5d3e f4ac 863d
000003f0: 0bfc 1b3e af25 8fbe 54ab b03d 3112 0abc

classifier.7.bias f4 [16]
-0.15174748 0.27339667 -0.09311935 -0.04417569 -0.22209167 0.04604461 0.18329827 -0.0111024715
-0.061122008 0.13261116 -0.019961858 0.16204365 0.04808794 0.096763685 -0.028471073 0.128689
00000000: b163 1bbe a6fa 8b3e 5cb5 bebd 91f1 34bd
00000010: 006c 63be 4699 3c3d 8bb2 3b3e 24e7 35bc
00000020: 125b 7abd 38cb 073e 0d87 a3bc c5ee 253e
00000030: dcf7 443d 0a2c c63d 2b3c e9bc 0dc7 033e

classifier.8.weight f4 [16]
1.3046902 1.3503274 1.3470101 1.3154354 1.3113985 1.3429015 1.3576066 1.3572402
1.3275992 1.3775873 1.310776 1.3312132 1.382538 1.3747847 1.3616378 1.3554218
00000000: 1700 a73f 87d7 ac3f d46a ac3f 3060 a83f
00000010: e8db a73f 32e4 ab3f 0ec6 ad3f 0cba ad3f
00000020: c5ee a93f c854 b03f 82c7 a73f 3265 aa3f
00000030: 01f7 b03f f2f8 af3f 264a ae3f 767e ad3f

classifier.8.bias f4 [16]
0.27968028 0.32468918 0.3549778 0.32144153 0.25089395 0.34547287 0.37619898 0.34938347
0.34856868 0.35365844 0.27670133 0.3137731 0.37462562 0.3413978 0.35166973 0.36828429
00000000: 4132 8f3e a93d a63e a6bf b53e fc93 a43e
00000010: 2c75 803e d2e1 b03e 279d c03e 64e2 b23e
00000020: 9877 b23e b812 b53e ccab 8d3e dea6 a03e
00000030: eece bf3e b1cb ae3e 0e0e b43e c28f bc3e

classifier.8.running_mean f4 [16]
0.18099448 0.57320523 -0.03156328 0.04335038 -0.5566672 -0.56985754 -0.037693113 0.11656179
0.48380747 0.08263425 -0.2340224 0.27613148 -0.07495392 0.3055262 -0.19317181 0.37181583
00000000: 9e56 393e 94bd 123f 7f48 01bd 2b90 313d
00000010: be81 0ebf 2fe2 11bf 1864 1abd f3b7 ee3d
00000020: 9db5 f73e 253c a93d 91a3 6fbe 1b61 8d3e
00000030: 7181 99bd ee6d 9c3e d5ce 45be a55e be3e

classifier.8.running_var f4 [16]
0.1304848 0.10458995 0.13329004 0.12409543 0.071698435 0.1038107 0.12661345 0.47570276
0.16521917 0.11178724 0.21122393 0.05891189 0.05878181 0.052928288 0.07999747 0.12950802
00000000: cf9d 053e 4133 d63d 2f7d 083e bf25 fe3d
00000010: a1d6 923d b49a d43d f5a6 013e 508f f33e
00000020: 372f 293e b5f0 e43d 164b 583e 984d 713d
00000030: 32c5 703d 55cb 583d b7d5 a33d c09d 043e

classifier.10.weight f4 [10, 16]
-0.027933445 -0.30873504 0.28183618 -0.4764313 -0.026951266 -0.25318703 -0.1437191 -0.28754604
-0.37703282 -0.28312355 -0.3715205 0.53171766 0.2221334 -0.21336094 0.5408647 0.32405674
0.42565987 -0.47351345 0.34462598 -0.12555367 -0.35063222 -0.3784546 0.5098958 -0.22186267
0.4004208 -0.38357872 -0.2752015 -0.025115935 -0.066498876 -0.17221661 -0.29650164 -0.22999762
-0.22421202 -0.29420373 -0.4582105 0.09880503 -0.30136907 -0.23889132 -0.22360834 -0.38366193
-0.43884495 0.17332521 -0.3883188 -0.3673154 -0.29432833 0.5831252 -0.15919314 0.53982925
-0.44049597 -0.24673975 -0.47845924 0.4256915 -0.25596023 0.40425286 -0.20326176 -0.40598404
0.30263978 -0.5020432 -0.3766912 -0.3245438 0.4205369 -0.2965139 0.4031054 -0.3269417
-0.32368952 -0.08709771 -0.39030808 -0.19697288 -0.3759121 0.57961464 0.37350523 -0.42481172
-0.32028323 0.30638573 -0.43607754 -0.08029172 -0.4653568 -0.31282896 -0.295923 0.3259008
-0.5138821 -0.26531702 -0.23857315 -0.033872727 0.5535929 0.12266324 0.40463093 0.3106133
-0.46181908 -0.5508299 0.47765487 -0.45771447 -0.292325 0.2618191 -0.23818642 -0.48321548
-0.4392404 -0.117007524 0.50075847 -0.38732252 -0.21652636 -0.34086323 -0.12774512 -0.09224638
-0.23941311 0.48941588 -0.16751823 -0.41312727 0.5265263 -0.10845538 -0.1119863 0.28275886
-0.45561254 0.3543206 -0.33558008 -0.41735798 0.16833885 -0.31279713 0.30597 0.34855375
-0.27884564 -0.38690788 0.25219056 0.46576625 0.39122045 -0.44352707 -0.4287968 -0.24193424
-0.28354314 0.5021527 0.3856387 0.42645392 0.47454205 -0.34736186 -0.4703356 -0.43142885
-0.21385078 -0.4634945 -0.13139682 0.28500277 -0.52717364 -0.2825941 -0.31713265 -0.30603772
0.4837325 0.108231194 -0.4979557 -0.19053446 -0.11473172 -0.37558877 -0.3334252 0.5581259
0.30568317 -0.45292768 0.23674029 0.07451718 -0.52515143 0.05369516 0.123389654 -0.06625499
00000000: aed4 e4bc 8512 9ebe d54c 903e ceee f3be
00000010: e7c8 dcbc bba1 81be 1a2b 13be 3c39 93be
00000020: 720a c1be 92f5 90be ef37 bebe a61e 083f
00000030: f076 633e 4a7b 5abe 1c76 0a3f c4ea a53e
00000040: 17f0 d93e 5b70 f2be d172 b03e 2491 00be
00000050: 1186 b3be cdc4 c1be 8888 023f f82f 63be
00000060: f503 cd3e 6e64 c4be 36e7 8cbe efbf cdbc
00000070: 9030 88bd 8d59 30be 10cf 97be 7f84 6bbe
00000080: d697 65be dfa1 96be 919a eabe 4b5a ca3d
00000090: 0c4d 9abe ed9f 74be 96f9 64be 566f c4be
000000a0: 49b0 e0be 2a7c 313e b9d1 c6be c410 bcbe
000000b0: 34b2 96be b147 153f 8703 23be 4032 0a3f
000000c0: b088 e1be 58a9 7cbe 9cf8 f4be 3cf4 d93e
000000d0: 380d 83be 3bfa ce3e da23 50be 24dd cfbe
000000e0: 9af3 9a3e e785 00bf abdd c0be 9b2a a6be
000000f0: 9d50 d73e abd0 97be d563 ce3e e764 a7be
00000100: a2ba a5be 4960 b2bd 76d6 c7be 42b3 49be
00000110: 8d77 c0be a061 143f 143c bf3e ec80 d9be
00000120: 2afc a3be 97de 9c3e 8e45 dfbe fc6f a4bd
00000130: 3f43 eebe 1e2b a0be 3883 97be 78dc a63e
00000140: c78d 03bf a2d7 87be 854c 74be 21be 0abd
00000150: 44b8 0d3f dd36 fb3d c92b cf3e b508 9f3e
00000160: 8d73 ecbe 3003 0dbf 2e8f f43e 8d59 eabe
00000170: 9fab 95be 270d 863e 24e7 73be 0568 f7be
00000180: 1ee4 e0be a4a1 efbd b531 003f 234f c6be
00000190: 16b9 5dbe a085 aebe 9ecf 02be aceb bcbd
000001a0: b628 75be b894 fa3e e689 2bbe 6b85 d3be
000001b0: 6dca 063f db1d debd 1359 e5bd c5c5 903e
000001c0: 0c46 e9be 8269 b53e 27d1 abbe f2af d5be
000001d0: 0561 2c3e f226 a0be 1aa8 9c3e a375 b23e
000001e0: dbc4 8ebe ca18 c6be 1f1f 813e ea78 ee3e
000001f0: 0c4e c83e fb15 e3be 418b dbbe 9cbd 77be
00000200: 912c 91be 148d 003f 7072 c53e 2b58 da3e
00000210: 2df7 f23e 6ad9 b1be d4cf f0be 3ee4 dcbe
00000220: b3fb 5abe 274f edbe e38c 06be e2eb 913e
00000230: daf4 06bf 2db0 90be 365f a2be fab0 9cbe
00000240: c9ab f73e 51a8 dd3d 0df4 febe 771b 43be
00000250: 77f8 eabd 2c4d c0be b5b6 aabe 57e1 0e3f
00000260: 8182 9c3e 23e6 e7be 0c6c 723e 779c 983d
00000270: 5370 06bf 75ef 5b3d b7b3 fc3d b2b0 87bd

classifier.10.bias f4 [10]
-0.03695515 -0.037372425 0.42250067 0.041437928 0.42351454 0.037771575 0.09844622 -0.090215415
0.12527542 -0.1213696
00000000: 495e 17bd d413 19bd 0252 d83e d1ba 293d
00000010: e6d6 d83e 5eb6 1a3d 2c9e c93d dcc2 b8bd
00000020: 3348 003e a090 f8bd

exp_avg f4 [16, 784]
-2.3970447e-06 -1.0367784e-06 -2.5347035e-06 9.892575e-06 3.7400772e-05 4.6852205e-05 7.812147e-05 0.00030359157
0.00046088215 0.00043000616 0.0005231287 0.00033146085 0.0003077233 0.0003601996 0.00017289373 6.667785e-05
-0.00020172227 1.9276365e-05 5.6779223e-05 0.0001158439 0.000119627504 0.00011157828 -6.317484e-05 5.2095506e-06
5.2894124e-05 2.7478107e-05 -9.98378e-06 -2.7121198e-06 -2.4742294e-06 -8.687574e-08 -4.659854e-05 -7.1649934e-05
-0.0001320835 0.00018796758 0.00038313182 0.0005722112 0.0008567392 0.0010972825 0.0012059149 0.000904363
0.0012658591 0.00022444333 -1.6548802e-05 0.0011064492 0.0016425108 0.00080640905 0.00025016227 7.6377575e-05
0.00037667892 0.00044804436 0.00025591863 0.0001800216 -2.5241356e-05 2.4179439e-05 1.5359961e-05 2.5027398e-06
2.555998e-06 -3.3543758e-05 -8.042894e-05 -0.00016224416 -5.2404415e-05 0.00012178137 0.0005556604 0.00082059985
0.0006386984 0.00084259035 0.0005904451 6.738451e-05 0.00046488448 0.0003112354 -0.00037235842 0.00073078537
0.00076518673 0.0009875576 0.0009828266 0.0009869846 0.00027114543 0.00021653816 0.00026667863 6.804046e-05
-0.00012370427 -9.80895e-07 3.3862543e-05 2.276224e-05 -1.491631e-05 -9.926676e-05 -9.805986e-05 -6.909546e-05
7.24327e-05 0.00024856598 0.0007122606 0.00063261855 0.00041635477 4.2871878e-05 0.00025573195 0.0008091496
0.0009300934 0.00094822777 0.0006090174 0.0006909781 0.0008764403 -0.00028962918 0.00023079093 0.00047509556
0.0004550456 0.00037702787 -0.000118235286 -3.6714686e-05 -0.00029059147 -0.000106994674 -3.4687488e-05 -2.2922979e-05
-8.7297776e-05 -0.00015045937 -0.00014088878 6.492422e-06 4.9435792e-05 8.501501e-05 0.00029658488 0.00033270952
-4.383369e-05 0.00016129398 0.00022960654 0.0003733077 0.00070973416 0.0003161394 0.00015247418 0.0002462694
-4.8096303e-05 -0.00029213072 0.0006277957 0.000762709 7.917883e-05 8.562285e-05 -8.707531e-05 -0.0003148453
-0.00042651265 -0.00019942546 -7.2458395e-05 -3.7659724e-05 -2.7048213e-06 -0.00011667122 -8.066137e-05 -4.1847e-05
-1.0222246e-05 0.00058374775 0.00058788556 7.239449e-05 0.00014579462 0.0006448717 0.00048323182 -0.00014235695
-0.00019335329 0.00022414439 0.00037725136 0.00015644495 -0.00042623715 0.00031114827 0.00032342388 0.0002441143
-0.00031149673 -0.0001223182 -4.8171456e-05 -0.00028205212 -0.00045685036 -0.00030665475 2.4005323e-05 6.009539e-05
-7.266448e-05 -0.00013773117 -0.0002041295 -0.00017771064 -0.00024557853 0.0006776227 0.00031192045 -1.5318861e-05
9.668988e-06 0.00028815807 0.00017036793 7.133442e-05 -0.00048698008 2.1101989e-05 5.4682154e-05 -4.481231e-05
-0.00020246922 -0.0007137806 -0.0006398556 -0.00043218606 -0.00046316837 7.5279954e-06 0.00047666446 -0.00049857236
-0.0006553533 -0.00019984553 8.025234e-05 2.9242203e-05 -5.5347035e-05 -0.0002560832 -0.0002830081 -0.00020628217
-0.00019804492 0.00081633934 0.00024932722 -4.5681652e-05 -0.00016682141 -0.00024045355 0.0003622117 9.411612e-05
-0.0002539795 -0.00015388924 -8.010072e-05 7.7060724e-07 -2.295488e-05 -0.0007239726 -0.0007527299 -0.000119193355
0.0003512857 -2.7429202e-05 0.00068088877 -0.00029877262 -0.00011809034 -0.00018103882 -2.0134676e-06 9.986565e-06
-1.4575894e-05 -0.00017082917 -0.00014341691 -0.00034818996 -0.00012879199 0.0006228124 4.3611064e-05 -2.358737e-05
-0.00019664496 -0.00037140527 7.668236e-05 0.00015912195 0.00021893771 0.000110619054 -0.00016927853 -0.0003255337
-0.0004242817 -0.0005494176 -0.00045717464 -0.000500501 0.00024644774 -0.00059863896 -0.00012648529 -0.0003150315
-3.1314874e-05 -0.0004861288 -0.00015626 4.9793714e-05 -6.108976e-05 -3.1476262e-05 -9.33352e-05 -0.00034430687
00000000: eadc 20b6 6f27 8bb5 e019 2ab6 49f8 2537
00000010: c6de 1c38 2c83 4438 25d5 a338 5f2b 9f39
00000020: 8ea2 f139 7372 e139 9322 093a ecc7 ad39
00000030: ec55 a139 2cd9 bc39 cf4a 3539 66d5 8b38
00000040: 6985 53b9 aeb3 a137 3a26 6e38 38f1 f238
00000050: 87e0 fa38 22ff e938 bc7c 84b8 b3cd ae36
00000060: a2da 5d38 c980 e637 0280 27b7 dd01 36b6
00000070: f00a 26b6 7190 bab3 cd72 43b8 c442 96b8
00000080: e57f 0ab9 2a19 4539 15df c839 7200 163a
00000090: cb96 603a b1d2 8f3a ca0f 9e3a c612 6d3a
000000a0: 2feb a53a 8c58 6b39 48d2 8ab7 4606 913a
000000b0: 8449 d73a 3265 533a 3628 8339 e62c a038
000000c0: fd7c c539 7fe7 ea39 d12c 8639 2ec4 3c39
000000d0: 66bd d3b7 f3d4 ca37 44d9 8037 bef4 2736
000000e0: b687 2b36 56b1 0cb8 f5ab a8b8 1620 2ab9
000000f0: d0cc 5bb8 e064 ff38 bda9 113a 861d 573a
00000100: 536e 273a 48e1 5c3a 1ac8 1a3a c950 8d38
00000110: bdbb f339 4f2d a339 1a39 c3b9 2d92 3f3a
00000120: d096 483a ef70 813a 30d2 803a b55d 813a
00000130: 8628 8e39 850e 6339 00d1 8b39 f2b0 8e38
00000140: 9db6 01b9 4ca7 83b5 a107 0e38 8af1 be37
00000150: 1041 7ab7 702d d0b8 7da5 cdb8 58e7 90b8
00000160: 02e7 9738 f651 8239 00b7 3a3a 50d6 253a
00000170: 314a da39 54d1 3338 c313 8639 1c1d 543a
00000180: 83d1 733a 7d92 783a 77a6 1f3a c122 353a
00000190: eac0 653a 5fd9 97b9 7800 7239 3f16 f939
000001a0: 3093 ee39 d3ab c539 16f5 f7b8 18fe 19b8
000001b0: 875a 98b9 5462 e0b8 687d 11b8 b94a c0b7
000001c0: a313 b7b8 a1c4 1db9 8bbb 13b9 7bd9 d936
000001d0: 4759 4f38 164a b238 f37e 9b39 846f ae39
000001e0: 11da 37b8 0621 2939 89c2 7039 83b8 c339
000001f0: 740d 3a3a 83bf a539 7ae1 1f39 b81d 8139
00000200: 03bb 49b8 1f29 99b9 a892 243a 89f0 473a
00000210: d00c a638 6b90 b338 339c b6b8 d211 a5b9
00000220: 8f9d dfb9 dd1c 51b9 cef4 97b8 d2f4 1db8
00000230: 7a84 35b6 62ad f4b8 be28 a9b8 e084 2fb8
00000240: 3680 2bb7 a606 193a 551c 1a3a 7fd2 9738
00000250: 72e0 1839 9b0c 293a 475a fd39 a745 15b9
00000260: e1be 4ab9 4d08 6b39 d2c9 c539 5f0b 2439
00000270: 9578 dfb9 9d21 a339 3891 a939 eff8 7f39
00000280: 6250 a3b9 8b42 00b9 b50b 4ab8 65e0 93b9
00000290: 6b85 efb9 81c6 a0b9 0a5f c937 ef0e 7c38
000002a0: 7263 98b8 ee6b 10b9 980b 56b9 d657 3ab9
000002b0: fec0 80b9 7da2 313a 4189 a339 0181 80b7
000002c0: fd37 2237 ec13 9739 cba4 3239 6099 9538
000002d0: 5c51 ffb9 2d04 b137 845a 6538 daf4 3bb8
000002e0: eb4d 54b9 011d 3bba fcbb 27ba 0897 e2b9
000002f0: 68d5 f2b9 fd98 fc36 d2e8 f939 a0b2 02ba
00000300: 04cc 2bba a08d 51b9 264d a838 274d f537
00000310: 6d24 68b8 e842 86b9 b460 94b9 734d 58b9
00000320: 47aa 4fb9 9bff 553a 22b8 8239 4d9a 3fb8
00000330: c8ec 2eb9 4222 7cb9 3be7 bd39 3560 c538
00000340: 8d28 85b9 545d 21b9 bffb a7b8 badb 4e35
00000350: 3b8f c0b7 fbc8 3dba d952 45ba 72f7 f9b8
00000360: c52c b839 c317 e6b7 ac7d 323a 95a4 9cb9
00000370: 45a7 f7b8 3dd5 3db9 1c1f 07b6 f88b 2737
00000380: fd8a 74b7 9b20 33b9 2f62 16b9 448d b6b9
00000390: 560c 07b9 3c44 233a 06eb 3638 7edd c5b7
000003a0: 7b32 4eb9 2cb9 c2b9 87d0 a038 f9d9 2639
000003b0: a592 6539 27fc e738 5c80 31b9 65ac aab9
000003c0: 2072 deb9 ca06 10ba f1b0 efb9 0e34 03ba
000003d0: a835 8139 fbed 1cba 23a1 04b9 d02a a5b9
000003e0: 1758 03b8 1adf feb9 b9d9 23b9 98d9 5038
000003f0: 511d 80b8 6105 04b8 f4bc c3b8 1684 b4b9

exp_avg_sq f4 [16, 784]
1.7031883e-11 3.1071878e-11 3.778306e-10 7.4944335e-09 1.9838728e-08 3.015276e-08 6.3215815e-08 1.250028e-07
3.1304862e-07 9.643016e-07 3.5413893e-06 6.981131e-06 4.7912918e-06 3.5795497e-06 3.124458e-06 5.2150485e-06
6.971353e-06 5.8391947e-06 2.0116972e-06 5.029936e-07 2.3254896e-07 1.1535156e-07 6.512908e-08 3.8524234e-08
1.9289704e-08 1.0694229e-08 2.0664686e-09 3.4271103e-10 2.6208707e-11 9.527506e-11 7.189966e-09 3.9408725e-08
7.954534e-08 1.9484982e-07 4.836193e-07 7.727013e-07 3.560442e-06 1.3679181e-05 1.9625604e-05 2.5543159e-05
2.7443313e-05 2.6537315e-05 2.43503e-05 2.8456916e-05 2.65651e-05 2.5380405e-05 1.7491217e-05 6.3541947e-06
1.2744664e-06 7.556709e-07 5.3025445e-07 3.4088205e-07 1.9852389e-07 8.052911e-08 1.0376133e-08 2.4931084e-09
2.1638143e-10 1.1432454e-09 1.9629532e-08 8.913865e-08 1.9157333e-07 5.044698e-07 8.779669e-07 1.7991338e-06
8.172482e-06 1.5121462e-05 1.8262323e-05 2.2805267e-05 2.1791464e-05 2.3799726e-05 2.2960037e-05 2.049856e-05
1.973101e-05 2.052967e-05 1.5911963e-05 9.700217e-06 3.4186196e-06 1.4704041e-06 1.3715832e-06 8.789095e-07
5.380688e-07 2.2527371e-07 4.7104493e-08 3.5383132e-09 9.667742e-10 7.8832265e-09 2.8486902e-08 1.0736784e-07
3.077151e-07 7.327331e-07 1.4535345e-06 3.2669566e-06 9.44975e-06 1.438549e-05 1.9240691e-05 2.4210573e-05
2.2688238e-05 2.3994564e-05 2.2098087e-05 2.0440877e-05 1.8775014e-05 1.8378263e-05 1.5806885e-05 9.240842e-06
4.749108e-06 2.6294338e-06 2.4481249e-06 2.101181e-06 1.2301389e-06 5.6984203e-07 9.9292755e-08 1.0245823e-08
3.7556984e-09 2.2787033e-08 5.4934986e-08 1.6265854e-07 5.2225244e-07 9.5034835e-07 2.5643128e-06 5.4338198e-06
1.0784688e-05 1.4684951e-05 2.2487813e-05 2.2963923e-05 2.3453822e-05 2.1140124e-05 1.911821e-05 1.6582595e-05
1.7035924e-05 1.616729e-05 1.2735171e-05 7.408108e-06 5.594085e-06 4.8326965e-06 4.8835436e-06 4.268308e-06
2.642336e-06 1.3374813e-06 3.668327e-07 3.0960738e-08 3.791883e-09 4.6709747e-08 1.1602824e-07 2.6092826e-07
7.286222e-07 1.4881863e-06 3.1581515e-06 6.3595894e-06 1.0837939e-05 1.5007955e-05 2.3956904e-05 2.5457228e-05
2.4466726e-05 2.0710831e-05 1.818897e-05 1.4971976e-05 1.2479197e-05 1.0940254e-05 1.0065948e-05 5.692523e-06
5.258304e-06 6.6570824e-06 9.02898e-06 8.344602e-06 6.3448615e-06 3.4889292e-06 9.656561e-07 6.257743e-08
9.310208e-09 7.3545955e-08 2.1781315e-07 4.157613e-07 9.077151e-07 1.8953385e-06 3.3624901e-06 5.888706e-06
9.087394e-06 1.1472715e-05 2.1413705e-05 2.4839594e-05 2.4258321e-05 1.8977214e-05 1.4324045e-05 1.075149e-05
8.029634e-06 6.631297e-06 6.2197573e-06 5.293756e-06 6.627714e-06 1.0077947e-05 1.4636243e-05 1.5534346e-05
1.4081642e-05 8.425642e-06 2.1659087e-06 1.2884462e-07 1.603399e-08 1.4341363e-07 3.5166724e-07 5.9879176e-07
1.218395e-06 2.5822417e-06 3.6942347e-06 5.449434e-06 7.708199e-06 9.957069e-06 2.0412284e-05 2.6512611e-05
2.2151153e-05 1.821187e-05 1.3862846e-05 8.586526e-06 6.340746e-06 5.4442066e-06 5.6121244e-06 8.230093e-06
1.0423497e-05 1.6632082e-05 2.2556984e-05 2.2748853e-05 2.414812e-05 1.748202e-05 4.446441e-06 1.6374888e-07
2.0246588e-08 2.1584557e-07 4.293499e-07 7.663141e-07 1.4675554e-06 2.900198e-06 3.7089176e-06 5.167107e-06
6.599553e-06 7.797846e-06 1.95844e-05 2.885356e-05 2.1961208e-05 1.7120932e-05 1.1630142e-05 6.353062e-06
4.6886885e-06 4.771559e-06 7.579829e-06 1.1828671e-05 1.6079337e-05 2.151201e-05 2.9005765e-05 3.0902218e-05
3.202915e-05 2.4577914e-05 4.179436e-06 1.3620105e-07 3.267001e-08 2.6222324e-07 4.94094e-07 9.2136804e-07
00000000: 64d0 952d d3a7 082e eeb6 cf2f dec0 0032
00000010: d369 aa32 4f81 0133 43c1 8733 8238 0634
00000020: 1311 a834 276d 8135 9ba8 6d36 753f ea36
00000030: e2c4 a036 3238 7036 c8ad 5136 edfc ae36
00000040: 77eb e936 4dee c336 b200 0736 7505 0735
00000050: 92b2 7934 31b7 f733 17dd 8b33 d875 2533
00000060: 82b2 a532 b7b9 3732 b301 0e31 4a68 bc2f
00000070: c388 e62d 1783 d12e 9c0b f731 5a42 2933
00000080: 83d2 aa33 e937 5134 11d2 0135 a16b 4f35
00000090: eeef 6e36 a37f 6537 aaa1 a437 8445 d637
000000a0: 1136 e637 739c de37 df43 cc37 c3b6 ee37
000000b0: 1ed8 de37 01e8 d437 1aba 9237 1e36 d536
000000c0: 550e ab35 4fd9 4a35 cf56 0e35 7902 b734
000000d0: d529 5534 59ef ac33 b742 3232 3a53 2b31
000000e0: f5e9 6d2f 5f20 9d30 cc9d a832 7e6c bf33
000000f0: 47b3 4d34 e76a 0735 6dad 6b35 c479 f135
00000100: 8b1c 0937 2fb2 7d37 0a32 9937 f04d bf37
00000110: d0cc b637 86a5 c737 4e9a c037 53f4 ab37
00000120: 0584 a537 2137 ac37 ae7a 8537 1dbe 2237
00000130: 706b 6536 b35a c535 3d17 b835 33ee 6b35
00000140: ce6f 1035 c4e2 7134 f04f 4a33 aa26 7331
00000150: 58df 8430 cc6e 0732 5cb3 f432 1892 e633
00000160: 0b34 a534 09b1 4435 1117 c335 e33d 5b36
00000170: 5e8a 1e37 3659 7137 1267 a137 cf17 cb37
00000180: 9f52 be37 ef47 c937 485f b937 7378 ab37
00000190: 097f 9d37 052b 9a37 0799 8437 1d09 1b37
000001a0: 875a 9f36 5475 3036 774a 2436 0402 0d36
000001b0: 401b a535 3ff7 1835 c53a d533 9b05 3032
000001c0: 790b 8131 37bd c332 a8f1 6b33 3da7 2e34
000001d0: ea30 0c35 711b 7f35 8f16 2c36 2854 b636
000001e0: e2ef 3437 625f 7637 36a4 bc37 a6a2 c037
000001f0: b3be c437 1256 b137 0b60 a037 da1a 8b37
00000200: 5ee8 8e37 fe9e 8737 25a9 5537 2a93 f836
00000210: d3b4 bb36 8c28 a236 52dd a336 7d38 8f36
00000220: fd52 3136 8283 b335 1af1 c434 b1f9 0433
00000230: c149 8231 e99d 4833 332b f933 b515 8c34
00000240: 8996 4335 b1bd c735 a1f0 5336 7564 d536
00000250: 98d4 3537 adca 7b37 0ff7 c837 fb8c d537
00000260: e53d cd37 2cbc ad37 8494 9837 2630 7b37
00000270: be5d 5137 088c 3737 ebe0 2837 6602 bf36
00000280: 7d70 b036 e75f df36 2c7b 1737 cbff 0b37
00000290: f2e5 d436 5923 6a36 b19b 8135 4e62 8633
000002a0: baf2 1f32 51f0 9d33 06e0 6934 cc35 df34
000002b0: b5a9 7335 5663 fe35 24a7 6136 9997 c536
000002c0: 0f76 1837 f07a 4037 95a1 b337 9f5e d037
000002d0: 597e cb37 4231 9f37 4e51 7037 4c61 3437
000002e0: 04b7 0637 6882 de36 4fb3 d036 05a1 b136
000002f0: a163 de36 7414 2937 2f8e 7537 c14f 8237
00000300: 3140 6c37 db5b 0d37 075a 1136 8a58 0a34
00000310: 1ebb 8932 3dfd 1934 c7cc bc34 a8bc 2035
00000320: bc87 a335 934a 2d36 78ea 7736 48da b636
00000330: 7652 0137 490d 2737 0c3b ab37 6667 de37
00000340: 3dd1 b937 b1c5 9837 7894 6837 d90e 1037
00000350: 98c2 d436 61ad b636 c84f bc36 fb13 0a37
00000360: 94e0 2e37 2085 8b37 c138 bd37 cad4 be37
00000370: b191 ca37 5aa6 9237 a332 9536 f3d2 2f34
00000380: b8ea ad32 2ec3 6734 6781 e634 b4b4 4d35
00000390: d2f8 c435 06a1 4236 b8e6 7836 1c61 ad36
000003a0: bb71 dd36 7ed3 0237 2e49 a437 8c0a f237
000003b0: 5639 b837 ec9e 8f37 141f 4337 632c d536
000003c0: 8753 9d36 611b a036 3c56 fe36 c173 4637
000003d0: 1de2 8637 b174 b437 6851 f337 019d 0138
000003e0: 0a57 0638 ab2c ce37 153d 8c36 a93e 1234
000003f0: 0e51 0c33 b0c7 8c34 e2a1 0435 ee53 7735

exp_avg f4 [16]
3.8641415e-10 -2.5072006e-10 5.035898e-10 -2.8665417e-11 -6.7914185e-10 6.3859895e-10 -1.4123366e-10 1.8311549e-09
-5.667484e-10 -3.232182e-10 2.7386999e-11 -4.7707466e-10 -3.6988515e-10 -5.417629e-10 -2.1565064e-11 5.2953003e-10
00000000: f56e d42f b6d5 89af fb6c 0a30 c824 fcad
00000010: 5cae 3ab0 6889 2f30 be49 1baf 09ac fb30
00000020: 60c9 1bb0 ebb0 b1af 0ae6 f02d 2523 03b0
00000030: b558 cbaf 2deb 14b0 35b0 bdad 5d8e 1130

exp_avg_sq f4 [16]
2.3466005e-19 6.745769e-19 1.6555362e-18 2.60852e-19 2.1052805e-18 4.276429e-18 8.93804e-19 8.2109356e-18
5.5405136e-19 8.128121e-19 5.210661e-19 3.6612383e-18 2.649954e-19 1.5419024e-18 6.7712953e-19 2.7234138e-18
00000000: d384 8a20 9719 4721 6450 f421 d7fa 9920
00000010: a057 1b22 bbc5 9d22 f6e6 8321 0c77 1723
00000020: f086 2321 59e6 6f21 a4ca 1921 6b13 8722
00000030: f96c 9c20 6d8b e321 76da 4721 d5f3 4822

exp_avg f4 [16]
-0.0012213965 -0.0010909586 0.0012133836 -0.00021168125 0.0004624995 0.00048674035 -0.00012179065 0.0009752633
4.408487e-05 -0.00032809144 0.00039709546 -0.0012894184 -0.0013486427 0.0011975433 -0.00039662473 0.002415835
00000000: 4417 a0ba 7ffe 8eba 660a 9f3a c1f6 5db9
00000010: a27b f239 2f31 ff39 db69 ffb8 d0a8 7f3a
00000020: c5e7 3838 b003 acb9 4031 d039 b401 a9ba
00000030: f1c4 b0ba e3f6 9c3a 12f2 cfb9 fc52 1e3b

exp_avg_sq f4 [16]
1.6379783e-05 1.7807784e-05 1.3640184e-05 1.5519856e-05 9.659488e-06 1.981955e-05 1.4804141e-05 3.8774946e-05
1.9176154e-05 1.6185053e-05 1.5921833e-05 2.0158011e-05 1.6007092e-05 1.1838699e-05 1.2081645e-05 1.5760164e-05
00000000: 5167 8937 ed61 9537 25d8 6437 a330 8237
00000010: 2f0f 2237 2942 a637 4d5f 7837 48a2 2238
00000020: 7adc a037 23c5 8737 e08f 8537 0019 a937
00000030: f846 8637 d39e 4637 45b2 4a37 b234 8437

exp_avg f4 [16]
-0.0010843219 -0.0018017965 0.0047319843 0.0010155485 -0.0007397874 -0.00015157666 6.351139e-05 0.0009261225
0.0018753345 -0.0017107469 0.002940505 -0.00043751043 -0.001238735 -0.0004396861 0.002793933 0.0038827253
00000000: ce1f 8eba 422a ecba c30e 9b3b 271c 853a
00000010: 4bee 41ba 8df0 1eb9 6b31 8538 07c7 723a
00000020: c9cd f53a 243b e0ba 7db5 403b a861 e5b9
00000030: 0d5d a2ba ab85 e6b9 6b1a 373b 5275 7e3b

exp_avg_sq f4 [16]
1.3562576e-05 2.4060788e-05 3.571101e-05 1.8914137e-05 1.4600581e-05 1.21507865e-05 1.4158664e-05 2.1494376e-05
5.2156225e-05 1.0310405e-05 1.4967933e-05 2.5190262e-05 1.795523e-05 2.9215447e-05 9.600571e-06 2.7998474e-05
00000000: d28a 6337 26d6 c937 68c8 1538 cda9 9e37
00000010: 05f5 7437 3bdb 4b37 008b 6d37 d24e b437
00000020: 52c2 5a38 dafa 2c37 c81e 7b37 ad4f d337
00000030: 909e 9637 b213 f537 2312 2137 44de ea37
