lightning_logs/Models/Model_L1/checkpoints/model-epoch=02-.ckpt (torch, 368148 bytes, 48 tensors)

classifier.1.weight f4 [32, 784]
0	0xb6d510ee	-6.3498655e-06
1	0x382dbf73	4.1424715e-05
2	0xb9cbdd29	-0.00038883954
3	0x390a06de	0.00013163264
4	0xb953d34e	-0.00020201245
5	0xb996cb0d	-0.00028761514
6	0xba006258	-0.0004897467
7	0xb9345245	-0.00017196785
8	0xba6c141f	-0.0009005684
9	0xb9b1fb73	-0.00033947415
10	0xb876159d	-5.86711e-05
11	0xb96f1a8e	-0.00022802709
12	0x395af503	0.00020881374
13	0x39dfd132	0.00042689737
14	0xbb113c81	-0.0022161307
15	0xbc32eb3f	-0.010920345
16	0xbc81bdf9	-0.015837656
17	0x3a4d37b3	0.0007828429
18	0xb8d8df70	-0.00010341301
19	0xbaabdc57	-0.0013111931
20	0xb9409f47	-0.00018369882
21	0x39844244	0.00025226374
22	0xb9df72ad	-0.00042619315
23	0xb90b4c03	-0.0001328439
24	0xb920f6cc	-0.00015350728
25	0x386ac50d	5.5973465e-05
26	0x390f7a9d	0.0001368322
27	0x39e7be7a	0.0004420167
28	0x375521df	1.2703676e-05
29	0x394df145	0.00019640203
30	0xb64d7c77	-3.0619829e-06
31	0x398a7121	0.000264057
32	0xb90782ea	-0.00012923373
33	0x393d1cd3	0.00018035182
34	0xb87b3756	-5.98946e-05
35	0x394bd2e5	0.00019438153
36	0x38df794e	0.000106560634
37	0xbc7b4199	-0.015335464
38	0x39a9559a	0.0003229797
39	0xbcd7c328	-0.026338175
40	0xbc40e5d2	-0.011773543
41	0xbb88922e	-0.0041678166
42	0xbc1862bc	-0.009300884
43	0xbcafcef6	-0.021460991
44	0xba26c208	-0.00063613104
45	0x38ad8434	8.2739076e-05
46	0xb987e1b5	-0.0002591737
47	0x3a3fa5b2	0.00073107623
48	0xba416253	-0.0007377017
49	0xba242584	-0.0006261694
50	0x396f3fde	0.00022816609
51	0xb90d2446	-0.00013460321
52	0xb9a18c9f	-0.00030813084
53	0xb8ae3078	-8.3059946e-05
54	0xb89f77f4	-7.604054e-05
55	0xb921a96e	-0.00015417274
56	0x38eb1eaa	0.00011211385
57	0xb8ec76b1	-0.00011275465
58	0xb8d5d4a9	-0.000101962425
59	0xb9b7e1a7	-0.00035072604
60	0xb7d5fc18	-2.5508969e-05
61	0xba4d70d1	-0.00078369403
62	0x3af74e1c	0.0018867883
63	0xba32156c	-0.0006793353
64	0xb8842d58	-6.3026964e-05
65	0x3aa1f2c7	0.0012355678
66	0xbc20a854	-0.009805758
67	0xbc815035	-0.015785316
68	0x3a84b2d6	0.0010124098
69	0xbc0c2d83	-0.008555773
70	0xbcfe5d1c	-0.031050257
71	0xba48ff52	-0.000766744
72	0xbcb36021	-0.021896424
73	0xba72e32e	-0.000926542
74	0x37db8759	2.616986e-05
75	0xb9ba08fb	-0.00035483376
76	0x3a5237da	0.0008019187
77	0x38f4108b	0.00011637908
78	0xb89a0123	-7.343504e-05
79	0xb7dd18e4	-2.6356844e-05
80	0xb97cc0c1	-0.00024104399
81	0x37001d7a	7.636258e-06
82	0x396d5b5a	0.00022636112
83	0xb936301c	-0.00017374795
84	0xb6ae19db	-5.188614e-06
85	0xb8d3e26b	-0.00010103438
86	0xb93248e9	-0.00017002564
87	0x39116612	0.00013866302
88	0x396f638d	0.00022829902
89	0xba817338	-0.0009876257
90	0x38cee642	9.865734e-05
91	0x3989ed6f	0.00026307578
92	0xbabb15e4	-0.0014273492
93	0xbc5aef1e	-0.013362674
94	0xbcf075c3	-0.029353028
95	0xbcb1c638	-0.021700963
96	0xba833230	-0.0010009464
97	0xbc35c54c	-0.0110944025
98	0xbd06ac9f	-0.032879468
99	0x3b1078b7	0.0022044608
100	0xbc9fc3c5	-0.01950253
101	0x39a41955	0.0003129939
102	0x3b030251	0.0019990394
103	0x3aec5421	0.0018030443
104	0x38751f6b	5.8441812e-05
105	0xb9f63fd1	-0.00046968323
106	0x39416aa1	0.00018445637
107	0x3cccbc95	0.024992267
108	0x39106a8a	0.00013772599
109	0xb915c5bf	-0.00014283413
110	0xb8dd7eb5	-0.00010561702
111	0x386bdd56	5.62345e-05
112	0xb9a09aca	-0.00030632905
113	0x388e22f5	6.777599e-05
114	0xb9dde5ab	-0.0004232352
115	0xba090d18	-0.00052280864
116	0xba2eeaaa	-0.0006672541
117	0xbaac069f	-0.0013124532
118	0xba51bd12	-0.0008000891
119	0x3a04d05d	0.0005066449
120	0xba09c01f	-0.00052547635
121	0xbbb72b52	-0.005589881
122	0xbb0b34f2	-0.0021241275
123	0xb9f9572a	-0.00047557923
124	0x393d4f01	0.00018053876
125	0xbc9b325f	-0.018944917
126	0x3866c27b	5.5017397e-05
127	0xba2de414	-0.00066334126
128	0xbc24b27c	-0.01005232
129	0xb9f07e63	-0.00045870533
130	0x39800d3a	0.00024423917
131	0xba7a6031	-0.0009551077
132	0xb83caf19	-4.4985765e-05
133	0xbab808ae	-0.0014040673
134	0xbaa0eb17	-0.0012277093
135	0xb925ec0c	-0.0001582356
136	0x3a3fbc2c	0.00073141116
137	0xb8b1343c	-8.449747e-05
138	0xb788e0c5	-1.631713e-05
139	0xb7c07b32	-2.294555e-05
140	0x38af9fe9	8.374436e-05
141	0xb85561ca	-5.087423e-05
142	0xb89b976e	-7.419182e-05
143	0x38138712	3.5173325e-05
144	0x393c1aaf	0.00017939018
145	0xba6227d4	-0.00086271507
146	0xbc2e58b3	-0.010641265
147	0xb9d830be	-0.00041235046
148	0xb97219c8	-0.00023088523
149	0x3ac08ded	0.0014690735
150	0xbcc01016	-0.02344517
151	0x3bbf4b03	0.0058377995
152	0xbc97b36f	-0.018518178
153	0xb91f5271	-0.00015194133
154	0xbced44b3	-0.028963422
155	0xbb1af400	-0.002364397
156	0xba873a91	-0.0010317137
157	0xbca41ff5	-0.02003477
158	0xba0afea9	-0.00053022295
159	0xbaa1cf40	-0.001234509
160	0xbad84111	-0.0016498883
161	0x3c30bf3b	0.01078778
162	0xba03fc3b	-0.00050348387
163	0xbaada0a2	-0.0013246725
164	0xbb103eed	-0.0022010163
165	0x3abdd193	0.0014482014
166	0xba330778	-0.0006829421
167	0xb91b965d	-0.00014837967
168	0xb8865e89	-6.4072265e-05
169	0xb80c84ec	-3.3502394e-05
170	0x3aa85334	0.0012842179
171	0x3af324a7	0.0018550352
172	0xb92c1f24	-0.00016414799
173	0xb921567e	-0.00015386377
174	0xba913670	-0.0011078846
175	0xbc6603f2	-0.014039027
176	0xbc3c2750	-0.011483982
177	0xb6e4cd85	-6.818855e-06
178	0xbc2f154f	-0.010686233
179	0xb7d35685	-2.5193449e-05
180	0x39089138	0.00013024069
181	0x39a4f76d	0.00031464864
182	0xbb0a9773	-0.00211474
183	0xb96e767a	-0.00022741585
184	0xbce52af7	-0.027974589
185	0x3981f700	0.00024788827
186	0x3a752320	0.00093512423
187	0xb8848335	-6.31869e-05
188	0x3bbb617b	0.0057184077
189	0xbb19a214	-0.0023442553
190	0xb93dc446	-0.00018097562
191	0xba0a52ed	-0.0005276639
192	0xb8dbee39	-0.00010487106
193	0xb9d385d8	-0.00040344778
194	0x38befaee	9.106645e-05
195	0xb9ca4034	-0.00038576277
196	0xb8519cd4	-4.997554e-05
197	0x3a52ccff	0.0008041411
198	0xb5677954	-8.623076e-07
199	0xb90fe241	-0.00013721829
200	0xb9ff81ce	-0.00048734102
201	0xb96861c9	-0.00022161672
202	0x39296fc0	0.00016158726
203	0xba2d3fb2	-0.00066089176
204	0xba9d7d80	-0.0012015551
205	0xbc90b136	-0.017662626
206	0x3a8abf80	0.0010585636
207	0x3ac5c2a2	0.0015087912
208	0xb960e8c7	-0.00021449021
209	0xba74639b	-0.00093227037
210	0x3b93ddd2	0.004512527
211	0xbc5258d9	-0.012838566
212	0xba30a875	-0.0006738969
213	0xbcb2a3a0	-0.021806538
214	0x3bddf3a9	0.0067734313
215	0xb98eeef4	-0.00027262385
216	0xbc896d88	-0.016775861
217	0xbc80b27c	-0.015710108
218	0xbadb9cb1	-0.0016755072
219	0xbb015936	-0.0019737012
220	0xbb360a1c	-0.0027777022
221	0xbb8d6b7e	-0.0043157926
222	0x3a41d56a	0.0007394167
223	0x39cab558	0.00038663554
224	0x369fd688	4.763544e-06
225	0xb7f44625	-2.911973e-05
226	0xb7493279	-1.1992285e-05
227	0x3ad44202	0.0016193988
228	0xb8f27920	-0.000115620205
229	0xbc99e822	-0.018787447
230	0x3b43ee80	0.0029896796
231	0xb8f7c408	-0.000118143915
232	0x3bd68ebf	0.0065477784
233	0xba7a01e0	-0.00095370226
234	0xbca0fa2e	-0.019650545
235	0xbcec4d42	-0.028845433
236	0xb68d4cc4	-4.211064e-06
237	0x3c3f2513	0.011666554
238	0xb99940ad	-0.0002923062
239	0xb95a726f	-0.0002083273
240	0x3a072f8e	0.00051569275
241	0xbcdc7135	-0.02690945
242	0x3bb27bf9	0.0054469076
243	0xbbea2f50	-0.0071467534
244	0x3ab9583c	0.0014140676
245	0x3aeb96dc	0.0017974037
246	0xb9900361	-0.00027468338
247	0xbb044f17	-0.0020188743
248	0x3bd7111e	0.00656332
249	0xbb8c334f	-0.0042785774
250	0x39072f5b	0.00012892245
251	0x38b23113	8.496842e-05
252	0xb9d3ae32	-0.00040374842
253	0xbaa908b1	-0.0012896267
254	0xb9b558e5	-0.00034589242
255	0x3c11c874	0.008897889

classifier.1.bias f4 [32]
0	0x393f159e	0.00018223232
1	0xb9b52a0d	-0.0003455434
2	0x39cfd22f	0.00039638716
3	0xb83a289b	-4.4383673e-05
4	0xb92ad109	-0.00016290335
5	0x38319101	4.2335134e-05
6	0x38195bc8	3.656352e-05
7	0x398501d9	0.00025369113
8	0xb7885a45	-1.6254498e-05
9	0xb91c0d31	-0.00014882234
10	0xb84e892b	-4.9241975e-05
11	0x38bcb1aa	8.997631e-05
12	0x38de46be	0.00010598962
13	0x39020035	0.00012397843
14	0xb920e5dc	-0.00015344418
15	0x36b16f2e	5.287954e-06
16	0xb9c1b32e	-0.00036945328
17	0xb95784a7	-0.00020553415
18	0xb8813c36	-6.1624145e-05
19	0xb8b13441	-8.449751e-05
20	0xb9135cc4	-0.0001405357
21	0x39262fac	0.00015848753
22	0x39b3f054	0.000343206
23	0xb865c845	-5.478437e-05
24	0x37f37122	2.9020539e-05
25	0xb84ba47e	-4.8552167e-05
26	0xb8968181	-7.176679e-05
27	0xb706df6b	-8.039041e-06
28	0xb9a37b94	-0.00031181856
29	0x3955ad13	0.00020377738
30	0xb9cbe9aa	-0.0003889327
31	0xb946dfb3	-0.00018966086

classifier.2.weight f4 [32]
0	0x3f750efb	0.95725983
1	0x3f7c7b6a	0.98625815
2	0x3f796e99	0.97434384
3	0x3f752983	0.95766467
4	0x3f7a3ea1	0.97751814
5	0x3f779a0d	0.9671944
6	0x3f7d9b89	0.9906545
7	0x3f77c65f	0.96787065
8	0x3f76be5d	0.9638422
9	0x3f759fd3	0.95947
10	0x3f7969be	0.97426975
11	0x3f80f2ea	1.0074131
12	0x3f75c78a	0.960076
13	0x3f770eae	0.96506774
14	0x3f80bfc8	1.0058527
15	0x3f7da21e	0.99075496
16	0x3f8420a0	1.0322456
17	0x3f782bed	0.96942025
18	0x3f7bb744	0.98326516
19	0x3f81a66c	1.0128913
20	0x3f7e74ef	0.99397177
21	0x3f81c972	1.0139601
22	0x3f80391f	1.0017432
23	0x3f808ce5	1.0042998
24	0x3f80946f	1.0045298
25	0x3f7acce6	0.979689
26	0x3f809e20	1.0048256
27	0x3f7ba18f	0.98293394
28	0x3f778380	0.9668503
29	0x3f75d49c	0.9602754
30	0x3f82ae35	1.0209414
31	0x3f771f4b	0.96532124

classifier.2.bias f4 [32]
0	0xba9b4cb2	-0.0011848419
1	0xbbc6d7f9	-0.0060682264
2	0x3cd2b79a	0.025722314
3	0xb9540309	-0.00020219026
4	0xbb3b05fc	-0.0028537503
5	0x3b0cddc7	0.0021494494
6	0x3b8dfabb	0.004332868
7	0xb9924179	-0.0002789607
8	0xb9fc1512	-0.00048080884
9	0xba539fc8	-0.00080728205
10	0x3b7ab187	0.0038252787
11	0x3c05488a	0.00813497
12	0xbb0f7778	-0.0021891277
13	0xb9ac30ad	-0.00032842663
14	0x39b28599	0.00034050344
15	0x3c730aad	0.014834088
16	0x3c8c0da7	0.017096354
17	0xbbf7b1e6	-0.007559049
18	0xba08cff8	-0.0005218978
19	0x3ba3c5f8	0.004997965
20	0xbc1d7db7	-0.009612492
21	0x3929b03c	0.00016182748
22	0xbb229716	-0.0024809293
23	0xbbc6ce2a	-0.006067057
24	0xb9b54f93	-0.00034582298
25	0x3b2fa345	0.0026800197
26	0xbc1be068	-0.009513952
27	0xbb8354ad	-0.004007897
28	0xb9a4b31c	-0.00031413964
29	0xbca5719e	-0.020195778
30	0xbb219fa2	-0.00246618
31	0x3b8c39d0	0.0042793527

classifier.2.running_mean f4 [32]
0	0xbbdda35f	-0.00676386
1	0x3ea9d42f	0.33169696
2	0xbf58bd36	-0.8466371
3	0x3de5c9c6	0.11220126
4	0x3d21872b	0.039435547
5	0xbe9f86cc	-0.3115753
6	0x3cfddf8f	0.03099039
7	0x3cfdbcaa	0.030973751
8	0xbea1a947	-0.3157446
9	0xbe7617c4	-0.24032503
10	0xbf0cb0e7	-0.5495743
11	0x3ebf9e7f	0.3742561
12	0x3e39fb80	0.18162346
13	0xbe679771	-0.22616364
14	0xbe0562e5	-0.13026007
15	0x3deba797	0.115065746
16	0x3e89ccca	0.26914054
17	0x3e06d5c6	0.13167486
18	0xbe3fd1a2	-0.18732312
19	0x3eb9d9e8	0.36299062
20	0x3def2157	0.11676281
21	0x3ef13bc8	0.47115922
22	0xbdf5a344	-0.11994031
23	0x3f509029	0.8146997
24	0x3ed090a5	0.40735355
25	0xbe946421	-0.28982642
26	0xbd87785e	-0.06614755
27	0x3f355818	0.70837545
28	0x3f0717ec	0.52770877
29	0xbe988f2e	-0.29796737
30	0x3f4b7ad0	0.7948427
31	0xbe1a262e	-0.15053627

classifier.2.running_var f4 [32]
0	0x3ecc1f96	0.39867848
1	0x3f3aef01	0.7302094
2	0x3ed806b2	0.42192608
3	0x3ec2163b	0.37907586
4	0x3df74f5a	0.12075682
5	0x3e81e883	0.25372705
6	0x3e52aa3c	0.20572752
7	0x3f406002	0.75146496
8	0x3e522a62	0.2052398
9	0x3e1a61d6	0.15076384
10	0x3e6c4779	0.2307414
11	0x3f61138e	0.87920463
12	0x3e59e4e1	0.21278717
13	0x3ebfb721	0.37444404
14	0x3e7f2da1	0.2491975
15	0x3ec9f9cc	0.39448392
16	0x3df55a4c	0.119801134
17	0x3f0f05f4	0.5586846
18	0x3db8c54a	0.09022005
19	0x3f22966c	0.63510776
20	0x3f78186e	0.96912277
21	0x3f263d40	0.6493721
22	0x3eb4fd7d	0.35349646
23	0x3e501418	0.20320165
24	0x3e895277	0.26820728
25	0x3eb9d2c4	0.36293614
26	0x3eb4c4ce	0.353064
27	0x3e3a9396	0.18220362
28	0x3eeb4532	0.4595123
29	0x3dfc046e	0.123055324
30	0x3edbdb4f	0.42940757
31	0x3f12e9c7	0.57387966

classifier.4.weight f4 [64, 32]
0	0xbd98968c	-0.074505895
1	0xbd9c3b0b	-0.07628449
2	0x3d8a692b	0.067583404
3	0x3e30bb1c	0.17258877
4	0xbaa4e9ae	-0.0012581849
5	0x3b6a6c6a	0.0035770186
6	0xbe13d592	-0.1443694
7	0x3dd0a655	0.10187975
8	0xbdfae169	-0.12250025
9	0x3d2bac76	0.04191252
10	0xbd2e844e	-0.042606644
11	0xbd4dc7c7	-0.05023935
12	0x3cd893ec	0.026437722
13	0xbe06e8b4	-0.13174707
14	0xbe1f568c	-0.15560359
15	0x3c9c4280	0.019074678
16	0x3d0d55cc	0.03450565
17	0xbdb1a508	-0.08674055
18	0xbdf000b5	-0.11718885
19	0x3b277581	0.0025552216
20	0x3c63aaf7	0.013895742
21	0xbd8c70e8	-0.06857473
22	0xbdce19d8	-0.10063523
23	0xbe29c855	-0.16580327
24	0xbd1aece1	-0.03782356
25	0xbb1e9da2	-0.0024202843
26	0xbdb01c68	-0.08599168
27	0x3df64252	0.12024368
28	0xbd525f28	-0.05136028
29	0x3d091b63	0.033473384
30	0xbd9454d7	-0.072427444
31	0x3d121810	0.03566748
32	0xbe046b45	-0.12931545
33	0xbaa56b81	-0.001262054
34	0x3cf3643d	0.029710883
35	0xbbd2bfa4	-0.0064315367
36	0x3e09385b	0.13400404
37	0xbdcee4d7	-0.101022415
38	0xbde34228	-0.11096603
39	0xbd80fc36	-0.062981054
40	0xbdd1eb07	-0.10249906
41	0xbd998759	-0.07496519
42	0xbde307b7	-0.11085456
43	0xbd06dba6	-0.032924317
44	0xbdeefcab	-0.11669286
45	0x3d3b1a54	0.045679405
46	0xbd042c47	-0.03226879
47	0xbe2a9da7	-0.16661702
48	0x3cedf77d	0.029048676
49	0x39f60899	0.00046927182
50	0x3d711192	0.058854647
51	0xbdd07695	-0.10178868
52	0x3d9a502c	0.07534823
53	0x3bcea71c	0.006306542
54	0x3c1c0b63	0.009524199
55	0xbe4fa7fa	-0.20278922
56	0x3bf767c6	0.0075502126
57	0x3de60aa6	0.112325
58	0xbcb92a48	-0.02260317
59	0xbe18cd71	-0.1492212
60	0xbca10836	-0.019657236
61	0x3e1b34d8	0.15156877
62	0x3da28759	0.07935972
63	0xbd279e00	-0.040922165
64	0x3d728893	0.05921228
65	0x3defa161	0.117007025
66	0xbdc00df9	-0.09377665
67	0x3cdfad3c	0.027304284
68	0x3d823eb6	0.063596174
69	0xbb8860d6	-0.0041619344
70	0xbdded43b	-0.108803235
71	0x3e1ac76f	0.1511514
72	0x3e114fca	0.14190593
73	0xbb966980	-0.0045902133
74	0xbc07c186	-0.008285886
75	0xbe12a388	-0.14320195
76	0xbca809c7	-0.020512475
77	0x3d7a2814	0.061073378
78	0xbd5b82bd	-0.05359148
79	0x3e269487	0.16267596
80	0xbc3aa4e5	-0.011391853
81	0x3cc6b1aa	0.024254639
82	0xbdad1818	-0.08451861
83	0xbd81f4f1	-0.06345547
84	0x3d1463ba	0.03622792
85	0xbdd5ad0b	-0.10433396
86	0x3d39df75	0.04537912
87	0x3d96a1ab	0.073550545
88	0x3d65a7ae	0.056068115
89	0xbd976aa9	-0.07393391
90	0x3e25e7ff	0.1620178
91	0x3be2c419	0.0069203493
92	0xbd14ecd8	-0.036358684
93	0xbd4d074a	-0.05005578
94	0x3e0909f1	0.13382699
95	0x3c9fa7d8	0.019489214
96	0xbdec807b	-0.11547943
97	0xb9e73809	-0.00044101503
98	0xb8b1badf	-8.474825e-05
99	0xbe164df1	-0.1467817
100	0xbe1c2e84	-0.1525212
101	0x3d15b356	0.03654798
102	0x3c8f4454	0.017488636
103	0x3dd87437	0.10569041
104	0x3e06abb7	0.13151442
105	0x3db9b8ee	0.09068476
106	0xbc86e709	-0.016467588
107	0xbd6e7233	-0.058214378
108	0x3dce817b	0.1008329
109	0xbaa147f4	-0.0012304769
110	0xbdd493bc	-0.103797406
111	0xbe08c348	-0.13355744
112	0x3d4a683f	0.049415823
113	0xbdfea77b	-0.12434288
114	0x3aa0243e	0.0012217832
115	0x3e2ea6ca	0.17055812
116	0x3dff5b7e	0.124686226
117	0x3e4d62e8	0.20057261
118	0x3d8a393d	0.067491986
119	0xbc73b161	-0.014873833
120	0xbdf0be8b	-0.11755093
121	0x3c50b60c	0.012738716
122	0x3ceab189	0.028649108
123	0x3c46ec2f	0.0121412715
124	0xbdbaba58	-0.091175735
125	0xbd3c8164	-0.046021834
126	0x3e124b0a	0.14286438
127	0x3d6c117d	0.057633866
128	0x3df612e8	0.12015325
129	0x3e08f90b	0.13376252
130	0xbdc61a95	-0.09673039
131	0x3de16008	0.11004645
132	0xbdf0e1d4	-0.11761823
133	0xbd6c1ece	-0.057646565
134	0x38acfa62	8.2482366e-05
135	0x3e14e436	0.1454018
136	0x3caa3475	0.020776967
137	0x3dc07e25	0.0939906
138	0xbe1b4a00	-0.15164948
139	0xbdb860b2	-0.09002818
140	0x3d72b14f	0.059251126
141	0x39935f9e	0.00028109265
142	0x3ddaf4d9	0.10691232
143	0xbd7955d0	-0.060872853
144	0xbca1fc38	-0.019773588
145	0xbddb7d92	-0.1071731
146	0x3cd3b79a	0.025844384
147	0x3e01b0a1	0.12665035
148	0x3e0735c9	0.13204111
149	0x3ddce6cb	0.10786208
150	0xbbdb6e35	-0.0066964873
151	0xbdfb4ac0	-0.12270117
152	0xbd9331af	-0.07187211
153	0x3de199f6	0.11015694
154	0xbc877506	-0.016535293
155	0xbdf62256	-0.12018268
156	0x3df92acd	0.12166367
157	0xbd9e0fbf	-0.07717847
158	0x3db19d4a	0.08672579
159	0x3df7e2a3	0.121037744
160	0xbdd1870b	-0.102308355
161	0xbde37f34	-0.111082464
162	0xbe00f375	-0.12592871
163	0xbdcbbd10	-0.0994817
164	0xbd86c59b	-0.06580659
165	0xbe104594	-0.14089042
166	0xbad5368e	-0.0016266869
167	0x3af64021	0.0018787422
168	0x3b42e960	0.0029741153
169	0xbdbd73b0	-0.09250581
170	0xbd788f60	-0.060683608
171	0x3d8a21d9	0.06744737
172	0x3ce71eaa	0.028212864
173	0xbdcb73f9	-0.099342294
174	0xba98bb6a	-0.0011652533
175	0xbe18341f	-0.14863633
176	0x3d410d70	0.047131956
177	0x3df06b71	0.11739243
178	0xbdc430bc	-0.09579608
179	0xbc76ef4a	-0.015071699
180	0xbdf9db2f	-0.12200009
181	0x3e262480	0.16224861
182	0x3dab85a5	0.083751
183	0x3dedc924	0.1161063
184	0xbd10bee5	-0.0353383
185	0xbd19c0ac	-0.03753726
186	0xbcf57785	-0.029964218
187	0x3e13e0cb	0.1444122
188	0x3d9c31ec	0.07626709
189	0x3e4470f7	0.19183718
190	0x3d0d3769	0.03447667
191	0xbdd44162	-0.10364033
192	0x3dca2f5c	0.09872314
193	0x3c8010e0	0.015633047
194	0xbd679033	-0.056534003
195	0xbd97c921	-0.07411409
196	0xbe076e42	-0.13225654
197	0xbd951127	-0.07278662
198	0x3cfe0e08	0.03101255
199	0xbdb01720	-0.08598161
200	0x3e1792ec	0.1480214
201	0xbd71668d	-0.05893569
202	0xbd62ea7e	-0.05539941
203	0x3d9e3ba4	0.07726219
204	0x3e128495	0.14308389
205	0xbdcce071	-0.10003746
206	0xbd5c4a6a	-0.053781904
207	0xbd58acae	-0.052899055
208	0x3d944dfd	0.072414376
209	0x3d9ad9bf	0.07561063
210	0xbd16a21d	-0.036775697
211	0x3d9ad705	0.07560543
212	0x3e142e44	0.14470774
213	0xbda29bad	-0.07939849
214	0x3d85bdd5	0.06530348
215	0xbdb210bd	-0.08694599
216	0xbcd71cd3	-0.026258862
217	0x3cad2a42	0.021138314
218	0xbae327f6	-0.0017330635
219	0xbcbcd91e	-0.023052748
220	0x3d02a3ef	0.03189462
221	0x3cff0300	0.03112936
222	0x3a7b622f	0.00095895206
223	0xbdc1edd0	-0.09469187
224	0xbd90aea6	-0.070645615
225	0xbb73d034	-0.0037202956
226	0xbe20599b	-0.15659182
227	0x3c7adf87	0.015312082
228	0x3ca368e5	0.019947479
229	0xbcf0be74	-0.02938769
230	0xbd16a431	-0.03677768
231	0xbdf51270	-0.11966407
232	0xbdb40388	-0.08789736
233	0xbdea2635	-0.11433069
234	0x3dfac0b5	0.12243787
235	0x3e1f448f	0.15553497
236	0x3dc9970a	0.098432615
237	0xbd17a4a0	-0.037022233
238	0xbe18b7c4	-0.14913851
239	0xbcf1170e	-0.029429939
240	0x3d52ad83	0.051435005
241	0xbc85eccf	-0.01634827
242	0x3d03ea85	0.032206077
243	0xbdc13ebc	-0.09435794
244	0x3e010168	0.12598193
245	0xbcd912d6	-0.02649824
246	0xbe0e9e7a	-0.13927642
247	0x3c5d533e	0.013508616
248	0x3db52e97	0.08846777
249	0xbd602f47	-0.054732587
250	0xbd461f09	-0.04836944
251	0x3cc74f52	0.024329815
252	0xbd422bde	-0.047405116
253	0xbcb51acb	-0.022107502
254	0x3e269388	0.16267216
255	0xbe319d89	-0.17345251

classifier.4.bias f4 [64]
0	0x38ae0bb0	8.2991435e-05
1	0x387b70f0	5.9948245e-05
2	0x3d168c2a	0.036754765
3	0xbcf8ab1f	-0.030355034
4	0x3d891d4e	0.066950426
5	0xbb37869d	-0.002800382
6	0xbd8da5be	-0.069163784
7	0x3b4f28b4	0.0031609954
8	0xb92d45c8	-0.00016524561
9	0xbcbd76a0	-0.023127854
10	0x39849af6	0.00025292457
11	0x3bf30692	0.0074165547
12	0xbdb9e034	-0.090759665
13	0xbd9d0956	-0.07667796
14	0xbd8f0b70	-0.069846034
15	0xb980497a	-0.00024468807
16	0xbd7a1af2	-0.061060853
17	0x3d924dae	0.071437225
18	0xba34fa2a	-0.00069037324
19	0xb95f45af	-0.00021292896
20	0xb9a41f28	-0.0003130373
21	0x3d3eff04	0.04662992
22	0xb8a9c3ef	-8.0950434e-05
23	0xbd05d55c	-0.03267418
24	0x397ef154	0.0002431323
25	0xb92c4226	-0.0001642784
26	0x3d862252	0.06549515
27	0x3da719fa	0.081592515
28	0xbd5d736b	-0.05406515
29	0x3d185f42	0.03720022
30	0x3d93da6e	0.072193965
31	0xbd9d47a2	-0.076796785
32	0x3cb16d8f	0.021658687
33	0x3942e287	0.0001858567
34	0xbc4656be	-0.012105642
35	0x3c10cf9b	0.0088385595
36	0x3d62740c	0.055286452
37	0x3a86edaf	0.0010294224
38	0x3dc658c2	0.09684898
39	0x38c18f44	9.2296425e-05
40	0xbd5b7dd7	-0.053586807
41	0x38c498e8	9.374489e-05
42	0x3d3588c1	0.04431987
43	0x3d16a8f2	0.036782213
44	0x38d30586	0.00010062293
45	0xb8b41f2a	-8.5888736e-05
46	0x3d9e3626	0.07725172
47	0x3cf04116	0.02932791
48	0x3ccfaff1	0.02535245
49	0xb919e15b	-0.00014675168
50	0x3d235255	0.03987344
51	0x3dbe79e2	0.09300591
52	0xbaaeeb12	-0.0013345203
53	0x3c4c0f66	0.012454843
54	0xbc4a78bc	-0.012357887
55	0x3ab6e8e8	0.001395491
56	0x3cff17a9	0.031139212
57	0x3dc2ebe2	0.09517647
58	0xbd93822e	-0.07202564
59	0xbab3bcef	-0.0013712923
60	0x3d0ff820	0.03514874
61	0xb9c18db6	-0.00036917411
62	0x36d911be	6.4691694e-06
63	0xbd8706a8	-0.065930665

classifier.5.weight f4 [64]
0	0x3f7949f7	0.97378486
1	0x3f788777	0.970817
2	0x3f78cc8d	0.9718712
3	0x3f766bc0	0.96258163
4	0x3f83a02c	1.0283256
5	0x3f7e3bf3	0.99310225
6	0x3f78213d	0.9692572
7	0x3f7ad00b	0.979737
8	0x3f7f2a92	0.9967433
9	0x3f7964b1	0.9741927
10	0x3f74c790	0.9561701
11	0x3f753479	0.9578319
12	0x3f7968d4	0.9742558
13	0x3f8007d6	1.0002391
14	0x3f75cffc	0.96020484
15	0x3f739213	0.95144767
16	0x3f789cde	0.9711436
17	0x3f7a45fa	0.97763026
18	0x3f78c4a1	0.9717503
19	0x3f74628d	0.95462877
20	0x3f7b725d	0.9822138
21	0x3f7cd999	0.9876953
22	0x3f80c4bc	1.0060039
23	0x3f765da5	0.9623664
24	0x3f7495f0	0.95541286
25	0x3f775725	0.96617347
26	0x3f7ce8f5	0.98792964
27	0x3f737b9b	0.9511048
28	0x3f79831f	0.974657
29	0x3f771200	0.9651184
30	0x3f81d135	1.014197
31	0x3f76aba5	0.9635566
32	0x3f7a0afe	0.9767302
33	0x3f751eb1	0.95749956
34	0x3f70e2aa	0.9409586
35	0x3f7afb7b	0.9803998
36	0x3f7af47c	0.98029304
37	0x3f74f56e	0.95686996
38	0x3f7b64c2	0.9820062
39	0x3f766f52	0.9626361
40	0x3f813feb	1.0097631
41	0x3f76f76a	0.96471274
42	0x3f773b91	0.96575266
43	0x3f8045a7	1.0021256
44	0x3f747260	0.9548702
45	0x3f7cd0ad	0.98755914
46	0x3f7cdffc	0.98779273
47	0x3f7568ae	0.95862854
48	0x3f8079f6	1.003722
49	0x3f74723b	0.954868
50	0x3f7299c1	0.9476586
51	0x3f7f78fb	0.99793977
52	0x3f79f38d	0.97637254
53	0x3f73731c	0.9509752
54	0x3f7d9200	0.99050903
55	0x3f7e199f	0.99257845
56	0x3f7890c4	0.97095895
57	0x3f7ceee4	0.9880202
58	0x3f719671	0.9437018
59	0x3f71fb5a	0.9452416
60	0x3f7bb36f	0.9832067
61	0x3f72d8f5	0.948623
62	0x3f7c2b7a	0.9850384
63	0x3f731834	0.94958806

classifier.5.bias f4 [64]
0	0xbaed0e3f	-0.0018085911
1	0x3a353e2f	0.0006913868
2	0x3bb8b439	0.0056367186
3	0x3a0790ad	0.00051713997
4	0xbafc12db	-0.0019231694
5	0x3a28369f	0.00064168306
6	0x39d22eeb	0.00040089278
7	0x3ad8ce91	0.0016541054
8	0x3ccd439c	0.025056653
9	0x3b505630	0.0031789653
10	0x3a079776	0.0005172411
11	0xb9e7c266	-0.00044204592
12	0x399d1ed9	0.00029968357
13	0x3c96ffe7	0.01843257
14	0x39185d9b	0.0001453072
15	0x391c7af0	0.00014923117
16	0x3b103cf3	0.0022008985
17	0x3c19dce4	0.009391043
18	0x3aec87fb	0.0018045896
19	0xb95d118f	-0.00021082743
20	0xbac48ed2	-0.0014996177
21	0x389ba8af	7.422396e-05
22	0x39dc314d	0.00041998402
23	0xb85f8a12	-5.329593e-05
24	0xb91c8b41	-0.00014929195
25	0xba4b4be4	-0.0007755144
26	0x3b7d41a7	0.0038643868
27	0xbb49c02a	-0.0030784705
28	0xbab6cda3	-0.0013946783
29	0x3a3729b8	0.00069871126
30	0x3cf332b8	0.02968727
31	0x3a84db09	0.0010136078
32	0xbb6b9a39	-0.0035950078
33	0x3a48b84a	0.0007656856
34	0xba5452b8	-0.0008099484
35	0x3731ae57	1.0590614e-05
36	0x39214e89	0.00015383413
37	0xb9a02144	-0.00030542363
38	0xb9092ad8	-0.00013081299
39	0xba288a99	-0.0006429344
40	0xb86fbca3	-5.7157722e-05
41	0x3b715480	0.0036824048
42	0x3aee48c0	0.001817964
43	0x3c41df66	0.0118330475
44	0xb8ec0d1c	-0.00011255799
45	0x3bb8196c	0.005618265
46	0x38e5f4fe	0.00010965204
47	0x389b1fb8	7.396884e-05
48	0xbaa65e11	-0.0012692829
49	0xbaacef76	-0.0013193924
50	0x39bd83e9	0.0003614717
51	0xb8ef9c1d	-0.000114254864
52	0x38dd84c1	0.000105628285
53	0x380c5794	3.3460165e-05
54	0xb6c457bb	-5.8514684e-06
55	0xbc309860	-0.0107785165
56	0xba7f2005	-0.00097322493
57	0xb985e843	-0.00025540785
58	0x3b464b49	0.0030257276
59	0xbc76a830	-0.015054747
60	0x3aa25f71	0.0012388063
61	0x3b59f969	0.0033260232
62	0xbc1689bf	-0.009188115
63	0xb9ef156e	-0.000456016

classifier.5.running_mean f4 [64]
0	0xbec2b894	-0.38031447
1	0xbeb12f62	-0.34606463
2	0x3e804e21	0.25059608
3	0x3d8ab3cb	0.06772574
4	0x3e996f3c	0.29967678
5	0xbe39342d	-0.1808631
6	0xbdc5bafd	-0.09654806
7	0xbe62f1b4	-0.22162515
8	0xbdb4ac0c	-0.08821878
9	0xbcee8719	-0.029117154
10	0x3c62b4f3	0.013837087
11	0xbc99c827	-0.018772198
12	0xbecda903	-0.40168008
13	0xbe198644	-0.14992625
14	0xbccee5b7	-0.025256021
15	0xbf0deaf9	-0.55436665
16	0xbed881c6	-0.4228651
17	0x3d53a2da	0.05166898
18	0x3bbb141b	0.005709184
19	0xbdd6fd59	-0.10497541
20	0xbea6135a	-0.3243664
21	0x3e2166d8	0.15761888
22	0x3ebecb22	0.37264353
23	0xbe08fe9f	-0.1337838
24	0xbe311e20	-0.17296648
25	0xbe2dc8f5	-0.1697119
26	0x3eacee44	0.33775532
27	0x3eea7d7d	0.45798865
28	0x3d5be8a7	0.05368867
29	0x3e31bc71	0.17357041
30	0x3e660f09	0.22466673
31	0x3c93158c	0.01795461
32	0x3e608b54	0.2192815
33	0xbcb802be	-0.022462245
34	0x3d0353c2	0.0320623
35	0x3d2c2201	0.042024616
36	0x3e41a07a	0.18908873
37	0xbdcff006	-0.10153203
38	0x3c24c313	0.010056275
39	0xbd5bccb2	-0.05366201
40	0xbe1796b6	-0.14803585
41	0xbdee3b95	-0.11632458
42	0xbe2a1b39	-0.16611947
43	0x3d84241b	0.06452199
44	0xbd4e3a78	-0.05034873
45	0x3e2d3642	0.16915229
46	0xbd7ac4fc	-0.061223015
47	0x3cd8310c	0.026390575
48	0x3e74f6cc	0.2392227
49	0xbe78e411	-0.2430575
50	0x3e9ebbbc	0.31002605
51	0x3eba7ee7	0.36424944
52	0xbe31a274	-0.17347127
53	0x3d97ddc4	0.07415345
54	0xbc5f300d	-0.013622296
55	0xbe371ba8	-0.17881644
56	0x3de92239	0.113834806
57	0x3e85887e	0.26080698
58	0x3ded5829	0.11589081
59	0xbe9b9a4c	-0.30391157
60	0xbd66e5dd	-0.05637156
61	0x3e1bc8ca	0.15213314
62	0x3e3022e8	0.17200816
63	0xbdbe65c8	-0.09296757

classifier.5.running_var f4 [64]
0	0x3d90d2ff	0.07071494
1	0x3dc58dc2	0.09646179
2	0x3d31a469	0.043369684
3	0x3deeb8ee	0.11656366
4	0x3e2146a8	0.1574961
5	0x3e4ee7b4	0.20205575
6	0x3dab8c8d	0.08376417
7	0x3dd73a6d	0.10509191
8	0x3e07e78d	0.13271923
9	0x3d6e488e	0.058174662
10	0x3d811a5c	0.06303856
11	0x3d86c810	0.06581128
12	0x3dd7d1f9	0.10538096
13	0x3da7bb41	0.08190013
14	0x3d2ce812	0.042213507
15	0x3dc5a69a	0.09650917
16	0x3d8789ca	0.06618078
17	0x3d8dd17f	0.06924724
18	0x3de5e438	0.1122517
19	0x3dc6652e	0.09687267
20	0x3d4c9526	0.049946927
21	0x3e40c839	0.18826379
22	0x3de9ef05	0.114225425
23	0x3e067a6c	0.13132638
24	0x3daa396c	0.083117336
25	0x3e06a4f8	0.13148868
26	0x3d99b725	0.07505635
27	0x3dc5c055	0.09655825
28	0x3dae35ab	0.0850633
29	0x3e197e05	0.14989479
30	0x3d9b41f2	0.075809374
31	0x3e09f090	0.13470674
32	0x3e0b8cbd	0.13627906
33	0x3db30f95	0.087432064
34	0x3d75603e	0.059906237
35	0x3dbffab8	0.09373993
36	0x3dcbbb20	0.09947801
37	0x3db12573	0.08649721
38	0x3ddb9bbc	0.10723063
39	0x3dc73792	0.09727396
40	0x3d9bf61c	0.07615301
41	0x3e4b8e92	0.19878605
42	0x3e4fa4ee	0.2027776
43	0x3e36d986	0.17856416
44	0x3d729136	0.059220515
45	0x3df88d8f	0.12136375
46	0x3dce8ecf	0.10085832
47	0x3df42f44	0.11923078
48	0x3d7ed8f3	0.062218618
49	0x3e0975e9	0.13423885
50	0x3dda56c0	0.106610775
51	0x3dcf8af2	0.101339236
52	0x3deca47b	0.1155481
53	0x3dc484fd	0.09595678
54	0x3dc4894c	0.095965
55	0x3e3b54db	0.18294089
56	0x3d6e436a	0.05816976
57	0x3dca95d3	0.09891858
58	0x3e424fae	0.18975708
59	0x3dba8fae	0.09109436
60	0x3da888e0	0.08229232
61	0x3d9fff06	0.07812314
62	0x3de8b42a	0.113624886
63	0x3e1325dc	0.14369911

classifier.7.weight f4 [16, 64]
0	0x3b4c68a4	0.00311903
1	0x3d1ec343	0.038760435
2	0xbd2c6edf	-0.042097922
3	0xb809043f	-3.26673e-05
4	0xbb2f0b59	-0.0026709645
5	0x3e040f3b	0.12896435
6	0x3dbfbc6e	0.09362112
7	0x3da8bd67	0.08239251
8	0xbd0a6c29	-0.033794556
9	0xbbbc4958	-0.005746048
10	0x3d5d4de2	0.054029353
11	0xbbedd93e	-0.0072585633
12	0xbd9b0435	-0.07569162
13	0xbb41b9a5	-0.0029560116
14	0x3de9460c	0.113903135
15	0xbc9acb40	-0.018895745
16	0x3c3fad87	0.011699087
17	0x3c268609	0.010163792
18	0x3b00e739	0.001966907
19	0x3d9c805b	0.07641669
20	0xbd003556	-0.031300865
21	0xbbf1dcf7	-0.0073810774
22	0x3c950ebd	0.018195504
23	0xba03a086	-0.0005021173
24	0x3a3e4ebc	0.0007259657
25	0x3d2907d7	0.041267242
26	0xbd71fbd9	-0.05907807
27	0xbd88ebe3	-0.06685617
28	0xbe04cf9e	-0.12969825
29	0x3bd05f5f	0.0063590254
30	0x3c091768	0.008367397
31	0xbd8ef48b	-0.069802366
32	0xbb98d3ce	-0.004663921
33	0xbde0d2f9	-0.1097774
34	0x3d0532a2	0.03251899
35	0x3c0f5d93	0.008750337
36	0xbc8f4840	-0.017490506
37	0xbcce7391	-0.02520159
38	0x3d149467	0.03627434
39	0xbde234ec	-0.1104525
40	0xbda28ce3	-0.07937028
41	0xbc859ffc	-0.016311638
42	0x3db6b868	0.089218915
43	0x3d1f7383	0.03892852
44	0xbcdd557b	-0.0270183
45	0x3d1e775b	0.038688045
46	0x3d16000c	0.03662114
47	0x3d1c5e2f	0.038175758
48	0x3d012027	0.031524803
49	0xbb5bff75	-0.0033569012
50	0x3d921fe8	0.07134992
51	0x3d3e64bb	0.046482783
52	0xbd54d090	-0.051956713
53	0xbdbdb499	-0.09262962
54	0xbd64cbb5	-0.055858333
55	0xbd0228ff	-0.03177738
56	0x3d32195a	0.04348121
57	0xbd2ce617	-0.04221162
58	0x3ad53255	0.001626561
59	0xbdb66649	-0.08906228
60	0x3e02ee4d	0.12786217
61	0x3d586f50	0.05284053
62	0xbc8da294	-0.017289437
63	0x3d0a70ce	0.033798985
64	0x3db0c561	0.08631397
65	0xbd986648	-0.074413836
66	0xbccbacff	-0.024862764
67	0x3cbeb424	0.023279257
68	0xbd17e417	-0.037082758
69	0xbde48cb4	-0.111596495
70	0xbd7e7655	-0.06212457
71	0x3c837be5	0.016050288
72	0x3d899b68	0.067190945
73	0x3dc027e7	0.09382611
74	0xbcb21097	-0.021736426
75	0x3a55bfa5	0.00081538624
76	0xbdd4d97c	-0.10393044
77	0x3de40452	0.111336365
78	0x3d72c3ea	0.05926887
79	0xbcd58cd2	-0.026068125
80	0x3dd034ae	0.10166298
81	0xbdcc4dad	-0.09975753
82	0xbd268d9d	-0.040662397
83	0x3d50e131	0.05099601
84	0xbdf432c1	-0.11923743
85	0xbd8a9ad3	-0.067678116
86	0xbd042621	-0.032262925
87	0x3dd8e66f	0.10590827
88	0x3d1c5f72	0.03817696
89	0x3bf2d3e9	0.0074105156
90	0xbce879a0	-0.028378308
91	0x3d10570e	0.03523927
92	0x3db221ba	0.08697839
93	0xbd6274d7	-0.05528721
94	0xbd92de6f	-0.07171332
95	0xbd10ee09	-0.035383258
96	0x3d9600d6	0.07324378
97	0x3d0149ae	0.031564407
98	0x3d50d73e	0.05098652
99	0x3ddcbe26	0.107784554
100	0x3dcd21e4	0.1001623
101	0x3c0f1fbf	0.008735596
102	0xbc73dd3a	-0.0148842875
103	0xbd877a17	-0.06615084
104	0xbb47399c	-0.0030399328
105	0xbdd1ddce	-0.10247384
106	0xbd2b386d	-0.04180186
107	0xbdfa09da	-0.1220891
108	0x3df28993	0.118426464
109	0x3d131a94	0.03591402
110	0xbca991fd	-0.020699495
111	0xbde7d1c1	-0.11319304
112	0xb9305ec4	-0.00016819971
113	0xbdac86b2	-0.084241286
114	0xbbbe2512	-0.005802759
115	0xbd0745e1	-0.033025626
116	0x3d719cc6	0.0589874
117	0x3c4203c0	0.011841714
118	0x3d0fca28	0.0351049
119	0x3cf62d1c	0.030050807
120	0xbd94bd39	-0.07262654
121	0xbd805230	-0.06265676
122	0x3db0b444	0.08628133
123	0xbd9729ec	-0.07381043
124	0xbcad72d3	-0.021172917
125	0xbd69f1ba	-0.057115294
126	0xbdfd1521	-0.12357546
127	0x3d43b8c3	0.047783624
128	0xbdde7008	-0.10861212
129	0x3d85b9a9	0.065295525
130	0x3d76a081	0.060211662
131	0xbda7ecd0	-0.08199465
132	0xbcbbf9ab	-0.0229462
133	0xbd862623	-0.06550243
134	0x3be1fc13	0.0068965047
135	0x3d9b6537	0.075876646
136	0x3da72cc9	0.08162839
137	0x3cc32adc	0.023824148
138	0xbdc49290	-0.09598267
139	0xbc940a25	-0.018071244
140	0x3ae96e14	0.0017809295
141	0xbac2e46c	-0.00148691
142	0x3e0a7a23	0.13523154
143	0xbdcf41a6	-0.10119943
144	0x3d958869	0.07301409
145	0xbb44fdd3	-0.0030058518
146	0x3dde1855	0.10844485
147	0xbd94abc6	-0.07259326
148	0xbb991bd5	-0.0046725073
149	0xbdd83a4c	-0.10557994
150	0x3dc76cbe	0.09737538
151	0x3d87b330	0.06625974
152	0xbd37c2a9	-0.044863377
153	0x3c90e633	0.017687893
154	0xbda278b3	-0.07933178
155	0x3d640d3e	0.05567669
156	0xbd802b7b	-0.06258293
157	0xbc9fab66	-0.019490909
158	0x3db4bc10	0.088249326
159	0x3d801489	0.06253917
160	0xbdb6579a	-0.089034274
161	0x3cc36e39	0.02385627
162	0x3dd1cd72	0.10244264
163	0xbcdd531f	-0.027017174
164	0x3cd72272	0.026261542
165	0xbdb66b6c	-0.08907208
166	0x3dba4986	0.09096055
167	0x3b353a96	0.0027653328
168	0xbcb5adc2	-0.02217758
169	0x3c6ad723	0.014333519
170	0x3dcd883e	0.10035752
171	0x3d80a7ee	0.0628203
172	0x3d22ab6d	0.039714266
173	0xbd8590ae	-0.06521736
174	0x3d340b18	0.043955892
175	0xbcb104ad	-0.021608675
176	0xbd936abd	-0.07198093
177	0x3d70a460	0.05875051
178	0x3e05feb8	0.13085449
179	0x3d2d17b6	0.04225894
180	0x3ce15293	0.027505195
181	0x3ab924ba	0.0014125325
182	0xbc0ca80f	-0.00858499
183	0x3d8ebd0c	0.069696516
184	0x3d1c88a1	0.038216237
185	0xbce8bcdc	-0.028410368
186	0xbcde3d92	-0.027128968
187	0xbd93b2c9	-0.07211835
188	0x3b8a0783	0.0042123212
189	0xbd755a74	-0.059900716
190	0xbda7d8c6	-0.08195643
191	0x3d63338e	0.05546909
192	0x3dbc3201	0.09189225
193	0x3dd7749d	0.10520289
194	0x3dc5420f	0.0963174
195	0x3d8e2590	0.06940758
196	0x3d2ff0d9	0.0429543
197	0x3d85c3f4	0.06531516
198	0xbd509e7b	-0.05093239
199	0x3d17dfd3	0.03707869
200	0xbc3e6f93	-0.011623281
201	0x3db4b453	0.088234566
202	0xbdc6a0c8	-0.09698635
203	0x3da84360	0.08215976
204	0x3d644643	0.05573107
205	0x3d440b79	0.047862504
206	0x3cb607c8	0.022220507
207	0x3ca48d49	0.020086901
208	0x3dd67f1d	0.10473464
209	0xbd2ac821	-0.041694764
210	0xbd998281	-0.07495595
211	0x3d6ffa9a	0.0585886
212	0x3d63391b	0.055474382
213	0x3a5c1c78	0.0008396576
214	0x3e047ee9	0.12939037
215	0x3d72f4a9	0.059315357
216	0x3df6d4d7	0.12052315
217	0xbd98d781	-0.07462979
218	0x3dfca20b	0.12335595
219	0x3d98ebbd	0.074668385
220	0xbdb287dd	-0.0871732
221	0xbbf92275	-0.0076029846
222	0xbdaac3e1	-0.08338142
223	0xbccc2017	-0.024917645
224	0xbd8d6abf	-0.06905126
225	0xbcc98954	-0.024601616
226	0x3d8dfe65	0.069332875
227	0xbd63b35e	-0.05559098
228	0xbca3e1f4	-0.020005204
229	0x3d176d92	0.03696973
230	0x3bfe63e0	0.007763371
231	0x3d2a0551	0.041508976
232	0x3d1f6bb8	0.038921088
233	0xbdbdd908	-0.09269911
234	0xbdbb7dcc	-0.09154853
235	0xbb6eec68	-0.0036456827
236	0xbd4878d4	-0.048943356
237	0x3e1b61c1	0.15174009
238	0xbd24cbe2	-0.0402335
239	0x3b7d003d	0.0038604878
240	0x3d0b1968	0.033959776
241	0xbd40894d	-0.04700594
242	0xbd43ffd9	-0.047851417
243	0x3b9efe7b	0.004852114
244	0x394dcdd7	0.00019627005
245	0x3baf978e	0.005358643
246	0x3d72d390	0.059283793
247	0x3e165a67	0.14682923
248	0x3dc7a0ce	0.09747468
249	0x3da624c7	0.081124835
250	0x3dcd935a	0.10037871
251	0x3d8037f0	0.06260669
252	0x3de68e1a	0.112575725
253	0x3becc487	0.0072255763
254	0xbb271711	-0.0025495926
255	0x3da1c3b9	0.07898659

classifier.7.bias f4 [16]
0	0x3a96f52d	0.001151716
1	0x3cfda068	0.030960277
2	0x3950125f	0.0001984327
3	0x3c16c016	0.00920107
4	0x3d580d36	0.052746974
5	0xba60b9ba	-0.0008572597
6	0xb8b9e0ee	-8.863384e-05
7	0x3a5828a5	0.00082458026
8	0x39c72fb7	0.00037991788
9	0x38b68f2c	8.705104e-05
10	0xbd148d28	-0.03626743
11	0x39517ada	0.00019977559
12	0xb7e6af86	-2.7499871e-05
13	0xb906d5a5	-0.00012858825
14	0xbc544889	-0.012956747
15	0xbcbd8535	-0.023134807

classifier.8.weight f4 [16]
0	0x3f892ac5	1.0716177
1	0x3f89dfaa	1.0771382
2	0x3f89f87b	1.0778955
3	0x3f88ec41	1.0697099
4	0x3f8a419b	1.0801271
5	0x3f89a0d7	1.075221
6	0x3f8a2810	1.0793476
7	0x3f89a070	1.0752087
8	0x3f898b22	1.0745585
9	0x3f8876a7	1.066121
10	0x3f8882d3	1.0664924
11	0x3f888cd5	1.0667979
12	0x3f895674	1.0729508
13	0x3f89d3bd	1.0767742
14	0x3f8854f6	1.0650928
15	0x3f880eff	1.0629576

classifier.8.bias f4 [16]
0	0x3d9a1ad7	0.075246505
1	0x3d9afa5a	0.07567282
2	0x3d9d32bb	0.07675692
3	0x3d5e3342	0.054248102
4	0x3d9b1de2	0.07574059
5	0x3d9f1d2b	0.07769235
6	0x3da0d4fb	0.07853123
7	0x3d9ef39b	0.07761308
8	0x3d9c466c	0.076306194
9	0x3d82f1c4	0.063937694
10	0x3d827561	0.063700445
11	0x3d8c002c	0.0683597
12	0x3d776be6	0.060405634
13	0x3d9b8f1a	0.07595654
14	0x3d88ff79	0.066893525
15	0x3d81554b	0.063150965

classifier.8.running_mean f4 [16]
0	0x3d1cb923	0.038262498
1	0xbddc8498	-0.10767478
2	0x3e47a1ee	0.19495365
3	0x3f1f51d2	0.6223422
4	0x3e229090	0.15875459
5	0xbd97556a	-0.07389338
6	0xbe87bc7e	-0.26510996
7	0xbc68a73f	-0.014200031
8	0x3c47189d	0.012151864
9	0xbb2e1a36	-0.0026565916
10	0x3e5c16af	0.21493028
11	0x3cad3750	0.02114454
12	0xbd18beff	-0.037291523
13	0x3dba6843	0.091019176
14	0x3d745217	0.0596486
15	0xbdb5cbee	-0.08876787

classifier.8.running_var f4 [16]
0	0x3de8f3db	0.11374637
1	0x3e2c5fa3	0.16833358
2	0x3de7f394	0.11325756
3	0x3e175b3e	0.147809
4	0x3e467ab9	0.19382752
5	0x3e1c93cb	0.15290754
6	0x3e41c0d4	0.18921214
7	0x3e29cc2c	0.16581792
8	0x3e18db06	0.14927301
9	0x3e97a5e7	0.2961876
10	0x3ebe2c00	0.37142944
11	0x3e51fc55	0.20506413
12	0x3e41cba5	0.1892534
13	0x3e915f67	0.283931
14	0x3e53cea7	0.206843
15	0x3e1689a9	0.1470095

classifier.10.weight f4 [10, 16]
0	0x3e3ef5b0	0.1864841
1	0xbe29f108	-0.16595852
2	0xbe387388	-0.18012822
3	0xbc9eb420	-0.019373
4	0xbe743e74	-0.23851949
5	0x3e88b563	0.26700887
6	0x3e57473b	0.21023266
7	0xbe05bc11	-0.13060023
8	0xbe7b7481	-0.24556161
9	0xbe8c690c	-0.27423894
10	0xbd203aea	-0.039118685
11	0xb91e85a9	-0.00015117846
12	0xbde76d13	-0.11300101
13	0x3e483f07	0.19555293
14	0xbe8633c0	-0.26211357
15	0xbdd564cc	-0.10419616
16	0xbd7a691a	-0.06113539
17	0xbe819c0a	-0.2531436
18	0x3e053828	0.13009703
19	0x3e9142c0	0.2837124
20	0xbe1dd052	-0.15411499
21	0xbe9b7d51	-0.30369046
22	0xbe3dac9d	-0.18522878
23	0x3dc8ac77	0.0979852
24	0x3d985151	0.07437385
25	0x3bd334ee	0.0064455187
26	0x3e72a081	0.2369404
27	0xbe9d9453	-0.30777225
28	0x3e05d466	0.13069305
29	0xbdc739f5	-0.09727851
30	0xbe601d77	-0.2188624
31	0x3e65abcf	0.22428821
32	0xbe7faeb9	-0.24968995
33	0xbcae396c	-0.021267615
34	0x3e26ecfa	0.16301337
35	0x3c323db8	0.010878973
36	0x3e772a0d	0.24137135
37	0xbdb32516	-0.08747308
38	0xbe6f59e1	-0.2337413
39	0x3ddd6213	0.10809722
40	0xbd9002fa	-0.07031818
41	0xbdd9f1f8	-0.10641855
42	0xbe9a228e	-0.30104488
43	0x3de3b2eb	0.1111811
44	0x3d784b94	0.060618952
45	0xbd13f1e3	-0.036119353
46	0x3e071eda	0.13195363
47	0xbe889e87	-0.26683447
48	0x3e20c09f	0.15698479
49	0xbe87d5bb	-0.2653025
50	0xbdc9686e	-0.098343715
51	0x3d642c9f	0.055706616
52	0x3d0067a4	0.03134884
53	0xbe32c2cb	-0.1745712
54	0xbe6eae70	-0.2330873
55	0xbe8abae3	-0.27095708
56	0x3e9a1d41	0.30100444
57	0xbc9635e7	-0.01833625
58	0xbde86335	-0.11347047
59	0xbc5872ba	-0.013210947
60	0xbdbb0965	-0.09132651
61	0x3e2b4213	0.16724424
62	0x3e9a3dac	0.30125177
63	0x3e5cc9f6	0.21561417
64	0x3e381ad4	0.17978984
65	0x3e81c3dd	0.25344744
66	0xbe615fa2	-0.22009137
67	0x3e868164	0.26270592
68	0xbde85e18	-0.11346072
69	0xbe50f443	-0.20405678
70	0xbd8f817a	-0.070071176
71	0xbe4adf7d	-0.19811817
72	0x3ce39e2b	0.027785381
73	0xbd302760	-0.0430063
74	0xbe906c69	-0.2820771
75	0x3dcdd67b	0.100506745
76	0xbe588e3c	-0.21148008
77	0xbd1b2147	-0.037873533
78	0x3d74415d	0.059632648
79	0x3e9fd86a	0.31219798
80	0x3e2be09b	0.16784899
81	0xbd2f861c	-0.042852506
82	0x3e743dba	0.23851672
83	0x3e1b8e5c	0.15191025
84	0xbded24e6	-0.115793034
85	0xbe492f19	-0.19646873
86	0xbddc207a	-0.10748382
87	0xbe9d9561	-0.3077803
88	0xbdc2f683	-0.09519675
89	0x3e908d1d	0.2823266
90	0x3e7987d5	0.24368222
91	0x3e28acb4	0.16472131
92	0xbe1b6421	-0.15174915
93	0xbdc185e0	-0.09449363
94	0xbe42f6c6	-0.19039449
95	0xbe1dd2ca	-0.15412441
96	0xbe4cd702	-0.20003894
97	0x3e69742c	0.22798222
98	0xbe5e1d25	-0.21690805
99	0xbe8b55f5	-0.27214018
100	0xbd83dc87	-0.06438547
101	0x3e3ac2c6	0.18238363
102	0xbe126ca1	-0.14299251
103	0x3e305d5d	0.17223115
104	0xbe84a0e3	-0.25903997
105	0xbce3c461	-0.027803602
106	0xbd7ce49f	-0.061741468
107	0x3d521fe7	0.051299956
108	0xbd649a7d	-0.055811394
109	0xbe7d0763	-0.24709849
110	0xbe221113	-0.15826826
111	0xbdb44429	-0.08802063
112	0x3e267bf4	0.16258222
113	0xbc5182de	-0.012787549
114	0xbdf5e36b	-0.12006267
115	0xbe03f850	-0.12887692
116	0xbe6c505d	-0.23077531
117	0xbe831ccc	-0.25607908
118	0xbe736ec6	-0.23772725
119	0xbe5b9fe8	-0.21447718
120	0xbe912b17	-0.28353187
121	0x3e350caa	0.17680612
122	0x3e40fca2	0.18846372
123	0x3e95c466	0.29251403
124	0xbd33c287	-0.043886688
125	0xbe0a51b6	-0.13507733
126	0xbd82fb1c	-0.063955516
127	0x3c630da2	0.013858231
128	0xbd84c59b	-0.06483003
129	0xbe0dfd05	-0.1386605
130	0xbe8298e0	-0.2550726
131	0xbc9b3778	-0.018947348
132	0xbe9fa917	-0.31183693
133	0xbe3dd543	-0.18538384
134	0x3e686632	0.22695234
135	0x3debe712	0.115186825
136	0x3dd3033b	0.103033505
137	0xbd49dc12	-0.04928214
138	0xbe016e23	-0.1263967
139	0xbc97ee41	-0.018546226
140	0x3e1b87fb	0.15188591
141	0xbd7d33ea	-0.061817087
142	0xbd162162	-0.03665293
143	0xbd867b18	-0.06566447
144	0xbe0b91a7	-0.1362978
145	0xbe3c5cfc	-0.18394846
146	0xbe5ed2d9	-0.2176012
147	0x3dca2f5c	0.09872314
148	0xbe5779ad	-0.2104251
149	0x3e3a877c	0.18215746
150	0xbe7c2544	-0.2462359
151	0xbe21fd98	-0.15819395
152	0x3d84d00f	0.064849965
153	0xbe5fe1cf	-0.21863483
154	0xbe858110	-0.2607503
155	0x3d6348c1	0.055489305
156	0x3e4a1042	0.19732764
157	0x3ea2df83	0.3181115
158	0xbe02d050	-0.12774777
159	0xbe034ae7	-0.12821542

classifier.10.bias f4 [10]
0	0xbda6e3e7	-0.08148938
1	0xbd1159f5	-0.03548618
2	0x3dc102c0	0.09424353
3	0xbe69e0b1	-0.22839619
4	0xbe1d9fda	-0.1539301
5	0xbe406d1d	-0.18791623
6	0x3bc4ba75	0.0060036727
7	0x3e0075c0	0.12544918
8	0x3c72eb5c	0.014826622
9	0x3dbf23ab	0.09332975

exp_avg f4 [32, 784]
0	0x36fb3eb4	7.4876825e-06
1	0xb94d169d	-0.00019558748
2	0x391a3a17	0.00014708225
3	0xb8902ede	-6.875185e-05
4	0xb943341c	-0.00018616061
5	0x38eba765	0.00011236853
6	0x396c846f	0.00022556049
7	0x394ae7d7	0.00019350588
8	0xb7f492f5	-2.9155499e-05
9	0x38265cec	3.9664024e-05
10	0xb7c5351b	-2.350896e-05
11	0xba05383c	-0.0005081927
12	0xb96481b6	-0.00021792096
13	0xba0d5e5e	-0.0005392785
14	0xb92be446	-0.0001639287
15	0xba1b73c1	-0.00059300294
16	0xba3b9f9b	-0.0007157267
17	0x39f927b2	0.00047522556
18	0xb719c620	-9.16564e-06
19	0x392a6357	0.0001624947
20	0x398afae0	0.00026508328
21	0xb97fad08	-0.00024383154
22	0x37140bde	8.8242505e-06
23	0xb8308dff	-4.2093914e-05
24	0xb9407021	-0.00018352318
25	0xb6da1534	-6.4993746e-06
26	0x3921a5d6	0.00015415935
27	0x393d1961	0.00018033899
28	0xb6fd1500	-7.5424323e-06
29	0xb97950f7	-0.00023776652
30	0xb8de8098	-0.000106097374
31	0x383c36f6	4.487388e-05
32	0x3929bbe5	0.00016187092
33	0x3613a83f	2.200264e-06
34	0xb85838b5	-5.1551226e-05
35	0xb99e8247	-0.00030233173
36	0xb9e3bba9	-0.00043436632
37	0xba908412	-0.0011025688
38	0x38a2a667	7.755757e-05
39	0xba91cc8d	-0.0011123583
40	0xba88d455	-0.0010439256
41	0xba1adc84	-0.0005907493
42	0xb9cbf8ce	-0.0003890455
43	0xba388cc7	-0.00070400204
44	0x3a73d0e9	0.00093008444
45	0x393c2ab0	0.0001794498
46	0xb9b2b2a9	-0.00034083918
47	0x38f04152	0.00011456259
48	0x39ee6b1c	0.000454747
49	0x396f498b	0.00022820213
50	0x39474b00	0.00019006059
51	0x39ce9cd7	0.00039408237
52	0x39305e41	0.0001681978
53	0x3912eacc	0.00014011114
54	0x37a5f646	1.9784213e-05
55	0x382112ab	3.8402777e-05
56	0xb92db843	-0.00016567209
57	0x37c72bd5	2.374306e-05
58	0xb8b6e236	-8.720571e-05
59	0x385c29d1	5.2491032e-05
60	0x37f5963b	2.9276232e-05
61	0xb8ae8e7f	-8.3235085e-05
62	0x39d019e7	0.0003969215
63	0x3a12e900	0.0005604178
64	0xb92549d0	-0.00015763124
65	0xb95a0d88	-0.00020795141
66	0xba8d3714	-0.0010773861
67	0xba9e67a4	-0.0012085331
68	0xb9fa169e	-0.00047700567
69	0xba870b88	-0.0010303119
70	0xba5c13ce	-0.0008395285
71	0xba8afb9a	-0.0010603548
72	0xbabe3299	-0.0014510929
73	0xbaa47dc7	-0.0012549692
74	0xb6ddb647	-6.607533e-06
75	0x397c80d8	0.00024080591
76	0xb95b89e3	-0.00020936834
77	0xb9e4fa55	-0.0004367406
78	0xb96660b4	-0.00021970534
79	0xb99983ed	-0.00029280726
80	0x391b9e17	0.00014840845
81	0x39a6817a	0.00031758455
82	0xb92b03cf	-0.0001630925
83	0x39378a29	0.00017503709
84	0xb9973cef	-0.00028846363
85	0x364faa72	3.0944616e-06
86	0x39b07491	0.00033656185
87	0x388450fc	6.309335e-05
88	0xb8cab7c4	-9.6663396e-05
89	0x39cd119c	0.00039113767
90	0x3a0e7790	0.00054346863
91	0x39ddf6c8	0.0004233627
92	0xba31710e	-0.00067688606
93	0xba475b61	-0.0007604864
94	0xba87f34c	-0.0010372191
95	0xba75421e	-0.00093558605
96	0xb99beded	-0.00029741172
97	0xba8b3d8f	-0.0010623204
98	0xba8872ba	-0.0010410168
99	0x3a6cce64	0.000903344
100	0xba9314b3	-0.0011221379
101	0xba17d00a	-0.0005791193
102	0x37a7a43d	1.998443e-05
103	0x39775079	0.00023585734
104	0x38c0ac1c	9.187331e-05
105	0x383e7f9a	4.541837e-05
106	0x39500c8d	0.00019841101
107	0x3a3713da	0.0006983854
108	0xb7fe16d5	-3.0289792e-05
109	0x387efe5d	6.0795213e-05
110	0xb91c4b24	-0.00014905311
111	0x37c8a21a	2.3917342e-05
112	0xb89bf440	-7.436471e-05
113	0x39794b70	0.00023774593
114	0x390c048d	0.00013353136
115	0xb93c0c57	-0.00017933674
116	0xb8fe2a1f	-0.000121195095
117	0x38c19a63	9.231714e-05
118	0x39284437	0.0001604714
119	0x39919968	0.00027770852
120	0xb96a0350	-0.00022317213
121	0xba877c8e	-0.0010336803
122	0xba974c15	-0.001154306
123	0x3538433b	6.8643175e-07
124	0x384eb4bd	4.9282553e-05
125	0xba75616a	-0.0009360524
126	0xb98eb0ca	-0.0002721607
127	0xb8e2b6cf	-0.000108105705
128	0xba5f33a9	-0.0008514473
129	0xb9526820	-0.0002006595
130	0x3994d12c	0.00028384605
131	0xb7c2424d	-2.3157476e-05
132	0xb97381f1	-0.00023222693
133	0x380e6708	3.3951394e-05
134	0x392b8516	0.00016357409
135	0x3a6cc173	0.0009031512
136	0xb9dabf8e	-0.0004172292
137	0x38ae0464	8.2977844e-05
138	0x38f0194c	0.00011448804
139	0x390ca951	0.00013414516
140	0x391c454d	0.00014903136
141	0x391d5f76	0.00015008249
142	0xb8892455	-6.5394364e-05
143	0xb5dfb4e3	-1.666744e-06
144	0x3a7e2c3b	0.0009695922
145	0xb81bd371	-3.71518e-05
146	0xba64494b	-0.0008708431
147	0x38c7725b	9.51036e-05
148	0x3aad654c	0.0013229041
149	0xba04af01	-0.0005061478
150	0xbac6a212	-0.0015154502
151	0x3a5022e4	0.00079397694
152	0xba9a96ee	-0.0011794248
153	0xb9caef23	-0.00038706613
154	0xba124efa	-0.00055812264
155	0xb9f57b7f	-0.00046822053
156	0x3a77edd8	0.0009457744
157	0xba7b2459	-0.00095803064
158	0x39452f60	0.00018805033
159	0xb9c12629	-0.0003684026
160	0x39b8d8b2	0.00035256665
161	0x3abe9730	0.0014540907
162	0x39e21c17	0.00043127008
163	0x3a8d618f	0.0010786521
164	0xb9d8982c	-0.00041312107
165	0x37830214	1.5617385e-05
166	0xb73eaeaf	-1.1365554e-05
167	0x38ff517e	0.00012174527
168	0xb720dadc	-9.5877e-06
169	0xb8363a2d	-4.344636e-05
170	0x3855e9fb	5.100107e-05
171	0x379a4d83	1.8394325e-05
172	0x3907e177	0.00012958595
173	0xb7e3430c	-2.709173e-05
174	0xb8b2255d	-8.494661e-05
175	0xba2c289b	-0.000656733
176	0xba64b67b	-0.00087247015
177	0xba10ddf2	-0.00055262365
178	0xbad3c12b	-0.0016155591
179	0x39886b2f	0.000260198
180	0x3a9448fb	0.0011313254
181	0x3a010c1a	0.0004922763
182	0xba46e0c9	-0.0007586596
183	0x382c5d04	4.1094623e-05
184	0xb9dd96c0	-0.00042264722
185	0x39fb5935	0.00047940915
186	0x393ec5ba	0.00018193471
187	0x3a38d0ca	0.0007050155
188	0x3acdbff8	0.001569747
189	0x3923564e	0.00015577042
190	0x389f75a8	7.603626e-05
191	0x3a2f19d1	0.0006679567
192	0xb796e2a0	-1.7986924e-05
193	0x39e71050	0.00044071907
194	0x395bc3cf	0.00020958412
195	0x38124bc5	3.487968e-05
196	0xb6f253c6	-7.2219145e-06
197	0x38e4085c	0.00010873444
198	0xb89ee2c7	-7.576268e-05
199	0x39013a44	0.00012324104
200	0x39fc9138	0.00048173382
201	0x38abb392	8.187363e-05
202	0x39d52d79	0.00040660406
203	0x39db5406	0.00041833537
204	0x39c0874d	0.000367219
205	0xbaa1af0e	-0.0012335496
206	0xba159622	-0.00057062705
207	0x3a6497c3	0.0008720124
208	0xb9c7042f	-0.00037959355
209	0x39d04d1f	0.0003973031
210	0x3a9b0462	0.0011826868
211	0xba078d95	-0.00051709387
212	0x3a036599	0.00050123926
213	0xbb064c48	-0.0020492245
214	0xba638ab9	-0.0008680034
215	0xbb134109	-0.0022469184
216	0xba8b9d51	-0.0010651742
217	0xb9e9d772	-0.00044601742
218	0x3a450e19	0.00075170543
219	0x3a9c647c	0.0011931802
220	0x39df1d73	0.00042555816
221	0x38edd1ef	0.00011340144
222	0x384707b6	4.745248e-05
223	0xba028add	-0.00049797987
224	0xb861033b	-5.364719e-05
225	0xb98a339e	-0.0002635987
226	0xb97818ed	-0.00023660409
227	0x3ac0b994	0.0014703744
228	0x393190f8	0.0001693404
229	0xb9d60a87	-0.00040825104
230	0x3ae559cc	0.0017498075
231	0x39b557a6	0.00034588313
232	0x3ab5d553	0.001387278
233	0xba902533	-0.0010997414
234	0xba8e88c6	-0.0010874502
235	0xba6a08fa	-0.0008927729
236	0x39f33f04	0.00046395522
237	0x3a9f72b8	0.0012164926
238	0x39d050a7	0.00039732942
239	0x39946593	0.00028304438
240	0x3a295cb3	0.00064606516
241	0xbb046cf3	-0.002020654
242	0xba52dd11	-0.0008043806
243	0xbb019933	-0.0019775152
244	0x3901735e	0.00012345376
245	0x3abccf33	0.0014405012
246	0x39bcd007	0.00036013147
247	0xb936cec5	-0.000174339
248	0x3ab704b1	0.001396319
249	0xb9d5164e	-0.00040643144
250	0x399e8696	0.00030236383
251	0x3918f5f0	0.00014587468
252	0xb98ceb2b	-0.00026878095
253	0x3a63faf0	0.00086967554
254	0xb85bc934	-5.2401054e-05
255	0x3ab5e668	0.001387787
